models/v17.1/model_255500_target.pth (torch, 295191 bytes, 10 tensors)

conv.0.weight f4 [16, 2, 3, 3]
000000 87 b0 09 3e 3d ef 04 3d 4b 88 57 be 43 3c 87 3e
       0.13446246 0.032454718 -0.21048085 0.26413164
000010 8d f3 13 be 33 c3 17 3e ca 79 b4 be 60 bf bf 3e
       -0.14448376 0.14820556 -0.35249168 0.37450695
000020 87 6a a6 3d 57 bf 0c 3b 46 c1 f0 3c 8d f4 e7 bc
       0.08125787 0.0021476352 0.029389035 -0.028314853
000030 9e 55 a3 bd d1 7f c9 3d ef 7c 18 3c 8e 02 3a bc
       -0.079753146 0.09838832 0.00930713 -0.011353148
000040 fd f3 dc 3c ce 00 df bb b9 a8 3e be bb 15 84 3e
       0.026971811 -0.006805516 -0.1861905 0.2579783
000050 77 cb 84 3c 3c 93 71 3e 23 fc 33 be 3c 4a 61 3e
       0.0162103 0.23591322 -0.17576651 0.22000974
000060 ab a4 55 bf d9 3f 07 bf 4c 07 e0 bd d5 a1 82 bf
       -0.8345439 -0.528318 -0.10938892 -1.0205637
000070 60 34 31 3f 40 b9 a2 bf 1d 27 5b 3e ee 80 2b be
       0.6922054 -1.2712784 0.2140164 -0.16748402
000080 33 c8 5d 3e 24 f2 da bc e3 44 6f 3b 04 e6 f0 3d
       0.21658401 -0.02672679 0.0036509566 0.11762622
000090 4e 44 a7 3c 08 ad 66 3e 20 c9 d5 3d ad 34 94 bd
       0.020418312 0.22526944 0.10438752 -0.072366096
0000a0 f8 a3 91 3e 8c 74 a3 bd 87 af 8d 3e 31 83 1e 3e
       0.2844541 -0.07981214 0.2767298 0.15479733
0000b0 40 2a be 3d 39 7a 8b 3d 07 f4 11 3e 0d 3c 9f 3c
       0.09285402 0.068104215 0.14253245 0.019437814
0000c0 e2 7c 56 3e be e3 2a bd a6 50 b8 bf b1 a5 2f bd
       0.20946077 -0.041721098 -1.4399612 -0.042882625
0000d0 6b b5 9f be 55 1b 60 3d 53 2e ad 3b 3f 8d 93 3d
       -0.31193098 0.054713566 0.0052850633 0.07204675
0000e0 c4 ac 57 3d bc 47 07 3e 12 af 0c 3e f9 c9 36 bf
       0.052654997 0.13210958 0.13738659 -0.71401936
0000f0 c9 e1 cc be d9 67 bf be fc 74 43 3e 51 5d 71 bd
       -0.4001601 -0.37383917 0.19087595 -0.058926884
000100 48 75 aa 3c b2 68 aa bc 54 12 aa 3e 9f cc ad bd
       0.020807877 -0.020801876 0.33217108 -0.08486294
000110 05 9d 7a bf 20 26 87 be 6b 70 c1 3e 45 6f 05 3e
       -0.9789584 -0.26396275 0.3778108 0.13030727
000120 a8 46 7b 3e 99 d9 d1 bd df 3b 1d be ca d1 95 bf
       0.24538672 -0.102465816 -0.1535487 -1.1704648
000130 9c 02 1f be 87 e3 00 3e cb 68 3f 3d 05 ce 02 3f
       -0.15528339 0.12586795 0.046730798 0.5109561
000140 d8 d9 8f bf 50 7b a3 be fa 25 80 3e 88 06 e6 be
       -1.1238356 -0.31930017 0.25028974 -0.44926858
000150 e3 d6 5f 3e d7 bf 27 bc 60 7b 40 3e 16 0d 04 3d
       0.21859317 -0.010238609 0.18797064 0.032239042
000160 57 ac 78 bd 93 38 45 3c 8b c8 20 bd ba 0d 2d be
       -0.06071123 0.012037414 -0.039253753 -0.16899768
000170 1f 0e e9 3e d9 28 8a 3e d8 e9 d7 bd e8 57 da bd
       0.45518586 0.2698429 -0.10542649 -0.10661298
000180 9e fb 28 3f 90 b5 da be 47 b5 c3 3e bd 78 87 be
       0.6600894 -0.42716646 0.3822424 -0.26459303
000190 a6 4e 9f bd ce e6 a9 3d 5e 01 34 3d 68 6d c9 be
       -0.07778673 0.082959756 0.043946616 -0.39341283
0001a0 2e 59 9d bd 29 75 99 bc 48 df f8 bd 1b 05 9d be
       -0.07683025 -0.018732624 -0.121519625 -0.30667958
0001b0 1c 66 76 bf a8 2d b6 bd 2f ac ac 3e 0a 0b 55 3e
       -0.96249557 -0.08895427 0.33725116 0.20804992
0001c0 9a f4 a3 3d a9 f4 93 bf b9 22 a2 be 84 5d 13 3e
       0.080056384 -1.1559039 -0.31667116 0.14391142
0001d0 75 06 5d be 89 41 a6 bd 6c c8 1e bd 44 ad ec bd
       -0.21584494 -0.081179686 -0.038765356 -0.11556485
0001e0 ea 6f d0 3d 79 2d 14 bc cb a3 47 3d d3 17 3f bf
       0.10177596 -0.009044045 0.04874019 -0.7464573
0001f0 a4 9a f4 bd f3 a8 1a be d8 9e 71 3e 46 45 5c be
       -0.11943558 -0.15103512 0.2359575 -0.215108
000200 fd 6d 09 3f 81 60 e0 bd 40 f3 86 3e cd 2e 04 3e
       0.53683454 -0.10955907 0.2635746 0.12908478
000210 c8 21 5a 3d 93 1b c8 3e 79 58 a9 bd e7 33 cc bf
       0.053254873 0.39083537 -0.08268828 -1.5953339
000220 12 3d 41 bf 58 c6 5d bf 92 b9 d2 3d 4d e6 ed 3c
       -0.7548381 -0.86630774 0.10289301 0.02904048
000230 52 73 bc bd 5b 8d 2f be ea 42 0a 3e 6f 08 40 3a
       -0.09201683 -0.17143767 0.13502088 0.00073254755
000240 35 ca 7f bc 99 4b e7 3d 45 dd 54 3d 32 e7 be 3e
       -0.015612175 0.11293716 0.05196883 0.37285763
000250 92 1b 69 3d 78 38 36 be f7 3f 75 3e ac e4 d5 be
       0.05691106 -0.17794979 0.23950182 -0.41776025
000260 f0 10 07 3d 39 56 bc be d6 1c 0e 3f aa 3c f7 be
       0.032975137 -0.36784533 0.5551275 -0.4828847
000270 a0 98 54 3d 2f c2 78 3e df 81 9a 3c f9 d7 9d be
       0.051903367 0.24292825 0.018860755 -0.30828837
000280 5b a1 e1 3e 5a d5 18 3d 59 76 05 3d d4 08 1c bd
       0.44068417 0.037312843 0.03258357 -0.038094357
000290 56 bc d7 3d e2 c5 3d 3d c0 85 14 be 76 08 88 3e
       0.10533969 0.046331294 -0.14504147 0.26568955
0002a0 0c 38 9c 3e 6a 64 bd bd 4a 2b 35 be de d2 31 bd
       0.3051151 -0.09247668 -0.17692295 -0.04341399
0002b0 73 05 4f 3e 5c b5 0d be 0d 74 d4 bf c6 cb f7 39
       0.20216922 -0.13838714 -1.6597916 0.00047263334
0002c0 5d 03 a1 bd d1 ac 54 3e ee 72 aa 3e 4e c6 72 be
       -0.078619696 0.20769049 0.3329081 -0.2370846
0002d0 49 3e f3 bd 85 ec 10 3e a6 8d 75 3d 6c 7d e2 bd
       -0.11877114 0.14152725 0.05994954 -0.110590786
0002e0 29 fd 23 3d dc 57 b2 3d 16 25 10 3f ef 88 da be
       0.040036354 0.08708164 0.5630659 -0.42682597
0002f0 84 6a 23 bb ff b5 f6 3d 77 99 9a be 3e a2 fe bd
       -0.0024935314 0.12046432 -0.3019521 -0.12433289
000300 29 c6 54 3f b6 5d 3f bc 4b bf 5f bd 01 8c 25 3e
       0.8311487 -0.011680057 -0.05462579 0.16166689
000310 36 96 73 3d fd f4 13 be 9e 90 27 3e c5 21 29 3e
       0.059469424 -0.14448924 0.16363761 0.16516788
000320 09 2a d9 be 32 91 cb bd ee e5 c0 3d 50 18 66 3e
       -0.42414883 -0.09939803 0.094188556 0.22470212
000330 5d 96 9e bf 70 82 0a be 59 9c 93 bd 0c 2a be bf
       -1.2389637 -0.1352632 -0.07207555 -1.4856582
000340 37 fb 96 be 70 33 96 3e ed 6e 1a 3e 80 99 64 3e
       -0.29488537 0.2933612 0.15081377 0.2232418
000350 04 04 70 be 62 89 00 3e 08 2c 16 3e af d7 82 3c
       -0.23439032 0.12552407 0.14665234 0.015971987
000360 6b d2 21 be 67 33 a5 bc f7 d5 74 3d 2f c4 c3 bd
       -0.15802924 -0.020166112 0.059774365 -0.095589034
000370 3b a7 5c 3b 4e 5e 27 3e bb a5 01 be a5 cd eb 3c
       0.0033669013 0.16344568 -0.12660877 0.028784582
000380 a4 b2 70 be e1 df f3 3d 53 6b 62 3e 9d ed e9 3c
       -0.23505646 0.11907936 0.22111253 0.028555686
000390 0c fd cd bc 38 69 71 bf 23 ac 07 be e4 83 84 3d
       -0.025145076 -0.94301176 -0.13249259 0.06470469
0003a0 10 be ad 3d 3c 01 72 3e 0c fb 76 3e 3c c7 6d 3d
       0.08483517 0.23633283 0.24119204 0.058051333
0003b0 64 13 34 3d 23 3d 31 3c ae 06 bc bf e2 10 28 bd
       0.043963805 0.010817799 -1.4689538 -0.041031726
0003c0 1a b7 16 bc b6 ef 42 be 80 6c a5 3d f4 19 3e 3e
       -0.009198928 -0.19036755 0.08077335 0.18564588
0003d0 08 12 b9 bf db 85 42 be 07 0b fe bd fa d2 80 3d
       -1.4458628 -0.18996374 -0.12404447 0.062902406
0003e0 7c f3 2b be 16 59 70 3e 81 be 8e be fb 44 08 bd
       -0.167921 0.23471484 -0.27879718 -0.03326891
0003f0 83 f2 dc 3d 57 b6 9b bf c9 0c d6 3c 12 66 ee bd
       0.10788443 -1.2165021 0.026129143 -0.11640562

conv.0.bias f4 [16]
000000 ba 88 3c bd 87 b2 dc 3d 70 d3 8a bc d0 2e 02 bd
       -0.04602883 0.10776239 -0.016946524 -0.031782925
000010 09 83 5f bd d9 22 cb be e5 05 85 3e c8 54 b8 be
       -0.054568324 -0.39675024 0.2598106 -0.36002183
000020 16 01 79 be 79 93 d4 bd d9 90 08 bf de c2 3f bd
       -0.2431682 -0.10379691 -0.5334602 -0.0468167
000030 95 c6 24 3d b9 0b b5 3d 85 2a 0f be b7 f7 ca 3d
       0.040228445 0.088401265 -0.13981064 0.09910529

conv.2.weight f4 [32, 16, 3, 3]
000000 09 6d 1b 3d a6 e9 fc 3d 7e 76 90 3b ab b2 49 3e
       0.03794578 0.123492524 0.0044086566 0.19697063
000010 40 f6 eb bc 38 51 96 3d 7e d8 86 3e 0c 45 3b 3e
       -0.028803945 0.0733971 0.26337045 0.18288058
000020 10 15 30 be a5 06 85 3e 8c f6 b9 3d 2c b7 1e be
       -0.17195535 0.25981632 0.09080228 -0.15499562
000030 42 80 4e be 33 e7 8c 3d db 7e 11 bd b9 4a df 3d
       -0.20166114 0.06880035 -0.03552137 0.10902924
000040 a5 88 7f 3a 55 14 7e be d4 b1 ba bd 01 4d ff 3d
       0.00097478396 -0.24812444 -0.09115949 0.12465859
000050 85 1a 8d bd 42 0a 02 bf 48 26 93 3e b5 3c a9 bf
       -0.06889824 -0.507969 0.28740144 -1.3221651
000060 df 31 75 bd 0a d9 53 bd d5 53 ed 3d f7 c7 ed 3d
       -0.059862014 -0.051720656 0.11588255 0.11610406
000070 43 73 05 be 0c 16 58 be 67 02 26 3e be c5 ea be
       -0.1303225 -0.2110216 0.16211854 -0.4585399
000080 64 f1 b8 bd 6c dd 3d be 11 2b 44 3e 14 39 0b 3e
       -0.090304166 -0.18541497 0.19157054 0.13595992
000090 3d 1c 09 3e 96 27 4c 3d 5c 54 4f 3e e4 81 ad 3c
       0.13389678 0.04984244 0.20247024 0.0211801
0000a0 5d 0b 88 3d 1e ed 4d be e0 22 54 3e bd b4 17 be
       0.066427924 -0.20109984 0.20716429 -0.1481504
0000b0 56 fe a1 bc d9 25 d0 3d 36 5f 16 3d 2f d8 bf be
       -0.019774597 0.10163469 0.036711894 -0.37469622
0000c0 8c ba c9 3e f4 70 aa be f8 32 85 3c c8 d5 66 3c
       0.39400136 -0.332893 0.016259655 0.014089055
0000d0 9d 14 44 3e 05 15 ea bd 04 72 91 be a4 6c 54 bd
       0.19148488 -0.114297904 -0.284073 -0.05186142
0000e0 a9 fa db be 9c 9e 37 3d 21 3c 8d be 24 d2 07 be
       -0.42964676 0.044828996 -0.27584937 -0.13263756
0000f0 13 0a dc bd 2d b3 2a 3d 99 15 d3 ba ee d4 45 3e
       -0.10744109 0.04167478 -0.0016104459 0.19319507
000100 73 a8 27 be d9 c4 a1 3d 4b 43 18 bd a4 9a 42 be
       -0.16372852 0.07898874 -0.03717355 -0.19004303
000110 05 6a 82 3e 65 be 88 3c 4e 5e a7 be ac 6f 6a bf
       0.2547151 0.01669235 -0.32689136 -0.9157665
000120 5c 01 9b be 06 f8 41 3d c3 8b 01 3f 7b b9 c2 3d
       -0.30274475 0.047355674 0.50603884 0.09508034
000130 90 b3 8e 3d e4 3d 88 3e 81 08 b2 3d d2 90 cf bd
       0.069678426 0.2660972 0.08693028 -0.10135044
000140 14 60 1b be 66 51 17 3e 75 e0 df be 61 60 af 3e
       -0.1517337 0.14777145 -0.43725935 0.3425322
000150 8d f6 50 be f6 f9 9f be f9 d7 d4 bd 61 8e 81 3d
       -0.20406552 -0.31245393 -0.10392756 0.06325985
000160 d3 35 36 3e 8b a7 a1 3e e6 8d 77 3e b9 5c 58 bd
       0.1779397 0.31573138 0.24175224 -0.052822802
000170 32 22 ef 3d 32 51 60 bd 97 e2 5e bd dd d3 f9 be
       0.11676444 -0.054764934 -0.05441531 -0.4879445
000180 ba da b3 3e 18 9f f4 3d e4 ff 6b be b5 71 b0 bd
       0.35127813 0.11944407 -0.23046833 -0.08615438
000190 c4 a3 2c be 71 23 76 be 2f 04 80 be 3c 67 42 be
       -0.16859347 -0.24036957 -0.25003192 -0.18984693
0001a0 b7 54 d5 bd bb 88 1f 3e ce 0d d7 bd 81 98 e6 3c
       -0.10416549 0.15579502 -0.1050068 0.028148891
0001b0 33 e1 f1 bb ec 0b 20 3c 05 54 a0 bc f3 c1 05 be
       -0.007381582 0.009768467 -0.019571314 -0.13062267
0001c0 45 b1 07 bf 5c 47 a3 bd 11 f6 fd 3c a9 cf c4 ba
       -0.53004867 -0.07972595 0.031001123 -0.0015015501
0001d0 6b 3c 10 be e5 52 ae be 65 78 3e bf d9 e6 87 3d
       -0.14085548 -0.34047619 -0.7440246 0.066358276
0001e0 36 a8 87 bc 69 f4 67 be d7 db 42 be 12 2c 42 bf
       -0.016559701 -0.22651829 -0.19029175 -0.75848496
0001f0 78 b9 b1 3d 6e 9e d9 bd 35 17 2d 3e d2 87 69 bd
       0.086779535 -0.10625921 0.16903384 -0.057014294
000200 a1 34 3d 3e 40 05 0f 3e 1a 26 4a be 25 a8 6f be
       0.18477108 0.13966846 -0.19741097 -0.23403986
000210 32 ae 10 3e a7 ee 1d 3d 05 bd 80 3c e0 0b 10 3d
       0.1412895 0.038557675 0.015715132 0.035167575
000220 d0 b9 92 3c 82 9b 99 3d 4c e6 3d 3d 72 b8 32 3e
       0.017910868 0.07500364 0.046362206 0.17453173
000230 59 96 f6 bd 0d 44 0e 3e 70 ef 87 be af b1 9f 3d
       -0.12040395 0.13893147 -0.26549864 0.07797562
000240 3a cf dd 3c e8 44 6c 3e 63 f2 3f bd df db 16 3e
       0.027076352 0.2307316 -0.046862017 0.14732312
000250 75 94 6f be 6c 77 21 be c1 71 40 3d 92 3c e5 3d
       -0.23396476 -0.15768212 0.046983484 0.111931935
000260 5c 14 e1 bc cb 2b 68 3d b3 c6 32 3e c1 6c 8f bb
       -0.027475528 0.05668239 0.1745861 -0.004376978
000270 58 82 46 c0 65 4f ed 3d b2 9a b6 3d d8 28 0b be
       -3.1017056 0.11587409 0.089162245 -0.135898
000280 f9 c3 69 3e 6a 0d 50 bd 3a e8 18 be ca 0f 91 bb
       0.22828664 -0.050794043 -0.14932337 -0.004426931
000290 95 d8 c5 bc 99 26 fa 3d 6b 5a c0 3b 55 ee 03 3e
       -0.024151126 0.12214393 0.0058701537 0.12883885
0002a0 da 13 08 bd bf 24 5a 3e 87 fa 09 bd b7 50 82 be
       -0.033222057 0.2130308 -0.033686187 -0.25452206
0002b0 27 57 8f be 18 cb 9d 3e 70 10 34 be 5f 49 80 3e
       -0.2799618 0.3081901 -0.17584395 0.25055978
0002c0 89 86 4b 3c 07 de e1 be 71 37 84 be f9 25 ad 3e
       0.012422212 -0.44114706 -0.25823548 0.33818033
0002d0 8b 49 89 be 30 46 88 be bc 75 5a bf e0 45 cc be
       -0.2681392 -0.2661605 -0.853359 -0.3989706
0002e0 6e 78 80 3d ce e6 a2 3e 9e f2 0f be c5 2a 62 3c
       0.0627297 0.31816715 -0.14057395 0.013804142
0002f0 77 46 bb bd de 06 f3 bc eb ee 84 be 87 74 e6 3d
       -0.091442995 -0.02966636 -0.2596353 0.112526946
000300 0a a1 24 3e d9 44 7d 3e 44 48 fa be 96 b0 d0 bd
       0.16077057 0.24733295 -0.4888326 -0.10189931
000310 99 71 b5 be a4 4a e6 bd 2d 44 11 3d d2 88 a6 bd
       -0.3543823 -0.11244705 0.035465408 -0.08131565
000320 9f 5b a1 3e f0 08 b2 bd a8 7d 8d be 3b 56 81 bf
       0.31515214 -0.08693111 -0.2763493 -1.010444
000330 86 87 cf 3d 2a 34 00 3e 75 ff e2 3e f6 ef 65 bd
       0.10133271 0.12519899 0.44335523 -0.056137048
000340 1d 96 1b 3d ca 2c 50 be b7 e6 1f 3c 89 99 6f be
       0.037984956 -0.20329586 0.009759597 -0.23398413
000350 6e 47 1a 3d 30 c3 9b 3e 35 d9 9a be 39 62 7f bd
       0.037665777 0.30422354 -0.3024384 -0.06234953
000360 13 ab e2 bd 4e ad 12 3d fb dd d9 bd 48 da be 3e
       -0.11067786 0.035809807 -0.106380425 0.3727591
000370 59 d0 0b 3e a2 4c df be 84 5c 6c 3e 8c 70 72 3e
       0.13653697 -0.43613154 0.23082167 0.23675746
000380 ed ed 52 3e 09 99 90 3e 22 2e 48 bd 1b 7f 60 3c
       0.20598574 0.28241757 -0.04887212 0.013702179
000390 a0 9b 9d 3c 82 d7 3b 3e 70 ac e6 bd 2e a9 e5 3d
       0.019239247 0.18343928 -0.112633586 0.11213909
0003a0 27 b4 0a 3d 69 0b 22 bd 1b a4 0f 3e be 43 91 3e
       0.033863213 -0.039561663 0.14027445 0.28371996
0003b0 20 47 04 bf e4 67 54 be e4 f7 b2 bd e2 94 84 3e
       -0.5167103 -0.20742756 -0.08738688 0.2589484
0003c0 d2 fb 0e bd 3a c2 ab be 4f 6b 96 3e 2e 2f e3 bd
       -0.034908123 -0.3354662 0.29378745 -0.11092983
0003d0 77 84 a5 3e 22 da ee bd 14 69 79 3e f1 52 6a 3d
       0.32327625 -0.11662699 0.2435649 0.057208005
0003e0 1b f0 81 bd dd f2 ca 3d 68 96 c5 3c 57 5b 8f be
       -0.063446246 0.09909604 0.02411957 -0.27999374
0003f0 4b b1 d7 3e 81 47 72 bd 56 d8 5f 3e 98 66 00 3e
       0.4212745 -0.059150223 0.2185987 0.12539136

conv.2.bias f4 [32]
000000 86 05 8e 3e 3f 89 a2 bb 85 b4 b6 be 59 18 ae be
       0.2773859 -0.0049602087 -0.356846 -0.3400295
000010 49 8d 23 3e 94 94 21 be 34 d0 f8 3d cf bf 80 be
       0.15971865 -0.15779334 0.121490866 -0.25146338
000020 66 7f c0 bd 2f 42 28 bd 58 0a d7 3d 36 fb 10 3d
       -0.09399299 -0.041078743 0.1050002 0.035395823
000030 5c e9 29 be 14 ee 2c bd a2 a5 a8 3c 73 57 63 be
       -0.16592926 -0.042219236 0.020586792 -0.22201328
000040 ac 9f 07 3e e0 05 20 bc 84 f0 1e 3d 62 20 bd be
       0.13244504 -0.009767026 0.038803592 -0.3693877
000050 eb b9 9e bd d4 28 82 3e 75 62 04 bf 6a 7d 17 3e
       -0.07750305 0.25421774 -0.51712734 0.14793935
000060 86 6c 6a 3d de 7b 29 3e 23 ef 39 be 6b 71 90 3d
       0.057232402 0.16551158 -0.1815763 0.07052883
000070 20 3b 3d 3d 2b fc 5c bb 51 ec 9c bd 3f 9d a0 bd
       0.046198964 -0.003371964 -0.07662261 -0.07842492

conv.4.weight f4 [64, 32, 5, 5]
000000 86 91 74 3d 8a 7c 42 be 20 14 0a 3a 38 74 26 3e
       0.059709094 -0.1899282 0.0005267281 0.16255271
000010 a0 b0 5b 3d a3 21 7a be 8c 8f 98 3d 42 d0 af 3d
       0.05363524 -0.24426894 0.074492544 0.08584644
000020 29 9c e4 3d b2 95 28 3d 63 54 a7 3d db 2d 22 3c
       0.11162598 0.041158386 0.08170392 0.009898628
000030 c7 bf 69 3d 5b 84 3b be 7f d3 69 bc f7 96 c6 be
       0.05706766 -0.18312208 -0.014271616 -0.38787052
000040 05 b1 1e 3d ac 1b 22 be 5f 28 2a 3f 1a b1 09 bf
       0.038743038 -0.15830868 0.6646785 -0.5378586
000050 49 51 92 3d da 47 16 be bd fa e1 bd 49 fb 63 bb
       0.0714441 -0.14675847 -0.11034153 -0.0034787229
000060 4f a6 35 be 53 99 74 bd 2f 83 00 bf 33 2d 11 3c
       -0.17739223 -0.059716534 -0.5020017 0.008860874
000070 94 0a 96 3e 6a 51 93 be ee 0f 87 be 7c a6 35 3d
       0.29304945 -0.28773052 -0.2637934 0.044348225
000080 15 47 d0 be 23 d9 b3 3d 64 52 49 bd a8 4b c6 3e
       -0.4067923 0.0878165 -0.04915084 0.38729596
000090 7c 2d b4 be d6 e5 14 3e a0 cf e4 3e 31 f2 09 bf
       -0.35190952 0.145408 0.44689655 -0.5388518
0000a0 53 65 13 3e 4e ff 68 3e 87 b3 4e 3d ce 45 2b 3e
       0.14394121 0.22753641 0.05046418 0.16725847
0000b0 39 97 a9 3e 5a 7a 23 be 71 85 e3 bc 1d fc 96 3d
       0.33123186 -0.15964642 -0.02777359 0.073723055
0000c0 b9 b7 41 bd 7d f9 22 3e 0c d5 67 be 2c b4 2b 3d
       -0.047294352 0.15915485 -0.22639865 0.041919872
0000d0 25 0a a6 be 6a 33 bd be 52 8d af 3e 19 01 2f 3e
       -0.32429615 -0.36953288 0.34287506 0.17090262
0000e0 64 4e 8d bd 35 44 95 be 03 22 04 3e 64 a7 a9 bf
       -0.068997175 -0.291536 0.129036 -1.3254209
0000f0 05 5b 2b bf 8c de a5 3e 2e b9 04 bf 6f 58 41 be
       -0.6693576 0.32396352 -0.5184506 -0.18881391
000100 a1 94 cd 3d ec 3b aa 3e 35 26 3c be 39 6c 3e 3f
       0.10038114 0.33248842 -0.1837395 0.74383885
000110 e6 74 b7 3d 9e 8e 65 bd bd bb 9f 3d ec a0 89 3e
       0.089578435 -0.056044213 0.0779948 0.26880586
000120 e9 e6 5a 3e 91 24 8c bd 72 c3 ac bd 71 54 c7 3c
       0.21377148 -0.06842912 -0.08435716 0.024332257
000130 68 dd eb 3c 69 06 60 be 6d 96 a6 3b d0 38 de bd
       0.028792098 -0.21877445 0.00508385 -0.1085068
000140 e2 a3 27 3e 4d e9 47 3e a4 a1 c0 bd f4 64 23 3f
       0.1637111 0.19522591 -0.094058305 0.6382592
000150 38 15 ad bd ec 59 6c be 42 d0 1f be c4 3c 06 bf
       -0.08451313 -0.23081177 -0.15606788 -0.5243647
000160 e7 39 1d 3d 1f 2b 38 3f ce 1a 36 bd 4e 1b 21 3e
       0.038385298 0.719408 -0.044459157 0.15733072
000170 69 49 7f be 2b 0f fc be 97 6f f1 bc 17 69 e7 3e
       -0.24930348 -0.49230322 -0.029472155 0.45197365
000180 63 e7 42 3e 5a 6d 20 be 5e 5e ee 3e e6 8e 90 be
       0.1903358 -0.15666714 0.4655637 -0.28234023
000190 6d e0 09 3e 7f 62 e6 bd 15 a5 c3 bd dd 6a 30 be
       0.13464518 -0.112492554 -0.09552971 -0.17228265
0001a0 10 df 28 be c7 ad 42 3e 43 ec 18 3e 6a c4 12 3e
       -0.16491342 0.19011603 0.14933877 0.14332739
0001b0 5c ba 6c bd 36 94 21 3e 8b 38 d4 bd e0 e5 b2 3d
       -0.057794914 0.15779194 -0.10362347 0.087352514
0001c0 20 79 93 3e 94 a9 8e 3e 26 42 85 3d 7d f1 a2 be
       0.2880335 0.27863753 0.065067574 -0.31824866
0001d0 88 3b 2a 3d 81 00 eb ba b4 46 b2 3e 12 02 d5 3d
       0.04156068 -0.0017929227 0.34819567 0.104007855
0001e0 8e 8d 5b 3e 38 ab 6c be 82 73 bb 3e c8 d1 80 3d
       0.21440718 -0.2311219 0.36611563 0.062900126
0001f0 1c 8a e5 3e 39 de 4f 3f 6a c7 aa bd fb d6 a0 3d
       0.44831932 0.8119846 -0.083388165 0.07853504
000200 00 ab 97 bc 5c 7a 12 be 9f 0c e9 bd cf cd f9 bd
       -0.018514156 -0.14304489 -0.113793604 -0.12197458
000210 80 f8 b3 3e 0c 99 c6 3d ec 64 82 be 0d cb a4 bd
       0.35150528 0.0969716 -0.25467622 -0.08046541
000220 d8 5f 52 3e 0e 9d 3a be 96 be fb 3e c7 e3 bd 3d
       0.20544374 -0.18223974 0.49168843 0.09271961
000230 a2 3a 5a bf a2 af 1e be 8f a1 a1 3d 90 7a 94 be
       -0.85245717 -0.15496686 0.07892143 -0.28999758
000240 35 46 48 be dc 9f 01 bf 32 61 af bd b9 2c be 3e
       -0.19558032 -0.5063455 -0.085634604 0.37143496
000250 28 85 95 3d 8c aa f0 be d3 35 cc be 60 6f 9d 3e
       0.07300788 -0.47005117 -0.39884815 0.30749035
000260 c1 59 e6 be fd 29 9d 3d ae 73 9d be 82 b7 6b be
       -0.44990352 0.07674024 -0.3075232 -0.23019221
000270 d9 49 db be 03 29 14 be 50 37 93 bd 91 6c dd bd
       -0.4282978 -0.1446877 -0.071882844 -0.10811723
000280 9f 3b 8d bd 2a 82 82 3e 4e 13 c6 be a4 5f 61 3e
       -0.068961374 0.25489932 -0.38686603 0.2200914
000290 e2 d3 87 3f 04 9d 78 3e 5c a2 14 bd fd c3 f6 3d
       1.0611537 0.24278647 -0.03628765 0.120491005
0002a0 51 43 34 bf 44 df c3 3e 4a 21 f3 3d c3 ed c9 be
       -0.70415217 0.38256276 0.11871584 -0.3943921
0002b0 b0 1c b2 bd e2 50 10 be 98 60 cf 3d 36 e2 0d be
       -0.08696878 -0.14093354 0.10125846 -0.13855824
0002c0 c1 fb a1 3e 6f f8 af 3e 8d fb 39 3e ff a6 47 3e
       0.31637385 0.34369227 0.18162365 0.19497298
0002d0 2b 89 03 bf 27 8c 72 3e d1 d3 2c be 64 a0 36 be
       -0.51381177 0.23686276 -0.16877677 -0.17834622
0002e0 b2 4e 09 3f 44 e3 ff be 3b 79 c4 3e 66 a1 0a be
       0.53635705 -0.49978077 0.38373742 -0.13538131
0002f0 ad 6c 67 be 05 a4 0e be d7 84 ba be ca 94 a5 bc
       -0.2260005 -0.13929756 -0.36429474 -0.02021255
000300 7a bf 03 3e d9 7f cc bd 60 82 30 3e 42 71 8c bd
       0.12866011 -0.099853225 0.17237234 -0.0685754
000310 c9 c6 b6 bc d7 7c 57 be 15 9e 1e be c3 ce fe 3d
       -0.022311585 -0.21043716 -0.15489991 0.124417804
000320 61 ab fb b9 90 f2 03 3e 36 e2 c2 be 85 75 09 bf
       -0.00048002138 0.12885499 -0.3806321 -0.53694946
000330 21 85 05 be 3e 34 f4 3e 61 8e 2c 3e 9a e2 f2 bd
       -0.13039066 0.47696108 0.16851188 -0.11859627
000340 1c 38 1b 3d f7 a1 f3 bd 5a aa 83 be f0 04 21 be
       0.037895307 -0.11896127 -0.25715905 -0.1572454
000350 53 0b ea bd d1 e6 94 bd 27 31 7f bc 44 64 5c bd
       -0.11427941 -0.07270587 -0.015575684 -0.05380656
000360 75 22 a2 3d 4a ee 66 3e b1 fc 04 3e fe 6a 35 be
       0.079167284 0.22551838 0.12987019 -0.17716596
000370 c7 03 46 be 93 0b 9e bd ef f6 bd bd ea de b3 3d
       -0.19337378 -0.07717051 -0.092756145 0.08782752
000380 31 83 b7 bd 5a 8e 08 be 93 61 1d be ad e7 92 3d
       -0.0896057 -0.13335553 -0.15369253 0.07173095
000390 be d2 58 bc d2 9a d7 3d 50 4a a5 3d 16 d9 81 3d
       -0.013233839 0.105275765 0.080708146 0.06340234
0003a0 d8 50 ca be 60 50 20 3f 28 7f 27 bc 1b d4 5a be
       -0.39514804 0.6262264 -0.0102231875 -0.21369974
0003b0 70 b8 a0 be 41 d0 88 3e 93 84 39 3c 06 26 b5 3d
       -0.31390715 0.26721385 0.011323112 0.08845143
0003c0 53 3c 2b 3e c7 f0 34 3e cd 0a 02 be 4d f1 50 3e
       0.1672223 0.17669974 -0.12699433 0.20404549
0003d0 32 2c 23 bd f6 f2 a3 3e d1 a5 7a 3e 47 27 0d be
       -0.03983707 0.32021302 0.24477316 -0.13784514
0003e0 d6 d2 2e bd f6 92 46 bc cd 7b 21 bd 0e a9 35 3e
       -0.042681538 -0.012119999 -0.039424706 0.1774027
0003f0 e1 36 20 bf a4 5e f9 bd da de fe 3d cb 0c 38 3e
       -0.6258374 -0.121762544 0.12444849 0.1797363

conv.4.bias f4 [64]
000000 78 f1 b3 be 5a 83 89 be 4a 34 cb bd f2 af 34 bb
       -0.35145164 -0.26858026 -0.09922083 -0.0027570692
000010 fc 87 c6 be aa 9d 8b be 8c 1d 35 bd c3 5a 93 bd
       -0.38775623 -0.27268726 -0.04421763 -0.07195046
000020 1d 68 8c 3e 77 82 21 be a5 17 39 3e 54 4e 47 bd
       0.27423182 -0.15772425 0.18075426 -0.048658684
000030 fe 39 b8 bd 6a a7 2c bd bc 80 8e be 91 54 1f be
       -0.08995436 -0.042151846 -0.27832592 -0.15559603
000040 2c 0c e2 bc 67 09 1b be a4 d3 ac 3d 16 cb 31 be
       -0.027593695 -0.15140305 0.08438805 -0.17362627
000050 14 51 5a 3d 89 77 ae be e8 80 41 bd 2c f8 5e be
       0.05329998 -0.34075573 -0.047242075 -0.21774358
000060 a0 c2 b0 be 81 1b 03 3f fc cf 69 bd 67 12 0f 3d
       -0.34523487 0.5121384 -0.057083115 0.03492966
000070 5c b9 ea bc 03 bf 15 be da 8f 21 bd 2b 70 8a bd
       -0.02865284 -0.14623646 -0.03944383 -0.067596756
000080 7e 6b 61 be 60 05 b4 bd 7b 78 9a bd f2 45 3f 3e
       -0.22013661 -0.08790088 -0.07542511 0.18679026
000090 62 97 40 3e 29 fd 0b bd 39 aa 89 be 38 b2 78 bd
       0.18807748 -0.03417698 -0.26887682 -0.060716838
0000a0 b8 47 e7 3d ae 10 1a be c7 f8 50 bd b5 71 6b be
       0.11292976 -0.15045425 -0.051018503 -0.22992595
0000b0 8a f0 06 be 36 51 27 bd 93 47 fb bd 73 2b e3 3e
       -0.13177696 -0.040848933 -0.12269511 0.44369087
0000c0 3f d1 22 bd ab f0 a9 bc eb 26 8a bd 1a e0 22 3c
       -0.039750334 -0.020744642 -0.06745704 0.009941125
0000d0 23 14 d1 3e d3 98 c7 3e eb fc 02 be 31 c4 13 3d
       0.40835676 0.38983783 -0.12791793 0.036075775
0000e0 55 be 0f 3e bb 58 8d be e1 16 24 be 4e 87 b6 be
       0.1403745 -0.27606758 -0.16024353 -0.35650104
0000f0 65 cd 14 3f a6 94 32 3d 62 65 a7 be a3 cd b7 3d
       0.5812591 0.043598793 -0.32694536 0.08974769

conv.7.weight f4 [64, 256]
000000 f6 96 59 bd 71 ea 87 bd 1b 9d 3b bd d5 18 d2 3c
       -0.053122483 -0.06636513 -0.045804124 0.025646606
000010 66 87 20 3e 5d 6b aa bd 07 5c cd 3d bc af 25 bd
       0.1567665 -0.08321259 0.100273184 -0.040450796
000020 3a 64 52 be cb 6d 02 bd 16 ea b2 3d c9 45 e8 3c
       -0.20546046 -0.031842988 0.087360546 0.028353589
000030 be ae 7b bd a0 eb ff 3c 10 c8 f9 3b 28 74 23 3d
       -0.061445944 0.031240284 0.0076227263 0.039905697
000040 bd 18 55 3d e0 20 e1 3d ab 9e 05 bd 2b 93 84 bc
       0.052025545 0.109925985 -0.03262202 -0.016183456
000050 fa c7 68 3e b7 3e 05 3e 97 cb 3e 3d 56 4d 10 3e
       0.22732535 0.13012205 0.046580877 0.14092001
000060 10 4e b6 3c 10 60 15 3d 14 03 45 bd 88 81 7a 3c
       0.02225402 0.036468565 -0.04809864 0.015289672
000070 c0 95 d0 3a 7b 38 82 bd d0 7a 93 3d 29 2c f7 3c
       0.001591377 -0.06358429 0.07201159 0.030172424
000080 46 f1 67 3a af ba b0 bd ec 00 2c 3c 97 64 14 be
       0.0008847903 -0.08629357 0.010498267 -0.14491497
000090 03 46 37 be 23 88 44 3d 33 6e 1f bd 85 56 4d be
       -0.17897801 0.047981393 -0.038923454 -0.20052536
0000a0 21 bb 52 be 85 10 b4 3d 7c 14 f1 bd 7d cd 62 3b
       -0.20579197 0.08792213 -0.11771485 0.0034607344
0000b0 54 92 bf 3c 58 9d 86 3c 9e d1 00 3d 10 6f ed bc
       0.023385204 0.01643245 0.031449907 -0.028983623
0000c0 84 6c 6a bd 58 dc c3 3e 46 15 5a bd a4 a4 6f bc
       -0.057232395 0.38254046 -0.053242944 -0.014626656
0000d0 3c 29 5a bd 5e d0 39 3d f8 2d 19 3c 18 ca 11 bd
       -0.05326198 0.04536473 0.009349339 -0.035593122
0000e0 94 10 1d be 75 70 67 3e 42 8a bb bd df 11 f6 3c
       -0.15338355 0.22601493 -0.0915723 0.030037818
0000f0 db 52 d9 3d 39 e4 d0 3d bb 45 5b be 80 07 19 3d
       0.106115066 0.1019978 -0.21413319 0.03736067
000100 e0 63 55 bd 9c 5e b5 bc 40 83 a9 ba d6 e8 1f 3d
       -0.0520972 -0.02213984 -0.0012932792 0.03904041
000110 35 13 99 3a 96 4a c0 bc af 19 42 be de 3f f7 bc
       0.0011678698 -0.023473065 -0.1895511 -0.030181821
000120 79 11 89 3d 99 4d a8 3c c4 78 a2 bd ad 68 65 3d
       0.06692786 0.020544814 -0.079331905 0.05600803
000130 44 ea c6 bd 71 49 8f bd 69 08 ed bd c8 a6 b8 bd
       -0.09712651 -0.0699643 -0.1157387 -0.09016186
000140 79 f5 ec 3d d0 17 d6 bc 1a 75 cd bc e8 1f ba bd
       0.11570258 -0.026134402 -0.025080252 -0.09088117
000150 f9 5a cc 3d 95 a6 3f 3d d0 95 1b 3e 06 c1 d3 bb
       0.09978289 0.046789724 0.15193868 -0.006462219
000160 32 44 5c bd 28 f9 8c 3c 80 f7 2b 3b 58 59 5e bd
       -0.053775974 0.01720865 0.002624005 -0.054284424
000170 4e 4e 4e 3e e4 f8 62 3e 3e a2 aa 3d 09 a9 e1 bb
       0.20147058 0.22165257 0.083317265 -0.0068866056
000180 0f f6 af bc 69 1a 5d 3c e3 88 c3 3d 97 05 4b 3d
       -0.021479635 0.013495066 0.095475934 0.049565878
000190 6a bf cb bd 01 33 5c be 65 a9 b7 bd f4 14 a4 bb
       -0.09948619 -0.21503831 -0.08967856 -0.0050073806
0001a0 b8 70 b4 3c 4e f9 76 3d f8 cf c8 3c 28 b5 33 bc
       0.022026405 0.06029635 0.02451323 -0.010968484
0001b0 79 57 66 3e 60 26 b9 3d b6 7c 3d be bd 41 a1 3d
       0.22494306 0.090405226 -0.18504605 0.07873867
0001c0 5a f9 34 3d 50 ac 56 3c 80 a9 81 3a 44 88 a3 3c
       0.044183113 0.013102606 0.0009892434 0.019962437
0001d0 08 08 f3 bc d7 79 a1 bd 3f 89 aa bc 39 d3 9a 3c
       -0.029666916 -0.07884567 -0.020817397 0.018899547
0001e0 80 3d 58 bb 60 13 4a 3b 00 df 30 3d cc ff ab bc
       -0.0032995641 0.0030834302 0.04318142 -0.020995997
0001f0 d7 89 0a 3e 79 98 1b be 3d f4 c3 bd 70 7b 9d bd
       0.13529144 -0.15194882 -0.09568069 -0.076895595
000200 2b 50 c3 3d 21 8c ac 3d 7a 28 a6 3d 94 7e 70 3e
       0.09536775 0.08425165 0.08113189 0.23485786
000210 8d 7d cf 3c 97 40 27 3e 37 be 19 3d 73 42 f2 3d
       0.025328422 0.16333233 0.03753492 0.118290804
000220 ae db f1 3c af d8 1a bd 29 b0 36 3e ac e8 fb bd
       0.029523697 -0.0378043 0.17840637 -0.12300238
000230 a2 a3 df bc 81 54 6c be 17 2d 8e be e1 31 a5 3c
       -0.027299706 -0.2307911 -0.27768776 0.020165386
000240 43 16 d8 3d e3 67 f9 bd 59 d2 aa be a1 bd ba bc
       0.10551121 -0.12178018 -0.33363608 -0.0227955
000250 37 04 c6 bc c4 86 36 ba ca 02 8c 3d 55 87 45 bb
       -0.024171932 -0.00069628307 0.068364695 -0.0030140479
000260 d4 b9 d2 bb d4 99 7f 3e c0 7c 17 3c a6 9e af bd
       -0.006430844 0.24961025 0.009246051 -0.08575182
000270 de a6 2c bd b6 3d 17 bd 64 18 cf 3c 80 bf 22 3b
       -0.042151324 -0.036924087 0.025280185 0.0024833381
000280 c5 86 dc 3d a8 59 20 be e3 ae bb bd 39 c4 b7 bd
       0.10767893 -0.15659201 -0.09164216 -0.089729734
000290 ac 23 d4 bd 57 78 74 3c 9d 97 eb 3d f8 b8 3f 3d
       -0.10358366 0.014921269 0.11503527 0.04680726
0002a0 a0 83 ba 3b ee 17 23 3d 10 90 8d 3b f8 fd 06 3c
       0.0056919605 0.039817743 0.004320152 0.008239262
0002b0 3e 42 1d bd 8d a6 ef 3d ec 73 6a bd fc 46 68 3d
       -0.03839325 0.11701689 -0.057239458 0.05670832
0002c0 a2 b8 04 be e6 ec b4 bd f3 28 0d be de 31 c3 bd
       -0.12961057 -0.08834247 -0.13785152 -0.09530996
0002d0 42 b3 5a 3d d2 d2 79 3d 24 ae be 3c 20 3d 05 bd
       0.05339361 0.06099207 0.023276396 -0.032528996
0002e0 de c2 07 be 5c 20 26 3e 59 61 0b 3e 0d 0c ac 3d
       -0.1325793 0.16223282 0.13611354 0.08400736
0002f0 30 92 14 be 25 d1 84 bd 5b 26 12 bd ea 38 f7 bb
       -0.14508891 -0.06485204 -0.03568111 -0.0075446265
000300 30 f9 0c 3d 92 31 15 3d 80 6d 20 bd 10 e3 d2 bb
       0.03441733 0.036424227 -0.039166927 -0.0064357594
000310 14 68 18 3d f4 86 bf bc 3c 06 40 bd c0 53 1f 3c
       0.03720863 -0.02337978 -0.046880946 0.009724557
000320 b6 65 11 3e b3 ac 0d ba 24 78 e5 3d b4 ab a1 bc
       0.14198956 -0.00054044573 0.11204556 -0.019735195
000330 6e 35 7e bd 04 cf fd bc ca 11 06 3d 14 40 6d 3d
       -0.062062673 -0.030982502 0.03273181 0.057922438
000340 50 2f 5b 3d 9b 63 01 be 22 c7 fc 3d c3 42 5c bd
       0.053511918 -0.12635653 0.12342669 -0.053774606
000350 9f 88 1a 3e 2a f7 aa bd 04 2b 8c 3b 04 38 ae 3d
       0.1509118 -0.08347924 0.004277589 0.08506778
000360 83 13 6c bd 80 e4 8c bd 61 02 62 3d d7 4f e6 bd
       -0.057635795 -0.068795204 0.05517805 -0.11245697
000370 df 15 96 3c 55 18 2d bd 1b eb 61 be 27 10 27 3d
       0.018320976 -0.042259533 -0.22062342 0.04078689
000380 87 d3 43 bd 05 fb 56 3e 15 8f 40 bd ef a5 90 bd
       -0.04780915 0.20994194 -0.047011454 -0.07062899
000390 f8 2a 72 bd e4 a7 8e bd 2d 8c 23 3e f9 64 99 3e
       -0.05912301 -0.06965616 0.15971442 0.2995985
0003a0 51 d4 43 bd 9f 28 8f 3d 42 b3 b0 3d 8a 6b bc bd
       -0.047809903 0.0699017 0.08627941 -0.09200199
0003b0 c8 aa 3e bd 42 a8 12 3e 3c 4d a8 3d 8d 5e c2 bd
       -0.04654959 0.14321998 0.08217856 -0.094906904
0003c0 e0 51 31 bc c5 c2 fe 3d 74 f6 22 bc 62 e8 eb bd
       -0.010822743 0.12439493 -0.009946454 -0.11518933
0003d0 d8 1c 07 3e 10 ec 3b 3d 4a ad 08 be 88 ab f2 bc
       0.13194597 0.045879424 -0.13347355 -0.029622808
0003e0 65 24 f3 bd 07 38 4d bc 97 15 d7 3a a6 19 a1 3d
       -0.11872176 -0.012525565 0.0016409633 0.0786622
0003f0 3a c0 a0 be f7 53 8e 3b cb d1 c5 3c c3 7d 63 be
       -0.31396657 0.0043435055 0.024147889 -0.22215943

conv.7.bias f4 [64]
000000 3c bc 8e bd 5b e3 1c 3f dc b6 e0 3e 16 eb df 3e
       -0.069694966 0.61284417 0.4388951 0.43734044
000010 c2 1b 4e 3f b6 bf 39 3f 8f e7 7b be df 02 d8 3e
       0.80511105 0.7255815 -0.24600051 0.4218969
000020 07 67 b8 bc 1a e1 b8 3e 0f b7 b9 be 21 9d 8c 3e
       -0.022510065 0.3610924 -0.36272475 0.2746363
000030 74 4d 2b 3f ed a7 2a 3f 1a bf 4c 3f 1d 72 23 bf
       0.6691506 0.66662484 0.799791 -0.63846
000040 5e f9 c8 3e 09 11 fc 3e cd db 89 3f 22 27 9b 3e
       0.39252752 0.49231747 1.0770203 0.30303293
000050 3d 28 62 3e 59 1e 26 3e 9f a7 0f 3f 0f db 0f 3f
       0.22085662 0.16222514 0.56115144 0.5619363
000060 28 18 14 3e fd fe 1e 3d e8 db 9e be 1e de 64 3e
       0.1446234 0.038817395 -0.3102715 0.22350356
000070 8c 1d 8f 3e e4 d8 b0 3d 37 66 e3 3e fe 53 33 3c
       0.2795223 0.086351186 0.4441392 0.010945318
000080 c3 49 99 be 06 a9 db 3e f1 7a d6 bc 6d b6 a5 bd
       -0.29939088 0.42902392 -0.02618167 -0.080914356
000090 8b d2 d5 3d 36 aa 8b be b7 ce fc bd fa 85 a5 3d
       0.104405485 -0.27278298 -0.12344115 0.080821946
0000a0 bf 1c 28 3e 9b fb 0e 3e d5 30 81 ba bd f8 35 3e
       0.16417216 0.13963167 -0.0009856472 0.17770667
0000b0 75 3f ea 3e 21 25 04 3e 4b 69 35 3f 01 a2 69 3e
       0.4575154 0.12904789 0.7086379 0.22815706
0000c0 79 e2 4b 3e 27 57 ad 3e ce ce a5 be 12 0d 06 3e
       0.19910611 0.33855554 -0.32384342 0.13090923
0000d0 db 7a 84 3e 7e a5 c7 bd af 86 f7 3e df a1 a3 be
       0.2587498 -0.09748362 0.48344943 -0.31959435
0000e0 fb b9 dc 3d 5a 43 8d be c1 bf 4e 3f 80 9a bd 3d
       0.107776605 -0.27590448 0.80761343 0.09257984
0000f0 5f 34 35 3f 1a f0 6a be 42 d3 f0 3e 7b 25 4f 3e
       0.70783037 -0.22943154 0.47036177 0.20229141

out.weight f4 [4, 64]
000000 05 95 5d 3e a5 15 a1 3e ca c1 a1 3c 86 55 9d 3d
       0.21638878 0.31461826 0.019745726 0.07682328
000010 f4 9e 81 3e d1 14 3a 3d 68 c0 c9 bc fe 2a 9c 3d
       0.25316584 0.04543001 -0.02462788 0.076253876
000020 e3 ea 82 3c 22 24 17 3d 32 e5 db 3d 49 34 0c 3e
       0.015981143 0.036899693 0.10737075 0.1369182
000030 42 a1 9f 3d 16 0c 99 bc ba ff 02 bc 73 ef 6b 3c
       0.07794429 -0.01868252 -0.00799554 0.014400351
000040 47 7c 38 bf 77 c3 09 3d 1b 2f f8 3e 2d 04 4f 3c
       -0.7206463 0.033633675 0.4847344 0.012635273
000050 9d df 49 bd 62 68 f3 ba 1b c5 15 3e 11 5e 11 3c
       -0.04928552 -0.0018570537 0.14625971 0.008872525
000060 c9 6a d7 bd ca 06 a0 bc c8 fc 82 3e 3d 25 04 3e
       -0.105184145 -0.019534487 0.25583482 0.1290483
000070 6c 48 99 3d 19 f2 8b bd b2 76 ad 3d ca 58 e6 bd
       0.074845165 -0.06833286 0.08469905 -0.11247404
000080 11 0b 85 bc b5 4d f1 3c 5d a2 09 3e 21 c5 c5 bd
       -0.016240628 0.029455999 0.13440843 -0.0965674
000090 ec 20 c5 3d 3a 14 d3 be ad ec 86 bd b8 4c f3 bd
       0.0962542 -0.4122637 -0.06588111 -0.11879867
0000a0 16 c8 b4 3d aa 19 70 3d 69 8b 25 3e b6 66 1f bd
       0.08827226 0.058618225 0.16166462 -0.038916312
0000b0 5c f6 c6 bf 15 9b d1 bf 58 75 60 bd 22 dd cc bf
       -1.5543933 -1.6375452 -0.054799408 -1.6004984
0000c0 7b 17 4f bf ae bb 35 bc 8d fb 11 3e 90 c4 81 3c
       -0.80895203 -0.01109211 0.14256115 0.015840799
0000d0 1f 26 dd bd d7 db ef 3c c4 4e 4f be eb 22 97 40
       -0.10798287 0.029279632 -0.2024489 4.7230124
0000e0 0c 27 bf 3d d7 fc 92 3d 47 65 ba 3d d5 75 87 be
       0.093336195 0.071771316 0.09101348 -0.26457086
0000f0 8a 48 99 3b 6b a8 94 3c 11 3b 96 3e 95 a5 7b bd
       0.004677837 0.018146714 0.2934194 -0.06143721
000100 9f f1 1b bd 9c d7 c0 3d f9 0a a6 3d 33 5c aa bc
       -0.038072225 0.09416124 0.081075616 -0.020795917
000110 fb 8d a0 3e 34 3a f4 3d f2 d3 15 3e 21 7c ec bd
       0.31358323 0.11925164 0.14631632 -0.11547113
000120 2e 19 38 bf 24 e3 2e 3e 94 b9 86 3d 09 33 fc 3d
       -0.7191342 0.17078835 0.06578365 0.12314422
000130 22 46 cd 3d 50 06 e3 3d 59 91 b5 3d 9d 8c 00 3d
       0.100231424 0.110851884 0.088656135 0.0313841
000140 8a f3 c6 3c 50 ec 2a 3d 70 bf ff 3e b5 3d ae bf
       0.02428605 0.04172927 0.49950743 -1.3612581
000150 54 03 2e be 17 d0 2c 3e 59 df b8 3d 0d 85 8f 3c
       -0.16993457 0.16876255 0.09026975 0.017519498
000160 bd 89 6d bf 8e 19 c5 bc 38 09 62 bc 94 fd 03 3e
       -0.92788297 -0.024060037 -0.013796143 0.12889701
000170 f1 d7 a8 bf 8f 10 5c be ce 8f 79 ba b8 55 b2 3d
       -1.31909 -0.21490692 -0.0009520025 0.08707756
000180 4a 6c 4c bd f4 00 03 3e cf db 83 bd 72 09 98 ba
       -0.04990796 0.12793332 -0.064384095 -0.0011599495
000190 9f f6 19 3d 1d a7 8c bb 3e 00 c7 bd 2a f2 04 bb
       0.03758871 -0.0042923824 -0.09716843 -0.0020285943
0001a0 28 b2 22 bd 6c 87 b7 bd e5 cd 5f bd d4 28 c5 bd
       -0.039720684 -0.089613765 -0.054639716 -0.09626928
0001b0 6c 5f 01 3e ca b7 92 bd 0e ee 2b be e3 50 00 3d
       0.12634057 -0.07163961 -0.1679003 0.03132714
0001c0 a8 b7 da bd a4 00 09 3e e9 20 3d bd 35 40 0b 3e
       -0.10679561 0.1337915 -0.046173964 0.13598712
0001d0 ee 5d 3d 3d 8a 40 47 3b 52 45 3c 3d 4b 15 32 bd
       0.046232156 0.0030403459 0.045964547 -0.043477338
0001e0 6a ae 3e bd dc 01 c7 bd 99 de 6b 3d ec 17 12 3e
       -0.046553053 -0.097171515 0.057585333 0.14266938
0001f0 d1 f3 9b 3d 5e 33 7d bd 2c 2d 43 bd 4b c1 60 bd
       0.07614864 -0.061816566 -0.0476505 -0.05487184
000200 bf 21 f1 3c 29 e6 1a 3d 58 f7 a4 bf 6b 71 e5 bc
       0.029435037 0.037817154 -1.2887983 -0.028008183
000210 a0 fd 2c 3d a3 e4 c5 3c 25 7f 1b be 3f 41 3e bd
       0.042234063 0.024156874 -0.1518522 -0.046448942
000220 bb d8 8b 3d 8f fc dd 3c 99 07 93 bd eb d4 47 3e
       0.068284474 0.027097968 -0.071791835 0.19514816
000230 93 13 ad 3d 9c 0d 83 3d 53 2c 48 3d 60 6a 46 be
       0.08450999 0.0639908 0.048870396 -0.19376516
000240 ba 1d 82 3c c3 d9 3d 3e e7 c2 0c 3f 7c fe be 3d
       0.015883315 0.18540101 0.549849 0.09325883
000250 c0 97 6f 3c 5d af 37 bc ee 8d 2c 3e 9a b5 94 3c
       0.014623582 -0.011211243 0.16851017 0.018153
000260 6d fb b0 bc a9 d1 a5 bf d2 ca 45 bd b6 5b ab bd
       -0.021604264 -1.2954608 -0.048289128 -0.08367102
000270 bb aa cb bd cb cd 01 3e 43 df 59 3e 9f c9 73 3d
       -0.09944674 0.1267616 0.21276574 0.059518453
000280 f5 d1 23 bd 5f c2 e1 3c bb ef ab 3d b7 7d 46 40
       -0.039995153 0.027558504 0.08395334 3.101423
000290 fc a4 33 3d a1 3b 1c 3d c2 44 1f bd 5f 2d 5c bd
       0.043858513 0.038142804 -0.038883932 -0.053754207
0002a0 14 34 09 be c1 c3 08 c0 54 f1 e3 bd e4 37 d5 3c
       -0.13398772 -2.1369479 -0.11130014 0.026027627
0002b0 af e1 06 3b 5a 37 9b 3d 48 f3 48 be 16 23 e1 bd
       0.0020581295 0.07578917 -0.19624054 -0.1099302
0002c0 b8 67 08 bb e8 20 11 c0 2f 3c b3 3e a3 5a 0c be
       -0.0020813774 -2.2676334 0.35006854 -0.1370645
0002d0 f3 30 4e 3d c5 47 c7 bc c4 77 10 3e b5 7b bf bc
       0.05033965 -0.024326215 0.14108187 -0.023374418
0002e0 97 d8 b8 3d c9 fe 74 40 56 b3 89 3e fb 73 7f bd
       0.09025686 3.8280509 0.26894635 -0.062366467
0002f0 8f e8 57 3e 67 48 93 bd c1 be 8b 3c 34 41 b7 bf
       0.21084808 -0.07191544 0.017058732 -1.4316773
000300 5c e8 e7 3d fb c3 15 3d 8a 19 e5 3c 41 2f 9e 3d
       0.11323616 0.036563855 0.02796628 0.07723857
000310 8f b7 26 3e 96 f5 09 3d cf 03 40 bf 8e e7 07 3e
       0.1628096 0.033681475 -0.7500581 0.13271925
000320 0d e6 a1 bd ff f9 14 bc 78 d5 e6 3d 7f ae d4 3d
       -0.07905207 -0.009092807 0.11271185 0.10384845
000330 2d 70 67 3d 3c 10 a8 3d 6f 33 5f 3e 72 01 7d 3c
       0.056503464 0.082062215 0.21796964 0.015442239
000340 33 fc f7 ba db 2b 95 3d 13 e5 00 3f fa f6 cb 3d
       -0.0018919766 0.072837554 0.5034954 0.099592164
000350 dd f2 00 3e b8 48 3a bf d8 57 0b 3e 0e 50 2f 3e
       0.12592645 -0.7276721 0.13607728 0.17120382
000360 04 ce 27 3d 6f 5c d0 bd 58 b2 a8 3c 65 2d ad 3d
       0.040967956 -0.1017388 0.020592853 0.08455924
000370 f6 e9 a6 bd 32 ac 1c bf 22 43 bf bf 49 90 dc bd
       -0.08150093 -0.6120025 -1.4942362 -0.10769708
000380 13 50 7a 40 40 50 0f be 60 3b 64 3a 11 9d e2 bc
       3.9111373 -0.13995457 0.00087063573 -0.027662786
000390 9c 7e 75 3e 46 b6 89 3d 42 ce 8a 3d 1e 59 a0 bf
       0.23974079 0.06724219 0.06777622 -1.2527196
0003a0 61 c4 a9 bf e7 3a e9 bc 31 e0 97 be d2 dc 98 bf
       -1.3263055 -0.02847047 -0.29663232 -1.1942389
0003b0 0c 72 0d 3e c5 05 d3 bd 98 e6 95 be a1 22 8e bd
       0.13813037 -0.10303835 -0.29277492 -0.06940199
0003c0 23 a0 46 3d 52 7c a4 3c a3 21 b9 bc 10 b2 e5 3d
       0.048492562 0.020078812 -0.022599047 0.11215603
0003d0 ff ad fc 3d 06 94 f4 3b 38 0c 8e 3c 1e 22 6f bd
       0.123378746 0.007463935 0.01733981 -0.058382146
0003e0 1a 9d 07 3e 06 2a 08 bd cc ae 09 3e 23 53 93 3a
       0.13243523 -0.0332432 0.13445586 0.0011239987
0003f0 d7 24 1b 3d b8 db 92 3e 3c d0 e2 bb 5c f0 d2 3d
       0.03787693 0.28683257 -0.006921796 0.10299751

out.bias f4 [4]
000000 15 de 5d 3f e1 25 65 3f c0 c3 4a 3f aa 7d 55 3f
       0.86666995 0.89510924 0.7920494 0.83394873
