models/v17.1/model_248000_target.pth (torch, 295191 bytes, 10 tensors)

conv.0.weight f4 [16, 2, 3, 3]
000000 10 e8 03 3e fd a8 36 3d 1b dc 4b be 0d 6b 99 3e
       0.12881494 0.044594754 -0.19908182 0.29964486
000010 a2 de fc bd 0f 8e 15 3e 09 08 b4 be 70 d6 c8 3e
       -0.12347151 0.14604972 -0.3516238 0.39226103
000020 7c d4 b7 3d 9f 1f 87 bb f9 33 3b 3d df 48 bb bc
       0.08976075 -0.0041236426 0.04570386 -0.022861896
000030 6f 1f 85 bd 94 5d d6 3d 42 1c 51 3b 67 f9 4a bc
       -0.06500136 0.10467067 0.0031907712 -0.012388564
000040 21 8a 0c 3d 11 f5 d7 ba 7f e0 2a be 66 97 8e 3e
       0.034311417 -0.0016476234 -0.16687201 0.27849883
000050 c1 17 9c 3c 79 6f 80 3e fc b8 2e be ae 32 5d 3e
       0.019054295 0.25085047 -0.17062753 0.21601364
000060 43 46 56 bf 86 bf 0d bf 94 e1 e3 bd 9b c7 87 bf
       -0.8370096 -0.55370367 -0.1112701 -1.060779
000070 fe 56 2b 3f f9 d7 a0 bf 60 0d 58 3e b8 d4 3a be
       0.66929615 -1.256591 0.21098852 -0.18245208
000080 8c d4 52 3e 49 58 b9 bc f9 9d a7 3c e9 6e d8 3d
       0.20588893 -0.022625105 0.02046107 0.105680294
000090 f8 08 bc 3c f0 65 6f 3e e8 e5 d2 3d db ae 93 bd
       0.022953495 0.2337873 0.102977574 -0.072110854
0000a0 ba 36 89 3e 4b 58 b0 bd 90 f8 87 3e 82 b3 27 3e
       0.26799566 -0.086105905 0.26556826 0.1637707
0000b0 f2 70 c0 3d 62 4f 8c 3d 0e 24 09 3e 02 82 35 3c
       0.093965426 0.068510786 0.1339266 0.01107836
0000c0 46 9f 5a 3e c5 ec 16 bd 91 04 b9 bf 58 c3 fc bc
       0.2134982 -0.036846895 -1.4454519 -0.030854866
0000d0 89 cc 9e be d2 2c 5b 3d 2a e1 05 3a 47 f4 83 3d
       -0.31015423 0.05350954 0.00051070994 0.064430766
0000e0 b4 94 56 3d 98 cf f5 3d 57 34 0a 3e 6d 1d 38 bf
       0.052387908 0.12002486 0.13496529 -0.719199
0000f0 9f 21 de be ad a1 bb be 25 83 3a 3e d9 07 76 bd
       -0.43385026 -0.36646786 0.1821409 -0.060066078
000100 75 a1 9d 3c a2 78 8e bc 23 b9 a5 3e 45 6e 9f bd
       0.019242028 -0.017391507 0.3236781 -0.07784704
000110 45 ff 75 bf 6a fa 8e be e3 b2 c3 3e 74 c9 1e 3e
       -0.96092635 -0.27925426 0.38222417 0.15506536
000120 93 54 7e 3e 56 2a c8 bd c7 b9 f2 bd c0 66 99 bf
       0.2483695 -0.097737 -0.118518405 -1.1984482
000130 1e 23 2a be 88 82 e3 3d fb 28 4b 3d 43 c1 00 3f
       -0.16614959 0.11108881 0.04959963 0.50294894
000140 3d d7 92 bf 7e 8d 9d be f3 87 81 3e f7 30 e1 be
       -1.1471936 -0.30772012 0.25299034 -0.4398267
000150 5d 4a 64 3e 7e 4f 5c bc ce c5 40 3e 1c ee 0e 3d
       0.22293992 -0.013446687 0.18825457 0.034895048
000160 6a 5e 58 bd 42 40 02 3c 63 4d d8 bc b2 be 3a be
       -0.052824415 0.007949891 -0.026404088 -0.18236807
000170 02 aa e3 3e 7e 0f 89 3e 3b 80 f3 bd d0 15 e0 bd
       0.44465643 0.26769632 -0.118896924 -0.109416604
000180 51 5b 29 3f 15 64 d5 be b2 e5 c0 3e df 30 96 be
       0.6615496 -0.4167792 0.37675244 -0.2933416
000190 54 83 b2 bd 77 1c bd 3d 1d 0e 75 3d ef f5 b8 be
       -0.08716455 0.09233945 0.059827913 -0.36125132
0001a0 8e 80 ae bd 16 57 95 bc 99 2f 08 be e1 b1 9e be
       -0.085206136 -0.018230002 -0.13299407 -0.30995086
0001b0 e0 6b 76 bf f3 70 bc bd 31 78 ac 3e 1c 11 56 3e
       -0.96258354 -0.09201231 0.3368545 0.20904964
0001c0 82 21 d9 3d 12 f2 90 bf 17 5a 95 be 94 51 0d 3e
       0.10602094 -1.1323874 -0.29170296 0.13800651
0001d0 ba 8f 5b be 1d bf b9 bd c4 b5 27 bd 9c 3d f6 bd
       -0.21441546 -0.09069655 -0.04094483 -0.1202347
0001e0 d3 ff e2 3d 3e b6 2a 3c 88 90 5d 3d 89 8e 3e bf
       0.11083951 0.0104194265 0.054092914 -0.7443624
0001f0 25 ac 13 be 0f 1e 0a be 6a 00 79 3e 0e e8 55 be
       -0.14421137 -0.13488029 0.24316564 -0.20889303
000200 6c 93 0a 3f 74 85 d1 bd ef eb 8e 3e 7c 83 09 3e
       0.541312 -0.10230532 0.27914378 0.13429064
000210 61 5c 12 3d a9 af be 3e b3 c5 ae bd 9c fd cc bf
       0.03573263 0.37243393 -0.08533802 -1.6014895
000220 16 57 48 bf 49 e0 5b bf 18 a9 d7 3d 5d ef 41 3d
       -0.7825788 -0.85889107 0.10530299 0.047347415
000230 ab ca be bd aa 0d 46 be 8c e7 de 3d 67 d1 7d bc
       -0.093159996 -0.1934115 0.10884008 -0.01549182
000240 af 4b 15 bc a1 26 e0 3d 5d 1c 6f 3d f8 a6 c1 3e
       -0.009112283 0.10944868 0.05837666 0.378227
000250 05 52 75 3d 44 32 31 be 91 43 7b 3e 81 58 d4 be
       0.059892673 -0.17304331 0.24537493 -0.41473773
000260 09 03 15 3d d3 53 c0 be f5 8d 08 3f a3 0b f8 be
       0.036379848 -0.37563953 0.5334161 -0.48446378
000270 f1 e5 27 3d dd ae 6a 3e 70 20 44 3b ac d4 a1 be
       0.040990774 0.22918268 0.002992656 -0.31607568
000280 c8 e8 e5 3e 93 c1 2c 3d 05 0a da 3c 13 55 62 bd
       0.4490416 0.042176794 0.026616106 -0.055256914
000290 e0 e4 cb 3d 2d 8b 83 3d 43 70 06 be b0 46 8a 3e
       0.09955764 0.0642303 -0.13128762 0.27007055
0002a0 76 52 9f 3e ef 5f b9 bd 54 42 35 be a2 e5 0c bd
       0.311176 -0.09051501 -0.17701083 -0.034398682
0002b0 26 92 47 3e 28 b9 11 be bd c1 d3 bf ab 4c 19 bc
       0.19489345 -0.14230788 -1.6543499 -0.009356658
0002c0 1b fe cc bd 36 0f 53 3e 77 07 ad 3e a0 97 73 be
       -0.10009404 0.20611271 0.33794758 -0.23788309
0002d0 7a 25 f6 bd 80 17 07 3e 8e 63 42 3d f8 7a 0a be
       -0.12018867 0.13192558 0.047458224 -0.13523471
0002e0 f3 c0 24 3d 80 a4 ad 3d 29 3b 11 3f c6 16 cb be
       0.040223073 0.084786415 0.56730896 -0.39665812
0002f0 ef 8a 86 3b 4f 4c dc 3d 66 8f 9c be 41 f3 f9 bd
       0.0041059176 0.10756742 -0.30578154 -0.122046
000300 a3 d7 50 3f 68 52 d4 bc b3 3f 91 bd 03 26 13 3e
       0.81579036 -0.0259182 -0.07092228 0.14369969
000310 9b f2 6e 3d 01 90 0b be e9 57 34 3e 7e 60 14 3e
       0.058336835 -0.13629152 0.1761166 0.14489934
000320 11 f4 d2 be b7 d6 cc bd ca 41 c9 3d d8 72 61 3e
       -0.41201833 -0.10001891 0.098270014 0.22016466
000330 31 d8 9f bf ae 04 09 be 57 48 a1 bd 9c 61 bc bf
       -1.2487851 -0.13380691 -0.07875126 -1.4717288
000340 37 ce 89 be a3 64 97 3e 67 3e 1e 3e 58 01 66 3e
       -0.26915142 0.29568967 0.15453492 0.2246145
000350 45 22 80 be 6c 94 f4 3d ec a8 17 3e db 66 5f 3c
       -0.25026146 0.11942372 0.14810532 0.0136353625
000360 1a a7 2c be ca 5e 88 bc 2b 81 7c 3d 9a 4c d8 bd
       -0.16860619 -0.016646761 0.06164662 -0.105614856
000370 7b 93 b1 3b 40 b6 34 3e 5e e0 ce bd b9 00 d7 3c
       0.0054191924 0.17647648 -0.101013884 0.026245462
000380 56 62 7b be 62 07 f2 3d 27 58 62 3e fd 64 c8 3c
       -0.24549231 0.118178144 0.2210394 0.024462217
000390 1d d3 23 bd e5 84 6f bf f3 4d 0a be 8d a5 8e 3d
       -0.039996255 -0.93562156 -0.13506298 0.0696517
0003a0 22 de b7 3d 4b fa 6e 3e e2 02 6e 3e 1a 22 54 3d
       0.08977915 0.23337667 0.23243287 0.051790334
0003b0 32 cb 20 3d b3 77 e3 3c 63 aa ba bf 57 1a de bc
       0.039256282 0.027767038 -1.4583248 -0.02711217
0003c0 ec 10 90 bc fe 27 42 be e0 65 c7 3d 4e 16 42 3e
       -0.017586194 -0.18960568 0.09736228 0.18953821
0003d0 54 8a ba bf 48 da 4a be 84 93 13 be b5 42 63 3d
       -1.4573464 -0.1980983 -0.14411741 0.05548354
0003e0 5b f1 32 be 87 9a 72 3e 6d 1e 89 be 33 d9 da bc
       -0.17474882 0.2369176 -0.26781026 -0.026714897
0003f0 a1 0e e9 3d 49 a0 9c bf c9 67 c6 3c 2c d1 c1 bd
       0.11379743 -1.2236415 0.02421941 -0.094637245

conv.0.bias f4 [16]
000000 38 7e 0b bd b5 05 c3 3d 73 3b a1 ba 6b d7 44 bd
       -0.03405592 0.09522573 -0.0012301042 -0.048057
000010 c2 4d 80 bd 91 53 c8 be 89 73 85 3e 75 30 b2 be
       -0.06264831 -0.39126256 0.2606471 -0.34802595
000020 25 e2 7f be 87 92 ce bd e4 e4 09 bf de e1 5b bd
       -0.24988611 -0.100865416 -0.53864884 -0.0536822
000030 f8 66 1a 3d 15 44 ac 3d 93 f3 1a be b8 c7 d6 3d
       0.037695855 0.08411423 -0.15131979 0.10487312

conv.2.weight f4 [32, 16, 3, 3]
000000 af 50 92 3c aa f5 01 3e d6 f8 93 bb e6 03 47 3e
       0.017860739 0.1269137 -0.0045157475 0.19435081
000010 d1 8d 98 bb e4 05 c8 3d 43 a3 81 3e 7c 30 47 3e
       -0.0046555777 0.097667485 0.2531987 0.19452089
000020 ff 4a 38 be 66 62 5b 3e 08 38 b9 3d 0f 4d 09 be
       -0.17997359 0.21424255 0.0904389 -0.13408302
000030 35 38 4c be 36 73 5f 3d f8 1e 69 bd b8 a7 a4 3d
       -0.19943316 0.054553233 -0.0569143 0.08039802
000040 88 e8 5c ba 46 cf 7e be ac 60 e1 bd 60 d9 d5 3d
       -0.0008426984 -0.24883756 -0.11004767 0.104418516
000050 f5 69 d3 bd 33 6e 0b bf 9e be 87 3e fe fb a1 bf
       -0.10322944 -0.54465026 0.26512617 -1.2655027
000060 4f c5 5e bd 40 3c 83 bd 78 59 b9 3d 3b e5 d7 3d
       -0.054387387 -0.06407976 0.09050268 0.10541769
000070 a6 86 0a be 8d 29 62 be 8c 2b 29 3e c8 d1 e7 be
       -0.13527927 -0.22086163 0.16520518 -0.45277238
000080 c4 1f ae bd 5f bd 30 be bd e1 54 3e d0 e2 08 3e
       -0.085021526 -0.1725974 0.20789237 0.13367772
000090 ba 5c f8 3d 30 fc 1a 3d 20 f6 5d 3e 5e 2f 0f 3d
       0.12127061 0.03783816 0.2167592 0.034957282
0000a0 73 2e 96 3d 02 31 54 be 94 4a 57 3e 89 d9 fb bd
       0.07333078 -0.2072182 0.21024543 -0.12297351
0000b0 90 5f d0 bb 32 c5 dd 3d 23 75 fc 3c 5b 30 be be
       -0.006359048 0.10828628 0.030817574 -0.37146267
0000c0 05 91 b7 3e f7 ca 9f be 99 40 88 3b 58 19 80 3d
       0.3585283 -0.31209537 0.0041580913 0.06254834
0000d0 1a 26 01 3e 25 14 11 be 6f 43 95 be 1c 6b 2b bd
       0.12612191 -0.14167841 -0.2915301 -0.041850194
0000e0 4d 10 ee be f0 59 50 3c 7c df 83 be df 59 d8 bd
       -0.46496812 0.012716755 -0.25756443 -0.105640166
0000f0 0a 97 de bd bb 97 56 3d 65 25 05 3d 5e 89 3d 3e
       -0.10868652 0.052390795 0.032506365 0.18509433
000100 ba f2 1b be 53 36 c1 3d f6 c1 ca bb 64 93 70 be
       -0.15229312 0.0943419 -0.0061876727 -0.23493725
000110 be 13 6b 3e de 3d 9e bc 69 dc a8 be ba d5 5e bf
       0.2295675 -0.01931661 -0.3298066 -0.8704487
000120 01 f4 98 be 2b 42 a1 3d 8a a6 ff 3e a4 4e 16 3e
       -0.2987366 0.07873949 0.49931747 0.14678437
000130 5b b4 7a 3d 3d e7 7c 3e 7b a0 ad 3d 50 48 87 bd
       0.061207157 0.24697585 0.08477875 -0.066055894
000140 84 8e 0d be ec fb 35 3e d5 b4 c4 be 67 7f a8 3e
       -0.13823897 0.17771882 -0.38419214 0.329097
000150 f2 5e 45 be 53 72 91 be fa 40 fd bd 94 8c 89 3d
       -0.192745 -0.28407535 -0.12365909 0.06716266
000160 22 6e 44 3e 40 75 a2 3e 01 a9 80 3e 67 be f9 bc
       0.19182637 0.3173008 0.2512894 -0.030486299
000170 e7 98 f4 3d f8 dc 88 bd c0 d6 58 bd ae fc ed be
       0.11943226 -0.066827714 -0.052939177 -0.46481842
000180 dd 86 b3 3e 91 c0 10 3e d0 1e 5a be bf d8 cc bd
       0.3506383 0.14135958 -0.21300817 -0.100022785
000190 e6 52 19 be 50 76 64 be e6 1e 5d be 89 99 2b be
       -0.1497303 -0.22310758 -0.21593818 -0.16757788
0001a0 db ce 04 be 85 db 12 3e 90 c7 fd bd b6 a6 e4 3b
       -0.12969534 0.14341553 -0.12391579 0.0069778813
0001b0 b3 52 94 3c c5 dd 42 3b dc 47 a8 bc 2b 70 cd bd
       0.01810584 0.0029734236 -0.020542078 -0.1003116
0001c0 a5 23 0b bf b8 f6 b0 bd 8e a1 9f 3c 79 ee 49 3c
       -0.54351264 -0.08640808 0.019486215 0.012324923
0001d0 cf 31 11 be 27 5b b8 be 8e e6 45 bf 8e 92 c9 3d
       -0.14179157 -0.36007044 -0.77304924 0.09842406
0001e0 e5 92 2a bd c9 4d 56 be a5 d1 25 be 18 31 45 bf
       -0.041643996 -0.2092811 -0.16193254 -0.77028036
0001f0 a8 e2 e7 3d 4d 8e 08 be 5b a0 1f 3e bd de 4a bd
       0.11322528 -0.13335533 0.15588515 -0.049528826
000200 26 61 48 3e 1e 22 07 3e a8 74 38 be 85 8a 81 be
       0.19568309 0.13196608 -0.18013251 -0.25300995
000210 02 05 09 3e ba 84 71 3c ba ab f9 3b 65 75 f6 3b
       0.13380817 0.014741117 0.0076193484 0.0075213187
000220 94 36 84 3c 8c 5a 82 3d 2e da 94 3d 96 ea 47 3e
       0.016139306 0.06364927 0.07268177 0.19523081
000230 97 6f ed bd 3b 26 01 3e ca 5b 99 be 2d b2 7b 3d
       -0.1159355 0.1261224 -0.29952842 0.06144922
000240 59 00 0c 3d ce 4e 71 3e f3 78 4d bd 38 69 16 3e
       0.03418002 0.23565218 -0.050164174 0.14688575
000250 45 d9 80 be 55 04 21 be 6c d6 31 3d 81 06 8f 3d
       -0.25165763 -0.15724309 0.04341738 0.069836624
000260 b7 9c 5c bd 52 00 07 3d 90 14 33 3e 53 cb 26 bc
       -0.053860392 0.03295929 0.17488313 -0.010180312
000270 ea 58 46 c0 41 3f fb 3d 64 9d 5f 3d 99 25 14 be
       -3.099177 0.12267924 0.05459346 -0.14467467
000280 fe d2 77 3e f8 3d ae bc d2 81 22 be 63 c7 e2 bb
       0.24201581 -0.021269783 -0.15869835 -0.0069207414
000290 95 d1 ab bc d8 33 10 3e fc 9e 38 3d d4 90 14 3e
       -0.02097396 0.14082277 0.045073494 0.14508373
0002a0 6c 7e 30 bd 4a 8a 53 3e 13 b0 27 bd 0a 53 46 be
       -0.043089315 0.20658222 -0.0409394 -0.19367614
0002b0 37 74 89 be d1 34 99 3e ef 04 0f be 50 be 87 3e
       -0.26846477 0.29923108 -0.13966726 0.26512384
0002c0 fd 21 48 bc 95 5d e6 be 05 25 8d be 76 5c 9d 3e
       -0.012215135 -0.44993272 -0.27567306 0.30734605
0002d0 c3 d6 83 be 3f 68 a0 be ac ba 55 bf ae 71 da be
       -0.25749788 -0.31329533 -0.83487964 -0.42664856
0002e0 6e ff 0a 3e 70 4c a2 3e f9 09 2b be 9f 39 20 39
       0.13574001 0.31698942 -0.16703023 0.00015280255
0002f0 1d 48 c5 bd 16 bb 1a 3c ab e4 a3 be 45 e0 c9 3d
       -0.09632895 0.009444019 -0.32010397 0.09857229
000300 27 fd 1f 3e ea a3 6b 3e 13 85 d9 be d5 d1 ee bd
       0.15623914 0.23011747 -0.4248434 -0.11661116
000310 29 fe bb be 29 e4 d1 bd 23 a2 3f 3c c7 4d 08 be
       -0.36717346 -0.10248596 0.011696371 -0.1331092
000320 44 2b 94 3e 20 af 51 bd 67 ca 81 be ef 82 74 bf
       0.2893926 -0.051192403 -0.25349733 -0.9551229
000330 ed eb aa 3d d3 a1 e2 3d 96 32 df 3e 6c 0f b2 bd
       0.083457805 0.11066022 0.43593282 -0.08694348
000340 11 30 35 bc 4e a6 5a be 41 7e c1 bc 54 79 46 be
       -0.011058823 -0.21352503 -0.023619773 -0.1938222
000350 eb 99 5a 3d 16 13 ad 3e 13 f6 9c be ca a7 81 bd
       0.053369444 0.33803624 -0.3065649 -0.06330831
000360 20 63 94 bd f8 a0 49 3c ec 89 f6 bd fc 1c b5 3e
       -0.07245469 0.012306444 -0.12038025 0.35373676
000370 ec a5 e6 3d 91 23 d4 be 1f 49 6b 3e 6b 09 66 3e
       0.11262116 -0.41433385 0.22977112 0.2246453
000380 91 4f 73 3e 34 a7 8e 3e ad d3 71 bd 33 82 5c 3c
       0.23760821 0.2786194 -0.05903976 0.013458776
000390 d0 e0 b4 3c a7 a8 40 3e b4 2c e3 bd 8d d7 0c 3e
       0.022079855 0.18814336 -0.11092511 0.13754101
0003a0 7e 71 45 3d 3b a0 c8 bc f1 d7 36 3e 76 c1 84 3e
       0.048203938 -0.024490466 0.17855813 0.2592885
0003b0 35 12 08 bf a8 22 47 be 46 bf c6 bd 6f 28 85 3e
       -0.5315278 -0.19446814 -0.09704451 0.2600741
0003c0 28 6f 24 bd 03 2f a3 be 22 57 91 3e 8f 4c 9b bd
       -0.04014507 -0.31871805 0.2838679 -0.07582962
0003d0 55 ed 9b 3e 29 03 ed bd c9 69 62 3e 5f 1f 77 3d
       0.30454507 -0.115728684 0.22110666 0.060332652
0003e0 85 8d b2 bc 0f 2a 91 3d 96 bb 16 3d 13 0a 82 be
       -0.021795997 0.070881 0.03679999 -0.2539831
0003f0 32 8c c7 3e 1c eb 98 bd db a9 71 3e 4a 7b f4 3d
       0.38974148 -0.074667186 0.23599951 0.11937578

conv.2.bias f4 [32]
000000 3f 14 8a 3e d7 1a e1 bc 4c ed b5 be 02 ed a9 be
       0.26968572 -0.027478619 -0.35532606 -0.33188635
000010 ec a9 22 3e 5d 81 21 be ee 52 02 3e cb 35 80 be
       0.15885133 -0.15772004 0.12726948 -0.2504104
000020 e1 fe ba bd 06 f1 53 bd e7 34 cd 3d 54 20 63 3d
       -0.091306455 -0.05174353 0.10019856 0.055450752
000030 5f 20 20 be 62 80 55 bd c5 4b 1c 3b e6 b0 5f be
       -0.15637349 -0.05212439 0.0023848873 -0.21844825
000040 76 75 ed 3d 43 e6 60 3b e6 93 e0 3c 03 41 b5 be
       0.115946695 0.0034316934 0.027414273 -0.35401163
000050 3a 3f ae bd d9 e6 77 3e fc ed 02 bf 7f 2a 23 3e
       -0.08508153 0.24209155 -0.51144385 0.1593418
000060 23 30 70 3d 62 60 33 3e 6f f1 29 be d1 67 88 3d
       0.058639657 0.17517236 -0.16596006 0.066604264
000070 0f 22 3e 3d b4 51 80 3a d4 ff 2a bd 72 80 82 bd
       0.0464192 0.0009789974 -0.041747883 -0.06372155

conv.4.weight f4 [64, 32, 5, 5]
000000 65 bf b7 bc 2b 54 44 be 75 fb 53 3c 6f eb 0c 3e
       -0.022430131 -0.19172733 0.01293837 0.13761686
000010 84 b1 f7 3c cc d4 72 be 54 3d 0f 3d a7 95 ce 3d
       0.030236013 -0.23713988 0.034970596 0.10087138
000020 37 24 bb 3d 45 39 20 3d 6d c7 53 3d 54 d8 ca 3b
       0.09137767 0.039117116 0.05170386 0.006190339
000030 2b 84 2d 3d a1 5a 4d be 9e 88 1c 3d 13 92 b3 be
       0.042362373 -0.20054103 0.038216226 -0.35072383
000040 a9 0a 6d 3d f2 a1 e9 bd 50 a6 32 3f d1 4c 07 bf
       0.057871494 -0.11407842 0.6978502 -0.5285159
000050 4f df 2d 3d 4a e2 1d be 51 d1 e4 bd 18 1b c8 3c
       0.04244929 -0.15418354 -0.111727364 0.024426982
000060 1e 55 3a be c8 4f 53 bd 56 45 04 bf 52 34 1e 3c
       -0.18196532 -0.051589757 -0.516683 0.009656029
000070 bf bd 90 3e 05 ca 6b be 85 fe 92 be c5 b0 2a 3d
       0.28269765 -0.23026283 -0.28709808 0.041672487
000080 31 0b d1 be 92 59 cd 3d 77 5d 6d bd 50 9d cc 3e
       -0.4082885 0.1002685 -0.057950463 0.3996377
000090 76 1a ce be 1d cc 29 3e a2 a9 f7 3e c7 3f fa be
       -0.40254563 0.1658177 0.48371607 -0.48876783
0000a0 83 ae 25 3e c1 a7 45 3e c5 9e 0f 3d 77 b0 48 3e
       0.16179852 0.19302274 0.035063524 0.19598566
0000b0 e2 2f 8f 3e e8 e1 13 be 12 b1 f0 bc c5 ed dc 3d
       0.2796622 -0.14441645 -0.029381309 0.107875384
0000c0 82 2f 9a bd cc e8 0f 3e 47 e9 39 be 84 b2 3f 3d
       -0.07528593 0.14053649 -0.18155394 0.046801105
0000d0 ff 44 8e be 2c 9c b6 be c6 68 c5 3e 31 cc 5f 3e
       -0.27787015 -0.35666025 0.38556498 0.21855237
0000e0 2d b1 e0 bd 4f 91 70 be da 31 e9 3d 1e fa a6 bf
       -0.109712936 -0.23492931 0.113864616 -1.304508
0000f0 5d 1d 27 bf a8 39 82 3e f0 a3 07 bf e8 6d 13 be
       -0.6527918 0.25434613 -0.52984524 -0.14397395
000100 45 32 be 3d 30 8f a7 3e 61 92 36 be db cd 2e 3f
       0.09286932 0.3272643 -0.17829277 0.6828286
000110 b8 fb 10 3e 8b 22 79 bd 54 cf b8 3d 61 11 84 3e
       0.14158523 -0.06082396 0.0902392 0.2579451
000120 88 31 78 3e 5a fb a1 bd 22 dc 0f bd 11 1b 52 3c
       0.24237645 -0.0790927 -0.035122044 0.012823836
000130 34 5c 31 bc d4 3f 4c be 5d ff a4 bc a8 e2 f7 bd
       -0.010825206 -0.19946223 -0.020141298 -0.12103778
000140 a2 d4 10 3e 4e c8 ec 3d b7 5f 7d bd 4a f8 23 3f
       0.14143613 0.115616426 -0.06185886 0.64050734
000150 dd 05 a9 bd f1 bb 91 be ad 7e 88 bd 21 71 01 bf
       -0.082530715 -0.284637 -0.066647865 -0.50563246
000160 d9 c1 d6 3d 9f 3e 41 3f fb f0 80 bd b5 d6 2c 3e
       0.10486192 0.7548618 -0.062959634 0.16878779
000170 37 e7 63 be c0 ba f7 be 20 cd 79 bc 91 ec e9 3e
       -0.2225617 -0.48384666 -0.0152466595 0.45688298
000180 a7 dc 2c 3e 84 b2 12 be 14 fb e8 3e e7 6a 90 be
       0.16881047 -0.14325911 0.45504057 -0.2820656
000190 21 e5 1e 3e f1 00 72 bd 64 ed 98 bd 54 12 1e be
       0.15517093 -0.05908293 -0.07467154 -0.15436679
0001a0 af ea 1c be 17 45 5f 3e e5 49 e7 3d 20 39 14 3e
       -0.153239 0.218037 0.11293391 0.14474916
0001b0 8c 4c d5 bc 44 13 13 3e 43 9a 17 bd fd 0f d4 3d
       -0.026037477 0.14362818 -0.03701235 0.10354612
0001c0 d2 29 a3 3e 7f 97 88 3e c7 51 a2 3d 71 dc c1 be
       0.31867844 0.26678082 0.07925754 -0.37863496
0001d0 b3 10 71 3c 60 0a ba bc 59 75 cd 3e cf 74 04 3e
       0.014713454 -0.022710025 0.40128592 0.12935184
0001e0 26 52 52 3e f8 28 7e be 6b 55 b5 3e 8b 28 1a 3d
       0.2053915 -0.24820316 0.3541673 0.03763632
0001f0 d3 48 f0 3e 14 f2 4e 3f 07 b0 8e bd b1 16 e7 3d
       0.4693056 0.8083813 -0.06967168 0.11283625
000200 cf 0d af 3c 03 43 3b be 54 f2 fc bd 9a 8c 19 be
       0.02136889 -0.18287282 -0.12350908 -0.14995041
000210 4f e0 bc 3e 8f 5f 9c 3d 26 82 87 be 8f 24 2b bd
       0.36889884 0.07635414 -0.26466483 -0.041782912
000220 65 80 3a 3e e5 bb 1f be 5c cd f0 3e 4a 6e 02 3e
       0.18213041 -0.1559902 0.47031677 0.12737384
000230 fb eb 49 bf 79 50 37 be c8 28 33 3d 8c 75 6f be
       -0.788757 -0.17901792 0.043740064 -0.23384684
000240 80 f5 30 be ea 93 ff be 13 26 8d bd 33 85 b7 3e
       -0.17281151 -0.49917537 -0.06892028 0.3584381
000250 21 2e 82 3d 71 50 e0 be 18 4a cc be 95 8f a6 3e
       0.06356455 -0.43811372 -0.3990028 0.3253142
000260 91 1b cc be d2 25 94 3d d3 9b a2 be b7 6a 70 be
       -0.39864781 0.07233776 -0.3175951 -0.23478208
000270 01 51 da be ae 3d 29 be 1b 91 af bd 2b 87 02 be
       -0.42639926 -0.16527435 -0.085725985 -0.12746875
000280 29 82 04 bd 19 93 8d 3e 3f d4 b3 be 48 17 2b 3e
       -0.032350693 0.2765129 -0.35122868 0.167081
000290 67 8c 86 3f 60 8b 60 3e d8 f6 07 bd 20 a8 d0 3d
       1.0511597 0.21928167 -0.033194393 0.10188317
0002a0 0c c3 26 bf 51 00 d0 3e a3 6c b0 3d ae e1 c3 be
       -0.6514137 0.4062524 0.08614471 -0.38258117
0002b0 32 80 aa bd 7d 24 23 be 57 68 e7 3d cf c9 2b be
       -0.083252326 -0.15931888 0.11299198 -0.16776203
0002c0 f0 a6 98 3e 6c 91 b6 3e 86 79 04 3e a1 ff 23 3e
       0.29814863 0.35657823 0.12936983 0.16015483
0002d0 8c e6 f1 be 9f f7 78 3e 86 1a 0b be d3 4a 27 be
       -0.47246206 0.2431321 -0.13584337 -0.16337137
0002e0 54 97 05 3f 3b 90 f5 be 2a 17 d4 3e c0 69 42 be
       0.52184033 -0.47961602 0.41423923 -0.18985653
0002f0 04 8e 8b be d9 39 fc bd 03 b9 bd be 98 61 4a 3c
       -0.27256787 -0.12315721 -0.37055215 0.01235237
000300 48 ce fa 3d 18 71 eb bd 97 25 f0 3d 27 99 0a bd
       0.12246376 -0.1149618 0.1172592 -0.033837464
000310 e0 6c c0 bc f8 7e 26 be 43 5e 10 be af 81 04 3e
       -0.023489416 -0.16259372 -0.14098458 0.12940095
000320 cd f5 b5 bc a8 84 09 3e 6e 41 ca be d8 86 06 bf
       -0.022211934 0.1342951 -0.39503044 -0.52549505
000330 22 10 db bd 6b bc f6 3e 2b 6b 3a 3e 44 86 ea bd
       -0.106964365 0.48190627 0.18204944 -0.114513904
000340 fe 85 8b 3c 1d 8a 8b bd a1 cf 70 be ec 59 2c be
       0.017031666 -0.068134524 -0.23516704 -0.16831177
000350 b3 ea 21 be b5 84 b5 bd d0 b4 61 bb 1b 42 96 bd
       -0.15812187 -0.088632025 -0.0034440048 -0.07336827
000360 68 8a 87 3d 73 c1 51 3e 99 0a b5 3d 96 d9 c3 bd
       0.06618196 0.20483951 0.08839912 -0.095629856
000370 a0 3f 17 be 47 da dc bd 5e 62 c7 bd 11 66 08 3e
       -0.14770365 -0.107838206 -0.09735559 0.13320185
000380 2d 2b a6 bd dd 8e f5 bd 33 88 e1 bd 8c 60 d9 3d
       -0.08113704 -0.1199014 -0.11012306 0.10614118
000390 a7 eb b9 bc c7 f0 cf 3d b9 9a 8a 3d 9a 1e b2 3d
       -0.022695376 0.101533465 0.06767792 0.08697243
0003a0 1a 1d d1 be 31 ef 20 3f 7c 13 a1 bb 8a 81 3a be
       -0.40842515 0.6286498 -0.004915653 -0.18213478
0003b0 9c ab a5 be 84 de 9d 3e 1a 4d 08 bd d4 92 b3 3d
       -0.3235749 0.30833828 -0.033276655 0.087682396
0003c0 5a 2c 05 3e 2d 96 21 3e 86 0a b7 bd b7 ef 72 3e
       0.130052 0.15779944 -0.08937554 0.23724256
0003d0 e0 3f 77 bd 3e 89 ad 3e c8 d1 6f 3e 60 b4 44 be
       -0.06036365 0.3389377 0.23419869 -0.19209433
0003e0 cb 25 d7 bc 98 cc 51 3b 8d 07 1c bd 61 c8 38 3e
       -0.026263138 0.0032012817 -0.03809314 0.18045188
0003f0 26 80 1a bf eb e7 02 be 6f 30 e5 3d 31 cf 07 3e
       -0.6035179 -0.12783782 0.111908786 0.13262631

conv.4.bias f4 [64]
000000 a0 20 a5 be 16 0e 82 be 97 7e b0 bd f2 af 34 bb
       -0.32251453 -0.25401372 -0.08617895 -0.0027570692
000010 b7 bb c6 be 1e 33 89 be 8c 1d 35 bd 91 88 1f bd
       -0.3881509 -0.26796812 -0.04421763 -0.0389486
000020 81 ac 8b 3e 1b 7d 1d be 25 3a 2d 3e 54 4e 47 bd
       0.27280048 -0.15379755 0.16916712 -0.048658684
000030 42 d6 a4 bd 6a a7 2c bd ae 80 8f be c1 61 18 be
       -0.08048679 -0.042151846 -0.28027862 -0.1488104
000040 2c 0c e2 bc aa f2 24 be d3 0b ad 3d ce c6 27 be
       -0.027593695 -0.16108194 0.08449521 -0.16384432
000050 6d f7 85 3d 3f 84 ac be e8 80 41 bd a4 ef 60 be
       0.06541333 -0.33694646 -0.047242075 -0.21966416
000060 d9 fb 9d be a9 0f 01 3f fc cf 69 bd 5e c9 d3 3c
       -0.30856207 0.5041452 -0.057083115 0.025852855
000070 5c b9 ea bc 26 f4 2b be da 8f 21 bd 24 bb 92 bd
       -0.02865284 -0.16792354 -0.03944383 -0.071646005
000080 1b c7 59 be bc 14 af bd 78 d4 8a bd e8 5f 30 3e
       -0.21267359 -0.08548877 -0.067788064 0.17224085
000090 0f f6 3b 3e 57 03 da bb 9e 4c 87 be 38 b2 78 bd
       0.18355583 -0.00665323 -0.26425642 -0.060716838
0000a0 c8 bf f1 3d 5a 49 15 be c7 f8 50 bd 97 d4 61 be
       0.118041575 -0.14578763 -0.051018503 -0.22053753
0000b0 a4 7a f8 bd 36 51 27 bd bb f8 03 be dd 59 e4 3e
       -0.12132767 -0.040848933 -0.12887852 0.4459981
0000c0 3f d1 22 bd ab f0 a9 bc 5a 1b 6d bd 1a e0 22 3c
       -0.039750334 -0.020744642 -0.057887413 0.009941125
0000d0 6c fb cd 3e fc 96 c6 3e 78 f3 b8 bd 23 de 4d 3d
       0.40230882 0.38787067 -0.09030813 0.050260674
0000e0 6f c9 0a 3e a9 fe 86 be c3 5c 1b be 0a e0 b6 be
       0.13553403 -0.26366165 -0.15172105 -0.35717803
0000f0 f0 43 14 3f c5 78 23 3d 87 12 9f be 75 cd b7 3d
       0.57916164 0.039910097 -0.31068823 0.08974735

conv.7.weight f4 [64, 256]
000000 73 a6 c3 bd 2d 3f 54 bd 38 7e 01 bd 44 82 30 3d
       -0.09553232 -0.05181806 -0.031614512 0.04309298
000010 2d 94 1b 3e 31 f6 9b bd 7b 6b 05 3e d2 f5 44 bd
       0.15193243 -0.07615317 0.13029282 -0.048085995
000020 db 9a 58 be a8 bc b3 38 2c b7 88 3d ba 82 19 3d
       -0.21152823 8.570525e-05 0.06675562 0.037478186
000030 be ae 7b bd a0 eb ff 3c 10 c8 f9 3b 28 74 23 3d
       -0.061445944 0.031240284 0.0076227263 0.039905697
000040 71 a3 89 3d 82 91 9a 3d a3 ef 5a bd 36 3a dc 3c
       0.06720627 0.07547285 -0.05345119 0.026883226
000050 31 8f 2c 3e b8 df 2b 3e 16 cb 87 3d d6 fe fd 3d
       0.16851498 0.1678456 0.066305324 0.12402122
000060 10 4e b6 3c 10 60 15 3d 14 03 45 bd 88 81 7a 3c
       0.02225402 0.036468565 -0.04809864 0.015289672
000070 7e 94 ca bb b8 43 59 bd 09 0f d7 bc 48 fc 8c bc
       -0.0061822524 -0.053043097 -0.026252287 -0.01721014
000080 7b f4 43 3b 9b 2c 18 be 0a 34 22 3c c4 96 04 be
       0.002990036 -0.14860766 0.009900102 -0.12948138
000090 78 7a 39 be 30 37 1e 3d ad f9 4b bd 73 cd 1e be
       -0.18113124 0.03862685 -0.049798656 -0.1550806
0000a0 e7 cf 6d be e9 2c 72 3d ec fd 61 bd f2 7a 2a bb
       -0.2322384 0.05912486 -0.0551738 -0.0026013223
0000b0 54 92 bf 3c 58 9d 86 3c 9e d1 00 3d 10 6f ed bc
       0.023385204 0.01643245 0.031449907 -0.028983623
0000c0 5c 75 f8 bc 2b e9 ab 3e 81 d5 5d bd 9f 5f d7 bd
       -0.030329399 0.3357633 -0.05415869 -0.10516285
0000d0 3c 29 5a bd 5e d0 39 3d f8 2d 19 3c 18 ca 11 bd
       -0.05326198 0.04536473 0.009349339 -0.035593122
0000e0 40 2e fe bd 77 a7 2c 3e 98 1c d2 bd 22 ad ce bc
       -0.12411165 0.16860758 -0.1025936 -0.02522904
0000f0 a6 21 79 3d b6 9e 06 3e b6 7c 63 be e8 12 98 3d
       0.060823105 0.13146481 -0.22215542 0.07425481
000100 e0 63 55 bd 9c 5e b5 bc 40 83 a9 ba d6 e8 1f 3d
       -0.0520972 -0.02213984 -0.0012932792 0.03904041
000110 e6 41 da 3c 72 42 90 3c 39 23 29 be 60 cd 34 bd
       0.026642751 0.017609809 -0.16517343 -0.044141173
000120 3d 20 40 3d ac 24 2b 3d e0 cf d7 bd cd 93 ad 3d
       0.046905745 0.04178302 -0.10537696 0.084754564
000130 97 6b c0 bd 62 00 f8 bd d3 75 ee bd 19 24 1c bd
       -0.09395521 -0.12109448 -0.11643567 -0.038120363
000140 e0 8e ba 3d db 46 25 bd 73 35 04 bd 71 5f 3c bd
       0.091092825 -0.040350776 -0.032277536 -0.045989458
000150 e4 b5 e8 3d f4 d8 4f 3d fa 72 36 3e 9d ac a4 bc
       0.11362818 0.050744012 0.17817298 -0.02010184
000160 32 44 5c bd 28 f9 8c 3c 80 f7 2b 3b 58 59 5e bd
       -0.053775974 0.01720865 0.002624005 -0.054284424
000170 71 5f 56 3e 32 3e 4f 3e 43 08 8e 3d 25 e9 89 bb
       0.20934846 0.2023857 0.069351695 -0.004208701
000180 7e cb 69 3c 8f 66 08 3c 1f 74 98 3d 1e e7 9f 3d
       0.014269708 0.008325233 0.07444023 0.07807754
000190 54 b1 c8 bd 92 1f 68 be 1d 18 99 bd 35 17 20 bd
       -0.09799448 -0.22668293 -0.07475302 -0.039084632
0001a0 b8 70 b4 3c 4e f9 76 3d f8 cf c8 3c 28 b5 33 bc
       0.022026405 0.06029635 0.02451323 -0.010968484
0001b0 42 94 4e 3e 97 33 3d 3d 39 ca 4c be c4 50 d7 3d
       0.20173743 0.046191778 -0.19999017 0.10513452
0001c0 5a f9 34 3d 50 ac 56 3c 80 a9 81 3a 44 88 a3 3c
       0.044183113 0.013102606 0.0009892434 0.019962437
0001d0 12 7f a4 bc 91 f7 9a bd 9d 0a 29 bd ec 1e b9 bc
       -0.020080123 -0.07566751 -0.041269887 -0.022597753
0001e0 80 3d 58 bb 60 13 4a 3b 00 df 30 3d cc ff ab bc
       -0.0032995641 0.0030834302 0.04318142 -0.020995997
0001f0 ec 18 c1 3d eb fb 19 be 6a 60 33 be 6e 52 22 bd
       0.094285816 -0.15037505 -0.17517248 -0.039629392
000200 7a 5a 3a 3d 20 41 11 3d 4f 09 dc 3d 55 ff a9 3e
       0.04549644 0.0354625 0.10743963 0.33202615
000210 4d 37 e5 3c d5 91 2e 3e 12 d1 87 3c 12 ee 6a 3d
       0.027980471 0.17047818 0.016579185 0.057355948
000220 19 01 52 3d 45 01 d8 bc a4 0d 0e 3e 30 45 0a be
       0.051270578 -0.026367793 0.13872391 -0.13502955
000230 2c 18 f6 bb f2 0c 81 be ff 34 5b be 0d 91 ff 3c
       -0.0075102057 -0.2520519 -0.21406935 0.031197095
000240 c1 57 c4 3c 68 68 a5 bd f1 c4 98 be 5c 8f 8a ba
       0.023967626 -0.080765545 -0.29837754 -0.0010571289
000250 ce 29 c0 bd f4 93 58 bc c6 24 cc 3d 79 f2 be 3c
       -0.093829736 -0.0132188685 0.099679515 0.02330898
000260 c4 9a 91 3c 68 6a 50 3e 12 5c ec bc 65 b0 22 bd
       0.017773993 0.20353091 -0.028852496 -0.039719004
000270 de a6 2c bd b6 3d 17 bd 64 18 cf 3c 80 bf 22 3b
       -0.042151324 -0.036924087 0.025280185 0.0024833381
000280 af 3d b4 3d 7d 90 27 be b7 09 e4 bd dc cd 37 bd
       0.08800828 -0.16363712 -0.111346655 -0.044874057
000290 d8 f3 aa bd 32 77 ab 3c 15 d0 d7 3d e7 64 7c 3d
       -0.08347291 0.02093086 0.105377354 0.061619665
0002a0 a0 83 ba 3b ee 17 23 3d 10 90 8d 3b f8 fd 06 3c
       0.0056919605 0.039817743 0.004320152 0.008239262
0002b0 d4 ce 67 bc 1b d6 88 3d db 6b 98 bb 21 7d 95 3d
       -0.014148433 0.066814624 -0.0046515292 0.07299257
0002c0 b6 a2 bd bd 58 9a ed bd 17 5b 3a be 6e fb 72 bd
       -0.0925955 -0.11601704 -0.1819881 -0.059321813
0002d0 42 b3 5a 3d d2 d2 79 3d 24 ae be 3c 20 3d 05 bd
       0.05339361 0.06099207 0.023276396 -0.032528996
0002e0 30 06 3b be dc 28 25 3e da 7f ef 3d b7 25 fd 3d
       -0.18264079 0.16128868 0.116943076 0.12360709
0002f0 1b a1 22 bd 2f f2 65 bd 52 e2 d9 bc 01 5a 00 3d
       -0.039704423 -0.056139167 -0.026597176 0.031335834
000300 30 f9 0c 3d 92 31 15 3d 80 6d 20 bd 10 e3 d2 bb
       0.03441733 0.036424227 -0.039166927 -0.0064357594
000310 14 68 18 3d f4 86 bf bc 3c 06 40 bd c0 53 1f 3c
       0.03720863 -0.02337978 -0.046880946 0.009724557
000320 ca 71 ac 3d 3f 98 36 3c d8 0c 96 3d f2 2a 28 3c
       0.08420141 0.011144697 0.073266685 0.010264145
000330 6e 35 7e bd 04 cf fd bc ca 11 06 3d 14 40 6d 3d
       -0.062062673 -0.030982502 0.03273181 0.057922438
000340 6d cd 57 3c 90 60 ef bd 97 95 8e 3d c7 75 c6 3b
       0.013171536 -0.1168834 0.06962126 0.0060565206
000350 f4 f2 09 3e 19 50 08 be 6a 4c 02 3c c2 bf 4e 3d
       0.13471586 -0.13311805 0.007952789 0.050475843
000360 a8 cf ef bc 74 fc 99 bd c4 8b 63 3d e0 13 c3 3b
       -0.029273823 -0.07518855 0.055553213 0.005953297
000370 de d4 60 3b 8c 02 ed bc eb 01 32 be 73 a3 b7 3d
       0.0034306566 -0.028931879 -0.17383544 0.08966722
000380 d7 2a b3 bd da 56 3b 3e 18 b7 b5 bd 8e 02 aa bd
       -0.087484054 0.1829485 -0.08872813 -0.083012685
000390 b7 20 10 be 99 2f a9 bd 36 4a 27 3e fd 1a 89 3e
       -0.1407498 -0.08261032 0.16336903 0.26778403
0003a0 c6 94 89 bc 85 67 42 3d a5 61 ba 3d a9 5f 73 bd
       -0.016794574 0.047462005 0.091006555 -0.0594174
0003b0 46 bd 30 bd 3e f1 57 3e d7 0e f8 3d e9 b9 eb bd
       -0.043149255 0.2108812 0.121122055 -0.11510069
0003c0 9a 26 9f bb 2a 9e 1d 3e 25 f0 a5 3c 32 8b fb bd
       -0.0048568966 0.15392366 0.020256111 -0.12282409
0003d0 5a 7a 37 3e 2e b2 cd 3c fa 3c a0 bd 6f 1d 11 bd
       0.17917767 0.025109377 -0.0782413 -0.03542846
0003e0 90 23 e7 bd d7 03 d0 bc 68 55 b2 bc ba 95 ff 3c
       -0.1128608 -0.025392456 -0.02176924 0.031199325
0003f0 23 3d 95 be 69 18 ff bc 50 8b 9f bd 8b c6 55 be
       -0.29148206 -0.03113957 -0.077902436 -0.2087652

conv.7.bias f4 [64]
000000 5e 19 58 bd a3 6f 1c 3f d3 e1 df 3e 02 a9 e4 3e
       -0.052758567 0.61107844 0.43726978 0.44660193
000010 e0 88 4c 3f 64 00 39 3f 70 54 77 be 12 ab d8 3e
       0.79896355 0.7226622 -0.24153304 0.42318016
000020 a4 14 e9 bb fa 04 b6 3e f0 99 b3 be fd dc 88 3e
       -0.0071130563 0.35550672 -0.35078382 0.267311
000030 b9 cd 2a 3f a8 1d 27 3f c4 67 4b 3f 02 52 20 bf
       0.6672016 0.65279627 0.7945521 -0.62625134
000040 62 77 c7 3e f8 62 f9 3e d4 f0 88 3f f3 2f 98 3e
       0.3895827 0.4870832 1.0698495 0.29724082
000050 cd 81 58 3e 79 5a 17 3e ce c8 0c 3f 63 20 0f 3f
       0.21143265 0.14780606 0.54993904 0.55908793
000060 b5 20 01 3e 36 dd 53 3d f9 ad 9e be 4f 52 64 3e
       0.12610133 0.051724635 -0.30992106 0.22297023
000070 bf b5 85 3e 8b 85 91 3d d6 97 e5 3e b7 76 1f 3c
       0.26115224 0.071055494 0.44842404 0.009732894
000080 88 d5 93 be 32 d0 df 3e da 3d 8b 3c a7 19 9e bd
       -0.2887385 0.43713528 0.016997267 -0.077197365
000090 fb a2 e8 3d 32 65 8b be 7c 4e d1 bd 2f 98 a2 3d
       0.11359211 -0.27225643 -0.10220048 0.07939183
0000a0 53 f5 2d 3e 4c 5f 16 3e 07 98 3e bb f0 25 3e 3e
       0.16988115 0.1468479 -0.0029082315 0.1856916
0000b0 97 14 ed 3e 8f 06 10 3e 51 b6 36 3f 68 0b 74 3e
       0.4630477 0.14065002 0.7137194 0.23832476
0000c0 7c 55 44 3e ac b8 ad 3e f4 49 98 be bf 02 06 3e
       0.19173235 0.33929956 -0.29743922 0.13086985
0000d0 7b 62 87 3e 7e a5 c7 bd 89 38 fb 3e ad f6 a2 be
       0.26442322 -0.09748362 0.4906657 -0.31828824
0000e0 4c 65 04 3e 7c 0e 8e be d6 8c 4d 3f 01 55 b5 3d
       0.12929267 -0.27745426 0.80293024 0.08854104
0000f0 88 47 34 3f 52 f2 5e be 68 e8 f1 3e 15 dd 61 3e
       0.7042165 -0.21772125 0.47247624 0.22056992

out.weight f4 [4, 64]
000000 cb e5 77 3e 3b a8 a9 3e fa d4 ba 3c fd d0 73 3d
       0.24208753 0.33136162 0.022806633 0.05952548
000010 59 1f 86 3e b6 09 1d 3d 99 79 45 bc f6 63 9a 3d
       0.2619579 0.03833934 -0.012052917 0.07538597
000020 f4 62 54 3b 50 e0 92 3c 55 ca b7 3d a4 f6 ce 3d
       0.0032407613 0.017929226 0.08974139 0.10105637
000030 e0 9d bc 3d 1b ec e5 bc e8 13 3a bb f5 44 ac 3c
       0.092098 -0.028066685 -0.0028393213 0.021028975
000040 ff 1f 3f bf 5c 9e 96 3c 31 a7 f8 3e a1 a4 9d 3c
       -0.746582 0.018386059 0.48565057 0.01924354
000050 8b 4d 27 bd bf 0c 09 3c 95 4c 11 3e be b4 60 3c
       -0.040845435 0.008364855 0.1418937 0.013714967
000060 1c d5 f0 bd 2b ca 2a bc c5 47 80 3e 17 0c f2 3d
       -0.117593974 -0.010424177 0.25054756 0.11818712
000070 6f 5a ae 3d 0f 30 a4 bd 68 8d a8 3d eb 04 90 bd
       0.085133426 -0.08016979 0.08230096 -0.07032188
000080 1a 4d 46 bc 36 bf 20 3d 02 a8 08 3e 7c b0 a5 bd
       -0.012103343 0.039244853 0.1334534 -0.08090302
000090 e1 49 ee 3d c9 4c de be 9f 7b 8e bd 65 bf ff bd
       0.11635185 -0.43417957 -0.069571726 -0.124876775
0000a0 5c 4c be 3d 5d 73 70 3d bd d0 f6 3d e9 e4 20 bd
       0.09291908 0.05870377 0.120515324 -0.039280806
0000b0 fb ab c5 bf 96 dd cf bf c5 3f 3d bd 62 0a cb bf
       -1.5443109 -1.6239498 -0.046203393 -1.5862544
0000c0 f2 e3 4b bf 7c 96 08 bc 36 40 2c 3e ed e6 39 3c
       -0.7964469 -0.0083366595 0.1682137 0.011346561
0000d0 c4 db c5 bd d7 db ef 3c 51 e1 21 be 5d 36 96 40
       -0.096610576 0.029279632 -0.15808608 4.694136
0000e0 e0 9a c4 3d fd 58 9c 3d f5 e2 c5 3d e2 32 87 be
       0.095998526 0.07634161 0.09662429 -0.26406008
0000f0 ec 0f b9 bb 52 bf 13 3c 87 2a a0 3e ce 99 7e bd
       -0.00564765 0.009017782 0.31282446 -0.0621584
000100 e2 62 79 bc 2f 92 cc 3d 79 39 b0 3d 38 2d ae bc
       -0.015221329 0.0998882 0.08604712 -0.021261796
000110 22 15 a6 3e 32 87 04 3e 73 55 20 3e 49 89 ea bd
       0.32437998 0.12942198 0.15657596 -0.11451966
000120 e3 45 44 bf b4 e9 3e 3e 8b fa 8e 3d c0 84 13 3e
       -0.7666914 0.18643838 0.06981381 0.14406109
000130 05 0c f4 3d 5d d5 02 3e ce d6 d5 3d de 9b 31 3c
       0.11916355 0.12776704 0.10441361 0.010840384
000140 7f ea 05 3d f0 fe 19 3d 98 ee 00 3f 63 c4 b3 bf
       0.032694336 0.037596643 0.50364065 -1.4044307
000150 28 59 2b be 44 24 37 3e 83 3e bc 3d 80 4e ca 3c
       -0.16733229 0.17884928 0.09191611 0.024695635
000160 9a b0 7e bf 62 ec 8c bc a5 68 5f bc cf e8 ee 3d
       -0.9948822 -0.01720256 -0.013635789 0.116654985
000170 e1 9f ae bf 3a 91 83 be ac 0c bb 3a a6 e7 96 3d
       -1.3642541 -0.25696737 0.0014270744 0.07368402
000180 93 53 88 bd 05 e9 1a 3e 45 4f fd bd ef c3 6c bb
       -0.066565655 0.15127952 -0.12368635 -0.0036127528
000190 3d 81 3a 3d 8e 8b 6f ba d4 62 0d be 56 f8 97 bb
       0.045533407 -0.0009137922 -0.13807231 -0.0046377582
0001a0 d4 d8 1b bd 68 4e bd bd ad fe e1 bd 4b 38 d3 bd
       -0.03804858 -0.092434704 -0.11034904 -0.103134714
0001b0 52 99 fc 3d 5f d3 8c bd f3 a6 48 be 18 c5 0b 3d
       0.12333931 -0.06876253 -0.19594936 0.03412351
0001c0 93 ca ca bd 44 87 0d 3e 75 c4 bb bd 6b b5 27 3e
       -0.09901919 0.13821131 -0.091683306 0.16377799
0001d0 12 47 e5 3c 8a 40 47 3b a6 99 84 3d 7c f0 51 bd
       0.02798799 0.0030403459 0.064746186 -0.051254734
0001e0 d2 80 52 bd b5 ef d1 bd 98 a4 77 3d 01 28 13 3e
       -0.051392384 -0.102507986 0.060459703 0.14370729
0001f0 cf 80 a3 3d 1d 29 8b bd d8 91 29 bd da 29 71 bd
       0.07983553 -0.06794951 -0.041398853 -0.058877803
000200 5c ce 74 3d 7e 7a 18 3d 7e 87 a1 bf 5f d4 41 bc
       0.059767112 0.037226193 -1.2619474 -0.011830418
000210 5c 5a 44 3d 48 b8 f9 3c bc 83 18 be b1 eb 25 bd
       0.047937736 0.03048338 -0.14894003 -0.040507976
000220 41 04 7a 3d 90 a6 fc 3c dc c5 9b bd 5e 84 42 3e
       0.061039213 0.030841142 -0.07606098 0.18995807
000230 ed 6c c4 3d 6f fb 6d 3d 4e 89 79 3d 5c 42 46 be
       0.095910884 0.058101114 0.06092196 -0.19361252
000240 e5 c9 87 3c 3e a4 4c 3e 61 9e 0d 3f 65 df a6 3d
       0.016575763 0.19984528 0.5531979 0.08148078
000250 b8 52 52 bb a8 5b 8c bc e8 0a 2b 3e dd 6b b8 3c
       -0.0032092761 -0.017133549 0.16703379 0.02251237
000260 d8 0f f2 bc 5b 08 a7 bf aa 7d 50 bd d1 88 b9 bd
       -0.02954857 -1.3049425 -0.050901093 -0.09059299
000270 8c 4a c5 bd 00 6d 0a 3e 62 2d 56 3e 66 46 0b 3d
       -0.09633359 0.13518143 0.2091575 0.034002684
000280 bb c5 23 bd 69 41 4b 3d 8f 63 74 3d ff 23 46 40
       -0.039983492 0.049622927 0.05966526 3.095947
000290 fb 34 1b 3d e7 b2 b2 3c 88 8a 50 bd 9f 0d 69 bd
       0.037892323 0.021813823 -0.050913364 -0.056897756
0002a0 3f 3d 08 be 6c f1 08 c0 30 7e 83 bd 39 d5 08 3d
       -0.13304614 -2.1397352 -0.06420553 0.03340647
0002b0 44 77 cb 3b 00 ca a0 3d f6 b0 77 be 18 04 d9 bd
       0.006209286 0.078510284 -0.24188599 -0.10596484
0002c0 70 1d c6 3b 7c 17 11 c0 09 1a af 3e 9b 45 36 be
       0.0060459897 -2.2670584 0.3419955 -0.1779999
0002d0 77 31 7d 3d c5 47 c7 bc 8a 41 20 3e a4 f3 c0 bc
       0.06181475 -0.024326215 0.15650001 -0.023553677
0002e0 a8 16 81 3d f3 25 74 40 5a 96 90 3e dc 43 3e bd
       0.063031495 3.8148162 0.2823971 -0.046451434
0002f0 47 2a 68 3e b3 7f 90 bd a9 30 5e 3c 37 b2 b8 bf
       0.22672378 -0.07055607 0.013561406 -1.4429387
000300 e5 cf 13 3e 2b 95 18 3d 4e f7 9c 3c d2 f6 9a 3d
       0.14434774 0.037251633 0.019160893 0.075666085
000310 aa 9d 2d 3e 36 45 3a 3d 11 21 3b bf fd e6 0a 3e
       0.16954675 0.04547616 -0.7309733 0.13564678
000320 eb fa a7 bd 7a 20 8f 3b db 48 95 3d b0 04 8d 3d
       -0.08202156 0.004367885 0.07289287 0.0688566
000330 e8 5b 98 3d 0c 7d a4 3d 16 db 71 3e 13 02 35 3d
       0.07439405 0.08031663 0.23618731 0.04419143
000340 aa 50 cb ba c6 e5 5b 3d 84 58 01 3f 70 c2 d0 3d
       -0.0015511711 0.053685926 0.5052569 0.10193336
000350 45 42 fc 3d ed 79 41 bf b2 62 0a 3e 16 ec 41 3e
       0.123173274 -0.7557667 0.13514212 0.18937716
000360 4b 5e 3b 3d b1 54 dc bd 94 ba fb 3c 9d 72 b2 3d
       0.04574422 -0.10758341 0.030728616 0.08713267
000370 89 3d 84 bd a7 11 09 bf b1 1f bf bf 84 2d ba bd
       -0.064570494 -0.5354256 -1.4931546 -0.09090713
000380 af bb 76 40 44 41 05 be 6d e6 74 3d 2c b5 9f bc
       3.8552053 -0.13013178 0.059790064 -0.01949557
000390 8a a3 83 3e 65 80 9b 3d 66 f9 31 3d 3d 0d a2 bf
       0.25710708 0.07592849 0.043450736 -1.266029
0003a0 2e c9 aa bf 05 bc d7 bc 51 5b 8c be 3f bc 9a bf
       -1.3342645 -0.026334772 -0.2741342 -1.2088698
0003b0 91 9f 0d 3e 1b 9a d1 bd a7 c4 9a be ff 1c 98 bd
       0.13830401 -0.102344714 -0.3022816 -0.074274056
0003c0 f3 b1 67 3d be 40 c9 3c 89 88 27 bd e0 c8 f1 3d
       0.05656619 0.024567004 -0.040901694 0.11805892
0003d0 f5 aa 06 3e 06 94 f4 3b 9c ae 0a 39 33 4d 78 bd
       0.13151152 0.007463935 0.00013225753 -0.060620498
0003e0 7e d1 0a 3e 99 37 de bc 3d c3 0b 3e be 23 9d 3c
       0.13556477 -0.02712612 0.13648696 0.019182082
0003f0 d3 e5 2b 3d 11 1a a4 3e 63 23 bc 3b 79 5b d3 3d
       0.041967224 0.32051137 0.005741523 0.103201814

out.bias f4 [4]
000000 d8 60 5d 3f 46 6c 63 3f 74 40 48 3f 7b 89 53 3f
       0.86475897 0.8883709 0.7822335 0.82631654
