models/v17.1/model_99000.pth (torch, 295095 bytes, 10 tensors)

conv.0.weight f4 [16, 2, 3, 3]
0.15259223 0.06045539 -0.16147989 0.20667168 -0.11348295 0.07532367 -0.291191 0.31199315
0.078371145 -0.05999072 0.06842933 -0.04509131 -0.056628678 0.08812872 0.04461227 -0.03465861
0.016966613 -0.0054691625 -0.13364632 0.25790405 0.035695035 0.19697598 -0.16641016 0.22400354
-0.8355302 -0.5139598 -0.18086308 -0.9993229 0.5445146 -1.2042418 0.21401867 -0.19380593
0.2234636 -0.052989606 0.019086448 0.13100238 -0.013168704 0.21955746 0.120983526 -0.110216364
0.3214228 -0.057388376 0.32974616 0.17922647 0.15041994 0.10278136 0.13028574 0.022043424
0.2909022 -0.11756623 -1.4269638 -0.082202226 -0.33471382 0.06526571 0.004484642 0.05239863
0.05407151 0.118256874 0.14638367 -0.65646684 -0.30189425 -0.33593053 0.17716585 -0.03898763
0.03007362 -0.057183117 0.318891 -0.065927096 -0.70612884 -0.28598058 0.3477831 0.14972241
0.23122214 -0.11720508 -0.1407855 -1.2204881 -0.20406799 0.14440311 0.040415775 0.5063786
-1.1788545 -0.27454656 0.24789524 -0.7855849 0.22104038 -0.018991556 0.21083508 -0.0052531045
-0.04359734 0.00066844316 -0.010975397 -0.18656889 0.41406065 0.26321927 -0.120905206 -0.07992777
0.5312679 -0.41081873 0.3086145 -0.18975621 -0.10479313 0.055273958 0.037396617 -0.37636253
-0.124654256 -0.028442904 -0.12416149 -0.30733818 -1.0228992 -0.019421853 0.348309 0.22880967
0.0643131 -1.0630248 -0.269389 0.12813185 -0.14554729 -0.111947715 0.031348232 -0.16629335
0.12661344 0.033975128 0.021616789 -0.90970224 -0.2888257 -0.0922407 0.15058945 -0.17786328
0.4683451 -0.071377605 0.30977377 0.07718636 0.053733326 0.37252453 -0.064429894 -1.6049602
-0.9531899 -0.8136706 0.086013466 0.044465896 -0.011614786 -0.3285228 0.21338008 -0.031216204
-0.007390974 0.076296724 0.12295521 0.29559743 0.12668242 -0.22562735 0.14454803 -0.30139643
0.00787249 -0.38373613 0.46025968 -0.46276546 0.06166333 0.2318578 -0.0049460037 -0.29012805
0.40182322 0.06250289 0.012961265 -0.11100267 0.16322681 0.05741547 -0.11818468 0.32175434
0.26424345 -0.06537281 -0.22077228 -0.008060773 0.20936002 -0.13346478 -1.5899106 0.0010192482
-0.22821815 0.22790167 0.3597683 -0.335194 -0.089848794 0.12016216 0.05937517 -0.12828408
0.045828987 0.08192765 0.38207588 -0.3039124 -0.005003799 0.051703602 -0.25270736 -0.123414405
0.54639006 0.016047357 -0.049294036 0.101309285 0.07717726 -0.11892643 0.25866193 0.16612543
-0.48123676 -0.060828973 0.14296815 0.17359616 -1.0988216 -0.26777786 -0.087558374 -1.437448
-0.29759204 0.25362748 0.11985209 0.18458927 -0.2584209 0.056912564 0.13036269 0.08906985
-0.08369427 -0.04104637 0.080581546 -0.05847754 -0.033990372 0.22029272 -0.094659 0.0106725795
-0.253232 0.13800836 0.2150467 0.059523746 -0.096666455 -0.84812176 -0.20079266 0.09167201
0.070165016 0.23799026 0.25669655 0.07271122 0.031101923 0.034063682 -1.4563249 -0.0108799795
-0.039698683 -0.19401066 0.0851888 0.11761671 -1.421765 -0.18271612 -0.14637828 0.061071157
-0.17815162 0.27327493 -0.25583822 -0.072406314 0.054929823 -1.1136303 0.0040098713 -0.14657168
00000000: 2341 1c3e 12a0 773d fc5a 25be bea1 533e
00000010: c069 e8bd 4c43 9a3d fd16 95be 91bd 9f3e
00000020: 0d81 a03d d4b8 75bd ad24 8c3d aab1 38bd
00000030: 79f3 67bd d57c b43d 5bbb 363d 30f6 0dbd
00000040: 91fd 8a3c a936 b3bb 95da 08be 000c 843e
00000050: f534 123d 12b4 493e 6d67 2abe 2f61 653e
00000060: 4fe5 55bf df92 03bf 2c34 39be a0d3 7fbf
00000070: 4f65 0b3f 9824 9abf b627 5b3e 1075 46be
00000080: a4d3 643e a10b 59bd 2f5b 9c3c 7d25 063e
00000090: 8cc1 57bc acd3 603e 36c6 f73d 1eb9 e1bd
000000a0: 8791 a43e 1310 6bbd 7dd4 a83e 2587 373e
000000b0: af07 1a3e 097f d23d a069 053e 6994 b43c
000000c0: 22f1 943e 90c6 f0bd c0a6 b6bf a459 a8bd
000000d0: 9c5f abbe 07aa 853d e7f3 923b f29f 563d
000000e0: 167a 5d3d a930 f23d 9ae5 153e 360e 28bf
000000f0: e291 9abe 16ff abbe f76a 353e 7eb1 1fbd
00000100: f45c f63c d838 6abd ae45 a33e c904 87bd
00000110: dcc4 34bf 0c6c 92be a010 b23e d550 193e
00000120: 7fc5 6c3e 3809 f0bd 132a 10be f438 9cbf
00000130: 33f7 50be 69de 133e 038b 253d 07a2 013f
00000140: b4e4 96bf 5e91 8cbe 40d8 7d3e 181c 49bf
00000150: 6958 623e 2e94 9bbc 27e5 573e 3c22 acbb
00000160: 2093 32bd 763a 2f3a 27d2 33bc ea0b 3fbe
00000170: c2ff d33e adc4 863e 269d f7bd 2cb1 a3bd
00000180: 2c01 083f d556 d2be b802 9e3e 744f 42be
00000190: c89d d6bd f266 623d 322d 193d 97b2 c0be
000001a0: bb4a ffbd 1801 e9bc 6148 febd 6e5b 9dbe
000001b0: 5cee 82bf 941a 9fbc 8f55 b23e 154d 6a3e
000001c0: 96b6 833d 3211 88bf 5bed 89be ff34 033e
000001d0: 590a 15be d844 e5bd 0167 003d ce48 2abe
000001e0: f4a6 013e 8129 0b3d b115 b13c 3fe2 68bf
000001f0: f6e0 93be b1e8 bcbd 1f34 1a3e cb21 36be
00000200: eeca ef3e 6c2e 92bd ab9a 9e3e e213 9e3d
00000210: 7a17 5c3d 89bb be3e d2f3 83bd 566f cdbf
00000220: 4104 74bf b74c 50bf d427 b03d df21 363d
00000230: f24b 3ebc 2434 a8be 4f80 5a3e 20b9 ffbc
00000240: fc2f f2bb 7541 9c3d f1cf fb3d 8c58 973e
00000250: 09b9 013e db0a 67be 6604 143e a250 9abe
00000260: 9efb 003c 1079 c4be 28a7 eb3e 98ef ecbe
00000270: b092 7c3d 226c 6d3e 1612 a2bb aa8b 94be
00000280: c6bb cd3e 8401 803d 7c5b 543c 5e55 e3bd
00000290: ee24 273e 7c2c 6b3d cf0a f2bd fcbc a43e
000002a0: eb4a 873e 2ee2 85bd 2112 62be 5511 04bc
000002b0: 7962 563e feaa 08be 3182 cbbf 4b98 853a
000002c0: 05b2 69be 0e5f 693e 8d33 b83e 8c9e abbe
000002d0: a502 b8bd 9417 f63d 6133 733d e75c 03be
000002e0: 2db7 3b3d afc9 a73d 739f c33e 689a 9bbe
000002f0: e9f6 a3bb 28c7 533d dc62 81be b1c0 fcbd
00000300: 38e0 0b3f bf75 833c 8be8 49bd 3e7b cf3d
00000310: 1c0f 9e3d b38f f3bd 566f 843e c91c 2a3e
00000320: aa64 f6be cd27 79bd 3e66 123e 31c3 313e
00000330: 30a6 8cbf 2e1a 89be ce51 b3bd 4cfe b7bf
00000340: fc5d 98be 76db 813e 0375 f53d f804 3d3e
00000350: bf4f 84be 261d 693d cc7d 053e 416a b63d
00000360: e767 abbd 3d20 28bd f007 a53d 2586 6fbd
00000370: 7d39 0bbd 6a94 613e 94dc c1bd 0bdc 2e3c
00000380: a0a7 81be 1052 0d3e 3435 5c3e 2ccf 733d
00000390: 10f9 c5bd 821e 59bf 979c 4dbe 89be bb3d
000003a0: adb2 8f3d b8b3 733e bb6d 833e 9fe9 943d
000003b0: 76c9 fe3c 5c86 0b3d db68 babf f141 32bc
000003c0: 169b 22bd bbaa 46be 7777 ae3d 08e1 f03d
000003d0: 65fc b5bf ef19 3bbe 30e4 15be c025 7a3d
000003e0: 616d 36be b1ea 8b3e 3afd 82be c349 94bd
000003f0: 18fe 603d 708b 8ebf 3d65 833b e316 16be

conv.0.bias f4 [16]
-0.0036599364 0.096646294 -0.03980469 -0.048978176 -0.08649232 -0.30820245 0.19546454 -0.2814271
-0.20418891 -0.07695226 -0.33661172 -0.03557811 0.008251569 0.10044377 -0.123926476 0.09802545
00000000: 8bdb 6fbb 7eee c53d 3e0a 23bd 579d 48bd
00000010: e322 b1bd b6cc 9dbe db27 483e 3617 90be
00000020: e616 51be 2699 9dbd 5f58 acbe 5aba 11bd
00000030: 9731 073c 77b5 cd3d 2acd fdbd 91c1 c83d

conv.2.weight f4 [32, 16, 3, 3]
-0.054268308 0.12049042 -0.14573489 0.23773097 0.069636516 0.0796208 0.24242039 0.15441453
-0.049772985 0.16510376 -0.008062241 -0.028673815 -0.11816206 0.051990554 0.016377784 0.09648484
-0.018208878 -0.18629783 0.0039665382 0.13246217 -0.12258393 -0.31388882 0.22006153 -0.79364324
-0.058390845 -0.044093013 0.07204441 0.07315975 -0.124832004 -0.14194673 0.0003399681 -0.31003746
-0.1712467 -0.11248592 0.032958172 0.15454832 0.0609739 0.046816148 0.16027345 0.048168726
0.050860446 -0.2904935 0.18282272 -0.21975102 -0.13580054 0.33365446 0.026836863 -0.31603816
0.49507502 -0.2608409 -0.29645663 0.20395842 0.12055409 0.041625965 -0.26976198 -0.038697213
-0.2799589 0.056735743 -0.17511946 -0.09699849 0.0018387411 0.12641518 0.08947823 0.06278787
-0.20654143 0.019608516 0.004339273 -0.14559741 0.20159717 0.069712356 -0.27694803 -0.3843575
-0.20734555 0.045717977 0.4455576 0.03241559 0.015814278 0.24890019 0.078620166 0.14572404
0.030572137 0.016404478 -0.29898643 0.21219398 -0.08615773 -0.11772091 -0.09685914 0.013584886
0.14971589 0.22677742 0.19178627 0.055809252 0.2778634 -0.009980804 -0.024434991 -0.30450562
0.11232089 0.16113135 -0.18870363 -0.05649624 -0.0043412806 -0.28730002 -0.13898097 -0.06436922
-0.091276936 0.10174352 -0.14276744 -0.0512508 0.030345637 0.01904993 -0.08082251 -0.0013457685
-0.21679135 -0.052067254 0.07295505 0.024924207 -0.09640265 -0.13161676 -0.6495605 0.103154995
-0.0558086 -0.13574846 -0.30081382 -0.730758 0.15193653 0.07631894 0.15542178 -0.026923059
0.05733582 0.1923827 -0.0890549 -0.12661764 0.006523757 0.08429748 0.124826856 0.055259645
0.00603427 0.09452953 0.1324695 0.182717 -0.009655084 0.08403225 -0.40608174 0.06099395
0.0143842595 0.042164404 -0.0060206437 0.071441226 -0.27009395 -0.047014683 -0.065320306 0.049593844
-0.02054174 0.04779359 0.07318022 -0.008905924 -2.187271 0.024099939 0.020805664 -0.1411691
0.09810974 -0.08596421 -0.026197147 0.010521638 0.0104780365 0.1459198 0.09710239 0.050188962
0.01915141 0.10270824 -0.07034041 -0.08375736 -0.2286068 0.14912213 -0.17342067 0.14692952
-0.04130298 -0.32355008 -0.16099319 0.2012269 -0.2017636 -0.37693104 -0.5252131 -0.29039556
0.19295138 0.3259138 -0.05266854 0.066657774 -0.0006960237 -0.06466931 -0.0936729 -0.048951313
0.07265365 0.14663342 -0.23145841 -0.22464389 -0.29785958 0.019617833 -0.044730444 -0.07673996
0.23445073 0.020879941 -0.14117149 -0.71419936 0.09988416 0.0092832055 0.36347058 0.004213775
-0.033254553 -0.21032436 0.1353289 -0.103132255 -0.19173233 0.2140903 -0.17203003 -0.010821677
0.0050500096 0.074958876 -0.02418557 0.16820528 0.19368133 -0.4868675 0.19737616 0.21421011
0.1862993 0.20349555 0.074732274 0.08542028 0.090612255 0.17429757 0.06509161 0.1074262
-0.08192362 0.11115321 0.06276763 0.15891747 -0.38350806 -0.15967247 -0.03851777 0.14379875
-0.00693946 -0.23573038 0.22583261 0.051419087 0.28308937 -0.024728663 0.17329973 0.14888628
-0.15905327 0.15603842 0.025949718 -0.212246 0.19985075 -0.028823264 0.14268075 0.11653826
00000000: 7248 5ebd aec3 f63d 873b 15be bf6f 733e
00000010: 979d 8e3d 3b10 a33d 0d3d 783e d81e 1e3e
00000020: c2de 4bbd f610 293e 7d17 04bc 59e5 eabc
00000030: f3fe f1bd 0cf4 543d b42a 863c d899 c53d
00000040: c92a 95bc dcc4 3ebe bcf9 813b 2aa4 073e
00000050: 490d fbbd 09b6 a0be cf57 613e 342c 4bbf
00000060: 3d2b 6fbd e09a 34bd 058c 933d c7d4 953d
00000070: eca7 ffbd 7c5a 11be bf3d b239 3bbd 9ebe
00000080: 4c5b 2fbe 055f e6bd 26ff 063d ea41 1e3e
00000090: c5bf 793d 4ac2 3f3d b91e 243e 924c 453d
000000a0: 0b53 503d 90bb 94be e135 3b3e 6906 61be
000000b0: 4c0f 0bbe c2d4 aa3e fbd8 db3c c1cf a1be
000000c0: 797a fd3e f08c 85be 2ac9 97be 7ada 503e
000000d0: 10e5 f63d fd7f 2a3d 3e1e 8abe f880 1ebd
000000e0: c656 8fbe bd63 683d 8452 33be 25a7 c6bd
000000f0: ea01 f13a fb72 013e 5d40 b73d ed96 803d
00000100: 997f 53be 0aa2 a03c 7630 8e3b 7d17 15be
00000110: 7d6f 4e3e 5ac5 8e3d 22cc 8dbe 82ca c4be
00000120: 6452 54be c642 3b3d 2020 e43e 36c6 043d
00000130: f28c 813c b1df 7e3e 9c03 a13d af38 153e
00000140: 6b72 fa3c af62 863c c014 99be 6149 593e
00000150: 7773 b0bd a917 f1bd 165e c6bd 2493 5e3c
00000160: 1f4f 193e 5738 683e 9f63 443e 3e98 643d
00000170: 1d44 8e3e 8786 23bc e42b c8bc 29e8 9bbe
00000180: 7f08 e63d 9eff 243e 863b 41be 9a68 67bd
00000190: 4d41 8ebb fd18 93be 0751 0ebe 02d4 83bd
000001a0: 67ef babd e85e d03d a131 12be 5cec 51bd
000001b0: 6a97 f83c 990e 9c3c 4686 a5bd 7f64 b0ba
000001c0: 8dfe 5dbe 7944 55bd 7569 953d da2d cc3c
000001d0: c16e c5bd 8bc6 06be 9949 26bf ed42 d33d
000001e0: 8f97 64bd a501 0bbe 4504 9abe f512 3bbf
000001f0: 4095 1b3e 1b4d 9c3d e326 1f3e bf8d dcbc
00000200: f7d8 6a3d f8ff 443e 6a62 b6bd 0ea8 01be
00000210: 3dc5 d53b 28a4 ac3d 39a5 ff3d f057 623d
00000220: 20bb c53b b398 c13d 16a6 073e 2a1a 3b3e
00000230: 5c30 1ebc 1a19 ac3d f2e9 cfbe cbd4 793d
00000240: f5ab 6b3c 95b4 2c3d d248 c5bb c74f 923d
00000250: c149 8abe 7892 40bd a7c6 85bd ea22 4b3d
00000260: 2747 a8bc 36c3 433d 83df 953d 27ea 11bc
00000270: 40fc 0bc0 3c6d c53c a470 aa3c a28e 10be
00000280: c2ed c83d 010e b0bd 669b d6bc f362 2c3c
00000290: 12ac 2b3c 006c 153e 9edd c63d f192 4d3d
000002a0: 6be3 9c3c b358 d23d a20e 90bd fb88 abbd
000002b0: e717 6abe 79b3 183e 3095 31be b174 163e
000002c0: 502d 29bd 5ba8 a5be 66db 24be 6d0e 4e3e
000002d0: 1e9b 4ebe 1bfd c0be 5e74 06bf baae 94be
000002e0: 0c95 453e 2cde a63e f8ba 57bd df83 883d
000002f0: 5c75 36ba 5871 84bd 94d7 bfbd 2c81 48bd
00000300: 70cb 943d 1227 163e 6f03 6dbe 0c09 66be
00000310: 0d81 98be 94b5 a03c 4537 37bd d729 9dbd
00000320: da13 703e 690c ab3c 428f 10be c5d5 36bf
00000330: 1190 cc3d 9618 183c d118 ba3e b513 8a3b
00000340: ed35 08bd 455f 57be a993 0a3e 0137 d3bd
00000350: 7b55 44be 7d3a 5b3e a428 30be 674d 31bc
00000360: 8d7a a53b 0a84 993d d120 c6bc 013e 2c3e
00000370: 6654 463e b246 f9be fa1c 4a3e e559 5b3e
00000380: 3ec5 3e3e 2361 503e 3c0d 993d d4f0 ae3d
00000390: eb92 b93d 107b 323e c04e 853d 4402 dc3d
000003a0: 92c7 a7bd 4ba4 e33d 518c 803d 43bb 223e
000003b0: 2b5b c4be 2e81 23be cfc4 1dbd fb3f 133e
000003c0: 6964 e3bb 4e63 71be aa40 673e d29c 523d
000003d0: 17f1 903e c493 cabc 7c75 313e a575 183e
000003e0: dcde 22be 89c8 1f3e 8194 d43c 0457 59be
000003f0: ada5 4c3e c41e ecbc e71a 123e 9cab ee3d

conv.2.bias f4 [32]
0.13078049 -0.043019902 -0.19753288 -0.20469607 0.07574392 -0.112723954 0.12102271 -0.13537282
0.008594349 -0.06670463 0.039623547 0.07545222 -0.096645854 0.019913314 0.0466006 -0.08645435
0.1120375 0.04337563 0.07060604 -0.20667124 -0.045264512 0.15547949 -0.24687926 0.048042305
0.106678955 0.14318638 -0.073060706 0.040542424 0.11022305 0.05740717 -0.019459546 -0.05191997
00000000: 52eb 053e a335 30bd 0f46 4abe d99b 51be
00000010: a11f 9b3d d1db e6bd c1da f73d 2c9f 0abe
00000020: 50cf 0c3c 709c 88bd 4d4c 223d b286 9a3d
00000030: 43ee c5bd 3f21 a33c 45e0 3e3d fa0e b1bd
00000040: eb73 e53d a5aa 313d e699 903d a0a1 53be
00000050: 4867 39bd 0436 1f3e ebcd 7cbe 02c8 443d
00000060: 7f7a da3d 739f 123e daa0 95bd d00f 263d
00000070: 9fbc e13d c823 6b3d a069 9fbc 09aa 54bd

conv.4.weight f4 [64, 32, 5, 5]
-0.08098986 -0.06812589 0.17418715 -0.10512728 0.008053805 -0.13372663 -0.09472267 0.15323046
-0.19678277 0.083785504 0.26350614 -0.015316995 0.021780344 -0.2764562 -0.15151362 -0.35750902
0.07289615 -0.15354379 0.3459022 -0.31211078 -0.042886667 -0.111865096 -0.010919322 0.06218588
-0.14682233 -0.26842248 -0.32891017 0.24535166 0.19511712 -0.032224957 -0.30901918 0.06061933
-0.4108085 0.09090635 -0.13295493 0.20049462 -0.4512785 0.21135302 0.3833212 -0.62607044
-0.22108984 0.03697851 0.15487614 -0.1617375 0.14986046 -0.11570165 0.021264702 0.051797442
-0.109845 0.06801376 -0.3644001 0.13077909 -0.077372156 -0.43758535 0.5241044 0.17930295
-0.14468315 -0.39198554 0.14419995 -0.24065246 -0.3462939 -0.08103557 -0.42993915 -0.22934672
-0.04856397 -0.0042958823 -0.050991826 0.44605595 -0.041864917 -0.06610558 0.002877143 0.09929813
0.24926239 -0.008024166 0.0051171016 0.031928767 -0.049563434 -0.11779864 0.028605247 0.027531072
0.103316605 -0.030427927 -0.2748232 0.493131 -0.23033558 -0.21740615 0.048717543 -0.23764272
0.19313279 0.41221213 -0.029506471 0.18585952 -0.07765169 -0.31707084 0.17185575 0.17970541
0.096271515 -0.12629443 0.21718404 -0.1102997 0.14664845 -0.20012191 -0.087456755 -0.076313
-0.12287007 0.1782014 0.03315978 -0.1494688 -0.098427214 0.10093809 -0.0628998 0.19527058
0.09695064 0.39568377 0.13568397 -0.29356867 0.035257135 -0.09557289 0.123318635 0.17093214
0.12649582 -0.2931334 0.04823944 -0.12736547 0.24542193 0.36589304 -0.015213593 0.056014456
-0.08355369 0.0010898245 0.103956036 -0.04685984 0.13804834 0.050517224 -0.22746 -0.15252817
0.08554697 0.012005944 0.346161 -0.0023687624 -0.37613344 -0.22529222 0.018157784 0.059982788
-0.10835478 -0.3280183 0.16910693 0.17365426 0.038299646 -0.15647882 -0.34251222 0.32707328
-0.23740572 0.12083991 -0.14811356 -0.1545082 -0.38095134 0.035464946 0.014193194 -0.10070325
-0.045839306 0.16776514 -0.29642826 0.112654716 0.37086987 0.12270597 -0.2300854 0.05390661
-0.40641347 0.3435093 0.21325232 -0.36657578 0.072747394 -0.22079098 0.027359292 -0.044941142
0.09008598 0.21926452 0.02818331 -0.013937664 -0.20776726 0.086188324 -0.0826546 -0.042830303
0.23327649 -0.23673306 0.18798019 -0.18497442 -0.36375746 -0.06911505 -0.4189045 -0.1711866
0.052319374 -0.10233179 0.08584561 -0.111655995 -0.05800434 -0.22178723 -0.034288045 0.06169521
-0.19041657 -0.027246205 -0.20736305 -0.4160272 0.02856151 0.4615788 0.07006061 -0.16300897
-0.025474893 -0.0058398196 -0.10500535 -0.16876364 -0.029264174 -0.11990709 0.16141148 -0.07409223
0.05134059 0.25079656 0.18876034 -0.1822721 -0.107552044 -0.2013345 0.008893492 0.15680382
-0.07140428 -0.11176794 -0.13670778 0.08741346 0.028486568 0.03914847 -0.14967456 0.20290774
-0.1658966 0.411946 -0.06471485 -0.23096855 -0.06338523 0.23364894 -0.17709146 -0.059786797
0.21315104 -0.042874664 -0.033390924 0.1467846 -0.09816924 0.30686176 0.021751463 -0.15579544
0.012819867 0.090527885 -0.23966958 0.20700166 -0.21991853 -0.07585407 0.24930473 0.08886069
00000000: 03de a5bd 9685 8bbd 1e5e 323e f94c d7bd
00000010: 1bf4 033c a2ef 08be f6fd c1bd 72e8 1c3e
00000020: 6c81 49be bc97 ab3d 47ea 863e 22f4 7abc
00000030: b16c b23c ab8b 8dbe 6326 1bbe 6c0b b7be
00000040: 944a 953d 953a 1dbe 181a b13e fccc 9fbe
00000050: eea9 2fbd 8719 e5bd f5e6 32bc 9fb6 7e3d
00000060: 9858 16be ac6e 89be ea66 a8be 773d 7b3e
00000070: c8cc 473e 51fe 03bd c337 9ebe f94b 783d
00000080: 7e55 d2be 1c2d ba3d 5625 08be 764e 4d3e
00000090: fa0d e7be ed6c 583e ad42 c43e 2746 20bf
000000a0: 6065 62be c776 173d da97 1e3e 849e 25be
000000b0: 0575 193e fdf4 ecbd 5033 ae3c 8e29 543d
000000c0: 6af6 e0bd cc4a 8b3d a692 babe f4ea 053e
000000d0: 4b75 9ebd 300b e0be b52b 063f 319b 373e
000000e0: d227 14be 54b2 c8be 27a9 133e 996d 76be
000000f0: 6f4d b1be faf5 a5bd fc20 dcbe ded9 6abe
00000100: 03eb 46bd 79c4 8cbb cedc 50bd 7261 e43e
00000110: 8c7a 2bbd 5d62 87bd 738e 3c3b d15c cb3d
00000120: a43e 7f3e cb77 03bc 5cad a73b bdc7 023d
00000130: 0703 4bbd 6a40 f1bd 8d55 ea3c d888 e13c
00000140: a897 d33d fd43 f9bc a0b5 8cbe ab7b fc3e
00000150: 17dd 6bbe b89f 5ebe 0c8c 473d 9d58 73be
00000160: 9ac4 453e 780d d33e 8eb7 f1bc f551 3e3e
00000170: d907 9fbd 1c57 a2be f4fa 2f3e b204 383e
00000180: 002a c53d 5453 01be 7e65 5e3e cfe4 e1bd
00000190: 032b 163e c2ec 4cbe 871c b3bd fd49 9cbd
000001a0: 4ea3 fbbd 6e7a 363e 8dd2 073d 590e 19be
000001b0: 3594 c9bd a1b8 ce3d 9cd1 80bd 03f5 473e
000001c0: 0f8e c63d 1097 ca3e bdf0 0a3e a24e 96be
000001d0: c969 103d b8bb c3bd 7b8e fc3d d608 2f3e
000001e0: 1f88 013e 9515 96be b896 453d 186c 02be
000001f0: e34f 7b3e 5556 bb3e 6f42 79bc 6a6f 653d
00000200: 321e abbd 71d8 8e3a e7e6 d43d 1bf0 3fbd
00000210: 8b5c 0d3e 26eb 4e3d 46eb 68be 5830 1cbe
00000220: 4033 af3d 94b4 443c 043c b13e 3d3d 1bbb
00000230: 9094 c0be 01b3 66be a2bf 943c 83b0 753d
00000240: 1ce9 ddbd 04f2 a7be 5e2a 2d3e 6cd2 313e
00000250: 17e0 1c3d fc3b 20be c35d afbe 2676 a73e
00000260: 7c1a 73be ea7a f73d 15ab 17be 6637 1ebe
00000270: 0e0c c3be b143 113d 928a 683c 813d cebd
00000280: ffc1 3bbd a0ca 2b3e 72c5 97be 84b7 e63d
00000290: a8e2 bd3e 454d fb3d 829b 6bbe 2dcd 5c3d
000002a0: 6d15 d0be 73e0 af3e d15e 5a3e d2af bbbe
000002b0: 96fc 943d 0817 62be 9820 e03c 3414 38bd
000002c0: 007f b83d e186 603e afe0 e63c cd5a 64bc
000002d0: f1c0 54be 8183 b03d d146 a9bd d46e 2fbd
000002e0: 08e0 6e3e 276a 72be e17d 403e ef69 3dbe
000002f0: 6b3e babe 318c 8dbd a77a d6be 8a4b 2fbe
00000300: d74c 563d 5493 d1bd d3cf af3d e6ab e4bd
00000310: f595 6dbd 311c 63be 9f71 0cbd 1eb4 7c3d
00000320: 90fc 42be 6f33 dfbc fb56 54be 8401 d5be
00000330: d4f9 e93c 0e54 ec3e f07b 8f3d d3eb 26be
00000340: b9b0 d0bc f55b bfbb 0c0d d7bd 60d0 2cbe
00000350: 6cbb efbc d991 f5bd 0d49 253e abbd 97bd
00000360: 834a 523d 6868 803e 644a 413e 8aa5 3abe
00000370: 3f44 dcbd a22a 4ebe 02b6 113c 2e91 203e
00000380: 683c 92bd 97e6 e4bd 20fd 0bbe d405 b33d
00000390: aa5c e93c 255a 203d 4a44 19be 0cc7 4f3e
000003a0: cce0 29be 96ea d23e 3889 84bd 0583 6cbe
000003b0: 1ed0 81bd ab41 6f3e 7757 35be 00e3 74bd
000003c0: 4444 5a3e 589d 2fbd ecc4 08bd b44e 163e
000003d0: f40c c9bd fc1c 9d3e 2030 b23c d788 1fbe
000003e0: 6b0a 523c af66 b93d f16b 75be 3ef8 533e
000003f0: 5332 61be 6159 9bbd bd49 7f3e 98fc b53d

conv.4.bias f4 [64]
-0.07458255 -0.08284558 0.030461023 0.007982165 -0.03880496 -0.2049916 -0.03919357 -0.049756415
0.1878098 -0.0013545689 0.07944263 -0.048658684 0.010951959 -0.037107088 -0.04830208 -0.048872355
-0.022608124 0.019040411 0.09492028 -0.06772234 0.20442347 -0.053863633 -0.03258264 -0.15929757
-0.08995779 0.30373636 -0.052777626 0.130672 -0.02372092 -0.017715877 -0.03944383 0.009472467
-0.045952175 -0.018700786 -0.009865619 0.22121726 0.12992997 0.12954004 -0.06438915 -0.05088223
0.12540196 -0.035151675 -0.04604079 -0.038507696 -0.021114286 -0.032419864 0.06537554 0.30163175
-0.039750334 -0.015811734 0.034908913 0.014893382 0.24089067 0.2518047 -0.06819791 0.089132555
0.14760426 -0.072402075 -0.009578951 -0.14398284 0.33399776 0.056547597 -0.11655628 0.1796587
00000000: bcbe 98bd f2aa a9bd 6589 f93c a0c7 023c
00000010: f3f1 1ebd 51e9 51be 7089 20bd 62cd 4bbd
00000020: 3651 403e ca8b b1ba d1b2 a23d 544e 47bd
00000030: d86f 333c 9afd 17bd 67d8 45bd 612e 48bd
00000040: ac34 b9bc a3fa 9b3c 9065 c23d 03b2 8abd
00000050: 6354 513e 1da0 5cbd 6075 05bd e71e 23be
00000060: ca3b b8bd 5583 9b3e 5a2d 58bd e1ce 053e
00000070: 6052 c2bc e320 91bc da8f 21bd 6832 1b3c
00000080: 5938 3cbd 6432 99bc 68a3 21bc c786 623e
00000090: 5d0c 053e 25a6 043e 75de 83bd e369 50bd
000000a0: 5f69 003e 34fb 0fbd 4495 3cbd 3fba 1dbd
000000b0: def7 acbc b1ca 04bd 9ce3 853d 7a6f 9a3e
000000c0: 3fd1 22bd 9c87 81bc a6fc 0e3d 5f03 743c
000000d0: 0bac 763e 8cec 803e 59ab 8bbd 218b b63d
000000e0: 9225 173e 8a47 94bd 08f1 1cbc 3d70 13be
000000f0: c101 ab3e 749e 673d 0fb5 eebd 73f8 373e

conv.7.weight f4 [64, 256]
-0.03696745 -0.07210787 0.021708798 0.007709115 0.030286506 -0.04401508 0.047059774 -0.06342641
-0.009232521 -0.062702686 0.017508406 -0.002772409 -0.061445944 0.031240284 0.0076227263 0.039905697
-0.017586812 0.050830074 0.010296814 -0.044864096 0.009265406 0.0012154003 0.012884099 -0.03691135
0.02225402 0.036468565 -0.04809864 0.015289672 0.013958044 -0.048098683 -0.02349525 -0.013261728
-0.051171046 -0.030309593 -0.043224823 -0.043961372 0.009233535 -0.051668808 -0.027706906 -0.008118114
-0.014769159 -0.020007674 -0.06923567 -0.0067009446 0.023385204 0.01643245 0.031449907 -0.028983623
-0.0069288462 0.003884226 0.0060442537 0.041563883 -0.05326198 0.04536473 0.009349339 -0.035593122
-0.03979444 -0.051237945 -0.048647802 0.05871135 -0.017381132 -0.029302375 -0.002439293 -0.039224736
-0.0520972 -0.02213984 -0.0012932792 0.03904041 -0.059927486 -0.009344675 0.043073595 -0.060457274
0.03636944 0.0379379 -0.015231371 -0.00013949722 -0.032275088 -0.021179155 -4.6990812e-05 -0.054456227
-0.0014313373 -0.07152248 -0.07013156 0.037432674 -0.022349887 0.039835945 -0.010068841 -0.04441767
-0.053775974 0.01720865 0.002624005 -0.054284424 0.041620284 0.02115662 -0.03830128 -0.0316976
0.020636115 -0.02049279 -0.0153925605 -0.07639103 -0.045083 -0.032351095 0.024350505 -0.06526945
0.022026405 0.06029635 0.02451323 -0.010968484 -0.0020472493 -0.017955586 -0.042619366 -0.019725693
0.044183113 0.013102606 0.0009892434 0.019962437 -0.026356803 0.0021123732 0.021534717 0.007134156
-0.0032995641 0.0030834302 0.04318142 -0.020995997 0.034601495 -0.05673065 -0.013103243 -0.043150872
-0.015799195 0.018832654 0.04058762 0.041031785 0.049648166 0.029374532 -0.0065170303 -0.056735493
-0.061799735 -0.037049644 -0.012369886 0.0033572912 -0.04640351 -0.054780677 -0.007130556 0.014430106
-0.0129476525 -0.02680716 0.03220442 -0.04082435 -0.061545838 -0.061366506 0.028156253 -0.009647814
-0.009669135 0.026989037 -0.048516646 -0.05251775 -0.042151324 -0.036924087 0.025280185 0.0024833381
-0.030256255 0.00915787 -0.009963506 0.016430665 0.032568652 -0.011816378 -0.010661655 -0.05192392
0.0056919605 0.039817743 0.004320152 0.008239262 0.0158903 -0.046421707 -0.027263507 0.035569467
0.05258002 -0.054764464 0.007967332 -0.006786838 0.05339361 0.06099207 0.023276396 -0.032528996
-0.040099315 0.010153644 0.035183575 -0.034525424 0.017290179 0.03251101 -0.06137977 -0.05100154
0.03441733 0.036424227 -0.039166927 -0.0064357594 0.03720863 -0.02337978 -0.046880946 0.009724557
-0.013589652 -0.044193596 -0.057739154 -0.048987925 -0.062062673 -0.030982502 0.03273181 0.057922438
0.007569616 -0.044437345 -0.025410546 -0.03868392 0.027752 -0.013347756 0.041653812 -0.02186304
-0.03454929 -0.0077923555 -0.029533023 -0.025625259 -0.012209203 -0.00718705 0.026422182 -0.072668955
0.027209431 0.031230077 0.050645366 -0.049839478 -0.05804511 -0.05235754 -0.057068802 0.01681193
-0.06387679 -0.02091843 0.018037576 -0.054900303 -0.056825783 -0.042980563 -0.020954043 -0.025832549
0.0040141344 0.028744698 0.013763521 0.0071196016 0.012377892 -0.0021781698 -0.016924042 -0.05264348
0.005172832 -0.028674416 -0.045085136 0.031394616 0.0031188265 -0.056076813 -0.02184275 -0.004563267
00000000: 2e6b 17bd 4aad 93bd a6d6 b13c be9c fc3b
00000010: 681b f83c 2849 34bd c0c1 403d b5e5 81bd
00000020: 0044 17bc 446a 80bd ca6d 8f3c 4eb1 35bb
00000030: beae 7bbd a0eb ff3c 10c8 f93b 2874 233d
00000040: 3812 90bc 3233 503d f8b3 283c 6ac3 37bd
00000050: eecd 173c 114e 9f3a d417 533c 5b30 17bd
00000060: 104e b63c 1060 153d 1403 45bd 8881 7a3c
00000070: 48b0 643c 2003 45bd 1c79 c0bc b847 59bc
00000080: bb98 51bd d34b f8bc 830c 31bd d710 34bd
00000090: 4148 173c aca2 53bd 98f9 e2bc d701 05bc
000000a0: 58fa 71bc 22e7 a3bc 6ecb 8dbd 9993 dbbb
000000b0: 5492 bf3c 589d 863c 9ed1 003d 106f edbc
000000c0: 600b e3bb 808e 7e3b e00e c63b e43e 2a3d
000000d0: 3c29 5abd 5ed0 393d f82d 193c 18ca 11bd
000000e0: 7fff 22bd e1de 51bd eb42 47bd 507b 703d
000000f0: e062 8ebc 890b f0bc 8cdc 1fbb 1eaa 20bd
00000100: e063 55bd 9c5e b5bc 4083 a9ba d6e8 1f3d
00000110: 8676 75bd 681a 19bc f06d 303d 0ca2 77bd
00000120: 1ff8 143d c564 1b3d 008d 79bc 0046 12b9
00000130: e232 04bd e87f adbc 0018 45b8 7e0d 5fbd
00000140: b69b bbba 617a 92bd 23a1 8fbd 0153 193d
00000150: 1c17 b7bc 042b 233d c8f7 24bc 4eef 35bd
00000160: 3244 5cbd 28f9 8c3c 80f7 2b3b 5859 5ebd
00000170: 087a 2a3d a650 ad3c cee1 1cbd 58d5 01bd
00000180: 120d a93c 7fe0 a7bc 1431 7cbc e672 9cbd
00000190: f4a8 38bd 9582 04bd b67a c73c fdab 85bd
000001a0: b870 b43c 4ef9 763d f8cf c83c 28b5 33bc
000001b0: 252b 06bb 9817 93bc a591 2ebd c797 a1bc
000001c0: 5af9 343d 50ac 563c 80a9 813a 4488 a33c
000001d0: 39ea d7bc be6f 0a3b 9369 b03c a3c5 e93b
000001e0: 803d 58bb 6013 4a3b 00df 303d ccff abbc
000001f0: 4cba 0d3d 665e 68bd fcae 56bc f8be 30bd
00000200: 506d 81bc f046 9a3c 343f 263d f210 283d
00000210: e05b 4b3d dca2 f03c d08c d5bb 7a63 68bd
00000220: b821 7dbd 5ec1 17bd 10ab 4abc 0006 5c3b
00000230: 9b11 3ebd b461 60bd 70a7 e9bb 406c 6c3c
00000240: 6422 54bc b09a dbbc c8e8 033d 6f37 27bd
00000250: 7d17 7cbd 725b 7bbd f1a7 e63c dd11 1ebc
00000260: 4b6b 1ebc 1d18 dd3c 64b9 46bd da1c 57bd
00000270: dea6 2cbd b63d 17bd 6418 cf3c 80bf 223b
00000280: f7db f7bc e40a 163c f93d 23bc 9a99 863c
00000290: b566 053d 7b99 41bc 39ae 2ebc 2dae 54bd
000002a0: a083 ba3b ee17 233d 1090 8d3b f8fd 063c
000002b0: 602c 823c b024 3ebd b857 dfbc 4ab1 113d
000002c0: 265e 573d b450 60bd 6a89 023c 2064 debb
000002d0: 42b3 5a3d d2d2 793d 24ae be3c 203d 05bd
000002e0: 2e3f 24bd 785b 263c a71c 103d 886a 0dbd
000002f0: 22a4 8d3c 442a 053d 5b69 7bbd fee6 50bd
00000300: 30f9 0c3d 9231 153d 806d 20bd 10e3 d2bb
00000310: 1468 183d f486 bfbc 3c06 40bd c053 1f3c
00000320: 22a7 5ebc 5804 35bd e47f 6cbd 90a7 48bd
00000330: 6e35 7ebd 04cf fdbc ca11 063d 1440 6d3d
00000340: 8b0a f83b ef03 36bd c729 d0bc 0873 1ebd
00000350: 2a58 e33c 8cb0 5abc 309d 2a3d 1e1a b3bc
00000360: 8e83 0dbd 0457 ffbb 3def f1bc 10ec d1bc
00000370: 1c09 48bc 5881 ebbb 5573 d83c 76d3 94bd
00000380: 50e6 de3c 38d6 ff3c 8471 4f3d 7b24 4cbd
00000390: b6c0 6dbd dc74 56bd fac0 69bd 2cb9 893c
000003a0: d6d1 82bd 215d abbc 8ac3 933c 24df 60bd
000003b0: 27c2 68bd 630c 30bd d0a7 abbc c89e d3bc
000003c0: 0089 833b 007a eb3c 6480 613c 8c4b e93b
000003d0: a4cc 4a3c a0bf 0ebb 4aa4 8abc b1a0 57bd
000003e0: dc80 a93b 9ce6 eabc 31ab 38bd a497 003d
000003f0: 3a65 4c3b cdb0 65bd 91ef b2bc 7587 95bb

conv.7.bias f4 [64]
-0.05147268 0.3918026 0.22715169 0.3708615 0.44044247 0.39053085 -0.20655349 0.18092546
0.0005223315 0.27610037 -0.10001292 0.12842335 0.34327388 0.36866102 0.51377124 -0.32347435
0.20761952 0.28130057 0.6861552 0.1250822 0.075900294 0.10094964 0.3214907 0.31774354
0.07217276 -0.011804499 -0.08303915 0.00017673284 0.1293287 -0.08784266 0.23357245 -0.0979527
-0.19126453 0.2049065 -0.021180904 -0.15918216 0.115950726 -0.13058406 0.046891566 0.07203398
0.10209842 0.07578906 -0.047728673 0.10939663 0.26887015 0.15611589 0.14528573 0.19965625
0.13946167 0.18226022 -0.19665137 0.069313645 0.09740262 -0.07856544 0.22911924 -0.27246457
-0.03647913 -0.27265117 0.45126605 -0.020813601 0.41158557 -0.17776795 0.32553586 0.15273774
00000000: 04d5 52bd 5a9a c83e 749a 683e 8fe1 bd3e
00000010: ad81 e13e a9f3 c73e c282 53be 8644 393e
00000020: 13ed 083a 075d 8d3e 93d3 ccbd 6981 033e
00000030: 98c1 af3e 23c1 bc3e 8386 033f 6e9e a5be
00000040: 369a 543e a106 903e dea7 2f3f 8c15 003e
00000050: 9d71 9b3d afbe ce3d 6e9a a43e 48af a23e
00000060: 50cf 933d a867 41bc 6e10 aabd 5c51 3939
00000070: be6e 043e dae6 b3bd 9e2d 6f3e 6d9b c8bd
00000080: d9da 43be 02d3 513e 9383 adbc a600 23be
00000090: 9377 ed3d d4b7 05be 5f11 403d 8d86 933d
000000a0: fa18 d13d 4b37 9b3d 247f 43bd 570b e03d
000000b0: 59a9 893e d8dc 1f3e c8c5 143e b072 4c3e
000000c0: 0acf 0e3e 6ca2 3a3e fa5e 49be 50f4 8d3d
000000d0: 067b c73d ebe6 a0bd 3c9e 6a3e 7a80 8bbe
000000e0: 246b 15bd ef98 8bbe 580c e73e 4981 aabc
000000f0: 58bb d23e cd08 36be a3ac a63e 4867 1c3e

out.weight f4 [4, 64]
0.08295399 0.5283987 -0.044444036 0.31234336 0.30824202 0.111642346 -0.10550687 0.29941314
-0.070360534 0.17720655 0.1307961 0.16321187 0.25240663 0.020675886 0.043720156 -0.016452672
-0.6683181 0.10285089 0.41547117 0.13327855 0.06032963 -0.031693883 0.2819066 0.025035944
-0.18065396 -0.02851987 0.4701008 0.15234397 0.09222344 -0.034580532 0.13467477 -0.111055836
-0.120871335 0.11287512 0.045171022 -0.18620902 0.29241377 -0.8188725 -0.09922467 -0.2124217
0.1788419 0.17390724 0.06056312 -0.032863215 -1.4161013 -1.3548397 -0.10619189 -1.3637253
-0.7579495 0.015897939 0.11985402 -0.014825804 -0.2608554 0.03138422 -0.22205395 2.5573363
0.09750943 0.016998766 0.16745977 -0.35386235 0.07928226 0.00031142795 0.52536684 -0.19659914
-0.076494694 0.10165972 0.2485532 -0.044421908 0.4165433 0.3237182 0.14667481 -0.12747109
-1.0639151 0.42051256 0.17558257 0.23910762 0.2889686 0.1829872 0.17225473 -0.0043564746
-0.016394947 0.11975688 0.48721358 -1.4758409 -0.104457594 0.31492573 0.23645414 -0.008186654
-1.0843635 -0.100461595 -0.09625781 0.13340889 -1.4848784 -0.055909503 -0.054083053 0.19505021
-0.1711432 0.36196563 -0.019990807 -0.05718903 -0.0094059855 0.016104644 -0.2821245 -0.039019853
-0.014226128 -0.10047358 0.086289875 -0.20599437 0.14979489 -0.08438399 -0.3675528 0.09868851
-0.16825184 0.11209619 -0.2090198 0.3357197 0.10328858 -0.010935752 0.13870376 -0.25636697
-0.05129009 -0.24219489 0.013217184 0.25775972 0.27409777 0.049585402 0.031686895 -0.07032292
0.07767309 0.08790131 -0.88605416 -0.031072242 0.029681455 0.048297867 -0.25601944 -0.067029156
0.17454985 0.08386379 -0.19256116 0.328743 0.22227769 0.22751099 0.0756275 -0.49323326
0.09029634 0.41394183 0.54379505 0.10400981 0.039083812 -0.017549766 0.3634321 0.0705152
-0.054878738 -1.01702 -0.16557948 -0.07633037 -0.14290883 0.38262808 0.28524595 0.07842212
-0.07322133 0.10035398 0.053845868 2.3340204 0.048085444 0.033664443 -0.058549922 -0.1018908
-0.16915119 -1.7348133 -0.061640766 0.044747647 -0.027792325 0.06293492 -0.15769744 -0.10267333
0.114485964 -1.8837935 0.55895454 -0.27544948 0.11786097 -0.02418722 0.35664496 -0.16240609
0.22499852 2.779393 0.44272372 -0.064226255 0.49177873 -0.16688016 0.047403235 -1.1874653
0.059595495 0.0021832394 0.014854244 0.21264438 0.16729875 0.11096256 -0.39605868 0.2807789
-0.15683176 0.12297625 0.16530749 -0.086664 0.24129325 0.2255247 0.5102485 -0.009223218
-0.09358772 0.11842373 0.42153066 0.13670425 0.34004483 -0.9506847 0.32440352 0.4596392
-0.008347384 -0.21578074 0.15636362 0.21458712 -0.06943498 -0.18047838 -1.3064493 -0.16330287
1.823495 -0.24026555 0.095327094 -0.0826851 0.40991595 0.10950717 0.11965669 -1.0100863
-1.2281979 -0.05017245 -0.1127271 -1.1041309 0.15280002 -0.08497133 -0.27184847 -0.06815706
0.059843104 0.104621395 -0.0064077396 0.32476732 0.18624565 0.0042648287 0.0065915687 -0.24932054
0.13936223 -0.088497676 0.107677 0.010380833 0.10506432 0.5747884 0.001411586 0.16055943
00000000: c8e3 a93d 2345 073f f30a 36bd 78eb 9f3e
00000010: e6d1 9d3e bea4 e43d fc13 d8bd ae4c 993e
00000020: 2f19 90bd a275 353e 6aef 053e 0321 273e
00000030: 713b 813e 7a60 a93c e813 333d c1c7 86bc
00000040: e516 2bbf 7da3 d23d a3b8 d43e 2c7a 083e
00000050: 341c 773d 72d1 01bd 1056 903e 2e18 cd3c
00000060: 5afd 38be 81a2 e9bc 0db1 f03e 0f00 1c3e
00000070: a5df bc3d 51a4 0dbd 2fe8 093e 3e71 e3bd
00000080: 648b f7bd 122b e73d 4005 393d 94ad 3ebe
00000090: 42b7 953e a1a1 51bf 4e36 cbbd 1385 59be
000000a0: 5522 373e bd14 323e 0911 783d 949b 06bd
000000b0: cf42 b5bf 636b adbf 227b d9bd 8d8e aebf
000000c0: fa08 42bf 653c 823c 0676 f53d eee7 72bc
000000d0: d78e 85be bd8c 003d 1c62 63be 66ab 2340
000000e0: 06b3 c73d ff40 8b3c 937a 2b3e 722d b5be
000000f0: bd5e a23d 2747 a339 717e 063f 4951 49be
00000100: 40a9 9cbd f932 d03d bb84 7e3e bff3 35bd
00000110: 2a45 d53e 64be a53e ec31 163e c887 02be
00000120: 5f2e 88bf 6c4d d73e ebcb 333e a1d8 743e
00000130: b1f3 933e ff60 3b3e 8b63 303e c2c0 8ebb
00000140: b24e 86bc 1843 f53d 0f74 f93e 5be8 bcbf
00000150: dded d5bd f23d a13e 0921 723e 5121 06bc
00000160: 6ccc 8abf cfbe cdbd d122 c5bd 579c 083e
00000170: 7f10 bebf 5d01 65bd 3186 5dbd 3ebb 473e
00000180: 2a40 2fbe 8f53 b93e c3c3 a3bc 0b3f 6abd
00000190: 901b 1abc e3ed 833c 9f72 90be 48d3 1fbd
000001a0: b514 69bc 18c5 cdbd bfb8 b03d 30f0 52be
000001b0: d563 193e 83d1 acbd e12f bcbe 341d ca3d
000001c0: 364a 2cbe b092 e53d 4909 56be 74e3 ab3e
000001d0: f788 d33d de2b 33bc 5c08 0e3e 8842 83be
000001e0: 8f15 52bd f001 78be e38c 583c 15f9 833e
000001f0: 8b56 8c3e 101a 4b3d 1eca 013d 7705 90bd
00000200: 1213 9f3d 9a05 b43d 72d4 62bf 378b febc
00000210: 8626 f33c fcd3 453d fb14 83be 9546 89bd
00000220: 32bd 323e c7c0 ab3d c12e 45be 0151 a83e
00000230: c39c 633e a4f8 683e 97e2 9a3d 1289 fcbe
00000240: 4aed b83d 2ff0 d33e 2736 0b3f 1803 d53d
00000250: 5916 203d 87c4 8fbc c613 ba3e 466a 903d
00000260: 87c8 60bd b62d 82bf ab8d 29be 1953 9cbd
00000270: b156 12be d4e7 c33e c20b 923e c79b a03d
00000280: 11f5 95bd 6386 cd3d 7c8d 5c3d 9760 1540
00000290: 3ef5 443d bae3 093d 0bd2 6fbd 20ac d0bd
000002a0: f835 2dbe 5d0e debf 077b 7cbd 4f49 373d
000002b0: bbac e3bc 06e4 803d 707b 21be 6546 d2bd
000002c0: 9e77 ea3d 2520 f1bf a517 0f3f b707 8dbe
000002d0: 1861 f13d 4724 c6bc 2b9a b63e c84d 26be
000002e0: 0366 663e 93e1 3140 afac e23e 0e89 83bd
000002f0: 6cca fb3e a2e2 2abe e529 423d ddfe 97bf
00000300: 681a 743d ae14 0f3b 375f 733c 73bf 593e
00000310: 5d50 2b3e 5740 e33d 34c8 cabe 41c2 8f3e
00000320: 8198 20be f9da fb3d 5e46 293e e57c b1bd
00000330: 9415 773e f2ef 663e a59f 023f fb1c 17bc
00000340: ebaa bfbd 2488 f23d ded2 d73e 33fc 0b3e
00000350: 5b1a ae3e 1360 73bf 3818 a63e d455 eb3e
00000360: 77c3 08bc a0f5 5cbe c91d 203e babc 5b3e
00000370: ed33 8ebd 53cf 38be bb39 a7bf de38 27be
00000380: 4968 e93f 2c08 76be da3a c33d ce56 a9bd
00000390: 81e0 d13e 4c45 e03d 910e f53d 824a 81bf
000003a0: 9735 9dbf a081 4dbd 77dd e6bd 2954 8dbf
000003b0: 9c77 1c3e 7305 aebd b92f 8bbe ee95 8bbd
000003c0: 0b1e 753d be43 d63d 04f8 d1bb e747 a63e
000003d0: 2eb7 3e3e fabf 8b3b 16fe d73b e24d 7fbe
000003e0: f9b4 0e3e 453e b5bd c285 dc3d 5f14 2a3c
000003f0: f62b d73d 5525 133f f704 b93a b169 243e

out.bias f4 [4]
0.58718383 0.5283008 0.42325902 0.47169495
00000000: ae51 163f b93e 073f 68b5 d83e 0082 f13e
