models/v17.1/model_167500_target.pth (torch, 295191 bytes, 10 tensors)

conv.0.weight f4 [16, 2, 3, 3]
0.14000782 0.040284462 -0.19656464 0.24813907 -0.12829655 0.10380141 -0.3203651 0.36296284
0.096720785 -0.018712085 0.05556428 -0.044666994 -0.0757133 0.09589946 0.024166847 -0.0255143
0.026870925 0.0098211225 -0.16199967 0.28937596 0.034730684 0.22751401 -0.19200233 0.23255827
-0.83532107 -0.5426532 -0.16328512 -1.0498164 0.6145032 -1.2334687 0.21318977 -0.17480811
0.22154659 -0.027487744 0.01992997 0.106416084 0.015928665 0.24219827 0.11205316 -0.091026485
0.29422826 -0.057738155 0.28676686 0.1600497 0.12382841 0.07856983 0.14576441 0.022747887
0.2673698 -0.08799393 -1.4572179 -0.047593504 -0.3242389 0.05589378 0.0013413713 0.039479487
0.058770943 0.1389817 0.12121338 -0.6708316 -0.37648657 -0.35289365 0.18327731 -0.07381162
0.017856572 -0.051723707 0.3281513 -0.07316184 -0.8631043 -0.27320388 0.36757627 0.15559867
0.22268786 -0.122053936 -0.08699803 -1.23931 -0.1822916 0.14185214 0.025029887 0.4989411
-1.1789545 -0.25291407 0.26645562 -0.75482774 0.23075885 0.0076859565 0.19942996 0.033712234
-0.053628214 0.023528827 -0.010635014 -0.20211077 0.44613644 0.2614904 -0.13992181 -0.072260134
0.58197236 -0.40909737 0.35938045 -0.23744439 -0.12097239 0.076506935 0.048453145 -0.3999707
-0.073980294 -0.019785302 -0.13059635 -0.3454984 -0.99402195 -0.047944438 0.34192854 0.23373316
0.044422273 -1.0655833 -0.24659583 0.104439974 -0.17798978 -0.097281806 -0.0081182355 -0.13684553
0.12553026 0.009431203 0.04429135 -0.7923811 -0.12327561 -0.08460821 0.20542595 -0.19234145
0.5141731 -0.108791694 0.2886751 0.11892339 0.017054684 0.40069684 -0.0856643 -1.6691713
-0.8990546 -0.7926722 0.10246364 0.04118876 -0.052764222 -0.24944833 0.1749694 -0.024470268
-0.020401144 0.093204364 0.067668736 0.3475349 0.07082874 -0.19395104 0.18315868 -0.3736706
0.042025674 -0.36275858 0.50670385 -0.47621602 0.050416667 0.23457038 0.016166229 -0.31620416
0.43068948 0.053730424 0.021258103 -0.08018068 0.13469273 0.030699085 -0.14560023 0.28669044
0.27834806 -0.06684566 -0.18253599 -0.018591452 0.19328022 -0.14161804 -1.6105844 0.009853373
-0.15715775 0.19615908 0.3621843 -0.28406852 -0.10149524 0.11972721 0.036334574 -0.10883253
0.043649517 0.08336568 0.4982402 -0.3573359 0.00074844575 0.09321425 -0.28431386 -0.11452765
0.689032 -0.019507188 -0.0704609 0.11859866 0.075490594 -0.11164379 0.21316124 0.18058948
-0.4414565 -0.050702948 0.12503901 0.170172 -1.2329928 -0.18392196 -0.072245404 -1.4982086
-0.29995042 0.2694598 0.1358977 0.22518007 -0.2514887 0.09638104 0.16898629 0.050403528
-0.12690917 -0.040198795 0.07387589 -0.08939718 -0.012934952 0.18912974 -0.12514806 0.02794386
-0.262855 0.13016754 0.21749619 0.042820275 -0.045529835 -0.8904637 -0.16184188 0.059915017
0.07254992 0.23449248 0.25748575 0.06692666 0.031504463 0.04099489 -1.4631721 0.0034066895
-0.045496486 -0.19679405 0.09277568 0.15403144 -1.4639482 -0.18355261 -0.1351495 0.04441939
-0.16776021 0.24579217 -0.26098973 -0.059474193 0.08226761 -1.1643544 0.024031091 -0.10188369
00000000: 365e 0f3e 5201 253d 3e48 49be 2b18 7e3e
00000010: 2c60 03be d595 d43d e506 a4be 44d6 b93e
00000020: 8c15 c63d 164a 99bc 5f97 633d bdf4 36bd
00000030: 930f 9bbd f066 c43d 8df9 c53c 5e03 d1bc
00000040: 6a20 dc3c c6e8 203c 3ee3 25be 1629 943e
00000050: c341 0e3d 6ff9 683e 429c 44be c123 6e3e
00000060: 9ad7 55bf 52eb 0abf 3734 27be 6260 86bf
00000070: 1550 1d3f 4de2 9dbf 6b4e 5a3e e600 33be
00000080: 1cdd 623e fa2d e1bc 2d44 a33c adf0 d93d
00000090: d57c 823c d302 783e 217c e53d 186c babd
000000a0: 16a5 963e d87e 6cbd 1bd3 923e 12e4 233e
000000b0: c099 fd3d 38e9 a03d 4443 153e c759 ba3c
000000c0: b2e4 883e 2936 b4bd 1e86 babf 68f1 42bd
000000d0: a402 a6be e0f0 643d f4d0 af3a 3eb5 213d
000000e0: cdb9 703d 3851 0e3e b83e f83d 9fbb 2bbf
000000f0: d9c2 c0be 7aae b4be 0cad 3b3e 8c2a 97bd
00000100: f247 923c 3ddc 53bd 7203 a83e e0d5 95bd
00000110: 67f4 5cbf 61e1 8bbe f532 bc3e 4255 1f3e
00000120: 4908 643e 6af7 f9bd 062c b2bd b6a1 9ebf
00000130: a6aa 3abe b041 113e 7a0b cd3c 3575 ff3e
00000140: fbe7 96bf f47d 81be df6c 883e 643c 41bf
00000150: 0c4c 6c3e 7ada fb3b 5e37 4c3e d715 0a3d
00000160: 42a9 5bbd 87bf c03c 7b3e 2ebc 20f6 4ebe
00000170: ff6b e43e 12e2 853e aa47 0fbe 1ffd 93bd
00000180: 24fc 143f 3675 d1be b700 b83e 9f24 73be
00000190: 5fc0 f7bd abaf 9c3d ce76 463d f6c8 ccbe
000001a0: fb82 97bd c914 a2bc 0dbb 05be 2be5 b0be
000001b0: 3978 7ebf 6361 44bd 4211 af3e bf57 6f3e
000001c0: 21f4 353d 0965 88bf 9e83 7cbe a0e4 d53d
000001d0: f442 36be af3b c7bd 5902 05bc 3c21 0cbe
000001e0: 018b 003e 5585 1a3c d96a 353d 7dd9 4abf
000001f0: ec77 fcbd 1247 adbd 2e5b 523e 28f5 44be
00000200: d9a0 033f 2ece debd 39cd 933e 1b8e f33d
00000210: 44b6 8b3c 2328 cd3e c470 afbd 68a7 d5bf
00000220: 7128 66bf 91ec 4abf 75d8 d13d 8cb5 283d
00000230: 4c1f 58bd 626f 7fbe 2e2b 333e df75 c8bc
00000240: 4d20 a7bc eee1 be3d e895 8a3d 18f0 b13e
00000250: a90e 913d 1a9b 46be f38d 3b3e c151 bfbe
00000260: 1d23 2c3d 7ebb b9be 58b7 013f 96d2 f3be
00000270: b581 4e3d 3833 703e 0a6f 843c 83e5 a1be
00000280: 5583 dc3e 6f14 5c3d 7925 ae3c c535 a4bd
00000290: e4ec 093e a67c fb3c 3a18 15be 17c9 923e
000002a0: a383 8e3e 61e6 88bd b7ea 3abe 1a4d 98bc
000002b0: 40eb 453e 5204 11be a127 cebf 0b70 213c
000002c0: f6ed 20be eddd 483e 3870 b93e 6e71 91be
000002d0: bddc cfbd 8a33 f53d 90d3 143d 97e3 debd
000002e0: d6c9 323d a0bb aa3d 5719 ff3e bbf4 b6be
000002f0: 5833 443a 1de7 be3d 9691 91be 798d eabd
00000300: 6764 303f 8acd 9fbc ce4d 90bd dbe3 f23d
00000310: d09a 9a3d 80a5 e4bd f146 5a3e 73ec 383e
00000320: 9606 e2be e5ad 4fbd 3a0a 003e 9241 2e3e
00000330: b5d2 9dbf 0a56 3cbe 66f5 93bd 4dc5 bfbf
00000340: 1a93 99be a3f6 893e c428 0b3e 9b95 663e
00000350: 20c3 80be 6c63 c53d be0a 2d3e ee73 4e3d
00000360: 7af4 01be 7ea7 24bd 3e4c 973d de15 b7bd
00000370: 1fed 53bc 3aab 413e d026 00be 86ea e43c
00000380: ee94 86be a44a 053e 52b7 5e3e 5064 2f3d
00000390: 7e7d 3abd 6ef5 63bf e1b9 25be 7369 753d
000003a0: 0d95 943d cc1e 703e 2cd5 833e d810 893d
000003b0: d30a 013d 42ea 273d 3949 bbbf c442 5f3b
000003c0: 865a 3abd 6184 49be 2d01 be3d 6bba 1d3e
000003d0: a862 bbbf 37f5 3bbe a164 0abe 1bf1 353d
000003e0: 55c9 2bbe f1b0 7b3e 72a0 85be 369b 73bd
000003f0: ec7b a83d 9109 95bf dadc c43c 65a8 d0bd

conv.0.bias f4 [16]
-0.03212661 0.082990095 -0.03708119 -0.052311644 -0.064674005 -0.33415258 0.22270446 -0.333679
-0.22182283 -0.085905634 -0.43753847 -0.04468652 0.029966068 0.09935821 -0.13695116 0.10512461
00000000: 3197 03bd b6f6 a93d 72e2 17bd bc44 56bd
00000010: ce73 84bd 0c16 abbe a30c 643e f9d7 aabe
00000020: 8625 63be 4bef afbd 0b05 e0be 3609 37bd
00000030: 667b f53c 517c cb3d ed3c 0cbe 924b d73d

conv.2.weight f4 [32, 16, 3, 3]
-0.04116907 0.11030507 -0.08531446 0.21310829 0.027905524 0.14242524 0.20334075 0.16114584
-0.14405511 0.20046191 0.052440446 -0.09970839 -0.18008496 0.040213905 0.017277481 0.09597067
0.025051817 -0.2396907 -0.06837989 0.14670327 -0.14942908 -0.44423214 0.29463062 -1.0120121
-0.11569498 -0.02912959 0.06751594 0.06293778 -0.0905952 -0.18661134 0.06522045 -0.38708487
-0.09111013 -0.16961965 0.15734531 0.13948788 0.14400135 0.040825803 0.112955764 -0.008317163
0.10844089 -0.25502333 0.22643366 -0.14976774 -0.05409386 0.21931571 0.06158122 -0.3910283
0.4734698 -0.35172448 -0.24103631 0.14824945 0.15104707 -0.08588041 -0.2962233 -0.06813811
-0.32303074 0.04041347 -0.3380063 -0.11557228 -0.018968927 0.13103388 0.086830385 0.12667154
-0.16295372 0.066607505 -0.02983816 -0.23446849 0.2508065 0.07941142 -0.32887524 -0.6798991
-0.28060198 0.04311416 0.42991105 0.11743816 -0.0069673844 0.27247062 0.11011391 0.030857885
0.012590334 0.102730416 -0.34119448 0.27408704 -0.135173 -0.16879316 -0.11378145 0.03672264
0.19607647 0.2562388 0.22637418 -0.016863296 0.20707892 -0.059003267 -0.084992565 -0.3804482
0.22822227 0.13248707 -0.2569757 -0.07242738 -0.033271443 -0.27103233 -0.20785776 -0.11685694
-0.13078529 0.09792428 -0.13926908 -0.10739914 0.014100547 -0.009143166 -0.058190208 -0.04930805
-0.39760196 -0.0726501 0.011232311 0.025563134 -0.10471599 -0.21392748 -0.6458819 0.06345146
-0.081143536 -0.20235005 -0.19712515 -0.7657903 0.097298 0.0036102578 0.16461273 -0.019322092
0.17359474 0.15378317 -0.1441626 -0.18458115 0.09380538 -0.0027025943 0.09997743 0.058015727
-0.027399015 0.07037279 0.12435259 0.20252168 -0.08368427 0.09174935 -0.33936825 0.092577
0.012834216 0.15555356 -0.022500396 0.076721914 -0.24342984 -0.14343746 0.008552903 0.028926665
-0.016207615 0.05095017 0.13620251 -0.03143037 -2.6548035 0.09399262 0.0804944 -0.1562955
0.1701409 -0.08069383 -0.01986847 0.03605302 -0.04635116 0.1323704 0.03177544 0.112188585
0.0019320697 0.14794435 -0.022976255 -0.1219376 -0.29061282 0.18629 -0.15468352 0.22379546
-0.018298006 -0.46519145 -0.13435936 0.28383937 -0.26387557 -0.2983508 -0.69153655 -0.38205162
0.18537669 0.29005057 -0.12677039 0.0792445 -0.06272851 -0.06853865 -0.21438907 -0.030029977
0.049833108 0.13770057 -0.46113378 -0.2599653 -0.30518922 -0.064738445 0.0026887164 -0.12451954
0.28647 -0.0046638134 -0.27213645 -0.75424427 0.11393391 0.059370797 0.32574135 -0.03108275
-0.02653786 -0.26439515 0.1638643 -0.23568141 -0.16989142 0.27513885 -0.21058165 -0.040410914
-0.03532749 0.027965654 -0.024981732 0.25788975 0.1540741 -0.42630574 0.19205709 0.25120112
0.21914664 0.28456053 -0.016335325 0.052089978 0.07785598 0.19897273 -0.013206089 0.07074375
0.025040677 0.12645762 0.13779308 0.21821739 -0.42966917 -0.14121056 -0.074085236 0.18175754
-0.0070385523 -0.29472315 0.23586291 -0.097147144 0.28048122 -0.07099758 0.26038003 0.096552394
-0.1473043 0.16989106 0.070017844 -0.22074981 0.3995745 0.012639269 0.20232154 0.13926546
00000000: e6a0 28bd a0e7 e13d 59b9 aebd 0f39 5a3e
00000010: 209a e43c ecd7 113e 8f38 503e 6a03 253e
00000020: 2f83 13be e345 4d3e cbcb 563d ea33 ccbd
00000030: 3168 38be 56b7 243d 8189 8d3c 458c c43d
00000040: 7839 cd3c 7b71 75be c10a 8cbd 6239 163e
00000050: f003 19be 6572 e3be d3d9 963e 9d89 81bf
00000060: 7df1 ecbd 2ea1 eebc cc45 8a3d 86e5 803d
00000070: fa89 b9bd 0b17 3fbe 4d92 853d fd2f c6be
00000080: f397 babd c6b0 2dbe 211f 213e e9d5 0e3e
00000090: 1775 133e f538 273d 5a55 e73d b644 08bc
000000a0: 4216 de3d 6b92 82be 3ade 673e b75c 19be
000000b0: 8691 5dbd 4c94 603e 973c 7c3d dd34 c8be
000000c0: a26a f23e 3b15 b4be 39d2 76be b4ce 173e
000000d0: 15ac 1a3e 12e2 afbd 95aa 97be fe8b 8bbd
000000e0: 4964 a5be 9888 253d 290f adbe 29b1 ecbd
000000f0: b964 9bbc bf2d 063e 21d4 b13d 2fb6 013e
00000100: 57dd 26be 8469 883d 286f f4bc 8218 70be
00000110: b669 803e 74a2 a23d 5662 a8be de0d 2ebf
00000120: 10ab 8fbe 7998 303d 4d1d dc3e 6b83 f03d
00000130: a84e e4bb 4581 8b3e 6783 e13d adc9 fc3c
00000140: b047 4e3c 5364 d23d 0bb1 aebe 2355 8c3e
00000150: ca6a 0abe 1dd8 2cbe 4006 e9bd 7b6a 163d
00000160: 45c8 483e bb31 833e a2ce 673e e524 8abc
00000170: 7f0c 543e 69ad 71bd 9510 aebd 1bca c2be
00000180: 19b3 693e b1aa 073e 5292 83be ce54 94bd
00000190: a347 08bd c0c4 8abe aad8 54be b152 efbd
000001a0: 94ec 05be 868c c83d 8e9c 0ebe 15f4 dbbd
000001b0: fb05 673c 38cd 15bc db58 6ebd 3df7 49bd
000001c0: 7c92 cbbe 93c9 94bd ba07 383c c769 d13c
000001d0: 5675 d6bd ce0f 5bbe 8458 25bf d7f2 813d
000001e0: 952e a6bd da34 4fbe 2ddb 49be d50a 44bf
000001f0: 2c44 c73d 139a 6c3b 3d90 283e 5d49 9ebc
00000200: d2c2 313e 5679 1d3e 5c9f 13be d702 3dbe
00000210: 091d c03d 021e 31bb f8c0 cc3d e6a1 6d3d
00000220: e673 e0bc 9c1f 903d 92ac fe3d d861 4f3e
00000230: a962 abbd 15e7 bb3d adc1 adbe 0399 bd3d
00000240: 9a46 523c 6f49 1f3e c052 b8bc 6120 9d3d
00000250: ac45 79be 45e1 12be 7a21 0c3c 9df7 ec3c
00000260: d5c5 84bc 20b1 503d ac78 0b3e 22bd 00bd
00000270: 4de8 29c0 347f c03d 3fda a43d ed0b 20be
00000280: 6b39 2e3e cf42 a5bd 34c3 a2bc 55ac 133d
00000290: b7da 3dbd 1b8c 073e f726 023d 21c3 e53d
000002a0: 803d fd3a b97e 173e b338 bcbc 6cba f9bd
000002b0: 34cb 94be cec2 3e3e 5b65 1ebe a32a 653e
000002c0: b3e5 95bc 932d eebe 8095 09be 6553 913e
000002d0: b31a 87be 70c1 98be 8a08 31bf 459c c3be
000002e0: 63d3 3d3e 8281 943e 19d0 01be f14a a23d
000002f0: ce77 80bd fe5d 8cbd cf88 5bbe 6d01 f6bc
00000300: cd1d 4c3d 6101 0d3e ba19 ecbe 2c1a 85be
00000310: c341 9cbe 9795 84bd 2d35 303b 1a04 ffbd
00000320: 32ac 923e e7d2 98bb 7855 8bbe 2716 41bf
00000330: 2f56 e93d cb2e 733d 92c7 a63e 40a1 febc
00000340: ed65 d9bc cd5e 87be 0bcc 273e 7856 71be
00000350: 04f8 2dbe 00df 8c3e b7a2 57be ea85 25bd
00000360: 8fb3 10bd 3a18 e53c 7da6 ccbc 200a 843e
00000370: 9ac5 1d3e bf44 dabe 9daa 443e 6f9d 803e
00000380: fa67 603e ebb1 913e a9d1 85bc 4d5c 553d
00000390: f572 9f3d 82bf 4b3e 5a5e 58bc 19e2 903d
000003a0: 1b22 cd3c 1b7e 013e a119 0d3e 6174 5f3e
000003b0: 99fd dbbe 8099 10be 00ba 97bd a61e 3a3e
000003c0: a8a3 e6bb f4e5 96be 0c86 713e 15f5 c6bd
000003d0: 3c9b 8f3e 2e67 91bd 8850 853e 43bd c53d
000003e0: f0d6 16be ecf7 2d3e 8465 8f3d 3d0c 62be
000003f0: 0795 cc3e f014 4f3c 612d 4f3e 9b9b 0e3e

conv.2.bias f4 [32]
0.19407615 -0.018701639 -0.27524897 -0.2759387 0.12487699 -0.13435033 0.123263404 -0.19616655
-0.048790745 -0.07274503 0.06814719 0.070700645 -0.1276305 -0.02982403 0.018296411 -0.15495256
0.1057423 0.028045343 0.05826616 -0.29102796 -0.081191175 0.19616269 -0.38872224 0.108882524
0.078621775 0.1647083 -0.13268256 0.060780447 0.08633748 0.027049419 -0.07754466 -0.07755965
00000000: e6bb 463e 2e34 99bc 6fed 8cbe d647 8dbe
00000010: 82bf ff3d 2293 09be 8671 fc3d e2df 48be
00000020: ced8 47bd 59fb 94bd c190 8b3d 80cb 903d
00000030: 92b1 02be 8651 f4bc 5be2 953c e2ab 1ebe
00000040: 6b8f d83d 59bf e53c 7fa8 6e3d 9e01 95be
00000050: 8f47 a6bd dfde 483e 9a06 c7be cdfd de3d
00000060: 7404 a13d 4ba9 283e f0dd 07be ebf4 783d
00000070: b4d1 b03d be96 dd3c bccf 9ebd 98d7 9ebd

conv.4.weight f4 [64, 32, 5, 5]
0.0027657794 -0.18553466 0.062375173 0.03635958 0.021804929 -0.1892154 -0.012057399 0.12330738
-0.024482043 0.038165625 0.05766705 0.05822166 0.02227412 -0.15828846 -0.12252383 -0.42612025
0.14048645 -0.079931565 0.53345376 -0.5132872 0.045650713 -0.096165985 -0.04718351 0.02131211
-0.19470072 -0.07686275 -0.42245325 0.16653837 0.22482537 -0.2054312 -0.24386372 0.01661162
-0.46920258 0.18396857 -0.10899861 0.22881943 -0.5145755 0.2262576 0.3630469 -0.5961785
-0.020568483 0.12682301 0.07439195 0.035337992 0.19879769 -0.05149706 0.032098427 0.13154903
-0.13684805 0.05496872 -0.24750635 0.11691341 -0.19628018 -0.50887936 0.542951 0.15838335
-0.06180427 -0.3173371 0.041570492 -0.7574842 -0.6413782 0.094643295 -0.4101811 -0.22607133
-0.1282677 0.130992 -0.08930914 0.5698655 0.12017706 -0.024286525 0.0029484993 0.21017472
0.26526815 -0.11404968 -0.2193763 -0.016618922 -0.15781626 -0.19325764 -0.07523034 -0.027382381
0.14240459 0.05762562 0.028876564 0.49774712 -0.12590191 -0.231459 -0.0062830974 -0.42323133
0.2228397 0.5714847 -0.05761911 0.2353985 -0.1516723 -0.32175648 0.22605887 0.33309692
0.09977639 -0.19966412 0.401126 -0.22225037 0.18815103 -0.23180349 -0.16890068 -0.17785381
-0.046224073 0.14822753 0.01857028 -0.021036705 -0.18753427 0.19966294 0.0054343515 0.111525655
0.13757445 0.26219133 0.088534616 -0.31533715 0.16939692 -0.10874828 0.31613562 0.16202156
0.07499816 -0.3196 0.21341205 -0.15288332 0.34536135 0.57332045 -0.05038666 0.1893125
-0.05760165 -0.10579077 0.028710566 -0.23297289 0.18520877 0.028415097 -0.31311756 -0.14462347
0.18405521 -0.023148898 0.4406934 0.028236693 -0.6253066 -0.13087778 0.106315844 -0.12069684
-0.121578485 -0.36271173 0.021436637 0.23035192 0.096728384 -0.3992584 -0.3668257 0.4244347
-0.30315247 0.14060803 -0.07304524 -0.22542115 -0.47951227 -0.00852961 -0.01718753 -0.13449442
-0.0064228023 0.18219957 -0.4352776 0.10188916 0.7021285 0.19201446 -0.17116314 0.09116903
-0.7101217 0.41419655 0.16068451 -0.40853196 0.05464387 -0.19369075 0.032097835 -0.15618262
0.16543067 0.39658913 0.10470059 0.11310316 -0.44513422 0.10365013 -0.13874185 -0.13879704
0.3222523 -0.45065895 0.33624855 -0.26068085 -0.25326028 -0.13259077 -0.524654 -0.14609712
0.07581049 -0.12388025 0.056418583 0.007281623 -0.0128240315 -0.22593924 -0.012542984 0.14292501
-0.13219304 0.045407522 -0.28942895 -0.43637228 -0.031447243 0.4370931 0.03457777 -0.07237784
-0.0076711075 -0.03866892 -0.042609688 -0.12728868 -0.08549566 0.036246344 -0.031543046 -0.06959254
0.0494256 0.31060603 0.20024873 -0.17341456 -0.114191145 -0.18754302 -0.004609108 0.09078402
-0.035020906 -0.06212988 -0.05321352 0.17167303 -0.09691047 -0.016723711 -0.018614663 0.24684384
-0.36586785 0.518646 -0.03315016 -0.20413898 -0.22524273 0.38753188 -0.16256008 0.034102075
0.22989203 0.09465356 -0.024188593 0.22189194 -0.06736272 0.39624235 0.0025286588 -0.19309874
-0.080334455 0.055388916 -0.16328228 0.13499002 -0.49566144 -0.06474845 0.22914591 0.21505752
00000000: 1442 353b ccfc 3dbe 1c7d 7f3d c8ed 143d
00000010: 40a0 b23c afc1 41be 668c 45bc 9488 fc3d
00000020: 918e c8bc 8f53 1c3d 4934 6c3d d679 6e3d
00000030: 3778 b63c 5f16 22be c6ed fabd 6f2c dabe
00000040: aedb 0f3e 29b3 a3bd 6d90 083f ca66 03bf
00000050: 3efc 3a3d acf2 c4bd 7f43 41bd bc96 ae3c
00000060: a05f 47be 386a 9dbd cb4b d8be 0989 2a3e
00000070: 9f38 663e 8e5c 52be 69b7 79be 1815 883c
00000080: 523b f0be 4262 3c3e aa3a dfbd a44f 6a3e
00000090: 38bb 03bf 13b0 673e 49e1 b93e 279f 18bf
000000a0: 3c7f a8bc e4dd 013e cf5a 983d 92be 103d
000000b0: 9f91 4b3e 95ee 52bd a479 033d cab4 063e
000000c0: e521 0cbe e126 613d 4e72 7dbe 4c70 ef3d
000000d0: acfd 48be eb45 02bf d6fe 0a3f 3f2f 223e
000000e0: 7926 7dbd 027a a2be d245 2a3d 7cea 41bf
000000f0: 5d31 24bf 58d4 c13d 4203 d2be 3e7f 67be
00000100: 9c58 03be c422 063e b6e7 b6bd b5e2 113f
00000110: 641f f63d 89f4 c6bc 9c3b 413b 0b38 573e
00000120: 3ad1 873e e192 e9bd 2ea4 60be 6824 88bc
00000130: 969a 21be 55e5 45be 5d12 9abd 0451 e0bc
00000140: 82d2 113e d808 6c3d 8b8e ec3c b6d8 fe3e
00000150: 6eec 00be 9703 6dbe 71e2 cdbb c7b1 d8be
00000160: 1730 643e d24c 123f 0402 6cbd 4e0c 713e
00000170: fc4f 1bbe 44bd a4be fa7b 673e ae8b aa3e
00000180: 9057 cc3d c074 4cbe 6360 cd3e 9a95 63be
00000190: aaaa 403e e55d 6dbe 4df4 2cbe 4f1f 36be
000001a0: 7455 3dbd f5c8 173e b320 983c 2b55 acbc
000001b0: fc08 40be 7174 4c3e a512 b23b 9067 e43d
000001c0: 51e0 0c3e f13d 863e a351 b53d df73 a1be
000001d0: 6376 2d3e 6bb7 debd 87dc a13e fbe8 253e
000001e0: a398 993d 9ca2 a3be b088 5a3e 728d 1cbe
000001f0: 34d3 b03e 21c5 123f 3e62 4ebd 23db 413e
00000200: b5ef 6bbd d5a8 d8bd 6c32 eb3c 7290 6ebe
00000210: 5ea7 3d3e c7c6 e83c f250 a0be 2d18 14be
00000220: f878 3c3e c2a2 bdbc 91a2 e13e a350 e73c
00000230: 1814 20bf d304 06be 1fbc d93d e82f f7bd
00000240: 24fe f8bd 5ab5 b9be e39b af3c 60e1 6b3e
00000250: 8819 c63d 996b ccbe 94d0 bbbe 814f d93e
00000260: cd36 9bbe 8dfb 0f3e be98 95bd cdd4 66be
00000270: a282 f5be c7bf 0bbc ddcc 8cbc e8b8 09be
00000280: 5f76 d2bb 8692 3a3e b5dc debe 44ab d03d
00000290: b2be 333f 709f 443e 6445 2fbe d4b6 ba3d
000002a0: 89ca 35bf 9211 d43e 7b8a 243e 1a2b d1be
000002b0: 40d2 5f3d de56 46be 0579 033d 56ee 1fbe
000002c0: a866 293e bb0d cb3e 436d d63d a1a2 e73d
000002d0: a2e8 e3be 8546 d43d 5812 0ebe d020 0ebe
000002e0: 41fe a43e c5bc e6be c528 ac3e f677 85be
000002f0: 55ab 81be e0c5 07be b94f 06bf 7c9a 15be
00000300: 8842 9b3d eeb4 fdbd 2c17 673d ae9a ee3b
00000310: e31b 52bc 9e5c 67be 1781 4dbc ef5a 123e
00000320: 9d5d 07be 3dfd 393d 0830 94be 306c dfbe
00000330: d3ce 00bd abca df3e 6ba1 0d3d d53a 94bd
00000340: ea5d fbbb 4d63 1ebd 7f87 2ebd f757 02be
00000350: 5918 afbd 0c77 143d 4833 01bd 8986 8ebd
00000360: 7f72 4a3d c107 9f3e 010e 4d3e 9693 31be
00000370: 0cdd e9bd 470b 40be 0008 97bb f9ec b93d
00000380: 1572 0fbd e77b 7ebd 6cf6 59bd 0ecb 2f3e
00000390: ff78 c6bd 2a00 89bc c77d 98bc a2c4 7c3e
000003a0: 0853 bbbe fcc5 043f 76c8 07bd cf09 51be
000003b0: 08a6 66be 946a c63e 2676 26be 9eae 0b3d
000003c0: d168 6b3e bad9 c13d 2827 c6bc a437 633e
000003d0: 77f5 89bd 47e0 ca3e dbb7 253b adbb 45be
000003e0: 6486 a4bd 7ddf 623d 7833 27be d33a 0a3e
000003f0: 56c7 fdbe d69a 84bd 3aa5 6a3e 0a38 5c3e

conv.4.bias f4 [64]
-0.18976784 -0.14812478 -0.027330665 0.0034815385 -0.22046876 -0.2632093 -0.04421763 -0.049756415
0.23986715 -0.074085966 0.14861237 -0.048658684 0.0034214454 -0.042151846 -0.17748472 -0.09091458
-0.022608124 -0.017181955 0.11322358 -0.12165682 0.15669695 -0.16724068 -0.042251635 -0.17810425
-0.18994118 0.4259487 -0.057083115 0.056250412 -0.02865284 -0.08479503 -0.03944383 -0.006420573
-0.121384226 -0.054441758 -0.013856797 0.23898152 0.14045763 0.08439779 -0.145649 -0.05574078
0.13400406 -0.07112207 -0.051018503 -0.04861742 -0.04017982 -0.040848933 -0.0133478455 0.3939968
-0.039750334 -0.015811734 0.020085052 0.014893382 0.3375665 0.34534603 -0.090090945 0.0996383
0.18087323 -0.15869787 -0.07489296 -0.20656544 0.46438986 0.03994505 -0.23246664 0.14312059
00000000: 8052 42be 06ae 17be 8fe4 dfbc 862a 643b
00000010: 90c2 61be 5fc3 86be 8c1d 35bd 62cd 4bbd
00000020: bc9f 753e 62ba 97bd d72d 183e 544e 47bd
00000030: 543a 603b 6aa7 2cbd 8ebe 35be 6c31 babd
00000040: ac34 b9bc 2cc1 8cbc c4e1 e73d 3627 f9bd
00000050: 2a75 203e 2441 2bbe 0d10 2dbd f660 36be
00000060: f17f 42be f315 da3e fccf 69bd d566 663d
00000070: 5cb9 eabc 04a9 adbd da8f 21bd ac63 d2bb
00000080: 4b98 f8bd 52fe 5ebd 9e07 63bc 92b7 743e
00000090: 20d4 0f3e c0d8 ac3d 0325 15be 7250 64bd
000000a0: 5c38 093e 73a8 91bd c7f8 50bd 0f23 47bd
000000b0: 9893 24bd 3651 27bd ecb0 5abc f3b9 c93e
000000c0: 3fd1 22bd 9c87 81bc 6889 a43c 5f03 743c
000000d0: 84d5 ac3e 32d1 b03e 9a81 b8bd 2a0f cc3d
000000e0: d536 393e b281 22be 7b61 99bd e485 53be
000000f0: 82c4 ed3e 6c9d 233d bc0b 6ebe 348e 123e

conv.7.weight f4 [64, 256]
-0.044654515 -0.069953635 0.022072466 0.0072443555 0.029198108 -0.04856284 0.04040865 -0.0688649
-0.005415908 -0.053328425 0.027969036 -0.012859401 -0.061445944 0.031240284 0.0076227263 0.039905697
-0.0141301425 0.029444221 0.0014005792 -0.064841345 0.008040793 0.005878964 0.008783588 -0.048710052
0.02225402 0.036468565 -0.04809864 0.015289672 0.013958044 -0.048098683 -0.02349525 -0.013261728
-0.055162214 -0.026359959 -0.044350915 -0.04309574 0.016844122 -0.06080991 -0.024609767 0.00896222
-0.014154243 -0.021616478 -0.08595032 -0.008133339 0.023385204 0.01643245 0.031449907 -0.028983623
-0.017767299 0.005582091 0.015145335 0.048575494 -0.05326198 0.04536473 0.009349339 -0.035593122
-0.043577198 -0.059823077 -0.053729787 0.042467248 -0.018430134 -0.037150368 -0.00035313796 -0.028610386
-0.0520972 -0.02213984 -0.0012932792 0.03904041 -0.07711424 -0.018863065 0.031157533 -0.065414585
0.030079825 0.023047116 -0.021294858 -0.00013949722 -0.019275747 -0.019976266 0.007357713 -0.044010803
-0.011509782 -0.09283748 -0.076895565 0.03187655 -0.022349887 0.0444194 -0.010068841 -0.04441767
-0.053775974 0.01720865 0.002624005 -0.054284424 0.045761928 0.02710674 -0.049148455 -0.043903533
0.002579333 -0.03524851 -0.022962792 -0.07968549 -0.05890368 -0.049753662 0.02508936 -0.06626357
0.022026405 0.06029635 0.02451323 -0.010968484 -0.012557566 -0.039602917 -0.030595586 -0.037466347
0.044183113 0.013102606 0.0009892434 0.019962437 -0.027340073 0.006818789 0.018481914 -0.0071182246
-0.0032995641 0.0030834302 0.04318142 -0.020995997 0.021933747 -0.04190349 -0.0075923773 -0.021540528
-0.016599031 0.022287497 0.020239284 0.04137249 0.049648166 0.029374532 -0.0065170303 -0.056735493
-0.061799735 -0.037049644 -0.012369886 0.0033572912 -0.041913994 -0.05675769 -0.007843841 0.0014218001
-0.02214894 -0.02680716 0.02492848 -0.038339637 -0.04795443 -0.07130922 0.020258516 -0.01618252
-0.011671469 0.02111689 -0.047851495 -0.05065212 -0.042151324 -0.036924087 0.025280185 0.0024833381
-0.04708343 0.006888457 -0.025609123 0.010404047 0.026587915 -0.018803421 -0.010556842 -0.06320259
0.0056919605 0.039817743 0.004320152 0.008239262 0.0158903 -0.046421707 -0.027263507 0.035569467
0.049171813 -0.053109217 0.009172274 -0.010722811 0.05339361 0.06099207 0.023276396 -0.032528996
-0.034312114 -0.010877933 0.034461353 -0.031725094 0.01110911 0.022873381 -0.06644979 -0.055153657
0.03441733 0.036424227 -0.039166927 -0.0064357594 0.03720863 -0.02337978 -0.046880946 0.009724557
-0.013589652 -0.05572708 -0.06222001 -0.06247253 -0.062062673 -0.030982502 0.03273181 0.057922438
-0.0071157236 -0.055882342 -0.032552 -0.051650926 0.02416092 -0.018163053 0.032719865 -0.023636213
-0.03876624 -0.0207365 -0.033103887 -0.031556603 -0.015038405 -0.02476888 0.014886301 -0.091236465
0.028585779 0.019791361 0.052190125 -0.06030125 -0.053179074 -0.059619732 -0.059648674 0.014364651
-0.063574664 -0.022655185 0.021934692 -0.06637319 -0.061806973 -0.042980563 -0.0058124918 -0.022214405
-0.00434686 0.023824431 0.009580974 0.0034570936 0.00056527276 -0.00705354 0.0031457797 -0.053139012
0.00022568367 -0.03787726 -0.056479767 0.036071308 -0.010778587 -0.056249198 -0.0075039547 0.011015949
00000000: a7e7 36bd da43 8fbd 51d1 b43c 0f62 ed3b
00000010: df30 ef3c d4e9 46bd 8a83 253d 0a09 8dbd
00000020: ee77 b1bb e86e 5abd 521f e53c 3db0 52bc
00000030: beae 7bbd a0eb ff3c 10c8 f93b 2874 233d
00000040: 1d82 67bc 0235 f13c a493 b73a 8acb 84bd
00000050: 88bd 033c 53a4 c03b 0ae9 0f3c 3184 47bd
00000060: 104e b63c 1060 153d 1403 45bd 8881 7a3c
00000070: 48b0 643c 2003 45bd 1c79 c0bc b847 59bc
00000080: c6f1 61bd d7f0 d7bc 4ea9 35bd 2985 30bd
00000090: affc 893c d013 79bd 6c9a c9bc 46d6 123c
000000a0: 33e7 67bc 0a15 b1bc b906 b0bd b241 05bc
000000b0: 5492 bf3c 589d 863c 9ed1 003d 106f edbc
000000c0: ba8c 91bc f9e9 b63b 2424 783c 19f7 463d
000000d0: 3c29 5abd 5ed0 393d f82d 193c 18ca 11bd
000000e0: 017e 32bd 0b09 75bd c413 5cbd 23f2 2d3d
000000f0: cbfa 96bc fc2a 18bd 6025 b9b9 5460 eabc
00000100: e063 55bd 9c5e b5bc 4083 a9ba d6e8 1f3d
00000110: 12ee 9dbd b786 9abc 153e ff3c 15f8 85bd
00000120: f769 f63c 4ecd bc3c 8e72 aebc 0046 12b9
00000130: 2ce8 9dbc 44a5 a3bc f818 f13b ac44 34bd
00000140: 8693 3cbc 9421 bebd 6c7b 9dbd fc90 023d
00000150: 1c17 b7bc 1ef1 353d c8f7 24bc 4eef 35bd
00000160: 3244 5cbd 28f9 8c3c 80f7 2b3b 5859 5ebd
00000170: dc70 3b3d f40e de3c e44f 49bd 31d4 33bd
00000180: 070a 293b be60 10bd 771c bcbc 2532 a3bd
00000190: fc44 71bd 7fca 4bbd 3488 cd3c 32b5 87bd
000001a0: b870 b43c 4ef9 763d f8cf c83c 28b5 33bc
000001b0: 40be 4dbc ab36 22bd 98a3 fabc 5076 19bd
000001c0: 5af9 343d 50ac 563c 80a9 813a 4488 a33c
000001d0: 4af8 dfbc 2670 df3b 6267 973c ff3f e9bb
000001e0: 803d 58bb 6013 4a3b 00df 303d ccff abbc
000001f0: 67ae b33c fea2 2bbd 7ac9 f8bb c375 b0bc
00000200: b1fa 87bc 4594 b63c dbcc a53c 3376 293d
00000210: e05b 4b3d dca2 f03c d08c d5bb 7a63 68bd
00000220: b821 7dbd 5ec1 17bd 10ab 4abc 0006 5c3b
00000230: 02ae 2bbd c07a 68bd 7483 00bc b25b ba3a
00000240: b271 b5bc b09a dbbc d036 cc3c 060a 1dbd
00000250: dd6b 44bd 910a 92bd 30f5 a53c 3491 84bc
00000260: b039 3fbc 54fd ac3c eeff 43bd 9978 4fbd
00000270: dea6 2cbd b63d 17bd 6418 cf3c 80bf 223b
00000280: 8eda 40bd 91b8 e13b 39ca d1bc bc75 2a3c
00000290: e6ce d93c a209 9abc 9bf6 2cbc 5c70 81bd
000002a0: a083 ba3b ee17 233d 1090 8d3b f8fd 063c
000002b0: 602c 823c b024 3ebd b857 dfbc 4ab1 113d
000002c0: 6268 493d 0d89 59bd 4e47 163c bbae 2fbc
000002d0: 42b3 5a3d d2d2 793d 24ae be3c 203d 05bd
000002e0: dc8a 0cbd 5c39 32bc 5927 0d3d 2cf2 01bd
000002f0: fc02 363c f560 bb3c d416 88bd cde8 61bd
00000300: 30f9 0c3d 9231 153d 806d 20bd 10e3 d2bb
00000310: 1468 183d f486 bfbc 3c06 40bd c053 1f3c
00000320: 22a7 5ebc 1442 64bd 69da 7ebd 32e3 7fbd
00000330: 6e35 7ebd 04cf fdbc ca11 063d 1440 6d3d
00000340: 042b e9bb e2e4 64bd 3f55 05bd ec8f 53bd
00000350: 1fed c53c afca 94bc 4405 063d bba0 c1bc
00000360: 59c9 1ebd 98df a9bc f197 07bd 7f41 01bd
00000370: a463 76bc 1be8 cabc ace5 733c 2fda babd
00000380: b92c ea3c 7e21 a23c 50c5 553d 72fe 76bd
00000390: 4dd2 59bd d233 74bd 2b52 74bd b759 6b3c
000003a0: 6f33 82bd 5e97 b9bc 62b0 b33c abee 87bd
000003b0: 4f29 7dbd 630c 30bd b776 bebb fcfa b5bc
000003c0: 1b70 8ebb 742b c33c 84f9 1c3c 6890 623b
000003d0: d02e 143a 6221 e7bb 6d29 4e3b 4ba8 59bd
000003e0: 80a5 6c39 3025 1bbd 5457 67bd 82bf 133d
000003f0: ac98 30bc 8f65 66bd bce3 f5bb 3d7c 343c

conv.7.bias f4 [64]
-0.061315984 0.5108533 0.35124657 0.4097663 0.6449524 0.58699214 -0.19708267 0.27491158
-0.00010900016 0.34923902 -0.24753287 0.18053837 0.5258597 0.55382836 0.6720079 -0.4854121
0.304998 0.402881 0.91034245 0.20100999 0.16540684 0.11183782 0.42366278 0.45131794
0.0827266 0.03418285 -0.17037682 0.12575749 0.17819095 -0.02167604 0.36734608 -0.041056857
-0.24756142 0.35082912 -0.030624514 -0.13719602 0.13063978 -0.19719175 -0.057846036 0.060353823
0.11529768 0.11048408 -0.051017333 0.16772392 0.37933016 0.14079039 0.395625 0.22719164
0.18545069 0.27907372 -0.23228456 0.085458905 0.2010197 -0.09254818 0.35851842 -0.36212537
0.055950463 -0.31523496 0.64072293 0.01631275 0.5719229 -0.22386731 0.4090343 0.20272908
00000000: 7826 7bbd 48c7 023f 97d6 b33e e3cc d13e
00000010: 9a1b 253f 1e45 163f 0ad0 49be 36c1 8c3e
00000020: 0497 e4b8 75cf b23e 4279 7dbe 0ddf 383e
00000030: be9e 063f b2c7 0d3f b608 2c3f ef87 f8be
00000040: b328 9c3e 6b46 ce3e 340c 693f 90d5 4d3e
00000050: 6960 293e 3a0b e53d 54ea d83e 2513 e73e
00000060: 906c a93d 5103 0c3d 4377 2ebe 92c6 003e
00000070: b077 363e f391 b1bc c914 bc3e 3c2b 28bd
00000080: be80 7dbe e09f b33e 43e0 fabc 1d7d 0cbe
00000090: 6fc6 053e a2ec 49be f7ef 6cbd 9235 773d
000000a0: 3121 ec3d 7a45 e23d 8df7 50bd d2bf 2b3e
000000b0: 9037 c23e 5b2b 103e 5c8f ca3e eda4 683e
000000c0: c9e6 3d3e c0e2 8e3e 01dc 6dbe 1405 af3d
000000d0: 1cd8 4d3e e689 bdbd ba8f b73e 7f68 b9be
000000e0: 502c 653d 7a66 a1be 6b06 243f 51a2 853c
000000f0: 8a69 123f 793d 65be f26c d13e 3698 4f3e

out.weight f4 [4, 64]
0.08381576 0.44550508 0.0035010725 0.11407097 0.2996398 0.088391736 -0.007023819 0.17447938
-0.008003639 0.07840493 0.09049911 0.12682784 0.18403333 -0.020815272 0.03994323 0.0022950117
-0.7187159 0.047927696 0.46988878 0.0875256 0.0126152355 -0.003402259 0.19817041 0.03917977
-0.17421398 -0.033496935 0.31904915 0.1422809 0.10539599 -0.05646538 0.10464888 -0.12977408
-0.110945195 0.05336178 0.03183362 -0.12699144 0.20729971 -0.63639563 -0.09027533 -0.18676339
0.15414615 0.11446025 0.050607212 -0.042628415 -1.459002 -1.4565325 -0.1268088 -1.4644504
-0.7777517 -0.005735235 0.17336914 0.016619686 -0.17364779 0.029279632 -0.1811884 3.8125014
0.19456619 0.060287964 0.1333118 -0.3451975 0.03597128 0.013742763 0.43995836 -0.106711075
-0.0787984 0.11053536 0.17637081 -0.03252143 0.37849098 0.22816783 0.15314503 -0.08210554
-1.0036306 0.2922522 0.13285704 0.16380617 0.19046535 0.14558224 0.17242895 0.03485661
0.0077600386 0.075098164 0.5024764 -1.5689896 -0.07635619 0.22629443 0.15440474 0.0411689
-1.2156731 -0.022190357 -0.014134219 0.14191818 -1.6014867 -0.11713049 0.0037059563 0.116588034
-0.09529192 0.18670696 -0.01849069 -0.015977481 0.024065865 -0.016432531 -0.22789775 -0.008849775
-0.04154951 -0.1037798 0.08809765 -0.12966521 0.11771645 -0.09809142 -0.24572098 0.074647084
-0.12370177 0.107633166 -0.047574278 0.23305736 0.06668113 -0.0019571162 0.092065156 -0.10872306
-0.112017415 -0.14933284 0.062443327 0.1593718 0.14646165 -0.03367746 0.0109716635 -0.0670425
0.07315206 0.07057937 -1.0551841 -0.025504265 0.054123346 0.045837395 -0.14673907 -0.042651065
0.11825535 0.027368775 -0.11295618 0.27116865 0.16537233 0.112492554 0.088516064 -0.33608606
0.052107267 0.27182823 0.5723281 0.08436702 0.022500163 0.0017833654 0.24104506 0.043672223
-0.0297684 -1.2058458 -0.086662926 -0.24176268 -0.14439124 0.1691056 0.24188662 0.028788356
-0.07719081 0.10415526 0.061427783 2.8761678 0.011206468 0.04246614 -0.050651465 -0.06617058
-0.15242283 -1.9718014 -0.05667378 0.042833447 -0.013113858 0.079081394 -0.15657258 -0.109279916
0.03594821 -2.1167648 0.4922184 -0.1794856 0.08344258 -0.024326215 0.19420981 -0.073792934
0.11519575 3.4989355 0.3593667 -0.07229989 0.38827518 -0.10928765 0.017778479 -1.3702428
0.06922891 0.03532479 0.00085587776 0.08788159 0.18510573 0.10871902 -0.55553764 0.18049307
-0.13582972 0.06218081 0.12486814 0.030360201 0.16453628 0.14556672 0.39527845 0.03242629
-0.028697778 0.086367704 0.47972396 0.122886784 0.19203618 -0.96101093 0.2139326 0.33657375
0.030453762 -0.18047608 0.051954284 0.17493212 -0.06476643 -0.28559092 -1.4211456 -0.1519009
2.8682175 -0.23067549 0.08584257 -0.043775074 0.32070166 0.0988086 0.066657595 -1.146916
-1.3208263 -0.035505142 -0.12062065 -1.1801468 0.14931117 -0.10731968 -0.33867735 -0.087575644
0.06868406 0.07157689 -0.011245254 0.20293933 0.1562927 0.007463935 0.035912838 -0.12575747
0.19390959 -0.041358974 0.13488923 -0.012345386 0.07974981 0.37721825 0.018204119 0.12323141
00000000: 99a7 ab3d 3e19 e43e 4072 653b 0a9e e93d
00000010: 636a 993e ba06 b53d 1028 e6bb b9aa 323e
00000020: b221 03bc c492 a03d 9957 b93d 28df 013e
00000030: 3c73 3c3e ca84 aabc 839b 233d e867 163b
00000040: c4fd 37bf d54f 443d 4395 f03e 9f40 b33d
00000050: 22b0 4e3c 6ff8 5ebb 2fed 4a3e f77a 203d
00000060: 2665 32be 1534 09bd 695a a33e 16b2 113e
00000070: dad9 d73d 3e48 67bd 2752 d63d 7fe3 04be
00000080: 3c37 e3bd e291 5a3d f863 023d 0b0a 02be
00000090: 6046 543e d3ea 22bf 46e2 b8bd e73e 3fbe
000000a0: 7dd8 1d3e 236a ea3d 8249 4f3d 229b 2ebd
000000b0: 94c0 babf a86f babf 2bda 01be 1c73 bbbf
000000c0: bc1a 47bf a3ee bbbb ae87 313e 0226 883c
000000d0: bad0 31be d7db ef3c 7489 39be 0600 7440
000000e0: 5c3c 473e 83f0 763d e382 083e babd b0be
000000f0: 9f56 133d 5329 613c 3942 e13e 568b dabd
00000100: 0e61 a1bd 5d60 e23d 8d9a 343e 3135 05bd
00000110: 92c9 c13e d4a4 693e 0dd2 1c3e f326 a8bd
00000120: f876 80bf 15a2 953e ad0b 083e cebc 273e
00000130: 5909 433e 8313 153e 3791 303e cec5 0e3d
00000140: ec47 fe3b 11cd 993d 4ba2 003f a7d4 c8bf
00000150: a260 9cbd bab9 673e 471c 1e3e b8a0 283d
00000160: 2d9b 9bbf 8dc8 b5bc 3693 67bc 0053 113e
00000170: 84fd ccbf 1ce2 efbd a1df 723b b5c5 ee3d
00000180: 6928 c3bd 1c30 3f3e ca79 97bc 35e3 82bc
00000190: c725 c53c 849d 86bc 075e 69be a6fe 10bc
000001a0: d22f 2abd 818a d4bd 8a6c b43d f5c6 04be
000001b0: 5215 f13d 28e4 c8bd 489e 7bbe 92e0 983d
000001c0: 5b57 fdbd c76e dc3d 3fdd 42bd 97a6 6e3e
000001d0: 1e90 883d f642 00bb a88c bc3d 32aa debd
000001e0: 6369 e5bd b5ea 18be 93c4 7f3d 5c32 233e
000001f0: 0bfa 153e 60f1 09bd 7ec2 333c 944d 89bd
00000200: bfd0 953d eb8b 903d 4610 87bf 52ee d0bc
00000210: 71b0 5d3d febf 3b3d c442 16be e2b2 2ebd
00000220: dc2f f23d 7b34 e03c 9255 e7bd 9ed6 8a3e
00000230: 5d57 293e 7f62 e63d e947 b53d 7913 acbe
00000240: 6e6e 553d 122d 8b3e 1884 123f 9ec8 ac3d
00000250: 4352 b83c d0bf e93a 84d4 763e a5e1 323d
00000260: dcdc f3bc 2859 9abf 557c b1bd a390 77be
00000270: 4cdb 13be 052a 2d3e 20b1 773e 8fd5 eb3c
00000280: 3716 9ebd 5a4f d53d b39b 7b3d 2213 3840
00000290: 559b 373c faf0 2d3d e977 4fbd 7184 87bd
000002a0: bb14 1cbe fd63 fcbf c422 68bd 2072 2f3d
000002b0: 82db 56bc 6df5 a13d 9054 20be 26ce dfbd
000002c0: 6e3e 133d 1379 07c0 0d04 fc3e 13cb 37be
000002d0: f2e3 aa3d c547 c7bc f0de 463e c020 97bd
000002e0: c0eb eb3d 8fee 5f40 e9fe b73e f711 94bd
000002f0: 01cc c63e 34d2 dfbd 2ca4 913c 1e64 afbf
00000300: e3c7 8d3d bab0 103d fc5c 603a 43fb b33d
00000310: 5b8c 3d3e 14a8 de3d b737 0ebf 2dd3 383e
00000320: f216 0bbe 4eb1 7e3d deba ff3d f5b5 f83c
00000330: 337c 283e 710f 153e f061 ca3e 6ed1 043d
00000340: 9a17 ebbc 8de1 b03d 619e f53e 11ac fb3d
00000350: 22a5 443e d004 76bf 2611 5b3e 6553 ac3e
00000360: 2b7a f93c b9ce 38be 04ce 543d 6821 333e
00000370: 43a4 84bd f938 92be 19e8 b5bf e98b 1bbe
00000380: e090 3740 3236 6cbe 3bce af3d 7e4d 33bd
00000390: 0233 a43e 2a5c ca3d c783 883d 25ce 92bf
000003a0: d610 a9bf d76d 11bd f607 f7bd 0d0f 97bf
000003b0: 07e5 183e 6cca dbbd 1e67 adbe dc5a b3bd
000003c0: 3aaa 8c3d e896 923d 043e 38bc 54cf 4f3e
000003d0: 320b 203e 0694 f43b 5719 133d 91c6 00be
000003e0: 3c90 463e 0768 29bd 6720 0a3e 4d44 4abc
000003f0: de53 a33d c022 c13e ce20 953c c060 fc3d

out.bias f4 [4]
0.7457346 0.73732334 0.62830174 0.6735133
00000000: 76e8 3e3f 39c1 3c3f 62d8 203f 5e6b 2c3f
