models/v17.1/model_68000_target.pth (torch, 295179 bytes, 10 tensors)

conv.0.weight f4 [16, 2, 3, 3]
000000 2e 0e 3f 3e d1 a3 c3 3d 7e e4 39 be de 9b 4d 3e
       0.18657753 0.0955273 -0.18153569 0.2007899
000010 c4 17 02 be 4f ea 27 3d 8c 6f 94 be 1f 1b 90 3e
       -0.12704378 0.04099494 -0.28991354 0.28145692
000020 24 af 9b 3d 84 c2 cd bd 3f 0c d5 3d 0e 28 75 bd
       0.07601765 -0.100468665 0.104027264 -0.059852652
000030 df 95 26 bd a7 e9 50 3d 59 0a 5e 3d b0 fa 32 bd
       -0.040670272 0.05100408 0.054209087 -0.043696105
000040 2b 77 41 3d 76 b4 92 bc a8 2a ed bd 9a f2 76 3e
       0.047232788 -0.017908316 -0.11580402 0.24115983
000050 32 78 dd 3c 1f 3f 3d 3e be a5 0a be 25 22 5a 3e
       0.027034853 0.1848111 -0.13539788 0.21302088
000060 ad 8b 40 bf 20 96 f7 be 1f db 51 be 81 e8 74 bf
       -0.7521313 -0.48356724 -0.20493744 -0.9566727
000070 16 c8 07 3f 1d ed 93 bf e8 60 58 3e 08 d7 44 be
       0.5303968 -1.1556736 0.21130717 -0.19222653
000080 b8 cf 6b 3e f8 88 7c bd 0c 6d 44 bc f5 5d 16 3e
       0.23028457 -0.06165406 -0.011988889 0.1468428
000090 e5 2c 86 bc fe 9c 63 3e 62 7d de 3d a4 75 fc bd
       -0.01637883 0.22227857 0.108637586 -0.12327126
0000a0 ab 1a 9f 3e 2f 34 15 bd 99 d5 a7 3e 03 07 43 3e
       0.31075034 -0.03642672 0.3278015 0.19045644
0000b0 25 5f 19 3e f0 8f 92 3d ce 1d 1a 3e cd fe 1a 3c
       0.14977701 0.0715636 0.15050432 0.009460163
0000c0 ce 98 93 3e 38 a7 c8 bd 84 27 b2 bf 69 de a3 bd
       0.28827518 -0.097975194 -1.3918309 -0.08001406
0000d0 29 bf a4 be a0 f9 87 3d 25 c6 96 bc a6 fd 06 3d
       -0.32177094 0.06639409 -0.01840503 0.03295674
0000e0 b0 32 48 3d ae 35 dc 3d c9 e5 0b 3e 99 44 1a bf
       0.048876464 0.10752426 0.13661875 -0.6026092
0000f0 6f 43 5d be e1 e6 9f be ba ef 34 3e fa b6 a0 bc
       -0.21607755 -0.31230834 0.17669573 -0.0196185
000100 ae fc 2a 3d 17 c6 8b bd 71 a1 a9 3e 35 ff be bd
       0.04174488 -0.06824892 0.33130983 -0.09326021
000110 00 bb 35 bf 45 e9 8b be 86 c6 b5 3e 2a 5b 25 3e
       -0.70988464 -0.27326408 0.35503024 0.16148058
000120 38 b7 7a 3e 2b 83 06 be af e4 25 be a8 f1 9c bf
       0.24483955 -0.13135974 -0.16200517 -1.2261248
000130 3b 96 5e be f1 e0 26 3e 7d ce 72 3d 98 e6 f4 3e
       -0.21736996 0.16296746 0.059278954 0.4783218
000140 68 18 8f bf 43 71 81 be 2b cd 82 3e d6 17 4f bf
       -1.1179323 -0.25281724 0.25547156 -0.80895746
000150 a5 b4 74 3e bd e5 17 bc b1 9b 4c 3e ad 28 52 bc
       0.23897035 -0.0092710825 0.19981267 -0.012827081
000160 e9 39 65 bd 61 e3 ab bc 28 94 e7 bc 65 d0 25 be
       -0.05596343 -0.020982446 -0.028268889 -0.16192777
000170 1c 9b ce 3e 2c 2a 71 3e bc 24 2f be dc 73 d4 bd
       0.40352714 0.23551244 -0.17103857 -0.10373661
000180 bf 5d fb 3e ec 08 c4 be 0d 8a 91 3e 65 1c 3d be
       0.4909496 -0.38288057 0.28425637 -0.18467863
000190 2f da 13 be 41 f4 aa 3d 99 0c 40 3d ad 46 a6 be
       -0.14438699 0.08347369 0.046887014 -0.32475796
0001a0 7b 31 d6 bd 1b 51 0f bd 12 6b ff bd 34 3d 9b be
       -0.104586564 -0.034989458 -0.12471594 -0.30320132
0001b0 5a 87 7d bf 2a 72 c2 bc 35 b9 ad 3e 82 1a 5c 3e
       -0.99034655 -0.023736078 0.33930364 0.21494487
0001c0 31 a9 97 3d 23 9a 85 bf bc ae 97 be 7a 32 dc 3d
       0.074053176 -1.0437664 -0.296255 0.10751815
0001d0 8b 28 08 be 34 79 e0 bd 3a 90 37 3d 76 c7 20 be
       -0.13296716 -0.10960618 0.04481528 -0.15701088
0001e0 44 4d f5 3d 19 cd 02 3d b4 c7 b0 3c 2a 24 6a bf
       0.11977628 0.031933878 0.0215796 -0.9146143
0001f0 be dd d0 be 66 d4 57 bd a1 af df 3d cd db 2a be
       -0.40794176 -0.052692793 0.109221704 -0.1668541
000200 d3 43 e1 3e 74 eb 22 bd 0e e1 a5 3e 21 4c 56 3d
       0.43997058 -0.039775327 0.32398266 0.052318696
000210 55 76 1e 3d 91 42 ae 3e 29 66 4f bd 6e 35 c3 bf
       0.03868707 0.3403516 -0.050634537 -1.525068
000220 00 94 71 bf 62 07 62 bf 3a d2 91 3d 0d 4a fc 3c
       -0.94366455 -0.88292515 0.07120176 0.030797029
000230 76 e6 b3 3c 9a 91 bf be b0 fe 87 3e fd 40 69 bd
       0.021960478 -0.37415773 0.265615 -0.056946743
000240 6e a5 09 bc 48 29 99 3d f7 44 07 3e cb cc 8e 3e
       -0.008401258 0.07478577 0.13209902 0.2789062
000250 0c 53 04 3e 41 51 78 be a9 71 2b 3e 82 62 8f be
       0.12922305 -0.24249746 0.16742577 -0.28004843
000260 eb aa c9 3c f1 56 c9 be a5 98 dc 3e fc c9 e3 be
       0.024617633 -0.39324144 0.4308521 -0.4449004
000270 0a a2 53 3d 29 7d 6e 3e ca 68 f9 bc 5b ca 98 be
       0.051668204 0.23289932 -0.030445475 -0.29841885
000280 02 b7 cc 3e 01 5d b0 3d 02 7f 63 3c 32 81 06 be
       0.39983374 0.08611489 0.0138852615 -0.13135222
000290 74 e8 2e 3e be f3 8a 3d 4c 03 f7 bd c4 80 a2 3e
       0.17080861 0.067847714 -0.12061176 0.31738865
0002a0 68 45 8a 3e cc fd 8e bd ea ed 6f be e6 f8 31 bb
       0.27006078 -0.06982002 -0.23430601 -0.0027156412
0002b0 02 01 5b 3e 2a 69 0c be a5 9f cc bf 95 a3 87 3b
       0.21387103 -0.13711992 -1.598622 0.0041393735
0002c0 ee 60 5f be ec 85 5d 3e 8a 2a b9 3e 4c 12 ab be
       -0.2181432 0.21633118 0.36165267 -0.33412397
0002d0 fb 9c 99 bd 56 c8 04 3e b8 f8 9a 3d 7f d4 d9 bd
       -0.07500645 0.12967047 0.075669706 -0.106362335
0002e0 3c 11 aa 3d 55 d4 e5 3d ca 57 bb 3e b6 37 94 be
       0.083040684 0.1122214 0.36590415 -0.28948754
0002f0 ee fb 03 bc 91 f9 cf 3c 9b 3b 8e be 61 9c 31 be
       -0.00805567 0.025387557 -0.2777985 -0.1734481
000300 62 71 e0 3e 2f 14 ad 3c 03 b3 70 bd ad a5 a3 3d
       0.43836504 0.021127788 -0.05876447 0.079905845
000310 41 64 cb 3d 6f 2f db bd 3f 01 87 3e 9e 89 25 3e
       0.09931231 -0.107024066 0.26368138 0.16165778
000320 a5 fe f8 be e3 6c 39 bd 89 0f 0b 3e b8 d8 f0 3d
       -0.48631778 -0.045269858 0.13580145 0.11760086
000330 c2 aa 85 bf b9 97 b1 be f3 35 b7 bd c8 8a b8 bf
       -1.0442736 -0.34686068 -0.08945837 -1.4417353
000340 c2 ca 94 be f7 ea 8c 3e 64 b2 d2 3d 88 90 2f 3e
       -0.29060942 0.27523014 0.102879316 0.17144978
000350 6b 10 78 be 5d ed 71 3d 11 7a ff 3d 5a 71 01 3e
       -0.24225013 0.059064258 0.12474454 0.12640896
000360 96 c6 3e bd d5 f6 54 bd 2e 85 89 3d 2c 6a 43 bd
       -0.046576105 -0.05199321 0.06714855 -0.047708675
000370 0d e0 22 bd e3 8d 64 3e 1c e5 e4 bd 38 2e ea 3b
       -0.039764453 0.2231975 -0.11176512 0.007146623
000380 f5 99 89 be f0 9a 18 3e 11 47 78 3e 75 31 59 3d
       -0.26875272 0.14902854 0.2424586 0.05302568
000390 a8 b4 07 be 7a 88 63 bf 1f 5e 5d be 91 91 cd 3d
       -0.13252509 -0.8888012 -0.21617936 0.1003753
0003a0 c2 ed 9d 3d 9e 54 89 3e 18 ac 8a 3e 7f e1 b6 3d
       0.07711364 0.2682237 0.27084422 0.08929729
0003b0 79 e4 2d 3c 35 9a 44 3c 81 73 b8 bf 2a 6b 26 3b
       0.010613554 0.011999656 -1.4410249 0.0025393465
0003c0 33 36 12 bd d3 3a 47 be 3f 7c 6a 3d cd 5d ab 3d
       -0.03569622 -0.19456033 0.057247397 0.083675005
0003d0 0c 1a ae bf 89 cb 30 be ad c9 35 be 10 5a 4f 3d
       -1.3601699 -0.17265143 -0.17752714 0.050623
0003e0 95 95 37 be 98 33 94 3e 56 fe 7b be 3a fe e1 bd
       -0.17928155 0.28945613 -0.2460874 -0.11034818
0003f0 5d 10 1c 3d 6c 7a 8a bf aa 57 6f bb 43 ca 2e be
       0.038101543 -1.081861 -0.0036520758 -0.17069344

conv.0.bias f4 [16]
000000 c5 35 d5 3c 0d bc c0 3d b8 66 af bc 58 04 b0 bd
       0.026026616 0.09410868 -0.021411285 -0.085945785
000010 27 ce de bd 54 6f 90 be e5 c7 3b 3e 10 e9 7c be
       -0.10879164 -0.28209937 0.18337972 -0.24698281
000020 fa 4b 43 be 01 bf 74 bd ce 5d 93 be 8c de 21 bd
       -0.19071952 -0.059752468 -0.28782505 -0.039518878
000030 34 7c 2a 3c 33 a8 d7 3d b1 b1 c7 bd 47 03 a8 3d
       0.010405589 0.10530128 -0.09750689 0.0820375

conv.2.weight f4 [32, 16, 3, 3]
000000 7f 2e bc bd c1 f6 1f 3e 27 95 02 be 4c a9 84 3e
       -0.09188556 0.15621473 -0.1275221 0.25910413
000010 e5 e7 0c 3d 08 c1 30 3d 57 e8 49 3e 3f ef 1b 3e
       0.03440084 0.04315284 0.19717537 0.15227984
000020 ba d7 11 3d 13 6e 09 3e fb a1 20 bc e2 d6 3a bc
       0.035606124 0.13420896 -0.009804244 -0.011403771
000030 62 32 9d bd 7a d9 50 3d 02 31 02 3d 96 f7 06 3d
       -0.076756254 0.05098865 0.03178502 0.03295096
000040 6a 1f f0 bd ce 83 5b be 5d 65 57 3d 1f 3e dd 3d
       -0.11724742 -0.21436998 0.052586902 0.10802864
000050 41 b6 d8 bd 8a 29 8a be be e6 32 3e 6d 5f 2b bf
       -0.10581637 -0.26984817 0.17470834 -0.66942483
000060 e0 97 05 bd 7e 14 3c bd f5 d5 9e 3d 5d 44 a2 3d
       -0.032615542 -0.04591798 0.07755653 0.079231955
000070 95 36 b3 bd 66 81 11 be 0a 3c 06 3d 6a 92 83 be
       -0.08750645 -0.14209518 0.0327721 -0.25697643
000080 3e 12 44 be 87 c7 1f bd 77 71 3f bd 54 ba 48 3e
       -0.19147584 -0.039008643 -0.046739068 0.19602329
000090 d4 00 a4 bc 51 bf 27 3d 0f 24 a7 3d f6 11 05 3c
       -0.020019926 0.040953938 0.081611745 0.008121958
0000a0 86 1d a8 bc 7d c1 78 be c3 1b 3c 3e b5 b1 6c be
       -0.02052189 -0.2429256 0.18369965 -0.23114665
0000b0 2c f8 06 be 6a da 85 3e f4 d8 59 3d bc 00 8e be
       -0.13180608 0.261432 0.05318542 -0.27734935
0000c0 6b 4f 08 3f e8 4c 70 be 53 9d 98 be b9 0c 63 3e
       0.5324618 -0.23466837 -0.2980753 0.22172822
0000d0 cf 46 12 3e c5 17 6f 3d 8f 5a 98 be 2b dd 33 3c
       0.14284824 0.058372278 -0.2975659 0.0109780235
0000e0 58 52 58 be 39 b8 3d 3d 8f af 3a be 8f 61 a6 bd
       -0.21125162 0.046318267 -0.18231033 -0.081240766
0000f0 dc ea 49 bc 3a 37 27 3e 14 40 0b 3e 6e d3 22 3d
       -0.012324061 0.16329661 0.13598663 0.039752416
000100 92 dc 85 be 78 db 55 3c 2e 52 90 3d 8f 0b d1 bd
       -0.26144844 0.013052814 0.070469245 -0.10207283
000110 02 8d 36 3e 3a 2c d2 3c 2e 09 8d be 45 26 82 be
       0.17827228 0.025655854 -0.27546066 -0.25419822
000120 a9 ed 4d be 3b 3f d5 3c 90 fb e0 3e 10 0a 32 bd
       -0.20110191 0.026031127 0.43941927 -0.043466628
000130 6e 96 86 bb 1e fb 74 3e f8 52 72 3d c4 8e 32 3e
       -0.004107288 0.23923919 0.059161156 0.17437273
000140 7c af c4 3d 6c 0d ee 3c a8 6c 9b be fc 9b 22 3e
       0.096037835 0.029059134 -0.30356336 0.15879816
000150 92 76 91 bd 68 30 ac bd 49 7e 90 bd 6c 5f 12 3c
       -0.071026936 -0.0840767 -0.07055337 0.008933883
000160 3f c2 2f 3e 20 c6 59 3e 36 cd 19 3e be b0 bb 3c
       0.17163943 0.21266985 0.15019688 0.022911426
000170 77 27 89 3e f8 2e aa bc 7a f9 aa bc 5e c1 83 be
       0.26787922 -0.02077435 -0.020870913 -0.25733465
000180 98 1c 86 3d 8f 6d 1d 3e 19 44 3a be fd e0 3b bd
       0.065484226 0.15373825 -0.1819004 -0.045868862
000190 a0 bc 0c 38 12 1c 9c be d0 76 11 be 02 20 90 bd
       3.355427e-05 -0.30490166 -0.1420548 -0.07037355
0001a0 aa 07 c6 bd c5 2c cd 3d 04 44 37 be c8 fb cd bd
       -0.096694306 0.10018305 -0.1789704 -0.10057789
0001b0 86 92 4d 3c 0d 97 dc bc 9f 9c fa bd 7d 10 2d 3d
       0.012547141 -0.026927495 -0.12236904 0.042252053
0001c0 9c 90 0a be f8 1d 7d bc e4 49 8d 3d e1 f1 c0 3c
       -0.13531727 -0.01544904 0.06898859 0.023552837
0001d0 b4 2e d6 bd 22 57 3b be ae a6 11 bf 38 75 fa 3d
       -0.10458127 -0.18294957 -0.5689496 0.12229389
0001e0 ea 41 82 bd be 73 d0 bd 15 9f 8b be 71 5b 30 bf
       -0.06360228 -0.10178326 -0.27269807 -0.6888953
0001f0 a9 48 2b 3e c4 a7 f1 3d 0f 11 59 3e e5 74 f3 bb
       0.16726936 0.11799577 0.21197914 -0.0074297064
000200 36 a2 79 3c bf de 27 3e 94 d0 c3 bd 5e d2 30 bd
       0.015236428 0.16393565 -0.095612675 -0.04316937
000210 83 54 b8 3b 50 d0 81 3d a9 3b 39 3e 67 e6 1f 3d
       0.005625309 0.063385606 0.18089165 0.03903809
000220 dd 78 1f bd 1b 11 bd 3d ae 4b 05 3e 84 f9 43 3e
       -0.038933624 0.09231778 0.13017151 0.19138151
000230 99 c4 14 3d e5 33 69 3d 02 cc d6 be 57 82 24 3d
       0.036320303 0.056934256 -0.4195252 0.040163364
000240 9e 1f 15 bc de c1 5e bd b3 9e c8 3c 2d 6a 99 3d
       -0.009101776 -0.054384105 0.024489736 0.074909545
000250 ab 94 87 be de 82 0f bd 9c a9 2d bd 86 ff a0 3b
       -0.26480612 -0.035036914 -0.04239808 0.0049132733
000260 2f ec d2 bc cc 9c a8 3d ad 72 a0 3d 6f 23 84 bd
       -0.025747387 0.08233032 0.07834373 -0.06452071
000270 f9 58 e3 bf 54 e7 94 3d 41 89 bb 3c 2a 24 31 be
       -1.7761527 0.07270685 0.022892596 -0.17298952
000280 a3 09 d2 3d 0a 7f 5e bc 44 d2 09 bc db b4 b3 bc
       0.10255744 -0.013580093 -0.008411948 -0.021936825
000290 b8 82 ac 3c 79 ca 08 3e 78 a5 ba 3d f8 4c bd 3d
       0.021058425 0.13358487 0.09113592 0.09243196
0002a0 e5 71 33 3d c1 cf 8a 3d 93 43 8e bd c1 6b b4 bd
       0.04380979 0.06777907 -0.069464825 -0.08809615
0002b0 38 53 63 be 9f 90 14 3e 2c 33 01 be 2c 06 27 3e
       -0.22199714 0.14508294 -0.12617177 0.16310948
0002c0 29 ec 8b bd 85 cc 99 be a6 6b e2 bd 8a 32 2e 3e
       -0.06832153 -0.3003885 -0.110556886 0.17011467
0002d0 06 06 5a be d3 99 a0 be 4a e9 fe be 34 77 82 be
       -0.2129136 -0.3136736 -0.4978736 -0.2548157
0002e0 89 6d 2e 3e df 8f 9a 3e a4 79 e3 3b 8d c6 ee 3c
       0.17033972 0.3018789 0.006941991 0.02914741
0002f0 fe 10 46 bd f5 be 98 3b 8d 4e 4d bd b3 e1 49 3b
       -0.04835605 0.0046614357 -0.05012374 0.0030804693
000300 9d a3 1c bc 3d 87 db 3d 4b d6 c2 be 10 7a 73 be
       -0.009560493 0.10719154 -0.38054118 -0.23777032
000310 f7 b3 93 be f8 3e 11 3e 4a ed cf bd 63 0c 28 bd
       -0.2884824 0.14184177 -0.10152681 -0.041027438
000320 8c 3b 41 3e 80 3b 02 3d a2 1f 0c be 7a 99 04 bf
       0.18870372 0.031795025 -0.13683942 -0.51796687
000330 fc df 89 3d 30 f7 2e 3d f1 13 de 3e bd 05 9f bd
       0.06732175 0.042716205 0.4337459 -0.07764766
000340 3d 79 63 3c 20 f6 3c be 2b 2f 3b 3e f0 2a a3 bc
       0.013883886 -0.18453264 0.18279712 -0.019917935
000350 40 f7 89 be 6c 30 2f 3e 36 3d 41 be 0d d1 52 3d
       -0.2694645 0.17108315 -0.18871006 0.051468898
000360 83 0f 80 bc 22 63 09 3d 93 df 63 bd 24 c9 1d 3e
       -0.015632397 0.033541806 -0.05563314 0.1540876
000370 7c 4c 2a 3e 90 97 fa be c8 d3 09 3e af ca 46 3e
       0.16630739 -0.48943758 0.13459694 0.19413255
000380 76 9d 2e 3e e6 e4 57 3e 3b ed 1f 3e 3b 3f 8d 3d
       0.17052254 0.21083412 0.1561784 0.06896826
000390 f3 b7 ab 3d d8 23 31 3e 8d e2 8a 3d 64 c0 da 3d
       0.08384695 0.1729883 0.067814924 0.10681227
0003a0 60 72 eb bd ff 5f 89 3d 34 29 d6 3c 0d 01 05 3e
       -0.11496425 0.06707763 0.026142694 0.12988682
0003b0 f9 83 c3 be 15 f9 22 be de dd fd 3c b1 4b 11 3e
       -0.38186625 -0.1591533 0.030989584 0.1418903
0003c0 42 0c 00 3d c3 dd 50 be 59 9c 6a 3e 5a 61 9b 3d
       0.03126169 -0.20397095 0.22911204 0.07586928
0003d0 cb 43 9a 3e 27 48 5b 3c 2b 33 06 3e 10 60 31 3e
       0.30129847 0.013383902 0.13105457 0.17321801
0003e0 8a 76 0c be e7 16 3a 3e e4 77 04 3d a1 b8 41 be
       -0.13717094 0.18172799 0.0323409 -0.18918087
0003f0 cc 04 20 3e 5d e7 fd bc fc a0 da 3d 66 42 a3 3d
       0.1562683 -0.030994112 0.106752366 0.07971649

conv.2.bias f4 [32]
000000 f1 0c c5 3d cb 08 2e bd 87 f1 1d be 0e 36 0c be
       0.09621609 -0.042488854 -0.15424167 -0.13692495
000010 2e 6d a2 3d 4e 35 ee bd 3f f4 e9 3d 72 8b ed bd
       0.079309806 -0.11631261 0.11423539 -0.11598863
000020 6e 60 1b 3d 2d d5 a6 bd f9 6e e3 3c 5d 0d b3 3d
       0.03793376 -0.08146129 0.027762877 0.08742783
000030 00 70 4b bd 48 7e 37 3d 21 0e 49 3d d1 87 53 bd
       -0.04966736 0.044798166 0.04908574 -0.051643196
000040 50 11 db 3d 07 13 25 3d d0 ac 8e 3d b8 92 16 be
       0.106966615 0.04030135 0.06966555 -0.14704406
000050 1f d3 88 bd 63 6b 07 3e c0 22 3e be de da f5 3c
       -0.06680893 0.13224559 -0.18567944 0.03001159
000060 fe 9c e9 3d cf 8c 14 3e 3f ee 7c bd 21 16 dd 3c
       0.11406897 0.14506839 -0.061750647 0.026988091
000070 c2 6a 0a 3e a2 8b 8e 3d 3e e4 af ba 21 1b b9 bc
       0.13517287 0.069602266 -0.0013419462 -0.022595944

conv.4.weight f4 [64, 32, 5, 5]
000000 20 ca 80 bd 7d 1e f7 bc f2 57 25 3e 68 e8 84 bc
       -0.06288552 -0.030165905 0.1614683 -0.016224101
000010 89 6b ca bd 14 f4 4e bd da 10 3e be 53 e1 25 3e
       -0.09883792 -0.05052574 -0.18561116 0.16199236
000020 13 b8 89 be 66 58 2d 3e 94 2e 97 3e e2 11 ec bc
       -0.2689825 0.16928253 0.29527724 -0.028817121
000030 dc ea c5 3d e5 b1 a5 be 12 94 18 be 18 2f 81 be
       0.096639365 -0.32362285 -0.14900234 -0.25231242
000040 29 a5 6d bd fb 1f 09 be b4 6f 64 3e 90 85 a8 be
       -0.058018837 -0.13391106 0.22308236 -0.329144
000050 22 dd 8a bd 0d 6d 04 be 51 2f a8 3c 9b 33 66 3d
       -0.06780459 -0.12932225 0.020530375 0.05620156
000060 3d 69 01 be e6 f2 92 be 4e 4a c0 be 90 7f 11 3e
       -0.12637801 -0.28700942 -0.3755669 0.14208817
000070 8a 77 33 3e a4 5f f6 bd 94 9d 80 be 75 c5 0d be
       0.1752607 -0.12029961 -0.25120223 -0.13844855
000080 2b 70 be be f2 97 32 3d 13 e4 dd bd 5b 9a 63 3c
       -0.37194952 0.043601938 -0.10834517 0.013891782
000090 4d 57 d3 be ef cf 2e 3e 2f 28 9d 3e b4 39 2f bf
       -0.41277543 0.17071508 0.3069472 -0.68447423
0000a0 e5 2f 3e be 30 3d 20 3d 1c 65 73 3e 43 e2 2f be
       -0.18572958 0.039120853 0.23769039 -0.17176156
0000b0 a8 81 0a 3d 79 4c 35 be 1d 06 9c 3c 2a c4 7a 3d
       0.033815056 -0.17704953 0.019045884 0.061222233
0000c0 be 6c 71 bd 1e c7 10 3d 0f c2 7f be eb 16 13 3e
       -0.058941595 0.035346143 -0.24976371 0.14364211
0000d0 c5 30 97 3a 4c 9c b4 be b3 7d e3 3e 27 e4 c4 3d
       0.001153492 -0.35275495 0.44431838 0.09613829
0000e0 4d 4a 59 be 2a f5 a5 be 8c 30 7a 3e 22 7a 99 bc
       -0.2121975 -0.32413608 0.24432582 -0.018734995
0000f0 72 9a 64 be 32 26 b7 bd 77 2d a0 be 67 cb b6 bd
       -0.22324541 -0.08942832 -0.31284687 -0.08925515
000100 c8 ff 63 bc 6f 85 4f bd c2 0e 50 bd f3 1e 91 3e
       -0.0139159635 -0.05066436 -0.050795324 0.28343925
000110 0c f7 da bc 67 02 7e bd 6d 1b 50 bd 0d 8c 01 3e
       -0.02672913 -0.06201401 -0.050807405 0.12651081
000120 4d df 47 3e 97 0a 3b b9 6b 97 3a 3b fc bb 2c bd
       0.19518776 -0.00017837655 0.00284716 -0.042171463
000130 bf 3f 5e bd 12 92 8a bc 86 ce 9f 3d 43 9f e2 3c
       -0.05426001 -0.016915355 0.07803063 0.027663833
000140 d4 44 dd 3d c3 31 75 3d 31 91 75 be 40 87 ce 3e
       0.108041435 0.05986191 -0.23981167 0.40337563
000150 b5 ac 56 be 69 55 6a be d1 18 11 3d 5b 41 80 be
       -0.2096432 -0.22884144 0.035424057 -0.25049862
000160 b2 a4 b7 3d f4 14 bb 3e 1b a2 55 3c a8 67 1e 3e
       0.0896696 0.36539423 0.013039137 0.15469229
000170 9c 71 99 bd 61 cd 7c be 36 2a 04 3e 57 63 de 3d
       -0.074923724 -0.24687721 0.12906727 0.10858791
000180 4b 58 60 3d 4f c8 6b bc b2 90 0a 3e cf 6e 76 bd
       0.054771703 -0.014391019 0.1353176 -0.06016427
000190 0d 89 f9 3d df 70 59 be bf e4 04 be 33 df 43 bd
       0.121843435 -0.21234463 -0.12977885 -0.04782028
0001a0 f7 f7 e6 bd 5a 94 3a 3e 8a ef c2 3b a6 05 8e bd
       -0.11277764 0.18220654 0.0059489654 -0.06934671
0001b0 84 13 f7 3c 5f 25 83 bc e7 aa dd bd c4 b2 9b 3e
       0.030160673 -0.01600903 -0.10823613 0.30409825
0001c0 5e 8d b7 3c 8a 26 bf 3e 54 00 9f 3d 1e 9e 67 be
       0.022406276 0.3733409 0.077637345 -0.2261891
0001d0 1c 92 95 3d 51 02 1f be ea 33 37 3e 3b a3 be 3d
       0.07303259 -0.15528227 0.17890897 0.093084775
0001e0 6d ea fc 3d 16 e7 68 be fa c8 1e bc 32 6d 59 be
       0.12349401 -0.22744402 -0.009691471 -0.21233061
0001f0 69 c3 86 3e 98 aa 92 3e bb 16 ea bc 55 0c 1a 3d
       0.2632096 0.28645778 -0.028575292 0.037609417
000200 1c af ee bd 10 47 fa 3d 84 af 4d 3d 2d 4d 88 bd
       -0.11654493 0.12220585 0.050216213 -0.06655345
000210 aa 98 15 3e 8a f5 96 3d b5 5a 43 be ad 15 14 be
       0.14609018 0.073710516 -0.1907757 -0.14461394
000220 23 a6 bb 3d e1 bd 08 3d 2c 3c 8b 3e 6d 88 f1 bd
       0.091625474 0.033384208 0.27194345 -0.11793599
000230 7c 66 90 be 39 0a 77 be 3c b7 43 3d 0a a9 b2 3c
       -0.2820319 -0.24124993 0.047782168 0.02180912
000240 90 2a 0b be 5e 7a c5 be 46 56 7a 3e 76 e3 b9 3d
       -0.13590455 -0.3856992 0.24446973 0.09076588
000250 b0 2e a4 3d 2d f7 f7 bd a1 70 a8 be 6e 23 57 3e
       0.080167174 -0.12107692 -0.3289843 0.21009609
000260 10 45 5d be 0f e2 e1 3c 4b b2 b7 bd c3 fb b2 bd
       -0.21608377 0.027573613 -0.089695536 -0.08739426
000270 6d 7c a4 be d6 de 58 3c 32 77 ce 3c 60 aa be bc
       -0.3212618 0.013236722 0.025203321 -0.0232746
000280 f6 15 c6 bd 66 73 82 3e ad a7 6c be b5 74 1e 3c
       -0.096721575 0.25478667 -0.23110838 0.00967138
000290 16 a9 80 3e 66 30 0f 3d 5a 3d 50 be 70 e1 93 3d
       0.25129002 0.034958266 -0.20335904 0.07220733
0002a0 23 67 92 be 54 b7 7b 3e 77 72 3d 3e 30 2e 65 be
       -0.28594312 0.24581653 0.18500696 -0.223809
0002b0 f0 b1 2a 3d 7b b6 26 be af b8 02 3d c3 1c 06 bd
       0.0416736 -0.16280548 0.03191441 -0.032742273
0002c0 41 bd a7 3c 88 f8 43 3e bb ac 28 3d a4 87 5a 3d
       0.020475985 0.19137776 0.041180354 0.053352013
0002d0 f0 99 9f bd fb 94 ca 3d 19 6e c7 bc 73 4b 4f bc
       -0.07793033 0.09891697 -0.02434449 -0.012652266
0002e0 f2 61 0c 3e b4 7f 0c be 4c 6a 6b 3e 54 37 6f be
       0.13709238 -0.1372059 0.22989768 -0.2336095
0002f0 53 9f ab be f7 69 e7 bd c8 af 8e be 78 96 08 be
       -0.33519992 -0.11299508 -0.27868485 -0.1333865
000300 cb 1b 17 3e b2 e3 25 be dc 7b 13 3e b0 6c 38 be
       0.14756696 -0.1620014 0.14402717 -0.18010211
000310 b0 57 9c bc 39 8b 86 be 0e f3 98 3c 4f eb 7e 3d
       -0.019084781 -0.26278093 0.018670585 0.062236127
000320 d6 d9 39 be c6 ce 99 bd aa 64 e4 bd 5e 60 c2 be
       -0.18149504 -0.07510142 -0.11152013 -0.37964147
000330 4b 0a 76 3c 4c fe b8 3e da 42 02 3d 22 06 e1 bd
       0.0150171025 0.36131513 0.031802036 -0.10987498
000340 e5 ab 8d bd 8e 15 53 3d 3c 62 c2 bd d0 4a 30 be
       -0.06917552 0.051534228 -0.09491393 -0.17216039
000350 e2 65 65 bc c1 53 10 be 0a fc 8d 3e 40 95 11 be
       -0.014001342 -0.1409445 0.27731353 -0.1421709
000360 bc 2f 40 3d dc e2 81 3e a6 4c 53 3e 84 52 57 be
       0.046920523 0.25368392 0.20634708 -0.21027571
000370 63 f5 5d 3d 14 fb 29 be 9c 23 8f 3d 1f a6 1b 3e
       0.054189097 -0.16599685 0.06989214 0.15200089
000380 39 88 9f bd 35 2d 30 be 8a 11 9c bd a8 61 fa ba
       -0.07789654 -0.17204745 -0.07620533 -0.001910259
000390 26 c8 02 3e f5 a4 03 3d fe 76 05 be 25 66 5c 3d
       0.12771663 0.032139737 -0.13033673 0.05380835
0003a0 e6 f2 c5 bd 12 ca 93 3e d6 40 27 be 6b 86 6e be
       -0.0966547 0.28865105 -0.16333327 -0.23293464
0003b0 47 53 44 bd d2 7d 2a 3e cb 9d 02 be ab 25 47 bd
       -0.047930982 0.16649559 -0.12755506 -0.048619907
0003c0 78 d1 41 3e be 89 48 3c a6 b8 a2 3b 75 3f 97 3d
       0.18927562 0.012239872 0.0049658595 0.0738515
0003d0 09 2a 98 bd a0 4e 92 3e 36 96 39 bc f7 e1 f5 bd
       -0.074298926 0.2857561 -0.011327317 -0.1200599
0003e0 47 36 01 3d da 74 e2 3d 75 62 36 be 25 eb f8 3d
       0.031545904 0.11057444 -0.17810996 0.12154225
0003f0 c7 05 5a be 22 ad d0 bd bb 30 4a 3e eb e3 02 3e
       -0.21291266 -0.101892725 0.19745152 0.12782256

conv.4.bias f4 [64]
000000 a9 54 9f bc 6c 24 8b bd 02 2c 21 3d a0 c7 02 3c
       -0.019449549 -0.06794056 0.03934861 0.007982165
000010 2d 7a a1 bb 05 34 29 be 70 89 20 bd 66 5c 37 bd
       -0.0049278946 -0.1652375 -0.03919357 -0.044765852
000020 35 2d 0e 3e 06 97 44 3d af 4d 58 3d 54 4e 47 bd
       0.13884433 0.04799559 0.05280846 -0.048658684
000030 b6 b6 a2 3a 9a fd 17 bd fb a2 51 bb 13 29 ed 3a
       0.0012414071 -0.037107088 -0.0031988013 0.0018093906
000040 ac 34 b9 bc 52 82 81 3c 56 b3 af 3d ad 80 bb bc
       -0.022608124 0.015809212 0.085791275 -0.022888506
000050 d2 26 3f 3e 1d a0 5c bd 60 75 05 bd 46 88 00 be
       0.18667153 -0.053863633 -0.03258264 -0.12551984
000060 f8 04 0a bd c7 ea 77 3e 5a 2d 58 bd 5c 25 0d 3e
       -0.033696145 0.24210654 -0.052777626 0.13783783
000070 60 52 c2 bc d2 ca 45 bb da 8f 21 bd 34 6d 15 3c
       -0.02372092 -0.0030180705 -0.03944383 0.009120274
000080 e2 7d 11 bc 64 32 99 bc 68 a3 21 bc e9 96 44 3e
       -0.00888011 -0.018700786 -0.009865619 0.19198193
000090 2c 4e c3 3d 90 75 05 3e e8 92 a6 bc f6 b2 3d bd
       0.095363945 0.13033128 -0.020333722 -0.04631325
0000a0 76 d2 ee 3d 04 6e 28 bc c8 cf 2f bd 07 90 09 bd
       0.11661236 -0.010280136 -0.042922765 -0.03358462
0000b0 ec 41 10 3c b1 ca 04 bd f5 e4 9f 3d 08 9b 7c 3e
       0.0088047795 -0.032419864 0.07807342 0.24668515
0000c0 be 79 0e bd 9c 87 81 bc 8f 54 29 3d 5f 03 74 3c
       -0.03478407 -0.015811734 0.041340407 0.014893382
0000d0 c7 b4 44 3e 1f 2d 4c 3e b4 8f 4f bd d3 63 c2 3d
       0.19209586 0.19939087 -0.050674155 0.09491696
0000e0 b7 95 03 3e 3a 9d 60 bd e0 29 81 3c 71 09 e9 bd
       0.1285008 -0.054837443 0.015767038 -0.11378754
0000f0 a0 b5 84 3e b1 cb 90 3d b0 1f 92 bd 6e 01 15 3e
       0.2591982 0.07070101 -0.0713495 0.14551327

conv.7.weight f4 [64, 256]
000000 2e 6b 17 bd 4a ad 93 bd a6 d6 b1 3c be 9c fc 3b
       -0.03696745 -0.07210787 0.021708798 0.007709115
000010 68 1b f8 3c 28 49 34 bd c0 c1 40 3d b5 e5 81 bd
       0.030286506 -0.04401508 0.047059774 -0.06342641
000020 00 44 17 bc 44 6a 80 bd ca 6d 8f 3c 4e b1 35 bb
       -0.009232521 -0.062702686 0.017508406 -0.002772409
000030 be ae 7b bd a0 eb ff 3c 10 c8 f9 3b 28 74 23 3d
       -0.061445944 0.031240284 0.0076227263 0.039905697
000040 38 12 90 bc 32 33 50 3d f8 b3 28 3c 6a c3 37 bd
       -0.017586812 0.050830074 0.010296814 -0.044864096
000050 ee cd 17 3c 11 4e 9f 3a d4 17 53 3c 5b 30 17 bd
       0.009265406 0.0012154003 0.012884099 -0.03691135
000060 10 4e b6 3c 10 60 15 3d 14 03 45 bd 88 81 7a 3c
       0.02225402 0.036468565 -0.04809864 0.015289672
000070 48 b0 64 3c 20 03 45 bd 1c 79 c0 bc b8 47 59 bc
       0.013958044 -0.048098683 -0.02349525 -0.013261728
000080 bb 98 51 bd d3 4b f8 bc 83 0c 31 bd d7 10 34 bd
       -0.051171046 -0.030309593 -0.043224823 -0.043961372
000090 41 48 17 3c ac a2 53 bd 98 f9 e2 bc d7 01 05 bc
       0.009233535 -0.051668808 -0.027706906 -0.008118114
0000a0 58 fa 71 bc 22 e7 a3 bc 6e cb 8d bd 99 93 db bb
       -0.014769159 -0.020007674 -0.06923567 -0.0067009446
0000b0 54 92 bf 3c 58 9d 86 3c 9e d1 00 3d 10 6f ed bc
       0.023385204 0.01643245 0.031449907 -0.028983623
0000c0 60 0b e3 bb 80 8e 7e 3b e0 0e c6 3b e4 3e 2a 3d
       -0.0069288462 0.003884226 0.0060442537 0.041563883
0000d0 3c 29 5a bd 5e d0 39 3d f8 2d 19 3c 18 ca 11 bd
       -0.05326198 0.04536473 0.009349339 -0.035593122
0000e0 7f ff 22 bd e1 de 51 bd eb 42 47 bd 50 7b 70 3d
       -0.03979444 -0.051237945 -0.048647802 0.05871135
0000f0 e0 62 8e bc 89 0b f0 bc 8c dc 1f bb 1e aa 20 bd
       -0.017381132 -0.029302375 -0.002439293 -0.039224736
000100 e0 63 55 bd 9c 5e b5 bc 40 83 a9 ba d6 e8 1f 3d
       -0.0520972 -0.02213984 -0.0012932792 0.03904041
000110 86 76 75 bd 68 1a 19 bc f0 6d 30 3d 0c a2 77 bd
       -0.059927486 -0.009344675 0.043073595 -0.060457274
000120 1f f8 14 3d c5 64 1b 3d 00 8d 79 bc 00 46 12 b9
       0.03636944 0.0379379 -0.015231371 -0.00013949722
000130 e2 32 04 bd e8 7f ad bc 00 18 45 b8 7e 0d 5f bd
       -0.032275088 -0.021179155 -4.6990812e-05 -0.054456227
000140 b6 9b bb ba 61 7a 92 bd 23 a1 8f bd 01 53 19 3d
       -0.0014313373 -0.07152248 -0.07013156 0.037432674
000150 1c 17 b7 bc 04 2b 23 3d c8 f7 24 bc 4e ef 35 bd
       -0.022349887 0.039835945 -0.010068841 -0.04441767
000160 32 44 5c bd 28 f9 8c 3c 80 f7 2b 3b 58 59 5e bd
       -0.053775974 0.01720865 0.002624005 -0.054284424
000170 08 7a 2a 3d a6 50 ad 3c ce e1 1c bd 58 d5 01 bd
       0.041620284 0.02115662 -0.03830128 -0.0316976
000180 12 0d a9 3c 7f e0 a7 bc 14 31 7c bc e6 72 9c bd
       0.020636115 -0.02049279 -0.0153925605 -0.07639103
000190 f4 a8 38 bd 95 82 04 bd b6 7a c7 3c fd ab 85 bd
       -0.045083 -0.032351095 0.024350505 -0.06526945
0001a0 b8 70 b4 3c 4e f9 76 3d f8 cf c8 3c 28 b5 33 bc
       0.022026405 0.06029635 0.02451323 -0.010968484
0001b0 25 2b 06 bb 98 17 93 bc a5 91 2e bd c7 97 a1 bc
       -0.0020472493 -0.017955586 -0.042619366 -0.019725693
0001c0 5a f9 34 3d 50 ac 56 3c 80 a9 81 3a 44 88 a3 3c
       0.044183113 0.013102606 0.0009892434 0.019962437
0001d0 39 ea d7 bc be 6f 0a 3b 93 69 b0 3c a3 c5 e9 3b
       -0.026356803 0.0021123732 0.021534717 0.007134156
0001e0 80 3d 58 bb 60 13 4a 3b 00 df 30 3d cc ff ab bc
       -0.0032995641 0.0030834302 0.04318142 -0.020995997
0001f0 4c ba 0d 3d 66 5e 68 bd fc ae 56 bc f8 be 30 bd
       0.034601495 -0.05673065 -0.013103243 -0.043150872
000200 50 6d 81 bc f0 46 9a 3c 34 3f 26 3d f2 10 28 3d
       -0.015799195 0.018832654 0.04058762 0.041031785
000210 e0 5b 4b 3d dc a2 f0 3c d0 8c d5 bb 7a 63 68 bd
       0.049648166 0.029374532 -0.0065170303 -0.056735493
000220 b8 21 7d bd 5e c1 17 bd 10 ab 4a bc 00 06 5c 3b
       -0.061799735 -0.037049644 -0.012369886 0.0033572912
000230 9b 11 3e bd b4 61 60 bd 70 a7 e9 bb 40 6c 6c 3c
       -0.04640351 -0.054780677 -0.007130556 0.014430106
000240 64 22 54 bc b0 9a db bc c8 e8 03 3d 6f 37 27 bd
       -0.0129476525 -0.02680716 0.03220442 -0.04082435
000250 7d 17 7c bd 72 5b 7b bd f1 a7 e6 3c dd 11 1e bc
       -0.061545838 -0.061366506 0.028156253 -0.009647814
000260 4b 6b 1e bc 1d 18 dd 3c 64 b9 46 bd da 1c 57 bd
       -0.009669135 0.026989037 -0.048516646 -0.05251775
000270 de a6 2c bd b6 3d 17 bd 64 18 cf 3c 80 bf 22 3b
       -0.042151324 -0.036924087 0.025280185 0.0024833381
000280 f7 db f7 bc e4 0a 16 3c f9 3d 23 bc 9a 99 86 3c
       -0.030256255 0.00915787 -0.009963506 0.016430665
000290 b5 66 05 3d 7b 99 41 bc 39 ae 2e bc 2d ae 54 bd
       0.032568652 -0.011816378 -0.010661655 -0.05192392
0002a0 a0 83 ba 3b ee 17 23 3d 10 90 8d 3b f8 fd 06 3c
       0.0056919605 0.039817743 0.004320152 0.008239262
0002b0 60 2c 82 3c b0 24 3e bd b8 57 df bc 4a b1 11 3d
       0.0158903 -0.046421707 -0.027263507 0.035569467
0002c0 26 5e 57 3d b4 50 60 bd 6a 89 02 3c 20 64 de bb
       0.05258002 -0.054764464 0.007967332 -0.006786838
0002d0 42 b3 5a 3d d2 d2 79 3d 24 ae be 3c 20 3d 05 bd
       0.05339361 0.06099207 0.023276396 -0.032528996
0002e0 2e 3f 24 bd 78 5b 26 3c a7 1c 10 3d 88 6a 0d bd
       -0.040099315 0.010153644 0.035183575 -0.034525424
0002f0 22 a4 8d 3c 44 2a 05 3d 5b 69 7b bd fe e6 50 bd
       0.017290179 0.03251101 -0.06137977 -0.05100154
000300 30 f9 0c 3d 92 31 15 3d 80 6d 20 bd 10 e3 d2 bb
       0.03441733 0.036424227 -0.039166927 -0.0064357594
000310 14 68 18 3d f4 86 bf bc 3c 06 40 bd c0 53 1f 3c
       0.03720863 -0.02337978 -0.046880946 0.009724557
000320 22 a7 5e bc 58 04 35 bd e4 7f 6c bd 90 a7 48 bd
       -0.013589652 -0.044193596 -0.057739154 -0.048987925
000330 6e 35 7e bd 04 cf fd bc ca 11 06 3d 14 40 6d 3d
       -0.062062673 -0.030982502 0.03273181 0.057922438
000340 8b 0a f8 3b ef 03 36 bd c7 29 d0 bc 08 73 1e bd
       0.007569616 -0.044437345 -0.025410546 -0.03868392
000350 2a 58 e3 3c 8c b0 5a bc 30 9d 2a 3d 1e 1a b3 bc
       0.027752 -0.013347756 0.041653812 -0.02186304
000360 8e 83 0d bd 04 57 ff bb 3d ef f1 bc 10 ec d1 bc
       -0.03454929 -0.0077923555 -0.029533023 -0.025625259
000370 1c 09 48 bc 58 81 eb bb 55 73 d8 3c 76 d3 94 bd
       -0.012209203 -0.00718705 0.026422182 -0.072668955
000380 50 e6 de 3c 38 d6 ff 3c 84 71 4f 3d 7b 24 4c bd
       0.027209431 0.031230077 0.050645366 -0.049839478
000390 b6 c0 6d bd dc 74 56 bd fa c0 69 bd 2c b9 89 3c
       -0.05804511 -0.05235754 -0.057068802 0.01681193
0003a0 d6 d1 82 bd 21 5d ab bc 8a c3 93 3c 24 df 60 bd
       -0.06387679 -0.02091843 0.018037576 -0.054900303
0003b0 27 c2 68 bd 63 0c 30 bd d0 a7 ab bc c8 9e d3 bc
       -0.056825783 -0.042980563 -0.020954043 -0.025832549
0003c0 00 89 83 3b 00 7a eb 3c 64 80 61 3c 8c 4b e9 3b
       0.0040141344 0.028744698 0.013763521 0.0071196016
0003d0 a4 cc 4a 3c a0 bf 0e bb 4a a4 8a bc b1 a0 57 bd
       0.012377892 -0.0021781698 -0.016924042 -0.05264348
0003e0 dc 80 a9 3b 9c e6 ea bc 31 ab 38 bd a4 97 00 3d
       0.005172832 -0.028674416 -0.045085136 0.031394616
0003f0 3a 65 4c 3b cd b0 65 bd 91 ef b2 bc 75 87 95 bb
       0.0031188265 -0.056076813 -0.02184275 -0.004563267

conv.7.bias f4 [64]
000000 04 d5 52 bd 33 23 ab 3e b5 e7 29 3e 50 40 a6 3e
       -0.05147268 0.33425292 0.16592295 0.32470942
000010 51 35 aa 3e 20 e2 95 3e bc 6a 3a be 45 bc f2 3d
       0.33243802 0.29274082 -0.18204778 0.11852316
000020 57 12 2c 3d 86 5a 74 3e 4e 1a 73 bd 49 1e b9 3d
       0.042009678 0.23862657 -0.059351258 0.090389796
000030 07 00 7d 3e 28 12 8d 3e 65 6d da 3e 65 64 72 be
       0.24707042 0.27552915 0.42661586 -0.2367111
000040 e2 9b 49 3e 3a 0e 6c 3e 7b 86 10 3f 5a 91 aa 3d
       0.19688371 0.23052302 0.564552 0.08328505
000050 59 f6 ab 3c 46 3e 96 3d d9 97 6b 3e 73 54 7a 3e
       0.020991491 0.073360965 0.23007144 0.24446277
000060 dd d1 81 3d a1 bc 0e 3c 78 ba d8 bc f5 41 48 bd
       0.06338856 0.008711965 -0.026456103 -0.048891027
000070 31 3d 9b 3d de f9 87 bd 44 1d 1c 3e 8e b4 92 bd
       0.07580031 -0.06639455 0.15245539 -0.07163344
000080 66 3f 1a be c1 ae 2b 3e a0 aa 84 bc 70 4e 34 be
       -0.15063247 0.16765882 -0.016194642 -0.17608047
000090 20 2e cb 3d f3 74 e1 bd b8 dd c3 3d 1f 9f 5e 3d
       0.09920907 -0.110086344 0.09563774 0.05435097
0000a0 89 13 a9 3d d5 46 5d 3d f8 c6 39 bd dd e8 ab 3d
       0.08255679 0.05402263 -0.045355767 0.083940245
0000b0 ea 19 4f 3e 6d d3 2a 3e c8 cf 52 3d 7a 8f 3d 3e
       0.20224729 0.16682215 0.051467687 0.18511763
0000c0 78 62 0c 3e 20 b0 04 3e b6 b4 1e be f3 dc 29 3d
       0.13709438 0.12957811 -0.15498623 0.04147048
0000d0 98 4b 5a 3d 4b 0c 8f bd 6c c1 3c 3e 59 40 54 be
       0.053294748 -0.069847666 0.1843316 -0.20727672
0000e0 e6 6b b0 bd a0 7e 77 be 96 67 c1 3e 66 7a 14 bd
       -0.0861433 -0.24169397 0.37774342 -0.03624954
0000f0 bb c0 ab 3e 68 c7 12 be 16 ad 89 3e 68 30 f7 3d
       0.3354548 -0.1433388 0.26889867 0.1206978

out.weight f4 [4, 64]
000000 c8 e3 a9 3d 0e f6 12 3f 57 84 79 bd b3 a9 cb 3e
       0.08295399 0.574067 -0.060917225 0.39777908
000010 0a 4a 9e 3e 46 d6 2b 3e b1 ba 2c be 3d 20 ac 3e
       0.30915862 0.16780958 -0.16868092 0.33618346
000020 32 35 e2 bd 4e 0a 87 3e 0c b5 b0 3d dc 63 8c 3e
       -0.110453025 0.2637505 0.08628282 0.27419937
000030 87 14 a1 3e 92 02 8c 3c f4 10 c9 3c 91 74 02 3d
       0.31460974 0.01709107 0.024544217 0.031849448
000040 84 e2 0d bf e8 3a 10 3e db 83 c0 3e cb 76 16 3e
       -0.5542376 0.14084971 0.37600598 0.14693753
000050 10 7c 3e 3e 1d ff da bc 10 a3 92 3e 4f 68 b2 3c
       0.18602014 -0.026732976 0.28640032 0.021778254
000060 4d 63 23 be 7a 28 84 bd 09 8a 12 3f fe 5f b2 3d
       -0.15955849 -0.06453033 0.57241875 0.08709715
000070 9e 0e 00 3e f3 ac 7a bd ae 49 37 3e ed e8 a4 bd
       0.12505576 -0.061200093 0.178992 -0.080522396
000080 1a 77 2d be b6 1a 19 3e 52 32 4d 3d 23 3c 14 be
       -0.16939965 0.14951596 0.050096817 -0.14476065
000090 85 e4 bd 3e 65 c9 58 bf a9 bc 56 be 5d c1 49 be
       0.3708841 -0.84682304 -0.20970406 -0.19702668
0000a0 24 ff 3c 3e 2b 69 68 3e f7 fe 86 3d 63 a5 0d bc
       0.18456703 0.22696368 0.065915994 -0.008645388
0000b0 cf 24 9e bf a1 1c 93 bf 43 89 4e be 78 71 94 bf
       -1.2354983 -1.1493112 -0.20169549 -1.1597128
0000c0 ba aa 34 bf 42 54 6a 3d 2e f9 2f 3e 61 a7 4f bd
       -0.7057301 0.05720926 0.17184898 -0.050696734
0000d0 d3 17 9f be be af fc 3c 48 04 92 be 70 9e fc 3f
       -0.31072864 0.03084552 -0.2851889 1.9735851
0000e0 2b ce 48 bd f8 29 0c bd 3b 65 42 3e f2 f5 8d be
       -0.049024742 -0.034219712 0.18983929 -0.27726704
0000f0 49 2e a1 3d 2e db bf bc d0 68 12 3f 01 49 74 be
       0.07870156 -0.023419943 0.5719118 -0.23855974
000100 40 a9 9c bd 40 49 dd 3d b9 ed 93 3e ec 65 9a bd
       -0.076494694 0.10804987 0.28892305 -0.07538971
000110 96 08 e7 3e ef 7a bf 3e 23 f3 80 3e aa 10 48 be
       0.45123738 0.37398478 0.251855 -0.19537607
000120 40 0a 79 bf 59 b2 e0 3e c5 fa 66 3d ab 82 7e 3e
       -0.97281265 0.43886068 0.056391496 0.24854533
000130 3f 57 b4 3e dd 52 80 3e ae 63 2f 3e 31 65 41 bd
       0.35222813 0.2506322 0.17127869 -0.047215644
000140 00 ff 34 b9 bd e6 b1 3d 44 6f f7 3e 3c b5 ab bf
       -0.00017261133 0.08686588 0.48327076 -1.3414683
000150 9d ad 12 be ed 50 cc 3e e8 da 8c 3e 0a 2e 8f bd
       -0.1432404 0.3990549 0.27510762 -0.06991203
000160 92 72 73 bf b7 30 11 be a2 25 08 be aa 40 fd 3d
       -0.95096695 -0.1417874 -0.13295606 0.12365849
000170 79 54 ae bf db 74 ae bd 2d a7 52 bd 61 4e 00 3e
       -1.3619529 -0.08518382 -0.051428962 0.12529899
000180 a0 79 50 be 5c fb ee 3e c3 c3 a3 bc e5 68 95 bd
       -0.20358896 0.46676147 -0.019990807 -0.07295398
000190 b6 cd 0b bd 89 46 83 3d 68 7a d7 be f7 56 91 bd
       -0.034131728 0.06409938 -0.42085576 -0.07096665
0001a0 3e ad c5 ba f4 a7 55 bd 61 b2 9c 3d 64 0c 6c be
       -0.0015081537 -0.052162126 0.076512106 -0.23051602
0001b0 cf 58 22 3e 1b c8 68 bd 27 1c 00 bf c4 bb 01 3e
       0.1585419 -0.05683146 -0.5004296 0.12669283
0001c0 56 74 2b be 64 4a 1f 3e e2 52 b0 be 2b 2f ce 3e
       -0.16743597 0.15555722 -0.34438235 0.4027036
0001d0 45 e2 02 3e 2d 5f 94 bc e7 60 63 3e e5 88 de be
       0.12781627 -0.01811179 0.22204934 -0.43463817
0001e0 60 90 9b 3d 59 cc ba be ac c3 de bb fe 06 d9 3e
       0.07595897 -0.3648403 -0.0067982282 0.42388147
0001f0 14 0d b0 3e 3d ef 5c 3d 1a 95 1b 3d 2d 3a fe bc
       0.34384978 0.053939093 0.03798399 -0.0310336
000200 12 13 9f 3d ca 9c be 3d 65 03 4f bf bf 52 9a bc
       0.07767309 0.09307249 -0.80864555 -0.018838285
000210 45 16 83 3c 3b 32 37 3d d9 09 c1 be 39 80 88 bd
       0.01600183 0.044725638 -0.37702826 -0.066650815
000220 9c 30 20 3e 8a e2 bf 3d 91 e3 0b be b4 21 42 3e
       0.15643543 0.09369381 -0.13661028 0.18958169
000230 ed c6 90 3e 7b e1 88 3e 7c 2b c0 3d c9 3b 11 bf
       0.28276768 0.26734528 0.09383294 -0.5673185
000240 13 a8 20 3e ae ca ed 3e 28 de 04 3f 17 35 d2 3d
       0.15689115 0.46443695 0.51901484 0.10264032
000250 5f 64 48 3d b0 47 d3 3b fe b5 d3 3e b5 49 0d 3e
       0.048923846 0.006447755 0.41349787 0.13797648
000260 55 84 a0 bc 07 82 63 bf f7 85 02 be 69 ac 83 3c
       -0.01959435 -0.8887028 -0.12746416 0.016073423
000270 c2 52 01 be 03 47 00 3f 75 e5 9a 3e b2 a0 ab 3d
       -0.12629226 0.50108355 0.30253187 0.083802596
000280 44 57 ec bd 00 d7 f4 3d 7c 8d 5c 3d 28 58 f7 3f
       -0.11540082 0.119550705 0.053845868 1.9323778
000290 3b df 59 3d 78 ec 2b 3d c5 9f 4c bd 64 42 ef bd
       0.053191405 0.04197356 -0.049957056 -0.11682585
0002a0 f8 39 10 be c5 a3 c0 bf 09 2f 87 bd 8a 03 6d 3d
       -0.14084613 -1.5049978 -0.06600768 0.057864703
0002b0 86 46 17 bd 95 9f 90 3d c5 3f de bd c7 0e c6 bd
       -0.03693249 0.07061688 -0.10852007 -0.09670787
0002c0 00 a0 37 3e 95 d1 d6 bf 43 4b e8 3e e0 43 b6 be
       0.17932129 -1.6782709 0.4536992 -0.3559866
0002d0 a9 cb 05 3e 56 2d 89 bc 16 31 e7 3e 40 a2 7f be
       0.13065971 -0.01674525 0.45154637 -0.24964237
0002e0 6c 04 d5 3d 41 39 12 40 58 ca f9 3e 7c 17 b5 bd
       0.10401234 2.2847445 0.4878719 -0.0884237
0002f0 25 91 05 3f b2 f5 8b be 8d 02 82 3d 5b 9f 84 bf
       0.521746 -0.27335888 0.06348143 -1.0361131
000300 68 1a 74 3d 6a f2 f5 bc 67 3e 36 3d fa aa a3 3e
       0.059595495 -0.030022819 0.044493105 0.31966382
000310 17 f5 2e 3e 89 4f 80 3d 95 87 a1 be e9 b1 b4 3e
       0.17085682 0.0626517 -0.31548753 0.35291985
000320 bb e0 0e be e2 44 4a 3e 3b 7b d7 3d 75 82 23 be
       -0.13952915 0.19752839 0.10521551 -0.15967734
000330 1d 48 92 3e 1a dd 98 3e ab 16 11 3f 4b 3a 62 bd
       0.28570643 0.29856187 0.56675214 -0.055231374
000340 b8 7f 01 be fb 4d 25 3e d1 dd c8 3e 85 57 05 3e
       -0.12646377 0.16143028 0.39231732 0.13021667
000350 95 01 08 3f 16 17 58 bf c3 4e ba 3e 1d 71 07 3f
       0.53127414 -0.84410226 0.36388215 0.5290697
000360 17 aa e6 bb 6a e9 7a be f1 03 4f 3e 95 cb 5a 3d
       -0.0070393193 -0.24503103 0.20216347 0.053416807
000370 09 68 2b bd fe 50 58 bd 36 df 90 bf 0c 84 46 be
       -0.041847263 -0.052811615 -1.1318119 -0.1938631
000380 a2 23 b4 3f fc eb 4a be da 3a c3 3d 7e 67 c8 bd
       1.4073374 -0.19816583 0.095327094 -0.097853646
000390 46 ae d8 3e 45 58 ed 3d 1b 61 3b 3e 17 b1 58 bf
       0.4232046 0.11589102 0.18298762 -0.8464522
0003a0 17 cb 88 bf 9f 05 0b bd 9e 10 f1 bd bf d0 78 bf
       -1.0686978 -0.033940908 -0.117707476 -0.9719352
0003b0 d6 9e 1b 3e 93 c0 55 bd 06 dc 81 be f6 bc 20 bd
       0.1519731 -0.052185606 -0.25363177 -0.039242707
0003c0 f0 c9 95 3d 03 c9 08 3e 37 44 6b bd 91 1c cd 3e
       0.07313907 0.1335793 -0.0574381 0.40060857
0003d0 43 57 26 3e 7e d7 34 3c ce ee 0e 3c 84 92 c4 be
       0.16244225 0.0110377055 0.008723928 -0.38393033
0003e0 86 ed d7 3d 97 10 0d be e6 2e 03 3e 04 7b c0 bc
       0.10543351 -0.1377586 0.12810859 -0.023496158
0003f0 a3 cb de 3d ed 67 44 3f f7 ba e6 bc 2e b7 33 3e
       0.10878684 0.7672108 -0.028165324 0.17550346

out.bias f4 [4]
000000 67 69 fe 3e b4 46 d8 3e b0 c5 a0 3e f8 6d b7 3e
       0.4968979 0.42241442 0.31400824 0.35826087
