models/v17.1/model_96500_target.pth (torch, 295179 bytes, 10 tensors)

conv.0.weight f4 [16, 2, 3, 3]
00000000: 33fc 273e 99da 8f3d e6b4 24be 775e 563e
00000010: 3035 fabd ff42 a03d 3575 8ebe 0b58 a43e
00000020: f22c af3d 16ed 81bd 79e7 913d a2f2 53bd
00000030: bbd6 47bd d2fa 9c3d 68fe 3d3d 155f 03bd
00000040: 8215 f13c 9f08 6dbb 1dc4 04be 418e 823e
00000050: 1695 0c3d a14f 443e fb7a 25be 2d55 673e
00000060: 5418 52bf 14f3 fdbe a703 3ebe adc5 7fbf
00000070: 3a3e 0b3f 3e64 98bf 8c64 4c3e 3542 42be
00000080: bb66 703e 195f 6fbd 9b31 323c c499 003e
00000090: 4f9d b8bc 7753 5d3e 288e fb3d 7fc7 fcbd
000000a0: e316 a53e d448 6dbd 8b72 a33e 52a0 3c3e
000000b0: 62ac 183e fdbb d23d 9a4c 033e 4b5e 123c
000000c0: c249 943e 1b40 d3bd c277 b7bf e17e 80bd
000000d0: 9930 a7be 337f 8a3d b4f5 07b9 4dd1 523d
000000e0: 3d3c 4c3d bb02 f73d ab89 183e cb79 25bf
000000f0: 31dc 94be 2693 a4be 1ef7 393e 07a6 23bd
00000100: 4bc3 fb3c 5eba 8abd bf12 a03e 7584 a3bd
00000110: 17bd 36bf 5132 92be 57fb b73e 99b6 223e
00000120: 0315 6f3e 8f5a f9bd 52f7 1abe 0ce5 9abf
00000130: 8f15 57be 7e05 143e e9c5 f63c 96ba ff3e
00000140: 8d88 96bf 61d0 8bbe 1c80 793e bb30 4bbf
00000150: f3a8 713e a6f0 00bc 0559 633e f9fb 05bc
00000160: fb6c 4bbd e1c0 54bc f0fd c23b cc7c 30be
00000170: 7f12 d33e 3d71 843e effc e1bd 81ec 9cbd
00000180: beee 093f 194a d4be 5004 9d3e 710d 3ebe
00000190: 2366 c0bd ba1c 843d 8b34 e03c 9e08 bdbe
000001a0: 2538 12be 6a11 46bd 106a 0dbe 84bf 98be
000001b0: c43c 81bf 80b7 2abc e7f9 b53e 9668 683e
000001c0: 31c5 7f3d cf45 88bf b16d 95be ca29 053e
000001d0: 668c 11be b11c c5bd 3ae1 153d 24e7 21be
000001e0: c69b 053e 20d8 3e3d 5a45 093d b6b5 68bf
000001f0: 49d4 8bbe 4861 76bd 2f81 213e 7f7f 36be
00000200: 2fdc eb3e 0092 8fbd c235 9e3e 72d1 923d
00000210: 54a4 373d c04c b83e a8f0 6cbd 38b1 cebf
00000220: e719 6fbf aec9 4fbf 7e02 bd3d 0d41 683d
00000230: fdf1 5ebc 46ac abbe 1672 543e 541c 31bd
00000240: e5ee 9abb 824d a73d ac67 ec3d c42d 923e
00000250: 4785 fc3d 45e8 76be 594b 1e3e 32b3 94be
00000260: 80d1 683c 1db7 cbbe 391d ee3e 342d eebe
00000270: 69e2 563d 5c8f 693e 3b87 9abc 5be7 95be
00000280: 7561 d03e d4bb 8b3d 9a68 f1ba 8f48 fcbd
00000290: ce0e 3d3e 7477 3a3d a60f 09be da97 a13e
000002a0: 5d32 893e 3f2d 82bd 82f7 5cbe dce5 36bc
000002b0: 67ae 543e b8f8 03be abdb cdbf 3c8a c6ba
000002c0: 3595 50be f1d4 583e b0ae b53e 1443 aabe
000002d0: 9001 c7bd 1723 003e c225 7d3d cca8 fbbd
000002e0: d613 713d af0f a63d 7a78 c53e 1901 98be
000002f0: 6494 093c 4b77 3f3d 69fe 8bbe df42 02be
00000300: 4d77 083f d6f1 943b f67a 95bd 2aff d13d
00000310: 9f98 a63d b043 f9bd 8366 863e 6f50 2a3e
00000320: d465 fabe 1597 5fbd 7392 0f3e 6838 173e
00000330: ff29 8ebf cf0a 8cbe 3b68 aebd 154f b7bf
00000340: 1ff3 95be 0bd9 883e 6d26 e83d b7ed 3c3e
00000350: 49b9 81be ce24 783d 694d 053e 4a2c ba3d
00000360: d33d b3bd ae48 10bd ba1f 9a3d 56a9 97bd
00000370: e3ff 48bd e4e2 613e dba5 d5bd 88a8 cc3b
00000380: 14f3 78be 8670 113e 37cc 633e 1971 723d
00000390: 62dd bebd d851 58bf 33a5 51be f115 bc3d
000003a0: 5007 9d3d d66a 7c3e ac39 853e 83ec 943d
000003b0: 9193 d63c cd3e b73c 4627 babf 8cf3 fbbb
000003c0: e4d2 20bd 7bb7 47be 1372 a23d b930 f83d
000003d0: ee51 b2bf 41fa 43be a18a 1ebe b2a5 643d
000003e0: a564 34be 08c6 8c3e 8330 84be 8710 a5bd
000003f0: 24ca 933d c7af 8cbf 48c4 bbbb b38a 1cbe
0.164048 0.07024116 -0.16084632 0.20934473 -0.12217176 0.078252785 -0.27823797 0.3209842
0.085534945 -0.06344049 0.07124228 -0.051745065 -0.048788767 0.07665028 0.0463852 -0.0320731
0.029429201 -0.0036168469 -0.12965436 0.25499156 0.034321867 0.19171001 -0.16160195 0.22591086
-0.8206837 -0.49599516 -0.18556081 -0.99911004 0.54391825 -1.1905591 0.1996023 -0.18970568
0.23476689 -0.0584403 0.010876085 0.12558657 -0.022535948 0.2161387 0.122829735 -0.12342738
0.32244024 -0.057930782 0.31923327 0.18420532 0.14909509 0.10289762 0.1282219 0.008933614
0.28962523 -0.103149615 -1.4333422 -0.062742 -0.32654265 0.067625426 -0.00012966135 0.051469136
0.049862135 0.12061068 0.14896266 -0.64638966 -0.29074243 -0.32143515 0.18160674 -0.039953258
0.030732771 -0.06773828 0.31264302 -0.079842485 -0.7138228 -0.28554013 0.35933945 0.15889968
0.23347859 -0.12175476 -0.15133408 -1.210115 -0.21004318 0.1445522 0.030123668 0.4994704
-1.1760422 -0.27307418 0.24365276 -0.7937123 0.23599605 -0.007869875 0.22201927 -0.008177751
-0.04966448 -0.012985439 0.005950682 -0.17235106 0.4122505 0.25867644 -0.110345714 -0.07662297
0.53879917 -0.41462782 0.30667353 -0.18559815 -0.09394481 0.06450792 0.027368804 -0.36920637
-0.1427923 -0.04835645 -0.13809991 -0.29833615 -1.0096669 -0.010419726 0.35542223 0.22696146
0.062443916 -1.0646304 -0.2918525 0.13004223 -0.14213714 -0.09624613 0.036591746 -0.1581083
0.13047704 0.04659283 0.033513404 -0.9090227 -0.27310398 -0.06015137 0.15771936 -0.17822073
0.46066424 -0.07010269 0.3090039 0.07168855 0.04483445 0.35996056 -0.057846695 -1.6147833
-0.933989 -0.81167114 0.09228991 0.056702662 -0.013607499 -0.33529872 0.20746645 -0.043239906
-0.0047281855 0.0816908 0.11543211 0.2855054 0.12330108 -0.24112041 0.1545843 -0.29042965
0.014210105 -0.39788142 0.4650667 -0.46518862 0.052462015 0.22808594 -0.018863311 -0.29278073
0.40699354 0.06822935 -0.0018418015 -0.12318527 0.18462679 0.045524076 -0.13384876 0.31561166
0.26796237 -0.06356286 -0.21578792 -0.011163201 0.20769654 -0.12887847 -1.6082662 -0.0015147398
-0.20369418 0.2117498 0.35484838 -0.33254302 -0.09717095 0.12513386 0.061803587 -0.12288055
0.058856808 0.0810846 0.3856848 -0.29688337 0.0083971955 0.046744626 -0.27342537 -0.12720822
0.5330704 0.0045454307 -0.072988436 0.10253747 0.08134579 -0.121711135 0.26250085 0.16632245
-0.48905814 -0.054587442 0.1402071 0.14767611 -1.1106566 -0.27351996 -0.08515974 -1.4321009
-0.2928705 0.2672809 0.11335454 0.18450056 -0.25336674 0.060581975 0.13017811 0.09090479
-0.087520264 -0.035225563 0.075255826 -0.07405345 -0.049072158 0.22059208 -0.10432025 0.0062456764
-0.24311477 0.1420308 0.2224587 0.05918989 -0.09319569 -0.84499884 -0.20473175 0.091838725
0.076674104 0.2465013 0.26020563 0.072716735 0.026193412 0.022368813 -1.4543235 -0.007688945
-0.03926362 -0.19503586 0.07931914 0.12118668 -1.3931253 -0.19138433 -0.1548257 0.055822082
-0.17616518 0.27494836 -0.25818262 -0.08059793 0.0721629 -1.0991143 -0.0057301857 -0.15287285

conv.0.bias f4 [16]
00000000: 847a c23b 02af bf3d 6b5f 27bd f72f 28bd
00000010: f9f0 bcbd 8e1d 9bbe 5ebd 4a3e 798e 92be
00000020: 0c0b 4ebe 3423 8cbd 60c0 a8be e8c6 11bd
00000030: 1362 173c fbe4 d33d 6ea7 fabd d396 c23d
0.005935015 0.09359552 -0.040862482 -0.041061368 -0.092256494 -0.30295986 0.197988 -0.28624323
-0.20121402 -0.06842652 -0.3295927 -0.035590082 0.009239691 0.10346409 -0.12238966 0.09501424

conv.2.weight f4 [32, 16, 3, 3]
00000000: cf8e 86bd 3c05 e63d d837 13be 85f9 863e
00000010: 0765 913d e7a0 a33d da17 733e f60c 253e
00000020: 07cb 45bd e8e3 223e a616 84bb 8dfe f3bc
00000030: fb7c d5bd df19 763d 24ab 353c 6099 be3d
00000040: c19a 2ebd 5d1f 4dbe 2662 533c ce7e 003e
00000050: 47be ecbd 3470 9abe 61b3 613e e939 4abf
00000060: 7d53 60bd cf60 26bd 1ab0 8f3d 2a13 983d
00000070: 43ef f4bd f725 14be 312a 093a e7ee 99be
00000080: 84bc 30be 3a8d dbbd 4c07 dd3c 9a4d 193e
00000090: 8150 233d 0e9d 743d 8cd7 0b3e b25b fe3c
000000a0: 0113 723d 31a2 97be 5ebc 313e 0752 5ebe
000000b0: a69e 0abe 852e ac3e f38f 973c 4f78 9fbe
000000c0: aa7c fd3e 0394 85be 1e91 85be 9ae7 4d3e
000000d0: 8c24 f33d 2b77 183d 5af9 96be 1a26 30bd
000000e0: ab05 89be f279 7d3d 3191 3fbe 55c3 d3bd
000000f0: 6908 1ebc 8bcf f73d 0c1c ba3d e066 403d
00000100: 178c 55be 1435 79bb 9474 d93c 5237 03be
00000110: 2e7b 3f3e 54c9 503d 5f35 87be a64f c4be
00000120: b52e 6bbe 12eb 303d 3500 e63e e696 fe3c
00000130: 531f 1b3d ea9e 763e dcd7 953d 282b 1c3e
00000140: 4e79 1e3d 0cb6 d43c d467 97be 6836 613e
00000150: 9ea8 c1bd c805 05be d1ec a0bd fa19 d93c
00000160: e62d 193e 9a51 793e cab8 373e ef85 433d
00000170: 9503 8d3e e302 98bc b0f0 9fbc e469 96be
00000180: 20ed e03d db22 243e 1a04 39be 310a 6ebd
00000190: 4a41 fbbb c5cd 86be b07f 11be 1c61 80bd
000001a0: 2013 d5bd 5363 ca3d 142c 12be 4a8a 51bd
000001b0: dd0a 123d 00db b93c e88c bcbd 2371 9abb
000001c0: dd3a 53be 21dd 61bd 4da9 a33d 4694 e93c
000001d0: 9767 c1bd 141f 0abe d41d 23bf fe10 ca3d
000001e0: 7459 9fbd 408b fbbd 5c2d 9bbe f5eb 3bbf
000001f0: 3be6 173e 82eb bb3d 6bd3 233e fad3 69bc
00000200: e73a 673d 5681 413e dde0 a9bd ee7d e9bd
00000210: cdbe 2f3b 991a 8f3d d4ed 053e 963a 363d
00000220: 4719 6fbb f3bf c33d 35c4 0d3e 8cfe 383e
00000230: 83ba 16bc 24b2 ad3d b7d4 d3be 0a02 833d
00000240: 68a6 9e3b cddd 433d a62c 35bb 3afc a63d
00000250: d3c0 8bbe d26e 3abd 9c75 9ebd a7f7 693d
00000260: 8ab0 37bc fe82 5d3d ef42 a63d 0268 98bc
00000270: 24a5 08c0 5248 033d 5887 b53c fda7 23be
00000280: 61e8 b43d 20e0 99bd 572e e1bc 4d50 393b
00000290: 5ee7 cd3c 75f2 0e3e 6dc0 c63d a2c6 803d
000002a0: 7253 d03b c7dd ce3d e776 66bd 8ca0 c6bd
000002b0: 2aaa 7ebe 9fb6 0a3e 9357 2ebe f667 1a3e
000002c0: 9b25 09bd 3d35 a7be beda 1abe 8da1 4b3e
000002d0: 570a 5ebe 83ae b9be aea7 05bf 4f59 96be
000002e0: 7ca2 3d3e 3de5 a03e 1d69 16bd aaf8 463d
000002f0: c8fb 54bc fc4a 2abd 210b bdbd 36d7 63bd
00000300: 3386 2c3d 1498 0c3e 3736 6ebe 8b1f 7bbe
00000310: e3f2 87be b875 a539 c889 6fbd 8087 7ebd
00000320: 6452 733e f073 a1bc ffa8 0bbe ddf1 33bf
00000330: 2452 b13d f541 673c cb8e bd3e 0dcc e53a
00000340: d585 51bc 7398 34be ba47 093e 7f08 9ebd
00000350: 8899 52be 0ee8 5e3e c24a 2bbe 9a47 903c
00000360: a955 063b 5c14 933d cfd1 95bc 3ffd 363e
00000370: ae87 413e f9ee f9be 6f65 3c3e 9d12 553e
00000380: 9aa4 3b3e 943c 4d3e cea1 973d eb02 d43d
00000390: b2cb 933d 6613 333e 9866 8c3d 8d5c d13d
000003a0: 1917 adbd c084 b93d f2a2 653d 1fb1 1f3e
000003b0: dd74 c8be 2550 1dbe 8035 1abd 0299 2c3e
000003c0: 50ce e9ba 0e38 6abe cc0b 783e 56ad 573d
000003d0: c2a6 903e 3e63 07bd e493 393e d1ff 1f3e
000003e0: 7a77 15be 0b94 1f3e 74f5 2a3c f7bf 5abe
000003f0: f6cb 453e 9b9b 0bbd 702e 103e 2d3c d83d
-0.06570207 0.11231467 -0.14376771 0.26362243 0.070993476 0.07989674 0.23739567 0.16118225
-0.048289325 0.15907252 -0.00403102 -0.029784465 -0.10424229 0.060083266 0.011088166 0.09306598
-0.042628054 -0.20031495 0.012901818 0.12548372 -0.1155973 -0.3016373 0.22041084 -0.78994614
-0.05476712 -0.040619668 0.070160106 0.0742553 -0.11959698 -0.14467607 0.0005232422 -0.3006508
-0.17259413 -0.10720296 0.026981018 0.14971009 0.039871696 0.05972009 0.13656443 0.031049583
0.059100155 -0.2961593 0.17357013 -0.21710978 -0.13537082 0.33629242 0.018501258 -0.31146476
0.49509174 -0.26089486 -0.26087278 0.2010788 0.11872205 0.037223022 -0.29487115 -0.043005086
-0.26762137 0.061883874 -0.1870773 -0.10339991 -0.00964556 0.121001326 0.09087381 0.04697311
-0.20854221 -0.0038026022 0.026544847 -0.12814072 0.18699333 0.05097325 -0.26407906 -0.38342017
-0.22967036 0.04319293 0.44922033 0.031077813 0.03787167 0.24084058 0.073165625 0.15250838
0.038689904 0.025965713 -0.29571402 0.2199341 -0.09455989 -0.12990487 -0.07857669 0.026501644
0.14958915 0.24347535 0.17941585 0.04773515 0.27541795 -0.018556064 -0.019523948 -0.29377663
0.10982728 0.16028921 -0.18067971 -0.058115188 -0.007667695 -0.26328865 -0.14208865 -0.06268522
-0.104040384 0.09882226 -0.14274627 -0.051157273 0.03565489 0.022687435 -0.09206563 -0.004713194
-0.20627923 -0.055142526 0.07991276 0.028513085 -0.09443586 -0.13488418 -0.6371739 0.09866522
-0.07780734 -0.12282419 -0.30308044 -0.73406917 0.1483392 0.09175779 0.15998618 -0.014271731
0.056452658 0.18896994 -0.082948424 -0.11400972 0.0026816607 0.06987495 0.13079005 0.044489466
-0.0036483572 0.09558096 0.13844378 0.18065852 -0.009199741 0.08481243 -0.41373226 0.06396873
0.0048416145 0.047818948 -0.002764502 0.08153577 -0.2729555 -0.045515843 -0.07737276 0.057120945
-0.011211524 0.054080002 0.08118235 -0.018604282 -2.1350794 0.032051392 0.022159263 -0.15982051
0.08833385 -0.075134516 -0.027487917 0.0028276623 0.025134739 0.13959678 0.09704671 0.06287886
0.0063576037 0.101008944 -0.056265738 -0.09698591 -0.248696 0.13546227 -0.17025594 0.1507872
-0.03348313 -0.32657805 -0.15122506 0.19885845 -0.21683632 -0.36265954 -0.52208984 -0.29365012
0.18519014 0.31424895 -0.036721338 0.04857699 -0.012999482 -0.041575417 -0.09230638 -0.055625163
0.04212017 0.13729888 -0.23262869 -0.24523751 -0.26552495 0.0003155896 -0.058481008 -0.06214094
0.23761898 -0.019708604 -0.13638686 -0.7029093 0.08658245 0.0141148465 0.37023005 0.0017532125
-0.012788256 -0.1763628 0.13406268 -0.07716464 -0.2056638 0.2176821 -0.16727737 0.017612267
0.0020497835 0.071816176 -0.018288521 0.17870043 0.18899414 -0.48815134 0.18398069 0.20807882
0.1832451 0.2004264 0.07403909 0.10352119 0.07216586 0.17487869 0.06855506 0.10222731
-0.08451671 0.09058523 0.0560636 0.1559491 -0.3915166 -0.15362604 -0.037648678 0.16855243
-0.0017837975 -0.22872946 0.2422325 0.05265554 0.28252226 -0.03305363 0.18122822 0.1562493
-0.14596358 0.15583818 0.010434497 -0.21362291 0.19316086 -0.034083944 0.14080215 0.105583526

conv.2.bias f4 [32]
00000000: a272 033e 4bf7 1cbd 71bd 52be 499f 46be
00000010: 2edb 9d3d 2b68 eabd 4423 fd3d 4fc3 13be
00000020: 0118 913c 4142 94bd 8520 223d 3e7e 973d
00000030: fd6c a1bd cce3 a03c f1bb 483d e0a9 a8bd
00000040: 7219 e73d 7fec 253d 8a50 893d 227a 51be
00000050: 57c3 51bd 6554 223e 8530 76be 91e1 353d
00000060: 4465 d33d 8d9f 173e bb40 87bd e582 fa3c
00000070: 9e7b e93d 026d 583d 0795 d3bc faa2 43bd
0.12836698 -0.038321774 -0.20580079 -0.193967 0.07707821 -0.1144565 0.12360242 -0.14429973
0.017711641 -0.072391994 0.039581794 0.07397126 -0.07882116 0.019639872 0.04900736 -0.08235526
0.1128415 0.040508743 0.06704815 -0.20456746 -0.05121168 0.15852506 -0.24041946 0.04440457
0.10322049 0.14806958 -0.06604143 0.030579994 0.11400531 0.052838333 -0.025827898 -0.04776285

conv.4.weight f4 [64, 32, 5, 5]
00000000: f6a2 a9bd 2df4 82bd e247 2b3e 79e6 96bd
00000010: 6347 913c eb41 1cbe 44c2 babd a820 3a3e
00000020: 1ae2 43be 11e4 d93d 5046 863e 48e5 e7bb
00000030: d6e9 143d 664c 8fbe 198f 0abe cd48 b4be
00000040: 8e27 733d a235 03be 6c37 b43e 6084 a5be
00000050: 2940 cdbc a952 d6bd 39b4 a83b 355d 533d
00000060: 516b 23be 2c45 8abe d18e a2be 41c6 8c3e
00000070: 3908 5f3e d951 56bd 6fca 9fbe 41f3 143d
00000080: 575d c5be 219b d93d 01f5 c5bd 4a27 223e
00000090: 0be0 ddbe 6b98 303e f616 be3e f651 28bf
000000a0: f6ba 5fbe 61bb a23c ad73 2d3e 078b 34be
000000b0: 4ffa 1a3e 77d0 18be f81d 833c 6c55 733d
000000c0: 5474 ccbd db51 1e3d 9f1b b0be 9564 133e
000000d0: df32 27bd 4cd5 e9be 542a 0c3f cb12 093e
000000e0: 6f08 26be 2684 c9be 613a 193e 365f 5abe
000000f0: 3265 b8be 5c8f 8bbd c506 debe bff2 50be
00000100: f52a 0abd 96a7 d8bc 73d1 a8bd 4828 d53e
00000110: 90de 5ebd a598 74bd 2496 35bc c5d0 0b3e
00000120: d048 8b3e eaf3 fb3c 1536 c7bb d90f 573d
00000130: 17ea bbbc 5e25 00be 4f55 383c 9ade c43c
00000140: 0c57 1f3e ac95 69bc 48b6 7ebe 9966 ec3e
00000150: dc28 80be 6ebd 7ebe 40c0 ad3c 1275 7dbe
00000160: 14e3 523e f7cb d53e ecd0 a7bc 47bb 583e
00000170: 1e97 91bd e6dc a6be 5c1b 463e ac24 193e
00000180: 8b67 a93d b6cb e8bd f733 593e 1f9d fdbd
00000190: ef59 183e 3c4d 4abe 749b 95bd 490e a2bd
000001a0: 311c e0bd 404c 183e 9721 fa3c 3669 20be
000001b0: 2d44 c5bd e9b3 e43d cbee 76bd d4eb 693e
000001c0: 045b ab3d 86f8 c03e ba4e 183e a05e 94be
000001d0: c46c 333d 419e ddbd d3c3 213e 60c7 2a3e
000001e0: 4e9e d43d 5166 89be cf94 563c 7140 23be
000001f0: ccce 853e 8bcd b53e b446 16bc db79 703d
00000200: 05f9 bbbd 416b 8e3b 6a4f a33d 27f2 b9bd
00000210: a50f 1e3e b184 833d c8c7 5bbe ca48 fcbd
00000220: 352d bc3d 7d54 ad3c 5b3f a63e 5b1f f4bb
00000230: b2bb c0be 8e52 77be c844 293d 4bac a03d
00000240: 0cf8 04be d27e bcbe 69e2 193e 97a7 0b3e
00000250: aa2c 533d ee50 20be 048d b0be b4dd ad3e
00000260: 9a6b 62be 039a 033e 66f1 0cbe bb69 d6bd
00000270: 536c b6be e71d 433d 334b 3c3d 286a bcbd
00000280: bae9 71bd 0693 2a3e f8b0 96be f310 f53d
00000290: e9b5 b93e 99cd e03d b897 63be 933d 5f3d
000002a0: 65a9 c8be 6b4f a43e c852 683e 316e b2be
000002b0: 968a 603d 630a 5dbe f062 a93c 516b cabd
000002c0: a6e0 c43d 1410 393e 55aa 023b bc5a babc
000002d0: 2bd6 57be 69a0 e03d 8217 82bd 1bc5 74bd
000002e0: f4e7 7f3e 0b81 6ebe e15d 503e 0d83 33be
000002f0: 937b acbe 3429 7dbd 32f6 c9be 2c9b 20be
00000300: 092b 543d a01c fcbd 2f76 bb3d 6b3e 12be
00000310: 6c3c 2cbd c3c7 69be 6e87 29bc 68de 8d3d
00000320: bcc5 6cbe b4bd 31bd bd8d 63be 88b9 d9be
00000330: ea7e 993c 6b08 e93e 66a3 7a3d 3b13 2ebe
00000340: 2ccc 5cbc e23f fe3b e0df c0bd 8b80 3ebe
00000350: 9fcf 0bbd 7a5d ecbd e44e 513e f7be a8bd
00000360: 1a3e 2c3d 1986 633e ab21 5a3e cdf6 2cbe
00000370: ab68 98bd f248 39be 3367 ce3c f9b0 3b3e
00000380: 50a4 77bd 8527 e0bd e19f fabd 1909 d83d
00000390: 7a23 163d 8022 de3c 0f8b 2ebe 71d4 423e
000003a0: 26a0 20be d644 c63e 5be1 bfbd d6ca 5ebe
000003b0: de95 b0bd 9cae 413e b727 1dbe a641 9ebd
000003c0: 24c8 6b3e 3826 28bc fc8c ccbc b6d2 113e
000003d0: a5e5 f1bd bbcf 9f3e a625 dbbc 0532 3dbe
000003e0: 56c8 843c bc33 af3d 2772 5abe 43c3 6e3e
000003f0: 9ef0 31be 2463 8ebd 664d 753e 09b0 983d
-0.082830355 -0.06394229 0.1672664 -0.07368178 0.017734235 -0.1525952 -0.091190845 0.1817652
-0.1912922 0.10639203 0.2622552 -0.007076893 0.036355816 -0.27987975 -0.1353115 -0.35211793
0.059363894 -0.12813428 0.35198534 -0.32327557 -0.025055008 -0.10464985 0.0051484373 0.05160256
-0.15958907 -0.270059 -0.31749585 0.27495006 0.2178048 -0.05232415 -0.31209132 0.036364798
-0.38547775 0.106252916 -0.096658714 0.158353 -0.43334994 0.17245643 0.37126893 -0.6575006
-0.21848664 0.01986474 0.16938658 -0.1763116 0.15134548 -0.14923273 0.016005501 0.059407637
-0.09983125 0.038652282 -0.34396073 0.14393838 -0.04082 -0.45670545 0.5475209 0.13386075
-0.16214155 -0.39358634 0.14963676 -0.21325383 -0.36014706 -0.06814453 -0.4336454 -0.204051
-0.033732373 -0.026447099 -0.08243074 0.41632295 -0.05441147 -0.059715886 -0.01108316 0.13653858
0.2720399 0.030755956 -0.006079445 0.052505348 -0.022938771 -0.12514254 0.011250808 0.024031926
0.1556055 -0.014256876 -0.24874222 0.46172026 -0.25031173 -0.24876949 0.021209836 -0.2475169
0.20594436 0.41757175 -0.020485364 0.2116519 -0.071089014 -0.32590407 0.19346374 0.14955395
0.082717024 -0.1136698 0.2121123 -0.12383484 0.14878057 -0.19756025 -0.07305041 -0.07912881
-0.10942877 0.14872837 0.030533595 -0.15665135 -0.09632144 0.11167128 -0.060286324 0.22843868
0.08366969 0.37689608 0.14873782 -0.28978443 0.0438049 -0.108212 0.15797357 0.16677618
0.10381757 -0.26835874 0.013097002 -0.15942551 0.26134336 0.3550838 -0.00917213 0.05870996
-0.09178356 0.0043462818 0.079741314 -0.0907939 0.15435655 0.06421793 -0.21462929 -0.12318571
0.0918831 0.021158451 0.3247021 -0.007450027 -0.376432 -0.24152586 0.04132536 0.07845362
-0.12985247 -0.36815506 0.15027775 0.13638149 0.051556267 -0.15655872 -0.34482586 0.3395821
-0.22111359 0.1285172 -0.13763961 -0.10469385 -0.3562952 0.04763594 0.045970153 -0.09199935
-0.05906079 0.16657647 -0.2943189 0.119661234 0.362716 0.10976715 -0.22225845 0.05450208
-0.39191738 0.3209184 0.22687829 -0.34849694 0.054819666 -0.21585993 0.02067706 -0.0988375
0.09613161 0.1807254 0.0019937952 -0.022748344 -0.21077792 0.10968096 -0.0635214 -0.059758287
0.24990827 -0.23291413 0.20348312 -0.1753046 -0.3368803 -0.061806872 -0.39445645 -0.15684193
0.051798854 -0.12310147 0.09153401 -0.14281623 -0.04204981 -0.2283011 -0.01034723 0.06927186
-0.23122305 -0.043393806 -0.22222038 -0.42524362 0.018737275 0.45514235 0.061190985 -0.16999523
-0.013476413 0.0077590803 -0.09417701 -0.18603723 -0.03413355 -0.11541267 0.2044025 -0.08239549
0.042051412 0.22219123 0.21301906 -0.16891022 -0.07441839 -0.18094233 0.025195694 0.18329228
-0.060459435 -0.10945038 -0.12237526 0.1054861 0.036654927 0.02711606 -0.17045234 0.19026352
-0.15686092 0.38724393 -0.09369155 -0.21757063 -0.08622335 0.18914264 -0.15347181 -0.07727365
0.23025566 -0.010263018 -0.02496957 0.14240536 -0.11811379 0.31213173 -0.02675135 -0.18476112
0.016208809 0.085547894 -0.21332608 0.23316674 -0.17376944 -0.06952503 0.23955306 0.07455451

conv.4.bias f4 [64]
00000000: b68b 9ebd b6c8 b0bd 3f94 043d a0c7 023c
00000010: b709 15bd ea62 48be 7089 20bd 62cd 4bbd
00000020: 2913 3d3e 11cd 033c 642f b53d 544e 47bd
00000030: afbc d33b 9afd 17bd 2ebb fbbc 8419 45bd
00000040: ac34 b9bc ddda 843c 06f0 c63d 6731 70bd
00000050: 426c 563e 1da0 5cbd 6075 05bd 7575 22be
00000060: 2a7c adbd 2c55 9b3e 5a2d 58bd 7363 0e3e
00000070: 6052 c2bc e93c e5bc da8f 21bd 6c77 233c
00000080: f19f 26bd 6432 99bc 68a3 21bc 6f06 673e
00000090: fd3f 043e 661d 0c3e 94ba 83bd e369 50bd
000000a0: 6ffe f83d 754c f9bc 4495 3cbd 3fba 1dbd
000000b0: 6076 afbc b1ca 04bd 3c7a 9e3d 0d8b 993e
000000c0: 3fd1 22bd 9c87 81bc 36e7 093d 5f03 743c
000000d0: 4b3f 753e a06a 803e a45d 63bd dd98 c43d
000000e0: 50f9 1e3e d22b 7fbd 7fca 87bc ceae 15be
000000f0: 621b a93e 299c 773d 5200 00be b2e1 283e
-0.077414915 -0.086320326 0.03236794 0.007982165 -0.036386218 -0.19568983 -0.03919357 -0.049756415
0.1846434 0.008044497 0.0884693 -0.048658684 0.006461702 -0.037107088 -0.030728903 -0.048120037
-0.022608124 0.016217643 0.097137496 -0.058640864 0.20939735 -0.053863633 -0.03258264 -0.15865119
-0.08470948 0.30338418 -0.052777626 0.13905124 -0.02372092 -0.027983146 -0.03944383 0.009977203
-0.040679876 -0.018700786 -0.009865619 0.22561048 0.12915035 0.1368309 -0.06432071 -0.05088223
0.12157904 -0.030431965 -0.04604079 -0.038507696 -0.02141875 -0.032419864 0.07738158 0.299889
-0.039750334 -0.015811734 0.033667766 0.014893382 0.23949926 0.25081348 -0.055509225 0.09599469
0.15524793 -0.06229765 -0.01657605 -0.14617464 0.33028704 0.06045166 -0.12500122 0.16492346

conv.7.weight f4 [64, 256]
00000000: 2e6b 17bd 4aad 93bd a6d6 b13c be9c fc3b
00000010: 681b f83c 2849 34bd c0c1 403d b5e5 81bd
00000020: 0044 17bc 446a 80bd ca6d 8f3c 4eb1 35bb
00000030: beae 7bbd a0eb ff3c 10c8 f93b 2874 233d
00000040: 3812 90bc 3233 503d f8b3 283c 6ac3 37bd
00000050: eecd 173c 114e 9f3a d417 533c 5b30 17bd
00000060: 104e b63c 1060 153d 1403 45bd 8881 7a3c
00000070: 48b0 643c 2003 45bd 1c79 c0bc b847 59bc
00000080: bb98 51bd d34b f8bc 830c 31bd d710 34bd
00000090: 4148 173c aca2 53bd 98f9 e2bc d701 05bc
000000a0: 58fa 71bc 22e7 a3bc 6ecb 8dbd 9993 dbbb
000000b0: 5492 bf3c 589d 863c 9ed1 003d 106f edbc
000000c0: 600b e3bb 808e 7e3b e00e c63b e43e 2a3d
000000d0: 3c29 5abd 5ed0 393d f82d 193c 18ca 11bd
000000e0: 7fff 22bd e1de 51bd eb42 47bd 507b 703d
000000f0: e062 8ebc 890b f0bc 8cdc 1fbb 1eaa 20bd
00000100: e063 55bd 9c5e b5bc 4083 a9ba d6e8 1f3d
00000110: 8676 75bd 681a 19bc f06d 303d 0ca2 77bd
00000120: 1ff8 143d c564 1b3d 008d 79bc 0046 12b9
00000130: e232 04bd e87f adbc 0018 45b8 7e0d 5fbd
00000140: b69b bbba 617a 92bd 23a1 8fbd 0153 193d
00000150: 1c17 b7bc 042b 233d c8f7 24bc 4eef 35bd
00000160: 3244 5cbd 28f9 8c3c 80f7 2b3b 5859 5ebd
00000170: 087a 2a3d a650 ad3c cee1 1cbd 58d5 01bd
00000180: 120d a93c 7fe0 a7bc 1431 7cbc e672 9cbd
00000190: f4a8 38bd 9582 04bd b67a c73c fdab 85bd
000001a0: b870 b43c 4ef9 763d f8cf c83c 28b5 33bc
000001b0: 252b 06bb 9817 93bc a591 2ebd c797 a1bc
000001c0: 5af9 343d 50ac 563c 80a9 813a 4488 a33c
000001d0: 39ea d7bc be6f 0a3b 9369 b03c a3c5 e93b
000001e0: 803d 58bb 6013 4a3b 00df 303d ccff abbc
000001f0: 4cba 0d3d 665e 68bd fcae 56bc f8be 30bd
00000200: 506d 81bc f046 9a3c 343f 263d f210 283d
00000210: e05b 4b3d dca2 f03c d08c d5bb 7a63 68bd
00000220: b821 7dbd 5ec1 17bd 10ab 4abc 0006 5c3b
00000230: 9b11 3ebd b461 60bd 70a7 e9bb 406c 6c3c
00000240: 6422 54bc b09a dbbc c8e8 033d 6f37 27bd
00000250: 7d17 7cbd 725b 7bbd f1a7 e63c dd11 1ebc
00000260: 4b6b 1ebc 1d18 dd3c 64b9 46bd da1c 57bd
00000270: dea6 2cbd b63d 17bd 6418 cf3c 80bf 223b
00000280: f7db f7bc e40a 163c f93d 23bc 9a99 863c
00000290: b566 053d 7b99 41bc 39ae 2ebc 2dae 54bd
000002a0: a083 ba3b ee17 233d 1090 8d3b f8fd 063c
000002b0: 602c 823c b024 3ebd b857 dfbc 4ab1 113d
000002c0: 265e 573d b450 60bd 6a89 023c 2064 debb
000002d0: 42b3 5a3d d2d2 793d 24ae be3c 203d 05bd
000002e0: 2e3f 24bd 785b 263c a71c 103d 886a 0dbd
000002f0: 22a4 8d3c 442a 053d 5b69 7bbd fee6 50bd
00000300: 30f9 0c3d 9231 153d 806d 20bd 10e3 d2bb
00000310: 1468 183d f486 bfbc 3c06 40bd c053 1f3c
00000320: 22a7 5ebc 5804 35bd e47f 6cbd 90a7 48bd
00000330: 6e35 7ebd 04cf fdbc ca11 063d 1440 6d3d
00000340: 8b0a f83b ef03 36bd c729 d0bc 0873 1ebd
00000350: 2a58 e33c 8cb0 5abc 309d 2a3d 1e1a b3bc
00000360: 8e83 0dbd 0457 ffbb 3def f1bc 10ec d1bc
00000370: 1c09 48bc 5881 ebbb 5573 d83c 76d3 94bd
00000380: 50e6 de3c 38d6 ff3c 8471 4f3d 7b24 4cbd
00000390: b6c0 6dbd dc74 56bd fac0 69bd 2cb9 893c
000003a0: d6d1 82bd 215d abbc 8ac3 933c 24df 60bd
000003b0: 27c2 68bd 630c 30bd d0a7 abbc c89e d3bc
000003c0: 0089 833b 007a eb3c 6480 613c 8c4b e93b
000003d0: a4cc 4a3c a0bf 0ebb 4aa4 8abc b1a0 57bd
000003e0: dc80 a93b 9ce6 eabc 31ab 38bd a497 003d
000003f0: 3a65 4c3b cdb0 65bd 91ef b2bc 7587 95bb
-0.03696745 -0.07210787 0.021708798 0.007709115 0.030286506 -0.04401508 0.047059774 -0.06342641
-0.009232521 -0.062702686 0.017508406 -0.002772409 -0.061445944 0.031240284 0.0076227263 0.039905697
-0.017586812 0.050830074 0.010296814 -0.044864096 0.009265406 0.0012154003 0.012884099 -0.03691135
0.02225402 0.036468565 -0.04809864 0.015289672 0.013958044 -0.048098683 -0.02349525 -0.013261728
-0.051171046 -0.030309593 -0.043224823 -0.043961372 0.009233535 -0.051668808 -0.027706906 -0.008118114
-0.014769159 -0.020007674 -0.06923567 -0.0067009446 0.023385204 0.01643245 0.031449907 -0.028983623
-0.0069288462 0.003884226 0.0060442537 0.041563883 -0.05326198 0.04536473 0.009349339 -0.035593122
-0.03979444 -0.051237945 -0.048647802 0.05871135 -0.017381132 -0.029302375 -0.002439293 -0.039224736
-0.0520972 -0.02213984 -0.0012932792 0.03904041 -0.059927486 -0.009344675 0.043073595 -0.060457274
0.03636944 0.0379379 -0.015231371 -0.00013949722 -0.032275088 -0.021179155 -4.6990812e-05 -0.054456227
-0.0014313373 -0.07152248 -0.07013156 0.037432674 -0.022349887 0.039835945 -0.010068841 -0.04441767
-0.053775974 0.01720865 0.002624005 -0.054284424 0.041620284 0.02115662 -0.03830128 -0.0316976
0.020636115 -0.02049279 -0.0153925605 -0.07639103 -0.045083 -0.032351095 0.024350505 -0.06526945
0.022026405 0.06029635 0.02451323 -0.010968484 -0.0020472493 -0.017955586 -0.042619366 -0.019725693
0.044183113 0.013102606 0.0009892434 0.019962437 -0.026356803 0.0021123732 0.021534717 0.007134156
-0.0032995641 0.0030834302 0.04318142 -0.020995997 0.034601495 -0.05673065 -0.013103243 -0.043150872
-0.015799195 0.018832654 0.04058762 0.041031785 0.049648166 0.029374532 -0.0065170303 -0.056735493
-0.061799735 -0.037049644 -0.012369886 0.0033572912 -0.04640351 -0.054780677 -0.007130556 0.014430106
-0.0129476525 -0.02680716 0.03220442 -0.04082435 -0.061545838 -0.061366506 0.028156253 -0.009647814
-0.009669135 0.026989037 -0.048516646 -0.05251775 -0.042151324 -0.036924087 0.025280185 0.0024833381
-0.030256255 0.00915787 -0.009963506 0.016430665 0.032568652 -0.011816378 -0.010661655 -0.05192392
0.0056919605 0.039817743 0.004320152 0.008239262 0.0158903 -0.046421707 -0.027263507 0.035569467
0.05258002 -0.054764464 0.007967332 -0.006786838 0.05339361 0.06099207 0.023276396 -0.032528996
-0.040099315 0.010153644 0.035183575 -0.034525424 0.017290179 0.03251101 -0.06137977 -0.05100154
0.03441733 0.036424227 -0.039166927 -0.0064357594 0.03720863 -0.02337978 -0.046880946 0.009724557
-0.013589652 -0.044193596 -0.057739154 -0.048987925 -0.062062673 -0.030982502 0.03273181 0.057922438
0.007569616 -0.044437345 -0.025410546 -0.03868392 0.027752 -0.013347756 0.041653812 -0.02186304
-0.03454929 -0.0077923555 -0.029533023 -0.025625259 -0.012209203 -0.00718705 0.026422182 -0.072668955
0.027209431 0.031230077 0.050645366 -0.049839478 -0.05804511 -0.05235754 -0.057068802 0.01681193
-0.06387679 -0.02091843 0.018037576 -0.054900303 -0.056825783 -0.042980563 -0.020954043 -0.025832549
0.0040141344 0.028744698 0.013763521 0.0071196016 0.012377892 -0.0021781698 -0.016924042 -0.05264348
0.005172832 -0.028674416 -0.045085136 0.031394616 0.0031188265 -0.056076813 -0.02184275 -0.004563267

conv.7.bias f4 [64]
00000000: 04d5 52bd 9bd6 c63e 8d32 663e 367b bc3e
00000010: 06fe dd3e f4df c33e 22af 57be 90a5 403e
00000020: 1bf6 7b3b 3b9a 8e3e 1cba c8bd fc4e fb3d
00000030: f532 ad3e 3bc1 b73e 96e6 023f 2043 a2be
00000040: 9f1b 4f3e 6326 903e 93f6 2d3f 7fb1 083e
00000050: 61a1 973d 483c cc3d 4416 a23e 5524 a33e
00000060: c342 9e3d f0ed 95bb 4363 a0bd 4097 3ebc
00000070: d1cf 093e efdf d0bd d25e 6a3e 553a d7bd
00000080: 5dc0 39be 0c14 413e 9383 adbc 28b6 23be
00000090: 8676 053e ed7f 07be 58ba 723d d1f3 8c3d
000000a0: 7369 cd3d a250 aa3d 247f 43bd 958f db3d
000000b0: ca15 843e 2314 1c3e f439 193e 145b 493e
000000c0: 7ac6 063e a132 383e 54bc 43be 5a10 8e3d
000000d0: 9c65 aa3d ebe6 a0bd 8ddb 633e d443 8abe
000000e0: 8656 57bd 8506 87be a616 e73e 3403 54bc
000000f0: 19c3 d13e 0809 31be dab3 a53e ea1f 1b3e
-0.05147268 0.38835606 0.22480221 0.36812752 0.43357867 0.382568 -0.21062902 0.18813157
0.003844625 0.27852044 -0.098011225 0.122709244 0.3382794 0.3588961 0.51133096 -0.31691837
0.2022538 0.28154287 0.6795437 0.1334896 0.074038275 0.09972435 0.31657612 0.31863657
0.077275775 -0.0045754835 -0.07831433 -0.0116327405 0.13458182 -0.10198962 0.22887734 -0.10509173
-0.18139787 0.18855304 -0.021180904 -0.15987456 0.13033494 -0.13232394 0.059259742 0.06882442
0.100298785 0.08316161 -0.047728673 0.107207455 0.25797874 0.15242057 0.14963514 0.1966365
0.1316165 0.17988063 -0.1911481 0.069367126 0.08320162 -0.07856544 0.2225172 -0.27004874
-0.05257275 -0.26372162 0.45134467 -0.012940217 0.4096916 -0.17288601 0.32363778 0.15148893

out.weight f4 [4, 64]
00000000: c8e3 a93d 8b05 083f 81cc 24bd 8696 a23e
00000010: 76b0 9d3e 8c13 fd3d 93e6 01be 4792 9d3e
00000020: 760f 92bd b6d1 403e 12a8 183e 5da5 423e
00000030: 3fbb 813e 76ce 8e3c 19c1 133d f7fd e0bc
00000040: 936c 2cbf 71d4 c63d 05fd d13e aeb1 0a3e
00000050: ac1a a63d 21c8 f9bc f196 933e d3e0 ba3c
00000060: 90cd 32be 8fc0 b7bc 94ce f93e 0c23 193e
00000070: 3e9f ca3d 3c13 42bd 63ac 0f3e e9b6 f7bd
00000080: d658 0dbe ca94 ed3d 4005 393d 366c 30be
00000090: e83d 9a3e 4210 52bf f8e0 c0bd ef44 5dbe
000000a0: a0cd 393e 79bc 383e 0911 783d c04b ffbc
000000b0: 6bb6 b3bf 8de7 abbf b8fb ebbd a3db acbf
000000c0: 7fd4 43bf 77b6 893c 7c9c df3d aaf8 34ba
000000d0: c8f6 87be bd8c 003d ac7a 80be 0f9f 2040
000000e0: f3a7 a93d a945 c53c 169f 293e b7bf cabe
000000f0: 6865 9e3d 3647 693c 6856 073f 2f97 53be
00000100: 40a9 9cbd b7b7 d33d f1c9 813e 66cb 52bd
00000110: 9672 d63e 34b5 a63e fa9d 323e 05ed f1bd
00000120: baf7 87bf 7cf0 db3e 8c56 193e 37e1 683e
00000130: 46bb 8d3e bc32 413e c5b0 313e 728b 2b3a
00000140: fbb0 aabc cdc9 053e 0d01 f93e d93c bdbf
00000150: b7f5 d3bd 5429 9f3e 3afd 6f3e 6283 a8bc
00000160: 44d4 8abf 52a8 d2bd 4f89 acbd 5722 ca3d
00000170: e7b8 bebf 297e 71bd 3e07 7dbd 5254 3a3e
00000180: 5d60 19be 0814 bf3e c3c3 a3bc 69f8 5bbd
00000190: d06b 11bc 9cc6 cd3c 61d5 94be 2232 27bd
000001a0: 8aa3 5dbc de6f b3bd bfb8 b03d 97cd 59be
000001b0: 4670 203e b4e9 a3bd 1d18 c5be 422e d23d
000001c0: cd9d 2dbe 31a0 f23d f04f 54be 39c3 aa3e
000001d0: 275a d93d de2b 33bc ad80 153e a80d 85be
000001e0: 150b 16bd 665f 69be 179f 5bbb adf4 7a3e
000001f0: bcad 8d3e 5228 953d 8b6c 053d 55c5 83bd
00000200: 1213 9f3d 88bb be3d 838e 60bf 505a 35bc
00000210: a69d 033d 0e02 4b3d cd5c 8cbe f03f 61bd
00000220: b014 283e 4377 bd3d 6a1f 50be 5915 973e
00000230: 4f04 723e ab07 6d3e d677 a83d 29b5 febe
00000240: 7ebe c73d 683b df3e 5055 0b3f e5ac ca3d
00000250: 5775 743d c462 40bc 8fd2 bb3e 0a85 a63d
00000260: 60a5 6fbd ab1e 80bf 3ad4 31be 7b83 8abd
00000270: 4698 19be cc36 ca3e a723 923e c62c b83d
00000280: db80 96bd f4ba b03d 7c8d 5c3d b71a 1540
00000290: 6715 213d 715f e83c 7c57 29bd e793 c5bd
000002a0: b90f 27be a609 dabf 077b 7cbd dcf3 393d
000002b0: ca21 c7bc e901 863d 03ca 08be 3d8f cdbd
000002c0: c1ee ff3d 172f eebf 264d 0a3f 9f5c 81be
000002d0: 822f 003e 4724 c6bc ca45 b23e 1a30 14be
000002e0: 1d72 793e ea55 3040 a2b2 e63e 60b1 2cbd
000002f0: 6592 fe3e 1a15 34be def1 5a3d e047 95bf
00000300: 681a 743d 067b 8b3b 4114 933c 07cf 653e
00000310: 1cd2 2a3e 45ec ef3d f3dd b9be fbc9 943e
00000320: 887f 22be 0c50 093e 5a8e 2b3e f877 ddbd
00000330: 209f 813e fd81 733e 736b 043f 6a39 8abc
00000340: a7fe cbbd 83d1 ec3d 1857 d63e d533 073e
00000350: 4f7b b03e 966c 74bf 2f0f a73e 92d2 ee3e
00000360: 43c5 cfbb cd11 5dbe c2de 1a3e c046 443e
00000370: bfab 6bbd a198 27be 5320 a6bf 0511 16be
00000380: 3b65 e73f e7bc 8bbe da3a c33d d3c2 bdbd
00000390: 9b57 d23e f910 be3d 606d 0a3e fe2a 82bf
000003a0: a5ca 9cbf d4ce 39bd 77dd e6bd 594d 8dbf
000003b0: 1094 1d3e e02f b0bd fdbc 94be 6472 8ebd
000003c0: 21fb 733d 414a dd3d 60e3 2dbd 7338 a83e
000003d0: 2ab1 1b3e fabf 8b3b 2c87 393c 8a7e 85be
000003e0: 8da6 083e ad6a c4bd fca4 ec3d 5f97 df3a
000003f0: 3336 d23d 839f 173f 8529 7b3b c347 293e
0.08295399 0.5313346 -0.040234093 0.31755465 0.30798692 0.12357244 -0.12685613 0.30775663
-0.07131855 0.18829998 0.14907864 0.19008394 0.2533817 0.017432433 0.036072824 -0.02746485
-0.6735317 0.09708489 0.4101335 0.13544342 0.08110556 -0.030490937 0.28826097 0.022812283
-0.17461228 -0.022430686 0.4879042 0.14954776 0.09893654 -0.047381625 0.14030604 -0.12095434
-0.1380342 0.11600645 0.045171022 -0.17228779 0.30125356 -0.8205606 -0.094179094 -0.21608327
0.18144846 0.18040647 0.06056312 -0.03116405 -1.4040045 -1.3430039 -0.11522621 -1.3504528
-0.7649612 0.016810639 0.10918519 -0.0006903509 -0.26555467 0.03138422 -0.2509359 2.5097082
0.08283987 0.024081068 0.16564593 -0.39599392 0.077341855 0.014238169 0.5286622 -0.2066314
-0.076494694 0.10337775 0.25349382 -0.051463507 0.41884297 0.32560122 0.17443076 -0.11812786
-1.0622475 0.42956913 0.14974421 0.22742163 0.2768194 0.1886701 0.17352588 0.00065439113
-0.020836344 0.13065262 0.48633614 -1.4784194 -0.10349601 0.31086218 0.23436442 -0.02057046
-1.0846028 -0.10286011 -0.08424627 0.09869831 -1.4900178 -0.058958206 -0.061774485 0.18196228
-0.14978166 0.3731997 -0.019990807 -0.0537037 -0.008875802 0.025119118 -0.29069045 -0.040819295
-0.01352776 -0.08761571 0.086289875 -0.21269833 0.15667829 -0.0800356 -0.3849496 0.10262729
-0.16954727 0.1184696 -0.20733619 0.33352068 0.10612898 -0.010935752 0.14599867 -0.2598698
-0.036631662 -0.22790298 -0.0033511573 0.24507399 0.2767161 0.07283081 0.032574218 -0.064341225
0.07767309 0.093131125 -0.87717456 -0.011068895 0.032132767 0.049562506 -0.2741455 -0.054992616
0.16414142 0.09251263 -0.20324484 0.29508474 0.23634456 0.23147456 0.08225982 -0.4974759
0.097531304 0.4360001 0.5442705 0.09896258 0.059682216 -0.011742298 0.3668408 0.08130844
-0.058507323 -1.0009359 -0.17366114 -0.06763359 -0.14999494 0.39494932 0.28542826 0.08992915
-0.07348796 0.086294085 0.053845868 2.3297555 0.03932705 0.028365823 -0.041343197 -0.09647351
-0.16314591 -1.7034194 -0.061640766 0.045398578 -0.024308104 0.06543333 -0.13358311 -0.10037086
0.124967106 -1.8608121 0.5402397 -0.25265977 0.12518123 -0.02418722 0.3481887 -0.14471474
0.24359937 2.7552438 0.4505816 -0.042161345 0.49721065 -0.17586175 0.05345332 -1.166256
0.059595495 0.004256609 0.017953994 0.22442256 0.16681713 0.11714987 -0.36302146 0.2906035
-0.15868962 0.13409442 0.16753522 -0.10813898 0.25316715 0.23780055 0.51726454 -0.01687308
-0.099606805 0.11563399 0.41863322 0.13203366 0.34469077 -0.9547819 0.32628772 0.46645027
-0.006340654 -0.21588822 0.15124038 0.19167614 -0.057536837 -0.16366817 -1.2978615 -0.1465493
1.8077768 -0.2729256 0.095327094 -0.092656754 0.41082463 0.09280581 0.13518286 -1.016937
-1.2249342 -0.045363262 -0.1127271 -1.103923 0.15388513 -0.086028814 -0.29050437 -0.06955412
0.059565667 0.108051784 -0.04245317 0.32855567 0.15204301 0.0042648287 0.011323731 -0.26073104
0.13344784 -0.09590659 0.11554906 0.0017058662 0.10264244 0.5922777 0.0038324308 0.16531281

out.bias f4 [4]
00000000: 1566 143f 3579 043f 6ee5 d63e d8ee f03e
0.57968265 0.5174745 0.41971916 0.47057223
