models/v17.1/model_422500.pth (torch, 295107 bytes, 10 tensors)

conv.0.weight f4 [16, 2, 3, 3]
0	0x3dec83e1	0.115485914
1	0x3be09349	0.0068534953
2	0xbe6a10a2	-0.22857907
3	0x3e99fdab	0.30076346
4	0xbdf15268	-0.11783296
5	0x3e12eeb9	0.14348878
6	0xbec1245c	-0.37723053
7	0x3ee4e7c1	0.44708064
8	0x3da50aa8	0.08058673
9	0x3b15c6b9	0.0022854044
10	0xbca59848	-0.020214215
11	0xbca134a8	-0.019678429
12	0xbdadf9fe	-0.08494948
13	0x3ddc482a	0.10755952
14	0xbc38e56b	-0.011285166
15	0xbbcd7b34	-0.0062707905
16	0x3cf9189d	0.030407244
17	0x3c8c3e55	0.017119566
18	0xbe513c52	-0.20433167
19	0x3e8f4b1b	0.27986988
20	0x3ca5c42c	0.020235144
21	0x3e690ec6	0.22759542
22	0xbe2bdc68	-0.16783297
23	0x3e6d78cc	0.23190612
24	0xbf4815e5	-0.7815841
25	0xbf0fdeaf	-0.56199163
26	0xbd76148e	-0.060078196
27	0xbf7bb876	-0.9832834
28	0x3f324de3	0.69650096
29	0xbf99afe1	-1.2006799
30	0x3e52ee1c	0.20598644
31	0xbe35af35	-0.17742617
32	0x3e503ccd	0.20335694
33	0xbb494cf7	-0.003071604
34	0x3a562a4a	0.0008169754
35	0x3dd28e32	0.10281028
36	0x3d2914fe	0.041279785
37	0x3e5e9883	0.21737866
38	0x3db1c845	0.086807765
39	0xbd5801a0	-0.052735925
40	0x3e856fd6	0.26061887
41	0xbdaed6d6	-0.085370705
42	0x3e77b2ed	0.24189349
43	0x3e1d9b6b	0.15391319
44	0x3d8fbbc7	0.070182376
45	0x3d9174e5	0.07102374
46	0x3e0f8bcb	0.1401817
47	0x3c3879c9	0.011259505
48	0x3e63fac9	0.22263636
49	0xbc338f78	-0.010959499
50	0xbfb9a7db	-1.450435
51	0xbcab6c4d	-0.020925665
52	0xbe948aa8	-0.29012036
53	0x3d06dba8	0.032924324
54	0xbcfc10d6	-0.030769747
55	0x3e006ffc	0.12542719
56	0xbbf2c3e9	-0.007408608
57	0x3de62750	0.11237967
58	0x3e0b2e29	0.13591827
59	0xbf3acafc	-0.7296598
60	0xbebc0e4d	-0.3672966
61	0xbed389bd	-0.41316023
62	0x3e4c772e	0.19967338
63	0xbd8d7c2d	-0.0690845
64	0xbc96ab07	-0.018392099
65	0xbd030213	-0.0319844
66	0x3eaa74a6	0.3329212
67	0xbd8d2d56	-0.06893413
68	0xbf7823dc	-0.9692972
69	0xbe8e48c6	-0.27789897
70	0x3ecce21c	0.40016258
71	0x3e0aeeb3	0.13567619
72	0x3e3429da	0.1759409
73	0xbdb34e4f	-0.087551706
74	0xbdf07181	-0.11740399
75	0xbf93a074	-1.1533341
76	0xbe005b5b	-0.1253485
77	0x3db95fbc	0.09051463
78	0x3cc8e0de	0.024521288
79	0x3eff9963	0.49921712
80	0xbf8b7c91	-1.089739
81	0xbe91eadf	-0.28499505
82	0x3e7ac0ca	0.24487606
83	0xbea20c7e	-0.31650156
84	0x3e649317	0.22321735
85	0xbcc4eea0	-0.024039567
86	0x3e3627ca	0.17788616
87	0x3d148b9e	0.03626596
88	0xbd08e6c2	-0.033423193
89	0x3bca268a	0.006169145
90	0xbd30729d	-0.043078054
91	0xbe277d94	-0.16356498
92	0x3eefe812	0.46856743
93	0x3e8c5a2b	0.27412543
94	0xbddb41f2	-0.107059374
95	0xbe3e62b6	-0.18592343
96	0x3f426e50	0.75949574
97	0xbed013e5	-0.40640178
98	0x3ece091d	0.40241328
99	0xbeb7acbf	-0.35873982
100	0xbd2057de	-0.039146297
101	0x3dabd3f3	0.083900355
102	0x3dcc3e21	0.09972788
103	0xbeb699b7	-0.3566415
104	0xbd1c80ae	-0.038208656
105	0x3c27f9bd	0.010252413
106	0xbe1e004d	-0.15429802
107	0xbe98d03a	-0.29846364
108	0xbf57ce68	-0.84299326
109	0xbdce1fa9	-0.100646324
110	0x3e8c7da2	0.274396
111	0x3e426d06	0.18986902
112	0x3d8940c0	0.06701803
113	0xbf7f3e3a	-0.99704325
114	0xbe829c7e	-0.2551002
115	0x3e0829d1	0.13297202
116	0xbe8da908	-0.27668023
117	0xbdb0ccf4	-0.08632842
118	0xbd630901	-0.05542851
119	0xbd645e69	-0.0557541
120	0x3de035cb	0.1094776
121	0x3c251fb7	0.010078362
122	0x3d583f56	0.052794777
123	0xbf10647e	-0.5640334
124	0xbdbaf6e1	-0.0912912
125	0xbe3ba594	-0.18324882
126	0x3e89c7b8	0.26910186
127	0xbe471704	-0.19442374
128	0x3f09f7b9	0.5389362
129	0xbe042acb	-0.12906949
130	0x3e858f13	0.2608572
131	0x3e10b13b	0.14130108
132	0x3cafd9bc	0.021466129
133	0x3ec1a12c	0.37818277
134	0xbd870b37	-0.06593936
135	0xbfc5ae18	-1.5443754
136	0xbf2be477	-0.67145485
137	0xbf58ca76	-0.8468393
138	0x3dee620c	0.11639795
139	0x3c3c1ef0	0.011481985
140	0xbdcede50	-0.101009965
141	0xbd9a59f3	-0.07536688
142	0x3dadbabb	0.08482882
143	0x3d6062f9	0.054781888
144	0xbc251c10	-0.010077491
145	0x3da780af	0.08178841
146	0x3ceca66c	0.02888795
147	0x3ecd0243	0.40040788
148	0x3ce76672	0.028247092
149	0xbe31a962	-0.1734977
150	0x3e8ad946	0.2711889
151	0xbee62c19	-0.4495552
152	0x3d18dda5	0.03732075
153	0xbebce9b8	-0.36897063
154	0x3f1d2652	0.613866
155	0xbef3e740	-0.47637367
156	0x3d39a4eb	0.045323294
157	0x3e89efab	0.26940665
158	0xbbce05a0	-0.0062872916
159	0xbe9f6cf0	-0.311378
160	0x3ef40cb4	0.47665942
161	0xbc505357	-0.012715182
162	0x3c370d1f	0.011172562
163	0x3ce05923	0.027386254
164	0x3d5dddce	0.054166608
165	0x3cf76d3e	0.030203458
166	0xbe1475f9	-0.14498128
167	0x3e62c2da	0.22144642
168	0x3eb0662d	0.34452954
169	0xbdfd1bb0	-0.123587966
170	0xbe1a64fb	-0.15077583
171	0xbc473dbd	-0.012160716
172	0x3e480f83	0.19537167
173	0xbdf2fbfa	-0.11864467
174	0xbfd2f8f4	-1.6482224
175	0xbcc86798	-0.02446346
176	0xbd431c37	-0.04763433
177	0x3e3ba0dd	0.18323083
178	0x3ea98c4d	0.33114854
179	0xbe5dd950	-0.2166493
180	0xbe0e6876	-0.13907036
181	0x3df17503	0.11789896
182	0x3dace10e	0.08441363
183	0xbe033685	-0.12813766
184	0x3c9e59ff	0.019330023
185	0x3dc4ffae	0.096190795
186	0x3f22caec	0.63590884
187	0xbed8c4ec	-0.4233774
188	0xbd081d38	-0.03323099
189	0x3e044c57	0.12919746
190	0xbe90d588	-0.2828791
191	0xbdbe9dba	-0.09307428
192	0x3f839dbb	1.028251
193	0xbd19f899	-0.037590597
194	0xbd516966	-0.051125906
195	0x3e4be548	0.19911683
196	0x3cbc2f77	0.022971852
197	0xbe162096	-0.14660868
198	0x3e274bcf	0.16337512
199	0x3e07a92c	0.13248128
200	0xbeb5240a	-0.35379058
201	0xbdf3f9cc	-0.11912879
202	0x3d98a5fa	0.074535325
203	0x3e59bf35	0.21264346
204	0xbfa08878	-1.2541647
205	0xbe04513a	-0.1292161
206	0xbdf53336	-0.11972658
207	0xbfab7da3	-1.3397716
208	0xbe9330b9	-0.2874811
209	0x3e96d02b	0.29455695
210	0x3e2cb451	0.1686566
211	0x3e7c1953	0.24619035
212	0xbe864182	-0.26221853
213	0x3e126f6e	0.1430032
214	0x3e16698a	0.14688697
215	0x3c614d2c	0.013751309
216	0xbe2506be	-0.16115853
217	0xbd2fd5b8	-0.042928427
218	0x3d86a557	0.06574505
219	0xbdc08f8c	-0.094023794
220	0x3cd56e1a	0.026053477
221	0x3e141e6f	0.14464734
222	0xbdac08f7	-0.084001474
223	0x3c30e1f5	0.01079606
224	0xbe4bdaae	-0.19907638
225	0x3dcb4625	0.099254884
226	0x3e5a9f8f	0.2134993
227	0x3c7a1dc8	0.0152658895
228	0xbc7d26dd	-0.01545116
229	0xbf7381ee	-0.9512013
230	0xbe0141cf	-0.1262276
231	0x3d8f1ea6	0.069882676
232	0x3dab14b6	0.0835356
233	0x3e62fd37	0.22166906
234	0x3e587ede	0.21142146
235	0x3ccb12fa	0.024789322
236	0x3cef0ed3	0.029181873
237	0x3bab64ae	0.005230508
238	0xbfae65aa	-1.3624775
239	0xbce5cb66	-0.02805109
240	0xbc882200	-0.016617775
241	0xbe236a32	-0.15958479
242	0x3dc6c094	0.097047
243	0x3e67f6d7	0.22652756
244	0xbfb0a163	-1.3799251
245	0xbe611e01	-0.21984102
246	0xbdf9248e	-0.121651754
247	0x3d61ad1d	0.055096734
248	0xbdfe5845	-0.1241918
249	0x3e3e6ef2	0.1859701
250	0xbe55ed07	-0.208912
251	0xbbf1b529	-0.0073763323
252	0x3e23ed07	0.16008388
253	0xbfa79145	-1.3091208
254	0x3c1eb74f	0.009687259
255	0xbdc7e29f	-0.097600214

conv.0.bias f4 [16]
0	0xbbd35e2a	-0.006450434
1	0x3dd812b1	0.1055044
2	0x3cb234a7	0.021753622
3	0x3c5cc454	0.013474543
4	0xbd386f14	-0.045027807
5	0xbef97bba	-0.48727208
6	0x3e9fa404	0.31179821
7	0xbec45324	-0.3834468
8	0xbe8d95aa	-0.27653247
9	0xbdf5c7b5	-0.12000982
10	0xbf367a4d	-0.71280366
11	0xbd71b107	-0.059006717
12	0x3d2beb64	0.041972533
13	0x3d88bc76	0.06676571
14	0xbe057374	-0.13032323
15	0x3de20897	0.11036795

conv.2.weight f4 [32, 16, 3, 3]
0	0xbc80a261	-0.015702428
1	0x3dea63fc	0.11444852
2	0x3cb46cb9	0.0220245
3	0x3db1d187	0.08682542
4	0x3c855f31	0.016280742
5	0x3cc6f7a5	0.024288008
6	0x3e9179f3	0.28413352
7	0x3e90ad3f	0.28257176
8	0xbe8af1f8	-0.27137733
9	0x3e84e13d	0.25953093
10	0x3dd2ddb8	0.10296196
11	0xbe3586fe	-0.17727277
12	0xbe6f5fca	-0.23376384
13	0xbbcf60c1	-0.0063286726
14	0x3ccc6045	0.024948249
15	0x3ddce1b5	0.10785238
16	0xbc4c7778	-0.012479655
17	0xbe589f00	-0.21154404
18	0xbd7258a9	-0.059166584
19	0x3dfff2f0	0.124975085
20	0xbad26a84	-0.0016053473
21	0xbf192ef9	-0.598373
22	0x3ed79c88	0.4211161
23	0xc0009ee8	-2.0096989
24	0xbe04f3d0	-0.12983632
25	0xbd8a16fe	-0.06742667
26	0x3cdb4dbf	0.02677047
27	0x3e27f1b2	0.16400793
28	0xbe2ed46b	-0.17073219
29	0xbe88dd0b	-0.26731142
30	0x3e28c46a	0.16481176
31	0xbee28fc3	-0.44250306
32	0xbe14edd4	-0.14543849
33	0xbe450c8e	-0.1924307
34	0x3e4ed228	0.20197356
35	0x3d6802ca	0.056643285
36	0x3dc3c319	0.09558696
37	0x3d56cc72	0.052441068
38	0x3e998cdd	0.29990283
39	0x3d7d829a	0.06189213
40	0x3cfed0a5	0.031105349
41	0xbe2136d7	-0.15743576
42	0x3e493626	0.19649562
43	0xbdfd1ce3	-0.12359025
44	0x3d00f336	0.031481944
45	0xbe42b138	-0.19012916
46	0x3c6ef3a0	0.014584452
47	0xbedfaaae	-0.43684906
48	0x3e87021a	0.2636879
49	0xbe4c525e	-0.19953296
50	0x3ce5fee3	0.028075641
51	0x3d43247a	0.04764221
52	0x3d3a374a	0.045462884
53	0xbc0d1a95	-0.008612295
54	0xbea1af42	-0.31579024
55	0x3ca75b1e	0.02042919
56	0xbef4a94b	-0.4778541
57	0x3d59d304	0.053179756
58	0xbe85914e	-0.2608742
59	0xbe30ead5	-0.17277081
60	0xbe6ffdaf	-0.23436616
61	0x3da8603f	0.082214825
62	0x3ca4b680	0.020106554
63	0x3e80ab0c	0.25130498
64	0xbd8b3bf8	-0.067985475
65	0x3d7a1d94	0.061063364
66	0xbe1b2dde	-0.15154216
67	0xbe2eb53f	-0.17061327
68	0x3c521f74	0.012824882
69	0x3e92d0bd	0.2867488
70	0xbe85e089	-0.2614787
71	0xbf3644f6	-0.71198976
72	0xbe8ffaef	-0.28121135
73	0xbca93962	-0.020657245
74	0x3efb37ed	0.49066105
75	0x3d9d9771	0.07694901
76	0x3d757f46	0.05993583
77	0x3e1f81e1	0.15576889
78	0x3d86966b	0.06571659
79	0xbd976c86	-0.07393746
80	0xbe6e501e	-0.2327275
81	0x3e38d784	0.18050963
82	0xbf04689f	-0.5172214
83	0x3eadec60	0.33969402
84	0xbe818556	-0.2529704
85	0xbed95eff	-0.4245529
86	0xbde840ed	-0.113405086
87	0x3d5b0b3c	0.05347751
88	0x3e3fe3e4	0.18739277
89	0x3e9789e9	0.29597405
90	0x3eab8dd9	0.3350666
91	0xbd64988b	-0.05580954
92	0xbb04457d	-0.002018302
93	0x3d0faad5	0.035075027
94	0xbe09c484	-0.13453871
95	0xbf3f5fec	-0.7475574
96	0x3ed54850	0.41656733
97	0x3d8d0229	0.06885178
98	0xbe35b194	-0.17743522
99	0x3ba8d233	0.005152011
100	0xbe37c873	-0.17947559
101	0xbddb07a2	-0.10694815
102	0xbdf48ad8	-0.11940545
103	0xbe897752	-0.26848847
104	0xbe6d4930	-0.2317245
105	0x3e44727c	0.19184297
106	0xbd9c52f5	-0.0763301
107	0xbc5ca211	-0.013466374
108	0xbd890aa1	-0.066914804
109	0x3d1dae79	0.03849647
110	0x3ca67007	0.02031709
111	0x3c927144	0.017876275
112	0xbf3ae17b	-0.73000306
113	0xbd8f44b6	-0.069955274
114	0x3dab5dcf	0.08367502
115	0x3d0cf720	0.034415364
116	0xbddd4e4e	-0.10805951
117	0xbe8f4aca	-0.27986747
118	0xbf3e1caa	-0.7426249
119	0xbe1f2ba9	-0.15543999
120	0x3c792bd3	0.015208202
121	0xbe1e9f8c	-0.1549055
122	0xbd2b96e1	-0.041891936
123	0xbf6fc6f6	-0.93662965
124	0xbe32001e	-0.17382857
125	0xbea7b36d	-0.32754079
126	0x3e33ac40	0.17546177
127	0xbe085e0c	-0.13317126
128	0x3e881595	0.26578966
129	0x3d8e79f1	0.06956852
130	0xbe2fe7bd	-0.17178245
131	0xbe9f858a	-0.3115657
132	0x3dc2ed73	0.09517946
133	0x3d8b0c13	0.06789412
134	0xbe1eee9e	-0.15520713
135	0x3d46c398	0.048526376
136	0xbd068970	-0.032845914
137	0x3d19ff15	0.03759678
138	0x3d3ef6d1	0.0466221
139	0x3e2bd529	0.16780533
140	0xbdcb11d3	-0.09915509
141	0x3d9fe87f	0.07808017
142	0xbe8b29a0	-0.27180195
143	0x3bcfa19f	0.0063364054
144	0x3c7b2424	0.015328441
145	0x3eb945da	0.36186105
146	0xbe227fda	-0.15869084
147	0x3d89bce8	0.06725484
148	0xbe85ee4a	-0.26158363
149	0xbdfe71c2	-0.12424041
150	0x3e003f8b	0.1252424
151	0x3d9d98c9	0.07695157
152	0x3c645fa8	0.013938822
153	0xbd03088b	-0.03199057
154	0x3df80102	0.12109567
155	0x3c930060	0.017944515
156	0xc05ba3da	-3.4318757
157	0x3e05fb63	0.13084178
158	0x3e110de1	0.1416545
159	0xbdfb425e	-0.12268518
160	0x3eb460e5	0.35230175
161	0xb9aefc12	-0.00033375673
162	0xbe73eb84	-0.23820311
163	0x3bfbd14c	0.0076848622
164	0x3d2ea251	0.042635266
165	0x3dd44381	0.10364438
166	0x3d60e8ae	0.0549094
167	0x3d9c31ab	0.07626661
168	0xbe2d1de5	-0.16905935
169	0x3ea66a71	0.32503083
170	0xbdb8e992	-0.09028925
171	0xbf051388	-0.5198293
172	0xbebee332	-0.3728271
173	0x3ec9d3e3	0.3941947
174	0xbe766cb1	-0.240649
175	0x3e74b68a	0.23897758
176	0x3bc39741	0.0059689586
177	0xbf418b50	-0.756032
178	0xbec58ae1	-0.3858252
179	0x3ea51b46	0.3224737
180	0xbed139dd	-0.4086446
181	0xbed4809f	-0.4150438
182	0xbf77a201	-0.96731573
183	0xbe4d25f7	-0.20034014
184	0x3e211097	0.15728985
185	0x3ea73ff1	0.3266597
186	0xbe1a6f38	-0.15081489
187	0x3dae7fa6	0.08520441
188	0xbe1c440e	-0.15260336
189	0xbe902591	-0.2815366
190	0xbe2057db	-0.15658514
191	0x3e7cf739	0.24703683
192	0x3eb1592e	0.3463835
193	0x3ec2f1f8	0.38075233
194	0xbe8759d6	-0.26435727
195	0x3dd04bb9	0.10170693
196	0xbead244b	-0.33816752
197	0xbe2e469a	-0.1701912
198	0xbdbb5b5b	-0.09148284
199	0xbce052b1	-0.02738318
200	0x3ebbf0fd	0.36707297
201	0xbd5294cf	-0.051411446
202	0xbeb271f0	-0.34852552
203	0xbf61d934	-0.8822205
204	0x3d4b36ac	0.049612686
205	0x3e522aa2	0.20524076
206	0x3f158485	0.58405334
207	0xbd8ffb7b	-0.07030388
208	0x3e1dc52b	0.15407245
209	0xbe8cf2e9	-0.27529076
210	0x3d932d64	0.07186392
211	0xbe1e46a5	-0.15456636
212	0x3ec07892	0.37591988
213	0x3ecf6d1f	0.4051294
214	0xbe02004e	-0.12695429
215	0xbde33a72	-0.11095132
216	0xbe1b6eb2	-0.15178946
217	0x3d75cc0b	0.060009044
218	0xbe8607b9	-0.26177767
219	0x3ee33532	0.44376522
220	0x3e01e8bb	0.12686436
221	0xbe9efc49	-0.31051853
222	0x3e82ae4e	0.2552361
223	0x3e82d18c	0.25550497
224	0x3e4e2354	0.20130664
225	0x3e91554e	0.28385395
226	0xbe1f982b	-0.15585391
227	0x3dcadead	0.09905753
228	0xbd9f09e1	-0.07765556
229	0x3e07cad6	0.1326097
230	0xbe8f3ce7	-0.27976152
231	0x3d9bfd33	0.07616653
232	0x3d898c87	0.067162566
233	0xbc4d687d	-0.012537119
234	0x3e237bf5	0.15965255
235	0x3e9ad1ce	0.30238193
236	0xbf133aed	-0.5751179
237	0xbe63dd36	-0.22252354
238	0xbe6ba643	-0.23012643
239	0x3e6e771c	0.23287624
240	0xbc1eb3ea	-0.00968645
241	0xbeaafbf9	-0.33395365
242	0x3eb4294a	0.3518775
243	0xbe27fd39	-0.1640519
244	0x3ebb2e05	0.36558548
245	0xbd7adaee	-0.061243944
246	0x3e559353	0.20856981
247	0xbb9b1a56	-0.004733364
248	0xbd924afe	-0.0714321
249	0x3d73df2d	0.05953901
250	0x3d9218b9	0.07133622
251	0xbe6af29b	-0.22944109
252	0x3ef2f556	0.474528
253	0xbe4b94ad	-0.19880934
254	0x3e83a323	0.257104
255	0x3d6ffb23	0.058589112

conv.2.bias f4 [32]
0	0x3ec12b29	0.3772824
1	0x3cdabaa7	0.02670033
2	0xbeeff889	-0.46869305
3	0xbed8f513	-0.42374477
4	0x3e852530	0.26004934
5	0xbe731e8e	-0.23742124
6	0x3d84c525	0.06482915
7	0xbea31917	-0.3185508
8	0xbe542954	-0.2071889
9	0xbbe60400	-0.00701952
10	0x3e23a2b0	0.15980029
11	0x3aa5849d	0.0012628023
12	0xbe4036ba	-0.18770877
13	0xbdbba383	-0.09162047
14	0x3bff2132	0.0077859396
15	0xbe9e5b7d	-0.30929175
16	0x3dd6b52b	0.10483774
17	0xbc86bc08	-0.016447082
18	0x3d8c9b62	0.068655744
19	0xbf0021e1	-0.50051695
20	0xbdbc8088	-0.09204203
21	0x3eabbd3c	0.33542812
22	0xbf39d5dc	-0.7259195
23	0x3e4e6f2d	0.20159598
24	0xbd35e9b6	-0.044412337
25	0x3e3e47bf	0.18582056
26	0xbe8caea3	-0.27476987
27	0x3d82fde2	0.063960806
28	0xbc01e794	-0.007928748
29	0xbdd9b10a	-0.10629471
30	0xbd0dbb0d	-0.034602214
31	0xbdc4398d	-0.095812894

conv.4.weight f4 [64, 32, 5, 5]
0	0xbdd0227a	-0.10162826
1	0xbd96fc24	-0.07372311
2	0xbc51d90b	-0.012808095
3	0x3ea6791f	0.32514283
4	0x3e03998d	0.12851544
5	0xbe380c5b	-0.17973463
6	0x3d7ca005	0.061676044
7	0x3c55eb29	0.013056555
8	0xbd19677c	-0.037452206
9	0x3e47e7cf	0.19522022
10	0x3d88a879	0.066727586
11	0xbd9024bf	-0.07038259
12	0x3e931474	0.28726542
13	0xbe69ee5f	-0.22844838
14	0x3ccd7e96	0.025084775
15	0xbe5a52e3	-0.21320681
16	0x3e1ac47e	0.15114018
17	0xbe8270b2	-0.25476605
18	0x3f61d148	0.8820996
19	0xbed33822	-0.41253763
20	0x3daa1afb	0.08305927
21	0xbe931c01	-0.28732303
22	0xbdef3c05	-0.1168137
23	0x3cda5d59	0.02665584
24	0xbd8e804c	-0.069580644
25	0xbd90919b	-0.07059022
26	0xbebd3fa6	-0.36962622
27	0xbcb20733	-0.021731948
28	0x3ec0360f	0.37541243
29	0xbe39c1f2	-0.1814039
30	0xbd43ad86	-0.047772907
31	0x3e288842	0.16458228
32	0xbe39a91a	-0.18130913
33	0x3e2c665f	0.16835926
34	0xbce70d5b	-0.02820461
35	0x3ed1c969	0.40973976
36	0xbebe0cfc	-0.3711928
37	0x3e654012	0.22387722
38	0x3f2f9f9f	0.6860294
39	0xbf25a82e	-0.64709747
40	0x3e586f81	0.21136285
41	0x3e29c139	0.16577615
42	0xbc05845b	-0.008149232
43	0x3e920775	0.28521314
44	0x3ef9bf5d	0.4877881
45	0xbe286e86	-0.16448411
46	0x3e8d804d	0.27636948
47	0x3e0e9d03	0.13927083
48	0xbe20dcd2	-0.15709236
49	0x3e84882b	0.25885138
50	0xbe7c260e	-0.24623892
51	0x3dae4714	0.08509651
52	0xbf1fe6f9	-0.6246181
53	0xbec01f0a	-0.3752368
54	0x3e96ce6c	0.29454362
55	0x3e926f94	0.28600752
56	0x3d75239c	0.059848413
57	0xbed087f6	-0.4072873
58	0x3e7acd82	0.24492458
59	0xbfcd28b9	-1.6028053
60	0xbf89f6e2	-1.0778468
61	0x3ecf95d8	0.4054401
62	0xbf550aea	-0.8321978
63	0xbea357bb	-0.3190287
64	0x3e9be5a0	0.30448627
65	0x3e8f824d	0.280291
66	0xbe5f7ba0	-0.21824503
67	0x3f5a7cee	0.8534688
68	0xbbce9fa2	-0.006305651
69	0xbe3568b8	-0.17715728
70	0xbca27595	-0.019831458
71	0x3e220325	0.15821512
72	0xbe47c614	-0.19509155
73	0xbe15fb28	-0.1464659
74	0x3d96d9cb	0.073657595
75	0xbb8b2bd2	-0.004247167
76	0xbdc3e976	-0.095660135
77	0xbe137f21	-0.14403965
78	0xbd80b933	-0.06285324
79	0xbe8d92ad	-0.27650967
80	0xbd0aabf8	-0.03385541
81	0x3e667829	0.22506775
82	0x3d2bcb36	0.041941844
83	0x3f0e2df1	0.5553885
84	0x3d9baa47	0.07600837
85	0xbe9c6c1e	-0.30551237
86	0xbd5c6e8b	-0.05381636
87	0xbf3f2c6b	-0.7467715
88	0xbdf3229c	-0.118718356
89	0x3f87bfd8	1.0605421
90	0x3d94bdf2	0.07262792
91	0x3ea90c69	0.3301728
92	0xbee2eff3	-0.44323692
93	0xbf150912	-0.58216965
94	0xbe0e16e6	-0.13875923
95	0x3eecd225	0.46254078
96	0x3e13ad8b	0.1442167
97	0xbc90e070	-0.017685145
98	0x3efe4ced	0.49668065
99	0xbe9fa0bb	-0.31177315
100	0x3caacae0	0.020848691
101	0x3d4bfc1f	0.04980099
102	0xbe2419bf	-0.16025446
103	0xbe635933	-0.22201996
104	0xbe4f9cef	-0.20274709
105	0x3e1b227e	0.15149876
106	0x3dcefd49	0.10106904
107	0x3e7b9e83	0.24572186
108	0xbdbcf30c	-0.09226045
109	0x3defbf50	0.11706412
110	0xbe38bd91	-0.18041064
111	0x3c002c4e	0.007823063
112	0x3ee5f7a4	0.44915497
113	0x3e0e2d27	0.13884412
114	0x3dee7c7f	0.116448395
115	0xbea1436d	-0.31496754
116	0xbd7c7aad	-0.06164043
117	0x3e913f9c	0.28368843
118	0x3eb69e2a	0.35667545
119	0x3e10f0d6	0.14154372
120	0x3e10db7b	0.14146225
121	0xbe500eec	-0.20318192
122	0x3f0cf06a	0.5505434
123	0x3c85feca	0.016356844
124	0x3e9e0990	0.3086667
125	0x3f86b5b1	1.0524198
126	0x3e9a55f0	0.3014369
127	0xbd7bc8b6	-0.06147071
128	0x3e4bc7ab	0.19900386
129	0xbdabc90a	-0.083879545
130	0x3eb820e3	0.3596259
131	0xbd3f5948	-0.046716005
132	0x3e9c9b07	0.30587026
133	0xbe8085f2	-0.25102192
134	0xbe3d48c3	-0.18484788
135	0x3d9accd3	0.07558598
136	0x3dccd263	0.100010656
137	0xbe36695b	-0.17813627
138	0x3f1854a5	0.5950416
139	0xbe38a01f	-0.18029831
140	0xbf614d88	-0.8800893
141	0x3dbf3cf0	0.09337795
142	0x3d3909d5	0.045175392
143	0xbeea54e3	-0.45767888
144	0xbe759da8	-0.23985922
145	0xbf1271be	-0.57204807
146	0xbe88d720	-0.26726627
147	0x3e955775	0.29168287
148	0x3b8fd010	0.0043888167
149	0xbf22de2f	-0.63620275
150	0xbf032541	-0.5122872
151	0x3ea0ace8	0.31381917
152	0xbeacdabf	-0.3376064
153	0x3ddf49fc	0.10902783
154	0xbeeb6d02	-0.45981604
155	0xbea74a14	-0.32673705
156	0xbec0bfed	-0.37646428
157	0xbe9d3f92	-0.30712563
158	0xbe994d55	-0.29941812
159	0xbe22f6b1	-0.15914418
160	0xbdcfd48d	-0.10147963
161	0x3df6ae62	0.1204498
162	0xbec96df7	-0.3934171
163	0xbcd211fe	-0.025643345
164	0x3fa3f176	1.2808063
165	0x3ebbefc0	0.36706352
166	0x3e0c599c	0.13706058
167	0xbc831cbd	-0.016004914
168	0xbf3b93f0	-0.7327261
169	0x3f2f4100	0.6845856
170	0x3ea62043	0.3244649
171	0xbf0dc304	-0.55375695
172	0x3c988e84	0.018622644
173	0xbe05a5a7	-0.13051473
174	0x3e5d3630	0.21602702
175	0x3b9f9856	0.004870455
176	0x3f0b3f3c	0.54393363
177	0x3e9cf44c	0.30655134
178	0x3e116e21	0.14202167
179	0x3e47be74	0.19506246
180	0xbf508bff	-0.8146362
181	0x3eab7b27	0.33492395
182	0xbe0457c0	-0.12924099
183	0xbe2d324b	-0.16913716
184	0x3ec732cc	0.38905942
185	0xbeaf8bfd	-0.3428649
186	0x3e8522dc	0.26003158
187	0xbbd057a1	-0.0063581024
188	0xbe43b952	-0.19113663
189	0xbe9d83ca	-0.3076461
190	0xbe81c304	-0.25344098
191	0xbe566b38	-0.20939338
192	0x3e55c568	0.20876086
193	0x3e0d1c7a	0.13780394
194	0x3d78a847	0.060707357
195	0x3da96bb5	0.082724966
196	0x3dbbccf0	0.09169948
197	0xbe1ab54c	-0.15108222
198	0xbe970387	-0.2949488
199	0x3d29b62e	0.041433506
200	0xbdb8815a	-0.09009047
201	0x3e0fdc63	0.14048915
202	0xbf0c0a85	-0.5470355
203	0xbf1d2ebc	-0.61399436
204	0x3d3152b4	0.043291762
205	0x3f0a1f14	0.5395367
206	0x3dcae346	0.0990663
207	0x3c8f042b	0.017458042
208	0x3e244d44	0.160451
209	0xbe679eea	-0.22619215
210	0xbd78d885	-0.060753364
211	0xbeb41239	-0.35170153
212	0xbe0bb0de	-0.13641688
213	0xbe75bbd1	-0.23997428
214	0x3db73fee	0.089477405
215	0xbe350cf7	-0.17680727
216	0x3e88337a	0.26601774
217	0xbb54588a	-0.0032401406
218	0x3e72eaa7	0.23722325
219	0xbdffb1cb	-0.12485083
220	0xbe83a9de	-0.25715536
221	0x3eb7f84c	0.35931623
222	0xbefb9bce	-0.49142307
223	0x3dbdbbe0	0.0926435
224	0xbb9c33d1	-0.004766919
225	0xbe106598	-0.14101255
226	0x3d6f7124	0.05845751
227	0x3d6147fc	0.05500029
228	0x3e13471d	0.14382596
229	0x3e03ea7c	0.12882417
230	0x3caf6de9	0.021414714
231	0xbe7e478b	-0.24831979
232	0xbe96092b	-0.2930387
233	0x3f319b23	0.69377345
234	0xbdc83840	-0.09776354
235	0xbea3a181	-0.31959155
236	0xbeb21caa	-0.34787494
237	0x3e837c21	0.2568064
238	0xbd42b829	-0.04753891
239	0x3e815a17	0.25264046
240	0x3ea2b31d	0.31777278
241	0x3e692d91	0.22771288
242	0xbd957dbb	-0.07299372
243	0x3db52259	0.08844442
244	0x3c5a1c18	0.013312362
245	0x3e7d86f6	0.24758515
246	0x3eac23e3	0.3362113
247	0xbe4a05c8	-0.19728768
248	0xbd0a8c4f	-0.033825215
249	0x3dc01ca3	0.09380462
250	0xbc8290cd	-0.015938187
251	0x3dcaa641	0.09894992
252	0xbf0c746f	-0.54865164
253	0x3da5b121	0.08090425
254	0x3e5d51fb	0.21613304
255	0xba075deb	-0.0005163836

conv.4.bias f4 [64]
0	0xbf05ea9f	-0.5231113
1	0xbec689b8	-0.38776946
2	0xbe58fb6c	-0.2118966
3	0xbb34aff2	-0.0027570692
4	0xbf2a8d10	-0.66621494
5	0xbe8f5897	-0.27997276
6	0xbda1754e	-0.07883702
7	0xbe985f69	-0.29760292
8	0x3eaaf52b	0.33390173
9	0xbe987b9e	-0.29781812
10	0x3e3d6490	0.18495393
11	0xbd4abf45	-0.049498815
12	0xbe9be7e3	-0.30450353
13	0xbd2ca76a	-0.042151846
14	0xbefafb82	-0.4902001
15	0xbe9633b4	-0.2933632
16	0xbce20c2c	-0.027593695
17	0xbf0014cd	-0.5003174
18	0xbc57af3f	-0.0131643405
19	0xbed58577	-0.41703388
20	0xbdfd3890	-0.12364304
21	0xbf25fca4	-0.64838624
22	0xbd4180e8	-0.047242075
23	0xbe944d45	-0.28965202
24	0xbf0b0b2a	-0.5431391
25	0x3f2a4ff1	0.6652823
26	0xbd7cf4b8	-0.06175682
27	0xbe073b83	-0.13206296
28	0xbceab95c	-0.02865284
29	0xbe6b5bad	-0.2298419
30	0xbe4bc5a3	-0.19899611
31	0xbe6a99f8	-0.22910297
32	0xbee72199	-0.4514282
33	0xbe0572e7	-0.13032113
34	0xbe8acefd	-0.27111045
35	0x3dacf29d	0.08444712
36	0x3e219d46	0.15782651
37	0xbe7b80a3	-0.2456079
38	0xbf008020	-0.50195503
39	0xbd78b238	-0.060716838
40	0x3d6dd39e	0.058063142
41	0xbe81cb39	-0.2535036
42	0xbecb5a2f	-0.39717242
43	0xbeaaa8e6	-0.33331984
44	0xbe6f6556	-0.233785
45	0xbd275136	-0.040848933
46	0xbedb3c8e	-0.42819637
47	0x3f04355b	0.51643914
48	0xbd3dcdeb	-0.046338957
49	0xbca9f0ab	-0.020744642
50	0xbea4485d	-0.3208646
51	0x3c22e01a	0.009941125
52	0x3f04c172	0.51857674
53	0x3ed92670	0.42412138
54	0xbe3d39d8	-0.18479097
55	0xbe0b9a44	-0.13633066
56	0x3d1302f2	0.03589148
57	0xbee97b4f	-0.4560189
58	0xbeb1c82c	-0.34723032
59	0xbf044f95	-0.5168393
60	0x3f45f84e	0.7733201
61	0xbd1f3e7c	-0.03887795
62	0xbefec3e8	-0.4975884
63	0xbd9ae449	-0.07563073

conv.7.weight f4 [64, 256]
0	0x3c55fe65	0.013061141
1	0x3e9964ea	0.29959804
2	0xbe03924f	-0.12848781
3	0xbdb9f5fc	-0.09080121
4	0x3e912e21	0.28355506
5	0x3cde3923	0.027126854
6	0x3e87df4a	0.26537544
7	0xbdaecc73	-0.08535089
8	0xbf05bce0	-0.52241325
9	0x3b6504a4	0.0034945393
10	0x3d505047	0.05085781
11	0xbca27ba7	-0.019834353
12	0xbd7baebe	-0.061445944
13	0x3cffeba0	0.031240284
14	0x3bf9c810	0.0076227263
15	0x3d237428	0.039905697
16	0xbd5bd1ff	-0.053667065
17	0x3e93b200	0.2884674
18	0x3ef048f0	0.46930647
19	0xbd7a337c	-0.061084256
20	0x3ec63055	0.3870875
21	0x3d8dfa3b	0.06932493
22	0x3e8d4f46	0.27599543
23	0x3eb5bcff	0.35495755
24	0xbdcdd167	-0.10049706
25	0x3d708d0a	0.058728255
26	0xbe5ad337	-0.21369635
27	0xbc8cda3b	-0.017193904
28	0x3e61c5a8	0.22048056
29	0x3e913e65	0.28367916
30	0x3e99f01b	0.30065998
31	0x3e4f69fa	0.2025527
32	0xbce21ed4	-0.02760259
33	0xbf1de2b7	-0.61674064
34	0xbdd882d5	-0.10571829
35	0xbe9da6dc	-0.30791366
36	0xbe14786a	-0.1449906
37	0x3e80f673	0.25188026
38	0xbe401b00	-0.187603
39	0x3d892d3b	0.0669808
40	0xbd008f33	-0.031386565
41	0x3eb9c087	0.362797
42	0xbe77e330	-0.24207759
43	0xbdad42cd	-0.08460007
44	0x3cbf9254	0.023385204
45	0x3c869d58	0.01643245
46	0x3d00d19e	0.031449907
47	0xbced6f10	-0.028983623
48	0xbd86f25f	-0.06589197
49	0x3ec6cbbd	0.38827315
50	0xbdcff8bb	-0.101548634
51	0x3e209a3d	0.15683837
52	0xbd5a293c	-0.05326198
53	0x3d39d05e	0.04536473
54	0x3c192df8	0.009349339
55	0xbd11ca18	-0.035593122
56	0x3be58293	0.007004091
57	0x3f3264f2	0.6968528
58	0xbe721e25	-0.23644312
59	0x3e0b930e	0.13630316
60	0x3e9740e0	0.29541683
61	0x3eaa7b02	0.33296973
62	0xbea8334d	-0.3285164
63	0x3db638b5	0.08897535
64	0xbd5563e0	-0.0520972
65	0xbcb55e9c	-0.02213984
66	0xbaa98340	-0.0012932792
67	0x3d1fe8d6	0.03904041
68	0xbe4fe767	-0.20303117
69	0xbe67ad7f	-0.22624777
70	0xbe0b76e8	-0.13619578
71	0x3defe8c9	0.11714322
72	0xbc678c01	-0.014132501
73	0x3cd23886	0.025661718
74	0xbebdf1e6	-0.37098616
75	0xbd9c94a6	-0.0764554
76	0xbe93e628	-0.28886533
77	0xbe4e5acc	-0.20151824
78	0x3e0b9f92	0.1363509
79	0xbead02cb	-0.33791193
80	0x3d7d7bcc	0.06188564
81	0x3c194bc9	0.0093564475
82	0xbdc17619	-0.094463535
83	0xbe82bb86	-0.25533694
84	0x3ec60933	0.38678893
85	0xbcfa5376	-0.030557375
86	0x3e762fc5	0.2404166
87	0xbd8f5fb2	-0.07000674
88	0xbd5c4432	-0.053775974
89	0x3c8cf928	0.01720865
90	0x3b2bf780	0.002624005
91	0xbd5e5958	-0.054284424
92	0x3d9d88fc	0.07692143
93	0x3e87809a	0.26465303
94	0x3e072095	0.13196023
95	0x3d60f92f	0.05492514
96	0x3d0fe267	0.035128023
97	0x3da13804	0.07872012
98	0x3cc21373	0.023690915
99	0x3eb48188	0.35255075
100	0xbdce4ab4	-0.10072842
101	0x3dfd68d9	0.12373514
102	0xbdecdb37	-0.115652494
103	0x3e464e82	0.19365886
104	0x3cb470b8	0.022026405
105	0x3d76f94e	0.06029635
106	0x3cc8cff8	0.02451323
107	0xbc33b528	-0.010968484
108	0xbd864046	-0.06555228
109	0x3d1eb8fa	0.038750626
110	0x3bdccb54	0.006738106
111	0x3dff9a2d	0.124805786
112	0x3d34f95a	0.044183113
113	0x3c56ac50	0.013102606
114	0x3a81a980	0.0009892434
115	0x3ca38844	0.019962437
116	0x3de57883	0.112046264
117	0xbeca77fa	-0.3954466
118	0x3b0bae66	0.0021313666
119	0x3e4fcc29	0.20292725
120	0xbe957fa9	-0.2919896
121	0xbd633852	-0.055473633
122	0x3d8b4e2b	0.06802019
123	0x3d43bd15	0.047787745
124	0xbc958c07	-0.018255247
125	0xbdcbd5e7	-0.09952908
126	0x3e43136f	0.19050382
127	0xbc446c29	-0.011988678
128	0x3eb6bec2	0.35692412
129	0x3e854240	0.26027107
130	0x3dc06715	0.09394661
131	0x3f2a32d0	0.66483784
132	0x3e9db5c0	0.30802727
133	0x3e40f470	0.18843246
134	0x3ccd40a8	0.025055245
135	0x3d02968e	0.03188186
136	0x3e91b5a0	0.2845888
137	0x3e7d1b3b	0.24717419
138	0x3ede167c	0.4337653
139	0x3db6183d	0.08891342
140	0x3e43e5f7	0.19130693
141	0x3d8b8ab0	0.06813562
142	0xbf12b586	-0.5730823
143	0xbd657b2e	-0.056025676
144	0x3ea10179	0.31446436
145	0x3f02ee34	0.5114472
146	0xbf5672c4	-0.8376887
147	0xbd1f63bd	-0.038913477
148	0xbd9f80fc	-0.07788274
149	0x3cc70bec	0.024297677
150	0xbe3bed4b	-0.18352239
151	0xbc9ee829	-0.019397812
152	0xbecd1c99	-0.4006088
153	0x3ea51637	0.3224351
154	0x3da9c4bd	0.08289478
155	0x3e057014	0.13031036
156	0xbd2ca6de	-0.042151324
157	0xbd173db6	-0.036924087
158	0x3ccf1864	0.025280185
159	0x3b22bf80	0.0024833381
160	0x3e2d5546	0.1692706
161	0xbd3bb0a3	-0.04582275
162	0xbea36e00	-0.3191986
163	0x3d920b98	0.071311176
164	0x3d7ee831	0.062233154
165	0xbe174e3e	-0.14775941
166	0x3daf5d8f	0.08562767
167	0x3ced2774	0.028949477
168	0xbdc9b784	-0.09849456
169	0x3e8fcf52	0.2808786
170	0x3e3b66fd	0.18301006
171	0x3eb4a34d	0.3528084
172	0x3e3501f6	0.1767653
173	0x3e6872e9	0.22700085
174	0xbdcd0a9e	-0.10011791
175	0x3d5581bb	0.052125674
176	0xbe0c7687	-0.1371709
177	0xbe7a5db9	-0.24449815
178	0x3e3ab73b	0.1823396
179	0xbe72b56f	-0.23702024
180	0x3d5ab342	0.05339361
181	0x3d79d2d2	0.06099207
182	0x3cbeae24	0.023276396
183	0xbd053d20	-0.032528996
184	0xbe5d5583	-0.21614651
185	0x3e169423	0.14704947
186	0x3de89b63	0.11357763
187	0x3e9489e9	0.29011467
188	0xbcbfba04	-0.023404129
189	0xbdcdc355	-0.10047022
190	0xbc9ab1bc	-0.018883578
191	0xbd241a85	-0.040064353
192	0x3d0cf930	0.03441733
193	0x3d153192	0.036424227
194	0xbd206d80	-0.039166927
195	0xbbd2e310	-0.0064357594
196	0x3d186814	0.03720863
197	0xbcbf86f4	-0.02337978
198	0xbd40063c	-0.046880946
199	0x3c1f53c0	0.009724557
200	0x3f014b57	0.50505584
201	0x3d4198cc	0.04726486
202	0x3e28c1b6	0.16480145
203	0xbe38969a	-0.180262
204	0xbd7e356e	-0.062062673
205	0xbcfdcf04	-0.030982502
206	0x3d0611ca	0.03273181
207	0x3d6d4014	0.057922438
208	0x3d1e0e68	0.038587958
209	0xbe1b8c2a	-0.15190187
210	0x3e931d71	0.287334
211	0xbdcb55de	-0.09928487
212	0x3e824863	0.25445852
213	0xbe797cab	-0.24363963
214	0xbd01c28e	-0.031679682
215	0xbd4b7986	-0.04967644
216	0xbc5479f0	-0.012968525
217	0xbe50bc08	-0.20384228
218	0x3cd1288f	0.025532035
219	0x3babab61	0.005238936
220	0xbe3c7c71	-0.18406846
221	0xbed1e86d	-0.4099764
222	0xbeb902e1	-0.3613501
223	0xbd9fdc1b	-0.07805654
224	0xbeb71647	-0.35759184
225	0xbdc4a287	-0.09601312
226	0xbcf68a38	-0.030095205
227	0x3d896e14	0.06710449
228	0x3d215f48	0.039397508
229	0xbea6db72	-0.32589298
230	0x3ebe3c71	0.37155488
231	0x3f31d99a	0.6947266
232	0x3dc3b1e3	0.095554136
233	0x3e32c5ea	0.1745831
234	0x3e93eb6b	0.28890547
235	0xbdba520d	-0.09097681
236	0xbe419b13	-0.18906812
237	0x3ef781d8	0.4834125
238	0xbe770ba2	-0.24125531
239	0xbd98fdef	-0.07470309
240	0xbe86638b	-0.2624782
241	0x3ed6bdff	0.4194183
242	0xbd6b1df7	-0.057401624
243	0x3ec8aae4	0.3919288
244	0x3d074d53	0.033032726
245	0x3de6dc53	0.11272492
246	0xbeb002af	-0.34377047
247	0xbd225565	-0.03963222
248	0xbdcd1dab	-0.10015424
249	0xbb232380	-0.0024892986
250	0xbe27492c	-0.16336507
251	0x3d341543	0.04396559
252	0xbec850e1	-0.39124206
253	0x3e60434c	0.21900672
254	0x3e389212	0.18024471
255	0xbecfbdaa	-0.4057439

conv.7.bias f4 [64]
0	0xbe6a86e4	-0.22903019
1	0x3f567127	0.83766407
2	0x3f0bdc93	0.54633445
3	0x3ee58df0	0.44834852
4	0x3f87e9dd	1.0618244
5	0x3f4d79b5	0.80263835
6	0xbed02e1d	-0.40660182
7	0x3f2f83d9	0.6856056
8	0x3d37c024	0.044860974
9	0x3ea5e771	0.32403138
10	0xbeddddd9	-0.4333332
11	0x3eca0481	0.3945656
12	0x3f5d4512	0.8643352
13	0x3f641fd5	0.8911107
14	0x3f622bbd	0.8834799
15	0xbf72cc74	-0.9484322
16	0x3f2363e7	0.63824314
17	0x3f234985	0.63784057
18	0x3fae5950	1.3621006
19	0x3f00a837	0.50256675
20	0x3eda3ab5	0.42622915
21	0x3e0df092	0.13861302
22	0x3f3f9ff8	0.7485347
23	0x3f204870	0.6261053
24	0x3e97fa0e	0.29682964
25	0x3dd985d0	0.10621226
26	0xbefef2cb	-0.4979461
27	0x3ed654d4	0.41861594
28	0x3efb91b8	0.49134612
29	0x3dc5a41d	0.09650443
30	0x3f0beff4	0.54663014
31	0x3e47cb1e	0.19511077
32	0xbe88a642	-0.26689345
33	0x3f1d7404	0.6150515
34	0x3e06d1b3	0.13165931
35	0x3ab7ab19	0.0014012783
36	0x3e1d6393	0.15370016
37	0xbf0f81a4	-0.5605719
38	0xbec156af	-0.37761447
39	0x3e17f7a8	0.14840567
40	0x3e8af490	0.2713971
41	0x3e0bad2b	0.13640277
42	0x3f019f01	0.50633246
43	0x3e710cf1	0.23540093
44	0x3f0b9240	0.54520035
45	0x3e1f7f26	0.15575847
46	0x3f885ac7	1.0652703
47	0x3e896e47	0.26841947
48	0x3ea28f1d	0.31749812
49	0x3eb89568	0.36051488
50	0xbec7f9c8	-0.39057755
51	0x3e78877c	0.24270433
52	0x3e68ddbf	0.2274084
53	0xbb2ce274	-0.0026380094
54	0x3f2f1334	0.68388677
55	0xbe381c46	-0.17979535
56	0x3e8f419d	0.27979746
57	0xbe5926a9	-0.21206154
58	0x3f864f5a	1.0492966
59	0x3d36f602	0.044668205
60	0x3f4ff0c3	0.8122675
61	0xbe879ce9	-0.264869
62	0x3f2726f8	0.65293837
63	0x3e69b29a	0.22822037

out.weight f4 [4, 64]
0	0x3d9b22ac	0.075749725
1	0x3de91e43	0.11382725
2	0x3cd9b3a6	0.02657492
3	0x3d59d5d1	0.053182427
4	0x3e0dd36c	0.13850182
5	0x3d62edcf	0.055402573
6	0x3c867c98	0.016416833
7	0x3cd61f03	0.026137834
8	0x3bcddf08	0.006282691
9	0x3b0ea1ba	0.0021763877
10	0x3da5bd1b	0.0809271
11	0x3da5a08e	0.08087264
12	0x3d24d0f4	0.040238336
13	0xbd08df19	-0.033415888
14	0xbceb7a34	-0.028744794
15	0x3c6ceb7d	0.014460442
16	0xbf31f816	-0.69519174
17	0x3cc2eba8	0.02379401
18	0x3f015eca	0.5053526
19	0x3b4f9a34	0.0031677606
20	0xbcf20041	-0.029541137
21	0x3c896586	0.016772043
22	0x3dd99d4c	0.10625705
23	0x3bcc03b9	0.0062260297
24	0xbd155a97	-0.036463346
25	0xbc84f030	-0.016227812
26	0x3e2e8326	0.17042217
27	0x3dc67122	0.09689547
28	0x3d06fa78	0.03295371
29	0xbd9480ef	-0.07251155
30	0x3d3dd392	0.046344347
31	0xbd753bb4	-0.05987139
32	0xbc9bd9d6	-0.01902477
33	0x3cbde658	0.023181126
34	0x3d7199f6	0.05898472
35	0xbd76326f	-0.06010669
36	0x3d584c8e	0.052807383
37	0xbd696b4f	-0.056987103
38	0xbcb0e535	-0.02159367
39	0xbda3e440	-0.080025196
40	0x3dad8edf	0.08474516
41	0x3cb63305	0.022241125
42	0x3c6c880b	0.014436732
43	0xbd3564bf	-0.044285532
44	0xbfc62ce6	-1.5482452
45	0xbfe80ef4	-1.8129563
46	0xbcc78c53	-0.024358904
47	0xbfe3dbf8	-1.7801504
48	0xbf3cdd91	-0.73775584
49	0xbb8d083e	-0.004303961
50	0x3ddc8df3	0.10769262
51	0x3b9f78f7	0.004866715
52	0xbd8d144d	-0.06888638
53	0x3d3b05d2	0.045659848
54	0xbdf7e0f6	-0.12103455
55	0x409fa59c	4.988966
56	0x3d8dc84c	0.06922969
57	0x3d38f92e	0.04515951
58	0x3cb348ca	0.021885294
59	0xbd975117	-0.073885135
60	0xbdd4c740	-0.103895664
61	0x3cd06158	0.025437042
62	0x3d6f100b	0.05836491
63	0xbce98f25	-0.02851064
64	0xbce1f196	-0.027581017
65	0x3d28022b	0.041017693
66	0x3cf22e92	0.029563222
67	0x3c9442c4	0.018098243
68	0x3e34fbec	0.17674226
69	0x3d8365a5	0.064158715
70	0x3df4c208	0.11951071
71	0xbe17e383	-0.14832883
72	0xbe92f632	-0.28703457
73	0x3dd41636	0.10355799
74	0x3dc86b65	0.09786109
75	0x3d472b67	0.048625376
76	0x3d5a0086	0.053223155
77	0x3d7c598b	0.061608832
78	0xbba8f6b6	-0.0051563634
79	0x3d482601	0.04886437
80	0xbb58de98	-0.003309166
81	0x3d1867c5	0.037208337
82	0x3f007c0d	0.50189286
83	0xbf9c7d2f	-1.2225703
84	0xbf3bfbf4	-0.73431325
85	0x3e00c52a	0.12575212
86	0x3d88d193	0.06680598
87	0xbd69e902	-0.05710698
88	0xbf1248fc	-0.57142615
89	0x3b147856	0.0022654734
90	0x3c63773e	0.01388341
91	0x3db19bb6	0.08672278
92	0xbf739b17	-0.95158523
93	0xbe383708	-0.17989743
94	0xbc5c5ef1	-0.01345037
95	0x3d67d733	0.056601714
96	0xbd2dec17	-0.04246148
97	0x3dd884fd	0.105722405
98	0xbd8848b0	-0.06654489
99	0x3cc8a2d0	0.024491698
100	0x3c1d87b6	0.009614876
101	0xbc1c6ee4	-0.009547923
102	0xbd41258a	-0.04715494
103	0x3c821d60	0.015883148
104	0xbc29cd00	-0.010363817
105	0xbd8c96b7	-0.06864684
106	0xbd9be007	-0.07611089
107	0xbd954725	-0.0728896
108	0x3d80ac68	0.06282884
109	0xbccab242	-0.024743203
110	0xbd91f636	-0.07127039
111	0x3bcb7311	0.0062087853
112	0xbd7e70ac	-0.06211917
113	0x3e1133c3	0.14179902
114	0xbd1219a5	-0.035668988
115	0x3daa3219	0.083103366
116	0x3c0a6e8b	0.008449207
117	0x3d3cdf23	0.046111237
118	0x3c7f9073	0.015598404
119	0x3b15fb90	0.0022885539
120	0xbc69d581	-0.014272095
121	0xbdab69bd	-0.08369777
122	0x3b63c218	0.003475314
123	0x3dc9a332	0.0984558
124	0x3cd125be	0.025530692
125	0xbd008310	-0.03137499
126	0xbdc76010	-0.09735119
127	0xbd628ecc	-0.055311963
128	0xbbdfa8aa	-0.0068255262
129	0x3cc4239c	0.023942761
130	0xbfb1e46d	-1.3897835
131	0xba7a0858	-0.00095379865
132	0xbbe2e805	-0.0069246315
133	0x3d4ec6fa	0.050482728
134	0xbe2333fe	-0.15937802
135	0xbd040f75	-0.032241303
136	0x3d858f12	0.06521429
137	0x3cd06ddd	0.025443012
138	0xbd07049a	-0.032963373
139	0x3dd3e537	0.10346454
140	0x3d581f75	0.052764375
141	0x3d651c97	0.05593547
142	0x3cb63be1	0.02224535
143	0xbdd63373	-0.10459032
144	0x3c56835c	0.013092842
145	0x3e00ce13	0.12578611
146	0x3f04bf9e	0.51854885
147	0x3d3dd6fe	0.04634761
148	0xbc788977	-0.015169493
149	0x3ca7f2a7	0.020501448
150	0x3dbe97ab	0.09306272
151	0xbc8c3a43	-0.017117625
152	0xb9fc775b	-0.00048154112
153	0xbf9a26e4	-1.2043118
154	0xbcc1ec64	-0.02367229
155	0xbd466b99	-0.048442457
156	0xbd78d00d	-0.060745288
157	0x3d837c21	0.0642016
158	0x3df02bc4	0.11727098
159	0x3d2e5bb4	0.042567924
160	0xbcef2e21	-0.0291968
161	0x3d2f15cb	0.042745393
162	0x3dad1042	0.084503666
163	0x403f4d55	2.989095
164	0x3d0320d4	0.03201373
165	0xbc5079bd	-0.012724337
166	0xbd6564a6	-0.05600419
167	0xbcbacba6	-0.022802185
168	0xbdb1c643	-0.086803935
169	0xc006c958	-2.106039
170	0xbe7d2e93	-0.24724798
171	0x3c94447d	0.018099064
172	0x3be727f3	0.007054323
173	0x3d6573cc	0.056018636
174	0xbe80bf68	-0.2514603
175	0xbd704146	-0.058656
176	0xbce43a94	-0.027859963
177	0xc00dd3de	-2.2160563
178	0x3e506834	0.2035225
179	0xbdd09936	-0.10185473
180	0x3ce736ae	0.028224315
181	0xbd815b02	-0.063161865
182	0x3dfab90c	0.12242326
183	0xba4b3475	-0.0007751652
184	0x3cd294d0	0.025705725
185	0x406ce3b4	3.701398
186	0x3e129e32	0.14318159
187	0xbd59ceb9	-0.05317566
188	0x3d0a1090	0.0337072
189	0xbdfa361e	-0.12217353
190	0x3c0c5007	0.008564002
191	0xbfa9eae9	-1.3274814
192	0x3dafea96	0.085896656
193	0x3c37c1ea	0.011215666
194	0x3c95fca1	0.01830894
195	0x3daf2a36	0.08552973
196	0x3dd038da	0.101670936
197	0xbd4d0934	-0.050057605
198	0xbf71cbfe	-0.9445189
199	0x3d93b081	0.072114
200	0xbd8a5952	-0.06755318
201	0xbccab5dc	-0.02474492
202	0x3d60cb69	0.054881487
203	0x3d883b3c	0.06651923
204	0x3c9db160	0.019249618
205	0x3d672a1b	0.05643664
206	0x3d396f13	0.045271944
207	0xbcd0a5e5	-0.02546973
208	0x3b7f2431	0.0038931484
209	0x3d5193ee	0.051166467
210	0x3f015a63	0.50528544
211	0x3dbc57a3	0.09196403
212	0x3d194409	0.0374184
213	0xbeb30844	-0.34967244
214	0x3dae167e	0.08500384
215	0x3d9d4606	0.076793715
216	0xbbaf0a5b	-0.0053418106
217	0xbcbb6f71	-0.022880288
218	0xbcbb216d	-0.022843087
219	0x3d478a56	0.04871591
220	0xbd9e35b9	-0.077250905
221	0xbf8005dd	-1.0001789
222	0xbfcb1b93	-1.586779
223	0xbd4129c1	-0.04715896
224	0x408c4556	4.383464
225	0xbd941615	-0.07230774
226	0xbe8e6a67	-0.27815554
227	0xba55610f	-0.0008139768
228	0x3e27e4ed	0.16395922
229	0x3d06683e	0.032814257
230	0x3d3eada2	0.046552308
231	0xbfac4d86	-1.3461158
232	0xbfb4d388	-1.4127054
233	0xbd0ab887	-0.033867385
234	0xbe5b387f	-0.2140827
235	0xbfa013cb	-1.250604
236	0x3dbc4299	0.0919239
237	0xbd8abc8c	-0.06774244
238	0xbef0af84	-0.47008908
239	0xbce9c400	-0.028535843
240	0x3d6ea01d	0.058258165
241	0x3c29aa48	0.01035554
242	0xbd3abe0d	-0.045591403
243	0x3d4a9b0b	0.049464267
244	0x3da05fd4	0.07830778
245	0xbe531370	-0.20612884
246	0x3b5ac8b5	0.003338379
247	0xbd3cba10	-0.04607588
248	0x3d9e98eb	0.077440105
249	0xbcdf8641	-0.027285697
250	0x3d1ab065	0.03776588
251	0xbc261edc	-0.010139193
252	0x3ce54899	0.027988719
253	0x3e1004c5	0.1406432
254	0xbcd2e85a	-0.02574556
255	0x3d9d324c	0.07675609

out.bias f4 [4]
0	0x3f8af407	1.0855721
1	0x3f9439b5	1.1580111
2	0x3f84c9a4	1.0374036
3	0x3f86b1f3	1.0523056
