models/v17.1/model_261500_target.pth (torch, 295191 bytes, 10 tensors)

conv.0.weight f4 [16, 2, 3, 3]
0	0x3e047727	0.12936078
1	0x3d09674c	0.033545777
2	0xbe57eef3	-0.21087246
3	0x3e94e287	0.29079077
4	0xbe133864	-0.1437698
5	0x3e143f19	0.14477195
6	0xbeb5598c	-0.3541988
7	0x3ec45c23	0.38351545
8	0x3db98ee3	0.090604566
9	0xbc65b45e	-0.014020054
10	0x3d192a09	0.037393603
11	0xbcf448e5	-0.029819915
12	0xbd7a38c9	-0.06108931
13	0x3de5953e	0.11210106
14	0xbc52d2f2	-0.012867676
15	0xbc481b4c	-0.012213539
16	0x3d475469	0.048664484
17	0xbab9367f	-0.0014130621
18	0xbe340440	-0.17579746
19	0x3e88ae75	0.266956
20	0x3ccb6c2f	0.02483186
21	0x3e6cb5b7	0.23116194
22	0xbe2f811e	-0.17139098
23	0x3e59957a	0.21248427
24	0xbf558423	-0.8340475
25	0xbf0d7ab3	-0.5526535
26	0xbdeffc24	-0.11718014
27	0xbf84de6c	-1.0380378
28	0x3f2a6e0c	0.6657417
29	0xbfa28250	-1.2696018
30	0x3e54a71b	0.2076687
31	0xbe2fb4d0	-0.17158818
32	0x3e632bf8	0.22184741
33	0xbceeb483	-0.02913881
34	0xbb238e37	-0.0024956593
35	0x3dd9ef6b	0.106413685
36	0x3cbb46b3	0.02286086
37	0x3e60dc10	0.21958947
38	0x3dd1d183	0.10245039
39	0xbd81e56f	-0.06342589
40	0x3e8977e4	0.26849282
41	0xbda7c3f5	-0.08191673
42	0x3e8d6550	0.27616358
43	0x3e2076a5	0.1567026
44	0x3dca876f	0.09889113
45	0x3d8caec6	0.06869273
46	0x3e1e9ab6	0.15488705
47	0x3cfa9d68	0.030592635
48	0x3e62cfcf	0.22149585
49	0xbd0a251f	-0.033726808
50	0xbfb8d8a3	-1.4441112
51	0xbd1d5361	-0.038409594
52	0xbea08db0	-0.313581
53	0x3d5ca692	0.05386979
54	0x3bcf20b9	0.0063210395
55	0x3d8d1ac6	0.06889872
56	0x3d30e090	0.04318291
57	0x3e02272d	0.12710257
58	0x3e1fb884	0.15597731
59	0xbf33548c	-0.70050883
60	0xbecaff45	-0.3964788
61	0xbec2524a	-0.37953407
62	0x3e3e6025	0.18591364
63	0xbd1c8557	-0.0382131
64	0x3b1429b7	0.0022607872
65	0xbce302ec	-0.027711354
66	0x3eaa5718	0.33269572
67	0xbdbbd33f	-0.09171151
68	0xbf7b6426	-0.9819969
69	0xbe86f17d	-0.26356116
70	0x3ec23c5f	0.37936684
71	0x3e0be1da	0.13660374
72	0x3e7a7c0a	0.2446138
73	0xbde73e44	-0.11291173
74	0xbe0a01a9	-0.13477196
75	0xbf9364c4	-1.1515126
76	0xbe127372	-0.14301851
77	0x3e0bd7dc	0.13656563
78	0x3d5b9b7e	0.053615086
79	0x3f035afb	0.513107
80	0xbf90018c	-1.1250472
81	0xbe9974a2	-0.29971796
82	0x3e7726f9	0.2413596
83	0xbed86ba2	-0.42269617
84	0x3e6954e8	0.22786295
85	0xbc4d5458	-0.012532316
86	0x3e44731d	0.19184537
87	0x3cfd7996	0.030941766
88	0xbd8949db	-0.0670354
89	0x3cb70a17	0.022343678
90	0xbd207bd3	-0.039180588
91	0xbe304a7b	-0.17215912
92	0x3ee68d20	0.45029545
93	0x3e93b3d1	0.28848127
94	0xbdd1943a	-0.1023335
95	0xbde65434	-0.11246529
96	0x3f2a960e	0.66635215
97	0xbedb34f9	-0.42813852
98	0x3ec035bf	0.37541005
99	0xbe8831ab	-0.26600394
100	0xbd79b896	-0.06096705
101	0x3dbaed9e	0.09127353
102	0x3d889add	0.06670163
103	0xbec252fb	-0.37953934
104	0xbdc83eaa	-0.09777577
105	0xbb048ecf	-0.0020226722
106	0xbe0bd5d1	-0.13655783
107	0xbe9d66e2	-0.30742556
108	0xbf737e45	-0.95114547
109	0xbdbc34e1	-0.09189773
110	0x3eb2ad3f	0.348978
111	0x3e5bbf8c	0.21459788
112	0x3db06a9e	0.086140856
113	0xbf93ca4b	-1.154611
114	0xbe9dc73c	-0.30816066
115	0x3e119603	0.14217381
116	0xbe5f9b9b	-0.21836703
117	0xbdad5f82	-0.08465482
118	0xbd06202d	-0.03274553
119	0xbdf52bba	-0.11971231
120	0x3dccb199	0.099948116
121	0xbc901407	-0.017587675
122	0x3d2ca507	0.04214957
123	0xbf386e27	-0.7204308
124	0xbe08e41f	-0.13368271
125	0xbe0d5f49	-0.1380588
126	0x3e859128	0.26087308
127	0xbe4fb088	-0.20282185
128	0x3f0b7326	0.5447258
129	0xbdc47ea3	-0.095944665
130	0x3e895668	0.26823735
131	0x3de7534d	0.11295185
132	0x3d2e514b	0.042557996
133	0x3ebf5b22	0.37374216
134	0xbd8f3e79	-0.069943376
135	0xbfce4bc2	-1.611687
136	0xbf457a25	-0.771395
137	0xbf5da52a	-0.86580145
138	0x3dea4593	0.114390515
139	0x3d3d36de	0.046194904
140	0xbdab01ef	-0.08349978
141	0xbe3a158a	-0.18172279
142	0x3e045d31	0.12926175
143	0x3aec148a	0.0018011492
144	0x3a396276	0.0007071862
145	0x3dc8e0ca	0.098085
146	0x3d223b10	0.039607108
147	0x3ebfffbb	0.37499794
148	0x3d8b639d	0.06806109
149	0xbe3161f4	-0.17322522
150	0x3e663a13	0.22483091
151	0xbed93abf	-0.42427632
152	0x3d0ee8b7	0.034889903
153	0xbec28de7	-0.37998888
154	0x3f086744	0.5328257
155	0xbef14950	-0.47126245
156	0x3d6fb33e	0.058520548
157	0x3e7992de	0.24372432
158	0x3cf4ca94	0.029881753
159	0xbea06865	-0.31329647
160	0x3edbd80e	0.42938274
161	0x3cd9f120	0.026604235
162	0x3c9cf2bd	0.019158715
163	0xbd17a266	-0.03702011
164	0x3dcfa767	0.10139351
165	0x3cc449f7	0.02396105
166	0xbe1ab7f0	-0.15109229
167	0x3e834b79	0.2564352
168	0x3ea1a2a1	0.31569389
169	0xbdc3ff23	-0.09570148
170	0xbe2dd790	-0.16976762
171	0xbd5728c5	-0.052529115
172	0x3e4f0daf	0.20220064
173	0xbe0cee41	-0.13762762
174	0xbfd4ef16	-1.6635463
175	0xbc898312	-0.016786132
176	0xbdc310f8	-0.09524721
177	0x3e5a40e4	0.21313816
178	0x3eae6128	0.340585
179	0xbe7f1f2c	-0.24914235
180	0xbddfd1a5	-0.109286584
181	0x3e032864	0.12808377
182	0x3d6836d7	0.056692924
183	0xbddcb2a2	-0.10776259
184	0x3d45d8b4	0.048302367
185	0x3db8a8bc	0.090165585
186	0x3f134f84	0.57543206
187	0xbedc7302	-0.43056494
188	0xbb9ccecc	-0.0047853943
189	0x3df4b6e9	0.1194895
190	0xbea38a92	-0.31941658
191	0xbe060820	-0.13089037
192	0x3f550cbc	0.83222556
193	0xbcb5c6d8	-0.022189543
194	0xbd792315	-0.060824472
195	0x3e21582c	0.15756291
196	0x3d348982	0.04407645
197	0xbe114aac	-0.14188641
198	0x3e2bafb9	0.16766252
199	0x3e38ca55	0.18045934
200	0xbecadd14	-0.39621794
201	0xbdd6502e	-0.10464512
202	0x3dbf902e	0.09353672
203	0x3e5895c8	0.21150887
204	0xbf9d5237	-1.2290715
205	0xbe20d478	-0.1570605
206	0xbdaeb6a0	-0.08530927
207	0xbfbb04c7	-1.4610833
208	0xbe921046	-0.2852804
209	0x3e9d6239	0.30739
210	0x3e231bc4	0.1592856
211	0x3e62544b	0.22102468
212	0xbe819514	-0.2530905
213	0x3e04ac5f	0.1295638
214	0x3e1c7d6b	0.15282218
215	0x3c2b160f	0.010442271
216	0xbe16112a	-0.14654985
217	0xbc26e2ac	-0.010185879
218	0x3d766067	0.06015053
219	0xbdc6ad79	-0.09701056
220	0xbbb82dcf	-0.005620695
221	0x3e2edb9e	0.17075965
222	0xbde5bbd2	-0.112174645
223	0x3ce38ebd	0.027778024
224	0xbe78ef1e	-0.24309966
225	0x3e014959	0.12625636
226	0x3e5ec893	0.217562
227	0x3c47c00d	0.012191785
228	0xbcb3ca88	-0.02194716
229	0xbf6fbfcc	-0.93652034
230	0xbdff351e	-0.12461303
231	0x3da353ea	0.0797499
232	0x3dafe671	0.08588875
233	0x3e710ff3	0.2354124
234	0x3e702f1f	0.23455475
235	0x3d84dffb	0.064880334
236	0x3d1f7acf	0.03893548
237	0x3c9d92df	0.019235073
238	0xbfbdd0ec	-1.4829383
239	0xbcc34476	-0.023836356
240	0xbcce25b9	-0.025164472
241	0xbe45ec3b	-0.19328396
242	0x3d96a798	0.07356185
243	0x3e3977c9	0.181121
244	0xbfbafe0f	-1.4608783
245	0xbe566d0c	-0.20940036
246	0xbdd7da90	-0.10539734
247	0x3d8e6b24	0.06954029
248	0xbe2a6d1d	-0.16643186
249	0x3e70711f	0.23480652
250	0xbe86b64e	-0.26310962
251	0xbcb6817f	-0.022278545
252	0x3e02feac	0.12792462
253	0xbf9c3159	-1.220256
254	0x3d48d6ff	0.04903316
255	0xbdc176ca	-0.09446485

conv.0.bias f4 [16]
0	0xbd56f3cb	-0.052478593
1	0x3ddcb3ad	0.10776458
2	0xbc395e99	-0.011314058
3	0xbd0f25c9	-0.034948144
4	0xbd581210	-0.0527516
5	0xbeccaef4	-0.3997723
6	0x3e866a4b	0.2625297
7	0xbeb874dc	-0.36026657
8	0xbe74a0fe	-0.23889539
9	0xbdd1f633	-0.10252037
10	0xbf0cb729	-0.5496698
11	0xbd7b33fb	-0.06132887
12	0x3d140463	0.036136996
13	0x3db2bc24	0.08727291
14	0xbe14a66e	-0.14516613
15	0x3dcec73a	0.10096593

conv.2.weight f4 [32, 16, 3, 3]
0	0x3d11bad4	0.035578564
1	0x3e03ae79	0.12859525
2	0xbc3e8dbb	-0.011630471
3	0x3e3f83ec	0.18702668
4	0xbbdefb2f	-0.0068048458
5	0x3dcaa54a	0.09894808
6	0x3e8385b9	0.2568796
7	0x3e30f5a1	0.172812
8	0xbe482263	-0.19544367
9	0x3e760142	0.24023917
10	0x3de376b1	0.11106623
11	0xbe24940a	-0.16072097
12	0xbe48b464	-0.19600064
13	0x3d484857	0.048897114
14	0xbcc45dd3	-0.02397052
15	0x3dd65551	0.104654916
16	0x3bdd1a87	0.006747547
17	0xbe6dca97	-0.23221813
18	0xbdc212c6	-0.09476237
19	0x3de37751	0.11106742
20	0xbd95da32	-0.07317008
21	0xbf0377d5	-0.51354724
22	0x3e8bfb1e	0.27340025
23	0xbfaa058c	-1.3282943
24	0xbd3a9b5c	-0.04555832
25	0xbd404e32	-0.046949573
26	0x3ddc9237	0.10770076
27	0x3e134f43	0.14385705
28	0xbde480df	-0.11157393
29	0xbe57e0ad	-0.21081801
30	0x3e226a96	0.15860972
31	0xbef57119	-0.4793785
32	0xbe0acf81	-0.13555719
33	0xbe41bfc0	-0.18920803
34	0x3e2d7be3	0.1694179
35	0x3debc5b1	0.11512316
36	0x3e110743	0.14162926
37	0x3d8a5883	0.067551635
38	0x3e6eef6f	0.23333524
39	0x3d597e00	0.05309868
40	0x3d39c122	0.0453502
41	0xbe387475	-0.18013175
42	0x3e6cfcff	0.23143385
43	0xbe0a689c	-0.13516468
44	0xbcd64f92	-0.026160989
45	0x3dcdd08c	0.10049543
46	0x3cd148d7	0.025547428
47	0xbeba7784	-0.36419308
48	0x3ebc390e	0.3676228
49	0xbe9f0a58	-0.3106258
50	0xbcdcdd6f	-0.026961057
51	0x3b26b4d7	0.0025437379
52	0x3e36490b	0.17801301
53	0xbdded60c	-0.1088067
54	0xbe8866fe	-0.26641077
55	0xbbef0914	-0.0072947834
56	0xbeed188f	-0.463078
57	0x3cf96ae6	0.030446481
58	0xbe9b31c1	-0.30311397
59	0xbe13b9ad	-0.14426298
60	0xbe228f02	-0.15874866
61	0x3d0499f2	0.032373376
62	0x3a812141	0.0009851829
63	0x3e2daab7	0.16959654
64	0xbe3bb141	-0.18329336
65	0x3dab5bb0	0.083670974
66	0xbdc15f4c	-0.094420046
67	0xbe601841	-0.21884252
68	0x3e783f45	0.24242885
69	0x3d2a9e68	0.041654974
70	0xbeaec82b	-0.3413709
71	0xbf6e9073	-0.9318916
72	0xbe994a79	-0.2993963
73	0x3d28591d	0.04110061
74	0x3f027fbd	0.50976163
75	0x3e032a2e	0.12809059
76	0x3cf7771e	0.030208167
77	0x3e8798d3	0.26483783
78	0x3de33f19	0.11096019
79	0xbdaccdee	-0.084377155
80	0xbe207caa	-0.15672556
81	0x3e16901e	0.14703414
82	0xbec564f6	-0.3855359
83	0x3eb08c18	0.34481883
84	0xbe52e72a	-0.20595995
85	0xbe9d6e9b	-0.30748448
86	0xbde0074f	-0.10938894
87	0x3d844cef	0.064599864
88	0x3e409e26	0.18810329
89	0x3ea2f153	0.3182474
90	0x3e6e31c0	0.23261166
91	0xbd6268d3	-0.05527575
92	0x3db268c8	0.08711392
93	0xbd6619e0	-0.05617702
94	0xbd7a4ba7	-0.061107304
95	0xbef3b1b2	-0.47596508
96	0x3eb4a23d	0.35280028
97	0x3e0dbedf	0.13842343
98	0xbe61256f	-0.21986936
99	0xbdc6c4db	-0.09705516
100	0xbe3b3b35	-0.18284304
101	0xbe63ed49	-0.22258486
102	0xbe786c15	-0.2425998
103	0xbe20dcc6	-0.15709218
104	0xbdb7fd8e	-0.089839086
105	0x3e0c4a21	0.13700153
106	0xbda61fd3	-0.08111539
107	0x3d79a26c	0.060945913
108	0xbbd6ae80	-0.0065515637
109	0x3c921079	0.01783012
110	0xbcea4007	-0.028594984
111	0xbe0f76df	-0.1401019
112	0xbf0afe6f	-0.54294485
113	0xbd35f6d4	-0.044424847
114	0x3cc98281	0.024598362
115	0x3c7c0f39	0.015384489
116	0xbe107f99	-0.14111175
117	0xbeb9fe62	-0.3632689
118	0xbf398997	-0.7247557
119	0x3d95a993	0.07307734
120	0xbcdb4e2f	-0.02677068
121	0xbe680a30	-0.22660136
122	0xbe301110	-0.17194009
123	0xbf36767c	-0.7127454
124	0x3e0288bd	0.12747474
125	0xbde1cfec	-0.11025986
126	0x3e45118e	0.19244978
127	0xbd23b3b6	-0.039966308
128	0x3e4c8ddc	0.1997599
129	0x3e14faf8	0.14548862
130	0xbe2f1527	-0.17097913
131	0xbe678b43	-0.22611718
132	0x3e19b8df	0.15011929
133	0x3d09591e	0.033532254
134	0xbc81f1d1	-0.015862377
135	0x3d47f618	0.048818678
136	0x3be863a1	0.007091955
137	0x3d847f4c	0.064695925
138	0x3d82f461	0.06394268
139	0x3e60f0e5	0.21966894
140	0xbe063d02	-0.1310921
141	0x3e0683cb	0.13136213
142	0xbe8e4171	-0.27784303
143	0x3d987f62	0.07446171
144	0x3ced0534	0.028933145
145	0x3e83fa43	0.25776872
146	0xbdb35c23	-0.08757808
147	0x3e021708	0.12704098
148	0xbe7b52ca	-0.245433
149	0xbe1459c7	-0.14487372
150	0x3ccc074e	0.024905827
151	0x3da261e9	0.07928831
152	0xbd54688a	-0.05185751
153	0x3d3e7c9f	0.046505567
154	0x3e17fc6d	0.14842387
155	0xbc9ad115	-0.018898526
156	0xc0445e43	-3.0682533
157	0x3ddd2307	0.107976966
158	0x3e0cb8ea	0.13742414
159	0xbdd57477	-0.104226045
160	0x3e7f3feb	0.24926727
161	0xbd27f8f4	-0.041008905
162	0xbe0cbce4	-0.13743931
163	0x3a0a3963	0.00052728335
164	0xbcb98dff	-0.022650717
165	0x3e03e4e5	0.12880285
166	0x3c4a3498	0.012341641
167	0x3dde29d8	0.10847825
168	0xbcf2c690	-0.029635698
169	0x3e630df6	0.22173294
170	0xbd9122ba	-0.07086702
171	0xbe6fb4f8	-0.23408878
172	0xbea0a561	-0.31376174
173	0x3e9c4dc9	0.30528095
174	0xbe308249	-0.172372
175	0x3e7d3e70	0.2473085
176	0xbcb005ba	-0.021487106
177	0xbee687c1	-0.45025447
178	0xbe87c5e5	-0.2651817
179	0x3e9cca50	0.30623102
180	0xbe9324bb	-0.2873896
181	0xbe78c54e	-0.24294016
182	0xbf5313c7	-0.8245205
183	0xbec5fe62	-0.3867064
184	0x3cf6158a	0.030039568
185	0x3e9074ad	0.28214017
186	0xbe17358a	-0.14766517
187	0x3d4b11ab	0.049577396
188	0xbdbc7fff	-0.09204101
189	0xbcc59be5	-0.024122188
190	0xbe7fc276	-0.24976525
191	0x3e2be562	0.16786721
192	0x3e4d2a33	0.20035629
193	0x3e7cd07f	0.2468891
194	0xbedeeae4	-0.43538582
195	0xbda57200	-0.080783844
196	0xbebac145	-0.36475578
197	0xbe1ccd6f	-0.15312742
198	0x3d244a91	0.040110175
199	0xbca4c603	-0.02011395
200	0x3ea24ab9	0.31697634
201	0xbdc9f485	-0.098610915
202	0xbe840126	-0.25782126
203	0xbf812c60	-1.0091667
204	0x3dc53e67	0.09631043
205	0x3dff097b	0.1245298
206	0x3ee95607	0.45573446
207	0xbd2fb60f	-0.042898234
208	0x3d160548	0.03662613
209	0xbe567bfc	-0.20945734
210	0xbb42b5e2	-0.0029710461
211	0xbe83efdb	-0.25768933
212	0xbbfe3b05	-0.0077585005
213	0x3ea67b3d	0.32515898
214	0xbe8b58b7	-0.27216122
215	0xbb28961f	-0.0025724245
216	0xbdef68e2	-0.11689927
217	0x3d093f56	0.033507667
218	0xbe064e49	-0.13115801
219	0x3eb99292	0.36244637
220	0x3e074a74	0.13211995
221	0xbee08230	-0.43849325
222	0x3e88d2b1	0.26723245
223	0x3e6a9106	0.22906885
224	0x3e5717b2	0.21005133
225	0x3e890bf9	0.26766947
226	0xbdbfaf34	-0.09359589
227	0x3d00d284	0.031450763
228	0x3d62fcb3	0.055416774
229	0x3e2b914e	0.16754648
230	0xbe06eebd	-0.13177009
231	0x3dccf07c	0.10006806
232	0x3abb8466	0.0014306426
233	0xbd5139b1	-0.05108041
234	0x3e02c38f	0.12769912
235	0x3e8d34b4	0.27579272
236	0xbef9b270	-0.4876895
237	0xbe5cd206	-0.21564493
238	0xbdab1b2b	-0.08354791
239	0x3e5b33be	0.21406457
240	0x3c9e6c09	0.019338625
241	0xbe9bb799	-0.3041351
242	0x3e99ea94	0.3006178
243	0xbdd3fe21	-0.103512056
244	0x3e9f7579	0.31144312
245	0xbe125b36	-0.14292607
246	0x3e693374	0.22773534
247	0x3d475695	0.048666555
248	0xbd815d7c	-0.06316659
249	0x3d7ab3b1	0.061206523
250	0x3d741af3	0.059596013
251	0xbe85f2d9	-0.2616184
252	0x3ed0b06a	0.40759593
253	0xbdb7eb1e	-0.08980392
254	0x3e5e84d4	0.21730357
255	0x3e1223b6	0.14271435

conv.2.bias f4 [32]
0	0x3e91a438	0.284456
1	0xbc981bce	-0.018567946
2	0xbeb872e2	-0.3602515
3	0xbeac6f92	-0.3367887
4	0x3e317493	0.17329626
5	0xbe167dc0	-0.14696407
6	0x3df389b9	0.11891503
7	0xbe83522b	-0.25648627
8	0xbdc92261	-0.098210104
9	0xbcc156a0	-0.023600876
10	0x3dd26008	0.10272223
11	0x3cf2efa6	0.029655289
12	0xbe25e725	-0.16201456
13	0xbd4069ff	-0.046976086
14	0x3cb9a897	0.022663398
15	0xbe717313	-0.23579054
16	0x3df81fd3	0.12115445
17	0x3c9b0ffb	0.018928519
18	0x3d32be7d	0.043638695
19	0xbec2eb9c	-0.3807038
20	0xbda6a966	-0.08137779
21	0x3e89aa94	0.26887953
22	0xbf07e0c6	-0.5307735
23	0x3e1ce2ae	0.15320846
24	0x3d54d74a	0.05196313
25	0x3e368b00	0.17826462
26	0xbe368a39	-0.17826165
27	0x3da0c771	0.078505404
28	0x3d4366a8	0.047705323
29	0xbb8d3ac3	-0.0043099835
30	0xbd7cf47f	-0.061756607
31	0xbd9b71c6	-0.0759006

conv.4.weight f4 [64, 32, 5, 5]
0	0x3d135988	0.035974056
1	0xbe2dd616	-0.16976199
2	0xbd33daa2	-0.043909676
3	0x3e0add33	0.13560943
4	0x3d57bae3	0.052668463
5	0xbe6b0520	-0.22951174
6	0x3d51c17f	0.051209923
7	0x3d71d4eb	0.059040945
8	0x3dde72d6	0.10861747
9	0x3d4e2550	0.050328553
10	0x3e0ff8ab	0.14059703
11	0x3cd18b97	0.025579257
12	0x3dbb42b4	0.09143582
13	0xbe41812e	-0.18896934
14	0xbce25d00	-0.027632236
15	0xbedcc75e	-0.43120855
16	0x3d795a89	0.060877357
17	0xbe00d83f	-0.12582491
18	0x3f2c336d	0.6726597
19	0xbf0821c7	-0.5317654
20	0x3d7afdbe	0.061277144
21	0xbe1af25c	-0.15131515
22	0xbe21efbc	-0.15814108
23	0x3b875880	0.004130423
24	0xbe4bb500	-0.19893265
25	0xbda4a78a	-0.08039768
26	0xbef96466	-0.4870941
27	0xbbd14c99	-0.006387305
28	0x3e8cfded	0.2753748
29	0xbe8cf0d2	-0.2752748
30	0xbe7e8914	-0.24856979
31	0x3d8e80fb	0.06958195
32	0xbec7aafe	-0.38997644
33	0x3da40b0a	0.08009918
34	0xbc126d47	-0.008937187
35	0x3eca7985	0.39545837
36	0xbeaa17f3	-0.33221397
37	0x3dd1347f	0.10215091
38	0x3ed5692e	0.41681808
39	0xbf07bc1b	-0.530214
40	0x3e460c50	0.19340634
41	0x3e5fb656	0.218469
42	0x3d295d85	0.041348953
43	0x3e35707d	0.17718692
44	0x3ec19c5b	0.37814602
45	0xbe27fbcf	-0.16404651
46	0x3ca5ac84	0.020223863
47	0x3d616dba	0.055036284
48	0xbd1fdeaf	-0.039030727
49	0x3e2653da	0.16242924
50	0xbe625a78	-0.22104824
51	0x3ce10d7b	0.027472248
52	0xbeb8bd0e	-0.36081737
53	0xbecfdd2a	-0.40598422
54	0x3e967cab	0.2939199
55	0x3e5d169c	0.21590656
56	0xbda28250	-0.079350114
57	0xbe8abda2	-0.27097803
58	0x3e13a5c0	0.14418697
59	0xbfaf3565	-1.368817
60	0xbf320e07	-0.69552654
61	0x3eb1c10d	0.347176
62	0xbf1ee3d3	-0.6206638
63	0xbe644fe3	-0.222961
64	0x3dc431c6	0.09579806
65	0x3e9e0b3d	0.3086795
66	0xbe3ee4fa	-0.18642035
67	0x3f4055f3	0.7513115
68	0x3de9f5b2	0.11423816
69	0xbd4a1473	-0.04933591
70	0x3d64de83	0.055876266
71	0x3e8a7b9e	0.27047437
72	0x3e4dbbf7	0.20091234
73	0xbd606be1	-0.05479038
74	0xbcadb9b8	-0.021206722
75	0x3d2da253	0.042391133
76	0x3ca1a5a9	0.019732313
77	0xbe5ec2ca	-0.21753994
78	0x3b9d8261	0.004806802
79	0xbe0ceb31	-0.13761593
80	0x3e24d3ac	0.16096371
81	0x3e3b5cae	0.18297073
82	0xbdb10990	-0.08644402
83	0x3f1a4845	0.60266525
84	0xbdaafe24	-0.08349255
85	0xbe85876f	-0.2607989
86	0xbddb6caf	-0.10714089
87	0xbf01f71f	-0.507677
88	0x3ce797b0	0.028270572
89	0x3f462680	0.77402496
90	0xbbcdac65	-0.0062766545
91	0x3e145432	0.14485243
92	0xbe88ec09	-0.2674258
93	0xbf0302d0	-0.51176167
94	0xbd4b84f4	-0.04968734
95	0x3ef048a7	0.4693043
96	0x3e5b4a0d	0.21414967
97	0xbdfdcd14	-0.12392631
98	0x3eebae7d	0.46031561
99	0xbe9d3a27	-0.3070843
100	0x3e127ab1	0.14304616
101	0xbde0970f	-0.10966312
102	0xbd97e061	-0.07415844
103	0xbe232d1d	-0.15935178
104	0xbe153254	-0.1456998
105	0x3e4b0dd2	0.19829491
106	0x3de41b4c	0.11138019
107	0x3e1aad55	0.15105183
108	0xbdb8d477	-0.090248995
109	0x3e02f537	0.12788855
110	0xbe044b01	-0.12919237
111	0x3e029ec7	0.12755881
112	0x3ea7f2c6	0.3280241
113	0x3e925de7	0.28587267
114	0x3d97c11a	0.07409878
115	0xbeaf88ec	-0.3428415
116	0x3c9bc00d	0.019012475
117	0x3d1ca8fa	0.038247086
118	0x3eb184a6	0.34671515
119	0x3ddd4fb0	0.10806215
120	0x3e30aa89	0.17252554
121	0xbe652127	-0.22375928
122	0x3ec70173	0.38868293
123	0x3d9fb29e	0.077977404
124	0x3eec400b	0.4614261
125	0x3f54b9f5	0.8309625
126	0xbd7a605c	-0.06112705
127	0x3d49c3ee	0.04925912
128	0x3bb2bbcc	0.005454516
129	0xbe0c3f05	-0.13695915
130	0xbd884404	-0.06653598
131	0xbdf38274	-0.11890116
132	0x3eb70308	0.357445
133	0x3dccda50	0.10002577
134	0xbe636ab5	-0.22208674
135	0xbd7a2331	-0.061068717
136	0x3e3b859b	0.18312685
137	0xbe3af505	-0.1825753
138	0x3f0cfed4	0.55076337
139	0x3dc7f363	0.09763219
140	0xbf60f561	-0.8787442
141	0xbdf91872	-0.12162866
142	0x3d73b313	0.05949695
143	0xbea21eb4	-0.3166405
144	0xbe4cc158	-0.1999563
145	0xbefd6ee7	-0.49498674
146	0xbdc5bf9c	-0.09655687
147	0x3ed84624	0.42241013
148	0x3dcfc3fd	0.10144804
149	0xbef15808	-0.47137475
150	0xbed294ea	-0.41129237
151	0x3e8880cf	0.26660773
152	0xbefb1727	-0.490411
153	0x3d888863	0.06666639
154	0xbea4f03d	-0.32214537
155	0xbe83a533	-0.25711975
156	0xbee309e7	-0.44343492
157	0xbe356a62	-0.17716363
158	0xbd9fded8	-0.07806176
159	0xbdac1f83	-0.08404448
160	0xbda2339f	-0.07920002
161	0x3e5f49e3	0.2180553
162	0xbec4038b	-0.38283953
163	0x3e7ac568	0.24489367
164	0x3f88902b	1.0668997
165	0x3e7951c1	0.24347593
166	0xbd65905f	-0.056045886
167	0x3e08eb6e	0.1337106
168	0xbf36abf2	-0.7135612
169	0x3ebd448e	0.36966366
170	0x3df22c5f	0.11824869
171	0xbec087b2	-0.37603527
172	0xbd8d6cf1	-0.069055445
173	0xbdf0f951	-0.11766303
174	0x3dcdf4cb	0.10056456
175	0xbe0c5497	-0.13704143
176	0x3ea41031	0.32043603
177	0x3eae97d7	0.3410022
178	0x3e4e5750	0.20150495
179	0x3e383b3e	0.17991349
180	0xbf000688	-0.50009966
181	0x3e7ccc1c	0.24687237
182	0xbe36d5b4	-0.17854959
183	0xbe3ba10b	-0.18323152
184	0x3f0a57a0	0.54039955
185	0xbf01c4f5	-0.5069116
186	0x3eb8ab37	0.36068127
187	0xbdc57fa4	-0.09643486
188	0xbe82ac20	-0.25521946
189	0xbe02c0e3	-0.12768893
190	0xbeb62881	-0.35577777
191	0xbb4e441a	-0.0031473697
192	0x3e00cf36	0.12579045
193	0xbd623d19	-0.05523405
194	0x3e4e1d4e	0.20128366
195	0xbdd14520	-0.10218263
196	0xbd2d5bde	-0.04232394
197	0xbe508afe	-0.20365521
198	0xbe0d573d	-0.1380281
199	0x3db6ca0a	0.08925255
200	0xbaf829b2	-0.0018933325
201	0x3dd9e565	0.10639457
202	0xbed0703f	-0.40710637
203	0xbf0b98d7	-0.5453009
204	0xbe0bf639	-0.13668145
205	0x3ef6b162	0.48182207
206	0x3e317f65	0.17333753
207	0xbdc53a4a	-0.096302584
208	0x3d006022	0.03134168
209	0xbd98543b	-0.07437941
210	0xbe568be8	-0.20951807
211	0xbe046625	-0.1292959
212	0xbe00061e	-0.12502334
213	0xbdb655d5	-0.0890309
214	0xbc68b77f	-0.014203905
215	0xbd94abaa	-0.07259305
216	0x3d85cd01	0.06533242
217	0x3e870feb	0.26379332
218	0x3e0c6df2	0.13713816
219	0xbdf3246b	-0.118721806
220	0xbe5de291	-0.2166846
221	0xbc6607e1	-0.014039964
222	0xbde2cce1	-0.11074234
223	0x3d98d5cc	0.074626535
224	0xbd32d32c	-0.04365842
225	0xbe0cf565	-0.13765486
226	0xbdd3805d	-0.10327218
227	0x3d6ea8f3	0.05826659
228	0x3c26fe83	0.010192516
229	0x3da7af51	0.08187736
230	0x3e0f4715	0.1399196
231	0x3d8c8c2e	0.06862675
232	0xbec2a7ce	-0.3801865
233	0x3f1d5d06	0.6147007
234	0xbcad9111	-0.021187337
235	0xbe73f3b3	-0.23823433
236	0xbe8798da	-0.26483804
237	0x3e8f4d49	0.2798865
238	0xbc93d00f	-0.018043546
239	0x3dcec662	0.10096432
240	0x3e401098	0.1875633
241	0x3e6b5602	0.22982028
242	0xbe030f61	-0.12798835
243	0x3e2d46fc	0.1692161
244	0xbd8c84bb	-0.06861254
245	0x3ea3451d	0.31888667
246	0x3ea689fd	0.32527152
247	0xbe1d9670	-0.15389419
248	0xbbc74c4c	-0.0060820933
249	0x3b866558	0.0041014366
250	0xbc2178f9	-0.009855502
251	0x3e3ad967	0.18246995
252	0xbf1adf8d	-0.6049736
253	0xbdc61118	-0.09671229
254	0x3e213b03	0.15745167
255	0x3e448471	0.19191147

conv.4.bias f4 [64]
0	0xbeb5536a	-0.35415202
1	0xbe829cd1	-0.25510266
2	0xbdfcd013	-0.123443745
3	0xbb34aff2	-0.0027570692
4	0xbed92403	-0.42410287
5	0xbe86472e	-0.2622618
6	0xbd351d8c	-0.04421763
7	0xbd9b78f9	-0.07591433
8	0x3e8bfc64	0.27340996
9	0xbe22f532	-0.15913847
10	0x3e364e68	0.17803347
11	0xbd474e54	-0.048658684
12	0xbdb893b6	-0.090125486
13	0xbd2ca76a	-0.042151846
14	0xbe97c9bf	-0.29646108
15	0xbe132319	-0.14368857
16	0xbce20c2c	-0.027593695
17	0xbe3f5986	-0.18686494
18	0x3da508f4	0.08058348
19	0xbe37a20f	-0.17932914
20	0x3d24543f	0.040119406
21	0xbeb54b31	-0.3540893
22	0xbd4180e8	-0.047242075
23	0xbe627859	-0.22116221
24	0xbead1ef1	-0.3381267
25	0x3f036faf	0.5134229
26	0xbd69cffc	-0.057083115
27	0x3bbe97bf	0.0058164294
28	0xbceab95c	-0.02865284
29	0xbe1b78c0	-0.15182781
30	0xbd218fda	-0.03944383
31	0xbda4025d	-0.08008263
32	0xbe67d200	-0.22638702
33	0xbdcdaefa	-0.1004314
34	0xbdb78cd4	-0.08962408
35	0x3e2926ba	0.1651868
36	0x3e3a9a61	0.18222953
37	0xbd32d0c5	-0.04365613
38	0xbe9582b0	-0.2920127
39	0xbd78b238	-0.060716838
40	0x3dee8119	0.11645717
41	0xbe241530	-0.16023707
42	0xbd50f8c7	-0.051018503
43	0xbe648ed1	-0.22320105
44	0xbe110a37	-0.14164053
45	0xbd275136	-0.040848933
46	0xbe1ba8ad	-0.15201063
47	0x3ee1e651	0.4412103
48	0xbd22d13f	-0.039750334
49	0xbca9f0ab	-0.020744642
50	0xbdb11b70	-0.086478114
51	0x3c22e01a	0.009941125
52	0x3ed1a733	0.40947875
53	0x3ec709c4	0.38874638
54	0xbdd21e3c	-0.10259673
55	0x3c8ce0ba	0.017197002
56	0x3e07569a	0.1321663
57	0xbe8e6dde	-0.27818197
58	0xbe342d2f	-0.17595361
59	0xbeb7c3ae	-0.3589148
60	0x3f15c660	0.5850582
61	0x3d103b13	0.035212588
62	0xbea33f4c	-0.3188423
63	0x3d8cb264	0.06869963

conv.7.weight f4 [64, 256]
0	0x3a31ec75	0.0006787249
1	0xbb03cfa1	-0.002011277
2	0xbdb427a8	-0.08796626
3	0x3abf22eb	0.001458255
4	0x3e210bee	0.15727207
5	0xbd835b94	-0.064139515
6	0x3e1eabf7	0.15495287
7	0xbd0de358	-0.03464064
8	0xbdec9db0	-0.11553514
9	0xbcb51d9e	-0.02210885
10	0x3dd29666	0.102825925
11	0x3ca77d1d	0.0204454
12	0xbd7baebe	-0.061445944
13	0x3cffeba0	0.031240284
14	0x3bf9c810	0.0076227263
15	0x3d237428	0.039905697
16	0x3d092c3a	0.033489443
17	0x3e152aa5	0.14567049
18	0xbd427763	-0.047477137
19	0xbb9d22f3	-0.004795426
20	0x3e7b3737	0.24532782
21	0x3e322ece	0.17400667
22	0x3dc618a1	0.09672666
23	0x3e2eff96	0.17089686
24	0x3cb64e10	0.02225402
25	0x3d156010	0.036468565
26	0xbd450314	-0.04809864
27	0x3c7a8188	0.015289672
28	0xbce3cd41	-0.027807834
29	0xbd802b6a	-0.062582806
30	0x3d710fdc	0.058853015
31	0x3d431a0d	0.047632266
32	0xbcca0fb6	-0.024665695
33	0xbe034e82	-0.12822917
34	0xbc9267b2	-0.017871711
35	0xbe248e96	-0.16070017
36	0xbe28c2a0	-0.16480494
37	0x3dc783d8	0.09741944
38	0xbd03584b	-0.032066625
39	0xbe5899d7	-0.21152435
40	0xbe358461	-0.1772628
41	0x3df565a7	0.11982279
42	0xbdbe2d7c	-0.09286019
43	0xbce04b3e	-0.027379628
44	0x3cbf9254	0.023385204
45	0x3c869d58	0.01643245
46	0x3d00d19e	0.031449907
47	0xbced6f10	-0.028983623
48	0xbd8b6f8b	-0.068083845
49	0x3ea12ead	0.31480923
50	0xbdce9d2b	-0.10088571
51	0x3c8a37cd	0.016872311
52	0xbd5a293c	-0.05326198
53	0x3d39d05e	0.04536473
54	0x3c192df8	0.009349339
55	0xbd11ca18	-0.035593122
56	0xbe65eb69	-0.22453083
57	0x3e477a26	0.1948019
58	0xbded9bdf	-0.11601996
59	0x3d956b1c	0.0729582
60	0x3dadcb42	0.08486034
61	0x3dc12e29	0.094326325
62	0xbe512a0b	-0.20426194
63	0x3da284c7	0.079354815
64	0xbd5563e0	-0.0520972
65	0xbcb55e9c	-0.02213984
66	0xbaa98340	-0.0012932792
67	0x3d1fe8d6	0.03904041
68	0x3b410813	0.0029454276
69	0xbdac34d1	-0.084085114
70	0xbe4f07ba	-0.20217791
71	0xbc0bf93e	-0.008543311
72	0x3db9c564	0.090708524
73	0xbceecec3	-0.029151326
74	0xbe156506	-0.14589319
75	0x3da5b4dd	0.080911376
76	0xbb925b26	-0.004466432
77	0xbdb1193c	-0.08647391
78	0xbde3f3a4	-0.11130455
79	0xbc487d6a	-0.012236932
80	0x3e137677	0.1440066
81	0x3cbe26bf	0.023211835
82	0xbd0dc794	-0.03461416
83	0xbdd3f01f	-0.10348534
84	0x3dae0cb2	0.08498515
85	0xba8dbafc	-0.0010813172
86	0x3df27ebb	0.11840578
87	0x3d8a863c	0.067638844
88	0xbd5c4432	-0.053775974
89	0x3c8cf928	0.01720865
90	0x3b2bf780	0.002624005
91	0xbd5e5958	-0.054284424
92	0x3e4bd7c9	0.19906534
93	0x3e559442	0.20857337
94	0x3dab1369	0.083533116
95	0xbcb8d3b9	-0.022561895
96	0xbc93ef57	-0.018058462
97	0x3c88b289	0.016686695
98	0x3e03c854	0.12869388
99	0x3d3469bf	0.04404616
100	0xbdcea7aa	-0.10090573
101	0xbe4f9712	-0.20272473
102	0xbdb80137	-0.08984607
103	0xbd08b067	-0.033371355
104	0x3cb470b8	0.022026405
105	0x3d76f94e	0.06029635
106	0x3cc8cff8	0.02451323
107	0xbc33b528	-0.010968484
108	0x3e5366ec	0.2064473
109	0x3d9957cc	0.07487449
110	0xbe2bff1f	-0.1679654
111	0x3dcb3f68	0.09924203
112	0x3d34f95a	0.044183113
113	0x3c56ac50	0.013102606
114	0x3a81a980	0.0009892434
115	0x3ca38844	0.019962437
116	0xbdba9047	-0.0910955
117	0xbc4f736a	-0.012661794
118	0xbd65f477	-0.056141343
119	0x3d6c99f0	0.057763994
120	0xbb583d80	-0.0032995641
121	0x3b4a1360	0.0030834302
122	0x3d30df00	0.04318142
123	0xbcabffcc	-0.020995997
124	0x3d45f781	0.04833174
125	0xbe2ca22c	-0.16858739
126	0xbd1b8d2a	-0.03797642
127	0xbc825b67	-0.015912725
128	0x3ddf3508	0.10898787
129	0x3dcdbf1c	0.10046217
130	0x3d3dd275	0.046343286
131	0x3e880565	0.26566616
132	0x3cfd5cc6	0.030928027
133	0x3e399a88	0.18125355
134	0x3d8b871e	0.06812881
135	0x3e1254c6	0.14290151
136	0x3d45e4a8	0.048313767
137	0xbd1754e6	-0.0369462
138	0x3e3f5ef8	0.18688571
139	0xbd7a4caf	-0.061108287
140	0x3c14f739	0.009092146
141	0xbe4f8cce	-0.20268556
142	0xbeab6f77	-0.33483478
143	0x3d85419b	0.06506654
144	0x3d9ecf24	0.07754353
145	0xbe12afcf	-0.14324878
146	0xbec81f11	-0.39086202
147	0xbd164b42	-0.036692865
148	0xbcc9e9d4	-0.02464763
149	0xbc0387ac	-0.008027952
150	0x3d058989	0.032601867
151	0xbc1b5b36	-0.009482196
152	0xbd8faa36	-0.07014887
153	0x3e729eda	0.2369341
154	0x3d77c953	0.060494732
155	0xbdab60ca	-0.083680704
156	0xbd2ca6de	-0.042151324
157	0xbd173db6	-0.036924087
158	0x3ccf1864	0.025280185
159	0x3b22bf80	0.0024833381
160	0x3deb9de0	0.11504722
161	0xbe473b8e	-0.19456312
162	0xbde6125e	-0.11233972
163	0xbd88c680	-0.06678486
164	0xbdcd3162	-0.10019185
165	0xbd65dac8	-0.05611685
166	0x3de7b1de	0.11313222
167	0x3b5a40b6	0.003330273
168	0x3bba83a0	0.0056919605
169	0x3d2317ee	0.039817743
170	0x3b8d9010	0.004320152
171	0x3c06fdf8	0.008239262
172	0x3c857d02	0.01629496
173	0x3da76953	0.08174386
174	0xbd1e3844	-0.038627878
175	0x3da445ee	0.080211505
176	0xbe015ffa	-0.12634268
177	0xbdca6df7	-0.098842554
178	0xbddbeca0	-0.10738492
179	0xbd988200	-0.074466705
180	0x3d5ab342	0.05339361
181	0x3d79d2d2	0.06099207
182	0x3cbeae24	0.023276396
183	0xbd053d20	-0.032528996
184	0xbddf40ad	-0.10901008
185	0x3e005645	0.12532909
186	0x3d6d110b	0.05787758
187	0x3e069f10	0.13146615
188	0xbdfaedab	-0.12252363
189	0xbd6f0e58	-0.05836329
190	0xbd27864e	-0.040899567
191	0x3d230fee	0.039810114
192	0x3d0cf930	0.03441733
193	0x3d153192	0.036424227
194	0xbd206d80	-0.039166927
195	0xbbd2e310	-0.0064357594
196	0x3d186814	0.03720863
197	0xbcbf86f4	-0.02337978
198	0xbd40063c	-0.046880946
199	0x3c1f53c0	0.009724557
200	0x3e01a878	0.12661922
201	0xbbb5b131	-0.0055448045
202	0x3d9a1ca7	0.07524996
203	0xbd8e2b98	-0.069419086
204	0xbd7e356e	-0.062062673
205	0xbcfdcf04	-0.030982502
206	0x3d0611ca	0.03273181
207	0x3d6d4014	0.057922438
208	0x3ddd046c	0.10791859
209	0xbe0521a5	-0.13001116
210	0x3de7bc09	0.11315162
211	0xbd992b1a	-0.07478924
212	0x3dfc0140	0.12304926
213	0xbda43787	-0.080184035
214	0xbd31c9fc	-0.043405518
215	0x3dc7ca07	0.097553305
216	0xbd1b109e	-0.037857644
217	0xbdd56f35	-0.10421602
218	0x3d8876bd	0.066632725
219	0xbd94a723	-0.07258441
220	0xbd2336d7	-0.03984722
221	0xbd23ae88	-0.039961368
222	0xbe8acfc3	-0.27111635
223	0x3d1b30fb	0.03788851
224	0xbd9222ec	-0.07135567
225	0x3e165b64	0.146833
226	0xbd9db4ba	-0.077004865
227	0x3ca982b4	0.020692207
228	0xbd93a684	-0.07209495
229	0xbda92858	-0.08259648
230	0x3e52dbce	0.20591661
231	0x3e9c211e	0.30494016
232	0xbd99dc62	-0.07512738
233	0x3c181bb1	0.009283946
234	0x3dd4a4b6	0.103829786
235	0xbe07d06c	-0.132631
236	0xbd240969	-0.040048037
237	0x3e48614f	0.1956837
238	0x3dba64c8	0.09101254
239	0xbdfa6bed	-0.122276165
240	0xbd2b4b97	-0.041820135
241	0x3e18ba15	0.14914735
242	0xbcc7bfb6	-0.024383407
243	0xbdf01a7b	-0.11723801
244	0x3e0125a1	0.1261201
245	0x3d86c5c2	0.06580688
246	0xbe267da9	-0.16258873
247	0xbda0d566	-0.078532025
248	0xbe1a69af	-0.15079378
249	0xbd18a274	-0.037264302
250	0x3d15fe7f	0.03661966
251	0x3db7c6c0	0.089734554
252	0xbea7bac6	-0.32759684
253	0xbda3c86d	-0.079972126
254	0x3d95b841	0.07310534
255	0xbe8e8663	-0.27836904

conv.7.bias f4 [64]
0	0xbdadfba2	-0.08495261
1	0x3f1cb771	0.6121741
2	0x3ee300dd	0.44336596
3	0x3ed8116a	0.42200786
4	0x3f4ea79d	0.8072451
5	0x3f3842d7	0.7197699
6	0xbe6dd2f6	-0.23225006
7	0x3ed8f149	0.42371586
8	0xbc55ce3f	-0.013049661
9	0x3eae1320	0.33998966
10	0xbebfa13e	-0.37427706
11	0x3e82f8ef	0.25580546
12	0x3f2be3bf	0.6714439
13	0x3f297a1f	0.66201967
14	0x3f4c2b75	0.7975381
15	0xbf23d609	-0.63998467
16	0x3ed07b36	0.40719002
17	0x3ef95f15	0.48705354
18	0x3f89dc75	1.0770403
19	0x3ea7b44a	0.32754737
20	0x3e5a9f90	0.21349931
21	0x3e1de7a1	0.1542039
22	0x3f0ea2d3	0.557172
23	0x3f0e1dd4	0.55514264
24	0x3e2ae391	0.16688372
25	0x3d3bbf1b	0.04583655
26	0xbea67a1f	-0.32515046
27	0x3e6bb97c	0.23019975
28	0x3e8a7b6d	0.2704729
29	0x3dbb5cd9	0.09148569
30	0x3ee650b2	0.4498344
31	0xbc3cb9c1	-0.011518897
32	0xbe9a86f2	-0.3018108
33	0x3eded9eb	0.43525633
34	0xbb5652ac	-0.0032703085
35	0xbd920ee8	-0.071317494
36	0x3dd1c300	0.102422714
37	0xbe8cf2a6	-0.27528876
38	0xbe04be62	-0.1296325
39	0x3d9d23dd	0.07672856
40	0x3e334b43	0.17509179
41	0x3e0d6598	0.13808286
42	0x3c9a9604	0.018870361
43	0x3e42af6c	0.1901223
44	0x3eecb265	0.46229854
45	0x3e023b7e	0.12718007
46	0x3f35b7a2	0.70983326
47	0x3e72f588	0.23726475
48	0x3e4b6e39	0.19866265
49	0x3ea287de	0.31744283
50	0xbe9c2f75	-0.30504957
51	0x3e0a929a	0.13532487
52	0x3e83b279	0.257221
53	0xbdc7a57e	-0.09748362
54	0x3efb61e6	0.49098128
55	0xbe9bb74e	-0.30413288
56	0x3de3f80a	0.11131294
57	0xbe83546a	-0.2565034
58	0x3f4fdb72	0.8119422
59	0x3de01f52	0.10943474
60	0x3f354a81	0.7081681
61	0xbe627865	-0.2211624
62	0x3ef1cfd9	0.47228888
63	0x3e521cd7	0.20518814

out.weight f4 [4, 64]
0	0x3e39f93b	0.1816148
1	0x3e9bc381	0.30422595
2	0x3cdc96f6	0.026927453
3	0x3d44a23a	0.048006274
4	0x3e7bfe6b	0.24608772
5	0x3cdda5b4	0.027056552
6	0xba98d811	-0.0011661072
7	0x3d8c479c	0.06849596
8	0x3be621da	0.0070230784
9	0x3cbd6173	0.023117756
10	0x3d9d1aa1	0.07671095
11	0x3dbab0eb	0.09115776
12	0x3d90f1ba	0.07077356
13	0xbcb31c6c	-0.021864139
14	0xbc80eeec	-0.015738927
15	0x3d174158	0.03692755
16	0xbf3114aa	-0.69172156
17	0x3d0e7c8e	0.034786753
18	0x3ef84c6f	0.48495814
19	0x3c276c00	0.01021862
20	0xbcd501a2	-0.026001755
21	0x3c37e817	0.011224768
22	0x3e1ce187	0.15320407
23	0x3c535016	0.012897512
24	0xbdc18c97	-0.094506435
25	0xbc670ef6	-0.014102688
26	0x3e776f49	0.24163546
27	0x3e0772e4	0.13227421
28	0x3dab09a9	0.08351452
29	0xbd63ce38	-0.055616587
30	0x3d8f8cd3	0.07009282
31	0xbda3d442	-0.07999469
32	0xbc8a68e1	-0.016895713
33	0x3b8531f8	0.0040647946
34	0x3ddc7362	0.10764195
35	0xbdb3f057	-0.087860756
36	0x3dc0ab2d	0.09407649
37	0xbec9822d	-0.3935713
38	0xbd7ed162	-0.0622114
39	0xbdef6c60	-0.11690593
40	0x3da8f97e	0.08250712
41	0x3d61c7b3	0.05512209
42	0x3e3d1238	0.18463981
43	0xbd3ec6e0	-0.04657638
44	0xbfc6a64d	-1.5519501
45	0xbfd1ea18	-1.6399565
46	0xbd176929	-0.036965523
47	0xbfcf371e	-1.6188695
48	0xbf4e5a43	-0.8060648
49	0xbc7841ea	-0.015152434
50	0x3e36b79d	0.1784348
51	0x3cc51d67	0.024061872
52	0xbdb75bb5	-0.089530386
53	0x3cefdbd7	0.029279632
54	0xbe4cdfa8	-0.20007193
55	0x4097db4e	4.7455206
56	0x3dd1fbb1	0.102530845
57	0x3d9a1276	0.075230524
58	0x3db47edf	0.08813261
59	0xbe8cb503	-0.2748185
60	0x3b01de91	0.0019816498
61	0x3c366fd6	0.011135062
62	0x3e918ac8	0.28426194
63	0xbd6e790a	-0.0582209
64	0xbd667824	-0.05626692
65	0x3db4e78f	0.08833229
66	0x3d9caa40	0.0764966
67	0xbce59232	-0.028023813
68	0x3e9d195b	0.30683407
69	0x3de64bb8	0.11244911
70	0x3e24ec91	0.16105868
71	0xbde2fbd9	-0.110831924
72	0xbf331ad1	-0.69962794
73	0x3e315026	0.1731573
74	0x3da8e675	0.08247081
75	0x3de07110	0.10959065
76	0x3dcbdde2	0.0995443
77	0x3de327bb	0.11091562
78	0x3dae7d34	0.08519974
79	0x3cfe00ab	0.031006178
80	0x3ca45e53	0.020064509
81	0x3d3c536d	0.045978
82	0x3efe6736	0.4968812
83	0xbfad50e2	-1.3540308
84	0xbe2c4fb1	-0.16827275
85	0x3e367afb	0.17820351
86	0x3dd566ab	0.10419973
87	0x3bec15e0	0.007204756
88	0xbf6b07c8	-0.9180875
89	0xbc56640c	-0.0130853765
90	0x3b134d43	0.0022476471
91	0x3e219b2d	0.15781851
92	0xbfa71d21	-1.3055764
93	0xbe61978a	-0.22030464
94	0x3b80ebd5	0.0039343634
95	0x3dbeb495	0.09311787
96	0xbd72f9b5	-0.05932017
97	0x3e08328e	0.13300535
98	0xbdebf8cd	-0.11522064
99	0xb7b8e650	-2.2041757e-05
100	0x3ced16c3	0.028941518
101	0xb9fd9377	-0.0004836579
102	0xbdc6e8ac	-0.097123474
103	0xb988ab52	-0.00026067585
104	0xbd1e36f3	-0.038626622
105	0xbdae1e66	-0.08501892
106	0xbce35721	-0.027751507
107	0xbdd9d9b3	-0.10637226
108	0x3dfe916e	0.12430082
109	0xbd90a444	-0.07062581
110	0xbe27927e	-0.16364476
111	0x3d0fe82b	0.035133522
112	0xbdf3e27b	-0.11908432
113	0x3e1031b8	0.14081466
114	0xbd804c15	-0.062645115
115	0x3e0ebe1f	0.13939713
116	0x3cd36529	0.025805073
117	0x3b47408a	0.0030403459
118	0x3d2cd9b1	0.042199794
119	0xbd3e4d65	-0.046460528
120	0xbd813813	-0.063095234
121	0xbdc83abb	-0.09776827
122	0x3d575209	0.05256847
123	0x3de13b7e	0.10997675
124	0x3d8a256b	0.06745418
125	0xbd963ab5	-0.07335416
126	0xbd6d5334	-0.057940677
127	0xbd5ad3c0	-0.053424597
128	0x3d061b75	0.03274103
129	0x3d0be4db	0.0341538
130	0xbfa56a77	-1.2923115
131	0xbc6c3d62	-0.014418932
132	0x3d2859a2	0.041101106
133	0x3c5de1aa	0.013542572
134	0xbdc54bac	-0.09633574
135	0xbcc07357	-0.023492498
136	0x3d761fb1	0.060088817
137	0x3d002f09	0.031294856
138	0xbd9af091	-0.07565416
139	0x3e37da58	0.17954385
140	0x3d93456a	0.07190974
141	0x3d8efb45	0.069815196
142	0x3d82952e	0.0637611
143	0xbe3af2de	-0.18256709
144	0x3c6d992a	0.014501849
145	0x3e3cab95	0.18424828
146	0x3f0bf502	0.5467073
147	0x3dbbcdac	0.09170088
148	0x3b9c1212	0.0047628963
149	0xbbf23cea	-0.0073925154
150	0x3e1d3f76	0.1535624
151	0x3b8f4915	0.0043727257
152	0xbd06c624	-0.032903805
153	0xbfa71502	-1.3053286
154	0xbd17a227	-0.037019875
155	0xbd50aab4	-0.050944045
156	0xbdda73f0	-0.106666446
157	0x3e099bb7	0.13438307
158	0x3e5234fa	0.20528021
159	0x3d370045	0.04467799
160	0xbcf15772	-0.029460642
161	0x3cf37ce6	0.029722642
162	0x3db712b8	0.08939117
163	0x40452ba5	3.0807889
164	0x3d0054cc	0.03133087
165	0x3cba527b	0.022744408
166	0xbd5ea67d	-0.054357994
167	0xbd35606c	-0.04428141
168	0xbe09dda5	-0.13463457
169	0xc0092bb5	-2.1432927
170	0xbdb62046	-0.088928744
171	0x3d00ff35	0.031493384
172	0x3b018a0a	0.0019766116
173	0x3d9dd0da	0.07705851
174	0xbe4669d3	-0.19376306
175	0xbdd9536a	-0.10611613
176	0xbb9b8ea7	-0.00474723
177	0xc0115eab	-2.271403
178	0x3eac6d7f	0.3367729
179	0xbe1274b9	-0.14302339
180	0x3d2bfa41	0.041986708
181	0xbcc747c5	-0.024326215
182	0x3e17918d	0.14801617
183	0xbccf71ff	-0.025322912
184	0x3db692f4	0.08914748
185	0x40746f01	3.8192751
186	0x3e838e90	0.25694704
187	0xbd8c69dd	-0.06856129
188	0x3e4a009a	0.19726792
189	0xbd71057c	-0.05884312
190	0x3c4b865b	0.01242217
191	0xbfb96ab6	-1.448569
192	0x3e08da73	0.13364582
193	0x3d16ab06	0.036784194
194	0x3cade3c0	0.021226764
195	0x3d943dc4	0.07238343
196	0x3e1ed8c0	0.15512371
197	0x3c9ba94a	0.019001622
198	0xbf492bce	-0.78582466
199	0x3e01e245	0.12683971
200	0xbdac50b4	-0.084138304
201	0xbb98a498	-0.004658293
202	0x3dc0ab33	0.09407654
203	0x3d8cd0e0	0.06875777
204	0x3d82fd29	0.06395943
205	0x3d89d900	0.067308426
206	0x3e555d8b	0.20836465
207	0x3d0034c6	0.03130033
208	0xbc23bc90	-0.009993687
209	0x3d462c27	0.04838195
210	0x3eff6d42	0.49888045
211	0x3dcda239	0.10040707
212	0x3def4a0b	0.116840445
213	0xbf364083	-0.7119219
214	0x3e0e5bb6	0.13902172
215	0x3e21b436	0.15791401
216	0x3d18e050	0.037323296
217	0xbdcff716	-0.1015455
218	0x3c74a023	0.014930758
219	0x3dcbdb06	0.09953885
220	0xbdae7008	-0.08517462
221	0xbf1a71fb	-0.6033017
222	0xbfbf709b	-1.495624
223	0xbdd72e2d	-0.10506854
224	0x407cd18a	3.9502892
225	0xbe1db648	-0.15401566
226	0x3b8cf053	0.00430111
227	0xbce69ce9	-0.028150992
228	0x3e75df3b	0.24010937
229	0x3da120e7	0.07867604
230	0x3da06378	0.07831472
231	0xbfa01e91	-1.2509328
232	0xbfa805d6	-1.3126781
233	0xbcf68d71	-0.030096741
234	0xbeaedf73	-0.34154853
235	0xbf9788d2	-1.1838629
236	0x3e0b2e70	0.13591933
237	0xbdd0e12e	-0.101991996
238	0xbe916c05	-0.28402725
239	0xbd91a27b	-0.07111069
240	0x3d63625f	0.055513736
241	0x3cddd920	0.027081072
242	0xbd1c87cd	-0.038215447
243	0x3dee32ec	0.11630806
244	0x3df2962a	0.11845048
245	0x3bf49406	0.007463935
246	0xbbd0aaf9	-0.006368038
247	0xbd5fcb58	-0.054637283
248	0x3e21a72e	0.1578643
249	0xbc918550	-0.017763764
250	0x3df9d647	0.12199073
251	0x3ca77279	0.020440327
252	0x3d24f463	0.040272128
253	0x3e93ba05	0.2885286
254	0xbb1a20c5	-0.0023518067
255	0x3dd8cdef	0.10586154

out.bias f4 [4]
0	0x3f5f170d	0.8714455
1	0x3f644bae	0.8917798
2	0x3f4ce3c4	0.8003504
3	0x3f540f6e	0.82836044
