models/v17.1/model_332000_target.pth (torch, 295191 bytes, 10 tensors)

conv.0.weight f4 [16, 2, 3, 3]
00000000: feaf 023e 22ad 923c 1489 57be edc4 973e
00000010: 0433 f0bd f92c 033e 2937 c1be 022d db3e
00000020: fbcd 933d d602 0a3c f8d0 ba3c dadb 04bd
00000030: b16c b8bd 9cbe d93d 1e84 663c 4f1a 10bd
00000040: 1f63 f03c 792d a5bb d84d 52be 73eb 8d3e
00000050: 2760 aa3c b94f 653e cf75 27be cb30 523e
00000060: c82f 51bf c377 05bf 8368 dcbd 9fe7 82bf
00000070: 82d4 2c3f 59b3 9fbf dff8 533e da15 34be
00000080: 014f 5c3e a604 423c e44e 4d3c 4e3b bc3d
00000090: bb6b ee3c 437a 5d3e 0219 9f3d 35e0 bfbd
000000a0: 74cd 8f3e db63 98bd f2fd 813e 4e6a 383e
000000b0: cf22 a73d f6c1 873d 996b f63d 2557 0b3c
000000c0: c971 703e 162d a7bc 1ed1 b7bf efa9 9ebb
000000d0: 891c 9fbe c32d 673d 29d9 fb3b 1c40 eb3d
000000e0: ed7d 093d f721 f63d 99cd 0f3e 13a6 38bf
000000f0: 602d c9be 4602 cfbe 6b0d 4f3e 1916 5dbd
00000100: 1ee8 593c 38b6 14bd 0012 aa3e 3233 51bd
00000110: 1aad 77bf 7e80 7fbe c6a7 c33e 0dbe e93d
00000120: 48fb 503e eefd f6bd 21b0 febd 2817 94bf
00000130: 91c8 0cbe 3002 c83d a0b2 fb3c 6fb0 fa3e
00000140: 23e3 8dbf 0480 99be ca49 823e 89f7 c4be
00000150: fb2e 7f3e ab19 abbc a309 523e c849 2b3d
00000160: 64cf 65bd 5a3b a7bb f2a1 09bd 5455 22be
00000170: 8070 e73e 3a27 903e c7fe f3bd d74a fcbd
00000180: 4795 373f 0c1c debe cad4 c33e 56a2 b1be
00000190: 0e25 bbbd 3891 a43d 4dc0 a03d d3f1 debe
000001a0: 7be4 90bd ca9c 173c f363 40be 4d1a 9bbe
000001b0: 09ed 63bf 1c0c dbbd 3b47 9c3e 14d8 473e
000001c0: 19eb aa3d c490 88bf 5f57 7fbe 1982 f23d
000001d0: bc8d 75be 8ec4 b3bd aeab 08bd e0df 8abd
000001e0: a67b d03d c9dd 13bc 9b00 ff3c ecde 18bf
000001f0: 7574 bcbd 1340 1abe 2521 8c3e 950e 57be
00000200: 08ce 083f 718f 01be 36e8 943e beaa cf3d
00000210: 7162 253d 430d cb3e 2720 a5bd 843d c2bf
00000220: 3bee 3ebf 5329 58bf 2f26 be3d 9e5b 373c
00000230: c969 a0bd 84bb 29be 65b8 e33d 9a80 263d
00000240: f809 963b 9906 b33d 040c 2d3d 0599 c43e
00000250: 616b 5f3d cd01 4dbe 7d0a 723e 32a0 e0be
00000260: 8e00 e33c daab c3be f8a6 133f c083 febe
00000270: f2c3 833d 25a5 813e 8a60 3f3c 0bf0 a7be
00000280: 0390 ef3e 1da7 0f3c 5de5 cd3c 9db9 c0ba
00000290: 24e2 843d 0fd8 2d3d dc60 1dbe e59e 853e
000002a0: 17ff b13e 7f20 f9bd dc34 23be 8be5 31bd
000002b0: ace5 3e3e 0c2f eebd d155 d3bf cee8 e2bc
000002c0: e769 76bd b95e 453e 7d7b b13e 5b96 64be
000002d0: 90f9 f7bd abb6 0e3e 8fde 953d 21b0 e9bd
000002e0: f123 8f3c 90b7 d73d 9e5a 183f cef6 dcbe
000002f0: 2bd9 013b 5740 fa3d 68cf 96be 6770 f3bd
00000300: ba4e 723f 531e edbc 5a95 95bd 5b43 333e
00000310: 5f1c 8a3c 2518 1dbe 3080 103e afe0 1b3e
00000320: 1fd3 d5be 2fe6 f9bd e2ae cc3d d1ad 6b3e
00000330: 455d a4bf 01ff f0bd 0880 a8bd f4af b1bf
00000340: ee0d 9bbe 6b46 a03e f52b 3a3e d444 733e
00000350: fdb5 78be aea5 043e 6bee 1d3e 5a36 b53b
00000360: ab97 14be d8c4 393b b6d3 a43d 675c c8bd
00000370: 2960 193d ccc3 293e 10cd d7bd b284 11ba
00000380: 03ae 5ebe fdf7 d63d cb34 5b3e a8a4 df3c
00000390: 7235 dfbc 38a5 7abf 4be8 18be 76b0 363d
000003a0: 3fc3 8b3d d84b 5b3e 4811 633e 7b67 d33c
000003b0: 10eb e83c 4c44 993c e04f b8bf 8813 4cbd
000003c0: 200e afbc 7d6c 37be a891 dc3d 41eb 683e
000003d0: 716f b7bf 7bf5 6bbe ee0c c6bd f4be 3e3d
000003e0: 97a6 0cbe 4ace 5f3e 8c53 5ebe a9c0 3ebc
000003f0: 4902 2a3e 5a31 a4bf b844 ac3c 3104 b8bd
0.12762448 0.017904822 -0.21048385 0.2964243 -0.117284805 0.12810124 -0.37737396 0.42807776
0.07217022 0.008423528 0.022804722 -0.03243623 -0.09005106 0.10632059 0.014069585 -0.03518134
0.02934414 -0.005040821 -0.20537508 0.27718696 0.020797802 0.22393693 -0.16353534 0.20526426
-0.81713533 -0.52135867 -0.107621215 -1.0226935 0.6751176 -1.2476608 0.20700406 -0.1758646
0.21514513 0.011841929 0.012531016 0.09190999 0.029104104 0.2162867 0.07768442 -0.09368936
0.28086436 -0.07440921 0.25389057 0.18009302 0.08160936 0.06628792 0.120322414 0.008504664
0.23480906 -0.02040724 -1.4360693 -0.004842035 -0.31076458 0.056440126 0.0076857996 0.11486837
0.033567358 0.12018197 0.14043273 -0.7212841 -0.3929243 -0.40431422 0.20219962 -0.053976152
0.01329997 -0.03630659 0.33216858 -0.051074214 -0.9674851 -0.2495136 0.38213938 0.114132024
0.20408356 -0.12060152 -0.12435938 -1.1569567 -0.13748385 0.09766042 0.030724823 0.48962733
-1.1084942 -0.2998048 0.25446922 -0.38470104 0.24920265 -0.020886263 0.20511489 0.04181841
-0.056105986 -0.005103511 -0.03360171 -0.15852863 0.45203018 0.28154927 -0.11913829 -0.12318962
0.71712154 -0.43380773 0.38248283 -0.34694165 -0.09137927 0.08035511 0.078491785 -0.43543872
-0.07074829 0.00925369 -0.18788128 -0.30293503 -0.8903356 -0.10695669 0.30523095 0.19516021
0.083456226 -1.0669179 -0.24935673 0.118412204 -0.23979849 -0.08777724 -0.03336685 -0.06780982
0.10179834 -0.009025046 0.031128218 -0.5971515 -0.092019 -0.15063505 0.27369037 -0.21001656
0.5343938 -0.12652375 0.29083413 0.10139988 0.040377084 0.39658555 -0.08062773 -1.5175023
-0.7458226 -0.84438056 0.09284627 0.011191277 -0.07832677 -0.16575438 0.11119155 0.040649988
0.004578825 0.08741493 0.042247787 0.38397995 0.054545764 -0.20020218 0.23636813 -0.4387222
0.027710225 -0.3821705 0.5767665 -0.49709892 0.06433858 0.25321308 0.011680732 -0.32800326
0.4678956 0.00876787 0.025133783 -0.0014703755 0.064884454 0.042442378 -0.1536898 0.2609779
0.3476493 -0.12164401 -0.15938133 -0.0434318 0.186423 -0.11630067 -1.6510564 -0.0276989
-0.06015959 0.19274415 0.34664527 -0.22322981 -0.12108147 0.1393687 0.0731784 -0.11410547
0.017473193 0.10533059 0.5951327 -0.43157047 0.001981328 0.12219303 -0.29455113 -0.118866734
0.9465138 -0.028945124 -0.07303877 0.17506163 0.016859232 -0.15341242 0.141114 0.15222429
-0.41762635 -0.12202107 0.09994294 0.23015524 -1.2840964 -0.11767388 -0.08227545 -1.3881822
-0.30284065 0.31303725 0.18180831 0.23756725 -0.24288173 0.12953827 0.1542298 0.005530161
-0.14510982 0.0028346088 0.08048193 -0.09783249 0.03744522 0.16578597 -0.105371594 -0.0005551084
-0.21746068 0.10496519 0.21406858 0.027300194 -0.027247164 -0.97908354 -0.14932363 0.04460188
0.068243496 0.21415651 0.22174561 0.02580618 0.028432399 0.018709324 -1.4399376 -0.049823314
-0.02136904 -0.17912479 0.10769969 0.22745992 -1.4330884 -0.23042862 -0.09670435 0.046568826
-0.13735424 0.21856037 -0.21711558 -0.011642613 0.16602434 -1.2827561 0.021028861 -0.089851744

conv.0.bias f4 [16]
00000000: 204b 03bd b39f e63d 4c9e 52bc 511c 41bc
00000010: 7236 81bd 8a9e dcbe f3af 933e c3bf c2be
00000020: adfd 85be f289 f2bd ce9f 1ebf 6afc 3cbd
00000030: 5a5a 063d 1105 ce3d ec7e 17be a293 d93d
-0.032054067 0.11260929 -0.012855124 -0.011786536 -0.06309213 -0.43089706 0.28845176 -0.38036928
-0.26170102 -0.11842717 -0.6196259 -0.04613916 0.03280101 0.1005956 -0.1479451 0.10623862

conv.2.weight f4 [32, 16, 3, 3]
00000000: ec7e c1ba 6f7b 7f3d 6b1c aa3c 1c39 113e
00000010: f39b eebb 959e a83d 81b1 993e 0221 6a3e
00000020: 241d 8bbe ced6 853e 229e 003e 9613 0dbe
00000030: c4dc 65be 1336 8b3d 2e5e ecbc 299a c93d
00000040: b9c6 7fbb 67e9 99be d75e 49bd e740 fd3d
00000050: 1e35 3abd 12f7 18bf a5ce c33e 2d9c c3bf
00000060: e510 adbd af2c 67bd 7342 113d 2dc2 033e
00000070: 797d fdbd b9d3 6dbe c097 513e 533d c4be
00000080: d389 fcbd 1cf1 31be 0a8a 563e ff49 a73d
00000090: f2a7 163e fc0a a63d b779 843e 1986 5dbc
000000a0: 59e0 923d 4d9d 5abe 1908 6a3e f146 8fbd
000000b0: 1da4 3a3d 546c 8b3c b211 483d 2d5a e9be
000000c0: 6909 ba3e 613e 8dbe 4470 1abd b669 0a3e
000000d0: 0110 8e3d 05cc 14bd d0d6 98be 0276 9b3d
000000e0: 8afe cbbe f077 553d a9c1 abbe 4acf 42be
000000f0: 5c3e 45be e9f6 063e 84db 873d 2111 823e
00000100: ccce c0bd 270a 3f3d 1bfe 29be 09e9 8abd
00000110: 768f be3d cd3e 953d 08fe 97be 767f 57bf
00000120: d5a7 93be 75e1 d33c 0df4 0d3f 9a73 c23d
00000130: 13ce 153d a45b 423e cccc ca3d ba7e b0bd
00000140: f00c 81be 0586 2b3e 9607 d4be c000 ba3e
00000150: 6125 3cbe b877 99be c8f7 fcbd 8e59 a73d
00000160: 6746 373e 499e 893e e1ab 943e a276 56bd
00000170: 56bd 023d 245d 03bc fddb c5bd add5 1abf
00000180: 9343 ca3e dd7c d03d 0b98 3bbe a10f 72bd
00000190: 2fec 60be 8b67 46be c40d 10be 7235 76be
000001a0: b2a9 d5bd 67a4 193e b521 8fbd ecbd babc
000001b0: 76d2 dfbb 38bc b23c f05c d13b 1a95 4fbd
000001c0: 50a2 24bf 3c02 61bd 730c 2c3d 73e9 d63c
000001d0: 972e 10be 7057 b3be 0428 36bf c725 58bd
000001e0: 2784 cf3c 3cff 4cbe 618d 4fbd f47f 59bf
000001f0: 55b6 0a3c 417c 5bbe f881 1b3e 7526 aabd
00000200: f360 803e 6616 da3d d009 3ebe d2e9 60be
00000210: b527 2e3e 5fb2 1f3d 6e3e 8b3b c712 eb3c
00000220: 5a99 0bbc 6788 833d 7839 a53d eac9 273e
00000230: e5ca 16be 398f cc3d 67a3 8abe cf3b 783d
00000240: 8d19 1f3c 8893 883e 2bd4 d7bd 7400 bf3d
00000250: 2a55 73be 1b69 23be a2e4 903d 490a 8e3d
00000260: 1b2a e2bb d86f cebc e03b 353e b850 603c
00000270: b329 4ec0 0d14 183e eff7 293e ee74 12be
00000280: a374 923e 7d26 073c 0f31 4bbe 81bb b9bc
00000290: 7bbf 2cbd 13cf b63d bffb 073d 419f f53d
000002a0: 6b56 f2bd 4b4e 853e 9c17 e6bd 4d8a b6be
000002b0: 6bf7 93be 083b ac3e 89e8 02be 6af0 613e
000002c0: 0005 07bc d56b 1bbf eb77 69be ccee 993e
000002d0: 2af5 e3be 80ee 74be 80bf 69bf 614d 8abe
000002e0: 90ce 083e cc73 8b3e d558 c0bd b6bb 893c
000002f0: 36fe 91bd cc4b 0ebe 3bc3 7cbe 923a 203e
00000300: ae07 583e 54c1 ac3e 6292 eebe 3525 a0bd
00000310: 1ba7 b4be 70a5 59be a54e aabb d4c5 37bd
00000320: fd5a b33e b018 5abd bddd a9be 8870 4cbf
00000330: 06a5 253e ebb5 303e 29ad f43e bf6a 70bd
00000340: 86e5 9d3d 1a21 90be 2c5e 083c ea79 93be
00000350: 023e 353e a59b a93e dcfc 50be 5d8a ecbd
00000360: 1f86 b1bd 487c 7b3d b58e 43be 9313 e43e
00000370: f996 c13d 828d c0be af2a 8c3e f132 803e
00000380: 61f7 603e 1c44 993e 8343 bcbd 8ae1 b93d
00000390: 44a0 033d 4102 363e 4350 69be 1041 d43d
000003a0: 2394 6e3d 52f4 b93c c104 283e f8d1 9e3e
000003b0: 7052 05bf 37ab 49be d882 01be a7b3 363e
000003c0: c3ad 07bc ee13 a0be 7c3f 9b3e 7036 19be
000003d0: 4adc a83e 69d8 a0bd a648 6a3e 7b14 e73b
000003e0: 1d63 a6bc 131b c53d c1f3 0f3e 066f 8bbe
000003f0: 12e9 013f c5e1 eebd 1bc7 8b3e 762c d63d
-0.0014762557 0.062373575 0.020765504 0.14181942 -0.007281774 0.08233372 0.30018237 0.22864154
-0.2717067 0.26140445 0.12560323 -0.13777003 -0.22447497 0.06797423 -0.028853502 0.09843857
-0.003902836 -0.30060884 -0.049162712 0.12365895 -0.045460813 -0.59752 0.38243595 -1.5282036
-0.08450488 -0.056439098 0.03546376 0.12867041 -0.12377448 -0.23225297 0.20468044 -0.38328037
-0.123309754 -0.17377132 0.20951095 0.081684105 0.14712504 0.08107564 0.2587411 -0.013520741
0.07171697 -0.21349068 0.22854652 -0.06995953 0.045566667 0.017019428 0.048845 -0.4557661
0.36335304 -0.27586654 -0.03770472 0.13516888 0.06936646 -0.03632738 -0.2985139 0.075908676
-0.39842635 0.052116334 -0.33546188 -0.19024387 -0.1926207 0.13180126 0.06633666 0.25403693
-0.094144434 0.04664054 -0.1660084 -0.06782729 0.09304707 0.07287369 -0.29685998 -0.84178865
-0.28838983 0.025864342 0.55450517 0.094947055 0.03657348 0.1898027 0.09902343 -0.08617921
-0.25205183 0.16750343 -0.41412038 0.36328697 -0.18373634 -0.2997415 -0.12351948 0.08171378
0.1789795 0.26878574 0.29037383 -0.05235923 0.031918846 -0.008017812 -0.096611 -0.60482293
0.3950468 0.10180066 -0.18319719 -0.059096936 -0.21965097 -0.19375436 -0.14067751 -0.24043825
-0.104327574 0.15004121 -0.06988851 -0.02279564 -0.006830509 0.021818265 0.006389253 -0.050679304
-0.6431017 -0.05493377 0.04200406 0.026234364 -0.14080273 -0.35027647 -0.7115481 -0.052770402
0.02533157 -0.20019239 -0.05067194 -0.84960866 0.008466323 -0.21434118 0.15186298 -0.08308116
0.25073966 0.106488034 -0.1855843 -0.21964195 0.17007335 0.038988467 0.0042493856 0.028695477
-0.008520449 0.06422501 0.08067602 0.16385618 -0.14725836 0.09988255 -0.2707779 0.060603913
0.009710682 0.26675057 -0.10538515 0.09326258 -0.23762956 -0.15958063 0.07074858 0.069355555
-0.006901992 -0.025199816 0.17698622 0.01369112 -3.221295 0.14851399 0.16598485 -0.14302418
0.28604612 0.008248922 -0.19842933 -0.022672417 -0.042174798 0.08926215 0.03319907 0.11993266
-0.11832889 0.26036295 -0.11234972 -0.3565239 -0.28899702 0.33638787 -0.12784018 0.22064367
-0.008240938 -0.60711414 -0.22799651 0.30065 -0.44522983 -0.23919106 -0.9130783 -0.2701216
0.13360047 0.27236784 -0.09391943 0.01681314 -0.07128565 -0.13896102 -0.2468385 0.15647343
0.2109668 0.33741248 -0.46596056 -0.07819597 -0.3528374 -0.21254516 -0.0051973634 -0.044866398
0.35030356 -0.0532462 -0.33176985 -0.7985921 0.16176233 0.17256896 0.4778836 -0.05869555
0.07709794 -0.28150254 0.008323234 -0.2880395 0.17699435 0.3312656 -0.20408958 -0.11549828
-0.0866816 0.06139782 -0.19097407 0.44546184 0.09452624 -0.37607962 0.27376315 0.25038865
0.21969368 0.29934776 -0.09192564 0.09076221 0.032135263 0.17774297 -0.22784524 0.10363972
0.058246743 0.022699509 0.16408063 0.31019568 -0.52078915 -0.1969422 -0.12647569 0.1784197
-0.008281174 -0.31265205 0.30321872 -0.14962173 0.32980567 -0.07853777 0.22879276 0.007052002
-0.020310933 0.096243046 0.14057828 -0.27233142 0.5074626 -0.11664156 0.27300343 0.10457699

conv.2.bias f4 [32]
00000000: bd13 ac3e 0e37 e13c 7c7e d6be e661 c6be
00000010: 4172 4c3e 78fe 3cbe 1044 b73d e707 8fbe
00000020: cb48 09be 2890 32bb 5e80 cb3d 92af 933c
00000030: fb43 2fbe 34d9 59bd e600 b33c 52bb 8cbe
00000040: 3ddb 033e fb20 a8bc 8d23 503d 4fe2 dbbe
00000050: 4683 e6bd 1d40 943e 0bc3 24bf a044 393e
00000060: 96df 2fb8 e7b1 2b3e 159e 80be a2f7 853d
00000070: 98e5 8e3c 2767 0dbd 5c64 4ebd 4946 77bd
0.3360881 0.027492072 -0.41893375 -0.38746566 0.1996546 -0.18456447 0.08948529 -0.27935717
-0.13406675 -0.0027246568 0.099365935 0.018028054 -0.17115776 -0.053185657 0.021851014 -0.27486664
0.12876602 -0.020523539 0.050815154 -0.42946097 -0.11255507 0.28955165 -0.6436011 0.18092585
-4.1931482e-05 0.16767083 -0.25120607 0.06541373 0.017443463 -0.034522202 -0.05038868 -0.060369764

conv.4.weight f4 [64, 32, 5, 5]
00000000: a53a 773d 7447 2ebe a238 f4bd 63ea 3c3e
00000010: 6494 0f3d b8f0 5abe 53c0 9a3d aebf 513c
00000020: b7be 363c 4087 453d 6a6f 043e 8b37 84bc
00000030: e73a 563e be50 65be 122f 463d 207b cebe
00000040: f827 f73d a58e 38be 64bd 503f ec43 11bf
00000050: 312d 1c3c 6a75 adbe c471 89be aa35 623b
00000060: aa4f 27be 2ad2 72bd afcb cebe 6038 bb3d
00000070: e260 a13e d64f a3be 3c75 1abe 34cc 333e
00000080: f1ce 7bbe 7e76 543e f49e 163d 68d3 c93e
00000090: f134 cebe 50b2 213e cb34 0a3f 861b 21bf
000000a0: ba19 603e 4027 353e 49d9 c73a 1a3b 843e
000000b0: 55f0 9b3e 4291 35be dea2 3e3e f338 d13d
000000c0: 9a5d debd 04d6 713e 0c15 6dbe 6daf bf3d
000000d0: 4c86 f1be fbd2 a8be b541 a03e 81f2 a03e
000000e0: a215 ce3c 943d bfbe 55d0 613e 5bf2 c8bf
000000f0: 7c58 5fbf e512 983e 788f 33bf a6a6 a1be
00000100: bf97 333e cdd9 773e b6f1 4dbe c160 2c3f
00000110: d103 bf3d 1811 0abe 3a7d 583c c417 2c3e
00000120: ca93 3e3d 4dfe 41bd 7def 843d 96f4 c83c
00000130: b858 febd 0031 1dbe 1e5b 283d 847d 38be
00000140: e473 dc3d 59d6 393e 82b5 8c3d 1a13 0e3f
00000150: 14d4 8b3d b0b8 7cbe 1f23 5bbd c298 12bf
00000160: 3653 c1bd 548b 733f 4c85 77bc 9f79 603e
00000170: bc61 75be fe38 09bf f881 dcbd 1273 023f
00000180: 3dcd 413e 4dc5 aebd 9a7e 253f 7a85 89be
00000190: 95f7 a43d 2f7c ad3d 2d70 45be 87be 76be
000001a0: 4dab 2fbe b25a cb3d 535b b03d f806 683e
000001b0: b460 e53d 6031 d43d 415d 22bd 4533 303d
000001c0: d154 f83e e9d5 ac3e 2091 473d e1a1 95be
000001d0: e2e8 01bd 7964 243e efa0 a73e 2f14 e83d
000001e0: 539d ee3d dfdf 62be 001b c93e 010b 4c3e
000001f0: 2494 fa3e de36 863f 5174 a83d 1d6b 9d3d
00000200: f0c3 9c3d a7ec 0bbe b33a 093e 6cc5 03be
00000210: 71bf 9f3e bc6f 663d 6d05 53be fbbc 3ebd
00000220: a126 a93d 44a1 adbd b353 123f a5c8 2ebd
00000230: 7e37 64bf 561e 65bd 7c9f 8c3b 1e35 abbe
00000240: 3f69 77be 3104 16bf e5c8 76be 7d50 b63e
00000250: 5db9 c53d b008 0dbf bd98 e6be 613f aa3e
00000260: 15ad debe c1fe 823d 2848 dcbe ab5c 9bbe
00000270: 41b8 e1be d5f2 44be 8bae 03be 8e09 99bd
00000280: 01af adbd c2e3 f33d e73d 8dbe 36cc 323e
00000290: d91a 903f 8dad a43e 9255 b7bd 0875 43bc
000002a0: 2282 41bf 552c 183f 47b7 653e 2735 d7be
000002b0: e049 513d 79bb 30be ccc7 273e ddda d7bd
000002c0: 359a dc3e ff8c cb3e 1428 3e3e f8fc 0a3e
000002d0: 975f 2dbf 9f4b 963e d69b 83be 5e87 28be
000002e0: d112 ea3e c76b bdbe 9bc5 b33e c3d3 41bd
000002f0: 2f9d 60be d9c9 d4bd b0b7 c5be c666 eebd
00000300: 3ed6 6e3e 0a56 863d 8ccd 383e 19c9 a43a
00000310: d73e 5c3d 04f7 f0bd b12a 5ebe b5aa ba3d
00000320: be9c 9ebd 2ca4 353e ad10 b8be e7b7 dfbe
00000330: 03fc b5bd 4313 f33e 5760 853e c734 b53d
00000340: 3154 753c 4bac 43be 6cfb 18be c3cd 40be
00000350: 16ce e8bd bf40 06bb df45 b43d 34a1 07be
00000360: 85b9 003e ce02 4e3d d18b ef3d ef4f f0bd
00000370: 96fd 4ebe 7cb9 0a3e f888 7cbe 8945 363d
00000380: e296 27be 3e06 a53d 2cb8 90bc 951c 203e
00000390: 33d3 253d d4ed 133e dd5c 273e ffa3 14be
000003a0: 6b41 c2be ed0c 303f c387 babd c4cc 3bbe
000003b0: e876 7bbe 05a5 803e ee9e f3bc aeda 423e
000003c0: 094c 913e f8ff 9d3e d233 09be 6dfb 3a3e
000003d0: 63f8 1c3d 4c2c 733e dbf4 983e 3db9 01be
000003e0: 2aad d23d a19c e23d cd85 b4bc f6bd c63d
000003f0: c59a 37bf 7b18 adbd 2ca1 103e 826b c03d
0.060358662 -0.17019445 -0.11924864 0.18448786 0.035053626 -0.2138089 0.07556214 0.012802048
0.011153868 0.048224688 0.12933126 -0.016139766 0.20920907 -0.22394082 0.048384733 -0.40328312
0.1206817 -0.18023165 0.8153899 -0.56744266 0.009532259 -0.33878642 -0.2684461 0.003451685
-0.16338983 -0.05928246 -0.40389773 0.09141612 0.31519228 -0.31896847 -0.15083784 0.17558366
-0.2459066 0.20748326 0.036772683 0.39419103 -0.40274766 0.15790677 0.53986806 -0.6293262
0.21884814 0.17690754 0.0015247251 0.2582634 0.30456796 -0.17731193 0.18616816 0.1021594
-0.10857697 0.23616797 -0.2315256 0.09359632 -0.47172773 -0.32973465 0.3130013 0.31435016
0.0251568 -0.37351668 0.22052129 -1.5698961 -0.8724439 0.29701915 -0.7014079 -0.31572455
0.17538355 0.24204178 -0.20111737 0.67335135 0.093269 -0.13483083 0.01321345 0.16805941
0.04652766 -0.04736166 0.06490991 0.02453069 -0.124192655 -0.15350723 0.04110252 -0.1801663
0.10764292 0.18148173 0.06870557 0.55497897 0.0682756 -0.24679828 -0.05350029 -0.5726434
-0.09439699 0.9513447 -0.015107464 0.21921395 -0.23963064 -0.5360259 -0.10766977 0.50956833
0.18925948 -0.08533726 0.64646304 -0.26859647 0.08055035 0.08470952 -0.19281073 -0.24096118
-0.1715519 0.09929408 0.08611169 0.22658908 0.11200085 0.1036098 -0.039639715 0.043017644
0.4850221 0.3375695 0.048722386 -0.29225066 -0.031716235 0.16053952 0.3273997 0.11331975
0.11651101 -0.22155713 0.39278412 0.19926073 0.48941147 1.0485494 0.082253106 0.07686446
0.076545596 -0.13664494 0.13401298 -0.12868279 0.31200746 0.056258902 -0.20607539 -0.046566945
0.08259321 -0.084780246 0.57158965 -0.04267182 -0.89147174 -0.055937134 0.004291473 -0.33438963
-0.24161242 -0.58600146 -0.24100073 0.35608283 0.09654496 -0.5509138 -0.45038405 0.3325148
-0.43491426 0.06396247 -0.430238 -0.30344138 -0.44085887 -0.19233258 -0.12859552 -0.074725255
-0.08480645 0.11908676 -0.2758629 0.17460713 1.1258193 0.3216366 -0.08951868 -0.011929758
-0.7558919 0.59442645 0.22433196 -0.4203274 0.051095843 -0.17259015 0.1638481 -0.10539792
0.430864 0.3975601 0.18569976 0.13573062 -0.67723984 0.2935457 -0.2570483 -0.16457888
0.4571748 -0.3699629 0.35111699 -0.047321092 -0.21934961 -0.10390062 -0.38616705 -0.11640696
0.23323914 0.065593794 0.1804716 0.0012572139 0.053770866 -0.117658645 -0.21695973 0.09114591
-0.0774474 0.17738408 -0.35950223 -0.43694994 -0.08885958 0.47475633 0.26050064 0.08847957
0.014973686 -0.19108693 -0.1493966 -0.18828492 -0.11367433 -0.002048537 0.08802389 -0.13245088
0.1257077 0.050295644 0.1169659 -0.11733996 -0.20213923 0.13547319 -0.24661624 0.044499908
-0.16366151 0.08057831 -0.017665945 0.15635903 0.04048462 0.14446193 0.16344018 -0.14515685
-0.37940535 0.68769723 -0.09107926 -0.1833983 -0.24557078 0.251259 -0.02973887 0.19028732
0.28378323 0.3085935 -0.13398674 0.18259974 0.038322818 0.23747367 0.2987431 -0.12668319
0.10286935 0.11065031 -0.022036457 0.09704201 -0.71720535 -0.08451935 0.14123982 0.093955055

conv.4.bias f4 [64]
00000000: c02c d7be 1bd3 a0be 41f4 15be f2af 34bb
00000010: 28b9 07bf 40a1 7fbe 8c1d 35bd 164d 5abe
00000020: 5075 9b3e 9001 79be 92fd 663e 544e 47bd
00000030: f9b4 3abe 6aa7 2cbd bf18 c1be 1d07 4cbe
00000040: 2c0c e2bc edb5 b4be bbd2 8c3d 8e43 a0be
00000050: 0dad 12bd 15be f6be e880 41bd 6d72 89be
00000060: b42d dbbe 24ac 173f b8f4 7cbd 7016 18bd
00000070: 5cb9 eabc 1495 5abe 7597 b2bd 35e9 f3bd
00000080: 80b6 b1be b3da bebd ae9b 2fbe 594b 183e
00000090: 32a1 313e a445 03be 85fe b9be 38b2 78bd
000000a0: ea63 af3d bad3 49be 27d9 47be 43ba a1be
000000b0: 9385 41be 3651 27bd 4810 7ebe 1915 f83e
000000c0: ebcd 3dbd abf0 a9bc 5a00 39be 1ae0 223c
000000d0: 2ce5 f03e a42d d83e de11 24be 5a47 abbc
000000e0: ee33 d03d d3fa babe 1ddb 91be 6561 e4be
000000f0: 37f6 2e3f 365f d7bc ea74 ccbe e755 dd3c
-0.4202633 -0.3141106 -0.14643957 -0.0027570692 -0.530169 -0.24963856 -0.04421763 -0.21318468
0.3036294 -0.24317002 0.22557667 -0.048658684 -0.18233098 -0.042151846 -0.37714192 -0.19924589
-0.027593695 -0.35295048 0.06876131 -0.3130154 -0.035809565 -0.48191896 -0.047242075 -0.26845112
-0.42808306 0.5924704 -0.06175682 -0.037130773 -0.02865284 -0.21345931 -0.087202944 -0.11909715
-0.3470955 -0.09319057 -0.17149231 0.14872493 0.17346647 -0.12819535 -0.36326995 -0.060716838
0.08563979 -0.19709674 -0.19516431 -0.3158742 -0.18898611 -0.040848933 -0.24810898 0.48453596
-0.046338957 -0.020744642 -0.1806654 0.009941125 0.47049844 0.4222232 -0.16022441 -0.020908047
0.10166155 -0.3651949 -0.28487483 -0.44605556 0.68344444 -0.026290517 -0.39932948 0.0270185

conv.7.weight f4 [64, 256]
00000000: d566 913d ce77 0b3e 7630 153d 4292 afbb
00000010: f760 8c3e 971e 9f3d 99ab 453e 2ccc 95bd
00000020: 08b3 d8bd 05be e03c 1341 a2bd 0bb9 213d
00000030: beae 7bbd a0eb ff3c 10c8 f93b 2874 233d
00000040: c097 38be 63b9 ef3c b236 9d3e a85d 933c
00000050: 915b a33e 5ee6 1c3d 81c6 f23d 42b6 2b3d
00000060: 104e b63c 1060 153d 1403 45bd 8881 7a3c
00000070: 295b 853c 88fb 473e 692b 083e 1c1f ad3d
00000080: 35b0 913d a9b7 babe 4a03 86bd 360e 6abe
00000090: 5efd 80be ad80 ff3d 9c83 8abd 41df c4bd
000000a0: cd38 e03c a5de 813e 95fb 68be 9a4f a3bd
000000b0: 5492 bf3c 589d 863c 9ed1 003d 106f edbc
000000c0: 7042 8ebd 529d 8c3e ce24 00be 7811 f33d
000000d0: 3c29 5abd 5ed0 393d f82d 193c 18ca 11bd
000000e0: b1be 48be f6e3 c73e 7a30 7dbe 5a08 833e
000000f0: 8a2e 843e 1254 593e 0850 74be ed95 fe3d
00000100: e063 55bd 9c5e b5bc 4083 a9ba d6e8 1f3d
00000110: 29ba a4bd 5a13 7abe 3a6d 66be 277f 063e
00000120: 16c8 10bd f9e1 d9bd 145e 0ebe 854b 193e
00000130: a952 12be 7e07 aebd 63d0 0cbd d098 a3be
00000140: c606 d03d fdb6 f33c e8c2 0d3e 337b e0bd
00000150: 21f1 a43e 2d0e 76bd 1144 f83d 3f93 793d
00000160: 3244 5cbd 28f9 8c3c 80f7 2b3b 5859 5ebd
00000170: f45e b93d f6b1 903e 0de8 eb3c 1f11 16bd
00000180: a4d5 143e 7174 9ebd 66ea 083e 5aa0 233e
00000190: 730d 6fbd 43f2 4cbe 60e6 fdbc f37a a1bd
000001a0: b870 b43c 4ef9 763d f8cf c83c 28b5 33bc
000001b0: 6dc8 973d c5dc ed3d cd72 16be c3bc 433d
000001c0: 5af9 343d 50ac 563c 80a9 813a 4488 a33c
000001d0: 3fcc ea3c d56b 67be b4e1 f3bd b995 b23d
000001e0: dcf2 11be ceef f43c 528d 173d 6a34 b9bd
000001f0: 528b 193d 547a 43be c2cd f93d 6574 69be
00000200: abb4 bb3e dcfc 193e 6698 853d b45d b93e
00000210: 1329 b53d 50fb 2f3e ec5e b93d a9dd d13d
00000220: 88de 663e 760e b2bb 4150 993e 440d 4f3e
00000230: 3018 f93d 0696 eebd 30de 24bf 4460 743d
00000240: 25a3 bf3d 5c51 163e f198 11bf c777 623e
00000250: 6602 a23d a1ff 283e f686 043e 7660 93bc
00000260: 86fb c4be d3a5 9a3e eb9c 313c c67a f43d
00000270: dea6 2cbd b63d 17bd 6418 cf3c 80bf 223b
00000280: 48e7 093e 96b1 09be 3552 6abe d952 023d
00000290: 9514 fbbc d0e1 00bd da17 aebc 51f7 053d
000002a0: b60f 9bbd e9be 4a3e 4c41 783d d13d 7d3e
000002b0: 1cd6 063e c996 1e3e c6df 9abd 4179 083e
000002c0: ca88 cbbd 79a5 36be 7372 a6bc 61ca 0dbd
000002d0: 42b3 5a3d d2d2 793d 24ae be3c 203d 05bd
000002e0: a1de 1dbe 10c8 263e 345e 423e 8819 2c3e
000002f0: e29c 463c e1d7 b4bd 41ca b33c fc9d ac3c
00000300: 30f9 0c3d 9231 153d 806d 20bd 10e3 d2bb
00000310: 1468 183d f486 bfbc 3c06 40bd c053 1f3c
00000320: 9d83 663e 61d1 5c3d 89f3 263e ba28 4ebd
00000330: 6e35 7ebd 04cf fdbc ca11 063d 1440 6d3d
00000340: e4f6 123e 57f0 0fbe d928 773e 4c6a a23c
00000350: 9dce 4f3e c8e5 00be 600c 70be 13e8 173e
00000360: a074 b43a 4594 e1bd 46d4 bf3c cc52 20be
00000370: 42ae 0ebe 0fc2 f8bd 43cf 8cbe fedc ebbd
00000380: 1dfe 35be e3fc 973d 6451 70be 3a0e b9bd
00000390: 3454 2abe 0b7f 45be e657 8c3e db52 fe3e
000003a0: 4e82 cb3c 9dbc f0bc fa18 653e f34a 0fbe
000003b0: 5108 55bd fef4 993e a0f1 01be db0e e8bd
000003c0: 03fc 33be a54b 963e 5e5c 41bc a544 6f3e
000003d0: 90a2 613e 25a5 363d 1ca0 88be cc93 eebd
000003e0: 8dad f4bd 3e75 d4bd b4a3 bcbd e665 f1bd
000003f0: 7212 c0be 93ab 5cbd 80bf 9abb 5b5e 67be
0.07099692 0.1361992 0.03642317 -0.0053580115 0.27417728 0.077695064 0.1930374 -0.07314333
-0.105810225 0.027434358 -0.07922568 0.03948311 -0.061445944 0.031240284 0.0076227263 0.039905697
-0.18026638 0.029263204 0.30705792 0.017988995 0.31905797 0.038305633 0.11854268 0.04192186
0.02225402 0.036468565 -0.04809864 0.015289672 0.01627882 0.19529545 0.1329781 0.08453199
0.07113687 -0.36468247 -0.06543596 -0.22856984 -0.25193304 0.12475715 -0.06763384 -0.09612895
0.027370835 0.25365177 -0.22752221 -0.07974167 0.023385204 0.01643245 0.031449907 -0.028983623
-0.06946266 0.27463776 -0.1251404 0.11868566 -0.05326198 0.04536473 0.009349339 -0.035593122
-0.19603993 0.39041108 -0.24725524 0.2559231 0.25816756 0.21223477 -0.23858654 0.1243094
-0.0520972 -0.02213984 -0.0012932792 0.03904041 -0.0804332 -0.24421445 -0.22502604 0.13134442
-0.035347067 -0.10638804 -0.13903075 0.14970215 -0.14289345 -0.08497523 -0.03437842 -0.31952524
0.10157542 0.029750342 0.13843882 -0.109609984 0.32215217 -0.060072113 0.12122358 0.06093144
-0.053775974 0.01720865 0.002624005 -0.054284424 0.09051314 0.28260773 0.028797174 -0.03663742
0.14534622 -0.07737053 0.13370666 0.15979138 -0.058362436 -0.2001429 -0.03099364 -0.07884779
0.022026405 0.06029635 0.02451323 -0.010968484 0.07411275 0.11614374 -0.1469223 0.04778744
0.044183113 0.013102606 0.0009892434 0.019962437 0.028661845 -0.22599728 -0.11908284 0.087199636
-0.142528 0.029899504 0.037000008 -0.090432 0.03748638 -0.19089633 0.12197448 -0.22798307
0.36661276 0.15037864 0.06523208 0.36204302 0.08845725 0.17185712 0.09051308 0.102473564
0.22545826 -0.005433853 0.2994404 0.20219904 0.121628165 -0.116497084 -0.6440153 0.05966212
0.09357289 0.14679474 -0.56873995 0.22116004 0.07910614 0.16503765 0.12942109 -0.017990332
-0.38473147 0.3020464 0.010840635 0.1193748 -0.042151324 -0.036924087 0.025280185 0.0024833381
0.13467133 -0.1344665 -0.22882922 0.03181729 -0.030649463 -0.03146535 -0.021251608 0.032706562
-0.07571356 0.19799389 0.060609147 0.24730612 0.13167614 0.15487207 -0.07562213 0.13327505
-0.099382 -0.1783656 -0.020318246 -0.03461683 0.05339361 0.06099207 0.023276396 -0.032528996
-0.15416957 0.16287255 0.18981248 0.16806614 0.012122365 -0.08830238 0.021947028 0.021071427
0.03441733 0.036424227 -0.039166927 -0.0064357594 0.03720863 -0.02337978 -0.046880946 0.009724557
0.22511144 0.053910617 0.16303839 -0.05033181 -0.062062673 -0.030982502 0.03273181 0.057922438
0.14351994 -0.14056526 0.24136676 0.019826077 0.2029366 -0.12587655 -0.2344222 0.14834623
0.0013767667 -0.11014608 0.02341665 -0.15656585 -0.13933662 -0.12146389 -0.27501878 -0.1151676
-0.17772718 0.07421281 -0.23468548 -0.090359166 -0.16633683 -0.19286744 0.2741081 0.4967259
0.024842408 -0.029386813 0.22372809 -0.13993435 -0.052009884 0.30069727 -0.12689829 -0.113309585
-0.17576604 0.29354587 -0.011801807 0.2336603 0.22034669 0.044591088 -0.26684654 -0.11649284
-0.11947165 -0.10373925 -0.092109114 -0.11787014 -0.37514073 -0.053874563 -0.0047225356 -0.22594588

conv.7.bias f4 [64]
00000000: a168 21be bf05 3a3f 46f0 023f 4b5a e13e
00000010: e0da 733f f5de 4e3f 6c08 93be 1dbe 113f
00000020: 43b8 783b 6822 b93e 9e60 c6be d711 a43e
00000030: c4e4 4a3f fe98 423f fad4 633f 67f5 46bf
00000040: d2a6 0a3f 9c8e 103f 3a81 9d3f 054a d83e
00000050: 14bb b13e ec3e 163e 72f2 263f f049 1a3f
00000060: 8d91 713e f7eb 543d 565f c9be af41 b53e
00000070: e3ef c13e fce8 e73d 4a0e 063f 8135 f03d
00000080: 2b1c a0be 2180 0c3f a93a 643d d4be f8bc
00000090: a70f de3d c5e2 d0be 468f 66be c112 f83d
000000a0: 2ed2 703e 96f2 1a3e 6eaf 373e 385f 653e
000000b0: 82bf 003f 6a50 fc3d 7682 783f 0570 853e
000000c0: 5c33 8e3e d217 ad3e ea52 a9be 548c 623e
000000d0: 2355 833e e808 e6bd b888 163f 8a53 76be
000000e0: a93c 703e 784c 5cbe b06c 723f 004d 6e3d
000000f0: c233 4a3f 1faa 77be 7716 0d3f 1bde 653e
-0.15762569 0.7266502 0.5114788 0.440142 0.9525585 0.80808955 -0.28717363 0.56930715
0.0037951625 0.36159062 -0.38745588 0.3204486 0.7925532 0.760147 0.8899685 -0.77718204
0.541608 0.56467605 1.2305062 0.42243972 0.34713042 0.1467244 0.6521369 0.6026907
0.2359068 0.051982846 -0.39330548 0.35401675 0.37878332 0.11323735 0.52365553 0.11728955
-0.3127149 0.5488301 0.055720005 -0.030364431 0.10842829 -0.4079801 -0.22515592 0.12112952
0.23517677 0.15131602 0.17938015 0.22399604 0.5029222 0.12320025 0.9707407 0.26062027
0.2777356 0.33807236 -0.3307107 0.22123843 0.25650892 -0.112321675 0.58802366 -0.24055305
0.2346064 -0.21513546 0.94697094 0.0581789 0.78985226 -0.2418599 0.55112404 0.22448008

out.weight f4 [4, 64]
00000000: 2988 143e 37e6 4c3e 18d8 c43c b4e1 853d
00000010: 1a23 5e3e 6490 043d c5b6 de3c 91e8 4d3d
00000020: 9716 833a eec5 803c 94dc 8b3d c869 af3d
00000030: 08ca 0a3d 9ac2 65bc db11 d6bb 61d5 093d
00000040: ec7e 3cbf 8001 1d3d 03f5 ff3e 586a b03a
00000050: d98a 01bd 4b69 5a3c f1a6 013e 9fc7 c63c
00000060: 28ed 3bbd 0356 3cbc 2213 623e 6629 ea3d
00000070: 64e1 5d3d 274c a6bc 3f52 513d e1fd 77bd
00000080: ff59 75bc d523 503c e4e7 bd3d 2ad5 79bd
00000090: c8cc 6d3d ec5e 46be ddb1 35bd fbfc cabd
000000a0: 4cd1 ba3d b9e6 3b3d c312 c03d 3fc5 57bd
000000b0: 0628 c6bf e3bd e0bf 205c 3cbd 5a8b debf
000000c0: 78f9 4ebf af39 03bc a62c 183e ce38 aa3c
000000d0: 39ae 91bd 3ba9 0c3d dacf 21be 09de 9d40
000000e0: b9c3 c23d d65b 673d 7fe1 813d c368 2abe
000000f0: b754 50bc dfdd c9bb 6631 2c3e bafc 25bd
00000100: 8497 f2bc 383f ad3d ee22 4b3d 17ff b83c
00000110: 89f5 843e 4cb9 863d e6c5 173e 4f70 0ebe
00000120: 4938 02bf 8e9c fe3d b9f2 a83d 4770 8a3d
00000130: a5a3 933d 47bb ae3d e7d2 6c3d 391d 533d
00000140: fcf4 463c 853b 023d 3ee6 013f af5f afbf
00000150: c17a 85be 1416 0c3e b724 8b3d 1aca 9abc
00000160: 7992 47bf 6cea 693b d48a 4a3c 4290 e63d
00000170: 9c51 9abf b6a3 51be 7fa2 abbc 0349 9d3d
00000180: aa32 6fbd 1328 0c3e 46c1 acbd 3e4a 1d3b
00000190: ee48 9c3c 7ad6 873c 7fc7 42bd be96 f23c
000001a0: 4697 97bc 5096 90bd b786 cabd 103d abbd
000001b0: a73c cf3d 4e77 2ebd 5038 e9bd 1822 273c
000001c0: 1393 99bd ac2a 113e da08 81bd b198 ca3d
000001d0: 4a86 b93c 0906 183c 048f 0f3d 4694 febc
000001e0: 09af 7abc a177 c3bd b1ff 373d 72aa ec3d
000001f0: 6da0 1a3d f7a1 73bd e61a 31bd 364b 32bd
00000200: 53ee 213d e76d 093d db3b a9bf 2332 95bb
00000210: 0b1a 223d 57db 523d 6a08 16be f3f5 cfbc
00000220: 5e06 a13d 561a 033d 9ebf 62bd 4042 033e
00000230: fbed 383d a786 563d b9d4 1b3d 03ce 07be
00000240: 42df 773c d5d9 0a3e 6c6c 0b3f 3693 7d3d
00000250: ede1 45b9 ee17 f8ba 91a1 f03d ab19 10bb
00000260: fe0d 4bbc 3e3c a1bf 398b 24bd e5cd a8bc
00000270: 91cc b2bd b6de b23d dd00 1d3e ccff 2a3d
00000280: 3129 16bd e9cb 7c3d 2f78 973d 3a46 4440
00000290: 1e4f 5a3c 7d7b 973c 8587 2cbd f3d4 0fbd
000002a0: 8c6c debd de21 09c0 45d0 2dbe 12e5 dc3c
000002b0: 7297 b63b 6982 853d bb2e 32be 8809 afbd
000002c0: 0ad9 3abc 6b3f 10c0 9c09 793e 193e debd
000002d0: daf5 503c d8d3 1bbc 6508 003e f23d d1bc
000002e0: f57b 8b3d c1cf 7540 bc2d 543e e24d 00bd
000002f0: 34e2 d63d 7b3e 68bd 29f6 d83c dc35 b6bf
00000300: a29a a83d af03 a23c e11e 4c3b 6a4f 9e3d
00000310: 964e 103e 659e a53b e667 6dbf d213 b53d
00000320: 5945 a2bd bb41 08bd f984 333d ad9d a63d
00000330: 304b cc3c 6328 8d3d 079c 043e e6f9 603a
00000340: 1fc1 6e3c df9d af3d 2304 043f 9e12 d53d
00000350: 5499 763d 9a93 03bf 441e f73d 1e1f d03d
00000360: 761b cb3c 33a7 65bd 367a a53c 0359 863d
00000370: 1c1f 89bd 1065 4bbf 2d2e c8bf e3f2 62bd
00000380: 9d74 8840 e455 f5bd a7fd 07be dbd0 a4bc
00000390: 3520 423e 02fe e23c 370a 803d 8106 acbf
000003a0: 9811 b0bf c8e8 26bd 4d12 80be 60a1 9ebf
000003b0: 1a60 ef3d 07c2 b2bd 2b24 99be 01a5 27bd
000003c0: 414b 443d 420d 993c 8f8a 54bd ddf1 8c3d
000003d0: 9b69 d63d a1d2 36bd 47b1 39bb 23eb 71bd
000003e0: 54d2 ea3d 5e66 b6bc edb8 e83d e1df 8f3b
000003f0: afaa 313d 2dae 353e 20b1 fdb7 14d2 ac3d
0.14505066 0.20009695 0.024028823 0.0653719 0.21693078 0.032364264 0.02718676 0.05027062
0.0010001239 0.01571938 0.06829181 0.08565098 0.03388408 -0.014023447 -0.0065328903 0.03365076
-0.7363117 0.03833151 0.49991617 0.0013459427 -0.031626556 0.013330768 0.1266134 0.024265109
-0.045880467 -0.011495116 0.22077611 0.114336774 0.054170027 -0.020299984 0.051103827 -0.060544852
-0.01497507 0.0127038555 0.09272745 -0.060994305 0.058056623 -0.19372147 -0.044359077 -0.099115334
0.091219515 0.04587433 0.093785785 -0.052678343 -1.5480964 -1.7557949 -0.045986295 -1.7386277
-0.8084941 -0.008009358 0.14860782 0.02077904 -0.071133085 0.03434108 -0.15801945 4.933354
0.095099874 0.056484066 0.06341838 -0.16641526 -0.01271551 -0.0061604823 0.16815719 -0.040524222
-0.029613264 0.08459324 0.04959386 0.022582574 0.25968578 0.06578311 0.14821586 -0.1391003
-0.50867134 0.12432204 0.08249421 0.067596965 0.07208947 0.08531814 0.05781832 0.05154154
0.01214337 0.031795043 0.50741947 -1.3701075 -0.26070216 0.13680297 0.06794112 -0.018895198
-0.77957875 0.0035692705 0.012362201 0.11257984 -1.2056155 -0.20472607 -0.020951508 0.076799415
-0.058397926 0.13687162 -0.084353015 0.002400055 0.019077744 0.016581763 -0.047553536 0.029612895
-0.01850475 -0.0705992 -0.09888976 -0.08361256 0.101189904 -0.042594247 -0.11387694 0.010201
-0.07498755 0.14176434 -0.063005164 0.09892405 0.022647042 0.009278783 0.0350485 -0.031076562
-0.015300521 -0.09544302 0.04492158 0.11555947 0.03775065 -0.059480634 -0.043238543 -0.043528758
0.039533924 0.033552077 -1.3221391 -0.004553096 0.039575618 0.05147871 -0.14651647 -0.025385832
0.078625426 0.032007538 -0.05535852 0.12818241 0.04514883 0.05237451 0.038044665 -0.13262181
0.015128912 0.13559659 0.54462314 0.06190797 -0.00018871548 -0.001892803 0.11749566 -0.0021987956
-0.012393473 -1.259651 -0.040171836 -0.02060599 -0.08730424 0.08733885 0.1533236 0.041747853
-0.036660377 0.0617179 0.0739597 3.0667863 0.013324527 0.018491501 -0.04212143 -0.035115194
-0.108605474 -2.142692 -0.1697398 0.026964698 0.005572253 0.065190144 -0.17400639 -0.0854674
-0.011404285 -2.2538707 0.24320072 -0.10851688 0.012753928 -0.009510957 0.12503202 -0.025542233
0.06810752 3.8408053 0.20720571 -0.031324275 0.104923636 -0.05670021 0.026484566 -1.4235187
0.08232619 0.019777147 0.0031146335 0.07729991 0.14092478 0.0050542825 -0.9273666 0.08841671
-0.07923383 -0.03326581 0.043827984 0.08135543 0.024938196 0.06892469 0.12950145 0.00085821596
0.014572411 0.085750334 0.5156881 0.104039416 0.06020482 -0.513971 0.120663196 0.10162185
0.024793368 -0.056067657 0.020199876 0.065599464 -0.06695387 -0.79451084 -1.5639092 -0.055407416
4.264235 -0.11979273 -0.13280354 -0.020119121 0.18957599 0.027709011 0.06251948 -1.3439485
-1.3755369 -0.04074934 -0.25013962 -1.2392998 0.11688252 -0.08728414 -0.29910406 -0.040928844
0.04792333 0.01868308 -0.051889952 0.06882069 0.104693614 -0.044634465 -0.0028334425 -0.059062134
0.11465898 -0.02226561 0.11363397 0.004390702 0.043375667 0.17742224 -3.024243e-05 0.08438507

out.bias f4 [4]
00000000: d294 7e3f 3470 853f 26ff 6b3f af3d 733f
0.9944583 1.0424867 0.921862 0.95015997
