models/v17.1/model_35000_target.pth (torch, 295179 bytes, 10 tensors)

conv.0.weight f4 [16, 2, 3, 3]
0.21861924 0.12269643 -0.17818019 0.17706896 -0.10100206 0.03247039 -0.2670647 0.23218147
0.10939234 -0.16613863 0.12239843 -0.05093387 0.005538254 0.0138791045 0.07594478 -0.005976966
0.099482425 -0.032388907 -0.11285662 0.21538621 0.013809496 0.16420038 -0.1031943 0.22249243
-0.62771 -0.47213185 -0.21256882 -0.9075017 0.47144297 -1.0417843 0.225942 -0.1864596
0.23503874 -0.07567819 -0.03973989 0.16384701 -0.009784195 0.21363895 0.078983046 -0.117348135
0.2954842 -0.02411965 0.3202375 0.24019308 0.1527847 0.022067724 0.17901435 0.008328462
0.2730467 -0.13116355 -1.2708566 -0.108048454 -0.28263685 0.07309285 -0.03087672 0.043542627
0.026356043 0.06360928 0.15923965 -0.5289463 -0.15050389 -0.30072874 0.17728846 0.008072914
0.020056332 -0.08770282 0.31783783 -0.09361966 -0.55819815 -0.2612814 0.34077632 0.15979995
0.24587105 -0.11564796 -0.12860459 -1.110512 -0.22049321 0.17874904 0.104577355 0.43841547
-0.9493255 -0.2567654 0.25369352 -0.7825487 0.23554942 -0.023355301 0.16906111 -0.035164677
-0.05874667 0.0580461 0.0037602251 -0.115951516 0.370459 0.21624486 -0.23050101 -0.06840873
0.41273123 -0.4124411 0.23343952 -0.093424186 -0.09911538 0.084240176 0.07246613 -0.34115428
-0.1429788 -0.05079506 -0.14805707 -0.2306062 -0.9498938 -0.097418495 0.334296 0.17925942
0.14201261 -1.0172981 -0.2210928 0.094004355 -0.11246527 -0.11912917 0.06864631 -0.18096496
0.12866814 0.039788358 0.0077755847 -0.80467975 -0.5256758 -0.03458923 0.04908656 -0.15412234
0.37503815 -0.05015081 0.32081267 0.068222895 0.0069205053 0.27486637 -0.046866763 -1.2912159
-0.9396801 -0.87706625 0.09237014 0.016147412 0.06158629 -0.40574133 0.2870709 -0.08692263
-0.038188264 0.077013366 0.16650213 0.23393449 0.1544483 -0.24550705 0.12598121 -0.2611578
0.026603855 -0.34965244 0.38373405 -0.40418413 0.07331437 0.21292278 -0.006640154 -0.31567577
0.37565213 0.0877342 -0.0057491027 -0.14703268 0.15620631 0.04959595 -0.12449574 0.30432934
0.23618329 -0.06967561 -0.22007744 -0.00016038847 0.21217881 -0.1251265 -1.4457339 -0.001639846
-0.2130566 0.20573686 0.3498136 -0.3629767 -0.034936067 0.08580056 0.061807614 -0.12522389
0.1020009 0.09814944 0.31879807 -0.21732073 0.004276109 0.029744737 -0.28925386 -0.19719175
0.33732918 0.0642829 -0.068534076 0.033222653 0.10897937 -0.083128296 0.24725002 0.14518316
-0.51591027 -0.051190786 0.16970003 0.11826733 -0.85958874 -0.35164225 -0.12126893 -1.2442738
-0.31970972 0.24810119 0.12029732 0.15975636 -0.24481383 0.01246866 0.10090736 0.19663115
-0.01698377 -0.07609366 0.10441011 -0.04892031 -0.0115542365 0.2707486 -0.1071722 -0.035276134
-0.26967737 0.15721509 0.24904999 0.06498692 -0.15346277 -0.8739187 -0.2634739 0.110497996
0.082100116 0.26822862 0.2818262 0.096461914 0.021084903 0.022456605 -1.2964917 -0.010905125
-0.03150035 -0.21749085 0.065912604 0.036152516 -1.1104784 -0.2633754 -0.18062226 0.08553077
-0.20874585 0.2630656 -0.23012869 -0.1496355 0.02669349 -0.9714814 -0.011609978 -0.16581146
00000000: b9dd 5f3e 4448 fb3d de74 36be 9151 353e
00000010: 2bda cebd acff 043d b4bc 88be fbc0 6d3e
00000020: 1709 e03d 3f20 2abe 07ac fa3d 09a0 50bd
00000030: 3e7a b53b 2f65 633c f088 9b3d 6dda c3bb
00000040: 71bd cb3d 3baa 04bd 5f21 e7bd 348e 5c3e
00000050: 3941 623c 2524 283e 8857 d3bd 0ed5 633e
00000060: 9ab1 20bf 44bb f1be a4ab 59be 0852 68bf
00000070: f960 f13e 3059 85bf 575d 673e 44ef 3ebe
00000080: ffad 703e 2bfd 9abd 4bc6 22bd 83c7 273e
00000090: e34d 20bc 2bc4 5a3e ddc1 a13d 3854 f0bd
000000a0: b449 973e 9296 c5bc 2bf6 a33e 2df5 753e
000000b0: 9873 1c3e 5fc7 b43c 8a4f 373e 1a74 083c
000000c0: c7cc 8b3e bd4f 06be 6eab a2bf 8248 ddbd
000000d0: c7b5 90be b4b1 953d 2df1 fcbc c159 323d
000000e0: a1e8 d73c 9545 823d b80f 233e 0669 07bf
000000f0: b11d 1abe 1ef9 99be 1b8b 353e 4144 043c
00000100: 2d4d a43c 899d b3bd a4bb a23e aabb bfbd
00000110: 13e6 0ebf adc6 85be 3c7a ae3e 99a2 233e
00000120: 9fc5 7b3e d6d8 ecbd ecb0 03be 4225 8ebf
00000130: f9c8 61be fd09 373e a72c d63d fe77 e03e
00000140: ff06 73bf c176 83be 1ee4 813e 1d55 48bf
00000150: de33 713e 9e53 bfbc 5b1e 2d3e d608 10bd
00000160: 59a0 70bd bfc1 6d3d 1c6e 763b fd77 edbd
00000170: cdac bd3e 4b6f 5d3e 7508 6cbe e019 8cbd
00000180: 8251 d33e 7b2b d3be c50a 6f3e 2e55 bfbd
00000190: 01fd cabd 1d86 ac3d 1f69 943d c6ab aebe
000001a0: 0969 12be 7b0e 50bd 469c 17be 0824 6cbe
000001b0: 3d2c 73bf 5983 c7bd d828 ab3e c88f 373e
000001c0: c16b 113e d336 82bf 2766 62be 5b85 c03d
000001d0: 3154 e6bd fff9 f3bd 7096 8c3d e14e 39be
000001e0: 95c1 033e 1ef9 223d 55ca fe3b 7eff 4dbf
000001f0: b092 06bf 70ad 0dbd fd0e 493d 3fd2 1dbe
00000200: 0005 c03e f06a 4dbd 8f41 a43e 72b8 8b3d
00000210: 68c5 e23b 49bb 8c3e 5df7 3fbd 9046 a5bf
00000220: e08e 70bf 6a87 60bf 8e2c bd3d 9447 843c
00000230: e841 7c3d 54bd cfbe f5fa 923e 7e04 b2bd
00000240: 4c6b 1cbd 2fb9 9d3d 897f 2a3e 868c 6f3e
00000250: b227 1e3e 3366 7bbe 3801 013e 7ab6 85be
00000260: 54f0 d93c a505 b3be ca78 c43e 39f1 cebe
00000270: d825 963d 6e08 5a3e a695 d9bb 41a0 a1be
00000280: 7a55 c03e fdad b33d f862 bcbb bc8f 16be
00000290: 8cf4 1f3e 1f25 4b3d 9ff7 febd 0ed1 9b3e
000002a0: 08da 713e 16b2 8ebd fb5b 61be f42d 28b9
000002b0: 6745 593e 2921 00be cf0d b9bf 1af0 d6ba
000002c0: 822b 5abe afac 523e c51a b33e 15d8 b9be
000002d0: 1f19 0fbd 34b8 af3d fb29 7d3d b13a 00be
000002e0: d9e5 d03d 9302 c93d 8039 a33e 5389 5ebe
000002f0: 9a1e 8c3b 3cab f33c 1519 94be a2ec 49be
00000300: 69b6 ac3e c1a6 833d 985b 8cbd 7a14 083d
00000310: 9330 df3d 2b3f aabd 1c2f 7d3e e5aa 143e
00000320: b212 04bf 6ead 51bd d8c5 2d3e 2436 f23d
00000330: 020e 5cbf 740a b4be d85b f8bd 5d44 9fbf
00000340: feb0 a3be 3d0e 7e3e 715e f63d 2c97 233e
00000350: 7ab0 7abe 5a49 4c3c 85a8 ce3d ad59 493e
00000360: 8c21 8bbc fed6 9bbd f8d4 d53d aa60 48bd
00000370: fb4d 3dbc 8f9f 8a3e 197d dbbd b57d 10bd
00000380: 2713 8abe fefc 203e f606 7f3e dd17 853d
00000390: 5825 1dbe 23b9 5fbf 0de6 86be c64c e23d
000003a0: 1b24 a83d 4355 893e 864b 903e d38d c53d
000003b0: 3fba ac3c eaf6 b73c 71f3 a5bf 69ab 32bc
000003c0: 8306 01bd ecb5 5ebe 30fd 863d a914 143d
000003d0: 2824 8ebf 24d9 86be 0bf5 38be c22a af3d
000003e0: 79c1 55be 89b0 863e dba6 6bbe 0c3a 19be
000003f0: 4eac da3c 01b3 78bf c737 3ebc 7bca 29be

conv.0.bias f4 [16]
0.08528603 0.078933716 -0.026210433 -0.08376313 -0.13376518 -0.26287666 0.17576446 -0.20369855
-0.17384182 -0.022724096 -0.20321234 -0.05945344 -0.004450384 0.10559726 -0.074700065 0.05657701
00000000: 71aa ae3d 00a8 a13d 43b7 d6bc 018c abbd
00000010: bdf9 08be c597 86be 99fb 333e 5a96 50be
00000020: 9703 32be e227 babc e516 50be 7385 73bd
00000030: 87d4 91bb 6043 d83d 59fc 98bd 4bbd 673d

conv.2.weight f4 [32, 16, 3, 3]
-0.0958367 0.14274713 -0.081639506 0.2172168 0.0050265184 -0.008185611 0.12629846 0.10092809
0.008312713 0.1410074 0.0071217394 -0.007141974 0.014887647 0.08600294 0.02388401 0.023394259
-0.110059634 -0.08793032 0.098444186 0.08950401 -0.10590375 -0.18266374 0.09809953 -0.44958255
-0.040083908 -0.054404613 0.065781705 0.008644019 -0.07704106 -0.14192224 -0.032631144 -0.1323049
-0.15837842 0.019291295 0.0017925652 0.19749525 -0.030892402 0.051971942 0.072486915 0.019257322
-0.14132695 -0.22552143 0.20637056 -0.1196131 -0.12521201 0.3481018 0.029052943 -0.21510576
0.582393 -0.1674006 -0.2006144 0.29331365 0.20268089 0.014781219 -0.25522998 0.049542457
-0.15836173 0.06441714 -0.21056966 -0.06616707 -0.0417831 0.066076756 0.066286996 0.017387304
-0.3237899 -0.030968951 0.14343928 -0.042324286 0.1047315 0.02159978 -0.11290706 -0.005867794
-0.09841848 0.0055951914 0.356146 -0.15055017 0.080699846 0.16507249 0.025072513 0.23278637
0.04714253 0.056746554 -0.30837423 0.09733965 -0.01850142 -0.08705955 -0.09140076 -0.04512528
0.15311669 0.14365685 0.07920116 0.03053027 0.2258129 -0.06508293 -0.00780285 -0.107342854
0.025193311 0.0981422 -0.17380299 -0.02900957 0.0027410144 -0.328311 -0.13648638 -0.09015266
-0.042723693 0.08828734 -0.17187557 -0.05762681 0.060197186 -0.0018113151 -0.06464852 0.050979793
-0.11863525 0.0011955375 0.081353754 0.032166254 -0.045640197 -0.12847382 -0.38239864 0.14109124
-0.018856477 0.006289431 -0.19832844 -0.5036503 0.087746434 -9.6168194e-05 0.15583298 -0.1153054
-0.027712842 0.08370188 -0.1186076 -0.012560776 -0.059346687 0.021530295 0.1327834 0.023684565
-0.08131091 0.09726238 0.11756684 0.12112668 0.035570793 0.06907935 -0.3495384 -0.00033891987
0.031185435 -0.12391437 -0.003983507 -0.021454241 -0.23068507 -0.057904918 -0.0058436426 -0.02888919
-0.066763304 0.09609799 0.08864569 -0.08464193 -1.430583 0.018231435 0.019850556 -0.13796483
0.026566477 0.0032899254 -0.034172453 -0.064737715 0.042397067 0.16836585 0.12345992 0.09265364
0.07554409 0.0050820136 -0.06663346 -0.0074793054 -0.20281857 0.043243065 -0.09825623 0.15359996
-0.042878307 -0.30470678 -0.061404202 0.18398835 -0.21221693 -0.23529519 -0.459143 -0.16487265
0.21389028 0.2865764 0.06020753 0.017811682 -0.07501371 0.08214079 0.0076077636 -0.047248248
-0.18857111 0.016664725 -0.43182 -0.3554224 -0.27648303 0.25365773 -0.02397476 -0.05219093
0.10383992 0.037877128 -0.036090292 -0.26325426 0.0305366 0.02332092 0.37329343 -0.0786173
0.06528454 -0.14115599 0.15905875 -0.0028885305 -0.18843071 0.0859799 -0.080978386 -0.0033142169
0.021151545 -0.010261426 -0.07160609 0.12896489 0.15625018 -0.38735175 0.10986994 0.19944741
0.14948663 0.16367243 0.15568626 0.07281987 0.06166901 0.17014919 0.15363333 0.047519606
-0.13342783 0.054097917 -0.058887415 0.108980656 -0.25707445 -0.111827135 0.103334054 0.08388914
0.042917255 -0.124522686 0.13855644 0.1408879 0.2746512 -0.019785857 0.0067277104 0.12579605
-0.13423696 0.109164834 0.031085206 -0.1305638 0.1071152 0.0010605899 0.078793116 0.0687701
00000000: 0846 c4bd 4e2c 123e 9d32 a7bd 156e 5e3e
00000010: 7eb5 a43b f11c 06bc 6254 013e 63b3 ce3d
00000020: 0c32 083c 3e64 103e 7b5d e93b 3807 eabb
00000030: 51eb 733c 4f22 b03d 66a8 c33c 51a5 bf3c
00000040: f266 e1bd d014 b4bd 1b9d c93d e14d b73d
00000050: 11e4 d8bd 340c 3bbe 68e8 c83d af2f e6be
00000060: 062f 24bd 5fd7 5ebd 8fb8 863d a59f 0d3c
00000070: b4c7 9dbd 1054 11be 3ca8 05bd f07a 07be
00000080: f42d 22be c708 9e3c 82f4 ea3a 323c 4a3e
00000090: 1012 fdbc 88e0 543d 0574 943d 88c1 9d3c
000000a0: 03b8 10be 17ef 66be ce52 533e b7f7 f4bd
000000b0: 9437 00be 663a b23e 7000 ee3c af44 5cbe
000000c0: b517 153f 106b 2bbe dc6d 4dbe 352d 963e
000000d0: 948b 4f3e ed2c 723c 81ad 82be 08ed 4a3d
000000e0: 9429 22be 22ed 833d 939f 57be 9a82 87bd
000000f0: c224 2bbd 4053 873d 7ac1 873d d26f 8e3c
00000100: cac7 a5be 99b2 fdbc bfe1 123e 3b5c 2dbd
00000110: 787d d63d 06f2 b03c d13b e7bd a046 c0bb
00000120: a18f c9bd de57 b73b c558 b63e d329 1abe
00000130: f645 a53d c308 293e df64 cd3c 8d5f 6e3e
00000140: 8718 413d 136f 683d 3ae3 9dbe 035a c73d
00000150: 4a90 97bc 474c b2bd 5230 bbbd 49d5 38bd
00000160: 9fca 1c3e c81a 133e 3834 a23d 9e1a fa3c
00000170: 7f3b 673e 334a 85bd 0daf ffbb 92d6 dbbd
00000180: 3462 ce3c c7fe c83d 69f9 31be 7aa5 edbc
00000190: 97a2 333b 6118 a8be 16c3 0bbe f5a1 b8bd
000001a0: 0aff 2ebd fecf b43d 2600 30be 170a 6cbd
000001b0: 5391 763d a669 edba 7166 84bd 30d0 503d
000001c0: 0af7 f2bd 95b3 9c3a cc9c a63d c3c0 033d
000001d0: 37f1 3abd a48e 03be c1c9 c3be 397a 103e
000001e0: e678 9abc 9217 ce3b 9c16 4bbe 3aef 00bf
000001f0: 67b4 b33d e8ad c9b8 ae92 1f3e 3d25 ecbd
00000200: 0b06 e3bc e46b ab3d 8be8 f2bd b7cb 4dbc
00000210: 8315 73bd 4d60 b03c 5ff8 073e 2206 c23c
00000220: 5686 a6bd 8031 c73d e2c6 f03d 4411 f83d
00000230: aeb2 113d 7979 8d3d b2f6 b2be 0eb1 b1b9
00000240: 9978 ff3c d1c6 fdbd 1488 82bb cec0 afbc
00000250: b538 6cbe b52d 6dbd 077c bfbb 06a9 ecbc
00000260: 33bb 88bd 06cf c43d df8b b53d c058 adbd
00000270: 581d b7bf 175a 953c a29d a23c a746 0dbe
00000280: f1a1 d93c ca9b 573b 6af8 0bbd 3595 84bd
00000290: 8ca8 2d3d 1968 2c3e 8ed8 fc3d 31c1 bd3d
000002a0: dcb6 9a3d 0587 a63b 2077 88bd f614 f5bb
000002b0: acaf 4fbe a41f 313d 903a c9bd 4f49 1d3e
000002c0: 2aa1 2fbd 8702 9cbe f982 7bbd 7167 3c3e
000002d0: 654f 59be 39f1 70be cb14 ebbe 60d4 28be
000002e0: 0e06 5b3e 24ba 923e 2c9c 763d cee9 913c
000002f0: caa0 99bd 6e39 a83d 8c4a f93b 6187 41bd
00000300: c918 41be 7684 883c 8317 ddbe edf9 b5be
00000310: 2f8f 8dbe 6ddf 813e b766 c4bc 28c6 55bd
00000320: 06aa d43d 0c25 1b3d 6ad3 13bd 43c9 86be
00000330: e427 fa3c 840b bf3c 5120 bf3e 1b02 a1bd
00000340: e7b3 853d 328b 10be 4ce0 223e 804d 3dbb
00000350: fbf3 40be 3b16 b03d ffd7 a5bd 5533 59bb
00000360: 0146 ad3c 8a1f 28bc 37a6 92bd 5f0f 043e
00000370: 0c00 203e f852 c6be 7e03 e13d f13b 4c3e
00000380: 0613 193e bf99 273e 386c 1f3e 9622 953d
00000390: a598 7c3d 973b 2e3e 0e52 1d3e eba3 423d
000003a0: 4ea1 08be c795 5d3d ee33 71bd 4031 df3d
000003b0: 439f 83be a005 e5bd cea0 d33d 12ce ab3d
000003c0: 01ca 2f3d c005 ffbd bde1 0d3e eb44 103e
000003d0: 159f 8c3e f315 a2bc 2074 dc3b aed0 003e
000003e0: 6a75 09be d091 df3d 67a6 fe3c 84b2 05be
000003f0: 375f db3d 7e03 8b3a 495e a13d 57d7 8c3d

conv.2.bias f4 [32]
0.058972117 -0.026857207 -0.10292371 -0.114285134 0.06539132 -0.067253776 0.09997469 -0.093721345
0.050724383 -0.06997072 0.032289345 0.07507189 0.004900371 0.02993609 0.068734854 0.023206979
0.088582665 0.029574983 0.05472826 -0.10770493 -0.06290041 0.11643133 -0.11601151 -0.0030819399
0.10507282 0.09094945 -0.04847414 0.027802266 0.087514065 0.07311073 0.010459949 0.02106146
00000000: bf8c 713d a503 dcbc abc9 d2bd 530e eabd
00000010: e2eb 853d 59bc 89bd 88bf cc3d faf0 bfbd
00000020: 5fc4 4f3d cf4c 8fbd d541 043d 4bbf 993d
00000030: 4b93 a03b 883c f53c dcc4 8c3d 901c be3c
00000040: d46a b53d 3c47 f23c bd2a 603d 6794 dcbd
00000050: eed1 80bd 8d73 ee3d 7197 edbd 5ffa 49bb
00000060: 6b30 d73d b543 ba3d d28c 46bd 94c1 e33c
00000070: 933a b33d 14bb 953d 3560 2b3c 1589 ac3c

conv.4.weight f4 [64, 32, 5, 5]
0.03061576 -0.010664938 0.17347312 0.056989513 -0.0893953 -0.071120605 -0.12299642 0.09678737
-0.19629544 0.23387988 0.20064303 -0.008617016 0.13508438 -0.25636786 -0.022989534 -0.06439032
-0.11271473 0.014157883 0.06056627 -0.22177227 -0.10366892 -0.1211598 -0.005444733 0.08890227
-0.055895012 -0.23209578 -0.38532925 0.18143423 0.14258696 -0.015063807 -0.1702217 -0.13222894
-0.28664535 0.07319994 -0.07495341 -0.009116273 -0.4044585 0.11549121 0.25419903 -0.4691708
-0.10726252 0.074894734 0.18789779 -0.15698987 0.008508434 -0.07915775 0.07555025 -0.053513706
-0.012876499 0.027478745 -0.052004773 0.052515887 -0.011948011 -0.19891383 0.16494581 -0.1179443
-0.100493655 -0.21422592 0.118596 -0.04196054 -0.1659003 -0.21506417 -0.21516812 -0.011419888
0.08648925 -0.07274144 -0.041588202 0.21788996 0.04373318 -0.008329621 -0.037637394 -0.03784623
0.1825013 -0.034551267 -0.14881378 -0.20063832 0.029216213 0.0054376153 0.059101928 -0.011860862
0.05020781 0.068584464 -0.28903094 0.3493385 -0.1526048 -0.18316722 -0.14626981 0.011606123
0.10912976 0.0958796 0.01957343 0.14037669 -0.08385616 -0.16346303 0.02187622 0.06893014
0.07180796 -0.029759223 0.057183005 0.04302643 0.11317839 -0.10197848 -0.1647003 -0.12783855
-0.029819164 0.05301352 -0.061424743 0.020525398 -0.03481485 0.054730244 -0.09583621 0.23339652
-0.14545274 0.2288272 0.058254197 -0.21515886 0.010073179 -0.09393671 0.0140283415 0.06900734
0.06416957 -0.08153323 -0.06713641 -0.2779703 0.21166512 0.10183706 -0.08420778 -0.058121134
-0.11297175 0.07735849 0.060447104 -0.061610598 0.12194751 0.06802624 -0.10907337 -0.08753316
0.1913159 -0.069754556 0.17669035 -0.066901915 -0.052657824 -0.23239766 0.09648577 -0.09367875
-0.09130425 -0.2816889 0.2456966 0.11712012 0.015597462 -0.105819 -0.36716565 0.10099171
-0.16765814 0.0078054015 0.0057662698 -0.02276537 -0.13813674 0.11085926 -0.1617305 0.12890552
-0.031123219 0.15222916 -0.10976009 0.039263662 0.27031115 0.0014497082 -0.08676765 0.08494301
-0.2919061 0.25928974 0.19763868 -0.17656218 0.058786128 -0.14006734 0.07233167 -0.08662131
-0.11455415 0.07976399 0.020995112 -0.03143818 -0.034574017 -0.005547035 -0.020305647 0.08056767
0.15879972 -0.05640721 0.2492231 0.039867565 -0.18199152 -0.1156799 -0.1790067 -0.18930659
0.25760368 -0.3065849 0.12063452 -0.19371927 -0.013480226 -0.23899892 -0.05221866 -0.021664081
-0.14815088 -0.02066479 0.09525052 -0.27849635 0.081434295 0.19096947 0.10752454 -0.10784985
-0.16052894 0.006007143 -0.07619109 -0.10002021 0.0029312037 -0.03403147 0.13933536 -0.19917107
0.11835968 0.20220675 0.19620724 -0.08066006 0.06935077 -0.04531635 0.10343206 0.06794093
-0.012522472 -0.2135123 0.08567348 0.09929187 0.13987422 0.03788638 -0.18815656 -0.02545492
-0.046108935 0.13267693 -0.07398149 -0.18425773 -0.0008605768 0.03442962 -0.057318322 -0.13897277
0.13054219 -0.043673273 0.07468222 0.014649958 -0.02005998 0.16693428 -0.039201196 -0.067133024
-0.06841416 0.10563298 -0.13414256 0.13296042 0.060887747 -0.07437079 0.12701043 0.11042824
00000000: e7cd fa3c febb 2ebc f0a2 313e d66d 693d
00000010: e214 b7bd aea7 91bd 8ce5 fbbd 7538 c63d
00000020: ac01 49be 357e 6f3e 5e75 4d3e 622e 0dbc
00000030: 8f53 0a3e a642 83be 8c54 bcbc 12df 83bd
00000040: fbd6 e6bd 77f6 673c 5614 783d 4518 63be
00000050: 5f50 d4bd a122 f8bd bb69 b2bb 6512 b63d
00000060: 2bf2 64bd 84aa 6dbe e049 c5be e5c9 393e
00000070: 5102 123e 30ce 76bc 994e 2ebe 0667 07be
00000080: 2ec3 92be dae9 953d 2c81 99bd 6c5c 15bc
00000090: 2f15 cfbe a886 ec3d 6026 823e 2837 f0be
000000a0: 74ac dbbd 6962 993d 4768 403e f4c1 20be
000000b0: f566 0b3c 751d a2bd 17ba 9a3d 3031 5bbd
000000c0: f4f7 52bc 1b1b e13c f502 55bd e61a 573d
000000d0: 97c1 43bc 11b0 4bbe 8ee7 283e c88c f1bd
000000e0: 9ecf cdbd 0a5e 5bbe 76e2 f23d d1de 2bbd
000000f0: c5e1 29be c839 5cbe 0855 5cbe 7b1a 3bbc
00000100: 4721 b13d 77f9 94bd 6458 2abd 8c1e 5f3e
00000110: 9021 333d f678 08bc ab29 1abd a604 1bbd
00000120: 9fe1 3a3e a185 0dbd a462 18be 2274 4dbe
00000130: d756 ef3c 062e b23b dd14 723d 1054 42bc
00000140: b4a6 4d3d 0376 8c3d ddfb 93be 7fdc b23e
00000150: 6f44 1cbe 3090 3bbe c1c7 15be 9c27 3e3c
00000160: 6c7f df3d 865c c43d 7558 a03c e8be 0f3e
00000170: c7bc abbd da62 27be c235 b33c 3f2b 8d3d
00000180: 0d10 933d 9dc9 f3bc ba38 6a3d 7b3c 303d
00000190: 12ca e73d 18da d0bd 32a7 28be 1ce8 02be
000001a0: 5247 f4bc b424 593d 8398 7bbd e124 a83c
000001b0: 049a 0ebd d22c 603d c645 c4bd 7fff 6e3e
000001c0: 90f1 14be ad51 6a3e f49b 6e3d 9b52 5cbe
000001d0: fa09 253c e461 c0bd 21d7 653c b853 8d3d
000001e0: 566b 833d e5fa a6bd d07e 89bd 2052 8ebe
000001f0: bebe 583e f38f d03d 2175 acbd 6d10 6ebd
00000200: bc5d e7bd 216e 9e3d 6297 773d 655b 7cbd
00000210: 9ebf f93d 5751 8b3d dc61 dfbd 9644 b3bd
00000220: 51e8 433e 7adb 8ebd 51ee 343e df03 89bd
00000230: bbaf 57bd a7f9 6dbe 559a c53d a5da bfbd
00000240: b9fd babd 8739 90be e497 7b3e acdc ef3d
00000250: 7f8c 7f3c a2b7 d8bd 23fd bbbe bed4 ce3d
00000260: 93ae 2bbe 74c4 ff3b faf2 bc3b 717e babc
00000270: b873 0dbe 2e0a e33d ae9c 25be cfff 033e
00000280: 1ff6 febc f6e1 1b3e e6c9 e0bd efd2 203d
00000290: 3966 8a3e 2304 be3a 3db3 b1bd 9af6 ad3d
000002a0: b774 95be a0c1 843e cb61 4a3e b7cc 34be
000002b0: b9c9 703d d06d 0fbe a022 943d 8366 b1bd
000002c0: 5e9b eabd 4e5b a33d f1fd ab3c 52c5 00bd
000002d0: 7c9d 0dbd e7c3 b5bb 0758 a6bc aa00 a53d
000002e0: 659c 223e 3f0b 67bd 5734 7f3e 2c4c 233d
000002f0: fc5b 3abe 95e9 ecbd 884d 37be 96d9 41be
00000300: a1e4 833e b2f8 9cbe 3b0f f73d 585e 46be
00000310: 2adc 5cbc 22bc 74be 3ce3 55bd df78 b1bc
00000320: ddb4 17be 3549 a9bc b412 c33d 1397 8ebe
00000330: 06c7 a63d 808d 433e d335 dc3d 62e0 dcbd
00000340: b361 24be 91d7 c43b 130a 9cbd 65d7 ccbd
00000350: 7019 403b 9564 0bbd eead 0e3e 80f3 4bbe
00000360: 8f66 f23d 490f 4f3e 8dea 483e 1a31 a5bd
00000370: c707 8e3d a39d 39bd 30d4 d33d 9d24 8b3d
00000380: 0e2b 4dbc f8a2 5abe 9475 af3d 8959 cb3d
00000390: 303b 0f3e c02e 1b3d 1dac 40be d686 d0bc
000003a0: b9dc 3cbd 76dc 073e 9c83 97bd 0fae 3cbe
000003b0: 5598 61ba 1306 0d3d 9ec6 6abd e14e 0ebe
000003c0: daac 053e bfe2 32bd fef2 983d 6106 703c
000003d0: d454 a4bc d2f0 2a3e 6f91 20bd 0a7d 89bd
000003e0: b91c 8cbd 1b56 d83d ab5c 09be c726 083e
000003f0: 6e65 793d b64f 98bd 060f 023e 3328 e23d

conv.4.bias f4 [64]
0.0039585177 -0.042313065 0.061928254 0.011300022 -0.0011968673 -0.09113224 -0.03469184 -0.044765852
0.076744705 0.053980827 0.02538207 -0.043681864 -0.0172666 -0.03283765 -0.002571067 0.03168892
-0.0071616587 -0.026486011 0.035680313 -0.037449416 0.1120741 -0.048885297 -0.03258264 -0.047567826
-0.009423979 0.10383395 -0.047806878 0.10466958 -0.02372092 0.0027919775 -0.03944383 -0.01726478
-0.03471818 -0.018700786 -0.00014301063 0.09696635 0.031589404 0.07499058 -0.011148957 -0.04631325
0.08566028 -0.010919574 -0.03811549 -0.03358462 0.011771236 -0.032419864 0.021700054 0.13017088
-0.03478407 -0.010830346 0.006935522 0.019840006 0.06136925 0.095072016 -0.0020894716 0.030917885
0.04925273 -0.054837443 0.02523466 -0.05996837 0.10576261 0.042430285 -0.04345698 0.08133977
00000000: 74b6 813b 7750 2dbd 7ba8 7d3d ba23 393c
00000010: 34e0 9cba 8aa3 babd 0819 0ebd 665c 37bd
00000020: 542c 9d3d 001b 5d3d 0fee cf3c c1eb 32bd
00000030: af72 8dbc c680 06bd 597f 28bb 3ecc 013d
00000040: 59ac eabb 31f9 d8bc 8525 123d 8f64 19bd
00000050: 1b87 e53d f33b 48bd 6075 05bd 7bd6 42bd
00000060: 0867 1abc e5a6 d43d 25d1 43bd 015d d63d
00000070: 6052 c2bc 9cf9 363b da8f 21bd de6e 8dbc
00000080: a634 0ebd 6432 99bc 20f5 15b9 4b96 c63d
00000090: e463 013d a994 993d 1daa 36bc f6b2 3dbd
000000a0: a86e af3d 03e8 32bc fd1e 1cbd 0790 09bd
000000b0: 24dc 403c b1ca 04bd 50c4 b13c 844b 053e
000000c0: be79 0ebd c371 31bc 6043 e33b 8287 a23c
000000d0: 535e 7b3d 1eb5 c23d 84ef 08bb 8147 fd3c
000000e0: 3bbd 493d 3a9d 60bd ebb8 ce3c 65a1 75bd
000000f0: 119a d83d 61cb 2d3d f2ff 31bd 7795 a63d

conv.7.weight f4 [64, 256]
-0.03696745 -0.07210787 0.026647776 0.007709115 0.030286506 -0.04401508 0.05201475 -0.06342641
-0.009232521 -0.062702686 0.022445371 -0.002772409 -0.061445944 0.031240284 0.0076227263 0.039905697
-0.017586812 0.050830074 0.010296814 -0.044864096 0.013640567 0.0012154003 0.017841723 -0.03197401
0.02225402 0.036468565 -0.04809864 0.015289672 0.013958044 -0.048098683 -0.02349525 -0.013261728
-0.051171046 -0.030309593 -0.038304266 -0.03900094 0.009233535 -0.051668808 -0.022755697 -0.0031756652
-0.014769159 -0.020007674 -0.0645803 -0.0017451909 0.023385204 0.01643245 0.031449907 -0.028983623
-0.0069288462 0.003884226 0.0060442537 0.041563883 -0.05326198 0.04536473 0.009349339 -0.035593122
-0.03979444 -0.051237945 -0.048647802 0.05871135 -0.017381132 -0.029302375 -0.002439293 -0.03524534
-0.0520972 -0.02213984 -0.0012932792 0.03904041 -0.059927486 -0.009344675 0.043073595 -0.060457274
0.041259717 0.042856976 -0.015231371 -0.00013949722 -0.032275088 -0.021179155 -4.6990812e-05 -0.054456227
-0.0014313373 -0.06676008 -0.06518377 0.042400986 -0.022349887 0.039835945 -0.010068841 -0.04441767
-0.053775974 0.01720865 0.002624005 -0.054284424 0.041620284 0.025989346 -0.03830128 -0.0316976
0.020636115 -0.0155622065 -0.0153925605 -0.071970545 -0.045083 -0.032351095 0.024350505 -0.060323615
0.022026405 0.06029635 0.02451323 -0.010968484 -0.0020472493 -0.017955586 -0.042619366 -0.019725693
0.044183113 0.013102606 0.0009892434 0.019962437 -0.026356803 0.0021123732 0.021534717 0.012101296
-0.0032995641 0.0030834302 0.04318142 -0.020995997 0.039539993 -0.051783565 -0.008161063 -0.038242757
-0.015799195 0.018832654 0.04058762 0.041031785 0.049648166 0.029374532 -0.0065170303 -0.056735493
-0.061799735 -0.037049644 -0.012369886 0.0033572912 -0.04640351 -0.054780677 -0.007130556 0.014430106
-0.00802608 -0.022456074 0.03716156 -0.035905916 -0.061545838 -0.061366506 0.028156253 -0.004746229
-0.009669135 0.031969115 -0.048516646 -0.05251775 -0.042151324 -0.036924087 0.025280185 0.0024833381
-0.030256255 0.013922259 -0.009963506 0.016430665 0.037547395 -0.0070683975 -0.0057151746 -0.046978742
0.0056919605 0.039817743 0.004320152 0.008239262 0.0158903 -0.046421707 -0.027263507 0.035569467
0.05258002 -0.054764464 0.007967332 -0.006786838 0.05339361 0.06099207 0.023276396 -0.032528996
-0.040099315 0.010153644 0.040078234 -0.034525424 0.017290179 0.03746957 -0.056568056 -0.05100154
0.03441733 0.036424227 -0.039166927 -0.0064357594 0.03720863 -0.02337978 -0.046880946 0.009724557
-0.0088934 -0.044193596 -0.057739154 -0.048987925 -0.062062673 -0.030982502 0.03273181 0.057922438
0.012266554 -0.039598048 -0.025410546 -0.03868392 0.032704886 -0.008390431 0.041653812 -0.02186304
-0.029773157 -0.0077923555 -0.029533023 -0.025625259 -0.007231611 -0.00718705 0.031368695 -0.067843914
0.027209431 0.031230077 0.05544044 -0.049839478 -0.05804511 -0.05235754 -0.057068802 0.01681193
-0.06387679 -0.02091843 0.023014223 -0.054900303 -0.056825783 -0.038078204 -0.020954043 -0.025832549
0.0040141344 0.028744698 0.018722748 0.0071196016 0.012377892 -0.0021781698 -0.016924042 -0.05264348
0.005172832 -0.028674416 -0.045085136 0.031394616 0.0031188265 -0.056076813 -0.02184275 -0.004563267
00000000: 2e6b 17bd 4aad 93bd 704c da3c be9c fc3b
00000010: 681b f83c 2849 34bd 6b0d 553d b5e5 81bd
00000020: 0044 17bc 446a 80bd 5bdf b73c 4eb1 35bb
00000030: beae 7bbd a0eb ff3c 10c8 f93b 2874 233d
00000040: 3812 90bc 3233 503d f8b3 283c 6ac3 37bd
00000050: af7c 5f3c 114e 9f3a ce28 923c 2ef7 02bd
00000060: 104e b63c 1060 153d 1403 45bd 8881 7a3c
00000070: 48b0 643c 2003 45bd 1c79 c0bc b847 59bc
00000080: bb98 51bd d34b f8bc efe4 1cbd 73bf 1fbd
00000090: 4148 173c aca2 53bd 286a babc d21e 50bb
000000a0: 58fa 71bc 22e7 a3bc ad42 84bd e4be e4ba
000000b0: 5492 bf3c 589d 863c 9ed1 003d 106f edbc
000000c0: 600b e3bb 808e 7e3b e00e c63b e43e 2a3d
000000d0: 3c29 5abd 5ed0 393d f82d 193c 18ca 11bd
000000e0: 7fff 22bd e1de 51bd eb42 47bd 507b 703d
000000f0: e062 8ebc 890b f0bc 8cdc 1fbb 6b5d 10bd
00000100: e063 55bd 9c5e b5bc 4083 a9ba d6e8 1f3d
00000110: 8676 75bd 681a 19bc f06d 303d 0ca2 77bd
00000120: f3ff 283d cc8a 2f3d 008d 79bc 0046 12b9
00000130: e232 04bd e87f adbc 0018 45b8 7e0d 5fbd
00000140: b69b bbba 82b9 88bd 127f 85bd a8ac 2d3d
00000150: 1c17 b7bc 042b 233d c8f7 24bc 4eef 35bd
00000160: 3244 5cbd 28f9 8c3c 80f7 2b3b 5859 5ebd
00000170: 087a 2a3d 9ce7 d43c cee1 1cbd 58d5 01bd
00000180: 120d a93c a0f8 7ebc 1431 7cbc 4b65 93bd
00000190: f4a8 38bd 9582 04bd b67a c73c e515 77bd
000001a0: b870 b43c 4ef9 763d f8cf c83c 28b5 33bc
000001b0: 252b 06bb 9817 93bc a591 2ebd c797 a1bc
000001c0: 5af9 343d 50ac 563c 80a9 813a 4488 a33c
000001d0: 39ea d7bc be6f 0a3b 9369 b03c 8444 463c
000001e0: 803d 58bb 6013 4a3b 00df 303d ccff abbc
000001f0: b0f4 213d 011b 54bd fbb5 05bc 70a4 1cbd
00000200: 506d 81bc f046 9a3c 343f 263d f210 283d
00000210: e05b 4b3d dca2 f03c d08c d5bb 7a63 68bd
00000220: b821 7dbd 5ec1 17bd 10ab 4abc 0006 5c3b
00000230: 9b11 3ebd b461 60bd 70a7 e9bb 406c 6c3c
00000240: d27f 03bc cdf5 b7bc b836 183d 1512 13bd
00000250: 7d17 7cbd 725b 7bbd f1a7 e63c 4186 9bbb
00000260: 4b6b 1ebc 0cf2 023d 64b9 46bd da1c 57bd
00000270: dea6 2cbd b63d 17bd 6418 cf3c 80bf 223b
00000280: f7db f7bc 301a 643c f93d 23bc 9a99 863c
00000290: 4ccb 193d 049e e7bb 5c46 bbbb c86c 40bd
000002a0: a083 ba3b ee17 233d 1090 8d3b f8fd 063c
000002b0: 602c 823c b024 3ebd b857 dfbc 4ab1 113d
000002c0: 265e 573d b450 60bd 6a89 023c 2064 debb
000002d0: 42b3 5a3d d2d2 793d 24ae be3c 203d 05bd
000002e0: 2e3f 24bd 785b 263c 1329 243d 886a 0dbd
000002f0: 22a4 8d3c b179 193d e8b3 67bd fee6 50bd
00000300: 30f9 0c3d 9231 153d 806d 20bd 10e3 d2bb
00000310: 1468 183d f486 bfbc 3c06 40bd c053 1f3c
00000320: a0b5 11bc 5804 35bd e47f 6cbd 90a7 48bd
00000330: 6e35 7ebd 04cf fdbc ca11 063d 1440 6d3d
00000340: a8f9 483c 9031 22bd c729 d0bc 0873 1ebd
00000350: 8ff5 053d 0578 09bc 309d 2a3d 1e1a b3bc
00000360: d6e6 f3bc 0457 ffbb 3def f1bc 10ec d1bc
00000370: 26f7 ecbb 5881 ebbb 767c 003d c0f1 8abd
00000380: 50e6 de3c 38d6 ff3c 8415 633d 7b24 4cbd
00000390: b6c0 6dbd dc74 56bd fac0 69bd 2cb9 893c
000003a0: d6d1 82bd 215d abbc 5388 bc3c 24df 60bd
000003b0: 27c2 68bd e4f7 1bbd d0a7 abbc c89e d3bc
000003c0: 0089 833b 007a eb3c 7360 993c 8c4b e93b
000003d0: a4cc 4a3c a0bf 0ebb 4aa4 8abc b1a0 57bd
000003e0: dc80 a93b 9ce6 eabc 31ab 38bd a497 003d
000003f0: 3a65 4c3b cdb0 65bd 91ef b2bc 7587 95bb

conv.7.bias f4 [64]
-0.0464873 0.2267032 0.08582374 0.21707192 0.17799385 0.15964124 -0.08498542 0.02161021
0.03907013 0.10960141 -0.061542995 0.002265287 0.114326656 0.13590719 0.28123626 -0.1375296
0.13778299 0.11765447 0.34390515 0.032207 -0.04069788 0.016676638 0.07192282 0.12582713
0.061860897 0.042998724 0.0059866714 -0.04683177 0.011761678 0.0040846528 0.049051836 -0.034666434
-0.037573617 0.090633474 -0.011205361 -0.120273754 0.0023990425 -0.041059177 0.076923214 0.07509352
0.03889837 0.028873462 -0.04036827 0.036597356 0.100253806 0.12613937 -0.012053456 0.116975054
0.080153815 0.06812907 -0.049058873 0.007430445 -0.007744839 -0.05450569 0.11493509 -0.095576204
-0.075567596 -0.15286873 0.2368002 0.01081477 0.19744144 -0.054995187 0.16914067 0.08519028
00000000: 7869 3ebd e224 683e 5bc4 af3d 1a48 5e3e
00000010: 0544 363e fe78 233e d60c aebd e507 b13c
00000020: 0008 203d b476 e03d 8214 7cbd 3675 143b
00000030: 1824 ea3d 412b 0b3e 33fe 8f3e 8fd4 0cbe
00000040: fc16 0d3e d4f4 f03d 5614 b03e 7deb 033d
00000050: d2b2 26bd 729d 883c 454c 933d d4d8 003e
00000060: da61 7d3d 6e1f 303d d72b c43b acd2 3fbd
00000070: 0eb4 403c 8dd8 853b 94ea 483d 64fe 0dbd
00000080: cbe6 19bd 0b9e b93d b196 37bc 1652 f6bd
00000090: 4139 1d3b ab2d 28bd eb89 9d3d a2ca 993d
000000a0: e653 1f3d 0a88 ec3c 3359 25bd 1ce7 153d
000000b0: de51 cd3d ae2a 013e dc7b 45bc 9e90 ef3d
000000c0: af27 a43d 4187 8b3d f5f1 48bd 177b f33b
000000d0: 6bc8 fdbb 5c41 5fbd 1763 eb3d 75bd c3bd
000000e0: 2fc3 9abd 9f89 1cbe c07b 723e 6f30 313c
000000f0: 172e 4a3e a242 61bd 3633 2d3e 3e78 ae3d

out.weight f4 [4, 64]
0.08295399 0.5450511 -0.044794135 0.45313665 0.3058465 0.15431677 -0.24979514 0.36563858
-0.0713282 0.38620806 0.06590985 0.16901705 0.41747737 -0.0568604 0.009031584 0.14856195
-0.38167164 0.3222037 0.26598877 0.22362013 0.28637663 0.021089345 0.29243663 -0.0026167613
-0.088685416 -0.07709931 0.43588853 0.09083535 0.18271942 -0.10576245 0.22140206 -0.09235419
-0.15376432 0.29023546 0.050096817 -0.056424066 0.44854283 -0.7283397 -0.24198002 -0.15214926
0.17303367 0.26403767 0.065915994 0.037590157 -0.9290388 -0.7974488 -0.27426916 -0.8243596
-0.45100236 0.10240358 0.11172677 -0.21267855 -0.29056844 0.017680733 -0.46835148 0.5758021
-0.048714157 0.010252554 0.20553783 -0.3432171 0.04623405 -0.013383867 0.5462426 -0.19525866
-0.076494694 0.06892353 0.33280256 -0.13757455 0.5146837 0.37214386 0.2867014 -0.1922013
-0.7033349 0.43187663 0.017367175 0.09905883 0.5172019 0.3017211 0.12523286 -0.027300872
0.09314197 0.10511164 0.4685404 -1.0494103 -0.2136365 0.4775706 0.35292184 -0.16655757
-0.6570853 -0.17381972 -0.08423045 0.09645697 -1.0679173 -0.021951012 -0.01980421 0.11734647
-0.23504202 0.6258248 -0.019990807 -0.10834975 0.0058639026 0.07794266 -0.39223734 -0.076916315
0.04588101 0.0005290983 0.076512106 -0.19614768 0.1356456 -0.04344362 -0.2685933 0.115011044
-0.17206706 0.18737602 -0.2900985 0.43090466 0.17678355 -0.0003033552 0.32051924 -0.49073774
0.08466274 -0.58094144 -0.07494492 0.42931503 0.34580156 -0.019530887 0.005936875 -0.017760834
0.08247315 0.0456389 -0.47485772 0.021768518 -0.07332859 -0.05065012 -0.308109 -0.06876855
0.1427037 0.05918155 -0.09238824 0.18677606 0.34542683 0.2857626 0.06058557 -0.6084068
0.2607868 0.4933314 0.43514842 0.15044187 0.16185392 0.058045126 0.4170111 0.23494431
-0.0036684219 -0.5182556 0.07417213 0.03325322 -0.08068482 0.42451102 0.31222337 0.113592915
-0.0734388 0.12893873 0.0587583 0.84754044 0.1017189 0.029923791 -0.029164966 -0.10981279
-0.10744972 -1.0156082 -0.06600768 0.083393306 -0.006702558 0.11397472 0.056380548 -0.054932922
0.25677946 -1.2035953 0.3209873 -0.4311275 0.11513833 -0.042090576 0.61809075 -0.25002888
0.104623444 0.9083821 0.52778345 -0.19602579 0.53079474 -0.46446776 0.021768013 -0.63621634
0.059595495 -0.11657999 0.06918054 0.43695807 0.15838219 0.013856592 -0.2784508 0.3752171
-0.10440507 0.32132393 0.031193133 -0.14897437 0.28714553 0.261665 0.53147215 -0.1381748
-0.12548973 0.17525773 0.33698484 0.13048872 0.5015997 -0.6352475 0.34699437 0.5685192
-0.02026897 -0.1834623 0.1863369 0.04288522 -0.034948234 -0.12903713 -0.84114635 -0.2286128
0.45229232 -0.17825174 0.095327094 -0.21435396 0.4066805 0.1287456 0.3378286 -0.56514955
-0.753243 0.022303352 -0.122615926 -0.675927 0.18888502 -0.019559482 -0.0602832 0.01786529
0.08856205 0.16116688 -0.13455565 0.36625522 0.023045868 0.030139143 0.0046430044 -0.35311106
0.09765796 -0.22796476 0.06538729 -0.074928924 0.06387069 0.6211569 -0.09745975 0.18954009
00000000: c8e3 a93d 7888 0b3f 0e7a 37bd 8701 e83e
00000010: ea97 9c3e 3705 1e3e 4cca 7fbe fb34 bb3e
00000020: 8514 92bd 10bd c53e befb 863d ce12 2d3e
00000030: 98bf d53e 73e6 68bd 35f9 133c a020 183e
00000040: 776a c3be e2f7 a43e ae2f 883e adfc 643e
00000050: f59f 923e 90c3 ac3c 41ba 953e f87d 2bbb
00000060: b3a0 b5bd 3ee6 9dbd c82c df3e e207 ba3d
00000070: cd1a 3b3e fc99 d8bd 39b7 623e 3224 bdbd
00000080: 6574 1dbe be99 943e 5232 4d3d ec1c 67bd
00000090: 68a7 e53e 7874 3abf 9cc9 77be 04cd 1bbe
000000a0: bd2f 313e f22f 873e f7fe 863d 23f8 193d
000000b0: 7dd5 6dbf 9b25 4cbf 026d 8cbe 3b09 53bf
000000c0: c8e9 e6be f8b8 d13d 01d1 e43d 68c8 59be
000000d0: 63c5 94be 2fd7 903c c4cb efbe c467 133f
000000e0: 7f88 47bd 54fa 273c 8278 523e 27ba afbe
000000f0: ea5f 3d3d 0248 5bbc 8ed6 0b3f e3f1 47be
00000100: 40a9 9cbd c827 8d3d 1965 aa3e 58e0 0cbe
00000110: 50c2 033f a489 be3e 87ca 923e 6bd0 44be
00000120: c20d 34bf ef1e dd3e 9b45 8e3c 5bdf ca3d
00000130: 5867 043f 307b 9a3e 0b3d 003e 14a6 dfbc
00000140: 38c1 be3d c644 d73d 87e4 ef3e 1453 86bf
00000150: 87c3 5abe 2284 f43e 2cb2 b43e 118e 2abe
00000160: be36 28bf ccfd 31be 0481 acbd 3b8b c53d
00000170: 84b1 88bf 9cd2 b3bc 703c a2bc 5953 f03d
00000180: dbae 70be 0e36 203f c3c3 a3bc 79e6 ddbd
00000190: fb25 c03b 67a0 9f3d 55d3 c8be 4d86 9dbd
000001a0: baed 3b3d 30b3 0a3a 61b2 9c3d f0da 48be
000001b0: aee6 0a3e f0f1 31bd 1085 89be e98a eb3d
000001c0: 5932 30be 80df 3f3e ca87 94be 899f dc3e
000001d0: bf06 353e a50b 9fb9 191b a43e fa41 fbbe
000001e0: a963 ad3d 94b8 14bf b97c 99bd 2ecf db3e
000001f0: e70c b13e 3dff 9fbc 1e8a c23b 2b7f 91bc
00000200: afe7 a83d dbef 3a3d 8d20 f3be e453 b23c
00000210: 4d2d 96bd 8076 4fbd 76c0 9dbe 87d6 8cbd
00000220: eb20 123e 5a68 723d 0c36 bdbd 3942 3f3e
00000230: c9db b03e 7a4f 923e 9328 783d 8cc0 1bbf
00000240: d985 853e ef95 fc3e c6cb de3e 6f0d 1a3e
00000250: 09bd 253e bac0 6d3d 7b82 d53e 3e95 703e
00000260: e869 70bb 66ac 04bf 8fe7 973d 8734 083d
00000270: 153e a5bd 8259 d93e bedb 9f3e 67a3 e83d
00000280: 1567 96bd 8408 043e 8bac 703d 69f8 583f
00000290: 0052 d03d bd22 f53c 5eeb eebc 87e5 e0bd
000002a0: 990e dcbd 73ff 81bf 092f 87bd 1cca aa3d
000002b0: 22a1 dbbb 946b e93d 4aef 663d 5801 61bd
000002c0: 9978 833e 690f 9abf 7358 a43e bebc dcbe
000002d0: a5cd eb3d 2b67 2cbd 323b 1e3f c903 80be
000002e0: d144 d63d bb8b 683f d11c 073f fcba 48be
000002f0: 2ae2 073f b8ce edbe d552 b23c 13df 22bf
00000300: 681a 743d 7dc1 eebd 87ae 8d3d f8b8 df3e
00000310: f12e 223e c206 633c 1a91 8ebe 751c c03e
00000320: 53d2 d5bd 9284 a43e be88 ff3c bd8c 18be
00000330: bd04 933e f4f8 853e 8f0e 083f b27d 0dbe
00000340: 6180 00be c376 333e 4789 ac3e d69e 053e
00000350: d768 003f 959f 22bf 3fa9 b13e 798a 113f
00000360: 1c0b a6bc 8bdd 3bbe 1acf 3e3e 6aa8 2f3d
00000370: e125 0fbd 4f22 04be 5e55 57bf 7919 6abe
00000380: dc92 e73e a087 36be da3a c33d 9b7f 5bbe
00000390: 6d38 d03e e3d5 033e dff7 ac3e a4ad 10bf
000003a0: 89d4 40bf 85b5 b63c 0f1e fbbd 8d09 2dbf
000003b0: 136b 413e 353b a0bc 84eb 76bd 3b5a 923c
000003c0: 0560 b53d ee08 253e f5c8 09be ce85 bb3e
000003d0: b0ca bc3c 5de6 f63c 5824 983b f9ca b4be
000003e0: e600 c83d 986f 69be c6e9 853d 5674 99bd
000003f0: a3ce 823d 2304 1f3f fa98 c7bd cc16 423e

out.bias f4 [4]
0.32364726 0.29101947 0.10401429 0.18713586
00000000: 18b5 a53e 8100 953e 7205 d53d 8ba0 3f3e
