models/v17.1/model_122000_target.pth (torch, 295191 bytes, 10 tensors)

conv.0.weight f4 [16, 2, 3, 3]
000000 cd db 1b 3e 89 1b 67 3d ef 49 33 be b0 da 69 3e
       0.15220566 0.056422744 -0.17508672 0.22837329
000010 6f c1 ee bd 31 5a d1 3d 69 f4 90 be 92 a1 a8 3e
       -0.11657988 0.10222281 -0.2831147 0.32935768
000020 36 09 d2 3d 24 4d 3a bd 21 7d ae 3d 0d bd 5c bd
       0.10255663 -0.045483723 0.0851996 -0.05389123
000030 e5 9f 5a bd e0 bb c6 3d 7e 1d 0b 3d 64 cc e1 bc
       -0.053375144 0.09703803 0.033963673 -0.027563281
000040 98 2a 87 3c 2a bd c8 bb 1f ae 09 be 8c f8 87 3e
       0.016499802 -0.0061260657 -0.13445328 0.26556814
000050 39 f4 13 3d b6 7c 59 3e ab cd 38 be 5f cf 6e 3e
       0.03612158 0.2123898 -0.18047206 0.23321293
000060 e1 0f 55 bf 69 ef 00 bf e4 0c 3b be 1a 53 83 bf
       -0.83227354 -0.5036531 -0.18266636 -1.0259736
000070 f2 55 16 3f 4e 45 9b bf d7 4d 54 3e c8 4f 40 be
       0.5872489 -1.2130525 0.20732819 -0.18780434
000080 b2 1a 5f 3e 76 15 61 bd 0a a4 96 3c 3c a6 f3 3d
       0.21787527 -0.054952107 0.018388767 0.11896941
000090 e4 7a 92 bb 70 b7 66 3e c5 cb e9 3d c4 6f dd bd
       -0.004470216 0.22530913 0.11415819 -0.10812333
0000a0 d6 08 a0 3e 47 11 94 bd bb f7 97 3e 3f 52 36 3e
       0.3125674 -0.07229858 0.2968119 0.17804812
0000b0 83 c4 fa 3d 52 ea d5 3d 06 a7 02 3e 45 79 48 3c
       0.12244513 0.10445084 0.12759027 0.012235944
0000c0 2e 29 8f 3e 22 3c ca bd 5e d1 b9 bf 8b 13 ab bd
       0.27961105 -0.09874751 -1.4517019 -0.08353337
0000d0 d6 d2 9e be 7d 4f 76 3d b4 d0 08 3a 86 c2 23 3d
       -0.3102023 0.0601344 0.00052190875 0.039980434
0000e0 b8 1e 6c 3d aa 1a 00 3e c8 e7 02 3e ca f6 29 bf
       0.057646483 0.12510172 0.1278373 -0.66392195
0000f0 3f 01 a3 be 5e c6 ab be e5 53 33 3e 15 00 62 bd
       -0.31836888 -0.3354978 0.17512472 -0.05517586
000100 58 15 ca 3c 7c e0 6b bd d8 63 95 3e cd d8 8b bd
       0.02466838 -0.05758713 0.29177737 -0.06828461
000110 c5 d7 42 bf 38 aa 8d be eb f5 b4 3e 7f 10 17 3e
       -0.7611049 -0.2766893 0.3534387 0.14752387
000120 5c 9f 6f 3e 48 f5 0b be 6f bd 12 be 7e 0f 99 bf
       0.23400635 -0.13667786 -0.14330076 -1.1957853
000130 db 50 69 be ec 2a 06 3e 58 48 14 3d d5 3d 01 3f
       -0.2278475 0.13102311 0.036201805 0.50484973
000140 e1 c8 96 bf bd bc 88 be c2 ad 7e 3e 61 49 4c bf
       -1.1780053 -0.26706496 0.24870971 -0.7979947
000150 6b e8 75 3e 87 16 8b bb 7a 5b 53 3e 56 dc 99 3c
       0.24014442 -0.004244629 0.20640364 0.018781822
000160 66 eb 56 bd c5 ba 27 bc 1a 0a 98 bc 40 f2 36 be
       -0.052470587 -0.0102374 -0.018559504 -0.17865849
000170 55 8f d7 3e 69 80 88 3e 96 41 f0 bd 07 59 d5 bd
       0.4210154 0.2666047 -0.117312595 -0.10417371
000180 eb 0f 12 3f 9f 1c cd be 59 da aa 3e 27 b3 68 be
       0.5705554 -0.400609 0.3336971 -0.22724591
000190 f6 d0 a4 bd f2 44 af 3d 8a 78 cd 3c 60 31 cc be
       -0.08047669 0.08558072 0.025081892 -0.3988142
0001a0 09 cf e1 bd 6e e5 7e bd e7 68 04 be 26 8a 9c be
       -0.11025817 -0.06223052 -0.12930642 -0.3057415
0001b0 82 53 7d bf 9d e2 8a bc 8b 7a af 3e 67 2a 79 3e
       -0.9895555 -0.01695376 0.3427318 0.24332581
0001c0 82 7b 75 3d 1a f1 89 bf 45 ab 94 be 77 18 e7 3d
       0.05993224 -1.0776703 -0.29036918 0.11283963
0001d0 e9 92 04 be b7 b8 cc bd 48 ad 9b 3c 36 98 26 be
       -0.12946667 -0.09996169 0.019003525 -0.16269001
0001e0 78 ee 05 3e 14 24 a9 3c c8 23 b6 3c 49 46 58 bf
       0.1307925 0.020647086 0.022233859 -0.84482247
0001f0 77 a9 58 be 9e 5f 8d bd 3f ad 26 3e 0b ae 37 be
       -0.21158396 -0.06903003 0.16277026 -0.17937486
000200 68 51 fa 3e ce d3 9e bd 1c 0a a0 3e 29 ab c5 3d
       0.48890233 -0.07755242 0.31257713 0.09651787
000210 38 0f 20 3d 2e 13 c8 3e c7 61 41 bd 37 3c cf bf
       0.039077014 0.39077133 -0.04721239 -1.6190251
000220 5b 02 72 bf 5a 81 4e bf 98 e8 b8 3d 5b e0 70 3d
       -0.94534844 -0.80666125 0.09028739 0.058807712
000230 14 06 f8 bc fe bb 97 be df 6a 4b 3e d0 0e 05 bd
       -0.030276336 -0.29635614 0.19864987 -0.03248483
000240 ba 06 40 bc d0 ac aa 3d 48 ad cf 3d 26 1a 9f 3e
       -0.011720354 0.083337426 0.10140473 0.31074637
000250 66 40 de 3d 31 70 65 be c8 7d 1e 3e 22 06 a7 be
       0.10852127 -0.22406079 0.15477669 -0.32621866
000260 aa 4f 03 3d 32 96 c7 be db ad f4 3e 97 b1 e4 be
       0.032058395 -0.38981777 0.4778889 -0.4466674
000270 e9 fa 0e 3d d9 6c 76 3e 80 f7 5c bc c7 5c 9d be
       0.034907255 0.2406496 -0.013486743 -0.30734846
000280 5e 30 d5 3e 68 e4 42 3d 0d 16 b2 3b 84 1c e2 bd
       0.41638464 0.047581106 0.0054347576 -0.11040595
000290 09 ad 15 3e 94 90 4c 3d 1b e1 01 be 15 bd 9c 3e
       0.14616789 0.049942568 -0.12683527 0.30613008
0002a0 47 59 87 3e b7 57 85 bd 5e c5 4f be 5f 5d ad bc
       0.264353 -0.06510871 -0.20290133 -0.021162687
0002b0 82 78 49 3e da a5 e5 bd f3 14 cc bf 4f 70 47 3c
       0.19674876 -0.11213274 -1.5943893 0.012172773
0002c0 1e 67 50 be 38 57 64 3e e9 6f b9 3e 44 99 9f be
       -0.20351836 0.22298896 0.36218193 -0.3117162
0002d0 68 25 bc bd 5d 50 e2 3d 25 d7 33 3d cd ab ee bd
       -0.09186822 0.11050484 0.04390635 -0.11653862
0002e0 57 79 10 3d ec fc 9c 3d 9c 47 e3 3e ad 23 a7 be
       0.03527197 0.076654285 0.4439057 -0.32644406
0002f0 97 a1 2f bc da 33 80 3d c1 9e 83 be 6d b5 df bd
       -0.010719678 0.0625989 -0.25707057 -0.10923276
000300 92 42 19 3f 8d 8d 36 3b 86 96 9f bd 17 25 e4 3d
       0.59867203 0.0027855367 -0.07792382 0.11139887
000310 51 c6 a0 3d ba 77 0d be 75 0b 80 3e fd 04 24 3e
       0.07850326 -0.13815203 0.2500874 0.16017528
000320 02 02 f4 be ad 1f 70 bd 08 a6 05 3e db ac 31 3e
       -0.47657782 -0.05862396 0.13051617 0.17351095
000330 91 f2 93 bf 8f d8 76 be f7 c1 8a bd 67 d7 ba bf
       -1.15584 -0.24106048 -0.06775277 -1.4596986
000340 cc 3b 94 be a8 e2 85 3e b8 47 0d 3e 90 2a 4f 3e
       -0.2895187 0.26149487 0.1379689 0.2023108
000350 06 45 7b be 84 67 a5 3d 14 c5 ff 3d ac f5 6e 3d
       -0.24538049 0.08076385 0.124887615 0.05833976
000360 5c a3 c8 bd 9d f7 1d bd 0f b2 66 3d 6e be a6 bd
       -0.09796783 -0.03856622 0.056322154 -0.0814179
000370 18 c1 1c bd a5 0e 64 3e a7 ca d6 bd 54 ca 97 3c
       -0.038270086 0.22271211 -0.104878716 0.018529095
000380 40 98 80 be d7 f5 13 3e e5 04 5c 3e 9d 5c 41 3d
       -0.25116158 0.14449249 0.21486242 0.047207464
000390 a8 7d 7d bd 7c 66 62 bf 1d eb 42 be d3 c7 ad 3d
       -0.061887413 -0.8843763 -0.19035001 0.08485379
0003a0 da d1 8f 3d a2 69 74 3e db d6 81 3e d8 2f 9e 3d
       0.07022448 0.2386842 0.25359234 0.07723969
0003b0 b2 c0 14 3d 29 4f 14 3d 7d 67 ba bf 2b 04 9b bc
       0.03631658 0.036208306 -1.4562832 -0.018922886
0003c0 1e 3b 2e bd 0f 44 41 be 81 e9 8a 3d 6f b9 03 3e
       -0.042536847 -0.18873619 0.067828186 0.12863706
0003d0 56 42 b7 bf 94 be 4d be 6a c7 1e be 42 3f 41 3d
       -1.4317119 -0.20092231 -0.15505758 0.047179468
0003e0 86 c7 36 be 8f c8 8d 3e 5c f9 7f be cf 7f 97 bd
       -0.1784955 0.27692077 -0.24997467 -0.073974244
0003f0 4e 20 71 3d 7c 46 8d bf 10 41 2c 3b 28 99 ec bd
       0.0588687 -1.1037135 0.0026283897 -0.1155265

conv.0.bias f4 [16]
000000 0c db 25 bc f2 14 b4 3d d2 ec fd bc 1f f3 6a bd
       -0.010123026 0.087930575 -0.030996714 -0.057360765
000010 94 9b 95 bd c4 25 9c be 43 40 61 3e a3 e0 a2 be
       -0.07305065 -0.30497563 0.2199717 -0.3181201
000020 7b 44 68 be 7c b9 88 bd 8a ca be be bf 0f 0b bd
       -0.22682373 -0.06676003 -0.372639 -0.033950564
000030 b7 b8 39 3c f1 d8 c0 3d 63 b8 fa bd 61 94 c6 3d
       0.011335543 0.09416378 -0.122422 0.0969627

conv.2.weight f4 [32, 16, 3, 3]
000000 87 da 69 bd 27 97 01 3e 6c bd e0 bd d5 e2 7f 3e
       -0.05709317 0.12655316 -0.10973629 0.24988873
000010 0c 0b a3 3d 1a e1 cb 3d 13 8a 73 3e 62 5b 1c 3e
       0.079610914 0.09955044 0.2378314 0.15269235
000020 25 c2 95 bd 8a e2 31 3e ff 44 05 3d 81 d0 68 bd
       -0.07312421 0.17371574 0.032536503 -0.05683947
000030 b9 15 0d be 57 9d 1b 3d 38 3a 5f bc 45 ec 91 3d
       -0.13777818 0.037991848 -0.01362472 0.07125143
000040 ef be 0c bd e1 39 40 be 5a 73 e6 3c cf c8 07 3e
       -0.034361776 -0.18772079 0.028131176 0.13260196
000050 85 46 1b be 17 e8 b1 be 5a a3 75 3e 0e c9 5e bf
       -0.1516362 -0.34747383 0.23988095 -0.87025535
000060 02 5f 5e bd 85 b1 9a bc 36 4e 8d 3d 4f 38 5e 3d
       -0.054289825 -0.018883476 0.06899683 0.05425292
000070 04 18 f6 bd 87 0a 2b be 94 62 e3 3c 0e 70 ad be
       -0.12016299 -0.16703235 0.027756967 -0.33874553
000080 f8 6e 0a be f7 e1 c7 bd 14 41 94 3d 52 0e d8 3d
       -0.13518894 -0.09759896 0.07238975 0.105496064
000090 a3 c1 9e 3d a7 c6 05 3d 60 37 06 3e 3b 15 ec 3c
       0.07751777 0.032660153 0.13107061 0.028818717
0000a0 3c 2a 8b 3d 2b 36 8d be 9b cc 46 3e ab 09 60 be
       0.06795165 -0.2758039 0.19413988 -0.21878688
0000b0 10 02 0e be 2e 24 bb 3e 89 a5 0d 3e d4 94 b2 be
       -0.13867974 0.3655104 0.13832678 -0.34879172
0000c0 39 eb e9 3e c4 0e a5 be ce d1 6c be fb 75 11 3e
       0.45687273 -0.32237828 -0.23126909 0.14205162
0000d0 3e e4 0a 3e 9e d2 8e 3c 58 83 a3 be e6 79 0f bd
       0.1356363 0.017434414 -0.31936145 -0.03502836
0000e0 04 45 ab be 86 c2 4b 3d b3 d1 62 be 6a ab 25 bd
       -0.33451092 0.04974606 -0.22150306 -0.040446676
0000f0 7e 4a dc bb 6a a5 0f 3e 30 af d7 3d 75 82 02 3e
       -0.0067227473 0.14027944 0.10531461 0.12745078
000100 5a 94 44 be da c1 00 3d 4c 05 42 bc 25 2d 3d be
       -0.19197217 0.03143487 -0.011842083 -0.18474253
000110 a8 1e 58 3e 35 9c 03 3e ca cb 8f be d8 a1 0b bf
       0.21105444 0.12852557 -0.28085166 -0.5454383
000120 96 91 7e be d5 59 73 3d 62 6b f6 3e 67 c7 b5 3d
       -0.24860224 0.059411842 0.48128802 0.088759236
000130 41 10 68 bb b2 f3 92 3e b7 70 67 3d 54 2c e7 3d
       -0.0035410079 0.2870155 0.056503978 0.11287752
000140 cf b7 15 3c 08 7d 33 3d 90 f5 ac be 25 af 5e 3e
       0.009138062 0.04382041 -0.337811 0.217465
000150 6f 96 93 bd eb 71 32 be 06 f6 db bd 44 8e 16 3d
       -0.07206427 -0.17426269 -0.107402846 0.03675677
000160 6b 90 25 3e 33 09 6d 3e 3e 0a 44 3e ad 39 8d 3c
       0.16168372 0.2314804 0.19144532 0.017239416
000170 58 73 98 3e ad 53 5f bd 14 e5 33 bd fb 0b 9e be
       0.297755 -0.05452316 -0.043919638 -0.30868515
000180 8e a0 22 3e ed fd 18 3e 28 6e 62 be 30 86 a0 bd
       0.15881559 0.14940615 -0.22112334 -0.07838094
000190 d9 e2 4f bd 1e 97 8f be 4a 24 3a be 02 fa 8b bd
       -0.05075345 -0.2804498 -0.18177906 -0.068347946
0001a0 4e b4 f8 bd f3 70 c8 3d 67 19 22 be a0 bc 96 bd
       -0.121437654 0.09787168 -0.15830003 -0.07360196
0001b0 bd 01 91 3c a0 da a0 3c e0 23 4d bd a8 56 0e bd
       0.017701024 0.019635499 -0.05008304 -0.03475061
0001c0 c1 3e 97 be b4 a3 98 bd 80 d4 60 3d aa 7e ad 3c
       -0.29540065 -0.07453099 0.054890156 0.021178562
0001d0 2d 8c be bd f7 fb 15 be 99 29 25 bf f7 c5 eb 3d
       -0.0930408 -0.14646898 -0.645166 0.11512368
0001e0 e6 7c 31 bd 96 90 1c be 49 26 86 be 7f d2 36 bf
       -0.043332003 -0.1528953 -0.26201084 -0.7141494
0001f0 9c a7 18 3e 87 3b 38 3d 0f 96 4f 3e 57 61 28 bd
       0.14907688 0.044978645 0.20272087 -0.041108456
000200 f5 00 9e 3d 04 c8 31 3e be e1 df bd 01 22 2d be
       0.07715026 0.17361456 -0.10931729 -0.16907503
000210 26 1d 86 3d 52 83 38 3d 0d 7d 3e 3e 4b e1 74 3d
       0.065485284 0.04504711 0.1860239 0.05978517
000220 d9 0d 8a bc 43 3c 9e 3d d4 83 f9 3d 0c 5b 1a 3e
       -0.016852306 0.07726338 0.12183347 0.15073794
000230 f4 e7 27 bd 55 2d c5 3d 94 ef c7 be 18 d7 2f 3d
       -0.040992692 0.09627787 -0.3904997 0.04292974
000240 e3 b1 0c 3b 6b 78 a1 3d 1c ac 47 bd 28 ec d4 3d
       0.0021468333 0.07884296 -0.04874812 0.10396606
000250 db dc 94 be b3 69 b6 bd 34 74 64 bd 7b 72 7c 3d
       -0.2907475 -0.08906879 -0.055774882 0.061632615
000260 f1 f7 e1 bc 1f f1 ab 3c cc 63 a9 3d 86 24 fb bc
       -0.027584048 0.020988999 0.08270988 -0.030657064
000270 c3 20 1d c0 a8 0f 10 bb bc 8e 1d 3d 1b ee 1c be
       -2.4551246 -0.0021981988 0.0384662 -0.15325205
000280 b1 f0 18 3e a5 5a 7f bd b8 a9 2f bd 18 4f ab 3c
       0.14935566 -0.062342305 -0.042886466 0.020911738
000290 a9 bc d5 bc 6a bf 11 3e 2f 99 ad 3d a4 3e a3 3d
       -0.026090937 0.14233175 0.08476483 0.07970932
0002a0 71 cd 75 3c 60 33 04 3e 6f 5b 8b bd 4d 7c d8 bd
       0.015002594 0.12910223 -0.06804549 -0.105705835
0002b0 44 cb 8c be 08 37 41 3e c3 1f 25 be 81 52 49 3e
       -0.2749883 0.18868649 -0.16125397 0.19660379
0002c0 c1 9d 16 bd b4 1c b7 be 31 14 16 be c4 b3 73 3e
       -0.03677154 -0.35764086 -0.1465614 0.23799044
0002d0 be 08 8e be 68 66 aa be 65 74 15 bf 64 fa 90 be
       -0.27741045 -0.33281255 -0.5838073 -0.28316033
0002e0 2b 31 26 3e c8 4a ac 3e 41 64 2d bd 4c 61 55 3d
       0.16229694 0.33650804 -0.042331938 0.052094743
0002f0 0f b8 fa bc 00 ca 91 bd df fa 42 be 3b 5a 58 bd
       -0.030605344 -0.071186066 -0.19041012 -0.052820425
000300 09 ae 80 bc 83 9a 13 3e 8e 9c b0 be 9c 4b 55 be
       -0.015707986 0.1441441 -0.34494442 -0.20829624
000310 a9 3f a6 be 9e a8 17 bd 6e 3f 91 3a 08 a9 6e bd
       -0.32470444 -0.03702604 0.0011081526 -0.05826667
000320 7e 58 81 3e a0 26 33 3d 03 6e 2b be 3f 19 3f bf
       0.25262827 0.043738008 -0.16741185 -0.746479
000330 9f 1a e1 3d 6d 8c 82 3d 9d c2 af 3e 7c 3d 9f bb
       0.10991406 0.0637444 0.34328166 -0.0048596244
000340 a4 fe 09 bd 8f ba 6c be 03 ae 03 3e 75 11 3f be
       -0.03369011 -0.23118041 0.12859349 -0.18659003
000350 62 a5 45 be 6e d6 64 3e a6 90 8d be cc ee d0 3b
       -0.1930137 0.22347423 -0.2764942 0.006376123
000360 fc 83 7a bc 4e 25 7c 3d 72 3e 45 bd 24 30 68 3e
       -0.015290257 0.061559014 -0.048155256 0.22674614
000370 59 a1 34 3e 6b 28 00 bf 18 22 4b 3e 4c 50 65 3e
       0.17639674 -0.5006167 0.19837224 0.22393912
000380 f6 e3 47 3e b5 eb 6d 3e 7d b5 ae bc ae 03 59 3d
       0.19520554 0.23234446 -0.021326775 0.052982025
000390 37 63 b7 3d 32 a3 3e 3e 3b 81 ff bb 7c 4e f3 3d
       0.089544706 0.18616942 -0.007797388 0.11880204
0003a0 5a 6b 3f bd ac 83 10 3e dc b2 bc 3d b9 c6 4c 3e
       -0.046733238 0.14112729 0.09213802 0.19997682
0003b0 b6 e5 d1 be 62 9b fb bd 40 ae c9 bd 96 33 30 3e
       -0.40995568 -0.12285496 -0.09847689 0.17207178
0003c0 73 df d6 bc 47 58 7b be 80 60 5d 3e 2f 52 a5 bb
       -0.026229596 -0.24545394 0.21618843 -0.0050451974
0003d0 71 9f 89 3e 15 ec a2 bd bf ee 40 3e 27 6a e4 3d
       0.26879457 -0.07955185 0.18841074 0.111530595
0003e0 d9 de 2f be cf c6 28 3e ba b9 9d 3d c4 63 3f be
       -0.17174853 0.1648209 0.0770144 -0.18690401
0003f0 0c 20 70 3e 72 23 2a bd 6f 21 07 3e 71 39 01 3e
       0.23449725 -0.04153771 0.13196348 0.12619568

conv.2.bias f4 [32]
000000 2f 8e 25 3e 70 d4 36 bd f2 78 69 be 81 02 67 be
       0.1616752 -0.04463619 -0.22800043 -0.22559549
000010 86 d3 b3 3d 9d af f7 bd 2e f4 f5 3d 25 99 13 be
       0.08780579 -0.120940425 0.12009464 -0.14413889
000020 9a b4 30 3a 13 fe 9c bd aa d1 6c 3d 8d 0d 97 3d
       0.0006740779 -0.07665648 0.05781714 0.073756315
000030 ea 5a c7 bd f9 c1 bf 3b 4c 34 09 3d 66 aa e4 bd
       -0.09734137 0.0058519808 0.03349714 -0.111653134
000040 df a0 e8 3d 1e d6 12 3d a7 7e 5a 3d 25 b8 70 be
       0.11358809 0.03584873 0.05334344 -0.23507746
000050 16 fd 95 bd 26 33 2a 3e 4c c1 9a be b4 32 9b 3d
       -0.07323663 0.16621074 -0.302256 0.0757803
000060 ea 96 cd 3d 06 73 17 3e 06 d3 b5 bd 77 88 17 3d
       0.1003855 0.14789972 -0.0887814 0.036995377
000070 17 55 e7 3d 71 d4 44 3d 5c 38 2a bd 15 a5 83 bd
       0.112955265 0.048054162 -0.041557655 -0.06427971

conv.4.weight f4 [64, 32, 5, 5]
000000 b1 83 41 bd d0 fa d0 bd 85 3b 0a 3e 70 78 ef bd
       -0.04724473 -0.10204089 0.13499267 -0.116928935
000010 e7 e4 29 bd 85 44 f2 bd 65 60 d3 bd 21 11 1a 3e
       -0.041478064 -0.11829475 -0.1032112 0.15045597
000020 5b 51 1a be a5 39 b8 3c ce cd 6b 3e e7 24 d7 3c
       -0.15070097 0.022488425 0.23027727 0.026262714
000030 91 d6 ba 3d 0f a9 34 be bc aa af bd c0 ab eb be
       0.091229565 -0.17642616 -0.08577487 -0.46029472
000040 3a c7 9e 3d cb cd ae bd 13 d0 d2 3e e8 1f d8 be
       0.07752843 -0.08535346 0.41174373 -0.42211843
000050 3c 52 12 bc fd 44 a7 bd dd ca 66 bd a7 3c 7f 3d
       -0.008930739 -0.08167455 -0.05634581 0.062313702
000060 11 61 48 be b6 0a 19 be 4d 70 b5 be 0b 33 48 3e
       -0.19568278 -0.14945492 -0.3543724 0.19550721
000070 3a 54 81 3e 60 5d d3 bd 25 86 7e be bc ce a1 3d
       0.25259572 -0.10320544 -0.2485586 0.079007596
000080 74 80 d3 be 36 44 04 3e 80 14 6c bd 04 ae 6a 3e
       -0.4130894 0.12916645 -0.057636738 0.22917944
000090 66 25 fc be f7 42 4b 3e 2f 72 be 3e f6 dc 21 bf
       -0.49247283 0.19849764 0.3719649 -0.63227785
0000a0 dd 73 c9 bd e8 33 e6 3d 0b 42 83 3d 06 d6 19 be
       -0.09836552 0.11240369 0.06409081 -0.1502305
0000b0 b3 12 45 3e 4f a7 34 be 1c 9d 10 bb 4d 65 64 3d
       0.19245414 -0.17641948 -0.00220663 0.05576067
0000c0 c9 0d 9b bd 20 ff 9d 3d 79 a8 b6 be b5 ff ad 3d
       -0.07570989 0.07714677 -0.3567541 0.08496038
0000d0 1f 88 92 bd 2f 15 dc be ce 2b 08 3f 62 76 29 3e
       -0.07154869 -0.42984912 0.5319184 0.16549066
0000e0 47 cb a6 bd 9d a4 ac be fa 82 82 3d df 86 00 bf
       -0.08144241 -0.3371934 0.06372638 -0.50205797
0000f0 0c 18 cd be ff 5b 3a 3d ee 5c d1 be fa c2 80 be
       -0.4005741 0.04549789 -0.40891212 -0.25148755
000100 be e6 cf bd 22 0a ac 3d b8 53 ec 3a 4d d7 07 3f
       -0.101514325 0.0840037 0.0018030321 0.530629
000110 e3 c0 47 3d d7 ba 10 bd d3 ce ef bb 4c 89 0e 3e
       0.048767935 -0.035334434 -0.0073183565 0.13919562
000120 0a 4c 85 3e c7 55 7f 3d bd 90 09 bd 82 3b 85 3d
       0.26034576 0.062337663 -0.0335853 0.06505491
000130 8d 26 05 bd 50 3b 31 be e4 29 2b bd 2a f0 52 bc
       -0.032507468 -0.17307782 -0.041787997 -0.012874642
000140 96 67 08 3e 6d 7b f3 3c 9d 06 20 be 4e e9 00 3f
       0.13320765 0.02972194 -0.15627523 0.50355995
000150 62 ca 31 be 8e 60 58 be d2 53 29 3d 8a 66 89 be
       -0.17362359 -0.21130583 0.041339703 -0.26836044
000160 08 8a 51 3e 90 f9 dc 3e 2a ec ad bc 63 cd 84 3e
       0.20462811 0.4315915 -0.021230776 0.25937948
000170 57 0f f7 bd fb 8c 80 be d0 6f 39 3e e2 d7 96 3e
       -0.12063473 -0.2510756 0.1810906 0.2946158
000180 5e 57 14 3e ad 5d e6 bd 16 66 8e 3e 42 15 b4 bd
       0.14486453 -0.11248336 0.2781226 -0.08793117
000190 0d fe 39 3e 2a 72 32 be c9 9f c1 bd 98 6e d1 bd
       0.18163319 -0.17426363 -0.09454305 -0.10226172
0001a0 cb cb de bd 22 e9 15 3e e7 58 d7 3c d5 bf 03 be
       -0.10878714 0.14639714 0.02628751 -0.12866147
0001b0 ae c2 6c be 3f 4e c6 3d 31 b7 75 3c 5b c5 7b 3e
       -0.2312114 0.09682893 0.0149972895 0.24587004
0001c0 0d 7c 0c 3e 43 9d a2 3e 9c f1 df 3d 2f c6 b0 be
       0.13719197 0.31760606 0.10934755 -0.34526202
0001d0 96 cc 1d 3e b5 55 be bd a8 a4 24 3e c9 0b 0e 3e
       0.15410075 -0.09293691 0.16078436 0.13871683
0001e0 c1 50 98 3d 0d 98 af be e7 47 eb 3d 51 77 67 be
       0.074372776 -0.34295693 0.11488324 -0.2260411
0001f0 5a c0 83 3e 5d fe eb 3e 15 1b 95 bd 70 c9 de 3d
       0.2573269 0.460925 -0.07280556 0.10878265
000200 fe 1d 8d bd c0 e1 62 bd e7 cf 80 3d b8 80 01 be
       -0.06890486 -0.055391073 0.06289654 -0.12646759
000210 e6 b4 58 3e 79 e7 5b bd 62 6c 8b be 8d 6c 4c be
       0.21162757 -0.053687546 -0.27231127 -0.19963284
000220 1c de eb 3d bd e9 4f bd db 02 bd 3e 3d fb 22 bc
       0.115169734 -0.05076002 0.3691624 -0.009947595
000230 a5 6e e1 be 2e cc 36 be 2e ea ba 3d e4 a6 f9 3a
       -0.44029728 -0.17851326 0.091266975 0.001904693
000240 6b 4a f9 bd 39 8e c6 be bf 25 28 3e 91 27 54 3e
       -0.12172397 -0.38780382 0.16420649 0.20718218
000250 c3 92 a8 bc 81 d2 66 be 14 12 c3 be 5e ca b1 3e
       -0.020577794 -0.22541238 -0.3809973 0.34724706
000260 2d 95 83 be b1 98 18 3d 4d 5f 24 be 38 f7 05 be
       -0.2569975 0.037254993 -0.1605198 -0.13082588
000270 d3 69 c3 be 99 7a 73 3c 71 8d 2c bd 4e 75 07 be
       -0.38166675 0.0148607725 -0.042127077 -0.13228342
000280 bf ba 0d bd 92 1d 40 3e 77 19 9e be c1 e2 69 3d
       -0.034601923 0.1876128 -0.30878803 0.057101015
000290 11 0c e7 3e b1 50 0b 3e 48 67 2d be 2e 0a 48 3d
       0.45126393 0.13605 -0.1693393 0.048837833
0002a0 56 39 05 bf 0f 8e b3 3e 71 09 62 3e ed bc ac be
       -0.5204061 0.3506932 0.22073914 -0.3373789
0002b0 16 fc bc 3d 65 f7 3f be 4e 87 01 3d a5 d1 e4 bd
       0.09227769 -0.18746717 0.031623177 -0.11172799
0002c0 fb aa cd 3d 22 8c b4 3e a7 fd 8b 3d 6f f1 d8 3b
       0.100423776 0.35263163 0.0683549 0.006620578
0002d0 50 e4 ad be 99 1a a3 3d cb 91 2a bd 0c 2f 08 be
       -0.3396325 0.079640575 -0.041642945 -0.13299197
0002e0 d9 ae 52 3e 4e b8 b3 be 7a 8b 64 3e 53 c1 8e be
       0.20574512 -0.3510155 0.22318831 -0.2788187
0002f0 ae 40 c0 be f2 1f 43 bd f3 84 e9 be 43 8d 03 be
       -0.37549347 -0.047637887 -0.45609245 -0.12846856
000300 1d ee db 3d 1f 1b 98 bd 47 49 b7 3c cf 0b a3 bd
       0.10738776 -0.07427048 0.022373809 -0.07961237
000310 60 64 48 3b 29 77 90 be b7 f7 1a bd 83 c5 a3 3d
       0.0030577406 -0.28215912 -0.037833896 0.07996657
000320 8c a2 ec bd eb 45 14 bd 8b 73 7b be 96 c2 dd be
       -0.11554441 -0.03619949 -0.24555795 -0.4331252
000330 8b 60 22 bb 0c 14 00 3f b9 34 ff 3d 9e 87 46 be
       -0.0024776782 0.5003059 0.12461228 -0.19387671
000340 a2 66 04 3c 04 d6 0b 3c 5d f4 2d 3c 36 86 3a be
       0.00808111 0.008534912 0.010617343 -0.1821526
000350 26 eb 94 bd cb f1 b1 bd 72 6e 0b bd d1 97 c9 bd
       -0.072714135 -0.086886965 -0.034040876 -0.0984341
000360 40 d7 14 3d 4b d2 a9 3e 41 2d 5a 3e dc 0e 3b be
       0.03633809 0.33168253 0.21306325 -0.18267387
000370 69 40 df bd 6f fa 94 be b9 c8 6f 3d bc 6d 2e 3e
       -0.10900957 -0.29097316 0.058541033 0.17034048
000380 1e be bf bd bb 86 9e bd 9c 30 de bd 1b da bd 3d
       -0.09362434 -0.077405415 -0.10849115 0.09270116
000390 88 c8 03 3d f9 31 65 3d 73 ac ac bd fc 20 52 3e
       0.032173663 0.05595586 -0.084313296 0.20520395
0003a0 30 69 4e be 4e 5a e9 3e 89 72 24 bd 85 28 3f be
       -0.20157313 0.4557671 -0.04014829 -0.186678
0003b0 96 36 d2 bd 9d 18 9f 3e 07 c9 53 be ba 10 55 3b
       -0.10264318 0.31073466 -0.20682155 0.003251119
0003c0 fc b9 4a 3e fd 8e 46 bc 9e 67 3e 3b 46 dd 65 3e
       0.1979751 -0.012119052 0.002905346 0.2244769
0003d0 3b 73 84 bd 9a 2d d3 3e c6 b2 fa 3c 98 37 3c be
       -0.06467291 0.4124573 0.030602824 -0.18380582
0003e0 1c 90 07 bd 4d 1a 54 3d da 10 93 be 3f a9 16 3e
       -0.033096418 0.051782895 -0.28723794 0.14713
0003f0 fe 2b 98 be a5 b4 9b bd 13 37 5d 3e 31 67 19 3e
       -0.29721063 -0.076028146 0.2160304 0.1498077

conv.4.bias f4 [64]
000000 d1 1c e8 bd a4 50 c2 bd 55 3f c3 3c 86 2a 64 3b
       -0.11333621 -0.09488037 0.02383391 0.0034815385
000010 e0 bc e2 bd 4a b0 51 be 8c 1d 35 bd 62 cd 4b bd
       -0.11071181 -0.20477405 -0.04421763 -0.049756415
000020 1c 4f 53 3e bf 86 21 bc cb 82 ea 3d 54 4e 47 bd
       0.20635647 -0.009858786 0.11450728 -0.048658684
000030 79 b5 85 3b 37 d5 18 bd 6c 7b a1 bd 1f a2 8d bd
       0.004080471 -0.037312713 -0.07884869 -0.06915688
000040 ac 34 b9 bc 67 60 85 3c 23 ed e9 3d 13 bc b7 bd
       -0.022608124 0.01628132 0.11422183 -0.08971419
000050 ee 89 45 3e 1d a0 5c bd 0d 10 2d bd b0 a5 27 be
       0.19290897 -0.053863633 -0.042251635 -0.16371799
000060 19 3d 07 be 96 9e b0 3e fc cf 69 bd 84 d0 d5 3d
       -0.132069 0.3449599 -0.057083115 0.10440162
000070 60 52 c2 bc 56 85 2c bd da 8f 21 bd 5c 5c 30 3c
       -0.02372092 -0.042119347 -0.03944383 0.010764208
000080 41 aa b3 bd 01 2a 89 bc 68 a3 21 bc c7 1c 67 3e
       -0.08772708 -0.016743662 -0.009865619 0.22569571
000090 01 fe 0a 3e 1b 80 e4 3d 50 02 c6 bd 72 50 64 bd
       0.13573457 0.11157247 -0.0966841 -0.05574078
0000a0 1c 9b 0f 3e 09 ef 48 bd c7 f8 50 bd 3f ba 1d bd
       0.14024013 -0.049056087 -0.051018503 -0.038507696
0000b0 2f bb 81 bc 3e 74 16 bd f1 58 13 3d 4f 64 a8 3e
       -0.015836326 -0.03673195 0.035973493 0.3288903
0000c0 3f d1 22 bd 9c 87 81 bc a1 62 ba 3c 5f 03 74 3c
       -0.039750334 -0.015811734 0.022752108 0.014893382
0000d0 a1 ac 8c 3e 24 6c 91 3e 8e 82 93 bd 07 85 a9 3d
       0.27475455 0.28402817 -0.07202636 0.08277326
0000e0 21 2f 26 3e ef ec b3 bd 92 da a5 bc 14 b1 31 be
       0.16228916 -0.08785426 -0.020245824 -0.17352706
0000f0 fe 03 c1 3e 66 68 4c 3d f0 b2 10 be cf f8 2e 3e
       0.37698358 0.04990425 -0.14130759 0.170871

conv.7.weight f4 [64, 256]
000000 a7 e7 36 bd da 43 8f bd ea b5 bd 3c 78 b1 8c 3c
       -0.044654515 -0.069953635 0.023158032 0.017174467
000010 df 30 ef 3c d4 e9 46 bd 7e 2b 28 3d 5b 95 8b bd
       0.029198108 -0.04856284 0.041057102 -0.06815597
000020 ee 77 b1 bb e8 6e 5a bd 52 1f e5 3c 3d b0 52 bc
       -0.005415908 -0.053328425 0.027969036 -0.012859401
000030 be ae 7b bd a0 eb ff 3c 10 c8 f9 3b 28 74 23 3d
       -0.061445944 0.031240284 0.0076227263 0.039905697
000040 1d 82 67 bc 57 05 21 3d a4 93 b7 3a 8a cb 84 bd
       -0.0141301425 0.039311733 0.0014005792 -0.064841345
000050 6a 0a 2a ba 53 a4 c0 3b 0a e9 0f 3c 31 84 47 bd
       -0.0006486537 0.005878964 0.008783588 -0.048710052
000060 10 4e b6 3c 10 60 15 3d 14 03 45 bd 88 81 7a 3c
       0.02225402 0.036468565 -0.04809864 0.015289672
000070 48 b0 64 3c 20 03 45 bd 1c 79 c0 bc b8 47 59 bc
       0.013958044 -0.048098683 -0.02349525 -0.013261728
000080 0a f4 3d bd d7 f0 d7 bc 22 32 2f bd 68 f5 27 bd
       -0.046375312 -0.026359959 -0.04277242 -0.041005522
000090 4d eb 94 3c 5a 9e 64 bd 6c 9a c9 bc 46 d6 12 3c
       0.018178606 -0.05581508 -0.024609767 0.00896222
0000a0 33 e7 67 bc 0a 15 b1 bc b9 06 b0 bd b2 41 05 bc
       -0.014154243 -0.021616478 -0.08595032 -0.008133339
0000b0 54 92 bf 3c 58 9d 86 3c 9e d1 00 3d 10 6f ed bc
       0.023385204 0.01643245 0.031449907 -0.028983623
0000c0 ba 8c 91 bc f9 e9 b6 3b c0 d9 94 3c 50 6c 4b 3d
       -0.017767299 0.005582091 0.018170238 0.04966384
0000d0 3c 29 5a bd 5e d0 39 3d f8 2d 19 3c 18 ca 11 bd
       -0.05326198 0.04536473 0.009349339 -0.035593122
0000e0 01 7e 32 bd 0b 09 75 bd c4 13 5c bd 19 5b 32 3d
       -0.043577198 -0.059823077 -0.053729787 0.04354391
0000f0 cb fa 96 bc fc 2a 18 bd e0 98 66 3a 54 60 ea bc
       -0.018430134 -0.037150368 0.0008796584 -0.028610386
000100 e0 63 55 bd 9c 5e b5 bc 40 83 a9 ba d6 e8 1f 3d
       -0.0520972 -0.02213984 -0.0012932792 0.03904041
000110 12 b7 93 bd b7 86 9a bc 15 3e ff 3c 15 f8 85 bd
       -0.07212652 -0.018863065 0.031157533 -0.065414585
000120 e9 bf 01 3d 4e cd bc 3c 8e 72 ae bc 00 46 12 b9
       0.03167716 0.023047116 -0.021294858 -0.00013949722
000130 0b da c4 bc a6 98 c6 bb b6 51 4a 3c ac 44 34 bd
       -0.024029752 -0.0060606776 0.012348583 -0.044010803
000140 5b 7d 39 bc 94 21 be bd 6c 7b 9d bd fc 90 02 3d
       -0.011321391 -0.09283748 -0.076895565 0.03187655
000150 1c 17 b7 bc 04 2b 23 3d c8 f7 24 bc 4e ef 35 bd
       -0.022349887 0.039835945 -0.010068841 -0.04441767
000160 32 44 5c bd 28 f9 8c 3c 80 f7 2b 3b 58 59 5e bd
       -0.053775974 0.01720865 0.002624005 -0.054284424
000170 dc 70 3b 3d 7c 39 03 3d e4 4f 49 bd 61 cf 2d bd
       0.045761928 0.032037243 -0.049148455 -0.0424341
000180 07 0a 29 3b be 60 10 bd 77 1c bc bc 25 32 a3 bd
       0.002579333 -0.03524851 -0.022962792 -0.07968549
000190 e4 99 58 bd 7f ca 4b bd 44 77 d8 3c 32 b5 87 bd
       -0.052881137 -0.049753662 0.026424058 -0.06626357
0001a0 b8 70 b4 3c 4e f9 76 3d f8 cf c8 3c 28 b5 33 bc
       0.022026405 0.06029635 0.02451323 -0.010968484
0001b0 40 be 4d bc 0b b9 f4 bc 98 a3 fa bc 50 76 19 bd
       -0.012557566 -0.029873392 -0.030595586 -0.037466347
0001c0 5a f9 34 3d 50 ac 56 3c 80 a9 81 3a 44 88 a3 3c
       0.044183113 0.013102606 0.0009892434 0.019962437
0001d0 4a f8 df bc 62 b9 61 3b 62 67 97 3c ff 3f e9 bb
       -0.027340073 0.0034442772 0.018481914 -0.0071182246
0001e0 80 3d 58 bb 60 13 4a 3b 00 df 30 3d cc ff ab bc
       -0.0032995641 0.0030834302 0.04318142 -0.020995997
0001f0 67 ae b3 3c 0a f4 27 bd e4 07 d7 bb 8e 6a cd bc
       0.021933747 -0.04100422 -0.00656222 -0.025075223
000200 b1 fa 87 bc 45 94 b6 3c 82 ac f6 3c 08 e3 16 3d
       -0.016599031 0.022287497 0.030111555 0.036837608
000210 e0 5b 4b 3d dc a2 f0 3c d0 8c d5 bb 7a 63 68 bd
       0.049648166 0.029374532 -0.0065170303 -0.056735493
000220 b8 21 7d bd 5e c1 17 bd 10 ab 4a bc 00 06 5c 3b
       -0.061799735 -0.037049644 -0.012369886 0.0033572912
000230 a7 71 27 bd 10 0b 54 bd 42 8b 48 bb b2 5b ba 3a
       -0.04087987 -0.051768363 -0.0030600582 0.0014218001
000240 b2 71 b5 bc b0 9a db bc d0 36 cc 3c 06 0a 1d bd
       -0.02214894 -0.02680716 0.02492848 -0.038339637
000250 00 03 30 bd 91 0a 92 bd 4e e6 cd 3c 92 94 73 bc
       -0.04297161 -0.07130922 0.025134232 -0.014866965
000260 b0 39 3f bc 54 fd ac 3c ee ff 43 bd 99 78 4f bd
       -0.011671469 0.02111689 -0.047851495 -0.05065212
000270 de a6 2c bd b6 3d 17 bd 64 18 cf 3c 80 bf 22 3b
       -0.042151324 -0.036924087 0.025280185 0.0024833381
000280 bf 63 2c bd 91 b8 e1 3b 6b 0d a9 bc bc 75 2a 3c
       -0.042087313 0.006888457 -0.020636281 0.010404047
000290 e6 ce d9 3c 40 ee 62 bc b8 03 7b bc 5c 70 81 bd
       0.026587915 -0.013850749 -0.015320711 -0.06320259
0002a0 a0 83 ba 3b ee 17 23 3d 10 90 8d 3b f8 fd 06 3c
       0.0056919605 0.039817743 0.004320152 0.008239262
0002b0 60 2c 82 3c b0 24 3e bd b8 57 df bc 4a b1 11 3d
       0.0158903 -0.046421707 -0.027263507 0.035569467
0002c0 a1 f0 51 3d 81 11 58 bd 4e 47 16 3c bb ae 2f bc
       0.051254872 -0.052751068 0.009172274 -0.010722811
0002d0 42 b3 5a 3d d2 d2 79 3d 24 ae be 3c 20 3d 05 bd
       0.05339361 0.06099207 0.023276396 -0.032528996
0002e0 57 e8 00 bd 56 2d c1 bb 59 27 0d 3d 1c f7 db bc
       -0.031471577 -0.005895297 0.034461353 -0.02685123
0002f0 1e 46 ac 3c d2 5b d3 3c 4a 79 8e bd cd e8 61 bd
       0.021029528 0.02580062 -0.06956728 -0.055153657
000300 30 f9 0c 3d 92 31 15 3d 80 6d 20 bd 10 e3 d2 bb
       0.03441733 0.036424227 -0.039166927 -0.0064357594
000310 14 68 18 3d f4 86 bf bc 3c 06 40 bd c0 53 1f 3c
       0.03720863 -0.02337978 -0.046880946 0.009724557
000320 22 a7 5e bc 14 42 64 bd 69 da 7e bd 32 e3 7f bd
       -0.013589652 -0.05572708 -0.06222001 -0.06247253
000330 6e 35 7e bd 04 cf fd bc ca 11 06 3d 14 40 6d 3d
       -0.062062673 -0.030982502 0.03273181 0.057922438
000340 04 2b e9 bb 2e 14 4c bd 3f 55 05 bd 1e 28 3f bd
       -0.0071157236 -0.049823932 -0.032552 -0.046669118
000350 10 0e d3 3c af ca 94 bc 44 05 06 3d bb a0 c1 bc
       0.025763541 -0.018163053 0.032719865 -0.023636213
000360 59 c9 1e bd 98 df a9 bc f1 97 07 bd 44 af 07 bd
       -0.03876624 -0.0207365 -0.033103887 -0.03312613
000370 a4 63 76 bc 1b e8 ca bc a1 ef 97 3c b2 02 b3 bd
       -0.015038405 -0.02476888 0.018546881 -0.087407485
000380 1a 00 09 3d c1 d7 ca 3c 50 c5 55 3d e7 2a 63 bd
       0.033447362 0.024761083 0.052190125 -0.055460837
000390 b6 c0 6d bd 53 ba 8d bd 2b 52 74 bd b7 59 6b 3c
       -0.05804511 -0.06920304 -0.059648674 0.014364651
0003a0 5b 30 85 bd 3c 0a 01 bd 62 b0 b3 3c 76 b9 7c bd
       -0.06503364 -0.0315039 0.021934692 -0.061700307
0003b0 4f 29 7d bd 63 0c 30 bd b7 76 be bb fc fa b5 bc
       -0.061806973 -0.042980563 -0.0058124918 -0.022214405
0003c0 1b 70 8e bb 74 2b c3 3c 00 a9 3d 3c 68 90 62 3b
       -0.00434686 0.023824431 0.011575937 0.0034570936
0003d0 ac 0b ac 3b 62 21 e7 bb 85 02 99 bb 4b a8 59 bd
       0.005250415 -0.00705354 -0.00466949 -0.053139012
0003e0 f2 8c 38 bb 30 25 1b bd 54 57 67 bd 82 bf 13 3d
       -0.0028160182 -0.03787726 -0.056479767 0.036071308
0003f0 80 67 62 ba 8f 65 66 bd bc e3 f5 bb 3d 7c 34 3c
       -0.00086366385 -0.056249198 -0.0075039547 0.011015949

conv.7.bias f4 [64]
000000 da 8b 73 bd 2f c8 d9 3e 73 85 95 3e 7a a0 ca 3e
       -0.059459545 0.4253554 0.29203376 0.3957556
000010 14 27 02 3f 8f a5 e7 3e a1 5b 54 be 49 1c 5c 3e
       0.5084088 0.452435 -0.20738079 0.21495165
000020 ac 6b 67 3b ff f4 9c 3e 06 72 1a be f3 1b 0e 3e
       0.003531198 0.30655667 -0.15082559 0.1387785
000030 79 a0 d2 3e a4 cf da 3e 9e 3b 13 3f 84 77 c2 be
       0.41138056 0.42736542 0.57512844 -0.37981808
000040 01 f9 71 3e 80 8c a6 3e 86 9d 42 3f 9c 69 1a 3e
       0.23630144 0.32529068 0.7602161 0.1507935
000050 9c 42 fe 3d 8e 70 ed 3d a1 66 b9 3e be b8 b9 3e
       0.124150485 0.11593734 0.36211112 0.3627376
000060 f8 1c b2 3d 09 c4 9c bc b8 7f 00 be c1 f5 00 3d
       0.086969316 -0.019136446 -0.12548721 0.03148437
000070 87 5b 36 3e 93 18 ca bd af 9e 95 3e 33 8c c6 bd
       0.17808352 -0.098679684 0.29222628 -0.0969471
000080 6f 0b 4e be 92 a5 7e 3e 36 2c c7 bc fd f3 29 be
       -0.20121549 0.24867848 -0.024313074 -0.1659698
000090 ed 43 05 3e 09 91 15 be e5 db 0c 3d 6d c2 9e 3d
       0.13014193 -0.14606108 0.034389395 0.077519275
0000a0 8f e1 fd 3d 2f 99 e5 3d cb 9f 48 bd 96 93 14 3e
       0.123965375 0.11210858 -0.048980515 0.14509425
0000b0 2a 8e 9b 3e 04 6f 19 3e b0 db 5b 3e d9 bd 5e 3e
       0.303819 0.14983755 0.21470523 0.21752109
0000c0 e7 16 2b 3e 78 7e 71 3e 1c 6a 63 be 02 11 a6 3d
       0.16707955 0.235834 -0.22208446 0.08108713
0000d0 8b 78 14 3e eb e6 a0 bd 81 ef 8a 3e 36 8e a4 be
       0.14499108 -0.07856544 0.27135852 -0.32139748
0000e0 4c e4 fd 3b c8 a0 90 be 5d 0d 01 3f ed 97 ed 3b
       0.0077481624 -0.28247666 0.50411016 0.007250777
0000f0 34 e5 ed 3e 3b 37 4f be 10 43 b2 3e df 08 45 3e
       0.4646393 -0.20235913 0.3481679 0.19241665

out.weight f4 [4, 64]
000000 eb f0 be 3d ee 96 fd 3e c8 f7 06 bc 0c 9c 6b 3e
       0.09323295 0.49529213 -0.008237787 0.23008746
000010 82 98 9a 3e a5 67 be 3d 25 e0 8b bc cb fd 86 3e
       0.3019448 0.092971124 -0.017074654 0.26365504
000020 ce ff 3b bd ff 14 13 3e 9d 52 a2 3d 5d 78 10 3e
       -0.04589825 0.14363478 0.079259135 0.14108415
000030 ca 96 65 3e c7 78 f7 ba 8c 18 38 3d 94 ec 2b 3c
       0.22420803 -0.0018880599 0.044945285 0.010493416
000040 f8 b9 2f bf ed 4c 84 3d 4f 9c df 3e b2 31 d6 3d
       -0.6864314 0.06459985 0.43673941 0.104586974
000050 e1 5e f7 3c 98 90 2b bc 40 0c 85 3e 0f a4 e7 3c
       0.030196609 -0.010471486 0.25985909 0.028276471
000060 85 9e 27 be 86 51 f0 bc cf 67 d6 3e 42 7b 39 3e
       -0.16369064 -0.029335748 0.41876075 0.18113425
000070 3d bf b2 3d 45 07 dd 3b 15 4c f7 3d 00 a2 ff bd
       0.08727882 0.0067452514 0.12075058 -0.12482071
000080 93 d2 f3 bd 0f 49 0c 3e 92 72 02 3d 54 ac 1d be
       -0.11905398 0.13699745 0.031847544 -0.15397769
000090 b0 c7 80 3e 3c e4 41 bf 63 d7 ba bd db 98 53 be
       0.2515235 -0.75738883 -0.09123113 -0.20663778
0000a0 c0 c5 2d 3e 34 d0 1a 3e 82 49 4f 3d 07 f5 38 bd
       0.16969967 0.15118486 0.050607212 -0.04515555
0000b0 f1 77 b8 bf f0 b3 b0 bf e1 b7 80 bd 53 8b b3 bf
       -1.4411603 -1.3804913 -0.06285072 -1.4026893
0000c0 27 0e 4b bf 34 0f 2a 3c 7d e5 11 3e b9 91 ad bc
       -0.7931847 0.010379601 0.14247699 -0.02118765
0000d0 78 7d 62 be bd 8c 00 3d 14 5b 4b be 95 fb 3e 40
       -0.22118175 0.03138422 -0.19858962 2.9841053
0000e0 25 01 12 3e 74 ad 1e 3d 8c 89 13 3e ac 5f e7 be
       0.14258249 0.038739637 0.14407939 -0.4519018
0000f0 0b da 96 3d 39 4a 0d 3d e9 e8 fc 3e 2d 82 1e be
       0.07365807 0.034494612 0.49396446 -0.15479346
000100 0e 61 a1 bd 6d 4f de 3d ba 92 64 3e 2c ec 59 bd
       -0.0787984 0.10854993 0.22321597 -0.053203747
000110 0c d7 cc 3e e0 dd 90 3e 26 1a 3c 3e 65 95 d1 bd
       0.40007818 0.28294277 0.1836935 -0.10233573
000120 d7 05 8a bf f4 13 c2 3e c6 1c 2d 3e fa e7 41 3e
       -1.0783032 0.37905848 0.16905507 0.18936148
000130 16 b5 74 3e 2f a3 3e 3e ea 12 37 3e 59 93 c5 3c
       0.23897204 0.18616937 0.17878309 0.024118112
000140 b0 d9 c3 bb 1a 7d 86 3d 47 2d fa 3e 7c 46 c4 bf
       -0.005976878 0.0656683 0.4886267 -1.533401
000150 50 4a c1 bd 0d cd 8b 3e 47 9b 4d 3e 9a 78 84 3c
       -0.09438002 0.2730488 0.20078765 0.016170789
000160 1d 0d 97 bf 55 80 7c bd bd 41 0f bd dc 60 2c 3e
       -1.1800877 -0.061645824 -0.034974802 0.16833824
000170 b7 f9 ca bf 4e e8 b1 bd 58 8a ff bc 06 21 35 3e
       -1.5857457 -0.08686887 -0.031193897 0.17688379
000180 3a e8 0f be 11 64 a3 3e 6d 55 83 bc 39 28 41 bd
       -0.14053431 0.31912282 -0.016031945 -0.0471575
000190 7a d0 3a 3d 1a 6b 30 3c b4 ec 90 be f3 07 ea bc
       0.045608975 0.0107677225 -0.2830559 -0.028568244
0001a0 86 1a 1b bd 26 21 df bd 95 88 bc 3d 75 26 35 be
       -0.03786709 -0.108949944 0.092057385 -0.17690451
0001b0 96 2d 07 3e 7c 63 cd bd 07 1c 9e be b1 bb ab 3d
       0.13200983 -0.10028741 -0.30880758 0.08385409
0001c0 54 73 18 be cb e9 d2 3d 0a 2a cf bd 35 20 a4 3e
       -0.14887744 0.10298499 -0.1011544 0.32055822
0001d0 ee d5 ba 3d de 2b 33 bc c1 f1 0c 3e 54 30 4a be
       0.09122835 -0.010935752 0.13764097 -0.19744998
0001e0 1a 5f c5 bd 66 82 40 be 6c ff c8 3c 70 9e 54 3e
       -0.0963728 -0.18799743 0.024535857 0.20763564
0001f0 b1 4e 6d 3e 9e 84 ca 3d 1d 98 dc 3c 49 f6 a1 bd
       0.2317455 0.09888576 0.026928002 -0.07908303
000200 bf d0 95 3d 74 64 9e 3d 56 04 76 bf f3 b4 1a bd
       0.07315206 0.07734004 -0.96100366 -0.037770223
000210 9e 1d 1b 3d 3b 90 2b 3d 79 00 67 be 25 1a 86 bd
       0.037870042 0.041885596 -0.22558774 -0.065479554
000220 66 db 30 3e b2 f2 4d 3d c8 6f 29 be fd a4 a5 3e
       0.17271194 0.05028028 -0.16546547 0.3235244
000230 1c cf 41 3e 3c 9b 35 3e b5 25 9d 3d 7f 04 de be
       0.18926662 0.17734998 0.07673208 -0.43362805
000240 f3 5a 51 3d 9f a2 c5 3e 86 85 0e 3f 90 0e be 3d
       0.051112127 0.38600633 0.5567249 0.09280121
000250 66 c6 c6 3b f9 8f 72 3b fb cb ab 3e fe 71 81 3d
       0.0060661314 0.0037012084 0.33554062 0.063205704
000260 0a 4f 40 bd 09 27 8a bf 1f 1e 23 be 58 46 3b be
       -0.046950378 -1.0793163 -0.15929459 -0.18288553
000270 0d b0 13 be cd f9 a0 3e 81 20 91 3e da dd 69 3d
       -0.14422627 0.31440583 0.2834511 0.05709634
000280 ae 81 ac bd 66 fb 07 3e b3 9b 7b 3d e7 00 21 40
       -0.08423172 0.13279495 0.061427783 2.51568
000290 d1 d8 32 3d 86 79 e7 3c e8 d7 61 bd f7 26 ae bd
       0.043663803 0.02825619 -0.055137545 -0.08503526
0002a0 8d d8 2c be 52 73 e9 bf c4 22 68 bd 47 08 3d 3d
       -0.16879483 -1.8238318 -0.05667378 0.046150472
0002b0 e3 8a fb bc d2 a4 89 3d 40 d9 c5 bd 3e 77 e4 bd
       -0.030705875 0.0672089 -0.09660578 -0.11155556
0002c0 69 df 89 3d 93 4f fd bf 81 cc 12 3f 46 62 74 be
       0.06732065 -1.9789909 0.573433 -0.23865613
0002d0 31 e7 c7 3d 47 24 c6 bc 04 7f 8e 3e e5 1c d2 bd
       0.09760893 -0.02418722 0.2783128 -0.102594174
0002e0 12 ba 5a 3e a2 fb 41 40 3d bc cf 3e de 8e 78 bd
       0.21360043 3.0309834 0.40573302 -0.060683124
0002f0 b1 1c e8 3e 79 66 01 be 7b 37 e3 3c 19 ec a2 bf
       0.4533439 -0.12636746 0.027736416 -1.2728301
000300 0a aa 73 3d cc d0 84 3c 98 dd a4 3a 06 9e 13 3e
       0.059488334 0.016212843 0.0012578247 0.1441575
000310 68 9e 2f 3e 8d 42 e6 3d b5 2d d2 be ba fc 79 3e
       0.17150271 0.11243162 -0.41050497 0.24412814
000320 56 27 24 be b5 e8 dd 3d fd 81 06 3e 64 f3 32 bd
       -0.1603063 0.10835401 0.13135524 -0.043689147
000330 15 0f 55 3e 71 73 40 3e 90 8a ef 3e eb 32 b9 3c
       0.20806535 0.18794037 0.46785402 0.022607287
000340 35 f3 8c bd 9b 67 c1 3d 35 da df 3e 26 02 10 3e
       -0.068823256 0.09443589 0.43721166 0.1406332
000350 b4 c7 80 3e 35 d0 7b bf ef fa 8d 3e 8c 28 d2 3e
       0.2515236 -0.98364574 0.2773051 0.4104656
000360 65 ee 89 3c a7 e5 4e be cd f2 cb 3d 07 70 60 3e
       0.016837308 -0.20204793 0.0995842 0.21917735
000370 d9 53 92 bd b7 a0 62 be 76 ad ae bf b6 6b 5b be
       -0.07144899 -0.2213162 -1.3646686 -0.21427807
000380 0a 51 0f 40 e0 f4 92 be 0e 28 c4 3d ba 38 95 bd
       2.2393212 -0.2870245 0.09577952 -0.0728621
000390 63 33 d5 3e cf 23 e2 3d 4c 8e ce 3d 5b 6c 87 bf
       0.41640767 0.11041986 0.10085735 -1.0579942
0003a0 56 9a a4 bf 1c d5 51 bd f6 07 f7 bd 6f 28 93 bf
       -1.28596 -0.051228628 -0.12062065 -1.1496714
0003b0 93 e8 20 3e 4d 24 ce bd af c2 8b be ca c4 a2 bd
       0.1571372 -0.100655176 -0.2729697 -0.07947691
0003c0 d2 a7 8b 3d 30 5f c9 3d f5 45 65 bc 32 19 8d 3e
       0.068191186 0.09832609 -0.01399373 0.27558285
0003d0 be ba 16 3e fa bf 8b 3b fb d0 22 3d 85 98 46 be
       0.14719674 0.0042648287 0.03975008 -0.19394119
0003e0 33 0e 41 3e 21 d6 97 bd f0 40 eb 3d 92 3b b7 3c
       0.18853073 -0.07413889 0.11486995 0.022367273
0003f0 47 d9 c2 3d 65 5b 00 3f 5f 20 69 3c cf 71 17 3e
       0.095140986 0.50139457 0.014228909 0.14789508

out.bias f4 [4]
000000 93 a7 23 3f d4 a5 17 3f 18 65 fb 3e 81 95 0a 3f
       0.6392757 0.5923741 0.49100566 0.54134375
