models/v17.1/model_0500_target.pth (torch, 295167 bytes, 10 tensors)

conv.0.weight f4 [16, 2, 3, 3]
00000000: 7dce 313e 8736 413e b632 66bd 6bee 5a3e
00000010: 56ea 72bd 441c 143d c2e0 2cbe 1751 053e
00000020: 9646 533e 8d8a 41be 2591 4d3e 15aa 023d
00000030: 947d 383e c95e 0f3d 11cb e23d f29c 1ebd
00000040: 6400 383e e6f4 d73c b515 bebd ee5f a73d
00000050: 594d 3fbd f916 1a3d 02cf 8ebd fe4e 253e
00000060: 284e 67be d4d3 0bbe 8cb6 0cbe a2cc 8cbe
00000070: 3595 a6bd 3f60 c6be 4b48 613e 66ee 3fbe
00000080: 3d7f 4e3e f25a 893d 9161 97bd e80f 1d3e
00000090: d051 f53c 585b 3a3e 623f 743c bf02 97bd
000000a0: 767b 9a3d 1a25 44bd 3130 f03d 515b 663e
000000b0: 7382 063e 7feb c5bd 806e 123e 59e5 df3c
000000c0: 1d01 f93d b780 49be 10d3 b1be 88fd abbd
000000d0: f0e3 2dbe d5b6 403e f121 153d c629 6e3d
000000e0: 88c1 0b3d 125e c0ba f715 0e3e dca5 75be
000000f0: 1110 7abc b1ab 32be 3711 a73d 5dbf c0bd
00000100: e89a 333d 8195 bebc ebf5 4e3e d7ab 24be
00000110: 5fc9 34be 781f 3fbe 05a5 493e a4fd ab3d
00000120: 791d 683e 6514 71be 0ec8 92be 3495 51be
00000130: 3b09 81be 168c 263e 602f fc3d 3803 7f3e
00000140: e4de 65be f007 08be f85a 593e b640 00be
00000150: 49d9 023e 9cfe 88bd 3c8e 1b3e 3e08 3abe
00000160: 7717 63be 975c 303c 2a55 723d 5397 39bd
00000170: d849 603e a45c 0c3e 77e2 15be 9d92 05be
00000180: dc73 6e3e 3161 04be 7aa3 6d3b 34a4 69be
00000190: b87c ebbd 53fe b23d 0059 2abd 38a8 2abe
000001a0: a013 25bc 113c 33be c55e 4bbe 67d7 adbd
000001b0: d5de 87be 7fa3 03be ccf9 873e 7a8c bd3d
000001c0: 0a0f e73d 0d60 79be 2a3b 2abe 13cf 90bd
000001d0: c089 e83c 7456 2fbe a0cb 74bd bc7e febd
000001e0: bc07 5d3d 60e9 b5bd fe65 33ba 9221 63be
000001f0: 64a6 a8be 0816 19be a460 18bd f029 14be
00000200: b5e2 583e 16aa 8ebc a097 603e feb1 ac3d
00000210: 8f81 2ebe 2ad4 453e 2034 1fbc 244f 52be
00000220: de26 b3be a3c2 cfbe 315e b33d e1f8 a5bc
00000230: f7a4 b63d f905 54be 6919 293e 70db 35be
00000240: 5cf4 58bd 220a 513d c0a8 ef3d f8f8 3e3e
00000250: 7cbf 523e 017e 43be f7ef 7dbb e2e0 01be
00000260: 9a34 8abc 4b97 3fbe 4ba4 593e 90cb 43be
00000270: 869a fd3d 5cc2 c73d cfd3 9e3d 29fc 0cbe
00000280: c5f6 6a3e c30c 5b3d 386f 2b3c 1f8a 5dbe
00000290: 25b8 173e db43 733c 505b 09be 6cdb 683e
000002a0: fae2 bc3d f9d7 15be 0074 16be d8a0 b4ba
000002b0: 77ae 0b3e a68d b0bd ebd5 bbbe a747 38be
000002c0: 2b27 22be b013 dd3d d646 4f3e ea6b 80be
000002d0: 6d16 5d3d e99f ec3d b027 133d b0e2 9cbd
000002e0: e243 fb3d ed5a eb3d b3ba d23d cd65 1abd
000002f0: b8b8 97bd f11c 443c 2a05 e8bd e480 f6bd
00000300: 1642 1f3e 0b52 493e be26 c1bc 192d 3ebd
00000310: 342a b5ba 574c d4bc ed17 c03d 1245 bd3d
00000320: 775b 57be 35ea 82bd ffd7 483e 57ce 963d
00000330: a2b1 15bd de7b 5ebe f2bb 06be 7e50 7ebe
00000340: 3cf0 f8bd 94f9 bb3d 37ca 143e 0699 c13d
00000350: 4109 69be 58f1 2ebe 9cf9 2bbd 5fba 713e
00000360: e4f0 143d f273 6abd 728e ce3d becc aabd
00000370: 3028 f9bd 4d7c 613e d16b 0abd 2963 aa3b
00000380: 218a 6dbe 5d65 123e b7c3 2b3e 6cc6 af3d
00000390: 27ab 5fbe 12c8 febe be7b 82be abfc 3c3e
000003a0: fafc f23d 7c43 543e c814 213e c48e e13d
000003b0: dd76 fe3c 3b1f 3ebe d12a b0be 63f5 4ebe
000003c0: 3aae ad3d 38c3 a7bd 099a efbc 6dcf d8bd
000003d0: da23 55be 76bd 9dbe 7d46 35be 9eed e33d
000003e0: beb1 51bd 9ec0 373e 9875 52be 0b2d 44be
000003f0: 9985 dabd a74c 59be f338 a6bd 6f87 42be
0.17363925 0.18868457 -0.056200705 0.21380012 -0.05930551 0.03615977 -0.16882613 0.13019215
0.20632395 -0.18900509 0.200749 0.031900484 0.18016654 0.035002504 0.11073888 -0.038723893
0.17968899 0.026361894 -0.09281484 0.08172594 -0.046704624 0.037619565 -0.06973077 0.16143414
-0.22588408 -0.13655025 -0.13741511 -0.27499872 -0.08133928 -0.38745305 0.22000234 -0.18743286
0.20165725 0.067067996 -0.07391656 0.15338099 0.029946238 0.18198907 0.01490769 -0.07373571
0.075430796 -0.047886945 0.11727942 0.22495772 0.131357 -0.09664058 0.14299965 0.027331041
0.121584155 -0.19678007 -0.3473134 -0.083979666 -0.16981483 0.18819745 0.036409322 0.058145307
0.034120113 -0.0014676473 0.13875566 -0.23989052 -0.01526262 -0.17448308 0.0815758 -0.094115
0.043848902 -0.023264648 0.20210998 -0.16081177 -0.17654942 -0.18664348 0.19691856 0.083979875
0.22667493 -0.23542936 -0.28668255 -0.20467073 -0.25202355 0.16264376 0.123137236 0.24903572
-0.22448307 -0.13284278 0.21226108 -0.12524685 0.127782 -0.06689188 0.15190977 -0.18167207
-0.2217692 0.010764263 0.05916325 -0.04531033 0.21903169 0.13707215 -0.1463717 -0.1304421
0.23286384 -0.129277 0.003626077 -0.22816545 -0.114983976 0.08739915 -0.041588783 -0.16665733
-0.01007548 -0.17503382 -0.1986037 -0.0848835 -0.26537195 -0.12855338 0.26557767 0.092553094
0.11282165 -0.24353047 -0.16624132 -0.07070746 0.028385997 -0.17122823 -0.059764504 -0.124265164
0.053962454 -0.088824034 -0.0006843506 -0.22180775 -0.32939446 -0.1494981 -0.03720154 -0.14469123
0.21180232 -0.017415088 0.2193284 0.08432387 -0.1704161 0.19319215 -0.009717017 -0.20538002
-0.3499059 -0.40578184 0.087582 -0.020260276 0.08918183 -0.20705403 0.165136 -0.1775949
-0.052967414 0.051035054 0.117021084 0.18649662 0.20580858 -0.19091035 -0.0038747767 -0.12683442
-0.016870786 -0.18710057 0.21254079 -0.19120622 0.12382989 0.09753868 0.07755243 -0.13768066
0.22945698 0.053478967 0.010463528 -0.2163472 0.1481634 0.014847721 -0.13413739 0.22739953
0.0922298 -0.14633168 -0.14692688 -0.0013780845 0.13640772 -0.08620767 -0.36686644 -0.17996083
-0.15835254 0.10794771 0.20241866 -0.25082332 0.053976465 0.11553938 0.03592652 -0.07660425
0.12268807 0.11491952 0.10289516 -0.03769474 -0.07408279 0.011969791 -0.1132911 -0.12036303
0.15552554 0.19660203 -0.023578044 -0.046429727 -0.0013821782 -0.025915308 0.093795635 0.0924169
-0.21030985 -0.06392328 0.19613646 0.07363575 -0.036546357 -0.21726939 -0.13157633 -0.24835393
-0.12155196 0.091784626 0.14530264 0.09453015 -0.22757436 -0.17084253 -0.041986093 0.23606251
0.036362544 -0.05723948 0.10085763 -0.08339833 -0.12165868 0.22020073 -0.033794228 0.005199809
-0.23197223 0.1429648 0.16773878 0.08582768 -0.21842633 -0.49762017 -0.25485033 0.1845576
0.11864658 0.20728868 0.15730584 0.110135585 0.031062538 -0.18566601 -0.34407666 -0.20210795
0.08480497 -0.08191532 -0.029248254 -0.10586438 -0.20814458 -0.3080861 -0.1770267 0.11129306
-0.0511949 0.17944571 -0.20552671 -0.19157808 -0.10670013 -0.21220647 -0.08116331 -0.18996976

conv.0.bias f4 [16]
00000000: 5d1f 413e 2be4 dcbc 29ff 01bd f0f1 c1bd
00000010: 5426 36be ca0b 5abe d168 cd3d acc0 eebd
00000020: 47b2 17be f77c 073c 3990 aebd 1ed6 84bd
00000030: 117f 4d3c 2849 07bc 5762 a6bd 591d 88bd
0.1885962 -0.026964268 -0.03173748 -0.09469974 -0.17788059 -0.2129356 0.10029758 -0.11657843
-0.14814101 0.00826954 -0.08523602 -0.06486152 0.012542502 -0.008257188 -0.081242256 -0.066462226

conv.2.weight f4 [32, 16, 3, 3]
00000000: a816 77bd be80 a33d 1527 c6bc b721 063d
00000010: 97db 8abc 73b5 8c3c b648 b63d 5256 4a3d
00000020: b893 7dbd 60ea 0a3d a8fb 7b3d 7077 043c
00000030: e9c8 ac3d 9062 cc3d 2131 8b3c 8d0f 11bb
00000040: ea83 74bd 16dd e2bc 9c82 9c3d 91d1 6c3d
00000050: 4241 1abd 6e3e 95bd 4361 86bd 194e a5bd
00000060: b0fd 8cbd 145e 8fbc 1cdb 683d 7367 8c3c
00000070: fd14 82bd 2f4e 5bbd 57de 103d f388 48bd
00000080: 03d1 75bc e37b 6f3d ae32 eebc fb4c 253c
00000090: 58b1 afbc f767 a7bc 8d2a 94bd 8ab4 a1bd
000000a0: 5ae0 a5bd ae91 96bd 0e00 283e 90b6 05bd
000000b0: 15d3 e6bd f91b 583d f22e 943d f03c 8a3d
000000c0: 7da9 623d d998 6e3c 7602 76bd f1a2 0f3c
000000d0: f981 c03d dfd8 d23c 4250 92bd bae8 383d
000000e0: 9255 98bd 6fb0 61bd f0e4 98bd 9847 62bb
000000f0: b6bf 893c bcf5 1ebc 70df 09bc 1596 8cbd
00000100: a3b2 9fbd 7e22 f6bb fd78 a13d 1abd 873d
00000110: 0764 43bc a962 57bd aab1 a5bd 7e70 41bd
00000120: 2ff1 863c f2e4 2e3d 8ac5 753d 8279 95bd
00000130: 3be1 8d3d 4149 30bd 276b 123d 04bb b23d
00000140: a120 f93b 07c6 cb3d a1e9 63bd 7b3e e0bc
00000150: 710b 213d 341c 26bd 7ff2 2a3a c64e 8ebd
00000160: 1626 373d eaff 033d 682f fd3c 023d 13bd
00000170: 7ca3 93bd 3bae a33c d8aa 2d3d f6c7 c7bc
00000180: 329b 9fbc 6ff7 6c3d 9c47 3e3c 6778 033a
00000190: 0a0c 63bc 1e7e 50bd d795 96bd 5ea2 d8bc
000001a0: 2401 18bd 445d 383d b121 68bc f600 80bc
000001b0: f9c0 c73d cd32 443d 95dc a83d 48cc f6bc
000001c0: 253a 37bd 8919 f03b d45c 41bd fceb 59bd
000001d0: f3cb 433c f682 28bd 47a6 d6bd c426 29ba
000001e0: b019 8c3d 49c7 033d beed f13c 19fd d2bd
000001f0: e1d1 74bd 1e5a 71bc 5c92 153c 85ef 75bc
00000200: 9308 febc 6373 373d 7ac0 46bd 0a1b 3f3d
00000210: c59a 3bbd 5514 00bd d171 2dbd 7d2a e9bb
00000220: f6e6 4bbd 62b4 c03d 466e ed3c 86a9 663d
00000230: 7681 b03d 2313 08bd d42b c1bd 9d04 653d
00000240: f05b 7b3d 346f 83bd ff7d 8abb 20d9 afbd
00000250: 9897 8ebd 1128 2f3c 9c86 9e3c 005a cd3c
00000260: 32e3 60bc d05e e93d aba0 e83c 8f89 3cbd
00000270: 5a46 a6bd 0eb0 b0bc bf92 173d 639c b0bc
00000280: 5209 623d bf4a 1bbd af74 b6bd ff6a 61bd
00000290: f532 b03d d4cd b83d b4eb a83d 62b4 5f3d
000002a0: fa90 1a3d 31fd f3bc 16a2 6ebd e9b3 d33c
000002b0: 3c9e 5abd 7410 74bd b06e debc 28a2 683c
000002c0: d225 bd3c fb1b 69bd aa2d 31bd a38d 653d
000002d0: a183 a3bd b4b3 65bd 8378 693c a25b 3abd
000002e0: 8fff 3d3d b3cc e53d 9737 a73c f305 3b3c
000002f0: f76d a93c 180f 343d 64bc 6d3c 3f3a 1b3d
00000300: c89e 973c 2997 163d 7349 e6bb 7416 0fbd
00000310: bed2 54bd 702a d1bc 2b80 ae3d f8f8 ce3d
00000320: 2e62 903d 4438 95bc c343 9fbd 4b73 f1bd
00000330: 0ea6 c43b 1019 4fbb 01a5 b53c fa6a 1cbd
00000340: cf87 643d 3072 4fbd 3211 b9bd 9c5b 83bd
00000350: 2b04 8b3d 1f17 a5bd f5e9 963d 0be8 ac3c
00000360: 2494 31bc 3969 8c3d 7f22 2fba f642 183d
00000370: 6b98 4c3d cf84 cfbd 3831 633d 18ba 293d
00000380: a051 f83c cc24 4cbc 793a 9fbc 8563 aebd
00000390: 1f90 9d3c dde1 f43d 8398 f73d f46b c3bc
000003a0: 77a6 d5bd 9352 c6bb b503 2dbd 223f a43d
000003b0: 6007 53bd e5dd 2fbd 02ee 26bd 663e 48bc
000003c0: f1f9 b43d f075 a43c a9e7 353d c902 b03d
000003d0: 894a a33d 3ab8 a8bc 468f e6bc 287f 803c
000003e0: 0046 b5bd 03a0 813d 8086 a7bb c3f0 54bd
000003f0: 6d73 0c3b 9807 86bc 7ba7 cc3c f48f d63d
-0.06032434 0.0798354 -0.024188558 0.032746997 -0.016950412 0.017176365 0.08900587 0.049398728
-0.061908454 0.033914924 0.061519295 0.008085117 0.08436758 0.09979737 0.0169912 -0.0022134513
-0.059696116 -0.027693313 0.07642099 0.057817046 -0.03765989 -0.07287298 -0.0656152 -0.080715366
-0.068843246 -0.017500915 0.056849584 0.017139172 -0.063516594 -0.05354136 0.03536829 -0.04895873
-0.015003446 0.058467757 -0.0290769 0.010089154 -0.021446869 -0.020435316 -0.072346784 -0.07895763
-0.08099432 -0.07352005 0.16406271 -0.03264481 -0.112707295 0.05276105 0.072355166 0.06749904
0.055337418 0.014562809 -0.06006094 0.008766876 0.0939979 0.025738178 -0.07144214 0.04514382
-0.07438196 -0.0550999 -0.07465541 -0.0034527536 0.016815048 -0.009702142 -0.008415088 -0.068645634
-0.07797744 -0.007511436 0.07884405 0.06627865 -0.011925704 -0.052584324 -0.08090527 -0.04722642
0.016472427 0.042698808 0.06000284 -0.072985664 0.06927725 -0.04303861 0.03574672 0.08727077
0.0076027666 0.0994988 -0.055642728 -0.027373543 0.039317552 -0.04055424 0.000652112 -0.069486186
0.044714056 0.03222648 0.030906394 -0.035946853 -0.072089165 0.01998054 0.042399257 -0.024387341
-0.019483183 0.05785316 0.011613753 0.0005015195 -0.013857851 -0.050901525 -0.073527984 -0.02644461
-0.037110463 0.04501082 -0.014168189 -0.015625458 0.097536035 0.04790001 0.08245198 -0.030126706
-0.044733185 0.007327263 -0.04720767 -0.053203568 0.011950481 -0.04114052 -0.10480934 -0.0006452615
0.06840837 0.032172475 0.02953231 -0.10302181 -0.05977047 -0.014730958 0.009129133 -0.015010719
-0.031009948 0.044787776 -0.048523404 0.046656646 -0.045801897 -0.03126939 -0.042344872 -0.0071156607
-0.04978081 0.09409405 0.028983247 0.056314014 0.08618443 -0.033221375 -0.09432188 0.055912603
0.061366975 -0.06417695 -0.0042264457 -0.08586335 -0.06962508 0.010690705 0.019351296 0.02506733
-0.013726043 0.11395037 0.028396925 -0.046029624 -0.08118887 -0.021568324 0.037005182 -0.021558946
0.05518467 -0.03791308 -0.089089744 -0.05503368 0.08603469 0.090236336 0.08248082 0.054615386
0.037735917 -0.029783817 -0.058260046 0.025842624 -0.05337356 -0.059586003 -0.02715239 0.014198817
0.023089323 -0.05691145 -0.04325644 0.05604328 -0.079840906 -0.05607958 0.014249924 -0.045497544
0.046386298 0.11220684 0.02041225 0.011414993 0.020682318 0.043959707 0.014510248 0.037897345
0.01850833 0.03676525 -0.007027799 -0.034933522 -0.051958792 -0.025532931 0.0852054 0.10106081
0.07049976 -0.018215306 -0.077765964 -0.117895685 0.0060012406 -0.0031600632 0.022173407 -0.03818796
0.05579358 -0.050646007 -0.09036483 -0.064139575 0.06787904 -0.080610506 0.073688425 0.02110674
-0.010838542 0.06856007 -0.00066808605 0.037173234 0.049950045 -0.10132753 0.05546686 0.04143724
0.03031236 -0.012459945 -0.019437062 -0.085150756 0.019233761 0.119571425 0.12089636 -0.023855187
-0.10432141 -0.006052324 -0.042239863 0.08019854 -0.051520705 -0.042936224 -0.040754326 -0.012221908
0.08836735 0.020075768 0.04441038 0.08594281 0.07973201 -0.020595659 -0.02814449 0.015685633
-0.08851242 0.06329348 -0.005112469 -0.05198742 0.0021431104 -0.016361043 0.024982205 0.10476676

conv.2.bias f4 [32]
00000000: 94d5 153d 708b c93a ab06 38bd 5bdf 88bd
00000010: ded4 75bd 51fb 2abd c777 533d bfbf 33bd
00000020: 8e9a c2bb ea06 8bbd 421b 92bc 78f3 953d
00000030: f059 2c3c 981f bf3b 0940 363d dd10 703d
00000040: 2acd 693d bc1b 85bd be84 cb3b ff1e 86bd
00000050: 5620 59bd 5856 913d 9915 5bbd 62c3 0ebd
00000060: f2ba 2d3d 6ebb 9a3d e359 92bd 628a 23bd
00000070: 257f acbc 0cf1 883d b245 353d a552 603d
0.036580637 0.0015376639 -0.044928234 -0.06683227 -0.06001746 -0.04174358 0.0516279 -0.043884035
-0.0059388345 -0.06788428 -0.017835263 0.073218286 0.01051949 0.0058326237 0.044494662 0.058609832
0.057080425 -0.064994305 0.0062108925 -0.06548881 -0.053009354 0.07096547 -0.053487394 -0.0348543
0.042414613 0.075552806 -0.07146051 -0.039926894 -0.021056721 0.06686601 0.04425592 0.054766316

conv.4.weight f4 [64, 32, 5, 5]
00000000: b421 943c c41c 8dbb 6426 983c 4517 43bd
00000010: abd4 f6bb 0a79 3dbb 48a4 e93c 1029 173d
00000020: 380d c03c ec8f 7d3d 5405 343b 7692 c93c
00000030: 67b5 2e3d 828a b03c 231d 3dbd f334 9fba
00000040: 6607 ae3c d631 b33c d292 ae3c 5ed4 0b3d
00000050: 62b4 793c b12b babc 6263 aebc 7cff 443d
00000060: e03d 34bc 6126 b1bc d2dd 19bc 7cdc 6f3d
00000070: 0849 6d3d f097 083c 5a70 edbd 3593 1c3d
00000080: 0cff 3a3d 35b4 fbbc 19dc 89bd 6814 f53c
00000090: cf04 fabc 8e9e d93c 1f0d 95bc 1dcf 02bd
000000a0: 0eed b0bc b79f 013e ea0e e43b c203 3abd
000000b0: 231d e8bb 3ee2 08bd ca65 e9bc ceb7 00bd
000000c0: b9b4 143c e7fd ad3c 5851 cb3b 05fb 0a3d
000000d0: 2081 f9bc 0ea2 853c 308f 37bc c0de e43a
000000e0: 46c1 c73c f667 cfbc e8d9 7d3c 3867 e7bb
000000f0: d656 bb3c 4061 73ba 5ab2 8f3c 05f3 0a3d
00000100: 54d3 4ebc 155c 0cbd 1d3e 063d 7f75 9fbc
00000110: dc60 043c f021 b43c e6d9 4b3b 825a d73c
00000120: 50b2 bb3c 5c3e e9bb 1ce0 173c 0899 073c
00000130: 6887 313d 880c 223d 3f58 0f3a 30f8 d93c
00000140: 06af 16bb 5b13 393d f3b8 f7bc d8bb 783c
00000150: 82f0 a6bc f18d 82bc 722a 6ebb c309 f33b
00000160: 17e3 763d ea55 713b 6805 d0bc 7eb0 933d
00000170: a70d a5bd 0aed 9b3c c719 65bd 52ee e5bc
00000180: e2b6 2dbd a0c0 6f3c 60d0 4c39 b245 ec3c
00000190: 1fc7 5e3c fcc6 c13c e521 cf3c 254a 003d
000001a0: c080 0a3d 0f5a 5dbc 3b27 82bc 81f3 df3c
000001b0: ac6f f03c 762c 71bc b1a6 0fbd 36ff 18bd
000001c0: 9e7d 9e3c 5885 523c 6d1d e93b 5b7b a1bc
000001d0: df89 933c 5845 14bc 4c57 efbc 6656 073d
000001e0: bcd2 4c3a 1b04 91bc 9f75 ec3b f9cb 4ebd
000001f0: eaa4 133d f5a2 4d3c a8ac f8bc 3eea f73b
00000200: 1f22 c3bd 4734 f33c 03af b43c 0513 33bd
00000210: 7829 213d 0eb0 b7bc 6e63 6a3d bd79 76bc
00000220: 0e13 833d 6caa a9bc dcb2 15bd 7f84 b93b
00000230: 8150 213b 8836 983c ba6d 63bd 2be5 9ebc
00000240: 26d5 fcbc 2223 83bd 9df6 db3d 81ca 9fbd
00000250: cbf3 65bc 3c24 c53b ae0b 0fbd cd7d d73c
00000260: 6207 13bc bd01 243b 9733 5d3d 4a7c 25bb
00000270: 5e0b d0bc 836f 833c 9a2d 6cbd f6a4 c13c
00000280: 6f15 993c 7fa0 4bbb a6ef 7cbc f911 bc3c
00000290: 9450 863c d432 86bb 8b1f 713b f41f d43c
000002a0: b562 013d 3a6d f8bb cbb8 0f3d 1866 fc3b
000002b0: 192a 773c fa20 4e3d 9269 adbc 1e21 8a3b
000002c0: 8072 09ba 1aab 04bd cd47 03bd c2cb 03bc
000002d0: bb85 f73c 4e65 b7bc 07dd 003c 2720 973c
000002e0: 1fd9 ecbc 3f3e debb 2602 963c 09cc d6bc
000002f0: 4032 32ba 4469 1bbd d57d 823c 083f 2c3d
00000300: 135c 8c3c d61a dd3c 4e5c 023d 05c4 0f3d
00000310: 38fe 6e3c dc41 e1bc 4d45 053d 04e9 203c
00000320: 916e f0bc e791 01bb e436 533d 5791 a63c
00000330: 35b2 253d 9569 96bc 0ca8 063d bc46 e43a
00000340: 1aa3 f2ba 922d 923b e1f4 c93c db40 023d
00000350: 25fb f33c c03a f73c 9ba4 d73c 8b0e d63c
00000360: b1ec 563c 3c84 9ebc ee77 ba3c 7960 44bd
00000370: 4cd9 2e3d 61f4 42bd e2ee 66bd 4c4f f0b9
00000380: e236 c73c cadd f7bb 4d42 2c3d baab 7f3d
00000390: 9382 223d 55d6 60bd e7c0 e43c d67f 043d
000003a0: 810f a43d 8c4f 923d 85fe 653c 826b 61bd
000003b0: 2156 353d a336 573c 534b 613c 24f2 60bd
000003c0: 7064 bf3a 997a 31bd c291 04bd 6a70 bd3c
000003d0: 1810 42bc 247e aebc a058 d33c 722b 40bc
000003e0: 7ae9 fab9 c977 043c 6586 a2bc b178 813c
000003f0: 5c53 e63c a2ab d83c aee0 f4ba be6a f53c
0.018082477 -0.0043064076 0.018572994 -0.047629613 -0.007532676 -0.0028911256 0.028520718 0.036904395
0.023443803 0.061904833 0.0027468996 0.02460597 0.042653468 0.02155042 -0.046170365 -0.0012146517
0.021243762 0.02187435 0.021310244 0.034138076 0.0152407605 -0.022725912 -0.021287624 0.04809521
-0.01100108 -0.021624746 -0.009391265 0.05855988 0.057930976 0.008337006 -0.11593695 0.038226325
0.045653388 -0.030725578 -0.067314334 0.029916957 -0.030519871 0.026564863 -0.018194733 -0.0319358
-0.021597411 0.12658583 0.0069597857 -0.04541374 -0.0070835515 -0.033418886 -0.02849092 -0.03142529
0.009076291 0.021239234 0.0062047653 0.033930797 -0.03045708 0.016312625 -0.011203572 0.0017461404
0.024384152 -0.025318127 0.015493847 -0.007061865 0.022868555 -0.0009284206 0.0175411 0.033923168
-0.012623627 -0.034267504 0.03277408 -0.019465206 0.008079734 0.021988839 0.003110522 0.026288275
0.022912174 -0.0071180295 0.00926974 0.008276232 0.043342024 0.039562732 0.0005468167 0.026607603
-0.0022992506 0.045184474 -0.030239558 0.015181504 -0.020378355 -0.015936824 -0.0036341217 0.007416935
0.060275164 0.003682489 -0.025393203 0.072113976 -0.080592446 0.019033927 -0.055932786 -0.028067742
-0.04241074 0.014633328 0.00019532582 0.028841827 0.013597279 0.023654453 0.025284717 0.03132071
0.03381419 -0.013510241 -0.015887847 0.027337791 0.029350124 -0.014720073 -0.03507108 -0.037352763
0.019347008 0.012849174 0.0071141035 -0.01971214 0.018010078 -0.009049736 -0.029216431 0.03304138
0.0007813384 -0.017702153 0.00721617 -0.050487492 0.036045946 0.012551059 -0.030355766 0.0075657656
-0.095279925 0.029688014 0.022056108 -0.04371931 0.03934619 -0.022422817 0.05722373 -0.015043673
0.06400119 -0.020711146 -0.036547527 0.0056615467 0.0024614634 0.01858069 -0.055524565 -0.019396385
-0.030863356 -0.064031854 0.10740397 -0.078022964 -0.014035176 0.0060162824 -0.034923248 0.026305104
-0.008973928 0.002502545 0.054004278 -0.0025251084 -0.025396045 0.016044384 -0.057660677 0.02363823
0.018686978 -0.0031071005 -0.015437996 0.022957789 0.016395845 -0.0040954147 0.0036792483 0.025894143
0.031588275 -0.00758138 0.03508834 0.0077026 0.01508572 0.050324418 -0.021168504 0.0042153737
-0.0005243197 -0.032389738 -0.032050896 -0.008044185 0.030215135 -0.022387173 0.007865197 0.018447949
-0.028912125 -0.0067823227 0.018311571 -0.026220338 -0.0006797649 -0.037942186 0.015929142 0.0420523
0.017133748 0.026990335 0.03182631 0.03509905 0.014586978 -0.027497225 0.032536794 0.00982118
-0.029349597 -0.0019770802 0.05156602 0.020332975 0.040453155 -0.018360892 0.032875106 0.00174161
-0.0018511743 0.004460999 0.0246529 0.031800132 0.029782841 0.030179381 0.026323607 0.026129982
0.013117955 -0.019350164 0.022762265 -0.047943566 0.0426877 -0.04759634 -0.05638016 -0.00045835448
0.024318162 -0.007564281 0.042055417 0.06241963 0.039675307 -0.054891903 0.027924014 0.032348476
0.0801077 0.071440786 0.014037733 -0.055034168 0.044271592 0.013135585 0.013750869 -0.054918423
0.0014602076 -0.04332981 -0.032365568 0.023124892 -0.011844657 -0.021300383 0.025799096 -0.011729108
-0.0004785767 0.0080852 -0.019839475 0.01580462 0.02811592 0.026449028 -0.0018682682 0.029958125

conv.4.bias f4 [64]
00000000: 53af cfbc d22d edbc 8fd9 043d 6279 ac3c
00000010: 5531 113c ca6a 1fbd 7cbc 72bc cece 10bd
00000020: 9782 d23c 3f1b d43c c6de 213c ea6d 12bd
00000030: 64b4 49bc 6415 b0bc 4314 b1bc 7692 4fbc
00000040: ec05 8b3b 2a13 89bc 0cbe 7e3c a3b4 d8bc
00000050: 2813 143d 5a16 1fbd abc2 c4bc 5e72 7ebb
00000060: 4e21 e43c b6d5 1d3b e0d8 1cbd 4c0e 2b3d
00000070: 5ec7 1bbc 78ac ab3c 05c5 eebc 00be 00bd
00000080: 7de2 f4bc 50b6 b1bb 384f 6c3c 3585 0c3c
00000090: 210d b5bc 50d1 8b3c dfb7 493c bacf 16bd
000000a0: 11d9 403d ada2 0c3a 4ad4 c7bc 5bc2 c1bc
000000b0: 038d c93c 3c68 a1bc 5db2 93bc 21d9 6e3c
000000c0: 8b87 dcbc b8bd 5d3b 6b95 a23c fbc3 e33c
000000d0: 6327 acbc c5d5 0cbd 5213 ad3b 0e71 2cbc
000000e0: f906 ef3c acf1 19bd 2fa0 173d b448 08bd
000000f0: cc15 f6bc 0755 9b3c 9e46 25bd 7214 393d
-0.025352156 -0.028952513 0.032434043 0.021053974 0.008861859 -0.0389202 -0.014815446 -0.035353474
0.025697036 0.025891898 0.0098797735 -0.035749353 -0.012311075 -0.021494575 -0.021616107 -0.012669196
0.0042426493 -0.016732771 0.01554824 -0.026453322 0.03615108 -0.038839675 -0.024018606 -0.0038825492
0.027847912 0.002408368 -0.038292766 0.04176168 -0.009507982 0.020956263 -0.02914668 -0.031431198
-0.029893154 -0.0054233447 0.014423184 0.008576681 -0.022100987 0.017067581 0.012311905 -0.036819197
0.04708201 0.0005364817 -0.02439322 -0.023652246 0.024603372 -0.019703023 -0.018029386 0.014578135
-0.0269201 0.0033835005 0.019846639 0.027803412 -0.021014875 -0.034383554 0.005281844 -0.010525001
0.02917813 -0.037583992 0.037017997 -0.03327246 -0.03003969 0.018961443 -0.04035055 0.045185514

conv.7.weight f4 [64, 256]
00000000: 7711 f0bc 2927 84bd c3bd 2c3d d263 a33c
00000010: 681b f83c 2849 34bd b257 673d acb3 75bd
00000020: 50b4 8cbb 923b 6dbd 7e78 003d f8b1 293c
00000030: beae 7bbd a0eb ff3c 10c8 f93b 2874 233d
00000040: 3812 90bc 3233 503d f8b3 283c 6ac3 37bd
00000050: 20d1 8c3c 804e f73b 58ad ad3c 2ef7 02bd
00000060: 104e b63c 1060 153d 1403 45bd 8881 7a3c
00000070: 48b0 643c 2003 45bd 1c79 c0bc b847 59bc
00000080: 6693 4ebd 82e9 cfbc 71ae d0bc 24c3 a3bc
00000090: d4e1 cc3c 86da 2bbd 8087 26ba 2039 383c
000000a0: 00a3 c3bb d2de b0bb 2400 52bd 7153 e13b
000000b0: 5492 bf3c 589d 863c 9ed1 003d 106f edbc
000000c0: 600b e3bb 808e 7e3b e00e c63b e43e 2a3d
000000d0: 3c29 5abd 5ed0 393d f82d 193c 18ca 11bd
000000e0: 5ad4 16bd 0bb8 3dbd e14f 19bd 507b 703d
000000f0: 3863 303a 74c6 c7bc cece 8b3c 8e53 d0bc
00000100: e063 55bd 9c5e b5bc 4083 a9ba d6e8 1f3d
00000110: 8676 75bd 681a 19bc f06d 303d 0ca2 77bd
00000120: 2618 373d cc8a 2f3d 008d 79bc 0046 12b9
00000130: e232 04bd e87f adbc 0018 45b8 7e0d 5fbd
00000140: 5313 ad3c ace4 49bd cd8e 64bd ce92 683d
00000150: 1c17 b7bc 042b 233d c8f7 24bc 4eef 35bd
00000160: 3244 5cbd 28f9 8c3c 80f7 2b3b 5859 5ebd
00000170: 087a 2a3d 9ce7 d43c cee1 1cbd 58d5 01bd
00000180: 48a1 ee3c 7026 8abb bef5 02bc 1829 57bd
00000190: bc7a d2bc 57ad 54bc 783e 323d 1987 71bd
000001a0: b870 b43c 4ef9 763d f8cf c83c 28b5 33bc
000001b0: dc9f 9c3c 9817 93bc 4c7d 07bd c2fd 71bc
000001c0: 5af9 343d 50ac 563c 80a9 813a 4488 a33c
000001d0: 388d afbc 69e0 b13c dc1f e83c 228b 943c
000001e0: 803d 58bb 6013 4a3b 00df 303d ccff abbc
000001f0: 26b8 433d 1a6a 46bd 0091 07bb 70a4 1cbd
00000200: 506d 81bc f046 9a3c 343f 263d f210 283d
00000210: e05b 4b3d dca2 f03c d08c d5bb 7a63 68bd
00000220: b821 7dbd 5ec1 17bd 10ab 4abc 0006 5c3b
00000230: 98fe 2ebd b461 60bd 70a7 e9bb 406c 6c3c
00000240: 502a adbb 9408 9ebc 18f1 243d de7b 04bd
00000250: ea52 68bd 725b 7bbd ac73 3d3d 88b7 693c
00000260: 4b6b 1ebc d79c 513d e858 11bd 0a1f 0fbd
00000270: dea6 2cbd b63d 17bd 6418 cf3c 80bf 223b
00000280: 5f00 e7bc 9202 093d f93d 23bc 9a99 863c
00000290: 2805 2e3d 0047 94bb a4d1 413c 7a01 22bd
000002a0: a083 ba3b ee17 233d 1090 8d3b f8fd 063c
000002b0: 602c 823c b024 3ebd b857 dfbc 4ab1 113d
000002c0: 30b8 6f3d b450 60bd 0ca0 913c 80ff f9ba
000002d0: 42b3 5a3d d2d2 793d 24ae be3c 203d 05bd
000002e0: cc7b 10bd 785b 263c b292 4b3d 30e9 38bc
000002f0: 6529 163d 8988 693d 319d 3fbd 9a1b 1dbd
00000300: 30f9 0c3d 9231 153d 806d 20bd 10e3 d2bb
00000310: 1468 183d f486 bfbc 3c06 40bd c053 1f3c
00000320: a0b5 11bc 5804 35bd e47f 6cbd 90a7 48bd
00000330: 6e35 7ebd 04cf fdbc ca11 063d 1440 6d3d
00000340: e019 8c3c 846c cdbc 8024 a9bc 0873 1ebd
00000350: 26fd 3c3d 306e 883b 3ac4 373d 1ce8 a0bc
00000360: b7e2 8cbc 0457 ffbb 20b1 3cbc e1e1 72bc
00000370: 061a 483c 1a27 2e3c 5d74 4d3d f25b 66bd
00000380: 50e6 de3c 38d6 ff3c 8415 633d c038 45bd
00000390: b6c0 6dbd dc74 56bd fac0 69bd 2cb9 893c
000003a0: 563f 72bd da0a e8bb 6111 2a3d 94dd 51bd
000003b0: 7621 57bd d403 dabc 20c8 dcbb c89e d3bc
000003c0: 0089 833b 007a eb3c 1a90 053d d8d9 a33c
000003d0: 04c0 aa3c a0bf 0ebb d07a 1dbc d372 30bd
000003e0: d423 b23c 9ce6 eabc a684 37bd 62ad 133d
000003f0: b641 8d3c 8b1a 1dbd d2f2 aebc 555f 963c
-0.029305203 -0.06452782 0.04217316 0.019945059 0.030286506 -0.04401508 0.056480117 -0.0599858
-0.004293956 -0.05791814 0.03136491 0.010357372 -0.061445944 0.031240284 0.0076227263 0.039905697
-0.017586812 0.050830074 0.010296814 -0.044864096 0.017189562 0.0075471997 0.02120082 -0.03197401
0.02225402 0.036468565 -0.04809864 0.015289672 0.013958044 -0.048098683 -0.02349525 -0.013261728
-0.05043354 -0.0253799 -0.025473805 -0.019990511 0.025010027 -0.041956447 -0.00063525885 0.011244088
-0.005970359 -0.005397656 -0.051269665 0.006876402 0.023385204 0.01643245 0.031449907 -0.028983623
-0.0069288462 0.003884226 0.0060442537 0.041563883 -0.05326198 0.04536473 0.009349339 -0.035593122
-0.036823608 -0.046318095 -0.037429694 0.05871135 0.0006728652 -0.024386622 0.017066386 -0.025430467
-0.0520972 -0.02213984 -0.0012932792 0.03904041 -0.059927486 -0.009344675 0.043073595 -0.060457274
0.044700764 0.042856976 -0.015231371 -0.00013949722 -0.032275088 -0.021179155 -4.6990812e-05 -0.054456227
0.021127379 -0.049290344 -0.055800248 0.05678063 -0.022349887 0.039835945 -0.010068841 -0.04441767
-0.053775974 0.01720865 0.002624005 -0.054284424 0.041620284 0.025989346 -0.03830128 -0.0316976
0.02912964 -0.004216008 -0.00799316 -0.052529424 -0.02569329 -0.012980781 0.043516606 -0.05896673
0.022026405 0.06029635 0.02451323 -0.010968484 0.019119196 -0.017955586 -0.033078477 -0.014769973
0.044183113 0.013102606 0.0009892434 0.019962437 -0.021429643 0.021713452 0.028335504 0.01813275
-0.0032995641 0.0030834302 0.04318142 -0.020995997 0.04778304 -0.04844103 -0.0020685792 -0.038242757
-0.015799195 0.018832654 0.04058762 0.041031785 0.049648166 0.029374532 -0.0065170303 -0.056735493
-0.061799735 -0.037049644 -0.012369886 0.0033572912 -0.04272327 -0.054780677 -0.007130556 0.014430106
-0.005284585 -0.0192912 0.040268987 -0.03234469 -0.056719698 -0.061366506 0.04625289 0.014264949
-0.009669135 0.051174965 -0.03548518 -0.03494171 -0.042151324 -0.036924087 0.025280185 0.0024833381
-0.02819842 0.033449717 -0.009963506 0.016430665 0.042485386 -0.0045250654 0.011829767 -0.03955219
0.0056919605 0.039817743 0.004320152 0.008239262 0.0158903 -0.046421707 -0.027263507 0.035569467
0.058525264 -0.054764464 0.017776512 -0.0019073337 0.05339361 0.06099207 0.023276396 -0.032528996
-0.035274312 0.010153644 0.049700446 -0.011286065 0.03666057 0.057014976 -0.04678077 -0.0383564
0.03441733 0.036424227 -0.039166927 -0.0064357594 0.03720863 -0.02337978 -0.046880946 0.009724557
-0.0088934 -0.044193596 -0.057739154 -0.048987925 -0.062062673 -0.030982502 0.03273181 0.057922438
0.017102182 -0.025076158 -0.020647287 -0.03868392 0.04613986 0.004163526 0.04486487 -0.019641928
-0.01719795 -0.0077923555 -0.011516839 -0.014824362 0.012213236 0.01062944 0.0501598 -0.05624003
0.027209431 0.031230077 0.05544044 -0.048149824 -0.05804511 -0.05235754 -0.057068802 0.01681193
-0.059142433 -0.0070813717 0.04152048 -0.051236704 -0.052522145 -0.026613154 -0.006737724 -0.025832549
0.0040141344 0.028744698 0.03260813 0.020001337 0.020843513 -0.0021781698 -0.0096118 -0.043078255
0.0217456 -0.028674416 -0.044804238 0.036054023 0.017243247 -0.03835539 -0.02135602 0.018356005

conv.7.bias f4 [64]
00000000: 87f6 b3bc d876 643d 958f 1e3c c3db e53c
00000010: ffad a33c faca f03c 0025 01bd 2166 6dbd
00000020: b913 853c 1965 a0bb 987e 57bd 8c02 c1bc
00000030: b68e f6bc db84 a7bc 133c 933d 52fe 2ebd
00000040: 4a61 923d 18c2 3bbd 7a47 db3b 94c9 fbbb
00000050: 9bbc 32bd 7f2e 5fbd 6488 b1bc 0b70 b0bc
00000060: c712 313d 336d 873c e458 a8bc b074 dcbc
00000070: a381 02bd 9829 af3c 9ec8 60bd cb06 32bd
00000080: a244 b4bb 376c 47bc 327a 7c3c 4434 59bd
00000090: 2c3e 09bd c032 bebc 44b5 7b3d 2599 483d
000000a0: 5b17 07bd a7bd 2dbd 0d5b a7bc 30c7 59bd
000000b0: f77b d33b 41dc 763d 00b5 043d 0108 0d3d
000000c0: 3670 c43c 5b67 b03b 7423 8dbc d52f d73b
000000d0: a296 f1bc 968e a4bc 2cba e93c a2ea cbbc
000000e0: 0cfa 64bd a679 20bd 895b 513c 881f 1fbc
000000f0: dc35 44bd ec01 88bc c5c4 703a d90c fc3b
-0.02196814 0.0557774 0.009677787 0.028058892 0.019980429 0.029393662 -0.031529427 -0.057958726
0.016244756 -0.0048948643 -0.052610964 -0.023560785 -0.030097347 -0.020449093 0.071891926 -0.042723008
0.07147463 -0.0458394 0.0066918703 -0.007683942 -0.0436369 -0.0544877 -0.021671481 -0.021537801
0.043230798 0.016531562 -0.020550199 -0.02691111 -0.031861912 0.021382138 -0.054878823 -0.04346351
-0.0055013457 -0.0121717965 0.015409993 -0.05302836 -0.033506557 -0.023217559 0.061452165 0.048974175
-0.032981258 -0.042417195 -0.020429159 -0.053168476 0.0064539867 0.060268644 0.032399178 0.03443146
0.023979288 0.0053834147 -0.01722882 0.0065669813 -0.029490773 -0.020087522 0.028531156 -0.024892155
-0.055902526 -0.039178513 0.012778171 -0.0097121075 -0.047902927 -0.016602479 0.00091845944 0.0076919612

out.weight f4 [4, 64]
00000000: c8e3 a93d 94b3 e33d e654 6ebd 4aba 913d
00000010: be74 973d c4ee d4bd a7b4 93bd 744e 483d
00000020: 0d72 97bd 547d 5b3d e782 8c3d 7a08 f43d
00000030: d6b2 a03d f861 0fba ede9 05be f05c 603c
00000040: a470 d2bd 2ab8 693d 5491 a13a 4d7f 703d
00000050: 7dcc ca3d 979b 943d 4028 25bc 7972 6dbb
00000060: 729f 9ebd e173 833c 706b d93d e207 ba3d
00000070: d566 c23d 17f0 6fbd 5154 d53d b07d 52bd
00000080: a254 86bd 4027 ac3d e5a0 5b3d 9007 3dbc
00000090: cc9e 7e3c 08a8 60bd c2b3 cdbd ba4e 46bd
000000a0: 9423 a23d a7be f13d 72e9 993d a073 8abc
000000b0: 384f 1cbe b687 dbbd 3f83 2abd 2dbb 0fbe
000000c0: 4cb8 07be 2747 8a3c d858 c3bc 5cf9 b4bd
000000d0: 49b6 46bd c30d 213d d021 3bbc 70d6 d13b
000000e0: 9d43 61bd 7afd 2e3d 300f 463d 6667 ffbd
000000f0: 2e48 ffbc 261a 9c3d 6329 123e 9922 0dbe
00000100: 1907 a3bd ef55 5dbd 6379 ce3d 2b02 c0bb
00000110: c85b 753d b778 d23d a302 453d 1991 04bd
00000120: eb95 a9bd 05f5 bf3c 9b45 8e3c 9030 68bc
00000130: f840 d83d 05de 6a3d af9b 4abd dcad 7bbd
00000140: 0abd 23bd 32e7 98bc e542 853d 1652 d2bd
00000150: b81f a0bd 0c99 0f3e 6c43 0e3d 6419 bdbd
00000160: fc6a adbd 2823 28bd 6860 533d 33d5 ce3d
00000170: e425 e9bd 0de1 b9bd 8311 c0bc 6212 58bd
00000180: fa9c c1bd 5802 043c 6715 e7bc b00d 293c
00000190: fe82 55bc 304c 2d3c 7b4a 9fbd a932 65bc
000001a0: 4d63 f3bb 28a2 d0bc a6a3 a63d 3ce1 0cbd
000001b0: d45c 81bc 6acd 69bd 08ec d9bd 042b a13b
000001c0: aea0 ebbd e538 123d c002 59bc 5ba6 b53d
000001d0: e1a2 13bd 38b6 593b 40cc 70bc c4d9 d5bd
000001e0: a963 ad3d 44eb f8bc 6357 8bbd 8c11 493d
000001f0: 7d76 2c3d 0097 fdba 79f9 d4bd 4557 65bc
00000200: 882e c43d 3703 23bd a623 bfbd 3289 54bc
00000210: 8fcf 16bd 2013 09be 13b1 08bd 0ad8 1ebd
00000220: 7434 a03b 930f 943c b91b bebd cce8 e63d
00000230: 4f43 653d dba7 a43d 57ab 92bd 0811 debd
00000240: c28a 393d 39bf d53d c4da e73d 72be 6f3d
00000250: 9864 d43c da45 853c 0c78 df3d 20de ca3d
00000260: a5b7 ffbc f9c0 c0bd b76d c33d d068 1a3d
00000270: b6bd 01be c8f6 c63c 8516 013e 998b 8ebc
00000280: db51 82bd 3068 f6ba 9807 783d c213 813d
00000290: 1da9 66bd b2b8 b1bd fb20 4fbd 59b0 14bd
000002a0: acd3 cebc c502 9bbd 092f 87bd f019 d3bc
000002b0: f1eb 6fbd 43d3 273c 5c78 a7bd d28f 51bd
000002c0: 9f84 423d 492c afbd ec66 9d3d 00a3 c0bc
000002d0: 1c05 8c3c e453 93bd a0ea 0f3d ad90 95bd
000002e0: fc77 e23d efd7 cd3d 21ad e53d da79 cbbd
000002f0: 4ae1 e83d 5039 debd 7d04 2cbd aa1d 1bbe
00000300: f2b5 803d 9481 0bbe 3448 ed3c 927b 253d
00000310: 6ea0 adbc e34f 28bc 7333 5bbd ba38 503d
00000320: 3cd0 c9bc b8d7 4e3d be88 ff3c eed0 99bd
00000330: 4ada 3a3d f70d 8b3d a889 803d 5c1f 84bd
00000340: 966c d1bd d197 a73c 2f37 a73d 03a9 b43d
00000350: f261 bd3d 4488 14be c2b5 b63d 45e3 033e
00000360: f908 a7bc 098d eebd 87cb 8a3d b8e3 573d
00000370: a2ed 383c a507 bebd a2bd f2bd e231 c1bd
00000380: db3e 5abd 43fc 0e3c 4487 cb3d 4294 c4bd
00000390: b9b2 983d bc14 433d 176e 4f3d 2ef2 f7bd
000003a0: b341 06be 0754 4f3b 6ca4 02be 300d d9bd
000003b0: ddb9 823d 86af f1bc b49a bebd e583 ac3c
000003c0: 59c2 25bc f8b4 713d 885a b33c 8ed7 ec3d
000003d0: 3c38 c6bd bb86 aa3c ac65 7fbd eee7 a8bd
000003e0: e600 c83d e148 f6bd 4146 6ebd 2404 72bd
000003f0: 6b27 a7bd 10cd ea3c 70d7 febd 1200 7b3d
0.08295399 0.11118236 -0.058186434 0.0711561 0.07395314 -0.103971034 -0.07212191 0.048902944
-0.073948 0.05358632 0.06860905 0.11915679 0.0784661 -0.00054696156 -0.13077517 0.013694033
-0.10275391 0.0570604 0.0012326636 0.058715153 0.09902284 0.07256239 -0.010080397 -0.003623156
-0.077452555 0.016046466 0.10616195 0.09083535 0.0949227 -0.058578577 0.10416473 -0.051389396
-0.06559111 0.08405924 0.053620238 -0.011537448 0.01554079 -0.054847747 -0.10044052 -0.048414923
0.07916942 0.11803942 0.07515229 -0.016900837 -0.15264595 -0.10719244 -0.041629072 -0.14036246
-0.13253897 0.016879631 -0.023846075 -0.08836624 -0.048513684 0.039319765 -0.011421636 0.006403737
-0.05499612 0.042722203 0.048354328 -0.124708936 -0.031162348 0.07622175 0.142736 -0.13782729
-0.07960338 -0.05403703 0.100817464 -0.0058596334 0.059901983 0.10276931 0.048098218 -0.03236494
-0.08280548 0.023432264 0.017367175 -0.014171734 0.10559267 0.05734064 -0.049464878 -0.061445102
-0.039975204 -0.01866493 0.065069 -0.10269563 -0.0781855 0.14023226 0.034732267 -0.092333585
-0.08467671 -0.041049153 0.051605612 0.10099258 -0.1138418 -0.09076128 -0.02344585 -0.052751906
-0.09453769 0.008057199 -0.028208448 0.010318205 -0.013031719 0.010577247 -0.07777878 -0.013989129
-0.007427609 -0.025467947 0.08136682 -0.034394488 -0.015791334 -0.057080664 -0.106407225 0.004918458
-0.115052566 0.03569879 -0.013245285 0.088696204 -0.036044005 0.0033220183 -0.0146971345 -0.10441926
0.08466274 -0.03038562 -0.06803777 0.049089 0.042105187 -0.001934737 -0.10399146 -0.013997857
0.09579188 -0.039797988 -0.09332971 -0.012972163 -0.036819037 -0.13386202 -0.033371996 -0.03878025
0.0048890654 0.018073833 -0.092826314 0.11274871 0.055972394 0.080398284 -0.07161587 -0.10843092
0.045298345 0.104368635 0.11321023 0.058531232 0.025926873 0.01626866 0.10911569 0.09905648
-0.031215498 -0.094118066 0.09542411 0.037697613 -0.12670025 0.024287596 0.12606247 -0.01740055
-0.06363269 -0.0018799361 0.060554117 0.06302597 -0.056313623 -0.08677806 -0.050568562 -0.03630099
-0.025247417 -0.075688876 -0.06600768 -0.025769204 -0.05857462 0.01024324 -0.081772536 -0.05116255
0.04748976 -0.085533686 0.076856464 -0.023515224 0.01709228 -0.07193735 0.035135865 -0.07302985
0.110580415 0.10050952 0.11214662 -0.09935351 0.113710955 -0.10850775 -0.041996468 -0.15148035
0.06284703 -0.13623649 0.028965093 0.04040105 -0.021194663 -0.010272953 -0.053515863 0.05083535
-0.024635427 0.050498694 0.031193133 -0.07510553 0.045618333 0.06789773 0.06276256 -0.06451294
-0.10225789 0.020458134 0.08164822 0.08821299 0.09247197 -0.14505106 0.08921386 0.12879665
-0.02039002 -0.11647994 0.06777101 0.052707404 0.011287125 -0.09278802 -0.11852576 -0.094333425
-0.0532826 0.008727136 0.09937909 -0.095985904 0.07455964 0.047627196 0.0506421 -0.12106739
-0.13111 0.0031635778 -0.12758034 -0.105982184 0.06383107 -0.029502641 -0.09306851 0.021058986
-0.010117137 0.059010476 0.021893755 0.11564551 -0.096786946 0.020816198 -0.06235282 -0.08247362
0.09765796 -0.12025619 -0.058172468 -0.05908598 -0.08161815 0.028662235 -0.12443435 0.061279364

out.bias f4 [4]
00000000: a9a8 973d 1b89 af3c 2cfb 13be 4344 a03b
0.07405216 0.021427682 -0.14451283 0.00489095
