models/v17.1/model_306500_target.pth (torch, 295191 bytes, 10 tensors)

conv.0.weight f4 [16, 2, 3, 3]
00000000: 33bc d33d 251c 883c 1a46 5dbe e0f3 8f3e
00000010: 8189 02be 8df3 0b3e 65c6 b6be 7a51 d73e
00000020: eb6d b53d 780a a9ba 8b2d 413c 55d1 c0bc
00000030: 34bf bbbd 84f6 fa3d 5fe1 153c 1b5c 7bbc
00000040: 2c3b 063d 5b66 a53a e051 30be 59b8 8c3e
00000050: b843 903c 2855 633e 68ca 3abe bbf5 5c3e
00000060: e9d8 4cbf 167c 07bf e9e8 d0bd 1a1e 83bf
00000070: a2c8 323f 3da0 a2bf 7960 623e 1b7b 3bbe
00000080: 17ef 603e 4c47 c6bc 4e0c d23b 84ed c33d
00000090: 4da9 ac3c 968b 743e cacb d03d bb09 a7bd
000000a0: 22e6 983e cf22 81bd 7909 773e 34c7 333e
000000b0: 3131 b33d cc14 b13d 0095 223e 8ce0 d13c
000000c0: 2b08 733e fb36 5cbc 1497 b7bf ff39 d2bc
000000d0: 128d acbe bd4e 183d 5ed2 ac3a db2c ca3d
000000e0: bbc7 083d 1fa9 f73d ea04 063e d92f 36bf
000000f0: 4920 cdbe 4b4f bebe ef4d 533e 7bc3 74bd
00000100: 1ba8 5d3c 4534 dbbc f54e a63e 49ca 86bd
00000110: 2bb5 76bf 69df 88be 399a c43e ba0c ec3d
00000120: 34e7 513e 2ca5 edbd 044e d3bd 8593 96bf
00000130: d6c1 01be 79d2 d53d 9b21 063d 3af4 013f
00000140: 559b 8ebf d63b a2be 6ecd 903e 9c59 cdbe
00000150: 010e 843e 73f9 d0bc 8bde 373e 4c6c 5b3c
00000160: ba87 36bd 17f4 123c b5e3 44bd 9a5e 17be
00000170: ed3a e63e bc89 8c3e 7c73 f7bd e40b 05be
00000180: 604d 323f 4ca4 cebe f077 c43e 5dc4 a3be
00000190: 47e7 8cbd 38e0 be3d 1384 983d 5c4e ccbe
000001a0: bb4f 90bd 1156 4a3c 8424 25be 0663 9bbe
000001b0: 6bc8 6cbf 7cea d3bd a841 9c3e a0d9 673e
000001c0: 10e3 e03d 369c 86bf 1f9f 88be 3907 0f3e
000001d0: 2bd3 45be 31bb 9bbd 8ae8 36bd 1f98 a5bd
000001e0: 8741 c23d f8c2 f23b d16c 103d 0629 23bf
000001f0: 56c9 93bd a3ad 1ebe 5c7d 813e f0d6 4abe
00000200: 5d39 0d3f b976 ddbd 12ca 953e 28a2 043e
00000210: 5940 fe3c 9fff c03e 118c b6bd d20f c8bf
00000220: 6306 3dbf a8fc 4fbf 290b b53d 8bdb 0c3d
00000230: c0b3 a4bd b63c 22be ce8e dc3d 0c6b 9d3c
00000240: 4a99 7b3b 21a9 c03d 3e60 3c3d f15b c63e
00000250: c753 273d 2547 2ebe cac7 703e 19f3 ddbe
00000260: 8937 b13c 93c6 c2be 6d3a 0a3f 0877 00bf
00000270: 353b 613d 3981 853e 09b8 8838 6016 a1be
00000280: 8a4e e93e c70b a43c 77a7 3f3d 5cce 333b
00000290: f06f b53d 21c5 353d 464a 1cbe a20e 843e
000002a0: 3507 a43e e09f d0bd 740e 20be d41d 3cbd
000002b0: ab3b 343e f50c 0ebe 7b44 d5bf 7c9d a2bc
000002c0: 0899 83bd 4557 4a3e b1b4 b23e 151b 78be
000002d0: bbae f0bd 0d61 033e 1d7a 783d 5300 00be
000002e0: 0c6a 0d3d da4f be3d 5e91 163f 6c72 d6be
000002f0: c1f4 afbc 765e ff3d 42a2 9ebe 1dad 15be
00000300: e253 683f 91ee 03bc 3fb8 86bd a4cf 313e
00000310: 4dd3 3c3d 178e 1bbe 4691 173e 0487 1c3e
00000320: bd88 dabe cde2 e4bd b2eb ca3d eda6 693e
00000330: 5882 a3bf 91ef 2ebe 4527 ccbd 5e3f b3bf
00000340: 954a 91be 4d96 9c3e e8b3 343e a757 743e
00000350: 6b9b 7bbe ae3a 083e a024 053e cb1a 313b
00000360: 591b 24be c3c2 c1bc b512 923d 90f5 dcbd
00000370: 9830 ecba e60d 363e 8d7d c7bd 11ab 043c
00000380: 0646 68be 22eb 003e 7f9a 5c3e 74a3 d73c
00000390: 77ec 11bd f05f 77bf 103f 01be ef00 803d
000003a0: 5907 933d aa30 623e d829 653e 1cb4 453d
000003b0: b594 323d bf4b 0c3d 8422 babf 53bf 04bd
000003c0: cfb4 c5bc ea55 3abe 5a55 bc3d 093d 513e
000003d0: bc12 b9bf b644 58be 4fb7 ebbd 4730 3a3d
000003e0: cf4c 0ebe d510 613e 704e 69be 2f52 aabc
000003f0: b951 0f3e d8be 9ebf ff11 a83c 9a5f b5bd
0.103386305 0.016614983 -0.21608773 0.2811575 -0.12747766 0.13667126 -0.35698238 0.4205435
0.08858856 -0.0012896797 0.011790643 -0.023537317 -0.091673285 0.122540504 0.009147971 -0.015341784
0.032771274 0.0012619005 -0.17218733 0.27484396 0.017610416 0.22200453 -0.18241274 0.21578114
-0.8001848 -0.52923715 -0.10200674 -1.0243561 0.6983739 -1.2705151 0.22107114 -0.1830868
0.21966206 -0.024203919 0.0064101582 0.09566787 0.021076823 0.23881373 0.1019512 -0.08156153
0.29863077 -0.06305467 0.24124707 0.17556459 0.08749617 0.08646545 0.15877151 0.025619768
0.23733585 -0.013440843 -1.434298 -0.02566242 -0.33701378 0.037184466 0.0013185253 0.09871837
0.033393603 0.12092804 0.13087812 -0.7116676 -0.40063694 -0.3716987 0.20635198 -0.059756737
0.013528849 -0.026758322 0.32482114 -0.065815516 -0.9637019 -0.26732948 0.38398913 0.11525865
0.20498353 -0.1160377 -0.10317615 -1.1763769 -0.12671599 0.10440535 0.032746892 0.50763285
-1.1141154 -0.31686276 0.2828173 -0.4010743 0.25791934 -0.025509572 0.17955987 0.013392519
-0.044563033 0.008969328 -0.04806872 -0.14782181 0.44966832 0.27448833 -0.12082574 -0.12992817
0.69649315 -0.40359724 0.38372755 -0.3198575 -0.0688005 0.0932011 0.07447066 -0.39903533
-0.070464574 0.012349621 -0.16127211 -0.30348986 -0.92493314 -0.10347459 0.30518842 0.22641611
0.10980809 -1.0516422 -0.266839 0.13967599 -0.19318835 -0.07604063 -0.04465536 -0.080856554
0.094851546 0.007408496 0.035260025 -0.6373447 -0.07216136 -0.15495925 0.25290954 -0.19808555
0.55165654 -0.1081366 0.2925573 0.12952483 0.031036543 0.37695023 -0.08913434 -1.5629828
-0.7383787 -0.812449 0.08840019 0.03438906 -0.08042097 -0.15843472 0.10769425 0.019216083
0.0038390928 0.09407259 0.04599022 0.3874202 0.04085138 -0.17019327 0.23513713 -0.4334953
0.021632927 -0.38042125 0.539954 -0.5018163 0.054988105 0.26075152 6.5192646e-05 -0.31462383
0.45567733 0.020025147 0.046790566 0.0027436232 0.08859241 0.04437745 -0.15262708 0.25792414
0.3203675 -0.10186744 -0.15630513 -0.045926884 0.17600887 -0.1387213 -1.6661524 -0.019850485
-0.06425673 0.19759853 0.34903482 -0.24229081 -0.11752077 0.1282999 0.06066333 -0.12500124
0.034524962 0.09292574 0.5881556 -0.41884172 -0.021479012 0.12469189 -0.30983168 -0.14616819
0.90752995 -0.008052484 -0.06578111 0.17364365 0.04609995 -0.15190922 0.14801511 0.1528588
-0.42682448 -0.11176071 0.099082366 0.22817583 -1.2774153 -0.17083575 -0.099684276 -1.4003713
-0.28377214 0.3058342 0.17646754 0.23861562 -0.24571006 0.13303635 0.13002253 0.0027024026
-0.16026057 -0.02365244 0.07132474 -0.10789025 -0.0018019853 0.1777874 -0.09740744 0.008097426
-0.22682962 0.12589696 0.2154331 0.026323058 -0.0356259 -0.96630764 -0.12621713 0.06250178
0.07179136 0.22088876 0.22379243 0.04826747 0.04359885 0.034251925 -1.4541783 -0.032409023
-0.024134068 -0.18196836 0.09195967 0.2043344 -1.4458842 -0.21119961 -0.11509573 0.045456197
-0.13896488 0.21979077 -0.22783828 -0.020791141 0.13996018 -1.2401991 0.020516394 -0.08856125

conv.0.bias f4 [16]
00000000: 75ab 66bd 5c3b e63d 8f01 e4bb d312 a6bc
00000010: f85f 53bd e137 d4be 676e 933e 4b7b bbbe
00000020: f52d 82be 8243 f5bd 9741 1cbf 6371 4ebd
00000030: 9ae7 313d f476 a33d 668c 07be a876 d33d
-0.056315858 0.11241791 -0.0069581936 -0.020272648 -0.051605195 -0.41448882 0.28795168 -0.36617503
-0.25425687 -0.11975767 -0.6103758 -0.050401103 0.043433763 0.07981673 -0.13237152 0.10325366

conv.2.weight f4 [32, 16, 3, 3]
00000000: 3b6c a53c 1cf1 c53d 347d f63c c16a 323e
00000010: 99fa 59bc 2e19 853d 9cbd 893e 44a6 5b3e
00000020: ab06 5ebe 62a9 703e 8a4c 093e e7dd 02be
00000030: a85a 40be 5dae 8c3d c7b0 63bd 156d c93d
00000040: 7260 8b3c 1640 95be d546 a7bd 0534 0c3e
00000050: f8ef 26bd 56f0 17bf f984 ab3e 9702 b4bf
00000060: b934 8cbd 3a2c d6bc 0ec8 263d 225a 033e
00000070: bfeb 06be 766c 61be 9c69 483e f277 dfbe
00000080: f1f2 d1bd 261b 4cbe c372 533e a7d8 943d
00000090: b64c 0e3e a483 873d 1e47 8f3e 6086 633c
000000a0: e81b 323d 02a6 41be dbf1 463e 9864 e1bd
000000b0: f02c ab3c 9415 64bd 266d b53d 88e1 06bf
000000c0: b503 b43e 26fc 86be e782 c73a 5f77 9b3d
000000d0: c7db 833d 7168 b6bd 55a5 b4be 6434 ce3c
000000e0: 2ff7 f5be 32bf 7c3d ec0b 9fbe d4db 1abe
000000f0: 54e2 51be 3a8e dc3d a4f9 c63d c1dc 853e
00000100: 7f5f e6bd e793 b53d 40f9 ecbd 1d96 0fbe
00000110: 25be 8d3d 79de 063c 53bf a6be 7536 56bf
00000120: 920d 99be 8a77 3a3d ef32 0a3f de55 d43d
00000130: 3310 f13c 2b43 613e 897f be3d 3bfa bdbd
00000140: b128 3dbe c8ec 2e3e a24f bbbe 56a0 d03e
00000150: 0e18 3ebe 80a8 a6be 7968 0ebe a45a 553d
00000160: 6816 1f3e 33e8 983e 8a36 8b3e 87db 87bd
00000170: a821 ab3d 5f90 60bd 5a78 92bd b989 06bf
00000180: 194d b73e 714d d23d 1f74 59be 256d 9abd
00000190: 465d 39be 0b67 52be a34c 4dbe bf63 6cbe
000001a0: 0fda c5bd 8e37 d83d 7902 c7bd feee 053d
000001b0: dc03 0bbc b3ff 003c 4874 71ba 254c 33bd
000001c0: dd05 19bf 9666 91bd 1400 323d 3e79 7b3c
000001d0: 239b 1abe 2d2d a1be 282b 3abf 0ed3 fdbc
000001e0: 53fd 8cbc 09d4 74be 6c61 68bd 7470 57bf
000001f0: e425 153d b305 12be aea0 623e d101 01bd
00000200: 2eff 7e3e c85a 1f3e 039a 3fbe b479 7ebe
00000210: e317 183e 2e8b 3f3d 0c66 0abc db1c 313d
00000220: 2069 efbc 28eb 7f3d c080 ad3d 75df 1a3e
00000230: 42a3 21be 4676 b53d e0f5 92be 9f5d 6a3d
00000240: e5b9 b53b f975 893e ee09 15be e7f9 eb3d
00000250: 20a2 8cbe dde6 3cbe 8ceb ac3d 3482 6d3d
00000260: b794 d93b 7dc7 51bd 8d92 3d3e 27d3 ad3c
00000270: 11a8 4ac0 533d ef3d f37a 2a3e df85 f2bd
00000280: 98db 7f3e 8228 1bbd 5c56 71be ad5f 33bd
00000290: f37f 14bc ee03 f93d f627 923b d59c 823d
000002a0: 2f07 e7bd 1633 833e 3d46 a4bd 79bb 97be
000002b0: b26e a2be af3c a23e 39df 19be 489e 593e
000002c0: 74da 6b3c ed9b 08bf 4dfa 65be c88d aa3e
000002d0: 48bf e0be cd63 a9be 31c1 60bf c973 90be
000002e0: 893f bc3d 6365 833e e88b 02be a557 2f3d
000002f0: 48f6 cfbd 7bda dfbd dda4 54be 3bf4 e63d
00000300: 7a76 5d3e e229 963e 8fc9 e4be 81b0 c0bd
00000310: d87f b4be c0f6 4dbe d69a fc3c 8542 9fbc
00000320: f659 ba3e f9d7 e3bd 0900 a4be 83bc 51bf
00000330: 657b 203e 3b97 153e c89b e03e df7d 5abd
00000340: 8ab7 e53c 09b5 68be ab1d 0abd 48df 81be
00000350: 0e30 fe3d b880 a33e 9b65 8fbe 9343 eabd
00000360: 70bf e5bd a126 863d b398 0fbe 4e8a bf3e
00000370: 8efa 073e f260 bbbe 0a26 893e 2fdb 863e
00000380: ac6f 4b3e e429 8a3e a810 d3bd bc5f ea3b
00000390: d4c1 ec3c 8069 483e eed5 3bbe a22a 603d
000003a0: 4cd4 613d 4e63 f6bc ed25 343e ff8e 983e
000003b0: 73d4 f4be 7418 39be cca8 fbbd 240a 443e
000003c0: b431 70bc 18c4 90be a964 af3e fd29 1dbe
000003d0: 6dd8 b13e 6537 febd a0cc 803e 5d03 123d
000003e0: b81a b4bd 2a9b a13d fa2d b83d 7b75 86be
000003f0: 91a3 f43e d9b2 15be cb8e 8a3e f337 2e3e
0.02019321 0.096651286 0.030088998 0.17423536 -0.013304376 0.06498943 0.26902473 0.21450144
-0.21682231 0.23502114 0.13408104 -0.12779962 -0.18784583 0.06869195 -0.05558851 0.09835259
0.017013762 -0.29150456 -0.08167807 0.13691719 -0.040756196 -0.593511 0.33499888 -1.406329
-0.068459935 -0.026144136 0.04071813 0.12827352 -0.13175867 -0.22014031 0.19571537 -0.436462
-0.102514155 -0.19932231 0.20649247 0.07267886 0.1389645 0.06616905 0.27983946 0.013887018
0.043483645 -0.18910983 0.19428198 -0.11005515 0.020895451 -0.05568464 0.08858709 -0.52687883
0.35159078 -0.2636425 0.0015221507 0.075911276 0.064384036 -0.08906639 -0.35282388 0.025171466
-0.4804015 0.061705776 -0.31063783 -0.1512292 -0.20496494 0.10769315 0.09715584 0.26144984
-0.11248683 0.08866101 -0.11570978 -0.14022107 0.06921033 0.008231753 -0.32567844 -0.83676845
-0.29893166 0.045524158 0.5398397 0.1036794 0.02942667 0.21998279 0.09301669 -0.09276243
-0.18472554 0.17082512 -0.36584193 0.40747327 -0.18563864 -0.3255043 -0.1390704 0.052088395
0.15535891 0.29864654 0.27190048 -0.066336684 0.08356029 -0.054825183 -0.071518615 -0.525539
0.35801008 0.10268677 -0.21235703 -0.07540349 -0.18101987 -0.2054712 -0.20048766 -0.23084925
-0.09660732 0.10557471 -0.097172685 0.032698624 -0.008484807 0.007873463 -0.00092107477 -0.04377379
-0.5977457 -0.07099645 0.043457106 0.015348731 -0.15098242 -0.3147978 -0.727221 -0.030984428
-0.017210638 -0.2390901 -0.056733534 -0.84155965 0.03641309 -0.14259987 0.22131607 -0.031495873
0.24902031 0.15561974 -0.18711095 -0.24851114 0.14852862 0.04676359 -0.008447181 0.04324041
-0.029224932 0.06248012 0.08471823 0.15124305 -0.15784934 0.088604495 -0.28703213 0.05721819
0.005545842 0.26847818 -0.14554569 0.115222745 -0.27467442 -0.18447442 0.084433645 0.0579855
0.0066400426 -0.051215637 0.18512936 0.02121885 -3.166508 0.116816185 0.16648464 -0.1184194
0.24986112 -0.037880428 -0.235681 -0.043792415 -0.009063709 0.12158953 0.00446033 0.063775696
-0.11280667 0.25624913 -0.080212094 -0.29635218 -0.3172508 0.31686923 -0.15026559 0.21251786
0.014395345 -0.53362924 -0.22458763 0.33311296 -0.43895936 -0.33083954 -0.87794787 -0.28213337
0.09191806 0.2566329 -0.12748682 0.042808194 -0.10154396 -0.10930344 -0.20766015 0.11277052
0.21627226 0.2932883 -0.44685027 -0.094086654 -0.35253787 -0.20113659 0.03083555 -0.019440899
0.3639676 -0.11125178 -0.32031277 -0.8192827 0.15672071 0.14608471 0.43868852 -0.053342696
0.02804162 -0.2272531 -0.0337197 -0.25365663 0.124115095 0.31934142 -0.28007206 -0.1143867
-0.112181544 0.06550337 -0.14023094 0.37410206 0.13279173 -0.365974 0.26786834 0.263391
0.19866818 0.26985085 -0.10305911 0.0071525257 0.028901018 0.19571495 -0.18343326 0.054728158
0.055134103 -0.030076649 0.17592593 0.29796597 -0.47818336 -0.18075734 -0.12288055 0.19144493
-0.014660288 -0.28274608 0.34256485 -0.15348049 0.34735432 -0.124129094 0.25156116 0.03564774
-0.08794159 0.07890923 0.08993144 -0.26261505 0.4778104 -0.14619006 0.27062067 0.1701353

conv.2.bias f4 [32]
00000000: e639 993e d065 1c3c b0ce c5be 9b41 c2be
00000010: bf6c 423e 6001 2dbe df9b cd3d 11a6 81be
00000020: c784 fdbd 242f 3ebc a094 bf3d 3d13 c03c
00000030: e1c8 2fbe b336 54bd 52ed 243c 0651 8abe
00000040: 9ec4 0a3e cb43 f83b 1521 2b3d 8e2e d4be
00000050: 0811 b2bd 593a 943e 252f 19bf c9c7 3b3e
00000060: f838 893c ba93 2a3e b8c8 68be 980a a33d
00000070: a17f c23c 86d8 01bd dfc1 42bd 3512 8abd
0.29926986 0.009545758 -0.38634253 -0.37940678 0.18986796 -0.16895056 0.10039496 -0.2532201
-0.12378841 -0.011607919 0.0935452 0.023446674 -0.17166473 -0.051809978 0.010066347 -0.2701494
0.13551566 0.007576441 0.041779596 -0.41441768 -0.08694655 0.28950766 -0.5983756 0.1833793
0.016750798 0.16657916 -0.22732818 0.07961005 0.023742499 -0.031700633 -0.04754817 -0.06741754

conv.4.weight f4 [64, 32, 5, 5]
00000000: 7b3a dc3d f4e3 29be 13f3 a6bd 8edd 573e
00000010: dcc1 743d a2c5 80be 8529 883d 4668 c3bb
00000020: b77a b63d 7ba5 7c3d 0a20 be3d c058 7abc
00000030: f9bc 133e b7ea 3dbe 2737 e2bb 088d c1be
00000040: c13c e03d e2fd 16be 46d3 3e3f af46 05bf
00000050: a929 383c d902 8fbe a4f0 67be 3c0d ec3b
00000060: da4f 3cbe 62ff 2abd c09c d0be 58e3 8c3d
00000070: 3381 943e 38d1 acbe 1538 42be e19c 8a3d
00000080: 59a3 b5be df13 f43d 35ce 413c 4676 af3e
00000090: 41a3 acbe 9afe 093e 088b ff3e 53c7 15bf
000000a0: 24b2 463e abe4 8a3e 093a 99bd 4ac8 813e
000000b0: 7ea6 903e 3a6b 39be 99cd 063e bee6 133e
000000c0: f75e d9bd 0140 2c3e 6336 52be a5ec 0d3e
000000d0: 7f92 c4be 7810 b8be 3fe4 8c3e 3a5d 9e3e
000000e0: 2b64 56bd bb06 b4be 90ae 883e 9cdf c7bf
000000f0: 6ae6 3abf 6385 a03e 29a6 2cbf 388a bfbe
00000100: 4a95 063e af20 783e 35e9 44be 71b0 333f
00000110: 0f50 db3d 8a61 03be 9cf5 253c ecf7 153e
00000120: cea5 073e 46d1 a0bd 933c 7fbc cf77 133d
00000130: 58a3 98bd e61a 20be f86a 423a f516 1abe
00000140: a44d e23d b498 633e 78a9 75bd ad37 083f
00000150: 3889 15bd 7598 44be 3fc9 92bd 71e0 17bf
00000160: c800 04bd 63f2 623f 665d d83b f3f8 483e
00000170: 7175 5ebe 1418 0bbf bad8 8cbd 6dce da3e
00000180: b93f 263e 3ed4 09be 303a 273f 305b a2be
00000190: 6349 143e 8483 4f3b 3068 43be 280f 56be
000001a0: 9a22 0ebe 36cf 0d3e b574 ad3d fd2a 6b3e
000001b0: 21ac 993d 002d 013e ecb2 e8bd d29e c33d
000001c0: acfd e33e fba5 953e 4786 513d 9b02 9abe
000001d0: 03a8 f03c 3b49 c63d d79e 963e 1cd4 023e
000001e0: dd36 3e3e 47b7 58be 465e cf3e dcd7 063e
000001f0: 4add f43e b4d6 833f 2876 983d 2a1b 213d
00000200: 607a c83d 9ba4 0dbe 018d b23d 8fd9 d4bd
00000210: 9630 a33e 49c6 a33d 6b85 10be f2ee 6dbd
00000220: ffcf cb3d 3c1e ebbd dfae 153f 026d d5bc
00000230: 252c 6cbf c71b 05bd a66b 6abc 5430 90be
00000240: f2d0 87be 4fb5 04bf a7ec 1bbe 91ba b73e
00000250: 609b f73d a6b8 05bf 13c4 d6be a543 903e
00000260: 69c4 03bf 7f9b b13d 36eb dabe 2cec bcbe
00000270: 6877 eabe f3d9 50be 5dac efbd b394 47bd
00000280: b6e2 65bd b731 703e 77ee b4be c074 473e
00000290: 49cf 923f e908 ba3e 1025 81ba 2d5d 843b
000002a0: 062c 49bf c297 123f 762d 313e f291 c5be
000002b0: 67c8 103d 9d6b 49be 957c 193e cb90 1bbe
000002c0: e13e c53e 4c40 9e3e 17a3 553e dfb4 363e
000002d0: 7d3f 24bf ebe5 873e b570 6dbe ab80 f3bd
000002e0: 7f28 0a3f cb56 b9be 717f a53e 842d eabd
000002f0: 756f 4ebe 80e1 a3bd d32c c3be fe6d 5dbd
00000300: e59a 353e ee4d 093a 5b85 723e c734 f5bd
00000310: 6b75 993d e6c7 4fbe 8c15 5bbe 4d9d 443d
00000320: 61f3 b5bd c93a 1b3e 5b06 a1be 67da 03bf
00000330: fd32 f4bd 5d8d 013f 8256 603e 6072 183b
00000340: 2dd8 6f3d f586 f7bd 5245 58be c6a7 84be
00000350: 3bfc bcbd 3e48 1e3d b8f7 e33d 8874 23be
00000360: f93b 3a3e 8161 f33d 12ae 243e abaf eabd
00000370: c4cd 34be df3b c13d 96f3 68be ee3f db3d
00000380: a0cb babd f622 b1bc 2136 66bd c00c 703d
00000390: a34b 6bbd 21a7 0b3e 5dc7 1f3e 9298 bfbd
000003a0: 1b33 b5be 3a29 1f3f 5cba dfbd 7126 6abe
000003b0: 31a8 a0be 277a 6b3e 0e5d c5bd 7389 2c3e
000003c0: 55aa 693e d490 863e 074b 19be f7e3 4f3e
000003d0: 99ef 82bd 369f 873e 7893 8b3e 39b4 08be
000003e0: 12b5 7c3c d39c 5d3d c87c a93d 9468 ae3d
000003f0: 5227 33bf a4f4 a9bd aae9 153e d6fb 0f3e
0.10753342 -0.16590863 -0.081518315 0.2108061 0.05975519 -0.25150782 0.06648544 -0.005963358
0.08910125 0.061681252 0.09283455 -0.015279949 0.14427556 -0.18546568 -0.0069035473 -0.3780291
0.10949088 -0.14745286 0.7454113 -0.5206098 0.011240401 -0.2793186 -0.22650391 0.007203726
-0.18389836 -0.04174746 -0.4074459 0.068793 0.2900482 -0.3375337 -0.18966706 0.067682035
-0.35476187 0.119178526 0.011828949 0.34269923 -0.33718303 0.13476029 0.4991076 -0.5850727
0.19403893 0.27127585 -0.074817725 0.2534812 0.28252023 -0.1810731 0.13164367 0.1444349
-0.10613816 0.1682129 -0.2052856 0.13859804 -0.38393018 -0.35950065 0.27517888 0.309305
-0.05234162 -0.35161385 0.2669568 -1.5615115 -0.73007834 0.31351766 -0.6744104 -0.3741014
0.13142887 0.24231218 -0.19229586 0.70191103 0.10708629 -0.12830177 0.010129359 0.14645356
0.13246843 -0.07852416 -0.015578407 0.03600293 -0.0745303 -0.15635261 0.0007416452 -0.1504782
0.11049965 0.2222622 -0.05997607 0.53209955 -0.036507815 -0.19198783 -0.07167291 -0.59326845
-0.032227308 0.886511 0.006602931 0.19626217 -0.21724488 -0.54333615 -0.06877275 0.42735615
0.16235246 -0.1345987 0.6532316 -0.31710196 0.1448112 0.0031664083 -0.19082713 -0.20904219
-0.13880387 0.13848576 0.08469526 0.22965617 0.07503534 0.12614822 -0.11362252 0.09551777
0.44529474 0.29228196 0.051153447 -0.30080113 0.02937699 0.09681936 0.2941806 0.12776226
0.18575616 -0.21163665 0.40501612 0.13168281 0.4782508 1.0299897 0.074444115 0.039332546
0.09788966 -0.13832323 0.087183006 -0.103930585 0.31873006 0.07996804 -0.14113395 -0.058089204
0.099517815 -0.11480376 0.5846996 -0.026052956 -0.9225486 -0.032497194 -0.014307892 -0.2816187
-0.265266 -0.51839155 -0.15226994 0.35884526 0.12090182 -0.52234876 -0.41946468 0.2817661
-0.51471573 0.08672237 -0.42757577 -0.36898935 -0.45794225 -0.20395641 -0.117027976 -0.048725795
-0.05612441 0.23456465 -0.35338184 0.1947813 1.1469508 0.36334923 -0.0009852964 0.0040394277
-0.785828 0.57262814 0.17302498 -0.3858791 0.03534737 -0.19669957 0.1498893 -0.15191953
0.38524535 0.3090843 0.20862995 0.17842434 -0.64159375 0.265426 -0.23187526 -0.11889776
0.5396804 -0.3619903 0.32323793 -0.11434463 -0.20159705 -0.08001995 -0.38120136 -0.054059975
0.17734869 0.00052377477 0.23683684 -0.11972957 0.07493099 -0.20291099 -0.21394938 0.048001576
-0.088843115 0.15159144 -0.3145016 -0.5150513 -0.11923788 0.5060633 0.21908 0.0023261532
0.05855577 -0.12086288 -0.21120194 -0.2590925 -0.09227797 0.038643114 0.11131233 -0.15962422
0.1818694 0.11883832 0.16082028 -0.11459287 -0.17656618 0.09435248 -0.2274917 0.10705553
-0.0912087 -0.021623116 -0.056203965 0.05860591 -0.05744518 0.13637973 0.15603395 -0.09355272
-0.35390553 0.6217228 -0.10924217 -0.22866227 -0.3137832 0.22995816 -0.096368894 0.16849308
0.22818883 0.2628237 -0.14970027 0.20301805 -0.06393356 0.26488656 0.27260947 -0.1335
0.01542403 0.054104637 0.08275753 0.085160404 -0.69981873 -0.082986146 0.14639917 0.14060912

conv.4.bias f4 [64]
00000000: a27c cbbe f210 a2be 5f96 ffbd f2af 34bb
00000010: ae9c 00bf a841 8fbe 8c1d 35bd dbb8 33be
00000020: 627b 963e ddc3 62be 6a48 513e 544e 47bd
00000030: 8e74 15be 6aa7 2cbd 75dc b3be 5f91 51be
00000040: 2c0c e2bc d2bb 95be 7c99 5b3d 3e1f 8cbe
00000050: c56a b4bc b790 e1be e880 41bd 9f03 85be
00000060: 5eaa cfbe 0786 103f b8f4 7cbd 9365 04bd
00000070: 5cb9 eabc 0fa7 43be 000d 70bd 6f0f b3bd
00000080: d1a0 91be 9e5e cabd 87a8 0ebe 63dc 1d3e
00000090: 707d 3a3e c78a c1bd 9cac adbe 38b2 78bd
000000a0: 1aff c73d 7fb1 3cbe 1b35 f2bd 072f 8fbe
000000b0: e07c 21be 3651 27bd b47f 55be 1605 f43e
000000c0: ebcd 3dbd abf0 a9bc 44ef 0cbe 1ae0 223c
000000d0: 3332 e63e 14bf d53e 1bbb 14be b867 a1bc
000000e0: 3223 c73d 09dc 9fbe c941 8abe a544 d6be
000000f0: d2d7 253f c900 3c39 1cc8 c3be 0e4c 023d
-0.39743525 -0.31653553 -0.12479853 -0.0027570692 -0.50239074 -0.2797978 -0.04421763 -0.17550986
0.2939101 -0.22145028 0.2043778 -0.048658684 -0.14595243 -0.042151846 -0.35129133 -0.20465611
-0.027593695 -0.29244858 0.05361317 -0.27367586 -0.022023568 -0.4405572 -0.047242075 -0.25979325
-0.40559667 0.5645451 -0.06175682 -0.03232343 -0.02865284 -0.19106697 -0.058606148 -0.08743178
-0.28443006 -0.09881328 -0.13931476 0.15416102 0.18211913 -0.09450298 -0.33920753 -0.060716838
0.09765454 -0.18427084 -0.11826535 -0.27965567 -0.15770292 -0.040848933 -0.20849496 0.4766013
-0.046338957 -0.020744642 -0.13763148 0.009941125 0.44960174 0.41747344 -0.145245 -0.019702777
0.0972351 -0.3122256 -0.27003315 -0.41849247 0.6478244 0.0001792937 -0.3823861 0.031810813

conv.7.weight f4 [64, 256]
00000000: df45 24bd a4b9 8d3d ea65 583c 62f2 af3c
00000010: 3acd 923e 14bc 83bd ac99 3b3e 2843 bdbd
00000020: 07c6 babd 7dc5 ad3c 8a11 10be 7ddc 7e3d
00000030: beae 7bbd a0eb ff3c 10c8 f93b 2874 233d
00000040: 3f59 78bd d135 b93d 7bff f23d cb2b ed3c
00000050: d9a3 713e 0985 7c3d b337 923d 05ec 113d
00000060: 104e b63c 1060 153d 1403 45bd 8881 7a3c
00000070: e03a 293d c711 893d 7f65 ff3d 1150 393e
00000080: 4e58 243d 033e 7dbe ef1c bd3b a272 13be
00000090: d9e9 8bbe 6e0e eb3d 7bde 57bd 6347 31be
000000a0: d7ad b2b9 0af3 553e c7b9 4abe 61c4 95bc
000000b0: 5492 bf3c 589d 863c 9ed1 003d 106f edbc
000000c0: 452f ddbc 7004 923e 369e 94bd 17dc e73d
000000d0: 3c29 5abd 5ed0 393d f82d 193c 18ca 11bd
000000e0: b340 6bbe 308c 833e 8b14 21be 93e1 dd3d
000000f0: 258b 4b3e d461 433e ce08 adbe a920 cd3d
00000100: e063 55bd 9c5e b5bc 4083 a9ba d6e8 1f3d
00000110: 73e4 4abd 4bb0 29be 8bb4 67be 6030 ac3d
00000120: 2158 0bbc 05de 8cbd 495a 02be 8512 163e
00000130: 330f a5bd aee1 efbd c2ad 8fbd ef50 77be
00000140: 99b7 3b3e 9acf 38bd 3eab 1f3c 2e29 a8bd
00000150: d5c9 8d3e 170c b9bd 0a5a 333e 18ef 913c
00000160: 3244 5cbd 28f9 8c3c 80f7 2b3b 5859 5ebd
00000170: b862 373e 930f 843e 921c 503d 2d94 0ebd
00000180: 2f1f ea3d fe1f b23c 18ae 1d3e 8ee3 f13d
00000190: 7afe b5bd 430c 4abe 6b13 dfbd efc4 c5bd
000001a0: b870 b43c 4ef9 763d f8cf c83c 28b5 33bc
000001b0: 72da fb3d 7c97 183e 99d3 09be 39c9 993d
000001c0: 5af9 343d 50ac 563c 80a9 813a 4488 a33c
000001d0: 8e92 e23d b5af 60be d2e4 2ebe aedd d23d
000001e0: 0fda 32be cd05 553d 89ab d8bc 7346 8bbd
000001f0: f104 693d 2fd4 20be 0629 a93d 4599 99be
00000200: e194 8b3e 552d 093e 4c45 9b3d 0244 b83e
00000210: fc36 003d d502 823d f9be 1f3d 205a a13d
00000220: 79a2 3d3e a547 3dbd 754c 8a3e d397 373e
00000230: b254 763d 94e4 4bbe 56d0 02bf 86c7 943b
00000240: 1fbb 973d 7d3b 2cbd b8d2 0abf 5647 053e
00000250: 0f16 973d f057 023e c025 0d3e ba7f 2bbc
00000260: be30 8dbe ff16 9a3e 1e27 e63d 7be8 193d
00000270: dea6 2cbd b63d 17bd 6418 cf3c 80bf 223b
00000280: 638b fc3d ea4b c7bd ad35 58be e52a 303d
00000290: 0e48 8fbd 025f 413d fb69 983d b931 8cbd
000002a0: b366 dabd 1700 ef3d d02f 873c 14b6 f43d
000002b0: 098e 293e 9d7b 2b3e 3588 87bd cc02 b83d
000002c0: e700 90bd 3adb 62be 735f 01ba f38f c2bd
000002d0: 42b3 5a3d d2d2 793d 24ae be3c 203d 05bd
000002e0: 0e22 76be ecb1 2a3e 8acb 2f3e d4d6 303e
000002f0: 3c29 50bd 9624 c0bd d15c ef3c 9e60 923b
00000300: 30f9 0c3d 9231 153d 806d 20bd 10e3 d2bb
00000310: 1468 183d f486 bfbc 3c06 40bd c053 1f3c
00000320: e1e3 1c3e 79c9 673d c37b 983d 7029 5abd
00000330: 6e35 7ebd 04cf fdbc ca11 063d 1440 6d3d
00000340: e724 0e3e 5377 10be e5cf 3e3e 2adb e43c
00000350: b51a 0c3e 69c8 e1bd 94ce 85be 2a46 d13d
00000360: d4c2 38bd 1086 99bc cb24 85bd 53b0 46be
00000370: 674a 85bd 0281 80bd 8856 8abe 2f4c 86bd
00000380: 79e1 febd 8925 303e edc2 4bbe 491f 833c
00000390: bed6 5fbe 7578 65be d454 b23e 8925 dc3e
000003a0: 4ed9 abbc 9b50 eb3c 9482 333e 6f60 43be
000003b0: 7866 82bd ce79 823e 2b46 d8bd c43a 1abd
000003c0: 1a65 85bd 9c35 993e 99db 04ba 106a 7b3d
000003d0: 3954 803e e803 f83c 0160 74be e5b2 11be
000003e0: 8473 dabd b053 bcbd 05c2 2ebd 9649 4abd
000003f0: 0c03 d0be 0023 02be 6a13 4dba 8879 92be
-0.040105697 0.06920174 0.013207892 0.021477882 0.286722 -0.064323574 0.1832034 -0.09241325
-0.09119802 0.021212334 -0.1406919 0.062221993 -0.061445944 0.031240284 0.0076227263 0.039905697
-0.060631987 0.09043468 0.11865135 0.028951546 0.23597659 0.06165031 0.0713953 0.035625476
0.02225402 0.036468565 -0.04809864 0.015289672 0.041315913 0.06692844 0.12470531 0.18096949
0.040123276 -0.24730687 0.0057712714 -0.14399198 -0.2732685 0.114773616 -0.05270241 -0.17312388
-0.00034080326 0.20893493 -0.19797431 -0.018282117 0.023385204 0.01643245 0.031449907 -0.028983623
-0.027000079 0.2851901 -0.07256739 0.11321276 -0.05326198 0.04536473 0.009349339 -0.035593122
-0.229739 0.25692892 -0.15730493 0.108340405 0.19877298 0.19080287 -0.3379578 0.10015995
-0.0520972 -0.02213984 -0.0012932792 0.03904041 -0.049534272 -0.16571157 -0.22627465 0.08407664
-0.008504898 -0.06878284 -0.12729754 0.14655502 -0.0805954 -0.11712967 -0.070155635 -0.24151967
0.18331756 -0.04511986 0.009745417 -0.082109794 0.27693048 -0.09035509 0.17514816 0.017814204
-0.053775974 0.01720865 0.002624005 -0.054284424 0.17908752 0.25793132 0.050808497 -0.03480928
0.11431729 0.02174377 0.15398443 0.11810981 -0.08886428 -0.1973124 -0.108923756 -0.09656703
0.022026405 0.06029635 0.02451323 -0.010968484 0.122975245 0.14901537 -0.13459624 0.07509083
0.044183113 0.013102606 0.0009892434 0.019962437 0.11063109 -0.21942027 -0.17079476 0.10296188
-0.17465995 0.052007485 -0.026448982 -0.068005465 0.056889478 -0.15705942 0.08259778 -0.29999748
0.27262023 0.13396199 0.07581577 0.35989386 0.031302437 0.063481964 0.039000485 0.07878518
0.1851901 -0.046210904 0.27011457 0.1792901 0.060139365 -0.19911414 -0.51099145 0.0045403866
0.074087374 -0.04204892 -0.5422778 0.13015494 0.07377254 0.12728858 0.13783932 -0.010467464
-0.2757625 0.3009567 0.1123793 0.037575226 -0.042151324 -0.036924087 0.025280185 0.0024833381
0.123312734 -0.09731276 -0.21114226 0.043009657 -0.06996165 0.047209747 0.07442089 -0.06845421
-0.106641196 0.11669939 0.016502291 0.11948791 0.16558088 0.16746373 -0.06617776 0.089849085
-0.07031422 -0.22153941 -0.00049351825 -0.095001124 0.05339361 0.06099207 0.023276396 -0.032528996
-0.24036428 0.16669434 0.17167488 0.1726945 -0.050820574 -0.09381978 0.029219063 0.004467084
0.03441733 0.036424227 -0.039166927 -0.0064357594 0.03720863 -0.02337978 -0.046880946 0.009724557
0.15321304 0.056588624 0.07445481 -0.053262174 -0.062062673 -0.030982502 0.03273181 0.057922438
0.13881265 -0.14108019 0.18633993 0.027936537 0.13682063 -0.11024553 -0.2613417 0.10218461
-0.045107678 -0.018740684 -0.06501158 -0.194032 -0.06508332 -0.06274606 -0.27019143 -0.065574996
-0.12445349 0.17201819 -0.19898577 0.016006129 -0.21859261 -0.22409232 0.34830344 0.42997387
-0.020977642 0.02872496 0.1753028 -0.19079755 -0.063672006 0.25483555 -0.105602585 -0.0376537
-0.06513424 0.29923713 -0.0005068123 0.061380446 0.25064257 0.0302753 -0.23864748 -0.14228399
-0.10666564 -0.091956496 -0.0426655 -0.049386583 -0.40627325 -0.12708664 -0.00078230223 -0.28608346

conv.7.bias f4 [64]
00000000: a570 0cbe 1dff 2b3f a4b5 fa3e 4976 e43e
00000010: 12a5 643f 387b 453f 68d7 86be 9985 013f
00000020: bc1e 9b3c 5853 b53e 1c06 c2be 8dbe 963e
00000030: 84fc 3d3f 4d46 373f c27f 5a3f f7ef 36bf
00000040: f7d8 f13e 10a7 063f e3e7 943f 9d21 d13e
00000050: ae23 963e 37be 283e 5dec 1f3f 3d97 143f
00000060: 8394 623e 07d4 5d3d 0242 bbbe 3b5f 993e
00000070: 9e5d af3e 33de e83d 66c3 f23e 3722 9e3d
00000080: 1842 9bbe e183 fc3e bdc5 f63c cb74 1cbd
00000090: 72c1 db3d 1e6b aebe da8f 36be bfc2 db3d
000000a0: ae95 4d3e af56 f03d a433 a13d 1219 4c3e
000000b0: a3b0 fb3e 9b1a f93d 468a 653f 69b7 7a3e
000000c0: 0853 823e 3e02 b13e b095 9ebe 383c 293e
000000d0: d057 8e3e 9b02 e6bd 8707 0c3f f2ea 88be
000000e0: 3ba1 3a3e fc10 6abe 0841 643f bdb7 8f3d
000000f0: 3897 413f 7cf8 4ebe 4e7c 033f 1713 573e
-0.13714845 0.67186147 0.48966706 0.44621494 0.8931438 0.7714114 -0.26336217 0.5059448
0.018935554 0.3541515 -0.37895286 0.29442254 0.74213433 0.71591645 0.8535119 -0.7145991
0.47235844 0.5259867 1.1633266 0.40845957 0.29324096 0.16478811 0.62470037 0.5804327
0.22126965 0.054157283 -0.36573797 0.29955468 0.34251112 0.11370506 0.47414702 0.0772137
-0.30323863 0.49319366 0.030123586 -0.03819732 0.10730256 -0.340661 -0.17828313 0.10730504
0.2007663 0.117352836 0.07871178 0.19931439 0.491582 0.12163278 0.89664114 0.24484028
0.25453973 0.34572023 -0.30973577 0.16526878 0.2780137 -0.11230966 0.54698986 -0.2674175
0.18225567 -0.22858042 0.8916173 0.07017467 0.75621367 -0.20211977 0.5136155 0.21003376

out.weight f4 [4, 64]
00000000: da25 153e c3e9 6c3e 0b0d af3c 6470 453d
00000010: 1aa1 683e e247 b13c 958d dd3c 232c 2e3d
00000020: 361d 903b d57f d43c b657 b33d d12b b03d
00000030: a79b 543d 4ce0 e4bc 53e8 2dbb 6cea 9b3b
00000040: 3991 3cbf c6b7 1d3d 7bdd fa3e 583c 153c
00000050: 38c1 96bc d50c c53c 87a7 f63d 4e2b 523c
00000060: 4285 6bbd 1477 67ba c846 723e 9ac1 093e
00000070: 2057 263d 3b69 16bd a7e1 5a3d 3204 debd
00000080: 9d09 35bc 74a5 2a3c 3355 dd3d 133d 9dbd
00000090: 1564 ba3d 32c8 84be ea85 35bd 7653 d0bd
000000a0: 9b3b a53d 6259 483d 07e6 d23d 240d 68bd
000000b0: d642 c6bf ce90 debf 95ec 6dbd 6a86 dbbf
000000c0: e15d 50bf cc8d 9bba 9e51 f83d 3d14 973c
000000d0: f343 93bd 70d6 c73c 58dd 27be 5580 9b40
000000e0: 4c85 9d3d 4613 543d 24a1 993d e2a6 5abe
000000f0: 12f2 ed3b 67d6 f03c 7e23 553e 6d98 50bd
00000100: f7be efbc 8f03 9b3d b3c7 3a3d 5cbb d7bb
00000110: 946a 8e3e e4f0 a73d 49a2 1c3e 3f2f 1fbe
00000120: 30c1 0bbf 840a 1a3e 04cc 943d 11ec b33d
00000130: 16d0 a43d 608c ca3d e583 463d 7b95 253d
00000140: b7dd c43c e0b1 033d 9124 013f d84f b0bf
00000150: ac76 54be 64c7 2f3e 65e3 a53d 9eab 3f3c
00000160: 6d47 57bf 9526 48bc 9c45 493c 3ea7 e23d
00000170: 2be9 9ebf 702c 26be e893 1fbb c470 a63d
00000180: 3620 29bd 7600 f73d 0728 9bbd 0931 f23b
00000190: 6dc4 063d a35c ad3b e5df bfbd 1198 79ba
000001a0: 4f5c aebc a5e0 a0bd cbb7 c6bd fa30 9ebd
000001b0: 9984 e83d 2485 5cbd 2cc8 05be a86e 903c
000001c0: e3fe a5bd e49d 0e3e 8f2d 1cbd 5c33 f83d
000001d0: 6b0f d33c 8a40 473b 63ac 223d 0865 f9bc
000001e0: 579c 60bc 8f1f b7bd 65bc 553d ccb9 003e
000001f0: 489f 223d 18b6 68bd 84dd 71bd 4f4c 71bd
00000200: 4291 213d fb53 143d a227 a4bf 3aba 0fbd
00000210: c49d 0b3d da22 d63c e28a 34be 5927 27bd
00000220: 2789 a13d c6ab 233d a8ad 6dbd 573f 0c3e
00000230: fe42 8c3d 3a53 783d b776 133d fa57 08be
00000240: 6086 a33c fc67 1d3e 84c2 093f 00ae 863d
00000250: 769d 2cbb ada2 08bc 5778 073e a68a 24bc
00000260: a67e 99bc ccba a4bf 8b4f 05bd ef94 66bd
00000270: fc61 c1bd e05a 073e 0096 243e 152f 2a3d
00000280: 1eef 87bc b589 2b3d 410f cf3d e93b 4640
00000290: 5c58 a83c adbe 163c ee52 d7bc caf6 31bd
000002a0: 5ab6 f1bd cbfe 08c0 0c8e bfbd 1460 cd3c
000002b0: 6eaa e93b 7f16 9f3d 4acb 3dbe 22de c3bd
000002c0: ad5b b1bb a89e 10c0 3ddc 8c3e 6a8e 13be
000002d0: de42 e53c c547 c7bc a343 0b3e a8f0 5ebc
000002e0: 09b9 8e3d 69c4 7540 175c 5c3e 8776 15bd
000002f0: 2308 093e f095 83bd b6c7 af3c 1725 b4bf
00000300: 4133 e83d 2881 c53c c753 e83c d10c 923d
00000310: 35a4 133e c0b0 7d3b 771f 66bf d365 ca3d
00000320: bf1a 96bd b1b4 933b e823 743d 6466 603d
00000330: b695 3d3d be59 6c3d 764b 193e b8ca 693c
00000340: b738 0f3c 5641 7c3d 925c 023f 1dfb d83d
00000350: fb52 a03d 14ba 1abf 9a08 f33d f683 ec3d
00000360: 7f14 e73c d722 7cbd 7e70 a53c 12f5 873d
00000370: 6d38 9cbd 1941 48bf e08e c3bf 78d9 d7bd
00000380: b43c 8540 765d 00be c1a1 11be 5506 babc
00000390: cfac 5a3e b501 573d ab2b 723d d8e2 a6bf
000003a0: 4f4c a7bf 56bd 04bd 2a97 83be 9c26 99bf
000003b0: 4b0a 053e 01aa a9bd f611 8dbe e84e 57bd
000003c0: 9423 753d cc0c 523c 5419 f2bc 70d3 ae3d
000003d0: aeb7 d13d 300f 1fbb 90e0 ccb8 fbe3 78bd
000003e0: 9f4b f33d fb94 90bc 00ad ec3d fed8 d3bb
000003f0: 1001 163d 791d 5d3e 3b2c e7bb 6135 a43d
0.1456522 0.23136048 0.021368524 0.048202887 0.22717705 0.021640722 0.02704505 0.04252256
0.0043980135 0.025939861 0.08756964 0.08602107 0.051906254 -0.027938984 -0.002653618 0.00475817
-0.7365909 0.038505338 0.489971 0.009108625 -0.01840268 0.02405397 0.12043672 0.012827707
-0.05750013 -0.00088296947 0.23659813 0.1345276 0.040610433 -0.03672145 0.053437855 -0.10840644
-0.011049655 0.010415424 0.10807266 -0.076776646 0.091011204 -0.25933987 -0.044317164 -0.10172169
0.080680095 0.048913367 0.102977805 -0.056653157 -1.5489147 -1.7387941 -0.05808695 -1.7150395
-0.8139325 -0.001186782 0.12124942 0.018442268 -0.07190695 0.024394244 -0.1639303 4.8594155
0.0769144 0.051776193 0.07501438 -0.21352723 0.007261523 0.02939911 0.2081432 -0.050926615
-0.029265864 0.07569038 0.045600604 -0.0065836143 0.27815688 0.08200243 0.15296282 -0.15545367
-0.54591656 0.15043074 0.072654754 0.087852605 0.08047502 0.09890056 0.04846563 0.04042576
0.024031503 0.032152057 0.5044642 -1.3774366 -0.20748395 0.17165905 0.08100013 0.011698632
-0.8409336 -0.01221623 0.012284663 0.11067055 -1.2414907 -0.16227889 -0.0024349634 0.08126977
-0.041290484 0.12060635 -0.07575994 0.0073910994 0.03290217 0.005290584 -0.09368876 -0.0009521256
-0.02128425 -0.078553475 -0.097030245 -0.07724185 0.11353416 -0.05383791 -0.13064641 0.01763089
-0.081052564 0.13927418 -0.038129386 0.12119171 0.025764188 0.0030403459 0.039715182 -0.030443683
-0.013709149 -0.08941566 0.05218162 0.12570876 0.039702684 -0.056814283 -0.059049144 -0.058910664
0.03944517 0.036212903 -1.2824595 -0.03508971 0.034086004 0.026139665 -0.17631105 -0.04080901
0.07887488 0.039958738 -0.05802694 0.13696037 0.06848715 0.060626246 0.036001887 -0.1331481
0.019961536 0.15371698 0.5381243 0.065761566 -0.0026338971 -0.008339566 0.132295 -0.010042822
-0.018737148 -1.2869506 -0.03254656 -0.056294378 -0.09442517 0.1321826 0.16072845 0.041548807
-0.016593512 0.041879375 0.10110331 3.0974066 0.020549946 0.009200734 -0.026284661 -0.043448247
-0.11802359 -2.1405513 -0.09353265 0.025070228 0.0071309125 0.07767963 -0.1853458 -0.09563853
-0.00541254 -2.2596836 0.27511778 -0.14409795 0.027985986 -0.024326215 0.1360002 -0.013607182
0.069688864 3.840113 0.21519504 -0.03648999 0.1338201 -0.06425083 0.021457534 -1.4073819
0.11337901 0.024109438 0.02836026 0.07131351 0.14418109 0.0038710088 -0.8989176 0.09882703
-0.0732932 0.004507624 0.059604555 0.054785147 0.046285354 0.057702772 0.14970192 0.014269523
0.008741549 0.061585747 0.509225 0.10594771 0.07828327 -0.6044018 0.11866875 0.11548607
0.028208015 -0.061556663 0.020195242 0.0663854 -0.0762795 -0.7822433 -1.5277977 -0.10539526
4.16366 -0.12535653 -0.1422186 -0.022708097 0.21354984 0.052491862 0.059123676 -1.3037977
-1.3070163 -0.032407127 -0.25701267 -1.1964908 0.12992208 -0.08284379 -0.27552766 -0.052565485
0.059848383 0.012820434 -0.029553093 0.08536422 0.10240112 -0.0024270527 -9.769306e-05 -0.060764294
0.11879658 -0.017649164 0.11556435 -0.0064650765 0.036622107 0.21593274 -0.007054833 0.08017994

out.bias f4 [4]
00000000: 6b3c 703f 19bc 7b3f f1cc 5c3f 16f4 663f
0.9384219 0.9833389 0.86250216 0.90216196
