models/v17.1/model_173500_target.pth (torch, 295191 bytes, 10 tensors)

conv.0.weight f4 [16, 2, 3, 3]
0	0x3e140e3d	0.14458556
1	0x3d1bda0e	0.03804975
2	0xbe434c08	-0.19071972
3	0x3e805f1b	0.2507256
4	0xbe113c8f	-0.14183258
5	0x3dd5df21	0.10442949
6	0xbea75fea	-0.32690364
7	0x3eb3f8cf	0.35150763
8	0x3dccb656	0.09995715
9	0xbd0d9e52	-0.034574814
10	0x3d57e068	0.052704245
11	0xbd399cd5	-0.045315582
12	0xbd7dcdba	-0.061963774
13	0x3dba3364	0.09091833
14	0x3cb3c32d	0.021943653
15	0xbcae5d50	-0.02128473
16	0x3c31acfb	0.010844464
17	0x3b9d72cf	0.004804946
18	0xbe29d9da	-0.1658701
19	0x3e916b7d	0.2840232
20	0x3d0c08f4	0.034188226
21	0x3e6efa42	0.23337653
22	0xbe441b5e	-0.19151065
23	0x3e6deeb1	0.23235585
24	0xbf5c5644	-0.8606913
25	0xbf1055c2	-0.56380856
26	0xbe1618d7	-0.14657913
27	0xbf84bf6c	-1.0370917
28	0x3f1b899b	0.60756844
29	0xbf9ed422	-1.2408488
30	0x3e520d78	0.2051295
31	0xbe34fb41	-0.17673971
32	0x3e6a11b3	0.22858314
33	0xbc80a75a	-0.0157048
34	0x3ccacc35	0.024755577
35	0x3dd67ef6	0.104734346
36	0x3c01bcd9	0.00791856
37	0x3e7479a1	0.23874523
38	0x3de6954f	0.11258947
39	0xbdd4e626	-0.1039546
40	0x3e9db1ef	0.30799815
41	0xbd7e8c29	-0.062145386
42	0x3e8e9f0a	0.27855712
43	0x3e20a450	0.1568768
44	0x3df797f2	0.12089528
45	0x3d8faa89	0.07014949
46	0x3e08949b	0.13337938
47	0x3c8df7b5	0.01733003
48	0x3e80e317	0.25173256
49	0xbda3f00e	-0.08004771
50	0xbfbc0479	-1.4688865
51	0xbd089536	-0.033345424
52	0xbea5d595	-0.32389513
53	0x3d5bd10c	0.05366616
54	0x3cb7967e	0.022410627
55	0x3d703bbb	0.058650713
56	0x3d8e1bb8	0.06938881
57	0x3e049450	0.12947202
58	0x3df05d45	0.1173654
59	0xbf2e8469	-0.6817079
60	0xbec57df4	-0.38572657
61	0xbec09a4f	-0.37617728
62	0x3e428d5c	0.18999237
63	0xbd7a5f52	-0.06112606
64	0x3c4c3d4f	0.012465789
65	0xbd028eca	-0.031874456
66	0x3e9f64a2	0.31131464
67	0xbda71701	-0.081586845
68	0xbf545c5c	-0.8295343
69	0xbe8b663c	-0.27226436
70	0x3eba1e03	0.36351022
71	0x3e29a42f	0.16566537
72	0x3e6edeeb	0.23327224
73	0xbdeaf26d	-0.1147202
74	0xbe012f87	-0.12615786
75	0xbf9aac23	-1.2083782
76	0xbe53ff57	-0.20702873
77	0x3e0aacc6	0.1354247
78	0x3c983be6	0.01858325
79	0x3efcaa07	0.4934847
80	0xbf947e27	-1.1600999
81	0xbe845ff4	-0.25854456
82	0x3e855345	0.26040092
83	0xbf30c5c3	-0.6905176
84	0x3e72e6d6	0.2372087
85	0x3bc87264	0.006117152
86	0x3e55e5f9	0.20888509
87	0x3c9adb87	0.018903507
88	0xbd970e70	-0.073758006
89	0xba898df4	-0.0010494576
90	0xbcfad112	-0.03061727
91	0xbe53a80d	-0.20669575
92	0x3ee66c2d	0.45004407
93	0x3e8888e7	0.26666948
94	0xbe11d03f	-0.14239596
95	0xbd7c8557	-0.0616506
96	0x3f1c321d	0.61013967
97	0xbed49afe	-0.415245
98	0x3eb84987	0.35993597
99	0xbe8ac47e	-0.27103037
100	0xbdd69578	-0.10477728
101	0x3dd0a7d2	0.10188259
102	0x3d2f564d	0.042806912
103	0xbecdf809	-0.40228298
104	0xbdb0feaa	-0.08642323
105	0xbcbaa8ca	-0.022785563
106	0xbe0b029d	-0.13575216
107	0xbea5f1a2	-0.32410914
108	0xbf804074	-1.001967
109	0xbd4f93a7	-0.05067792
110	0x3eb14f2d	0.3463072
111	0x3e75be8f	0.23998474
112	0x3d4af9ad	0.049554516
113	0xbf8a057b	-1.0782923
114	0xbe87e1da	-0.265395
115	0x3de86134	0.11346665
116	0xbe3a129f	-0.18171166
117	0xbdc8a106	-0.09796338
118	0xbc84e11f	-0.016220627
119	0xbe100801	-0.14065553
120	0x3dfc36f8	0.12315172
121	0x3bef2d1f	0.00729908
122	0x3d382d29	0.044964943
123	0xbf4647e1	-0.7745343
124	0xbdb9d1b9	-0.090732045
125	0xbd8bb2ae	-0.0682119
126	0x3e6b95ad	0.23006316
127	0xbe498969	-0.19681324
128	0x3f03ca99	0.51481014
129	0xbdd9eb4b	-0.10640582
130	0x3e922c23	0.285493
131	0x3e02c5b5	0.12770732
132	0x3d0733b0	0.033008277
133	0x3ed17aab	0.409139
134	0xbd6a276e	-0.05716651
135	0xbfd2f9de	-1.6482503
136	0xbf59cafc	-0.85075355
137	0xbf4f6df1	-0.8102713
138	0x3dce3871	0.10069359
139	0x3d29a64b	0.041418355
140	0xbced747b	-0.028986206
141	0xbe7232a4	-0.2365213
142	0x3e2fdca2	0.17174008
143	0xbcf5f2a5	-0.030022928
144	0xbc5c2101	-0.013435603
145	0x3dc2ed6f	0.09517943
146	0x3d6be173	0.057588052
147	0x3eb241e2	0.3481589
148	0x3d80348f	0.06260025
149	0xbe409338	-0.1880616
150	0x3e45e179	0.19324292
151	0xbeb74a38	-0.35798812
152	0x3d2b5ead	0.041838337
153	0xbec0ae3c	-0.3763293
154	0x3f0305c3	0.51180667
155	0xbef27a0c	-0.4735874
156	0x3d64fbc8	0.05590418
157	0x3e7ba391	0.24574114
158	0x3c55397a	0.013014192
159	0xbe9f9d63	-0.31174764
160	0x3ede2819	0.43389967
161	0x3d4324b6	0.047642432
162	0x3ca2093b	0.019779792
163	0xbd9494c0	-0.07254934
164	0x3e02459b	0.12721865
165	0x3d36d361	0.04463518
166	0xbe03663a	-0.12831965
167	0x3e97febb	0.2968653
168	0x3e90c42b	0.28274664
169	0xbda5787e	-0.08079623
170	0xbe3866e1	-0.18007995
171	0xbcaefe29	-0.021361427
172	0x3e476068	0.1947037
173	0xbe04167b	-0.128992
174	0xbfd15a7f	-1.6355742
175	0x3cfa4a8a	0.030553121
176	0xbe1e895a	-0.15482083
177	0x3e3aa36a	0.182264
178	0x3eb60bc1	0.35555843
179	0xbe937033	-0.2879654
180	0xbdd7e2e4	-0.10541323
181	0x3de645ba	0.11243768
182	0x3d1fede1	0.03904522
183	0xbdedcbc3	-0.1161113
184	0x3d0ced30	0.034405887
185	0x3d8e6565	0.06952933
186	0x3f010e43	0.50412387
187	0xbeb8d1b7	-0.360975
188	0x3bf709db	0.0075390167
189	0x3da2e37d	0.07953546
190	0xbe93ff95	-0.2890593
191	0xbdcf77a6	-0.10130243
192	0x3f334214	0.700227
193	0xbca127c4	-0.019672282
194	0xbda93510	-0.08262074
195	0x3e026e1b	0.12737314
196	0x3da5754a	0.08079012
197	0xbdf21fcc	-0.11822471
198	0x3e550ec8	0.2080642
199	0x3e3587a0	0.17727518
200	0xbee6009f	-0.4492235
201	0xbd69ad85	-0.057050247
202	0x3df02edb	0.11727687
203	0x3e3dff62	0.18554452
204	0xbf9f09e2	-1.2424891
205	0xbe4c2247	-0.19934951
206	0xbda53eb0	-0.08068597
207	0xbfbb9b5b	-1.4656786
208	0xbe9613f0	-0.29312086
209	0x3e808aaf	0.25105807
210	0x3e0aae80	0.13543129
211	0x3e6b1ed2	0.22960976
212	0xbe7f1e3c	-0.24913877
213	0x3db1f7bc	0.0868983
214	0x3e1888a8	0.1489588
215	0x3d1190f3	0.035538625
216	0xbe0dfd86	-0.13866243
217	0xbce2ef0f	-0.027701883
218	0x3d875a3f	0.0660901
219	0xbdb6a110	-0.08917439
220	0xbc8a145d	-0.016855413
221	0x3e4ac001	0.19799806
222	0xbdf35584	-0.11881545
223	0x3cd7f88e	0.026363637
224	0xbe8864cb	-0.266394
225	0x3e01d03b	0.1267709
226	0x3e651c40	0.22374058
227	0x3d069dd4	0.03286536
228	0xbd08053c	-0.033208117
229	0xbf65913d	-0.8967474
230	0xbe27b10a	-0.16376129
231	0x3d82ca6a	0.06386264
232	0x3da89d91	0.082331784
233	0x3e6ebfdd	0.23315378
234	0x3e855a42	0.26045424
235	0x3d81e5e1	0.06342674
236	0x3d2f1d32	0.042752452
237	0x3cda8929	0.026676731
238	0xbfb970e6	-1.4487579
239	0xbd25289c	-0.04032193
240	0xbd45839b	-0.048221212
241	0xbe45818b	-0.19287698
242	0x3db0487b	0.086075746
243	0x3e2227c0	0.15835476
244	0xbfbdf591	-1.4840566
245	0xbe586dce	-0.21135637
246	0xbe0ed484	-0.13948256
247	0x3d7724b4	0.060337737
248	0xbe2a4e0a	-0.16631332
249	0x3e790a9e	0.24320456
250	0xbe8066a2	-0.25078303
251	0xbd7bcaa6	-0.061472557
252	0x3d96b4c0	0.07358694
253	0xbf95de56	-1.1708477
254	0x3ba6e9e3	0.0050937994
255	0xbde920d8	-0.113832176

conv.0.bias f4 [16]
0	0xbd20c622	-0.039251454
1	0x3dadde52	0.0848967
2	0xbcfb22ae	-0.030656185
3	0xbd2f47b9	-0.04279301
4	0xbd8320d1	-0.064027436
5	0xbea58bc8	-0.32333207
6	0x3e6e5801	0.23275758
7	0xbea99ae9	-0.33126
8	0xbe61c66b	-0.22048347
9	0xbdb6a50a	-0.089181975
10	0xbee7b748	-0.4525702
11	0xbd31c1d9	-0.04339776
12	0x3cddfe8f	0.027098922
13	0x3dcab430	0.09897649
14	0xbe0969ec	-0.13419312
15	0x3dc2c278	0.09509748

conv.2.weight f4 [32, 16, 3, 3]
0	0xbca686c8	-0.02032794
1	0x3dfda4b1	0.12384928
2	0xbda6940b	-0.08133706
3	0x3e50c94b	0.20389287
4	0x3d71b78a	0.059012927
5	0x3e21edb5	0.15813334
6	0x3e741a44	0.23838145
7	0x3e46f126	0.19427928
8	0xbe3823d2	-0.17982414
9	0x3e410906	0.18851098
10	0x3d212edd	0.039351333
11	0xbde01314	-0.10941139
12	0xbe217444	-0.15767008
13	0x3d268919	0.04065809
14	0x3ca1315f	0.019676862
15	0x3db0eca3	0.08638885
16	0x3d2d1d44	0.042264238
17	0xbe4eb36d	-0.20185633
18	0xbd780d80	-0.06055975
19	0x3e10513f	0.14093493
20	0xbe12aaca	-0.14322963
21	0xbedf60d0	-0.4362855
22	0x3e9c777f	0.30559918
23	0xbf7d7f7d	-0.99022657
24	0xbdcd0172	-0.10010041
25	0xbcc68eea	-0.024238069
26	0x3d851c6e	0.06499563
27	0x3dd81ffa	0.10552974
28	0xbdba2ec6	-0.090909526
29	0xbe428d14	-0.1899913
30	0x3dac99e6	0.08427791
31	0xbec1d73e	-0.3785953
32	0xbd236611	-0.03989226
33	0xbe2282a3	-0.15870146
34	0x3e1e3b03	0.15452199
35	0x3df9eea5	0.12203721
36	0x3e2808a9	0.16409554
37	0xbbed1774	-0.007235462
38	0x3e03842d	0.1284339
39	0x3ca0d2c9	0.01963176
40	0x3dc17ac8	0.09447247
41	0xbe795d4b	-0.24351995
42	0x3e73fe6b	0.23827522
43	0xbe11fc00	-0.14256287
44	0xbd7a1157	-0.061051693
45	0x3e4a44b7	0.19752775
46	0x3dc81aee	0.097707614
47	0xbec8cb0c	-0.39217412
48	0x3eee09ed	0.46491948
49	0xbec35f1c	-0.381585
50	0xbe6b452b	-0.22975604
51	0x3e020a47	0.12699233
52	0x3e3374e8	0.17525065
53	0xbdf992c0	-0.121861935
54	0xbea1d158	-0.3160503
55	0xbd6df337	-0.058093276
56	0xbeb0c1e8	-0.3452294
57	0x3d590545	0.05298354
58	0xbea4b9c6	-0.32172984
59	0xbdeb260b	-0.114818655
60	0xbc7f1b29	-0.01557044
61	0x3e0ab47e	0.13545415
62	0x3db9482a	0.09046967
63	0x3e04cd64	0.12968975
64	0xbe20ecf5	-0.15715392
65	0x3db9549d	0.09049342
66	0xbd7a034f	-0.06103831
67	0xbe6e7532	-0.23286894
68	0x3e58a7af	0.21157716
69	0x3d86ef7c	0.06588647
70	0xbea925f8	-0.3303678
71	0xbf22204f	-0.6333055
72	0xbe7c61c6	-0.24646673
73	0x3d758372	0.05993981
74	0x3ee1387c	0.43988407
75	0x3dff0d87	0.12453752
76	0xba1486d2	-0.0005665842
77	0x3e89ddd0	0.26927042
78	0x3de981c8	0.11401707
79	0x3cd505ef	0.026003806
80	0xba3febda	-0.00073212164
81	0x3d975543	0.07389309
82	0xbeb9d8d3	-0.36298236
83	0x3e9734df	0.29532525
84	0xbde45588	-0.11149126
85	0xbe40c3ea	-0.18824735
86	0xbdc3a392	-0.09552683
87	0x3c5fff6b	0.013671736
88	0x3e57b533	0.21065216
89	0x3e8b1820	0.27166843
90	0x3e797fb9	0.24365129
91	0xba0397ae	-0.00050198555
92	0x3e40ed2e	0.18840477
93	0xbd8bfe82	-0.06835653
94	0xbd55fcb2	-0.052242942
95	0xbec4cbbe	-0.38436693
96	0x3e855a50	0.26045465
97	0x3e136d2f	0.14397119
98	0xbe69c9c6	-0.22830877
99	0xbd108943	-0.035287153
100	0xbd4016cf	-0.046896752
101	0xbe7dc54b	-0.24782293
102	0xbe3b3e39	-0.18285455
103	0xbde70cec	-0.112817615
104	0xbe0adaba	-0.1356
105	0x3de82ee1	0.113370664
106	0xbe0d24f9	-0.13783635
107	0xbdd01998	-0.101611316
108	0x3b742690	0.003725443
109	0xbb193c5a	-0.002338192
110	0xbd48d198	-0.04902801
111	0xbd4dbfdf	-0.05023181
112	0xbed3072d	-0.41216412
113	0xbd735322	-0.059405454
114	0xba878e7e	-0.0010342149
115	0x3c7dadff	0.015483378
116	0xbe09e752	-0.13467148
117	0xbe8f2567	-0.27958223
118	0xbf2fc23f	-0.6865577
119	0x3d63e5ae	0.05563896
120	0xbd8dd5b3	-0.069255255
121	0xbe44ce00	-0.19219208
122	0xbe6e3c0f	-0.23265098
123	0xbf477e7c	-0.77927375
124	0x3d74ea1c	0.059793577
125	0x3d87a2b0	0.06622827
126	0x3e0ef9dc	0.13962501
127	0xbb49acc6	-0.0030773147
128	0x3e0f6ea7	0.14007054
129	0x3e01cc57	0.12675606
130	0xbe0cfc86	-0.13768205
131	0xbe514877	-0.204378
132	0x3df332be	0.11874913
133	0x3d02a9a2	0.031900056
134	0x3df851b9	0.12124962
135	0x3da44dc0	0.08022642
136	0xbd29aa4b	-0.04142217
137	0x3d82e4a4	0.06391266
138	0x3e0c0c66	0.13676605
139	0x3e6eea54	0.23331577
140	0xbd9b4f8d	-0.075835325
141	0x3dec70b6	0.115449354
142	0xbeb06a59	-0.34456137
143	0x3db1308e	0.08651839
144	0x3cbeac6d	0.023275578
145	0x3e1bc92e	0.15213463
146	0xbce105c2	-0.027468566
147	0x3d993a1b	0.07481786
148	0xbe5c0fd5	-0.21490414
149	0xbe1430f6	-0.14471802
150	0x3bacee54	0.0052774344
151	0x3d403047	0.04692104
152	0xbd300240	-0.042970896
153	0x3d9005f3	0.07032385
154	0x3e0ad1c3	0.1355658
155	0xbd1732a4	-0.03691353
156	0xc02c992d	-2.696849
157	0x3df4e7df	0.119582884
158	0x3d90702a	0.070526436
159	0xbe13cb34	-0.14432985
160	0x3e2ee9d3	0.17081384
161	0xbddf79e8	-0.10911924
162	0xbc1578f3	-0.009123075
163	0x3c8f359f	0.017481623
164	0xbd265550	-0.040608704
165	0x3e083056	0.13299689
166	0x3d28525c	0.04109417
167	0x3dadbc4e	0.08483182
168	0xbd3a5890	-0.045494616
169	0x3e0c1e93	0.13683538
170	0xbd1b3808	-0.037895232
171	0xbe1eb63c	-0.15499204
172	0xbea3572a	-0.31902438
173	0x3e41ac01	0.1891327
174	0xbe1aa3a6	-0.1510149
175	0x3e58a712	0.21157482
176	0xbd253ad8	-0.04033932
177	0xbeec4956	-0.461497
178	0xbe132b2e	-0.1437194
179	0x3e83f23b	0.25770745
180	0xbe902563	-0.28153524
181	0xbea3dc39	-0.32003954
182	0xbf35fac8	-0.71085787
183	0xbeccb2cd	-0.39980164
184	0x3e29cd87	0.16582309
185	0x3e982015	0.29711977
186	0xbe13d4f9	-0.14436711
187	0x3db7322f	0.08945119
188	0xbd98a4e4	-0.074533254
189	0xbd7144d3	-0.058903527
190	0xbe3f8130	-0.18701625
191	0xbcc5d814	-0.024150886
192	0x3dbcee20	0.09225106
193	0x3e0d6d64	0.1381126
194	0xbee1e9e4	-0.44123757
195	0xbe90e306	-0.28298205
196	0xbeb0fc31	-0.34567407
197	0xbd72f8ae	-0.05931919
198	0x3c692b35	0.014231493
199	0xbdc94819	-0.09828205
200	0x3e674cbb	0.22587864
201	0xbd26bd7a	-0.040708043
202	0xbe9e04cf	-0.30863044
203	0xbf4f4a0f	-0.8097238
204	0x3de6a073	0.11261072
205	0x3d124fdc	0.03572069
206	0x3ebd4c9c	0.3697251
207	0xbca2a33f	-0.019853232
208	0x3c3a0e27	0.011355913
209	0xbe78b4f2	-0.24287775
210	0x3e28502d	0.16436835
211	0xbe583598	-0.21114194
212	0xbe5a9e8e	-0.21349546
213	0x3e837741	0.2567692
214	0xbe31fcc9	-0.17381586
215	0x3ba1141e	0.0049157282
216	0xbd62edac	-0.055402443
217	0x3ceb23e1	0.028703632
218	0xbd2bd079	-0.041946862
219	0x3e8b9baa	0.272672
220	0x3e2e8edd	0.17046686
221	0xbed4a6f2	-0.4153362
222	0x3e5064c9	0.20350946
223	0x3e77a27d	0.24183078
224	0x3e422126	0.18957958
225	0x3e87d604	0.26530468
226	0xbcfdb50e	-0.030970123
227	0x3d59a0e0	0.053131938
228	0x3dbe038e	0.09278022
229	0x3e3fcedc	0.18731254
230	0xbcb127b8	-0.021625385
231	0x3d82e589	0.063914366
232	0xbcb48e4a	-0.022040505
233	0x3db6d738	0.089277685
234	0x3e00093b	0.12503521
235	0x3e591c10	0.21202111
236	0xbeddfc11	-0.43356374
237	0xbe126283	-0.14295392
238	0xbdb298c5	-0.08720545
239	0x3e4f9b84	0.20274168
240	0x3c2b8a22	0.010469945
241	0xbe995cc8	-0.299536
242	0x3e8281d4	0.25489676
243	0xbd6d74d0	-0.05797273
244	0x3e87e35c	0.2654065
245	0xbda649af	-0.08119523
246	0x3e871bd1	0.2638841
247	0x3dc213f3	0.09476461
248	0xbe1283ee	-0.1430814
249	0x3e28c7a4	0.16482407
250	0x3da30b64	0.07961157
251	0xbe751fa8	-0.23937857
252	0x3ecb9969	0.3976548
253	0xbb6f589c	-0.003652132
254	0x3e3c59a2	0.18393567
255	0x3e02eb99	0.12785186

conv.2.bias f4 [32]
0	0x3e54f7ae	0.20797607
1	0xbcf5027f	-0.029908417
2	0xbe91c657	-0.28471634
3	0xbe8fc049	-0.2807639
4	0x3e08e063	0.13366847
5	0xbe0c0cfe	-0.13676831
6	0x3e08a8bc	0.13345617
7	0xbe464303	-0.193615
8	0xbd5f1354	-0.054461792
9	0xbd928aa5	-0.071553506
10	0x3d8b5a7f	0.0680437
11	0x3d973926	0.07383947
12	0xbe01cdfe	-0.12676236
13	0xbcb27ad3	-0.021787083
14	0x3c48fcb6	0.012267282
15	0xbe2d12e3	-0.16901736
16	0x3df1ca3e	0.11806153
17	0x3ccaf365	0.024774263
18	0x3d2e87f5	0.042610127
19	0xbe9ac142	-0.3022557
20	0xbdbab2f6	-0.09116165
21	0x3e53b32a	0.20673814
22	0xbec7350e	-0.38907665
23	0x3de6c085	0.11267189
24	0x3da5a3bd	0.08087871
25	0x3e2e2586	0.17006502
26	0xbe07b9b1	-0.1325443
27	0x3d450e10	0.048109114
28	0x3da667ed	0.08125291
29	0x3d44aa76	0.048014127
30	0xbd939224	-0.072056085
31	0xbd8bc4cc	-0.068246454

conv.4.weight f4 [64, 32, 5, 5]
0	0x3b6c4508	0.0036051888
1	0xbe371181	-0.17877771
2	0x3d883480	0.066506386
3	0x3d2c0db9	0.042005274
4	0x3cc8ede5	0.0245275
5	0xbe357db1	-0.17723729
6	0xbcf0bdd6	-0.029387396
7	0x3da53b9f	0.080680124
8	0xbcec35bd	-0.028834218
9	0x3d6530a8	0.055954605
10	0x3dbadbe9	0.09123976
11	0x3cf08596	0.029360574
12	0xbbc6f11b	-0.0060712225
13	0xbe2f6c1f	-0.17131089
14	0xbdea1f47	-0.11431747
15	0xbecaea86	-0.39632052
16	0x3dfab302	0.12241174
17	0xbdd30f35	-0.10305635
18	0x3f0ba656	0.54550683
19	0xbf09ec39	-0.5387607
20	0x3d557235	0.05211087
21	0xbda726cc	-0.08161697
22	0xbcb2d097	-0.021827979
23	0x3d7be06b	0.06149332
24	0xbe303a94	-0.17209846
25	0xbd98bd58	-0.074579895
26	0xbedf89e0	-0.43659878
27	0x3e31f6df	0.1737933
28	0x3e33bec9	0.17553248
29	0xbe66ff5a	-0.22558346
30	0xbe64477b	-0.22292893
31	0x3c49630c	0.012291681
32	0xbf005b5e	-0.50139415
33	0x3e2fd556	0.17171225
34	0xbe017457	-0.12642036
35	0x3e866b0d	0.26253548
36	0xbf0a862c	-0.5411098
37	0x3e6222ac	0.22083539
38	0x3ea7f903	0.32807168
39	0xbf117d93	-0.56832236
40	0x3d250a0f	0.040292796
41	0x3e0fcac6	0.14042196
42	0x3d9bcdf8	0.07607645
43	0x3d96b596	0.073588535
44	0x3e66af8c	0.22527903
45	0xbcdb469c	-0.026767068
46	0x3d9355ca	0.07194097
47	0x3db2799a	0.087146
48	0xbdb0c357	-0.08631008
49	0x3d9b5df4	0.075862795
50	0xbe7f8a94	-0.24955207
51	0x3d9eef85	0.077605285
52	0xbe295c67	-0.16539155
53	0xbf00db71	-0.5033484
54	0x3f106acd	0.56412965
55	0x3e319f8f	0.17346023
56	0xbcd4672b	-0.0259281
57	0xbe8429b1	-0.25813058
58	0x3d9a7545	0.07541899
59	0xbf49b450	-0.7879076
60	0xbf240315	-0.640672
61	0x3e21127b	0.15729706
62	0xbee52402	-0.44754034
63	0xbe80e6f9	-0.25176218
64	0xbda6ba53	-0.08141007
65	0x3e2a214c	0.16614264
66	0xbd932616	-0.07184999
67	0x3f1a6811	0.6031504
68	0x3e3a9909	0.18222441
69	0xbc48c677	-0.012254349
70	0x3d6db2eb	0.058031958
71	0x3e574911	0.21023966
72	0x3e8ff40e	0.28115886
73	0xbdc58af8	-0.09645647
74	0xbe66f8ba	-0.22555819
75	0x3d3afbe3	0.045650374
76	0xbde1f8ef	-0.110338084
77	0xbe38e688	-0.1805669
78	0xbe01a9fa	-0.12662497
79	0xbd14f20f	-0.036363658
80	0x3e061f1c	0.13097805
81	0x3d076b97	0.03306159
82	0x3c970844	0.018436559
83	0x3efdc201	0.49562076
84	0xbe02598b	-0.1272947
85	0xbe6ccee7	-0.23125802
86	0x3d836067	0.06414872
87	0xbee808fc	-0.45319355
88	0x3e2cb0f3	0.16864376
89	0x3f152438	0.5825839
90	0xbdb7b37d	-0.089697815
91	0x3e75283e	0.23941132
92	0xbe410aaa	-0.18851724
93	0xbeaa76c7	-0.33293745
94	0x3e59ee93	0.21282415
95	0x3eb8453e	0.35990328
96	0x3d92f7f6	0.07176201
97	0xbdedebe5	-0.11617259
98	0x3efc7a7c	0.49312198
99	0xbe654670	-0.22390151
100	0x3e3d98e3	0.18515353
101	0xbe50aab5	-0.2037762
102	0xbe147149	-0.1449634
103	0xbe2dcc4a	-0.16972461
104	0xbdb3136d	-0.087439395
105	0x3e200be2	0.15629533
106	0xbc8757b1	-0.016521307
107	0x3d1202e9	0.035647307
108	0xbe2787e5	-0.16360433
109	0x3e1f0a3b	0.15531246
110	0x3ccdb2bc	0.025109641
111	0x3e169831	0.14706494
112	0x3df06bcd	0.11739311
113	0x3e7d6305	0.24744804
114	0x3d8dbb6d	0.06920514
115	0xbeac8399	-0.3369415
116	0x3dec1ceb	0.11528953
117	0xbde1707c	-0.11007783
118	0x3e9a5542	0.30143172
119	0x3df218a3	0.11821105
120	0x3df08eed	0.11746011
121	0xbe8fd8d7	-0.28095123
122	0x3e41c5f5	0.18923171
123	0xbdefc45c	-0.117073745
124	0x3eb91c14	0.36154234
125	0x3f1fc81e	0.6241473
126	0xbcada05a	-0.021194626
127	0x3e64b4bc	0.2233457
128	0xbd048167	-0.03234997
129	0xbe0c445a	-0.13697949
130	0x3cdc3148	0.026878968
131	0xbe3cae04	-0.18425757
132	0x3e68dd7c	0.2274074
133	0x3d6aec83	0.05735446
134	0xbe9dd22a	-0.30824405
135	0xbdfa73cb	-0.12229117
136	0x3e620584	0.22072417
137	0xbc85e5f1	-0.016344996
138	0x3ed97c30	0.4247756
139	0x3d8ce56c	0.06879696
140	0xbf31c96c	-0.6944797
141	0xbdbab2fa	-0.09116168
142	0x3da79f7d	0.08184717
143	0xbdff29d7	-0.12459152
144	0xbde5209a	-0.11187859
145	0xbec1997b	-0.3781241
146	0x3cee3c3a	0.029081453
147	0x3e59e088	0.21277058
148	0x3e0adefe	0.13561627
149	0xbebe6065	-0.37182918
150	0xbec2ff5d	-0.38085452
151	0x3ed60d86	0.41807193
152	0xbeadf8d2	-0.33978897
153	0x3df147f0	0.11781299
154	0xbdf30d54	-0.118677765
155	0xbe573d6b	-0.21019523
156	0xbedef033	-0.43542632
157	0xbcaa060d	-0.020754838
158	0xbd3fc6a7	-0.04682031
159	0xbe0d8487	-0.13820086
160	0xbccdb400	-0.025110245
161	0x3e0bd74b	0.13656346
162	0xbedfd74c	-0.43718946
163	0x3df7dfc7	0.12103229
164	0x3f37dc26	0.71820295
165	0x3e4e4c02	0.20146182
166	0xbddd4174	-0.108035
167	0x3d9751f6	0.0738868
168	0xbf31f944	-0.69520974
169	0x3ec461f2	0.38355976
170	0x3e337880	0.17526436
171	0xbed0d7cd	-0.40789643
172	0x3d6d841a	0.05798731
173	0xbe4addf4	-0.19811231
174	0x3d929c29	0.071586914
175	0xbe3e9cf8	-0.18614566
176	0x3e4e9cd2	0.2017701
177	0x3ec38196	0.38184804
178	0x3ddea828	0.10871917
179	0x3dc7a429	0.09748108
180	0xbee064a6	-0.4382679
181	0x3e0390fc	0.12848276
182	0xbe050202	-0.12989047
183	0xbe3c87d3	-0.18411188
184	0x3ea57b83	0.32320794
185	0xbef8fa56	-0.4862849
186	0x3ec72c48	0.3890097
187	0xbe2ecb99	-0.17069854
188	0xbe772f70	-0.2413919
189	0xbe30774d	-0.1723301
190	0xbf165b87	-0.5873341
191	0xbde2967a	-0.110638574
192	0x3ddbcab7	0.10732024
193	0xbe0174be	-0.1264219
194	0x3d5df7f4	0.054191545
195	0xbc21b092	-0.009868758
196	0xbc8effde	-0.017455991
197	0xbe8e9899	-0.27850798
198	0xbd8f3fc9	-0.06994588
199	0x3dd16e09	0.10226066
200	0xbe0622bb	-0.13099186
201	0x3d1abcfa	0.03777788
202	0xbe9e7c1d	-0.30954066
203	0xbed2c6ff	-0.41167447
204	0xbd0276cc	-0.031851575
205	0x3ee10b86	0.43954104
206	0x3d67b9d1	0.056573693
207	0xbd2cc8c4	-0.042183653
208	0x3cc01a54	0.023450054
209	0xbd360590	-0.0444389
210	0xbd858dc9	-0.06521184
211	0xbe29c34a	-0.16578403
212	0xbd8f72eb	-0.07004341
213	0x3d01c711	0.031683985
214	0xbd1c9c40	-0.03823495
215	0xbdb16b69	-0.08663065
216	0x3d43a925	0.04776873
217	0x3e974575	0.2954518
218	0x3e40bcae	0.18821976
219	0xbe1957da	-0.14974919
220	0xbdf152b0	-0.117833495
221	0xbe40f421	-0.18843128
222	0xbd271b94	-0.040797785
223	0x3da1612e	0.07879864
224	0xbd237c9c	-0.03991376
225	0xbca19743	-0.019725448
226	0xbdb09bf4	-0.08623496
227	0x3e10edc1	0.14153196
228	0xbd655be5	-0.05599584
229	0x3bc2f5bc	0.005949704
230	0xbcc694ed	-0.024240935
231	0x3e7f55b6	0.2493504
232	0xbece020f	-0.40235946
233	0x3efb4885	0.49078766
234	0xbd13b73b	-0.036063414
235	0xbe3564e1	-0.17714263
236	0xbe5bbf1b	-0.2145962
237	0x3ec62867	0.387027
238	0xbe00d8ac	-0.12582654
239	0x3d65da3a	0.05611632
240	0x3e4acde8	0.1980511
241	0x3d5d6efb	0.054060917
242	0xbc8c22ea	-0.017106492
243	0x3e4dede7	0.20110284
244	0xbdb70d0c	-0.08938035
245	0x3ed7a6c8	0.42119431
246	0x3cf8e82b	0.030384144
247	0xbe2329e3	-0.15933947
248	0xbcb581bb	-0.022156587
249	0x3d166f28	0.0367271
250	0xbdfba571	-0.12287415
251	0x3df9dec6	0.12200694
252	0xbeff9083	-0.4991494
253	0xbd837d8a	-0.06420429
254	0x3e60e5bc	0.21962637
255	0x3e6cc00d	0.23120137

conv.4.bias f4 [64]
0	0xbe359a04	-0.17734534
1	0xbe1d8b3c	-0.15385145
2	0xbcab2168	-0.020889953
3	0x3b642a86	0.0034815385
4	0xbe6bb1bd	-0.2301702
5	0xbe8539f8	-0.2602079
6	0xbd351d8c	-0.04421763
7	0xbd4bcd62	-0.049756415
8	0x3e735912	0.23764446
9	0xbdafcd88	-0.08584124
10	0x3e159a26	0.14609584
11	0xbd474e54	-0.048658684
12	0xbc58fc44	-0.013243739
13	0xbd2ca76a	-0.042151846
14	0xbe3eae52	-0.18621185
15	0xbdcfac80	-0.10140324
16	0xbcb934ac	-0.022608124
17	0xbd001134	-0.031266406
18	0x3e01021b	0.1259846
19	0xbe0378ba	-0.12839022
20	0x3dfb7141	0.12277461
21	0xbe433c94	-0.19066077
22	0xbd2d100d	-0.042251635
23	0xbe2c2bb6	-0.1681355
24	0xbe5b2f96	-0.21404871
25	0x3edc33e2	0.43008333
26	0xbd69cffc	-0.057083115
27	0x3d85b91f	0.0652945
28	0xbceab95c	-0.02865284
29	0xbdae8f87	-0.085234694
30	0xbd218fda	-0.03944383
31	0xbcaf8d15	-0.021429578
32	0xbe10ecd7	-0.14152847
33	0xbd67ba71	-0.05657429
34	0xbc63079e	-0.013856797
35	0x3e63e14d	0.22253914
36	0x3e10c285	0.14136703
37	0x3ddd80ab	0.10815557
38	0xbe26b501	-0.16279985
39	0xbd645072	-0.05574078
40	0x3e191687	0.1495
41	0xbdaa823c	-0.083256215
42	0xbd50f8c7	-0.051018503
43	0xbd8ee1a2	-0.0697663
44	0xbd2fca43	-0.0429175
45	0xbd275136	-0.040848933
46	0xbd18c570	-0.037297666
47	0x3ec952f0	0.3932109
48	0xbd22d13f	-0.039750334
49	0xbca9f0ab	-0.020744642
50	0x3c890d0f	0.01672986
51	0x3c74035f	0.014893382
52	0x3eae5682	0.34050375
53	0x3eaefa67	0.34175417
54	0xbdb2944e	-0.08719693
55	0x3db30211	0.087406285
56	0x3e340546	0.17580137
57	0xbe33f95c	-0.17575592
58	0xbdd4529f	-0.10367321
59	0xbe638d56	-0.22221884
60	0x3ef1bc3a	0.47213918
61	0x3ce8b287	0.028405441
62	0xbe6e4014	-0.23266631
63	0x3e19d6cc	0.15023345

conv.7.weight f4 [64, 256]
0	0xbd36e7a7	-0.044654515
1	0xbd8f43da	-0.069953635
2	0x3cb4d151	0.022072466
3	0x3bed620f	0.0072443555
4	0x3cef30df	0.029198108
5	0xbd46e9d4	-0.04856284
6	0x3d25838a	0.04040865
7	0xbd8d090a	-0.0688649
8	0xbbb177ee	-0.005415908
9	0xbd5a6ee8	-0.053328425
10	0x3ce51f52	0.027969036
11	0xbc52b03d	-0.012859401
12	0xbd7baebe	-0.061445944
13	0x3cffeba0	0.031240284
14	0x3bf9c810	0.0076227263
15	0x3d237428	0.039905697
16	0xbc67821d	-0.0141301425
17	0x3cf13502	0.029444221
18	0x3ab793a4	0.0014005792
19	0xbd84cb8a	-0.064841345
20	0x3c03bd88	0.008040793
21	0x3bc0a453	0.005878964
22	0x3c0fe90a	0.008783588
23	0xbd478431	-0.048710052
24	0x3cb64e10	0.02225402
25	0x3d156010	0.036468565
26	0xbd450314	-0.04809864
27	0x3c7a8188	0.015289672
28	0x3c64b048	0.013958044
29	0xbd450320	-0.048098683
30	0xbcc0791c	-0.02349525
31	0xbc5947b8	-0.013261728
32	0xbd61f1c6	-0.055162214
33	0xbcd7f0d7	-0.026359959
34	0xbd35a94e	-0.044350915
35	0xbd308529	-0.04309574
36	0x3c89fcaf	0.016844122
37	0xbd7913d0	-0.06080991
38	0xbcc99a6c	-0.024609767
39	0x3c12d646	0.00896222
40	0xbc67e733	-0.014154243
41	0xbcb1150a	-0.021616478
42	0xbdb006b9	-0.08595032
43	0xbc0541b2	-0.008133339
44	0x3cbf9254	0.023385204
45	0x3c869d58	0.01643245
46	0x3d00d19e	0.031449907
47	0xbced6f10	-0.028983623
48	0xbc918cba	-0.017767299
49	0x3bb6e9f9	0.005582091
50	0x3c782424	0.015145335
51	0x3d46f719	0.048575494
52	0xbd5a293c	-0.05326198
53	0x3d39d05e	0.04536473
54	0x3c192df8	0.009349339
55	0xbd11ca18	-0.035593122
56	0xbd327e01	-0.043577198
57	0xbd75090b	-0.059823077
58	0xbd5c13c4	-0.053729787
59	0x3d2df223	0.042467248
60	0xbc96facb	-0.018430134
61	0xbd182afc	-0.037150368
62	0xb9b92560	-0.00035313796
63	0xbcea6054	-0.028610386
64	0xbd5563e0	-0.0520972
65	0xbcb55e9c	-0.02213984
66	0xbaa98340	-0.0012932792
67	0x3d1fe8d6	0.03904041
68	0xbd9dee12	-0.07711424
69	0xbc9a86b7	-0.018863065
70	0x3cff3e15	0.031157533
71	0xbd85f815	-0.065414585
72	0x3cf669f7	0.030079825
73	0x3cbccd4e	0.023047116
74	0xbcae728e	-0.021294858
75	0xb9124600	-0.00013949722
76	0xbc9de82c	-0.019275747
77	0xbca3a544	-0.019976266
78	0x3bf118f8	0.007357713
79	0xbd3444ac	-0.044010803
80	0xbc3c9386	-0.011509782
81	0xbdbe2194	-0.09283748
82	0xbd9d7b6c	-0.076895565
83	0x3d0290fc	0.03187655
84	0xbcb7171c	-0.022349887
85	0x3d35f11e	0.0444194
86	0xbc24f7c8	-0.010068841
87	0xbd35ef4e	-0.04441767
88	0xbd5c4432	-0.053775974
89	0x3c8cf928	0.01720865
90	0x3b2bf780	0.002624005
91	0xbd5e5958	-0.054284424
92	0x3d3b70dc	0.045761928
93	0x3cde0ef4	0.02710674
94	0xbd494fe4	-0.049148455
95	0xbd33d431	-0.043903533
96	0x3b290a07	0.002579333
97	0xbd1060be	-0.03524851
98	0xbcbc1c77	-0.022962792
99	0xbda33225	-0.07968549
100	0xbd7144fc	-0.05890368
101	0xbd4bca7f	-0.049753662
102	0x3ccd8834	0.02508936
103	0xbd87b532	-0.06626357
104	0x3cb470b8	0.022026405
105	0x3d76f94e	0.06029635
106	0x3cc8cff8	0.02451323
107	0xbc33b528	-0.010968484
108	0xbc4dbe40	-0.012557566
109	0xbd2236ab	-0.039602917
110	0xbcfaa398	-0.030595586
111	0xbd197650	-0.037466347
112	0x3d34f95a	0.044183113
113	0x3c56ac50	0.013102606
114	0x3a81a980	0.0009892434
115	0x3ca38844	0.019962437
116	0xbcdff84a	-0.027340073
117	0x3bdf7026	0.006818789
118	0x3c976762	0.018481914
119	0xbbe93fff	-0.0071182246
120	0xbb583d80	-0.0032995641
121	0x3b4a1360	0.0030834302
122	0x3d30df00	0.04318142
123	0xbcabffcc	-0.020995997
124	0x3cb3ae67	0.021933747
125	0xbd2ba2fe	-0.04190349
126	0xbbf8c97a	-0.0075923773
127	0xbcb075c3	-0.021540528
128	0xbc87fab1	-0.016599031
129	0x3cb69445	0.022287497
130	0x3ca5ccdb	0.020239284
131	0x3d297633	0.04137249
132	0x3d4b5be0	0.049648166
133	0x3cf0a2dc	0.029374532
134	0xbbd58cd0	-0.0065170303
135	0xbd68637a	-0.056735493
136	0xbd7d21b8	-0.061799735
137	0xbd17c15e	-0.037049644
138	0xbc4aab10	-0.012369886
139	0x3b5c0600	0.0033572912
140	0xbd2bae02	-0.041913994
141	0xbd687ac0	-0.05675769
142	0xbc008374	-0.007843841
143	0x3aba5bb2	0.0014218001
144	0xbcb571b2	-0.02214894
145	0xbcdb9ab0	-0.02680716
146	0x3ccc36d0	0.02492848
147	0xbd1d0a06	-0.038339637
148	0xbd446bdd	-0.04795443
149	0xbd920a91	-0.07130922
150	0x3ca5f530	0.020258516
151	0xbc849134	-0.01618252
152	0xbc3f39b0	-0.011671469
153	0x3cacfd54	0.02111689
154	0xbd43ffee	-0.047851495
155	0xbd4f7899	-0.05065212
156	0xbd2ca6de	-0.042151324
157	0xbd173db6	-0.036924087
158	0x3ccf1864	0.025280185
159	0x3b22bf80	0.0024833381
160	0xbd40da8e	-0.04708343
161	0x3be1b891	0.006888457
162	0xbcd1ca39	-0.025609123
163	0x3c2a75bc	0.010404047
164	0x3cd9cee6	0.026587915
165	0xbc9a09a2	-0.018803421
166	0xbc2cf69b	-0.010556842
167	0xbd81705c	-0.06320259
168	0x3bba83a0	0.0056919605
169	0x3d2317ee	0.039817743
170	0x3b8d9010	0.004320152
171	0x3c06fdf8	0.008239262
172	0x3c822c60	0.0158903
173	0xbd3e24b0	-0.046421707
174	0xbcdf57b8	-0.027263507
175	0x3d11b14a	0.035569467
176	0x3d496862	0.049171813
177	0xbd59890d	-0.053109217
178	0x3c16474e	0.009172274
179	0xbc2faebb	-0.010722811
180	0x3d5ab342	0.05339361
181	0x3d79d2d2	0.06099207
182	0x3cbeae24	0.023276396
183	0xbd053d20	-0.032528996
184	0xbd0c8adc	-0.034312114
185	0xbc32395c	-0.010877933
186	0x3d0d2759	0.034461353
187	0xbd01f22c	-0.031725094
188	0x3c3602fc	0.01110911
189	0x3cbb60f5	0.022873381
190	0xbd8816d4	-0.06644979
191	0xbd61e8cd	-0.055153657
192	0x3d0cf930	0.03441733
193	0x3d153192	0.036424227
194	0xbd206d80	-0.039166927
195	0xbbd2e310	-0.0064357594
196	0x3d186814	0.03720863
197	0xbcbf86f4	-0.02337978
198	0xbd40063c	-0.046880946
199	0x3c1f53c0	0.009724557
200	0xbc5ea722	-0.013589652
201	0xbd644214	-0.05572708
202	0xbd7eda69	-0.06222001
203	0xbd7fe332	-0.06247253
204	0xbd7e356e	-0.062062673
205	0xbcfdcf04	-0.030982502
206	0x3d0611ca	0.03273181
207	0x3d6d4014	0.057922438
208	0xbbe92b04	-0.0071157236
209	0xbd64e4e2	-0.055882342
210	0xbd05553f	-0.032552
211	0xbd538fec	-0.051650926
212	0x3cc5ed1f	0.02416092
213	0xbc94caaf	-0.018163053
214	0x3d060544	0.032719865
215	0xbcc1a0bb	-0.023636213
216	0xbd1ec959	-0.03876624
217	0xbca9df98	-0.0207365
218	0xbd0797f1	-0.033103887
219	0xbd01417f	-0.031556603
220	0xbc7663a4	-0.015038405
221	0xbccae81b	-0.02476888
222	0x3c73e5ac	0.014886301
223	0xbdbada2f	-0.091236465
224	0x3cea2cb9	0.028585779
225	0x3ca2217e	0.019791361
226	0x3d55c550	0.052190125
227	0xbd76fe72	-0.06030125
228	0xbd59d24d	-0.053179074
229	0xbd7433d2	-0.059619732
230	0xbd74522b	-0.059648674
231	0x3c6b59b7	0.014364651
232	0xbd82336f	-0.063574664
233	0xbcb9975e	-0.022655185
234	0x3cb3b062	0.021934692
235	0xbd87eeab	-0.06637319
236	0xbd7d294f	-0.061806973
237	0xbd300c63	-0.042980563
238	0xbbbe76b7	-0.0058124918
239	0xbcb5fafc	-0.022214405
240	0xbb8e701b	-0.00434686
241	0x3cc32b74	0.023824431
242	0x3c1cf984	0.009580974
243	0x3b629068	0.0034570936
244	0x3a142ed0	0.00056527276
245	0xbbe72162	-0.00705354
246	0x3b4e296d	0.0031457797
247	0xbd59a84b	-0.053139012
248	0x396ca580	0.00022568367
249	0xbd1b2530	-0.03787726
250	0xbd675754	-0.056479767
251	0x3d13bf82	0.036071308
252	0xbc3098ac	-0.010778587
253	0xbd66658f	-0.056249198
254	0xbbf5e3bc	-0.0075039547
255	0x3c347c3d	0.011015949

conv.7.bias f4 [64]
0	0xbd7b2678	-0.061315984
1	0x3f040984	0.5157702
2	0x3ebb95ba	0.3663767
3	0x3ecb5c93	0.39719066
4	0x3f26d905	0.65174896
5	0x3f1828be	0.5943717
6	0xbe383d4a	-0.1799213
7	0x3e92e281	0.28688434
8	0x3c1b367e	0.009473441
9	0x3eb5d87f	0.35516736
10	0xbe84efbb	-0.2596415
11	0x3e4513e8	0.19245875
12	0x3f08d0ae	0.5344342
13	0x3f0e26b4	0.55527806
14	0x3f2cd832	0.6751739
15	0xbefe6d76	-0.49692887
16	0x3e960a42	0.293047
17	0x3ed2e791	0.41192296
18	0x3f6ae523	0.91755885
19	0x3e50fd5e	0.20409152
20	0x3e28a93f	0.16470812
21	0x3e03a071	0.12854172
22	0x3eddcb0a	0.4331897
23	0x3ee66d59	0.450053
24	0x3dbb29ca	0.0913883
25	0x3d298e46	0.04139545
26	0xbe4dabca	-0.20085064
27	0x3e0306e8	0.12795603
28	0x3e4110b2	0.18854025
29	0xbc802172	-0.015640948
30	0x3ec4eb85	0.38460937
31	0xbd2fe0d1	-0.04293901
32	0xbe882241	-0.26588634
33	0x3eb5399c	0.35395515
34	0xbcfae043	-0.030624514
35	0xbe0d0ffe	-0.13775632
36	0x3dd21d1c	0.102594584
37	0xbe46666b	-0.19375007
38	0xbd820491	-0.06348527
39	0x3dc282f7	0.09497636
40	0x3e0292d6	0.12751326
41	0x3dfbbe78	0.122921884
42	0xbd4465de	-0.04794871
43	0x3e4c0ffa	0.1992797
44	0x3ec2722c	0.3797773
45	0x3e11483d	0.14187713
46	0x3eda08b7	0.42584774
47	0x3e622d1d	0.22087522
48	0x3e3a018f	0.18164657
49	0x3e9500a8	0.29102063
50	0xbe798763	-0.24368052
51	0x3da1f90a	0.079088286
52	0x3e5465fd	0.2074203
53	0xbdc7a57e	-0.09748362
54	0x3eb7e095	0.3591353
55	0xbeb8e27d	-0.36110297
56	0x3d5d7462	0.05406607
57	0xbea52e3c	-0.32261837
58	0x3f261f83	0.64891833
59	0x3c5a4fe6	0.013324713
60	0x3f133d4a	0.57515395
61	0xbe61dfe5	-0.22058065
62	0x3ed15f91	0.40893224
63	0x3e60b28d	0.21943112

out.weight f4 [4, 64]
0	0x3daba799	0.08381576
1	0x3ee0f5d3	0.4393755
2	0x3c0702f8	0.008240454
3	0x3de127cc	0.10993919
4	0x3e97faae	0.2968344
5	0x3da3164d	0.07963238
6	0xbbf87184	-0.0075818915
7	0x3e39723b	0.18109982
8	0xbcac26d2	-0.021014605
9	0x3d6a6d04	0.05723287
10	0x3da64954	0.08119455
11	0x3e09f11f	0.13470887
12	0x3e370db1	0.17876317
13	0xbd058db8	-0.032605857
14	0x3d069605	0.032857914
15	0x3c2d27cb	0.010568569
16	0xbf3ada04	-0.72988915
17	0x3d16f3a9	0.036853466
18	0x3ef18db9	0.47178438
19	0x3d8ddb53	0.069265984
20	0xbb0ab374	-0.0021164091
21	0xbc301a67	-0.010748482
22	0x3e46a2f6	0.19398102
23	0x3d09e47f	0.033665176
24	0xbe3186de	-0.17336604
25	0xbd0b1714	-0.033957556
26	0x3eae3f22	0.34032542
27	0x3e12a8e6	0.14322242
28	0x3dc07a75	0.09398357
29	0xbd271b79	-0.040797684
30	0x3dd3020b	0.10303124
31	0xbdf8b716	-0.12144296
32	0xbdb3d8c9	-0.08781583
33	0x3d548d52	0.051892586
34	0x3d0263f8	0.03183362
35	0xbdf55acb	-0.11980208
36	0x3e2e695d	0.1703238
37	0xbf1e8a63	-0.6192991
38	0xbdc2b675	-0.09507457
39	0xbe36f58a	-0.17867103
40	0x3e1c3f63	0.15258555
41	0x3de47550	0.11155188
42	0x3d612479	0.054966424
43	0xbd30d42c	-0.043171093
44	0xbfbd143b	-1.4771799
45	0xbfbd3694	-1.4782281
46	0xbdb9b236	-0.09067194
47	0xbfbe04bf	-1.4845198
48	0xbf49b207	-0.78787273
49	0xbc262e1d	-0.01014283
50	0x3e2c591f	0.16830872
51	0x3d0bc492	0.03412301
52	0xbe2648f9	-0.16238774
53	0x3cefdbd7	0.029279632
54	0xbe317ede	-0.17333552
55	0x4078987e	3.8843074
56	0x3e290eec	0.16509598
57	0x3d8e58f2	0.06950559
58	0x3e04b10e	0.12958166
59	0xbeb2929d	-0.34877482
60	0x3cda85c8	0.02667512
61	0x3d39fd77	0.04540774
62	0x3edde4c9	0.43338612
63	0xbdcc30fd	-0.09970281
64	0xbda1610e	-0.0787984
65	0x3de3d1d8	0.11124009
66	0x3e36145a	0.17781201
67	0xbcb437a6	-0.021999191
68	0x3ec13fea	0.37744075
69	0x3e68f427	0.22749387
70	0x3e5d6eef	0.21624349
71	0xbdb20a20	-0.086933374
72	0xbf71f1b5	-0.9450944
73	0x3e91fe41	0.28514293
74	0x3deb55bd	0.11490963
75	0x3e1e7277	0.15473352
76	0x3e40d877	0.18832575
77	0x3e1f8d68	0.15581286
78	0x3e332854	0.17495853
79	0x3cf3a874	0.02974341
80	0x3be07819	0.0068502543
81	0x3d7e40a3	0.06207336
82	0x3f009745	0.5023082
83	0xbfc4ffb6	-1.5390537
84	0xbdf7014b	-0.120607935
85	0x3e6aae7b	0.22918122
86	0x3e26130c	0.16218203
87	0x3d24d2d2	0.040240116
88	0xbf99cf0f	-1.2016314
89	0xbcc12488	-0.02357699
90	0xbd235acd	-0.039881516
91	0x3e23fb39	0.16013803
92	0xbfc9b57e	-1.5758512
93	0xbdf140dc	-0.11779949
94	0x3b8f2ba3	0.0043692156
95	0x3dfbca7e	0.12294482
96	0xbdc4e9cc	-0.09614906
97	0x3e5aba79	0.21360196
98	0xbc9779ca	-0.01849069
99	0xbb38a114	-0.0028172182
100	0x3ce857dc	0.028362207
101	0xbc159e4e	-0.009131981
102	0xbe59fe93	-0.21288519
103	0xbc4ff290	-0.012692109
104	0xbd068a10	-0.03284651
105	0xbde84500	-0.11341286
106	0x3daeeafa	0.08540912
107	0xbe01836a	-0.12647787
108	0x3e029d21	0.12755252
109	0xbdc4a2d4	-0.096013695
110	0xbe754f30	-0.23955989
111	0x3da081c3	0.0783725
112	0xbe02937f	-0.12751578
113	0x3dd7c69b	0.10535928
114	0xbd896bff	-0.06710052
115	0x3e5d83ba	0.21632281
116	0x3d68db30	0.05684966
117	0x3b47408a	0.0030403459
118	0x3dca15d6	0.09867446
119	0xbde37adf	-0.1110742
120	0xbdb1ee8c	-0.08688077
121	0xbe1a9d4c	-0.15099066
122	0x3d730d60	0.059338927
123	0x3e269366	0.16267166
124	0x3e0967f1	0.13418557
125	0xbcba061b	-0.02270799
126	0x3b6a59dc	0.0035759127
127	0xbd8d38a4	-0.06895569
128	0x3d95d0bf	0.07315206
129	0x3d880a4a	0.066425875
130	0xbf8a6d29	-1.0814563
131	0xbd11eeba	-0.035628058
132	0x3d5b56ba	0.053549506
133	0x3d1480c2	0.036255606
134	0xbe1dafdc	-0.15399116
135	0xbd1d091c	-0.038338766
136	0x3dec9a48	0.11552864
137	0x3cd7a416	0.02632336
138	0xbde6ecca	-0.11275633
139	0x3e8451f2	0.2584377
140	0x3e23fb9f	0.16013955
141	0x3dc7d9bf	0.09758329
142	0x3da0bd0f	0.0784856
143	0xbea48af2	-0.32137257
144	0x3d4c69ae	0.04990547
145	0x3e8d86c3	0.27641878
146	0x3f122621	0.5708943
147	0x3dc3bdc4	0.09557679
148	0x3c8a6b87	0.016896976
149	0x3bccdf33	0.0062521934
150	0x3e6979d7	0.22800384
151	0x3d06d601	0.032918934
152	0xbca4b5fd	-0.02010631
153	0xbf9cb67a	-1.2243187
154	0xbdc1ce32	-0.09463157
155	0xbe54f9e6	-0.20798454
156	0xbe0959b7	-0.1341313
157	0x3e283c54	0.16429263
158	0x3e75c9f7	0.24002825
159	0x3ca99883	0.020702606
160	0xbd4fb80d	-0.050712634
161	0x3df8e213	0.12152495
162	0x3d7b9bb3	0.061427783
163	0x403992a1	2.8995745
164	0x3d4080ff	0.04699802
165	0x3cdeba50	0.02718845
166	0xbd6d6123	-0.057953965
167	0xbd82de27	-0.063900284
168	0xbe1d8fbe	-0.15386865
169	0xc0000bbd	-2.0007164
170	0xbd6822c4	-0.05667378
171	0x3d30a606	0.043127082
172	0xbc6d52a6	-0.014485037
173	0x3da0c470	0.078499675
174	0xbe41c692	-0.18923405
175	0xbde0f466	-0.10984115
176	0x3d209532	0.039204784
177	0xc0092344	-2.1427774
178	0x3f03dda9	0.515101
179	0xbe3b3d6b	-0.18285148
180	0x3dc79a3c	0.09746215
181	0xbcc747c5	-0.024326215
182	0x3e53062d	0.20607825
183	0xbd91ad46	-0.071131274
184	0x3de6c183	0.11267378
185	0x4061d374	3.528531
186	0x3eb47c83	0.35251245
187	0xbd6f2e40	-0.058393717
188	0x3ebf5ce2	0.3737555
189	0xbdae7508	-0.08518416
190	0x3c5d1db4	0.013495851
191	0xbfb2db1e	-1.3973119
192	0x3d8dc7e3	0.06922891
193	0x3ce17e2e	0.027525987
194	0xbc0e3d36	-0.008681586
195	0x3dabf2d1	0.08395923
196	0x3e3ed3b1	0.18635441
197	0x3dbd935b	0.092566215
198	0xbf0f7894	-0.5604336
199	0x3e410f5d	0.18853517
200	0xbdfe098a	-0.12404163
201	0x3c896a60	0.016774356
202	0x3dbcc650	0.092175126
203	0x3cc9bc0c	0.0246258
204	0x3e2d4af6	0.16923127
205	0x3e0541c5	0.1301337
206	0x3ec37aea	0.38179713
207	0x3d596411	0.053073946
208	0xbcf85089	-0.03031184
209	0x3dc7246b	0.09723743
210	0x3ef6d64c	0.4821037
211	0x3df0e935	0.11763231
212	0x3e443459	0.19160594
213	0xbf6ed022	-0.93286335
214	0x3e531f6f	0.2061746
215	0x3ea61347	0.32436582
216	0x3d1cc76d	0.038276125
217	0xbe2e23b2	-0.17005804
218	0x3d0fa4d1	0.03506929
219	0x3e427792	0.18990925
220	0xbd4bb820	-0.049736142
221	0xbe978898	-0.295964
222	0xbfb6de14	-1.4286523
223	0xbe1f41ee	-0.15552494
224	0x403e29f2	2.9713101
225	0xbe5419a7	-0.2071291
226	0x3dafce3b	0.08584257
227	0xbd398097	-0.04528865
228	0x3eae0734	0.3398987
229	0x3dcbfb86	0.09960084
230	0x3d928628	0.071544945
231	0xbf94c270	-1.1621838
232	0xbfa6b092	-1.3022635
233	0xbd21d184	-0.03950645
234	0xbe025d8b	-0.12730996
235	0xbf96fe82	-1.179642
236	0x3e1d8a17	0.15384708
237	0xbdd86bea	-0.10567458
238	0xbea42111	-0.32056478
239	0xbdac3664	-0.08408812
240	0x3d8d3246	0.068943545
241	0x3d85db2a	0.06535943
242	0xbc468258	-0.012116037
243	0x3e4b7212	0.19867733
244	0x3e0d19b7	0.1377934
245	0x3bf49406	0.007463935
246	0x3c69e625	0.014276062
247	0xbdf8fd13	-0.12157645
248	0x3e45001d	0.19238324
249	0xbd396b4a	-0.045268334
250	0x3e0899c3	0.13339905
251	0xbc8e7e43	-0.01739419
252	0x3d95b9a6	0.073108
253	0x3ecb2325	0.3967525
254	0x3c32c181	0.010910393
255	0x3de97b39	0.11400456

out.bias f4 [4]
0	0x3f402009	0.7504888
1	0x3f3f680d	0.74768144
2	0x3f236bd0	0.63836384
3	0x3f2d365e	0.6766108
