models/v17.1/model_139000.pth (torch, 295107 bytes, 10 tensors)

conv.0.weight f4 [16, 2, 3, 3]
0.12607807 0.05890249 -0.17136571 0.24143349 -0.14142261 0.085724145 -0.31401938 0.35352227
0.09688362 -0.027631821 0.059561014 -0.054881364 -0.07200238 0.11068104 0.039009858 -0.03390449
0.011169141 0.009988332 -0.14661044 0.2760794 0.028707182 0.22225623 -0.18288635 0.23271438
-0.84888834 -0.5303045 -0.16034582 -1.0264541 0.60483056 -1.2104974 0.20032436 -0.17113172
0.22397552 -0.042801943 0.0083493665 0.116059735 0.00025681796 0.23131223 0.12164054 -0.11979237
0.29519957 -0.06658228 0.30102614 0.16560486 0.14437935 0.08486639 0.124945104 0.02535642
0.25872484 -0.0855675 -1.4757147 -0.08269978 -0.32622698 0.056737248 0.0004625247 0.048785627
0.058654096 0.13325347 0.11208021 -0.6683058 -0.32984278 -0.3206503 0.18563841 -0.061194852
0.02448966 -0.05094021 0.31556705 -0.07380229 -0.7622588 -0.27267474 0.36641297 0.14526972
0.23256224 -0.13543068 -0.12137719 -1.2459856 -0.21929327 0.14837901 0.033270452 0.5124656
-1.1756899 -0.28549448 0.23969659 -0.7779291 0.21221353 -0.011821719 0.1766236 0.011576585
-0.07617252 -0.0017799621 -0.015974801 -0.20198302 0.44631723 0.27338374 -0.1329402 -0.118163615
0.56270933 -0.4046752 0.33882767 -0.22169353 -0.07908977 0.085730985 0.034592424 -0.37494174
-0.09498458 -0.04141766 -0.13275775 -0.33308727 -0.9882093 -0.023180567 0.35378286 0.21935031
0.05511627 -1.1043802 -0.24814014 0.10550858 -0.14311694 -0.09839035 0.021081757 -0.15731347
0.117497206 0.019802522 0.044363145 -0.82660466 -0.1659227 -0.07953046 0.1985242 -0.17985061
0.49295953 -0.09339859 0.2980884 0.09088742 0.044578034 0.40865204 -0.076035745 -1.6234002
-0.9071666 -0.8244402 0.10633527 0.046798803 -0.046510227 -0.26128992 0.19945228 -0.045628306
-0.018400274 0.10031704 0.09178619 0.31629705 0.07893497 -0.22151986 0.16437449 -0.33619484
0.041106313 -0.38276756 0.49673474 -0.44765297 0.03917086 0.24158128 0.026646266 -0.31343946
0.4232037 0.056541022 0.013602987 -0.088444285 0.15256475 0.040743392 -0.13072552 0.30067587
0.2750598 -0.06341761 -0.20709708 -0.021391066 0.20167784 -0.13098657 -1.5995542 0.01609196
-0.1701483 0.20676668 0.36330655 -0.29308042 -0.08083863 0.10978424 0.0358453 -0.116976045
0.03240067 0.08260977 0.46403447 -0.33736956 0.0035560955 0.071161546 -0.28397837 -0.107475124
0.6380566 -0.0066269436 -0.07241393 0.117516965 0.07881705 -0.12575819 0.25756082 0.16908336
-0.46601865 -0.054145582 0.13726325 0.16574945 -1.2050196 -0.22325428 -0.064427316 -1.4624457
-0.29876706 0.2604558 0.12946089 0.20804842 -0.25621453 0.09193168 0.14046867 0.043280672
-0.09796082 -0.03465612 0.058534775 -0.08255474 -0.021790355 0.22226217 -0.11910482 0.038219433
-0.25019574 0.12919246 0.21352287 0.030466385 -0.034079775 -0.9070543 -0.1828464 0.06208928
0.06905194 0.24619468 0.24532391 0.08546222 0.03486782 0.014087061 -1.4454393 -0.0133842975
-0.04953734 -0.19786544 0.09041564 0.13771862 -1.4468298 -0.17279516 -0.15003078 0.05063799
-0.16563275 0.2599145 -0.23636179 -0.05963747 0.061472144 -1.1398329 0.033889677 -0.13149108
00000000: 9c1a 013e bd43 713d 7e7a 2fbe 573a 773e
00000010: 17d1 10be 2490 af3d 26c7 a0be df00 b53e
00000020: eb6a c63d 215c e2bc 40f6 733d 48cb 60bd
00000030: fc75 93bd beac e23d cdc8 1f3d 6fdf 0abd
00000040: c6fe 363c 1aa6 233c 0c21 16be 475a 8d3e
00000050: 532b eb3c 2397 633e 8f46 3bbe ae4c 6e3e
00000060: bf50 59bf 09c2 07bf b231 24be d962 83bf
00000070: 2dd6 1a3f 94f1 9abf d421 4d3e 273d 2fbe
00000080: d759 653e 1751 2fbd c8cb 083c bab0 ed3d
00000090: 86a5 8639 1ddd 6c3e ad1e f93d b455 f5bd
000000a0: 6624 973e 4a5c 88bd 1920 9a3e 5294 293e
000000b0: 2ed8 133e 6ece ad3d 38e3 ff3d 44b8 cf3c
000000c0: 9577 843e 033e afbd 38e4 bcbf 815e a9bd
000000d0: 3907 a7be 5165 683d 047f f239 70d3 473d
000000e0: 473f 703d 9973 083e 4f8a e53d 1716 2bbf
000000f0: 27e1 a8be 472c a4be ff17 3e3e 74a7 7abd
00000100: 8a9e c83c afa6 50bd 0192 a13e a825 97bd
00000110: 6523 43bf 069c 8bbe 7b9a bb3e 96c1 143e
00000120: cc24 6e3e 57ae 0abe 9b94 f8bd 757c 9fbf
00000130: 6a8e 60be abf0 173e 9946 083d f230 033f
00000140: 027d 96bf 552c 92be 0673 753e 5d26 47bf
00000150: 814e 593e e2af 41bc d1dc 343e b7ab 3d3c
00000160: 5700 9cbd 9e4d e9ba 96dd 82bc a3d4 4ebe
00000170: b183 e43e f4f8 8b3e 7a21 08be c4ff f1bd
00000180: b80d 103f 9631 cfbe d27a ad3e a103 63be
00000190: d1f9 a1bd ba93 af3d c9b0 0d3d 5df8 bfbe
000001a0: 4787 c2bd 90a5 29bd a6f1 07be 6a8a aabe
000001b0: 49fb 7cbf 2ce5 bdbc 0723 b53e 5e9d 603e
000001c0: 99c1 613d 555c 8dbf 7318 7ebe e214 d83d
000001d0: 3f8d 12be e180 c9bd a6b3 ac3c c816 21be
000001e0: 60a2 f03d e638 a23c 21b6 353d 5d9c 53bf
000001f0: a4e7 29be dee0 a2bd ee49 4b3e c22a 38be
00000200: 3165 fc3e c347 bfbd 0b9f 983e 2f23 ba3d
00000210: 7597 363d d73a d13e a1b8 9bbd 94cb cfbf
00000220: 123c 68bf 830e 53bf 4ec6 d93d 1ab0 3f3d
00000230: 8281 3ebd cbc7 85be 383d 4c3e bfe4 3abd
00000240: 2cbc 96bc 0573 cd3d 66fa bb3d b0f1 a13e
00000250: a8a8 a13d 1ad6 62be c951 283e bb21 acbe
00000260: 185f 283d 1cfa c3be 0454 fe3e c532 e5be
00000270: a071 203d 1561 773e 4549 da3c 237b a0be
00000280: 28ae d83e 8f97 673d 10df 5e3c 4722 b5bd
00000290: ef39 1c3e 8be2 263d e9dc 05be 30f2 993e
000002a0: a3d4 8c3e 18e1 81bd 4211 54be 513c afbc
000002b0: a384 4e3e 5821 06be 31be ccbf 49d3 833c
000002c0: 5b3b 2ebe a5ba 533e 5103 ba3e a30e 96be
000002d0: b98e a5bd 8fd6 e03d 85d2 123d 2391 efbd
000002e0: 91b6 043d 502f a93d ed95 ed3e b4bb acbe
000002f0: 620d 693b 25bd 913d 9d65 91be eb1b dcbd
00000300: ad57 233f d526 d9bb c14d 94bd bcac f03d
00000310: d56a a13d c1c6 00be 03df 833e 3024 2d3e
00000320: ff99 eebe c2c7 5dbd bd8e 0c3e 39ba 293e
00000330: 153e 9abf c59c 64be 78f2 83bd 6c31 bbbf
00000340: fff7 98be 765a 853e 6591 043e a50a 553e
00000350: 8d2e 83be ad46 bc3d 05d7 0f3e 1347 313d
00000360: af9f c8bd 93f3 0dbd 29c2 6f3d 7612 a9bd
00000370: b081 b2bc b298 633e 3aed f3bd fb8b 1c3d
00000380: a819 80be 074b 043e bda5 5a3e a494 f93c
00000390: 3c97 0bbd b634 68bf 163c 3bbe 5451 7e3d
000003a0: 1b6b 8d3d 751a 7c3e 3136 7b3e d106 af3d
000003b0: 8fd1 0e3d 6bcd 663c 2804 b9bf d049 5bbc
000003c0: aae7 4abd 3d9d 4abe d62b b93d 1c06 0d3e
000003d0: b831 b9bf 37f1 30be aba1 19be c869 4f3d
000003e0: a29b 29be 8313 853e d308 72be 6b46 74bd
000003f0: 37ca 7b3d 0be6 91bf e7cf 0a3d 99a5 06be

conv.0.bias f4 [16]
-0.020465853 0.084778965 -0.02471631 -0.04986635 -0.060990997 -0.32473004 0.22330181 -0.33274147
-0.2142671 -0.07467287 -0.40113297 -0.03553851 3.0496769e-05 0.09677882 -0.124806106 0.08891214
00000000: 01a8 a7bc 98a0 ad3d dc79 cabc a840 4cbd
00000010: b2d1 79bd 0443 a6be 3ba9 643e 175d aabe
00000020: d668 5bbe 17ee 98bd 4d61 cdbe d490 11bd
00000030: 50d3 ff37 f933 c63d 589a ffbd 9117 b63d

conv.2.weight f4 [32, 16, 3, 3]
-0.037763882 0.12093525 -0.13026412 0.22528689 0.042555764 0.11100735 0.19497453 0.16343221
-0.103015915 0.1881002 0.029437806 -0.044948343 -0.14968501 0.05523126 0.0065048686 0.061360016
-0.0037077884 -0.1665717 0.0055002687 0.14742072 -0.16573335 -0.38379934 0.27274007 -0.944712
-0.104181 -0.031243697 0.050963502 0.04727032 -0.10835584 -0.18676011 0.049739845 -0.3251978
-0.096063696 -0.13057943 0.11749146 0.12091778 0.12858842 0.044007912 0.12935986 0.046542913
0.030821098 -0.2630707 0.22997312 -0.21727182 -0.0901458 0.24994375 0.14789344 -0.3569976
0.44684416 -0.32745084 -0.20079769 0.11924933 0.077244066 -0.10476144 -0.3139381 -0.050796185
-0.37043685 0.057595752 -0.2601272 -0.08348866 -0.06413899 0.17646638 0.10614035 0.08776241
-0.17853987 0.08415062 0.040996797 -0.23244442 0.2420237 0.069778614 -0.31121054 -0.57185125
-0.2740116 0.09859171 0.43556687 0.09853791 0.02668995 0.2882697 0.0961988 0.13589086
0.02837174 0.05073359 -0.33078587 0.24538104 -0.067794 -0.10406739 -0.09536942 0.030849978
0.16329351 0.25990194 0.21086833 -0.01194886 0.2648584 -0.069659 -0.046296783 -0.3342526
0.19805841 0.17106295 -0.22364554 -0.039628785 -0.032903723 -0.29936555 -0.19626701 -0.08458636
-0.11489408 0.1037339 -0.14342755 -0.05277536 0.005224085 -0.017625896 -0.076802716 -0.016483607
-0.33397692 -0.061321624 0.031607248 0.015987342 -0.08884291 -0.17035717 -0.7248378 0.09165983
-0.12225961 -0.17727591 -0.21895163 -0.75206685 0.093363106 0.0775553 0.17901339 0.008222388
0.097642094 0.15975593 -0.17692235 -0.19766273 0.070623755 0.017198047 0.16681537 0.06655529
-0.022966782 0.069738194 0.15317161 0.16781965 -0.043017257 0.10077236 -0.37359598 0.07962172
0.024674496 0.12512754 -0.009653251 0.07431152 -0.27006605 -0.13054004 -0.029617362 0.044824533
-0.038635243 0.045209568 0.1146594 0.00017788183 -2.588672 0.06228064 0.06283177 -0.12086089
0.13371192 -0.060015544 -0.0059037823 0.034788027 -0.045491204 0.15383391 0.046913642 0.09125083
0.025515072 0.15725082 -0.08347115 -0.04559354 -0.27652448 0.16977066 -0.16663048 0.20904805
-0.0038791343 -0.37417823 -0.1700215 0.22103158 -0.28911704 -0.28809646 -0.6430731 -0.30208784
0.18456627 0.3240693 -0.07383039 0.0851183 -0.031129118 -0.08358118 -0.11614689 -0.0071382057
0.05392276 0.13212185 -0.34945044 -0.27110195 -0.3342016 -0.05108778 0.00069345086 -0.063432805
0.24871637 0.039224714 -0.2105674 -0.8346413 0.08179749 0.08538939 0.42296094 -0.00019695557
-0.043584034 -0.2323308 0.122026525 -0.28755993 -0.16222069 0.23234381 -0.22990234 0.022990275
-0.05183656 0.050813932 -0.031362258 0.22344603 0.19963673 -0.44967997 0.21803093 0.19939765
0.22033241 0.22907849 -0.0012737132 0.067157656 0.09278627 0.17850958 -0.009107057 0.08120308
-0.0513323 0.18042055 0.13907157 0.19034022 -0.44350684 -0.09069596 -0.09416673 0.18377553
-0.017603595 -0.2520729 0.26926926 -0.007433659 0.3162544 -0.0610621 0.1906333 0.11514686
-0.13725913 0.17256807 0.06255584 -0.22024353 0.3027657 0.018404925 0.16924083 0.119721726
00000000: 4dae 1abd e6ac f73d f563 05be 9bb1 663e
00000010: f44e 2e3d d257 e33d 67a7 473e c65a 273e
00000020: 02fa d2bd 579d 403e 8e27 f13c c11b 38bd
00000030: 0747 19be 2c3a 623d cb26 d53b a454 7b3d
00000040: 5efe 72bb c691 2abe 993b b43b 75f5 163e
00000050: 01b6 29be 5981 c4be 96a4 8b3e a5d8 71bf
00000060: d95c d5bd c8f2 ffbc 1bbf 503d 869e 413d
00000070: abe9 ddbd 0b3e 3fbe 02bc 4b3d 5380 a6be
00000080: 0bbd c4bd 9db6 05be 5d9f f03d bea3 f73d
00000090: afac 033e a441 343d e976 043e c8a3 3e3d
000000a0: 877c fc3c 34b1 86be 137e 6b3e 817c 5ebe
000000b0: 5c9e b8bd 41f1 7f3e 6171 173e 64c8 b6be
000000c0: c2c8 e43e a3a7 a7be e99d 4dbe fe38 f43d
000000d0: 2332 9e3d 2a8d d6bd 7fbc a0be a90f 50bd
000000e0: e6a9 bdbe 86e9 6b3d 642f 85be 1afc aabd
000000f0: 4e5b 83bd 9ab3 343e 1d60 d93d c7bc b33d
00000100: 28d3 36be 2957 ac3d 42ec 273d e905 6ebe
00000110: 10d5 773e 17e8 8e3d fd56 9fbe d864 12bf
00000120: 404b 8cbe 73ea c93d 9f02 df3e 3ece c93d
00000130: e2a4 da3c 1698 933e e003 c53d f926 0b3e
00000140: da6b e83c 06ce 4f3d c45c a9be 2b45 7b3e
00000150: 95d7 8abd 4921 d5bd 0b51 c3bd 18b9 fc3c
00000160: 6a36 273e de11 853e deed 573e 27c5 43bc
00000170: 859b 873e 61a9 8ebd b2a1 3dbd 2823 abbe
00000180: d3cf 4a3e 202b 2f3e 5603 65be cb51 22bd
00000190: 0ec6 06bd 7146 99be 38fa 48be 9d3b adbd
000001a0: 964d ebbd 7072 d43d acde 12be fa2a 58bd
000001b0: cd2e ab3b 2f64 90bc be4a 9dbd a108 87bc
000001c0: 06ff aabe 622c 7bbd 9a76 013d e3f7 823c
000001d0: 46f3 b5bd 1c72 2ebe f88e 39bf 26b8 bb3d
000001e0: 3f63 fabd d187 35be db34 60be 7487 40bf
000001f0: 2835 bf3d 50d5 9e3d 494f 373e 32b7 063c
00000200: 94f8 c73d 0f97 233e 222b 35be 1968 4abe
00000210: 30a3 903d ebe2 8c3c a6d1 2a3e 244e 883d
00000220: d524 bcbc e6d2 8e3d 05d9 1c3e ead8 2b3e
00000230: dd32 30bd bd61 ce3d f947 bfbe b610 a33d
00000240: 2b22 ca3c 6f21 003e ab28 1ebc a330 983d
00000250: 1946 8abe 4aac 05be 1ca0 f2bc ee99 373d
00000260: fd3f 1ebd ab2d 393d 8cd2 ea3d ca85 3a39
00000270: cdac 25c0 fc19 7f3d f1ad 803d ea85 f7bd
00000280: c7eb 083e dcd2 75bd 8474 c1bb e47d 0e3d
00000290: fc54 3abd a386 1d3e 8528 403d b7e1 ba3d
000002a0: fc04 d13c 5c06 213e ecf2 aabd 4bc0 3abd
000002b0: 9e94 8dbe 5cd8 2d3e 2ea1 2abe b110 563e
000002c0: 1339 7ebb 4a94 bfbe 1e1a 2ebe 1a56 623e
000002d0: 2607 94be 6181 93be 70a0 24bf 42ab 9abe
000002e0: f1fe 3c3e 69ec a53e 6334 97bd 8152 ae3d
000002f0: 7e02 ffbc 9c2c abbd 6cde edbd 9ce7 e9bb
00000300: 1dde 5c3d f34a 073e 2beb b2be e0cd 8abe
00000310: 791c abbe 6c41 51bd b3c8 353a 0fe9 81bd
00000320: 81af 7e3e 18aa 203d fb9e 57be 0dab 55bf
00000330: 7185 a73d a2e0 ae3d 568e d83e dc85 4eb9
00000340: 2c85 32bd 20e8 6dbe 0be9 f93d 0e3b 93be
00000350: 2e1d 26be 89eb 6d3e 856b 6bbe 1a56 bc3c
00000360: 9352 54bd 4522 503d b675 00bd 09cf 643e
00000370: 926d 4c3e 743c e6be 8043 5f3e e62e 4c3e
00000380: d29e 613e 8d93 6a3e b9f2 a6ba f489 893d
00000390: ba06 be3d 37cb 363e c435 15bc cd4d a63d
000003a0: d141 52bd 2ac0 383e c768 0e3e 8ce8 423e
000003b0: 5413 e3be cebe b9bd 7dda c0bd a72f 3c3e
000003c0: 6a35 90bc b30f 81be a9dd 893e 0d96 f3bb
000003d0: 19ec a13e 411c 7abd 6035 433e 1ed2 eb3d
000003e0: a88d 0cbe afb5 303e 471d 803d 8587 61be
000003f0: 1b04 9b3e edc5 963c 784d 2d3e aa30 f53d

conv.2.bias f4 [32]
0.15697272 -0.030384777 -0.25336668 -0.23249935 0.09455646 -0.12121922 0.11310625 -0.16120839
-0.028432202 -0.08389138 0.060377225 0.08671698 -0.117455624 -0.00042313017 0.037668332 -0.1349595
0.12255969 0.026448801 0.054976985 -0.26006433 -0.073809326 0.17930105 -0.32418844 0.09582347
0.11158982 0.1657004 -0.102847114 0.02872957 0.11341132 0.045055956 -0.045105528 -0.07356176
00000000: 75bd 203e 7fe9 f8bc 47b9 81be 4f14 6ebe
00000010: d1a6 c13d c841 f8bd 40a4 e73d d013 25be
00000020: a6ea e8bc 3ecf abbd 1c4e 773d ac98 b13d
00000030: 938c f0bd 92d7 ddb9 1c4a 1a3d d332 0abe
00000040: 9300 fb3d 28ab d83c 8c2f 613d 2727 85be
00000050: 5829 97bd b29a 373e 07fc a5be 183f c43d
00000060: 3489 e43d 5ead 293e 82a1 d2bd 465a eb3c
00000070: 3244 e83d 988c 383d 93c0 38bd 8ca7 96bd

conv.4.weight f4 [64, 32, 5, 5]
-0.017138988 -0.1884268 0.054627635 -0.028913686 0.023058796 -0.11096862 -0.08319248 0.12001146
-0.16492108 0.032310624 0.1922464 0.0335736 0.07209244 -0.1370488 -0.062692486 -0.47018233
0.13303079 -0.16457067 0.46960026 -0.40918267 0.023244742 -0.05169439 -0.061727133 0.058578618
-0.21677823 -0.13632393 -0.3445769 0.16804615 0.19445993 -0.14282535 -0.2444744 0.034992862
-0.4254127 0.13179877 -0.027991535 0.25043792 -0.44739547 0.1985904 0.3106433 -0.6381223
-0.1085215 0.07542848 0.062464442 -0.0547003 0.18979509 -0.08191478 -0.012801306 0.08825505
-0.08512061 0.054602943 -0.3447948 0.1490928 -0.13505249 -0.4519654 0.55140334 0.20793597
-0.09312108 -0.33284333 0.065576345 -0.557454 -0.5108686 0.054938182 -0.3832794 -0.22632512
-0.11028118 0.07126886 -0.03821157 0.5357213 0.09037352 0.040884025 -0.05192702 0.10983604
0.22599785 0.06546424 -0.12726699 0.039741468 -0.04800286 -0.1843261 -0.09534115 -0.02386025
0.13391605 0.0284473 -0.10550683 0.47546595 -0.18092623 -0.18279175 0.051099584 -0.24720441
0.17767741 0.4747657 -0.034687176 0.2371057 -0.16274862 -0.26985192 0.16397464 0.35161224
0.14103733 -0.17587927 0.32337624 -0.14272745 0.18280284 -0.20065233 -0.15426242 -0.14483981
-0.03222284 0.12333611 0.08098365 -0.06729322 -0.22185183 0.14535181 0.030503523 0.19476758
0.14629358 0.27183986 0.1488504 -0.34263736 0.069683 -0.1230322 0.2509604 0.17797802
0.10308718 -0.35303298 0.13784298 -0.21485612 0.30833358 0.52265877 -0.035054725 0.16806102
-0.07443299 -0.09332818 0.044923276 -0.22043875 0.16983993 -0.059975356 -0.3302966 -0.07295919
0.12619586 -0.06665587 0.40562633 -0.013633638 -0.5144616 -0.1441343 0.055214927 0.03218837
-0.10107279 -0.4227513 0.11182224 0.21703985 -0.02319681 -0.29079425 -0.345714 0.3649316
-0.3246281 0.033869073 -0.13705242 -0.18800128 -0.38536486 -0.07136864 0.030472418 -0.12935716
0.021049315 0.20321432 -0.3889807 0.10028391 0.5140988 0.18013452 -0.1413489 0.055398855
-0.59827435 0.32982025 0.2134117 -0.3630941 0.039724328 -0.28112948 0.0478321 -0.1114804
0.09744643 0.3863759 -0.025726318 -0.09173942 -0.37821952 0.12007545 -0.0017992167 -0.16755006
0.23410854 -0.41135496 0.2125733 -0.29069805 -0.34091926 -0.05542123 -0.45146218 -0.08962275
0.11100413 -0.101276994 0.0469952 -0.023573104 -0.04313315 -0.25463596 0.052084155 0.1108295
-0.07319335 -0.009513232 -0.24495612 -0.41804942 0.008191017 0.46805137 0.0213713 -0.13022318
0.03406346 -0.02325042 0.024174398 -0.17826478 -0.059353877 -0.04364643 -0.021174258 -0.14028074
0.06181268 0.34043908 0.18803695 -0.13208798 -0.14146698 -0.22038005 0.07347356 0.14058138
-0.04174324 -0.017349325 -0.07168084 0.17462818 -0.016115956 -0.011750631 -0.047148343 0.20089339
-0.2733253 0.47601926 -0.041218802 -0.2032767 -0.13293026 0.33786252 -0.15437524 0.023138776
0.17862278 0.021611527 -0.04638623 0.26778075 -0.108976744 0.4200188 -0.026616871 -0.21838748
-0.02414192 0.052856762 -0.24745297 0.18158904 -0.35282072 -0.05995025 0.14367722 0.18912944
00000000: 1067 8cbc f4f2 40be 3ac1 5f3d 65dc ecbc
00000010: cde5 bc3c 8443 e3bd d260 aabd 91c8 f53d
00000020: 12e1 28be 2558 043d 3edc 443e 7984 093d
00000030: 34a5 933d 8556 0cbe eb64 80bd bdbb f0be
00000040: 3939 083e 3785 28be 726f f03e 6480 d1be
00000050: c26b be3c 7fbd 53bd 97d5 7cbd 22f0 6f3d
00000060: 1dfb 5dbe 8098 0bbe 626c b0be 4a14 2c3e
00000070: 8120 473e cf40 12be 7f57 7abe ad54 0f3d
00000080: b2cf d9be 42f6 063e 814e e5bc 6639 803e
00000090: 0511 e5be 485b 4b3e a30c 9f3e fc5b 23bf
000000a0: 8540 debd 3f7a 9a3d b7da 7f3d 6c0d 60bd
000000b0: a559 423e f0c2 a7bd 92bc 51bc 10bf b43d
000000c0: b753 aebd 56a7 5f3d f288 b0be c8ab 183e
000000d0: 334b 0abe 0268 e7be c528 0d3f 2bed 543e
000000e0: 44b6 bebd 716a aabe e44c 863d 4eb5 0ebf
000000f0: 49c8 02bf dc06 613d 333d c4be c6c1 67be
00000100: 19db e1bd 68f5 913d bc83 1cbd 0825 093f
00000110: c115 b93d 0276 273d 6db1 54bd b8f1 e03d
00000120: fb6b 673e 1e12 863d 4752 02be f3c7 223d
00000130: a69e 44bd fbbf 3cbe 3942 c3bd 9276 c3bc
00000140: 4a21 093e 500a e93c f713 d8bd 4670 f33e
00000150: ba44 39be c32d 3bbe cc4d 513d 2723 7dbe
00000160: 11f1 353e 7d14 f33e 2414 0ebd d6cb 723e
00000170: 93a7 26be 082a 8abe f8e8 273e 8506 b43e
00000180: 176c 103e b219 34be 9291 a53e 2527 12be
00000190: ab30 3b3e ce77 4dbe f8f6 1dbe e350 14be
000001a0: 19fc 03bd a497 fc3d c2da a53d 07d1 89bd
000001b0: 202d 63be 1bd7 143e 86e2 f93c 2771 473e
000001c0: fccd 153e 982e 8b3e 3d6c 183e 2a6e afbe
000001d0: f6b5 8e3d 4ef8 fbbd e27d 803e df3f 363e
000001e0: 5f1f d33d bdc0 b4be b626 0d3e 3e03 5cbe
000001f0: e6dd 9d3e f7cc 053f 8b95 0fbd 3018 2c3e
00000200: 5370 98bd d822 bfbd 7801 383d b2ba 61be
00000210: 85ea 2d3e b8a8 75bd a31c a9be a16b 95bd
00000220: 7d39 013e df82 88bd 41ae cf3e 9f5f 5fbc
00000230: c1b3 03bf f197 13be 0c29 623d f4d7 033d
00000240: 40ff cebd dc72 d8be 0f03 e53d b23f 5e3e
00000250: 3d07 bebc fce2 94be 6d01 b1be 51d8 ba3e
00000260: a835 a6be 4cba 0a3d 7857 0cbe 6883 40be
00000270: 8b4e c5be b929 92bd 4ba1 f93c 3476 04be
00000280: 9d6f ac3c 6a17 503e 7a28 c7be a761 cd3d
00000290: fb9b 033f 2f75 383e c4bd 10be e9e9 623d
000002a0: 8228 19bf 33de a83e 9988 5a3e 78e7 b9be
000002b0: fab5 223d 34f0 8fbe 98eb 433d d64f e4bd
000002c0: fe91 c73d 10d3 c53e 00c0 d2bc e1e1 bbbd
000002d0: fda5 c1be 1eea f53d b2d3 ebba 3e92 2bbe
000002e0: 26ba 6f3e 1e9d d2be d1ac 593e 60d6 94be
000002f0: f88c aebe 5f01 63bd 0d26 e7be 228c b7bd
00000300: 2256 e33d 506a cfbd 0a7e 403d 621c c1bc
00000310: 63ac 30bd a55f 82be 3256 553d 94fa e23d
00000320: 65e6 95bd 63dd 1bbc c7d5 7abe 930a d6be
00000330: 9e33 063c 6ea4 ef3e dd12 af3c 3a59 05be
00000340: 2086 0b3d aa77 bebc 6309 c63c 0b8b 36be
00000350: 0d1d 73bd 99c6 32bd a375 adbc c1a5 0fbe
00000360: 4b2f 7d3d 084e ae3e c28c 403e 1242 07be
00000370: b8dc 10be 4fab 61be 4e79 963d 91f4 0f3e
00000380: f6fa 2abd 2c20 8ebc 67cd 92bd bbd1 323e
00000390: 9c05 84bc b885 40bc 9f1e 41bd ffb6 4d3e
000003a0: 4bf1 8bbe ccb8 f33e 0cd5 28bd c427 50be
000003b0: df1e 08be 51fc ac3e 8b14 1ebe 888d bd3c
000003c0: e4e8 363e a80a b13c 7dff 3dbd 8f1a 893e
000003d0: 332f dfbd b40c d73e a00b dabc f8a0 5fbe
000003e0: 47c5 c5bc 5580 583d 5064 7dbe 7af2 393e
000003f0: eba4 b4be 658e 75bd 1f20 133e 26ab 413e

conv.4.bias f4 [64]
-0.12751244 -0.12151947 0.0007441659 0.0034815385 -0.14889622 -0.24213822 -0.04421763 -0.049756415
0.22596936 -0.03533419 0.14155118 -0.048658684 0.0015831387 -0.042151846 -0.11032267 -0.073571175
-0.022608124 0.006859319 0.13264605 -0.08757326 0.17944968 -0.07790515 -0.042251635 -0.16020164
-0.17037478 0.38938436 -0.057083115 0.09293637 -0.02865284 -0.053066894 -0.03944383 -0.0076848133
-0.092093274 -0.039227862 -0.009865619 0.23667805 0.12976685 0.13325441 -0.11263502 -0.05574078
0.12937132 -0.04898506 -0.051018503 -0.038507696 -0.035992034 -0.03673195 0.035486598 0.36558828
-0.039750334 -0.015811734 0.021683097 0.014893382 0.31101176 0.31667802 -0.07220171 0.10211096
0.15738642 -0.11946424 -0.03818444 -0.17778024 0.42788982 0.028610785 -0.16467635 0.1663122
00000000: 9f92 02be 33df f8bd 2114 433a 862a 643b
00000010: 4078 18be 15f3 77be 8c1d 35bd 62cd 4bbd
00000020: 8364 673e 95ba 10bd cbf2 103e 544e 47bd
00000030: 5281 cf3a 6aa7 2cbd daf0 e1bd 7cac 96bd
00000040: ac34 b9bc 23c4 e03b 5ed4 073e 9c59 b3bd
00000050: a8c1 373e bc8c 9fbd 0d10 2dbd e60b 24be
00000060: ba76 2ebe 635d c73e fccf 69bd 6c55 be3d
00000070: 5cb9 eabc ac5c 59bd da8f 21bd e3d0 fbbb
00000080: 669b bcbd 65ad 20bd 68a3 21bc bb5b 723e
00000090: 9ae1 043e d873 083e 30ad e6bd 7250 64bd
000000a0: ea79 043e 8fa4 48bd c7f8 50bd 3fba 1dbd
000000b0: 626c 13bd 3e74 16bd 655a 113d 632e bb3e
000000c0: 3fd1 22bd 9c87 81bc c0a0 b13c 5f03 743c
000000d0: ef3c 9f3e 9f23 a23e 7dde 93bd 8d1f d13d
000000e0: e829 213e aba9 f4bd 4a67 1cbd 060c 36be
000000f0: 6014 db3e 2a61 ea3c eba0 28be bf4d 2a3e

conv.7.weight f4 [64, 256]
-0.044654515 -0.069953635 0.023158032 0.017174467 0.029198108 -0.04856284 0.041057102 -0.06815597
-0.005415908 -0.053328425 0.027969036 -0.012859401 -0.061445944 0.031240284 0.0076227263 0.039905697
-0.0141301425 0.039311733 0.0014005792 -0.064841345 -0.0006486537 0.005878964 0.008783588 -0.048710052
0.02225402 0.036468565 -0.04809864 0.015289672 0.013958044 -0.048098683 -0.02349525 -0.013261728
-0.046375312 -0.026359959 -0.04277242 -0.041005522 0.018178606 -0.05581508 -0.024609767 0.00896222
-0.014154243 -0.021616478 -0.08595032 -0.008133339 0.023385204 0.01643245 0.031449907 -0.028983623
-0.017767299 0.005582091 0.018170238 0.04966384 -0.05326198 0.04536473 0.009349339 -0.035593122
-0.043577198 -0.059823077 -0.053729787 0.04354391 -0.018430134 -0.037150368 0.0008796584 -0.028610386
-0.0520972 -0.02213984 -0.0012932792 0.03904041 -0.07212652 -0.018863065 0.031157533 -0.065414585
0.03167716 0.023047116 -0.021294858 -0.00013949722 -0.024029752 -0.0060606776 0.012348583 -0.044010803
-0.011321391 -0.09283748 -0.076895565 0.03187655 -0.022349887 0.039835945 -0.010068841 -0.04441767
-0.053775974 0.01720865 0.002624005 -0.054284424 0.045761928 0.032037243 -0.049148455 -0.0424341
0.002579333 -0.03524851 -0.022962792 -0.07968549 -0.052881137 -0.049753662 0.026424058 -0.06626357
0.022026405 0.06029635 0.02451323 -0.010968484 -0.012557566 -0.029873392 -0.030595586 -0.037466347
0.044183113 0.013102606 0.0009892434 0.019962437 -0.027340073 0.0034442772 0.018481914 -0.0071182246
-0.0032995641 0.0030834302 0.04318142 -0.020995997 0.021933747 -0.04100422 -0.00656222 -0.025075223
-0.016599031 0.022287497 0.030111555 0.036837608 0.049648166 0.029374532 -0.0065170303 -0.056735493
-0.061799735 -0.037049644 -0.012369886 0.0033572912 -0.04087987 -0.051768363 -0.0030600582 0.0014218001
-0.02214894 -0.02680716 0.02492848 -0.038339637 -0.04297161 -0.07130922 0.025134232 -0.014866965
-0.011671469 0.02111689 -0.047851495 -0.05065212 -0.042151324 -0.036924087 0.025280185 0.0024833381
-0.042087313 0.006888457 -0.020636281 0.010404047 0.026587915 -0.013850749 -0.015320711 -0.06320259
0.0056919605 0.039817743 0.004320152 0.008239262 0.0158903 -0.046421707 -0.027263507 0.035569467
0.051254872 -0.052751068 0.009172274 -0.010722811 0.05339361 0.06099207 0.023276396 -0.032528996
-0.031471577 -0.005895297 0.034461353 -0.02685123 0.021029528 0.02580062 -0.06956728 -0.055153657
0.03441733 0.036424227 -0.039166927 -0.0064357594 0.03720863 -0.02337978 -0.046880946 0.009724557
-0.013589652 -0.05572708 -0.06222001 -0.06247253 -0.062062673 -0.030982502 0.03273181 0.057922438
-0.0071157236 -0.049823932 -0.032552 -0.046669118 0.025763541 -0.018163053 0.032719865 -0.023636213
-0.03876624 -0.0207365 -0.033103887 -0.03312613 -0.015038405 -0.02476888 0.018546881 -0.087407485
0.033447362 0.024761083 0.052190125 -0.055460837 -0.05804511 -0.06920304 -0.059648674 0.014364651
-0.06503364 -0.0315039 0.021934692 -0.061700307 -0.061806973 -0.042980563 -0.0058124918 -0.022214405
-0.00434686 0.023824431 0.011575937 0.0034570936 0.005250415 -0.00705354 -0.00466949 -0.053139012
-0.0028160182 -0.03787726 -0.056479767 0.036071308 -0.00086366385 -0.056249198 -0.0075039547 0.011015949
00000000: a7e7 36bd da43 8fbd eab5 bd3c 78b1 8c3c
00000010: df30 ef3c d4e9 46bd 7e2b 283d 5b95 8bbd
00000020: ee77 b1bb e86e 5abd 521f e53c 3db0 52bc
00000030: beae 7bbd a0eb ff3c 10c8 f93b 2874 233d
00000040: 1d82 67bc 5705 213d a493 b73a 8acb 84bd
00000050: 6a0a 2aba 53a4 c03b 0ae9 0f3c 3184 47bd
00000060: 104e b63c 1060 153d 1403 45bd 8881 7a3c
00000070: 48b0 643c 2003 45bd 1c79 c0bc b847 59bc
00000080: 0af4 3dbd d7f0 d7bc 2232 2fbd 68f5 27bd
00000090: 4deb 943c 5a9e 64bd 6c9a c9bc 46d6 123c
000000a0: 33e7 67bc 0a15 b1bc b906 b0bd b241 05bc
000000b0: 5492 bf3c 589d 863c 9ed1 003d 106f edbc
000000c0: ba8c 91bc f9e9 b63b c0d9 943c 506c 4b3d
000000d0: 3c29 5abd 5ed0 393d f82d 193c 18ca 11bd
000000e0: 017e 32bd 0b09 75bd c413 5cbd 195b 323d
000000f0: cbfa 96bc fc2a 18bd e098 663a 5460 eabc
00000100: e063 55bd 9c5e b5bc 4083 a9ba d6e8 1f3d
00000110: 12b7 93bd b786 9abc 153e ff3c 15f8 85bd
00000120: e9bf 013d 4ecd bc3c 8e72 aebc 0046 12b9
00000130: 0bda c4bc a698 c6bb b651 4a3c ac44 34bd
00000140: 5b7d 39bc 9421 bebd 6c7b 9dbd fc90 023d
00000150: 1c17 b7bc 042b 233d c8f7 24bc 4eef 35bd
00000160: 3244 5cbd 28f9 8c3c 80f7 2b3b 5859 5ebd
00000170: dc70 3b3d 7c39 033d e44f 49bd 61cf 2dbd
00000180: 070a 293b be60 10bd 771c bcbc 2532 a3bd
00000190: e499 58bd 7fca 4bbd 4477 d83c 32b5 87bd
000001a0: b870 b43c 4ef9 763d f8cf c83c 28b5 33bc
000001b0: 40be 4dbc 0bb9 f4bc 98a3 fabc 5076 19bd
000001c0: 5af9 343d 50ac 563c 80a9 813a 4488 a33c
000001d0: 4af8 dfbc 62b9 613b 6267 973c ff3f e9bb
000001e0: 803d 58bb 6013 4a3b 00df 303d ccff abbc
000001f0: 67ae b33c 0af4 27bd e407 d7bb 8e6a cdbc
00000200: b1fa 87bc 4594 b63c 82ac f63c 08e3 163d
00000210: e05b 4b3d dca2 f03c d08c d5bb 7a63 68bd
00000220: b821 7dbd 5ec1 17bd 10ab 4abc 0006 5c3b
00000230: a771 27bd 100b 54bd 428b 48bb b25b ba3a
00000240: b271 b5bc b09a dbbc d036 cc3c 060a 1dbd
00000250: 0003 30bd 910a 92bd 4ee6 cd3c 9294 73bc
00000260: b039 3fbc 54fd ac3c eeff 43bd 9978 4fbd
00000270: dea6 2cbd b63d 17bd 6418 cf3c 80bf 223b
00000280: bf63 2cbd 91b8 e13b 6b0d a9bc bc75 2a3c
00000290: e6ce d93c 40ee 62bc b803 7bbc 5c70 81bd
000002a0: a083 ba3b ee17 233d 1090 8d3b f8fd 063c
000002b0: 602c 823c b024 3ebd b857 dfbc 4ab1 113d
000002c0: a1f0 513d 8111 58bd 4e47 163c bbae 2fbc
000002d0: 42b3 5a3d d2d2 793d 24ae be3c 203d 05bd
000002e0: 57e8 00bd 562d c1bb 5927 0d3d 1cf7 dbbc
000002f0: 1e46 ac3c d25b d33c 4a79 8ebd cde8 61bd
00000300: 30f9 0c3d 9231 153d 806d 20bd 10e3 d2bb
00000310: 1468 183d f486 bfbc 3c06 40bd c053 1f3c
00000320: 22a7 5ebc 1442 64bd 69da 7ebd 32e3 7fbd
00000330: 6e35 7ebd 04cf fdbc ca11 063d 1440 6d3d
00000340: 042b e9bb 2e14 4cbd 3f55 05bd 1e28 3fbd
00000350: 100e d33c afca 94bc 4405 063d bba0 c1bc
00000360: 59c9 1ebd 98df a9bc f197 07bd 44af 07bd
00000370: a463 76bc 1be8 cabc a1ef 973c b202 b3bd
00000380: 1a00 093d c1d7 ca3c 50c5 553d e72a 63bd
00000390: b6c0 6dbd 53ba 8dbd 2b52 74bd b759 6b3c
000003a0: 5b30 85bd 3c0a 01bd 62b0 b33c 76b9 7cbd
000003b0: 4f29 7dbd 630c 30bd b776 bebb fcfa b5bc
000003c0: 1b70 8ebb 742b c33c 00a9 3d3c 6890 623b
000003d0: ac0b ac3b 6221 e7bb 8502 99bb 4ba8 59bd
000003e0: f28c 38bb 3025 1bbd 5457 67bd 82bf 133d
000003f0: 8067 62ba 8f65 66bd bce3 f5bb 3d7c 343c

conv.7.bias f4 [64]
-0.059459545 0.47414973 0.31908843 0.41728002 0.58840567 0.5345018 -0.18803646 0.24460562
0.01471877 0.35166332 -0.20891625 0.16255423 0.4752086 0.49505138 0.6315555 -0.42951435
0.2624074 0.37434873 0.8418737 0.17378896 0.13912259 0.13552451 0.39956734 0.41451874
0.06734803 -0.009112603 -0.14194936 0.07311812 0.1695445 -0.045548346 0.34166136 -0.0731511
-0.21784502 0.3213535 -0.025627248 -0.14586617 0.151368 -0.1762417 -0.0067170905 0.06993554
0.12056996 0.10934065 -0.048980515 0.1504865 0.34225664 0.15638621 0.3057019 0.22646223
0.17726633 0.24151465 -0.21350634 0.09623696 0.1937272 -0.07357712 0.33044875 -0.3341041
0.029700847 -0.30087125 0.5715709 0.031042598 0.5251019 -0.20537837 0.3850308 0.18433356
00000000: da8b 73bd c1c3 f23e 8f5f a33e baa5 d53e
00000010: c1a1 163f 1cd5 083f a18c 40be e579 7a3e
00000020: ff26 713c 370d b43e 24ee 55be 9e74 263e
00000030: 8b4e f33e 6077 fd3e 9fad 213f 4ee9 dbbe
00000040: 435a 863e a3aa bf3e 0985 573f bcf5 313e
00000050: 2776 0e3e f0c6 0a3e 1794 cc3e cd3b d43e
00000060: c4ed 893d 074d 15bc 2c5b 11be f4be 953d
00000070: 139d 2d3e e790 3abd 3dee ae3e 3ed0 95bd
00000080: c412 5fbe 7288 a43e 3cf0 d1bc f15d 15be
00000090: 3700 1b3e b478 34be 0a1b dcbb 5d3a 8f3d
000000a0: 62ed f63d feed df3d cb9f 48bd 2219 1a3e
000000b0: 433c af3e b523 203e f684 9c3e b7e5 673e
000000c0: 4e85 353e 9e4f 773e 68a1 5abe e217 c53d
000000d0: 6c60 463e 9aaf 96bd 9430 a93e b10f abbe
000000e0: 314f f33c cc0b 9abe 7852 123f 0c4d fe3c
000000f0: 146d 063f b54e 52be c222 c53e f0c1 3c3e

out.weight f4 [4, 64]
0.09323295 0.483196 -0.0012309696 0.1866148 0.30679289 0.101105675 -0.012660898 0.22537945
-0.027607962 0.14100972 0.07609243 0.12430889 0.20966576 0.0015444969 0.05325896 0.0013643282
-0.7158821 0.08121192 0.453783 0.09655887 -0.009914912 -0.0064338264 0.23139015 0.037199177
-0.18716134 -0.03546754 0.3398991 0.1479274 0.09971034 -0.02889647 0.12559353 -0.061316144
-0.109536245 0.09760669 0.031847544 -0.1321769 0.257711 -0.7142444 -0.053314596 -0.20892057
0.16997506 0.13294572 0.050607212 -0.049637027 -1.4648601 -1.4235834 -0.11518476 -1.4415383
-0.8180069 0.0011536825 0.15025984 0.035902042 -0.20849524 0.03138422 -0.14686331 3.3213668
0.15861604 0.0589806 0.14328395 -0.39246917 0.06427307 0.019037312 0.47910354 -0.13164826
-0.0787984 0.10861953 0.21886091 -0.024812264 0.3952877 0.26800492 0.13605905 -0.08296324
-1.1245751 0.35642797 0.1383882 0.19015713 0.21506675 0.18235749 0.18803835 0.01941691
-0.011268548 0.060190126 0.4978047 -1.5978853 -0.104333915 0.25060406 0.18762395 0.03169025
-1.2595594 -0.052533153 -0.016555866 0.19679582 -1.6533997 -0.099946074 -0.0077017737 0.14475617
-0.14048272 0.26211676 -0.01849069 -0.032839175 0.03917738 0.001664063 -0.20288116 -0.023611134
-0.03477203 -0.11411588 0.092057385 -0.16642818 0.13354 -0.10014491 -0.2753179 0.08360899
-0.1353509 0.10180137 -0.07942304 0.2503985 0.0679951 -0.015918355 0.11608509 -0.15972741
-0.0774535 -0.16774319 0.047037795 0.19348735 0.20543714 0.034524307 0.017170899 -0.084855765
0.07315206 0.07829132 -0.9999505 -0.023852127 0.052061424 0.05076819 -0.20926596 -0.05588427
0.13408989 0.045598447 -0.15255864 0.3011231 0.19058186 0.15768735 0.088857025 -0.4057196
0.05539295 0.36163586 0.5673755 0.08465183 0.00040903897 -0.0017083951 0.29453123 0.055016957
-0.038840525 -1.144626 -0.11387116 -0.20898251 -0.13621503 0.28369212 0.26336643 0.054467183
-0.07634547 0.13549496 0.061427783 2.6944757 0.040974595 0.023008121 -0.053188007 -0.07330227
-0.17340547 -1.8911941 -0.05667378 0.04220651 -0.026106726 0.07228762 -0.14000988 -0.10547212
0.052664828 -2.0409472 0.52167815 -0.20569557 0.086968 -0.02418722 0.23256667 -0.08263057
0.16606295 3.2240708 0.38929155 -0.06302134 0.43446174 -0.116834015 0.025989272 -1.316333
0.059488334 0.023285482 0.0031616315 0.11778511 0.18747626 0.12806891 -0.38767502 0.23222062
-0.15806971 0.07752633 0.16894603 -0.0028253365 0.20772736 0.18390381 0.4498187 0.021560203
-0.053251382 0.110370085 0.46173832 0.12754764 0.2473488 -0.9933923 0.24333735 0.38879132
0.040555812 -0.1964655 0.108853854 0.24205765 -0.062185097 -0.16483775 -1.4085178 -0.21119307
2.4745464 -0.26164383 0.09082969 -0.049429648 0.4109274 0.09093215 0.083759785 -1.0823588
-1.2978286 -0.04752861 -0.12062065 -1.1564074 0.15235792 -0.10827809 -0.31082055 -0.0819283
0.05020596 0.08625346 0.010390556 0.22635543 0.14550638 0.0042648287 0.044662885 -0.16676165
0.22719258 -0.06373686 0.12699309 -0.044845972 0.10229851 0.44652918 0.01908555 0.14718404
00000000: ebf0 be3d 7765 f73e 7c58 a1ba f317 3f3e
00000010: f513 9d3e 7e10 cf3d a86f 4fbc dfc9 663e
00000020: 182a e2bc da64 103e 59d6 9b3d a995 fe3d
00000030: 9fb2 563e b770 ca3a 1126 5a3d 42d3 b23a
00000040: 0d44 37bf 6f52 a63d 3f56 e83e a8c0 c53d
00000050: 2872 22bc d9d2 d2bb 8af1 6c3e 2a5e 183d
00000060: 39a7 3fbe 6946 11bd 4107 ae3e 487a 173e
00000070: ef34 cc3d 4ab8 ecbc 979b 003e a326 7bbd
00000080: 8a54 e0bd 04e6 c73d 9272 023d 6259 07be
00000090: b2f2 833e b9d8 36bf 6860 5abd 46ef 55be
000000a0: f10d 2e3e ec22 083e 8249 4f3d 3250 4bbd
000000b0: 8980 bbbf fb37 b6bf fde5 ebbd 5484 b8bf
000000c0: e668 51bf 2937 973a b7dd 193e 050e 133d
000000d0: c77f 55be bd8c 003d 5663 16be 4691 5440
000000e0: 3e6c 223e a495 713d 07b9 123e b8f1 c8be
000000f0: 99a1 833d 23f4 9b3c 0f4d f53e cdce 06be
00000100: 0e61 a1bd eb73 de3d 131d 603e 1743 cbbc
00000110: 2663 ca3e f137 893e 1053 0b3e a2e8 a9bd
00000120: 14f2 8fbf ba7d b63e a3b5 0d3e 8db8 423e
00000130: 753a 5c3e ecbb 3a3e 208d 403e 3610 9f3c
00000140: b79f 38bc ec89 763d 42e0 fe3e 8187 ccbf
00000150: 05ad d5bd 2d4f 803e 7e20 403e a3cd 013d
00000160: 3e39 a1bf 012d 57bd 2ba0 87bc d884 493e
00000170: 9aa2 d3bf 87b0 ccbd 295f fcbb f63a 143e
00000180: b4da 0fbe 2b34 863e ca79 97bc 5f82 06bd
00000190: 7678 203d b01c da3a 14c0 4fbe 236c c1bc
000001a0: 1e6d 0ebd 96b5 e9bd 9588 bc3d 266c 2abe
000001b0: b6be 083e c618 cdbd 78f6 8cbe 313b ab3d
000001c0: 6d99 0abe 3d7d d03d 8ca8 a2bd 3b34 803e
000001d0: 0441 8b3d 3667 82bc 05be ed3d 958f 23be
000001e0: f19f 9ebd dfc4 2bbe b4aa 403d 8c21 463e
000001f0: 1d5e 523e 5c69 0d3d fca9 8c3c dcc8 adbd
00000200: bfd0 953d 3357 a03d c2fc 7fbf 8965 c3bc
00000210: 5c3e 553d 4ef2 4f3d d149 56be e8e6 64bd
00000220: dc4e 093e 70c5 3a3d 5538 1cbe cf2c 9a3e
00000230: e427 433e cb78 213e acfa b53d 7bba cfbe
00000240: b8e3 623d 5628 b93e 853f 113f f05d ad3d
00000250: 4874 d639 3aec dfba cccc 963e 7659 613d
00000260: 3e17 1fbd 1b83 92bf 4835 e9bd 83ff 55be
00000270: f47b 0bbe 1840 913e f7d7 863e fb18 5f3d
00000280: 045b 9cbd 31bf 0a3e b39b 7b3d 4a72 2c40
00000290: fad4 273d 877b bc3c abdb 59bd 801f 96bd
000002a0: 3491 31be a612 f2bf c422 68bd bce0 2c3d
000002b0: c6dd d5bc 880b 943d c05e 0fbe c401 d8bd
000002c0: 13b7 573d e19e 02c0 b38c 053f dca1 52be
000002d0: 471c b23d 4724 c6bc f525 6e3e 373a a9bd
000002e0: 680c 2a3e 2d57 4e40 3951 c73e 5511 81bd
000002f0: c571 de3e ac46 efbd 74e7 d43c 9a7d a8bf
00000300: 0aaa 733d 32c1 be3c 6033 4f3b 5239 f13d
00000310: c7f9 3f3e 7f24 033e 577d c6be 3ecb 6d3e
00000320: 07dd 21be 20c6 9e3d 3000 2d3e 4829 39bb
00000330: 7bb6 543e 4851 3c3e a34e e63e 069f b03c
00000340: 1f1e 5abd b609 e23d f768 ec3e d99b 023e
00000350: 0149 7d3e f54e 7ebf 6d2d 793e a80f c73e
00000360: da1d 263d 412e 49be c5ee de3d f6dd 773e
00000370: cdb5 7ebd 3acb 28be 504a b4bf ff42 58be
00000380: f85e 1e40 2ef6 85be eb04 ba3d be76 4abd
00000390: 1465 d23e a33a ba3d 408a ab3d bc8a 8abf
000003a0: 3f1f a6bf 5cad 42bd f607 f7bd 2805 94bf
000003b0: b703 1c3e e7c0 ddbd df23 9fbe 06ca a7bd
000003c0: c4a4 4d3d a7a5 b03d 273d 2a3c b8c9 673e
000003d0: a0ff 143e fabf 8b3b 6ef0 363d 91c3 2abe
000003e0: 2ca5 683e 7988 82bd 7a0a 023e 69b0 37bd
000003f0: e281 d13d 799f e43e 4d59 9c3c 6ab7 163e

out.bias f4 [4]
0.6951855 0.67847633 0.5535655 0.612912
00000000: adf7 313f a0b0 2d3f 78b6 0d3f cde7 1c3f
