models/v17.1/model_53500_target.pth (torch, 295179 bytes, 10 tensors)

conv.0.weight f4 [16, 2, 3, 3]
00000000: 8bc0 523e 9960 e13d 7d2f 46be b3ec 473e
00000010: b703 f8bd e538 e63c 5da1 8fbe 25da 853e
00000020: acfe ac3d b1bf 00be cd4e e03d 5457 63bd
00000030: e51c 05bd ee6a f33c d68f 633d 07d1 08bd
00000040: 6002 863d bc3d c3bc 5c0b eebd 8cf0 773e
00000050: 5626 893c 4be4 2c3e cf05 ebbd f02f 653e
00000060: 9022 39bf 5764 f5be 6919 51be 2f16 71bf
00000070: 8ce1 fc3e fa23 8ebf 4f1a 5b3e 44dd 3ebe
00000080: bad2 6e3e 3b49 8bbd 4bd2 01bd f3ca 0f3e
00000090: f5b9 eebc 5354 633e 67e7 d83d df8d ffbd
000000a0: 2166 9f3e f288 bbbc 9422 a33e 3f4f 633e
000000b0: 2fe9 1c3e 3c22 6b3d ba94 173e f789 2b3c
000000c0: 3bda 923e 9d9c ebbd 2cc4 abbf 01d0 a8bd
000000d0: d788 99be 9b13 863d f6e2 02bc 9196 973c
000000e0: 9ad9 3d3d f670 ac3d 0df3 133e 150d 14bf
000000f0: d068 3dbe d9a2 9abe 848a 443e 59ec 66bc
00000100: 2872 023d 2001 aebd c870 ac3e f93e ebbd
00000110: f9c6 28bf 7a3c 8dbe 8273 bb3e 5f95 283e
00000120: 111a 843e eac4 04be 96cf 1abe e486 97bf
00000130: 08ce 59be 7e4b 2e3e 57a0 9f3d aa39 ef3e
00000140: 85c2 86bf 1d34 8fbe 565d 863e b099 53bf
00000150: d6af 7a3e c001 03bc 0b32 443e d17c 8bbc
00000160: 571e 5ebd 7968 003b 2004 06bc 7050 1fbe
00000170: f76b cb3e 2170 6b3e 820f 3cbe 980a bbbd
00000180: 1565 ec3e d220 cbbe bbcc 853e 85aa 27be
00000190: af82 ebbd e4d8 a73d 60db a73d 9901 a6be
000001a0: 5595 e9bd 1a27 29bd ee60 17be daed 95be
000001b0: 70cf 76bf ceb4 2abd bd33 a83e 191a 523e
000001c0: 6b9f a13d 7486 85bf 9287 8abe 76dd e73d
000001d0: 6f78 0bbe 025f c5bd 7213 803d d4af 2abe
000001e0: 4d5c ff3d c127 313d 8142 c03c f2e0 5fbf
000001f0: 9a02 d9be 298c 5bbd f77b ad3d 1f50 2bbe
00000200: f4fa d93e 578d 4dbd 6e70 ab3e d455 453d
00000210: 691e 103d ad36 a13e f778 69bd 1fd3 babf
00000220: b9df 65bf 941b 60bf 1fc6 9d3d 68ed 0b3d
00000230: 15e1 103d 094d d4be e66e 8f3e e8c9 93bd
00000240: a590 9fbc 1b63 823d a309 1a3e da20 873e
00000250: a3e2 093e ed0f 7dbe 7d6f 093e 62d8 93be
00000260: 9d9d 7b3c 1e79 bdbe 424d dc3e a53d dcbe
00000270: c42c 3c3d 8266 6a3e a363 69bc 6dee a4be
00000280: 599d ca3e 442a b83d a786 53ba 5799 10be
00000290: bddc 3d3e fee4 8f3d 0d56 f3bd 2e42 a53e
000002a0: 3407 843e c000 98bd 6691 71be 5b3d d53a
000002b0: 1e9a 513e cc63 06be 9ddc c9bf 4e05 da3b
000002c0: 12f6 56be 10dd 593e fdc6 b73e f7c3 b1be
000002d0: 61a3 57bd db30 e23d 374c 793d 7912 02be
000002e0: a937 ce3d c00c d33d c089 b53e a635 91be
000002f0: e3c6 5dbc 9b9e b03c 8871 85be ad65 36be
00000300: e23c d33e b3de 5c3d 08b7 7abd 90da 763d
00000310: a57b d33d f6b6 c0bd 75bd 883e 928a 2a3e
00000320: 2d87 03bf 0885 55bd 4b13 1a3e 1ce9 063e
00000330: ee5d 78bf b58d 9cbe bea6 babd ef53 b2bf
00000340: 082b 94be 7660 823e 62d0 ca3d 9f75 323e
00000350: 8305 79be f7f6 423d cfc1 ec3d eea0 093e
00000360: 17df e3bc dcd1 5ebd e9d7 ab3d b787 6cbd
00000370: a743 c0bc ce1f 6d3e ba7e e2bd 79cf e0bb
00000380: 1344 89be 6d9c 1f3e be01 833e 2295 833d
00000390: c2f6 03be 2599 66bf def8 6fbe d9f9 d43d
000003a0: 0729 a83d 4a16 8a3e 5e56 903e 02fc cf3d
000003b0: 9877 c53c 5330 e63b 9173 b4bf db28 4f3c
000003c0: ca06 17bd 1df6 4ebe 4d4d 5c3d ab65 8e3d
000003d0: 9f48 a8bf 9e06 59be ab52 3fbe 5f2d 9a3d
000003e0: 777a 40be 9b6f 8a3e d680 7bbe fca1 04be
000003f0: c3a7 573d 2f6e 84bf 5212 4fbc fc68 28be
0.20581262 0.11004753 -0.19354053 0.19523887 -0.121100836 0.028103301 -0.28052798 0.26142994
0.08447012 -0.12573124 0.1095253 -0.055503204 -0.03249826 0.029714074 0.055557095 -0.03340247
0.06543422 -0.023833148 -0.116232604 0.24212855 0.016741913 0.16883962 -0.11475717 0.22381568
-0.72318363 -0.47928116 -0.2041985 -0.94174474 0.4939083 -1.1104729 0.21396755 -0.18639094
0.23322573 -0.06801077 -0.03169469 0.14042263 -0.029141406 0.22200136 0.105910115 -0.12478232
0.31132606 -0.022892449 0.3186232 0.22198199 0.15323327 0.057405695 0.14802828 0.010469905
0.28682122 -0.11504481 -1.3419242 -0.082427986 -0.29987213 0.06546708 -0.007988682 0.018504413
0.0463501 0.08419983 0.14448185 -0.5783246 -0.18497014 -0.30202368 0.19193465 -0.014094436
0.03184715 -0.08496308 0.33679795 -0.114866205 -0.6592861 -0.27585202 0.36611563 0.1646323
0.25801137 -0.12965742 -0.1511825 -1.183804 -0.21270001 0.17020985 0.07794254 0.46723682
-1.0528113 -0.27969447 0.26243085 -0.82656384 0.24481139 -0.007996023 0.19159715 -0.01702729
-0.054228153 0.001959352 -0.008179694 -0.15558028 0.39730808 0.22991993 -0.18365291 -0.0913288
0.4617087 -0.39673477 0.2613276 -0.16373642 -0.11499535 0.081956655 0.08196139 -0.32423094
-0.11405436 -0.041297056 -0.1478307 -0.2928303 -0.96410275 -0.041676335 0.32851973 0.20517768
0.07891735 -1.0431657 -0.27056557 0.11321537 -0.1362016 -0.09637262 0.06253709 -0.16668636
0.12468777 0.043250803 0.023469212 -0.87452614 -0.42384797 -0.053600464 0.0847091 -0.16729783
0.42574275 -0.05018362 0.33484215 0.048177555 0.03518525 0.31487027 -0.057000127 -1.4595679
-0.897945 -0.8754208 0.07703804 0.034161955 0.035370905 -0.41465023 0.28014296 -0.07216245
-0.019478152 0.06366559 0.15042739 0.2639225 0.13465361 -0.24713106 0.13421436 -0.28876024
0.015357402 -0.37006468 0.43027693 -0.4301578 0.04594113 0.22890666 -0.014244947 -0.32213154
0.39573172 0.089924365 -0.0008069076 -0.14120995 0.18541236 0.07026099 -0.11881647 0.32277054
0.25786746 -0.07422018 -0.23590621 0.0016268896 0.20468947 -0.13124007 -1.5770451 0.0066534644
-0.20992306 0.21275735 0.35894004 -0.34719822 -0.052646045 0.11044475 0.0608637 -0.1270236
0.1006921 0.10305166 0.35456657 -0.28361243 -0.013536188 0.021560004 -0.2606318 -0.17812224
0.41257387 0.05392332 -0.06120971 0.06026703 0.10326318 -0.09409897 0.26707044 0.16654423
-0.51378137 -0.05212882 0.15046422 0.13174862 -0.97018325 -0.30576864 -0.09113835 -1.3931865
-0.2893908 0.2546422 0.09903027 0.17427681 -0.24318509 0.047598805 0.115604036 0.13440296
-0.027816338 -0.054399356 0.08390791 -0.057746615 -0.02346976 0.23156664 -0.110593274 -0.00686067
-0.2680975 0.15587015 0.25587267 0.06424929 -0.128871 -0.9007743 -0.23434779 0.10399217
0.0821095 0.2697013 0.28190893 0.101554886 0.024104878 0.0070248037 -1.4097768 0.012644018
-0.03687171 -0.20211072 0.053784657 0.069529854 -1.3147162 -0.2119393 -0.18683879 0.07528185
-0.18796717 0.27038273 -0.24560866 -0.12952417 0.052650224 -1.0346125 -0.012638645 -0.16446298

conv.0.bias f4 [16]
00000000: 04ff 373d 967e b13d a00f dabc 0d93 aabd
00000010: c09f efbd f517 91be 4023 2e3e a3da 71be
00000020: 3972 35be 3222 1cbd d9bf 82be 4612 4abd
00000030: 3f36 543c 5539 cc3d 698c d1bd 5b90 9f3d
0.044920936 0.086667225 -0.026618779 -0.08328829 -0.11700392 -0.2833859 0.17005634 -0.2361856
-0.17719354 -0.03811855 -0.25536993 -0.049333833 0.012952386 0.09971873 -0.10231859 0.077912055

conv.2.weight f4 [32, 16, 3, 3]
00000000: f828 dbbd 5edf 283e 1776 fdbd 0d4f 7c3e
00000010: 5fb3 193d 1511 843c 8308 203e 8b7e 053e
00000020: d044 313d 7ea2 003e 2650 59bc 4bc1 9bbc
00000030: 7ee3 01bd 5076 be3d cf3f 0f3d 1c8c 403d
00000040: 821a 05be da1c 2dbe 686d 863d 63b5 983d
00000050: 5e9d cfbd 35ab 87be e93a 1d3e ac48 13bf
00000060: c580 b7bc e92f 5abd 395d 993d 39fd 663d
00000070: 6f9f ccbd 375b 06be e425 a53b 3dac 6dbe
00000080: 7428 2fbe 6a57 45bc 6d77 86bd 18a4 583e
00000090: b64d 84bd 9ec0 783d 0d12 9e3d 0e1d 88bb
000000a0: b972 d7bc 66c9 69be a275 643e 7629 3ebe
000000b0: 278c 06be 1084 ab3e df6a b33d 089b 9cbe
000000c0: 4ff7 133f 6dc6 46be 89e4 95be ed05 7c3e
000000d0: 19b9 243e f911 4d3c 3688 85be 867e 823d
000000e0: 1d67 47be e481 023d d566 39be 791d 26bd
000000f0: e6b3 15bc 7129 c13d cb50 ba3d 77bc 643c
00000100: 91c1 92be 6aa6 923b 6c6e 0d3d 2e88 ccbd
00000110: 0bc7 fd3d 1426 2f3d b7da 6abe e6fa fdbd
00000120: 8d81 30be a832 0f3c 4748 e93e cdf6 aebd
00000130: 1d2a 1f3d dff8 6b3e 9fe7 3a3d 4312 563e
00000140: 6569 983d 4f4d ed3c 5aa4 a0be 9a80 213e
00000150: 0b93 92bd 8922 b0bd 05a7 aabd ae24 aa39
00000160: ec7a 273e a0bb 423e 54ad e43d 1c87 f93b
00000170: 9fb0 863e c4c4 b8bc 0aaf 29bd cc80 43be
00000180: fb29 4a3d 69c1 0f3e 90a7 38be 57ed 63bd
00000190: d429 483b 367a a5be 731a debd b1c5 8fbd
000001a0: b63a 9fbd 12f0 d53d f840 34be c816 3fbd
000001b0: ff04 153d 037f 45bb fe05 03be ec19 923d
000001c0: 1071 f6bd c25f 24bc ecc4 af3d d63b ae3c
000001d0: 2a39 afbd a599 5bbe cd86 00bf fc58 133e
000001e0: 2d8d b7bc 46db 4ebd 71fc 68be c8bb 29bf
000001f0: 2d86 213e e098 303d 09b1 353e 89a7 bdbc
00000200: 9464 eabb 7685 143e 4b6e b3bd 2fe8 e2bc
00000210: 7571 2dbd 779f d33c 38d0 343e ca8c b23c
00000220: 4359 90bd 54ad ba3d 534d 0a3e 4436 313e
00000230: 8671 203d 4753 843d 5edb dcbe 3c8c 113d
00000240: c609 803c db4f c0bd b393 92bb 06ff 063d
00000250: 0add 87be 3c5b 4ebd b700 89bc ff60 833b
00000260: 309e 89bd b4bf c23d 4999 863d bbd0 9bbd
00000270: 3d5f d6bf 25c5 863d 7dcb 263c 76b6 26be
00000280: 2894 7f3d cddc 2abc 96d6 1ebd d75a 72bd
00000290: 0c0c f43c 0270 1a3e a7d7 e53d 8449 c03d
000002a0: 61c9 793d e591 bd3c e23f c0bd 3340 b8bd
000002b0: 6634 75be 12ca e23d 1532 e1bd 40e6 283e
000002c0: 41c8 b6bd a12f 97be 219f cdbd 2629 233e
000002d0: ffe8 54be f2d2 90be d5bd edbe f0e1 75be
000002e0: 2b2f 413e 24f6 943e 9d27 b83c 9b78 0f3d
000002f0: e130 88bd f4ad 653d 6fc3 19bd b883 b6bb
00000300: 0c32 c5bd 833e 943d 50c9 f7be 9562 84be
00000310: 14ed 8cbe 4ad9 1a3e 522a 94bd a75e 9dbd
00000320: 2dc1 0c3e ebc1 493d 7f94 8bbd 0aa0 bcbe
00000330: 1715 5f3d e690 343d 1f1a c93e 453c cebd
00000340: 57d5 3d3d 203f 25be f2bb 273e 7e6b 73bc
00000350: 311f 87be 9b3e f13d 982d 27be 09c9 6f3c
00000360: 56f0 68bc 0d89 e03c 5070 64bd 0c45 0c3e
00000370: aa1c 2d3e 4617 f3be 770c 123e 145d 4c3e
00000380: e59d 263e 990e 4d3e daf8 2a3e 518a bc3d
00000390: e300 b83d fdb7 253e 022c d83d 611d a73d
000003a0: 6808 28be 9c23 7c3d b3be 6cbc 1c54 f63d
000003b0: 1878 aebe 5ad3 28be bcda 7d3d f82b e43d
000003c0: 5c5f 513d 62fe 34be 8483 4c3e bc77 d73d
000003d0: 58ce 9e3e 53ed d7bb 75a1 c33d bc4f 1a3e
000003e0: f206 38be 356d 113e c12e 783c 794f 2fbe
000003f0: f6bc db3d 8a79 823c 3089 d53d fc34 763d
-0.107011735 0.16491458 -0.123760395 0.2463953 0.037524577 0.016121427 0.15628247 0.13036554
0.043278515 0.12561986 -0.013263738 -0.019013068 -0.031711094 0.0929991 0.034972962 0.04700862
-0.12998393 -0.16905537 0.06563836 0.07456472 -0.10137437 -0.26497808 0.15354504 -0.57532763
-0.02240027 -0.053268347 0.07488484 0.056393836 -0.09991347 -0.13120733 0.0050399173 -0.23210235
-0.17105275 -0.012044767 -0.065657474 0.21156347 -0.06460135 0.06073057 0.07718287 -0.004153854
-0.026299821 -0.22830734 0.22310498 -0.18570504 -0.13139401 0.33499193 0.087606184 -0.3058703
0.5779924 -0.19411631 -0.2927592 0.24611636 0.16086234 0.012516492 -0.26080483 0.06371789
-0.19472928 0.031862155 -0.18105634 -0.04055545 -0.009137129 0.094317324 0.09097441 0.013960949
-0.28663304 0.0044754045 0.034529135 -0.09986912 0.1239148 0.042760924 -0.22934996 -0.12401371
-0.1723692 0.008740105 0.45562956 -0.08543167 0.03885852 0.23044156 0.045631047 0.20905404
0.074419774 0.028967528 -0.3137539 0.15771714 -0.071569525 -0.08600337 -0.08332638 0.00032452255
0.16355485 0.19016886 0.11165872 0.0076149832 0.26306626 -0.022554763 -0.041426696 -0.19092101
0.049356442 0.14038624 -0.1803267 -0.055646267 0.003054251 -0.32319802 -0.108448885 -0.070201285
-0.0777487 0.104461804 -0.17602909 -0.046652585 0.036381718 -0.003013552 -0.12795255 0.071338505
-0.12033284 -0.010032596 0.08582482 0.021268766 -0.08555825 -0.2144533 -0.5020569 0.14389414
-0.022406185 -0.050502084 -0.22752549 -0.66302156 0.1577384 0.043114543 0.17743315 -0.023151176
-0.007153103 0.14504036 -0.08761271 -0.027698604 -0.04234453 0.025832875 0.17657554 0.02179565
-0.07048275 0.09115091 0.1350606 0.17305857 0.039170764 0.064611964 -0.43136114 0.03553413
0.01562966 -0.09390231 -0.0044731735 0.032958053 -0.26535827 -0.050379977 -0.016723974 0.0040093656
-0.06719625 0.09509221 0.065722056 -0.076081716 -1.6747814 0.06580571 0.010180351 -0.16280541
0.062397152 -0.01042862 -0.038778864 -0.059168663 0.0297909 0.1508179 0.11222773 0.09389022
0.060983066 0.023140857 -0.09387185 -0.0899662 -0.2394577 0.11073698 -0.109958805 0.16494083
-0.08924914 -0.29528525 -0.10040117 0.15933666 -0.20792006 -0.28285939 -0.46433893 -0.2401197
0.1886565 0.2909404 0.022479827 0.035027128 -0.06649948 0.056074098 -0.037539896 -0.0055699013
-0.09628686 0.07238486 -0.48395777 -0.25856462 -0.27524626 0.15121952 -0.072346345 -0.07684069
0.13745566 0.0492572 -0.06815433 -0.3684085 0.054463472 0.0440835 0.3927774 -0.10070089
0.046346035 -0.16137362 0.16380289 -0.014857171 -0.26390985 0.11779519 -0.16325986 0.014635333
-0.014217457 0.0274091 -0.055771172 0.13698214 0.16905466 -0.47478694 0.14262567 0.19957381
0.1627117 0.200251 0.16696492 0.09206069 0.08984544 0.16183467 0.10555269 0.081599005
-0.16409457 0.061557397 -0.014449763 0.12027761 -0.34076 -0.16486874 0.06197618 0.11141199
0.051116332 -0.17675164 0.19972044 0.105208844 0.31016803 -0.0065895705 0.0955228 0.15069479
-0.179714 0.14201815 0.015147866 -0.1712016 0.10729401 0.015927095 0.10426557 0.060109124

conv.2.bias f4 [32]
00000000: 4d78 a53d 79cf 12bd 4bf7 04be 6464 03be
00000010: 863c 903d f147 cbbd b3d7 d73d e481 e4bd
00000020: 1c20 303d 13dc a1bd 0091 bc3c 890e aa3d
00000030: a5bb b8bc 2b33 293d 141d 8f3d 06e6 c4bc
00000040: 402e e83d ebbb 1d3d bf6a 8c3d 0521 07be
00000050: 6b2a 87bd 64c1 0d3e 003a 18be 0c23 203c
00000060: 5029 fc3d 1e56 ec3d 2ce7 7ebd 1c9a f13c
00000070: 5e3d 043e a807 903d ebe1 263b dacd eebb
0.08079586 -0.035842393 -0.1298496 -0.12831265 0.07042794 -0.09925831 0.10539188 -0.11157587
0.042999372 -0.07903304 0.02301836 0.083035536 -0.022550413 0.041308563 0.06987968 -0.024035465
0.113369465 0.03850929 0.06856298 -0.1319619 -0.065998875 0.13843304 -0.14865875 0.009773981
0.12312567 0.11539863 -0.06223218 0.02949243 0.12914035 0.0703271 0.0025464247 -0.007287723

conv.4.weight f4 [64, 32, 5, 5]
00000000: 3b34 6bbd 5046 7a3d abea 3d3e c3ce 983c
00000010: 397f e2bd 0dbe 3e3c ddca 2bbe bd8d 003e
00000020: d133 86be 32c5 723e c061 973e 43e6 d0bc
00000030: 7991 f03d 428a 82be 0040 55bd 3bae 5ebe
00000040: 2f60 febd 23fc c0bd 0d89 1f3e 5281 88be
00000050: eddd 00be 5b6b 2abe d403 153d 3a9c 073d
00000060: 7588 d1bd a2d1 83be f45a d7be 8bc6 223e
00000070: ff14 5f3e 78a6 50bd 86c0 5cbe 5721 76be
00000080: e4a2 c7be 31e5 0e3d c2bc d0bd 9385 82bc
00000090: 4d0c e7be ee28 423e 8141 903e f5fe 28bf
000000a0: 90a4 4fbe b2ad 903b c92d 693e 2f95 76be
000000b0: 3d59 61bc ffdc 58be c6d9 0c3c 9544 4f3b
000000c0: ee5e 27bd 0437 613d 274d 30be 5b9b d43d
000000d0: 2578 8fbc 91da 8dbe a7c4 ca3e 6259 ba3c
000000e0: fc5d 73be 50cb 87be 0388 503e 5096 86bd
000000f0: b0e7 51be 91f4 47be efb4 98be ba52 8cbd
00000100: 573a 39bb 99ab 8fbd f526 97bd 865e 8a3e
00000110: 5072 8abd e10e 66bd 86a1 a4bd 01b8 773c
00000120: 4b04 4f3e ea26 293b b4bf 89bc 7d2c aabd
00000130: 043b ccbc 21fb e73c 8793 aa3d 4261 fc3c
00000140: ede7 f23d 0498 c93d bd7f b4be 1e23 cf3e
00000150: 4ec3 47be b4e0 76be 11ba 85bd ba28 58be
00000160: f1fc 7b3d 817e b43e b44c cb3a 22b5 8d3d
00000170: 149d d4bc bf9b 7bbe f1ee 213d ea75 133e
00000180: cdf0 ae3d 5344 d13c 1430 9a3d f8e2 8fbc
00000190: 8f0d f53d c336 26be 4074 12be 68a2 d0bd
000001a0: 84cb f5bd 8966 013e c189 07bd 70bc f2bc
000001b0: b29a 00bd cc6d 6e3d 6812 a8bd 982e 9d3e
000001c0: 0659 92bd 6b12 b53e 6ab8 f83d 585b 52be
000001d0: fcfc d93c 529d 1bbe 5ba2 cb3d 1fd6 893d
000001e0: 2563 063d ec93 50be 773e 70bd ecdf 88be
000001f0: c60a a43e 34e7 503e 92a3 0ebd bd16 153d
00000200: 94a2 9fbd ff0b ee3d e9f4 cf3d 3fed 64bd
00000210: 52a6 2a3e b4f3 853d 6fcd 43be eeec e5bd
00000220: ff42 023e b467 10bd 422f 363e 020a 36bd
00000230: 54c9 47be a831 65be a0e8 c13c 3899 8abd
00000240: bb57 c6bd ff18 dfbe 0805 763e b633 f13d
00000250: 0e77 473d cb70 1fbe 4e91 b2be 4f48 2a3e
00000260: 2911 5fbe be18 893d 1af7 61bd 75c7 71bd
00000270: f29c 90be 0ecb 2b3d 9204 bebd ee64 cd3d
00000280: b551 f5bd 7a43 823e 96b7 51be 3697 033d
00000290: 5a2d 7a3e a909 583c fe81 f6bd d13a 9a3d
000002a0: fef0 84be febf 813e 7979 3e3e 4794 69be
000002b0: 7306 be3d 5847 3fbe d384 753d 9141 34bd
000002c0: 2c7e c1bd a0dc 473e 9d2b 843d 41f2 7c3d
000002d0: 2351 87bd 7ff5 773c f19e 15bc 08cf 3e3d
000002e0: 7c88 323e 5113 21be 26bb 3a3e 985b 70bd
000002f0: 7416 a1be 10aa 9dbd 76e6 64be e62b edbd
00000300: cfa4 2b3e daff 9abe e548 093e e760 67be
00000310: 2dee 493d 3f46 29be dc8b babc 6b82 1c3c
00000320: 43a9 0fbe ed9f 83bd 058f 83bd dba2 a0be
00000330: fa71 4b3c 417b 923e ffe4 733d 780e 07be
00000340: 5e01 f8bd 9a25 77bb 4477 b4bd cb42 15be
00000350: 6b51 13bd 46c2 cabd fb58 7c3e f217 7fbe
00000360: 700a fb3d 58b6 233e 16df 443e 2cfb 41be
00000370: 30e7 393c 2582 14be 794e 963d ed86 073e
00000380: 3d97 48bd e98a 55be e8e2 f0bc cee7 2b3d
00000390: 820c 813d ea9c 563d 04a9 0ebe 4382 63bc
000003a0: 6903 f3bd 8636 8c3e d8ec 12be 895e 3bbe
000003b0: 3d37 1dbd 1803 f33d baa2 8dbd 39d5 c6bd
000003c0: 7653 1c3e cc43 ddbb 367a 793c 7464 d63c
000003d0: 2dfb d5bc 71cd 7c3e e5c4 30bd 77fe f5bd
000003e0: e9ea 47bd 24c0 053e 8524 3abe 4d3b 963d
000003f0: 0497 61bd b25b cbbd a021 323e 7a53 e63d
-0.057422858 0.06110221 0.1854655 0.01865328 -0.11059422 0.011641991 -0.16776605 0.12554069
-0.26211408 0.23708037 0.29566765 -0.025500422 0.11746497 -0.25496107 -0.05206299 -0.21746151
-0.12420689 -0.09423091 0.15579624 -0.26661164 -0.12584658 -0.16642515 0.036380604 0.033107974
-0.10231105 -0.25745875 -0.4206158 0.1589605 0.21785353 -0.050940007 -0.21557817 -0.24036156
-0.38991463 0.034886543 -0.10192253 -0.015932834 -0.45126572 0.18960926 0.28174976 -0.66014034
-0.2027762 0.0044152373 0.22771372 -0.24080347 -0.013754186 -0.21178053 0.008596843 0.0031626571
-0.040862016 0.054984108 -0.17216931 0.10381194 -0.017513344 -0.27705815 0.3960316 0.0227477
-0.23766321 -0.26522303 0.20364384 -0.065716386 -0.20498538 -0.19526888 -0.2982554 -0.06851716
-0.0028263533 -0.070151515 -0.07380477 0.2702524 -0.06760085 -0.056166533 -0.08038621 0.015119554
0.20216481 0.0025810548 -0.016815044 -0.08309267 -0.024930485 0.02831799 0.0832892 0.030808095
0.118606426 0.09843448 -0.35253707 0.4045648 -0.19508097 -0.24109155 -0.0652963 -0.21109286
0.06152052 0.35252765 0.001551053 0.06919314 -0.025953807 -0.24571131 0.039534513 0.1440045
0.08542023 0.025545275 0.075287014 -0.017564282 0.11965477 -0.16231827 -0.14302158 -0.101872265
-0.12001708 0.1263677 -0.033090357 -0.02963087 -0.03139753 0.05821018 -0.08206636 0.3069961
-0.07145886 0.35365614 0.12144549 -0.20542657 0.02660989 -0.15196732 0.09943076 0.067302935
0.032809395 -0.20368928 -0.05865332 -0.2673334 0.3203947 0.20400697 -0.03482396 0.036398638
-0.07794681 0.11623382 0.10154135 -0.055890318 0.16665009 0.06540623 -0.19121335 -0.112268314
0.1272087 -0.03525515 0.17791465 -0.044443138 -0.19510394 -0.22382224 0.023670495 -0.067675054
-0.09684702 -0.43573758 0.24025357 0.11777441 0.048697524 -0.15570371 -0.34876484 0.16629146
-0.2178389 0.06694172 -0.055167295 -0.059028108 -0.2824474 0.041941695 -0.092782155 0.100290164
-0.11978475 0.25442106 -0.20480189 0.032126628 0.24431363 0.013185897 -0.12036513 0.075307496
-0.25965112 0.2534179 0.18601026 -0.2281047 0.09278574 -0.18679559 0.059941124 -0.04400784
-0.094478935 0.19517756 0.06453631 0.06175447 -0.066072725 0.015134214 -0.009132133 0.04658416
0.17434877 -0.15730025 0.18235454 -0.0586811 -0.31462443 -0.076984525 -0.22353539 -0.115806386
0.16762088 -0.30273324 0.13406713 -0.22595559 0.049299408 -0.16530703 -0.022771768 0.009552578
-0.14029412 -0.06426988 -0.06423763 -0.3137425 0.012417311 0.2860966 0.05954456 -0.13189113
-0.12109636 -0.0037711621 -0.088118106 -0.14576261 -0.035966318 -0.09900336 0.24643318 -0.24911478
0.1225785 0.15987527 0.19225726 -0.1894347 0.011346623 -0.14502771 0.07339186 0.13235064
-0.048972357 -0.20853771 -0.029405072 0.041969113 0.06301214 0.05239574 -0.13931662 -0.013886037
-0.11865885 0.27385348 -0.14348161 -0.18297781 -0.038382757 0.118658245 -0.06915803 -0.09708638
0.15266213 -0.006752467 0.015226891 0.026170947 -0.026120747 0.24687745 -0.043156523 -0.12011426
-0.048808012 0.13061577 -0.18177994 0.073355295 -0.05507566 -0.09929599 0.1739564 0.11246391

conv.4.bias f4 [64]
00000000: 5c27 f93a 6458 58bd 20e1 543d a0c7 023c
00000010: 2d7a a1bb f9e3 09be 0819 0ebd 665c 37bd
00000020: 44ff f73d ce23 433d d79b 083d c1eb 32bd
00000030: bd8a 91bc 9afd 17bd 0ea0 5e3a 365c 993b
00000040: 0c60 90bc 0c2a bb3a d9f5 8e3d 8f64 19bd
00000050: 8353 1f3e f33b 48bd 6075 05bd 11ff e9bd
00000060: 0d62 03ba 05aa 483e 5a2d 58bd 7706 083e
00000070: 6052 c2bc 7ad7 013c da8f 21bd 47d9 02ba
00000080: 5e67 0ebd 6432 99bc 68a3 21bc b708 293e
00000090: a908 a63d c956 003e 6efe aaba f6b2 3dbd
000000a0: 73f6 d83d 495f 49bc fd1e 1cbd 0790 09bd
000000b0: cec8 883b b1ca 04bd 0c63 963d 28b5 593e
000000c0: be79 0ebd c371 31bc 6bd4 473d 5f03 743c
000000d0: bf32 1c3e c4a8 273e 4339 08bd 8782 983d
000000e0: 1f9a d23d 3a9d 60bd 9c27 033d 1bc2 bcbd
000000f0: 9911 5c3e d372 753d 903a 89bd b879 f23d
0.0019008922 -0.05281867 0.05197251 0.007982165 -0.0049278946 -0.13465871 -0.03469184 -0.044765852
0.12109235 0.047641568 0.033351745 -0.043681864 -0.01776635 -0.037107088 0.0008492478 0.004680182
-0.017623924 0.0014279499 0.069804855 -0.037449416 0.15559201 -0.048885297 -0.03258264 -0.11425603
-0.0005011864 0.19596107 -0.052777626 0.13283716 -0.02372092 0.007924909 -0.03944383 -0.00049914833
-0.034766547 -0.018700786 -0.009865619 0.1650723 0.081071205 0.12533106 -0.0013045797 -0.04631325
0.105938815 -0.012290784 -0.03811549 -0.03358462 0.0041743284 -0.032419864 0.073431104 0.21260512
-0.03478407 -0.010830346 0.048786562 0.014893382 0.15253733 0.16372973 -0.033257734 0.07446771
0.102833025 -0.054837443 0.032020196 -0.0921671 0.21491088 0.059923958 -0.06700623 0.11839622

conv.7.weight f4 [64, 256]
00000000: 2e6b 17bd 4aad 93bd a6d6 b13c be9c fc3b
00000010: 681b f83c 2849 34bd c0c1 403d b5e5 81bd
00000020: 0044 17bc 446a 80bd ca6d 8f3c 4eb1 35bb
00000030: beae 7bbd a0eb ff3c 10c8 f93b 2874 233d
00000040: 3812 90bc 3233 503d f8b3 283c 6ac3 37bd
00000050: eecd 173c 114e 9f3a d417 533c 5b30 17bd
00000060: 104e b63c 1060 153d 1403 45bd 8881 7a3c
00000070: 48b0 643c 2003 45bd 1c79 c0bc b847 59bc
00000080: bb98 51bd d34b f8bc 830c 31bd d710 34bd
00000090: 4148 173c aca2 53bd 98f9 e2bc d701 05bc
000000a0: 58fa 71bc 22e7 a3bc 6ecb 8dbd 9993 dbbb
000000b0: 5492 bf3c 589d 863c 9ed1 003d 106f edbc
000000c0: 600b e3bb 808e 7e3b e00e c63b e43e 2a3d
000000d0: 3c29 5abd 5ed0 393d f82d 193c 18ca 11bd
000000e0: 7fff 22bd e1de 51bd eb42 47bd 507b 703d
000000f0: e062 8ebc 890b f0bc 8cdc 1fbb 1eaa 20bd
00000100: e063 55bd 9c5e b5bc 4083 a9ba d6e8 1f3d
00000110: 8676 75bd 681a 19bc f06d 303d 0ca2 77bd
00000120: 1ff8 143d c564 1b3d 008d 79bc 0046 12b9
00000130: e232 04bd e87f adbc 0018 45b8 7e0d 5fbd
00000140: b69b bbba 617a 92bd 23a1 8fbd 0153 193d
00000150: 1c17 b7bc 042b 233d c8f7 24bc 4eef 35bd
00000160: 3244 5cbd 28f9 8c3c 80f7 2b3b 5859 5ebd
00000170: 087a 2a3d a650 ad3c cee1 1cbd 58d5 01bd
00000180: 120d a93c 7fe0 a7bc 1431 7cbc e672 9cbd
00000190: f4a8 38bd 9582 04bd b67a c73c fdab 85bd
000001a0: b870 b43c 4ef9 763d f8cf c83c 28b5 33bc
000001b0: 252b 06bb 9817 93bc a591 2ebd c797 a1bc
000001c0: 5af9 343d 50ac 563c 80a9 813a 4488 a33c
000001d0: 39ea d7bc be6f 0a3b 9369 b03c a3c5 e93b
000001e0: 803d 58bb 6013 4a3b 00df 303d ccff abbc
000001f0: 4cba 0d3d 665e 68bd fcae 56bc f8be 30bd
00000200: 506d 81bc f046 9a3c 343f 263d f210 283d
00000210: e05b 4b3d dca2 f03c d08c d5bb 7a63 68bd
00000220: b821 7dbd 5ec1 17bd 10ab 4abc 0006 5c3b
00000230: 9b11 3ebd b461 60bd 70a7 e9bb 406c 6c3c
00000240: 6422 54bc b09a dbbc c8e8 033d 6f37 27bd
00000250: 7d17 7cbd 725b 7bbd f1a7 e63c dd11 1ebc
00000260: 4b6b 1ebc 1d18 dd3c 64b9 46bd da1c 57bd
00000270: dea6 2cbd b63d 17bd 6418 cf3c 80bf 223b
00000280: f7db f7bc e40a 163c f93d 23bc 9a99 863c
00000290: b566 053d 7b99 41bc 39ae 2ebc 2dae 54bd
000002a0: a083 ba3b ee17 233d 1090 8d3b f8fd 063c
000002b0: 602c 823c b024 3ebd b857 dfbc 4ab1 113d
000002c0: 265e 573d b450 60bd 6a89 023c 2064 debb
000002d0: 42b3 5a3d d2d2 793d 24ae be3c 203d 05bd
000002e0: 2e3f 24bd 785b 263c a71c 103d 886a 0dbd
000002f0: 22a4 8d3c 442a 053d 5b69 7bbd fee6 50bd
00000300: 30f9 0c3d 9231 153d 806d 20bd 10e3 d2bb
00000310: 1468 183d f486 bfbc 3c06 40bd c053 1f3c
00000320: 22a7 5ebc 5804 35bd e47f 6cbd 90a7 48bd
00000330: 6e35 7ebd 04cf fdbc ca11 063d 1440 6d3d
00000340: 8b0a f83b ef03 36bd c729 d0bc 0873 1ebd
00000350: 2a58 e33c 8cb0 5abc 309d 2a3d 1e1a b3bc
00000360: 8e83 0dbd 0457 ffbb 3def f1bc 10ec d1bc
00000370: 1c09 48bc 5881 ebbb 5573 d83c 76d3 94bd
00000380: 50e6 de3c 38d6 ff3c 8471 4f3d 7b24 4cbd
00000390: b6c0 6dbd dc74 56bd fac0 69bd 2cb9 893c
000003a0: d6d1 82bd 215d abbc 8ac3 933c 24df 60bd
000003b0: 27c2 68bd 630c 30bd d0a7 abbc c89e d3bc
000003c0: 0089 833b 007a eb3c 6480 613c 8c4b e93b
000003d0: a4cc 4a3c a0bf 0ebb 4aa4 8abc b1a0 57bd
000003e0: dc80 a93b 9ce6 eabc 31ab 38bd a497 003d
000003f0: 3a65 4c3b cdb0 65bd 91ef b2bc 7587 95bb
-0.03696745 -0.07210787 0.021708798 0.007709115 0.030286506 -0.04401508 0.047059774 -0.06342641
-0.009232521 -0.062702686 0.017508406 -0.002772409 -0.061445944 0.031240284 0.0076227263 0.039905697
-0.017586812 0.050830074 0.010296814 -0.044864096 0.009265406 0.0012154003 0.012884099 -0.03691135
0.02225402 0.036468565 -0.04809864 0.015289672 0.013958044 -0.048098683 -0.02349525 -0.013261728
-0.051171046 -0.030309593 -0.043224823 -0.043961372 0.009233535 -0.051668808 -0.027706906 -0.008118114
-0.014769159 -0.020007674 -0.06923567 -0.0067009446 0.023385204 0.01643245 0.031449907 -0.028983623
-0.0069288462 0.003884226 0.0060442537 0.041563883 -0.05326198 0.04536473 0.009349339 -0.035593122
-0.03979444 -0.051237945 -0.048647802 0.05871135 -0.017381132 -0.029302375 -0.002439293 -0.039224736
-0.0520972 -0.02213984 -0.0012932792 0.03904041 -0.059927486 -0.009344675 0.043073595 -0.060457274
0.03636944 0.0379379 -0.015231371 -0.00013949722 -0.032275088 -0.021179155 -4.6990812e-05 -0.054456227
-0.0014313373 -0.07152248 -0.07013156 0.037432674 -0.022349887 0.039835945 -0.010068841 -0.04441767
-0.053775974 0.01720865 0.002624005 -0.054284424 0.041620284 0.02115662 -0.03830128 -0.0316976
0.020636115 -0.02049279 -0.0153925605 -0.07639103 -0.045083 -0.032351095 0.024350505 -0.06526945
0.022026405 0.06029635 0.02451323 -0.010968484 -0.0020472493 -0.017955586 -0.042619366 -0.019725693
0.044183113 0.013102606 0.0009892434 0.019962437 -0.026356803 0.0021123732 0.021534717 0.007134156
-0.0032995641 0.0030834302 0.04318142 -0.020995997 0.034601495 -0.05673065 -0.013103243 -0.043150872
-0.015799195 0.018832654 0.04058762 0.041031785 0.049648166 0.029374532 -0.0065170303 -0.056735493
-0.061799735 -0.037049644 -0.012369886 0.0033572912 -0.04640351 -0.054780677 -0.007130556 0.014430106
-0.0129476525 -0.02680716 0.03220442 -0.04082435 -0.061545838 -0.061366506 0.028156253 -0.009647814
-0.009669135 0.026989037 -0.048516646 -0.05251775 -0.042151324 -0.036924087 0.025280185 0.0024833381
-0.030256255 0.00915787 -0.009963506 0.016430665 0.032568652 -0.011816378 -0.010661655 -0.05192392
0.0056919605 0.039817743 0.004320152 0.008239262 0.0158903 -0.046421707 -0.027263507 0.035569467
0.05258002 -0.054764464 0.007967332 -0.006786838 0.05339361 0.06099207 0.023276396 -0.032528996
-0.040099315 0.010153644 0.035183575 -0.034525424 0.017290179 0.03251101 -0.06137977 -0.05100154
0.03441733 0.036424227 -0.039166927 -0.0064357594 0.03720863 -0.02337978 -0.046880946 0.009724557
-0.013589652 -0.044193596 -0.057739154 -0.048987925 -0.062062673 -0.030982502 0.03273181 0.057922438
0.007569616 -0.044437345 -0.025410546 -0.03868392 0.027752 -0.013347756 0.041653812 -0.02186304
-0.03454929 -0.0077923555 -0.029533023 -0.025625259 -0.012209203 -0.00718705 0.026422182 -0.072668955
0.027209431 0.031230077 0.050645366 -0.049839478 -0.05804511 -0.05235754 -0.057068802 0.01681193
-0.06387679 -0.02091843 0.018037576 -0.054900303 -0.056825783 -0.042980563 -0.020954043 -0.025832549
0.0040141344 0.028744698 0.013763521 0.0071196016 0.012377892 -0.0021781698 -0.016924042 -0.05264348
0.005172832 -0.028674416 -0.045085136 0.031394616 0.0031188265 -0.056076813 -0.02184275 -0.004563267

conv.7.bias f4 [64]
00000000: 04d5 52bd 64cb 9f3e 240d 113e d922 993e
00000010: b7a2 943e 0fb6 853e fef7 28be fd9f ab3d
00000020: 993f 653d f04c 5d3e f97b 92bd 3d74 a63d
00000030: ee35 573e 3ed2 6f3e 4d49 c33e 38e3 5ebe
00000040: 254f 443e aa22 513e e017 023f 0b8f 933d
00000050: a5d7 373c ed23 5c3d 73f2 3f3e 50bf 513e
00000060: a871 923d 5869 8a3c a030 f5ba f4dc 4dbd
00000070: 713b 303d bdd0 c2bc 32a6 e83d 6d8d 76bd
00000080: 834a dfbd b4d4 283e a0aa 84bc e7bf 28be
00000090: bfda 9e3d f43a c2bd eb10 b13d cde4 533d
000000a0: 4731 843d c4e7 623d f8c6 39bd a0b1 823d
000000b0: 5812 2d3e 0e67 313e 114f 1abc e0ae 2b3e
000000c0: be17 033e 20dc eb3d 9a5a d9bd 82ff fe3c
000000d0: 4072 dd3c 5c41 5fbd 426e 173e 6681 34be
000000e0: 2fc3 9abd 4f3e 61be f4c1 af3e a1c4 99bc
000000f0: daf1 9b3e 2896 cfbd e9c2 7f3e eacf e83d
-0.05147268 0.31209862 0.14165169 0.299094 0.29030392 0.26115462 -0.16500852 0.08380125
0.055968855 0.2161138 -0.07152552 0.081276394 0.21016666 0.23420045 0.38141862 -0.21766365
0.19170816 0.2042338 0.5081768 0.07205018 0.011220847 0.0537452 0.18744831 0.20483136
0.071505845 0.016895935 -0.0018706508 -0.050259545 0.043025438 -0.023781175 0.11359824 -0.060193468
-0.10902884 0.1648739 -0.016194642 -0.16479455 0.07756566 -0.09483901 0.08645805 0.051731873
0.064547114 0.05539681 -0.045355767 0.063815355 0.16901529 0.17324468 -0.009418265 0.16765928
0.12802026 0.11516595 -0.10612984 0.031127695 0.027032018 -0.05450569 0.14788154 -0.17627487
-0.075567596 -0.21996425 0.34327662 -0.018770518 0.30457956 -0.10136062 0.24976696 0.113677815

out.weight f4 [4, 64]
00000000: c8e3 a93d 3801 163f 28a6 95bd 33e6 e03e
00000010: 753c a03e 55bd 473e f555 4ebe 3da9 bf3e
00000020: 4779 edbd aa40 a03e befb 863d 2314 983e
00000030: 56ec ba3e faa6 77ba 2b47 e13c 2cd1 263d
00000040: eaef f0be 1c72 583e 1084 b33e f242 303e
00000050: b260 8b3e e3eb 43bc ec8d 963e c7b7 533c
00000060: 6535 14be 289c b3bd 2f3b 1f3f e207 ba3d
00000070: aa6b 113e e0d6 babd f34a 473e 0def 11bd
00000080: 7825 1dbe 634b 673e 5232 4d3d 85dc 06be
00000090: 7131 d93e f5c2 55bf 8984 78be 5d52 3cbe
000000a0: 7e00 323e 69ae 6a3e f7fe 863d 7a4c c33b
000000b0: 95d2 90bf 1b25 83bf 4466 85be fea6 84bf
000000c0: f3fc 1abf 211d 833d d682 253e 2d21 acbd
000000d0: 1900 b1be 2fd7 903c 1202 bdbe daf7 c73f
000000e0: 7f88 47bd d369 84bd 22b4 543e 4968 8abe
000000f0: 3dff a13d d988 1ebd 5950 153f e993 6ebe
00000100: 40a9 9cbd 9233 d43d 059d 9f3e 026f babd
00000110: 17ea f23e 0970 ce3e ddec 9d3e 93ce 4fbe
00000120: b89e 68bf 44a0 e23e 9b45 8e3c 4a9f 623e
00000130: cca0 d13e 049c 963e 7cb4 203e 0d4c 9fbd
00000140: a125 383d cd59 b03d 91ed f63e 9b91 a1bf
00000150: e87e 1cbe 3363 d83e 7ddc a23e a51d c8bd
00000160: 694f 5dbf 4e1f 2ebe b618 0fbe 3b8b c53d
00000170: f2a5 a3bf 9f3e a0bb 0de7 42bd 59b2 e63d
00000180: c240 91be b3e3 0a3f c3c3 a3bc 3864 d6bd
00000190: f634 d6bc 3ce3 9d3d 5831 e0be 826d adbd
000001a0: 3bc2 3f3c 7b46 b5bc 61b2 9c3d 6677 73be
000001b0: c7ee 203e 769f 58bd 6d98 04bf 6074 053e
000001c0: 7ba3 44be 5a84 343e e725 c3be d58f bd3e
000001d0: 8ae0 313e a50b 9fb9 e157 8d3e 1d3f 02bf
000001e0: a963 ad3d 9e0f e6be 67c8 ffbc 588e f93e
000001f0: 01b3 b63e e0be 903c 98f2 143d fd46 babc
00000200: 1213 9f3d 6b8d ba3d 6ac5 26bf f117 3dbc
00000210: 5f65 2abb d604 133d cb64 cbbe 175e 6cbd
00000220: e0ba 0f3e 860e ac3d 23fb a8bd 2cb7 6b3e
00000230: 2af2 a93e 9b6c 923e 8642 b53d 8898 17bf
00000240: ca9e 693e cce4 f43e 62f7 fa3e 6725 e23d
00000250: 8e9c 973d 3523 f33c 92bc dc3e 68be 313e
00000260: 6332 96bc c7a2 42bf 8999 a4bd 3c38 e73c
00000270: 3152 fabd 7cf8 0a3f 3d9a 9b3e be29 cf3d
00000280: 9748 e4bd 99e2 d43d 7c8d 5c3d 4c45 c83f
00000290: a7bc cd3d 6596 ad3c 5368 58bd bf65 12be
000002a0: d464 0dbe bdcd a6bf 092f 87bd 3c07 563d
000002b0: e6dc d2bc df0f b53d 0137 23bc 3127 a9bd
000002c0: bebb 5e3e ae84 bebf b350 d33e 8913 c7be
000002d0: e78b d83d 2b67 2cbd 4f5a 0c3f 3b2e 8ebe
000002e0: d144 d63d 9c26 ee3f 9b9e 043f 6cf5 e8bd
000002f0: b319 0b3f 753d adbe 887b 7e3d 8cd8 61bf
00000300: 681a 743d 7ef5 88bd cda9 773d 34f7 c33e
00000310: 9972 283e 7097 773d d758 9fbe 7438 bc3e
00000320: fb0c 18be 032c 6d3e be88 ff3c b3de 1ebe
00000330: 4abc 963e fb1e 9a3e 4e64 163f 37ab b7bd
00000340: 1daa 06be ad10 223e aa6d c23e 4c08 063e
00000350: 17ef 0b3f 6f82 49bf e61f b53e 5f51 0f3f
00000360: 3fd5 b7bc 2137 75be 36dc 4e3e 6aa8 2f3d
00000370: 1851 0ebd fb3d fdbd c5cb 85bf 31a7 54be
00000380: 6883 8c3f dde0 54be da3a c33d 049c dcbd
00000390: d867 d33e ab61 0a3e 859f 833e fd5b 42bf
000003a0: 9f8a 7abf 7bad 5dbc 9e10 f1bd af8a 63bf
000003b0: a8e5 263e 1a41 f9bc 91e8 00be e424 24bc
000003c0: da28 b53d db70 143e f768 b6bd 41af d33e
000003d0: 8c7a 2a3e 5de6 f63c e2ff 1fbd 7213 d2be
000003e0: e600 c83d 060c 52be a36f e63d a69f 8fbc
000003f0: cdac cd3d 327f 463f 4524 60bd e46d 463e
0.08295399 0.5859561 -0.073070824 0.43925628 0.31296125 0.19505818 -0.20149978 0.37433806
-0.115953974 0.31299335 0.06590985 0.29702863 0.36508435 -0.00094471837 0.027499756 0.040726826
-0.4705804 0.2113728 0.35061693 0.17213038 0.2722221 -0.011958095 0.29405153 0.012922234
-0.14473493 -0.08770019 0.6219968 0.09083535 0.14201227 -0.091230154 0.19462185 -0.035628367
-0.15346324 0.22587352 0.050096817 -0.13170059 0.42420533 -0.83500606 -0.24269308 -0.18390794
0.17383 0.22918095 0.065915994 0.0059600445 -1.1314265 -1.0245699 -0.26054585 -1.0363462
-0.6054222 0.0640204 0.16163191 -0.08404765 -0.34570387 0.017680733 -0.36915642 1.5622513
-0.048714157 -0.06465497 0.2077184 -0.27032688 0.07910011 -0.038704727 0.58325726 -0.23298611
-0.076494694 0.10361399 0.31174484 -0.09103204 0.4744422 0.4031985 0.30844775 -0.20293646
-0.90867186 0.44262898 0.017367175 0.22131076 0.4094299 0.29415905 0.1569385 -0.077781774
0.04495776 0.08610878 0.48228124 -1.262256 -0.15282786 0.42263183 0.31808844 -0.09771279
-0.86449295 -0.1700413 -0.1397427 0.09645697 -1.2785017 -0.0048902775 -0.04758363 0.11264486
-0.2836972 0.5425369 -0.019990807 -0.10468334 -0.0261483 0.07709357 -0.43787646 -0.084681526
0.011704023 -0.022128334 0.076512106 -0.23776016 0.15716086 -0.05288645 -0.51795083 0.13032675
-0.19202988 0.17628613 -0.38114855 0.37023798 0.17370811 -0.0003033552 0.2760611 -0.50877553
0.08466274 -0.4493379 -0.031223489 0.48741412 0.35683444 0.017669141 0.036364168 -0.022738928
0.07767309 0.091090046 -0.6514498 -0.011541353 -0.0026000363 0.035893284 -0.39725336 -0.05770692
0.14036131 0.084012076 -0.082510255 0.23019093 0.3319257 0.28598484 0.08850579 -0.5921712
0.2281448 0.47830808 0.49016863 0.1104229 0.07402907 0.029679874 0.43112618 0.1735779
-0.018334573 -0.7602963 -0.08037097 0.028225057 -0.12222708 0.5428541 0.30391112 0.101153836
-0.11146658 0.103947826 0.053845868 1.5646148 0.10045748 0.021189878 -0.052833866 -0.14296626
-0.13807994 -1.3031536 -0.06600768 0.052252993 -0.025740098 0.08840918 -0.009961844 -0.08259428
0.21751305 -1.4884241 0.41272506 -0.38882092 0.10573559 -0.042090576 0.548253 -0.27769646
0.104623444 1.8605533 0.5180451 -0.113749355 0.5433609 -0.3383595 0.062129527 -0.8822105
0.059595495 -0.06687449 0.06046467 0.3827454 0.16449966 0.060447156 -0.31122467 0.3676182
-0.14848702 0.2316132 0.031193133 -0.1551464 0.29440528 0.3010176 0.587468 -0.089682035
-0.1315083 0.15826674 0.37974292 0.13089103 0.546617 -0.7871465 0.353759 0.5598354
-0.02244055 -0.23946811 0.20201191 0.04288522 -0.034745306 -0.123653375 -1.045281 -0.20766903
1.0977602 -0.20788904 0.095327094 -0.10771945 0.41290164 0.1351382 0.2570764 -0.7592161
-0.9786777 -0.0135301305 -0.117707476 -0.8888349 0.16298544 -0.03042655 -0.12588717 -0.010018561
0.088456824 0.14496176 -0.08906739 0.41344646 0.1664831 0.030139143 -0.03906239 -0.4103046
0.09765796 -0.20512399 0.11251762 -0.017532181 0.10042725 0.77537835 -0.05472209 0.19377857

out.bias f4 [4]
00000000: 7494 ed3e 7399 c63e 8b99 803e 6ed3 973e
0.46402323 0.38788947 0.25117144 0.29653496
