models/v17.1/model_374500.pth (torch, 295107 bytes, 10 tensors)

conv.0.weight f4 [16, 2, 3, 3]
0	0x3e0364e8	0.12831461
1	0x3c20ddfc	0.00981855
2	0xbe5f91bf	-0.21832941
3	0x3ea38296	0.31935567
4	0xbde60e13	-0.11233153
5	0x3df73285	0.12070183
6	0xbec2d4ad	-0.38052884
7	0x3ee382d0	0.4443574
8	0x3d9fb2d7	0.07797783
9	0x3c038788	0.008027919
10	0xbb92f03b	-0.004484204
11	0xbcb91180	-0.022591352
12	0xbd86e37b	-0.06586357
13	0x3dc1843d	0.094490506
14	0x3b6fbaa7	0.003657976
15	0xbba50e22	-0.005037085
16	0x3d257921	0.04039872
17	0x3c9c0c8c	0.019048952
18	0xbe4d914a	-0.20074955
19	0x3e944249	0.28956822
20	0x3bd2cf78	0.0064334236
21	0x3e5df34c	0.21674842
22	0xbe372c92	-0.17888096
23	0x3e55a4ae	0.20863602
24	0xbf434341	-0.76274496
25	0xbf0f008b	-0.55860204
26	0xbdca69c2	-0.09883453
27	0xbf7ea4a9	-0.9947
28	0x3f33f8a2	0.7030126
29	0xbf9e419f	-1.2363776
30	0x3e645e1d	0.22301526
31	0xbe2c70a6	-0.16839847
32	0x3e4d4ed7	0.20049606
33	0xbc2475e5	-0.010037874
34	0xbbd3117b	-0.006441293
35	0x3d943a2a	0.072376564
36	0x3d76e690	0.060278475
37	0x3e638ae0	0.22220945
38	0x3dbae708	0.09126097
39	0xbd961bd2	-0.07329525
40	0x3e944c03	0.28964242
41	0xbd964409	-0.073371954
42	0x3e59319b	0.21210329
43	0x3e25f329	0.1620604
44	0x3d789684	0.060690418
45	0x3db1971f	0.08671402
46	0x3e170244	0.14746958
47	0x3c4bec8f	0.012446537
48	0x3e5b7cd3	0.21434335
49	0x3bf9d84b	0.007624661
50	0xbfbcd265	-1.4751707
51	0xbc4cb788	-0.012494929
52	0xbea0c2e1	-0.3139868
53	0x3d03a9be	0.0321443
54	0xbcb19547	-0.021677626
55	0x3dc1970e	0.094526395
56	0x3c4d25f8	0.0125212595
57	0x3e1d4401	0.15357973
58	0x3e028007	0.12744151
59	0xbf3e0a2a	-0.7423426
60	0xbec26e8a	-0.3797496
61	0xbec066e2	-0.37578493
62	0x3e44559d	0.19173284
63	0xbd71c471	-0.05902523
64	0x3cc70afa	0.024297226
65	0xbc9d4088	-0.01919581
66	0x3ea9ebbb	0.3318766
67	0xbd514339	-0.0510895
68	0xbf8097a3	-1.0046276
69	0xbe84aba2	-0.25912195
70	0x3ec235b7	0.37931606
71	0x3df1722b	0.11789354
72	0x3e44d1fa	0.19220725
73	0xbdbb36c6	-0.091413066
74	0xbe1dab45	-0.15397365
75	0xbf96a78a	-1.1769879
76	0xbe020837	-0.12698446
77	0x3db04d13	0.08608451
78	0x3d747f24	0.059691563
79	0x3ef4bd04	0.47800457
80	0xbf8d2fbf	-1.1030196
81	0xbe8e3f5f	-0.27782723
82	0x3e719a65	0.23594053
83	0xbeaf96d8	-0.34294772
84	0x3e77f69c	0.24215168
85	0xbc95c9ff	-0.018284796
86	0x3e3edd24	0.18639046
87	0x3d5bcb71	0.053660814
88	0xbd33d342	-0.043902643
89	0x3c5716a8	0.01312796
90	0xbc2d54e6	-0.010579323
91	0xbe3d8256	-0.1850675
92	0x3ef4c409	0.47805813
93	0x3e9622d9	0.29323462
94	0xbdd9fc51	-0.10643829
95	0xbe19c30c	-0.1501581
96	0x3f3eb233	0.7449066
97	0xbedb259a	-0.42802125
98	0x3ecf55cb	0.40495142
99	0xbec1e6b1	-0.37871316
100	0xbd8ff3e1	-0.07028938
101	0x3db5e100	0.08880806
102	0x3ddd8e61	0.10818172
103	0xbec28ea5	-0.37999454
104	0xbd2c030c	-0.041995093
105	0x3cd799dc	0.026318483
106	0xbe3802d9	-0.17969836
107	0xbe9e4e95	-0.30919328
108	0xbf5c92c2	-0.86161435
109	0xbdb8f940	-0.09031916
110	0x3e913bdf	0.2836599
111	0x3e5505ac	0.20802945
112	0x3da2a1c9	0.07941014
113	0xbf818c89	-1.0121013
114	0xbe9748c3	-0.295477
115	0x3e03b6da	0.12862721
116	0xbe85921b	-0.26088032
117	0xbd925a25	-0.071461
118	0xbd078412	-0.033084936
119	0xbd996229	-0.07489426
120	0x3db4e29d	0.088322856
121	0x3c3553a9	0.011067309
122	0x3d5e8c78	0.05433318
123	0xbf0bea17	-0.5465407
124	0xbd9b226c	-0.07574925
125	0xbe4460cb	-0.19177549
126	0x3e819de5	0.25315776
127	0xbe40a773	-0.18813877
128	0x3f0a7a13	0.5409252
129	0xbe198c81	-0.14995004
130	0x3e883ade	0.26607412
131	0x3e21664d	0.15761681
132	0x3c8a4640	0.016879201
133	0x3ec3d515	0.38248506
134	0xbde9187a	-0.11381622
135	0xbfc69d2e	-1.5516717
136	0xbf2d1258	-0.67606115
137	0xbf582ee2	-0.8444654
138	0x3df04e85	0.117337264
139	0x3d03e89f	0.032204267
140	0xbdbace46	-0.09121375
141	0xbdbcb1e9	-0.09213621
142	0x3dd828f3	0.105546854
143	0x3cf4ebe8	0.029897645
144	0xbb76e974	-0.003767577
145	0x3dd9c0e9	0.10632498
146	0x3d4aaa0a	0.049478568
147	0x3ecbd734	0.39812624
148	0x3d4f820f	0.050661143
149	0xbe33ed0c	-0.17570895
150	0x3e7f1a0b	0.24912278
151	0xbee043a6	-0.43801612
152	0x3cd6f6c8	0.026240721
153	0xbec00f61	-0.37511733
154	0x3f16e1e4	0.5893843
155	0xbef1caed	-0.47225133
156	0x3d5fc1f0	0.054628313
157	0x3e8c7bbb	0.2743815
158	0x3cac997d	0.021069283
159	0xbea3316f	-0.31873652
160	0x3eeab706	0.4584276
161	0x3c794758	0.015214764
162	0x3ce18b82	0.027532343
163	0x3d030ba6	0.03199353
164	0x3d44d699	0.04805622
165	0x3d14e994	0.03635557
166	0xbe16bd32	-0.1472061
167	0x3e7b4d20	0.2454114
168	0x3eb2093f	0.3477268
169	0xbdddc550	-0.1082865
170	0xbe28ffc5	-0.16503818
171	0xbd1f43a7	-0.038882878
172	0x3e30c3aa	0.1726214
173	0xbe15d335	-0.1463135
174	0xbfd5ebb8	-1.6712561
175	0xbce29bb6	-0.02766214
176	0xbd5da31c	-0.05411063
177	0x3e3321f3	0.1749342
178	0x3eabed42	0.3357945
179	0xbe52a416	-0.20570406
180	0xbe03d8a9	-0.12875618
181	0x3e0bc363	0.13648753
182	0x3d9c9298	0.07645148
183	0xbdf3e2f3	-0.119085215
184	0x3d096889	0.033546958
185	0x3db3d00b	0.087799154
186	0x3f1e5bfc	0.61859107
187	0xbedc5a2a	-0.4303754
188	0xbc8d0ed4	-0.017218985
189	0x3de97a30	0.114002585
190	0xbe979d33	-0.2961212
191	0xbe07a1dd	-0.1324534
192	0x3f7e589c	0.9935396
193	0xbce78b63	-0.028264707
194	0xbd660019	-0.056152437
195	0x3e36ecd8	0.17863786
196	0x3d143ffb	0.03619383
197	0xbe01541d	-0.12629743
198	0x3e1f50b0	0.15558124
199	0x3e209d15	0.15684922
200	0xbecb0331	-0.39650872
201	0xbdeb33b5	-0.11484472
202	0x3db5b79b	0.088729106
203	0x3e6184f0	0.22023368
204	0xbfa33e29	-1.2753345
205	0xbe02923b	-0.12751095
206	0xbd94183b	-0.07231184
207	0xbfaefc28	-1.3670702
208	0xbe90f62b	-0.2831281
209	0x3e952322	0.29128367
210	0x3e2d06f6	0.16897187
211	0x3e7c4d46	0.24638852
212	0xbe7c3094	-0.24627906
213	0x3e156026	0.14587459
214	0x3e0a7379	0.13520612
215	0x3bd22d14	0.006414065
216	0xbe2aa525	-0.1666456
217	0xbd34426d	-0.04400866
218	0x3d346a40	0.04404664
219	0xbdb3f648	-0.08787209
220	0x3c31aec8	0.010844894
221	0x3e2bcf10	0.16778207
222	0xbddde76b	-0.10835155
223	0xbc82ab7c	-0.01595091
224	0xbe4441c1	-0.19165708
225	0x3df1413a	0.11780019
226	0x3e52e80b	0.2059633
227	0x3cf958bf	0.030437825
228	0xbcbac7a4	-0.022800274
229	0xbf79bc3c	-0.9755285
230	0xbdd85efe	-0.10564993
231	0x3d76d9bf	0.060266253
232	0x3da7675b	0.0817401
233	0x3e6c433e	0.23072526
234	0x3e55d472	0.20881823
235	0x3d44ca5b	0.048044544
236	0x3d0daefb	0.034590703
237	0x3c9c5c6b	0.019087037
238	0xbfb3d21e	-1.4048498
239	0xbb4eb5f7	-0.0031541565
240	0xbd287ca4	-0.04113449
241	0xbe2318b9	-0.159274
242	0x3db57713	0.08860602
243	0x3e66b9ef	0.22531866
244	0xbfb584cc	-1.4181151
245	0xbe4377e7	-0.19088708
246	0xbdf1fde5	-0.11816005
247	0x3d443e1b	0.04791079
248	0xbe107f80	-0.14111137
249	0x3e623ca9	0.22093453
250	0xbe73f3f6	-0.23823532
251	0xbc5d19f5	-0.013494958
252	0x3e23ece3	0.16008334
253	0xbfa1fcd1	-1.2655278
254	0x3c9e1920	0.01929909
255	0xbda79029	-0.08181793

conv.0.bias f4 [16]
0	0xbcea64c8	-0.02861251
1	0x3dcbba09	0.09947593
2	0xbb7dce5e	-0.003872774
3	0x3b974945	0.0046168887
4	0xbd6a4314	-0.057192877
5	0xbede4a6a	-0.43416148
6	0x3ea52bc3	0.3225995
7	0xbec3f793	-0.38274822
8	0xbe8edc99	-0.27902678
9	0xbe024ea1	-0.12725307
10	0xbf2d5529	-0.6770807
11	0xbd4cba31	-0.049982253
12	0x3d397cac	0.045284912
13	0x3dad19d5	0.08452193
14	0xbe16bb3a	-0.14719859
15	0x3de2b4e2	0.11069657

conv.2.weight f4 [32, 16, 3, 3]
0	0xbc7c94ce	-0.015416337
1	0x3e0140fc	0.12622446
2	0x3ad529d0	0.0016263071
3	0x3e20679e	0.15664527
4	0x3cde4570	0.02713272
5	0x3caa5fa8	0.020797566
6	0x3e8e43bb	0.2778605
7	0x3e574628	0.21022856
8	0xbe84605b	-0.25854763
9	0x3e89a03d	0.26880065
10	0x3e0a72c5	0.13520344
11	0xbe0e5b3a	-0.13901988
12	0xbe6ae480	-0.22938728
13	0x3cd7df7c	0.026351683
14	0xbd08ba80	-0.033380985
15	0x3dce879a	0.10084458
16	0xbd15608a	-0.03646902
17	0xbe854ce4	-0.26035225
18	0xbd526cc1	-0.051373247
19	0x3e0502d1	0.12989356
20	0xbd2e4a5b	-0.04255138
21	0xbf208a7e	-0.6271132
22	0x3eb73916	0.3578574
23	0xbfe0a960	-1.7551689
24	0xbdc9df48	-0.09857041
25	0xbd6595b3	-0.056050967
26	0x3b27548b	0.002553257
27	0x3e37eb1f	0.17960785
28	0xbe114365	-0.14185865
29	0xbe8814e3	-0.26578435
30	0x3e4008de	0.18753383
31	0xbeda45ea	-0.42631465
32	0xbe3e21b8	-0.1856755
33	0xbe1b419b	-0.15161745
34	0x3e5b3fe1	0.21411087
35	0x3d4922d7	0.04910549
36	0x3e2dac4f	0.16960262
37	0x3da234d6	0.07920234
38	0x3e8091ad	0.25111142
39	0x3cbc8ecf	0.023017315
40	0x3d371d0e	0.044705443
41	0xbe81bee2	-0.25340945
42	0x3e5661f8	0.2093581
43	0xbe1f85d2	-0.15578392
44	0x39edeaf0	0.00045379205
45	0xbdea12e4	-0.11429384
46	0x3be33e11	0.006934889
47	0xbebb6a06	-0.36604327
48	0x3e80c98b	0.25153765
49	0xbe9dd95a	-0.3082989
50	0x3cc711ed	0.02430054
51	0x3db90b99	0.09035415
52	0x3d57098f	0.05249935
53	0xbdb729b5	-0.08943502
54	0xbe9f7537	-0.31144115
55	0x3c503e7a	0.012710208
56	0xbecde938	-0.40216994
57	0x3c78b175	0.015179028
58	0xbe7faa5e	-0.24967334
59	0xbe377568	-0.1791588
60	0xbe22f6f1	-0.15914513
61	0x3dc21195	0.0947601
62	0x3d423341	0.04741216
63	0x3e85c994	0.26130354
64	0xbde549fd	-0.11195753
65	0x3da589a4	0.080828935
66	0xbe4846a5	-0.19558199
67	0xbdfd10f1	-0.12356747
68	0x3c8555ca	0.016276259
69	0x3e348483	0.17628674
70	0xbe9ab92d	-0.30219403
71	0xbf47ba15	-0.78018314
72	0xbe9c0aec	-0.30477083
73	0xbb5500a7	-0.003250161
74	0x3f01156f	0.5042333
75	0x3dc3d3b8	0.095618665
76	0x3d58347e	0.052784435
77	0x3e28c46d	0.1648118
78	0x3d829a81	0.063771255
79	0xbdacb158	-0.08432263
80	0xbe50bea2	-0.2038522
81	0x3e38b685	0.18038376
82	0xbee67d40	-0.45017433
83	0x3eb9f689	0.36320904
84	0xbe6fa03b	-0.23400967
85	0xbed42c6f	-0.4144015
86	0xbe1d82b6	-0.15381894
87	0x3d4fcb37	0.05073091
88	0x3e580368	0.2109505
89	0x3e9ea4b9	0.30985048
90	0x3e8b819e	0.27247328
91	0xbce44413	-0.027864492
92	0x3c7a088e	0.015260829
93	0xbc4c9c5c	-0.012488451
94	0xbe126b3c	-0.14298719
95	0xbf2d793a	-0.677631
96	0x3ed53177	0.416393
97	0x3daa1026	0.08303861
98	0xbe2d2060	-0.16906881
99	0xbc5952e5	-0.0132643925
100	0xbe459558	-0.19295251
101	0xbe0f3a68	-0.13987124
102	0xbe29f1c4	-0.16596133
103	0xbe6a8d4c	-0.22905463
104	0xbe09b8d1	-0.13449408
105	0x3e15ebaf	0.14640687
106	0xbdd2e3bf	-0.10297345
107	0xbcdda332	-0.027055357
108	0xbd0d19bd	-0.034448374
109	0x3d44d19f	0.048051473
110	0x3d3ebaaa	0.046564735
111	0xbd1a8f3a	-0.037734248
112	0xbf3b8da4	-0.73263
113	0xbdacfb00	-0.08446312
114	0x3d581a55	0.052759487
115	0x3d2c79da	0.042108394
116	0xbe09ab0a	-0.13444152
117	0xbe835f9b	-0.2565888
118	0xbf4eb85f	-0.8075008
119	0xbdff3228	-0.124607384
120	0x3d4f1e6a	0.050566114
121	0xbe094ec3	-0.13408951
122	0xbd33e36f	-0.04391807
123	0xbf768f60	-0.9631252
124	0xbde2bd7e	-0.11071299
125	0xbe477262	-0.19477227
126	0x3e2f2537	0.1710404
127	0xbd6c15e1	-0.057638053
128	0x3e887f57	0.26659653
129	0x3db8c286	0.090214774
130	0xbe007575	-0.12544806
131	0xbe9023fe	-0.2815246
132	0x3dbe4bc3	0.09291794
133	0x3c038ae8	0.008028723
134	0xbd8b9aab	-0.0681661
135	0x3d29e6a5	0.041479725
136	0xbc882d22	-0.016623084
137	0x3d2ffac5	0.04296376
138	0x3d5728f4	0.05252929
139	0x3e33dfc2	0.17565826
140	0xbe009825	-0.12558039
141	0x3db3a435	0.087715544
142	0xbe776b0d	-0.2416193
143	0x3cb48656	0.022036713
144	0x3d272352	0.04080517
145	0x3e9a34ef	0.3011851
146	0xbdc24bb0	-0.094870925
147	0x3d6d7ca4	0.057980195
148	0xbe7631f7	-0.24042498
149	0xbe067b8a	-0.13133064
150	0x3db705e2	0.08936669
151	0x3dbe9605	0.09305958
152	0x3cbfddb3	0.023421144
153	0xbdcd1bd5	-0.10015074
154	0x3dfb6ac7	0.122762255
155	0xbd3d2cd3	-0.046185326
156	0xc057f7ab	-3.3744915
157	0x3de85b7f	0.113455765
158	0x3e179a48	0.14804947
159	0xbe04bade	-0.12961909
160	0x3e814c45	0.25253502
161	0xbd006dc7	-0.03135469
162	0xbe5c35ca	-0.21504894
163	0xbcc03409	-0.023462312
164	0x3c3c093e	0.011476813
165	0x3da4fba3	0.080558084
166	0x3d465ffc	0.04843138
167	0x3dfc06bd	0.12305973
168	0xbe31061b	-0.17287485
169	0x3e923b7e	0.28561014
170	0xbd57b8c9	-0.05266646
171	0xbf03106e	-0.51196945
172	0xbeacd50e	-0.33756298
173	0x3eaab58a	0.33341628
174	0xbe663c28	-0.22483885
175	0x3e6090d7	0.21930252
176	0xbd977056	-0.07394473
177	0xbf38ed35	-0.7223695
178	0xbe9643d6	-0.2934863
179	0x3e9ff7f9	0.31243876
180	0xbec55fa2	-0.38549525
181	0xbe9b57b0	-0.30340338
182	0xbf5e1cc4	-0.8676264
183	0xbe8137e2	-0.25237948
184	0x3e138189	0.14404882
185	0x3e93918c	0.2882198
186	0xbe0f7866	-0.14010772
187	0x3c815f29	0.015792446
188	0xbdbdd707	-0.09269529
189	0xbe3de759	-0.18545283
190	0xbe6e60e9	-0.23279156
191	0x3e4fb370	0.20283294
192	0x3e696468	0.22792208
193	0x3eb1269a	0.34599763
194	0xbeb6bb9e	-0.35690016
195	0xbc6cd0e9	-0.014454105
196	0xbebcc21c	-0.36866844
197	0xbe407f3a	-0.18798533
198	0xbcdad53e	-0.02671301
199	0xbdba48ef	-0.09095942
200	0x3ecc68f6	0.3992383
201	0xbce39bc1	-0.02778423
202	0xbe8ab6c9	-0.2709258
203	0xbf5e2c18	-0.8678603
204	0x3d8b6656	0.068066284
205	0x3e4a8733	0.19778137
206	0x3f18bb46	0.59660757
207	0xbce8ab61	-0.028402032
208	0x3da466de	0.08027433
209	0xbe8c445e	-0.2739591
210	0x3cdad425	0.026712487
211	0xbe2035f3	-0.1564558
212	0x3e7840ff	0.24243544
213	0x3ea044b4	0.31302416
214	0xbe2b0663	-0.16701655
215	0xbda75ccb	-0.08171996
216	0xbe09ddfe	-0.1346359
217	0x3d8e7ae6	0.06957035
218	0xbe733c28	-0.23753417
219	0x3eb89128	0.36048245
220	0x3dc25986	0.094897315
221	0xbe9e6a8d	-0.30940667
222	0x3e80ad76	0.2513234
223	0x3e7a4773	0.24441318
224	0x3e43ea10	0.19132257
225	0x3ea03326	0.31289023
226	0xbdbc87a9	-0.092055626
227	0x3e39f7aa	0.18160883
228	0xbac3a3a2	-0.0014926086
229	0x3de5accb	0.11214598
230	0xbe6172d8	-0.22016466
231	0x3d826d7a	0.06368537
232	0xbc1b10fa	-0.009464497
233	0xbd86fc8d	-0.06591139
234	0x3e159e5b	0.14611189
235	0x3e9dbae2	0.30806643
236	0xbf067829	-0.525271
237	0xbe7fa8a7	-0.2496668
238	0xbe2b0b90	-0.1670363
239	0x3e85f008	0.26159692
240	0xbc88a113	-0.016678369
241	0xbe9cba11	-0.30610707
242	0x3ea9608f	0.3308148
243	0xbe3b6e75	-0.18303855
244	0x3ea2cb63	0.31795797
245	0xbdcf5817	-0.10124224
246	0x3e830661	0.25590804
247	0x3d4377ea	0.04772178
248	0xbdc40417	-0.095710926
249	0x3d3c30b1	0.045944873
250	0x3d806b33	0.06270447
251	0xbea51738	-0.32244277
252	0x3f06260b	0.524018
253	0xbe10fca6	-0.14158878
254	0x3e84df32	0.25951535
255	0x3d9ca353	0.07648339

conv.2.bias f4 [32]
0	0x3eb07b55	0.34469095
1	0x3cfb2950	0.030659348
2	0xbedb1294	-0.4278761
3	0xbec8aad2	-0.39192826
4	0x3e713a2a	0.23557344
5	0xbe5e1042	-0.2168589
6	0x3d9f2ca6	0.07772188
7	0xbe8863e7	-0.2663872
8	0xbe30d669	-0.17269291
9	0xbc974452	-0.018465195
10	0x3dfc0bbf	0.12306928
11	0xbb959716	-0.00456513
12	0xbe41725f	-0.18891285
13	0xbd4d70da	-0.05015645
14	0xbaf3c28f	-0.0018597412
15	0xbe937e91	-0.288075
16	0x3e050413	0.12989835
17	0xbd0dd335	-0.03462525
18	0x3d5fc012	0.054626532
19	0xbee6add2	-0.4505449
20	0xbde60e4e	-0.11233197
21	0x3e9705cc	0.2949661
22	0xbf2fbc38	-0.68646574
23	0x3e437ec1	0.19091322
24	0xbb1d80d6	-0.002403309
25	0x3e32153d	0.17390914
26	0xbe830af5	-0.25594297
27	0x3d801886	0.062546775
28	0x3a882c0c	0.0010389104
29	0xbd92bd77	-0.07165044
30	0xbce8ae20	-0.028403342
31	0xbd91dd18	-0.071222484

conv.4.weight f4 [64, 32, 5, 5]
0	0x3cb12c52	0.021627579
1	0xbd9214a3	-0.071328424
2	0xbc806e6a	-0.01567765
3	0x3e8369b1	0.25666574
4	0x3cca9259	0.024727987
5	0xbe4d8fdd	-0.2007441
6	0x3d307f2a	0.043090023
7	0x3d1a248b	0.037632506
8	0xbcd0d2ac	-0.025491081
9	0x3defb2c2	0.11704017
10	0x3d71bb49	0.0590165
11	0xbdd42c33	-0.10359993
12	0x3e51955a	0.2046713
13	0xbe66240b	-0.22474687
14	0xbbbdc03c	-0.0057907384
15	0xbea1e0a6	-0.31616706
16	0x3de7e688	0.11323267
17	0xbe6807b8	-0.22659194
18	0x3f5de5c4	0.8667872
19	0xbee07023	-0.43835554
20	0x3d56ca86	0.052439235
21	0xbe9f8fce	-0.31164402
22	0xbe33964a	-0.175378
23	0x3bbc0554	0.00573794
24	0xbe1eadec	-0.15496033
25	0xbd953ca0	-0.07286954
26	0xbeea3684	-0.45744717
27	0x3d77552b	0.060383957
28	0x3ec14e1f	0.37754914
29	0xbe2d1e6e	-0.16906139
30	0xbe467331	-0.1937988
31	0x3e517fa6	0.2045885
32	0xbe2f77f8	-0.17135608
33	0x3ca99b2e	0.020703878
34	0x3cb87861	0.022518339
35	0x3ed603e0	0.4179983
36	0xbec14ed4	-0.37755454
37	0x3e399857	0.1812452
38	0x3f1f6755	0.6226705
39	0xbf0d44ca	-0.5518309
40	0x3e1d912c	0.1538741
41	0x3e1cc8ea	0.15311018
42	0x3cb6f531	0.022333713
43	0x3e6eb20a	0.23310104
44	0x3eb401cb	0.35157618
45	0xbe640abf	-0.22269724
46	0x3e48a521	0.19594242
47	0x3d948b12	0.07253088
48	0xbe0b9c72	-0.13633898
49	0x3e82b9b7	0.25532314
50	0xbe7408b1	-0.2383144
51	0x3dbec806	0.09315495
52	0xbf173a8d	-0.59073716
53	0xbea8d0c6	-0.32971781
54	0x3e9eaa1c	0.30989158
55	0x3e9e78bb	0.30951485
56	0x3d2fe450	0.042942345
57	0xbeb2532b	-0.34829077
58	0x3e4dd128	0.20099318
59	0xbfde515b	-1.7368578
60	0xbf68f706	-0.9100193
61	0x3eb172ec	0.3465799
62	0xbf3f63cc	-0.7476165
63	0xbe9789da	-0.2959736
64	0x3e79a899	0.24380721
65	0x3e61fd18	0.22069204
66	0xbe473d76	-0.19457039
67	0x3f36479e	0.7120303
68	0xbd5cd34e	-0.053912453
69	0xbe39b383	-0.18134885
70	0xbd502f88	-0.05082658
71	0x3e1fdd63	0.15611796
72	0xbcd67e8b	-0.026183387
73	0xbd8045f0	-0.062633395
74	0x3b22886b	0.002480055
75	0xbd4bc850	-0.04975158
76	0xbe5fdd01	-0.2186165
77	0xbe22b48d	-0.15889187
78	0x3d7625ca	0.060094632
79	0xbe8764b4	-0.26444018
80	0xbcc4d509	-0.024027364
81	0x3e625ec8	0.22106469
82	0xbe03921b	-0.12848704
83	0x3f0f9f35	0.56102306
84	0x3e0ab6d3	0.13546304
85	0xbe6ceb51	-0.23136641
86	0xbc8e9b4d	-0.017408038
87	0xbf27debd	-0.65574247
88	0xbe1b8598	-0.1518768
89	0x3f8410c3	1.0317615
90	0x3dd3dc58	0.103447616
91	0x3e99dd08	0.30051446
92	0xbec443a3	-0.38332853
93	0xbf215f66	-0.6303619
94	0xbe1babed	-0.15202303
95	0x3f056353	0.5210468
96	0x3e3e3dba	0.18578234
97	0xbd5fa361	-0.05459917
98	0x3f233a69	0.63761
99	0xbe8bf9ab	-0.2733892
100	0x3dc5bc1a	0.09655018
101	0x3e064e14	0.13115722
102	0xbe25103e	-0.16119477
103	0xbe2bc937	-0.16775976
104	0xbe1ce794	-0.15322715
105	0x3da6cdb0	0.081447005
106	0x3d928674	0.07154551
107	0x3e611241	0.2197962
108	0xbcef5f96	-0.029220384
109	0x3e2d0ce6	0.16899452
110	0xbd3f7ca3	-0.046749722
111	0x3e078d55	0.13237508
112	0x3f112cab	0.5670878
113	0x3e5f26a1	0.2179208
114	0x3d68563c	0.056722865
115	0xbe8b9c6d	-0.2726778
116	0xbcc99832	-0.024608705
117	0x3e63ee69	0.22258915
118	0x3e96336c	0.29336107
119	0x3e32845a	0.174333
120	0x3e20e749	0.15713228
121	0xbdf57ed2	-0.1198708
122	0x3ee11a63	0.43965444
123	0x3debe3c9	0.11518056
124	0x3ee186fa	0.4404829
125	0x3f854458	1.0411482
126	0x3e20ff6d	0.15722437
127	0x3d0ec37c	0.034854397
128	0x3dacf4c3	0.08445122
129	0xbe249aed	-0.16074724
130	0x3e8023e7	0.2502739
131	0xbd722dcc	-0.059125707
132	0x3e8ee22d	0.27906933
133	0xbe2342d9	-0.15943469
134	0xbe62baec	-0.22141618
135	0xbd90f2da	-0.0707757
136	0x3de218bf	0.11039876
137	0xbd9f13e6	-0.07767467
138	0x3f13af7d	0.5768965
139	0xbdebe4c8	-0.11518246
140	0xbf5e9d9c	-0.8695924
141	0x3d5527a5	0.05203976
142	0x3d03bf74	0.032165006
143	0xbed6d270	-0.41957426
144	0xbe82c91f	-0.25544068
145	0xbf14e275	-0.58158046
146	0xbe86b1ee	-0.26307625
147	0x3ea51963	0.3224593
148	0x3dddc684	0.108288795
149	0xbf2792de	-0.65458477
150	0xbefa461c	-0.48881614
151	0x3ed6b899	0.41937712
152	0xbea2f174	-0.3182484
153	0x3db50218	0.0883829
154	0xbee8b714	-0.45452178
155	0xbe9e4e59	-0.3091915
156	0xbebfcba4	-0.37460053
157	0xbe829db9	-0.25510958
158	0xbe0cf478	-0.13765132
159	0xbdf1b8ea	-0.11802848
160	0xbdf5f1c6	-0.12009005
161	0x3db8648d	0.090035535
162	0xbe9d018f	-0.30665252
163	0x3ccecf16	0.02524523
164	0x3f9ad776	1.2097003
165	0x3ec7a74f	0.38994834
166	0x3dd64682	0.10462667
167	0xbd285237	-0.04109403
168	0xbf4d0e6d	-0.80100137
169	0x3f2a7db6	0.6659807
170	0x3e8608f6	0.26178712
171	0xbf00b788	-0.50280046
172	0x3d31ebf5	0.043437917
173	0xbe29211c	-0.16516536
174	0x3e4734ac	0.19453686
175	0xbcc56e72	-0.024100516
176	0x3eff51fe	0.49867243
177	0x3ecdf0b5	0.40222707
178	0x3e40c703	0.18825917
179	0x3e3fc38e	0.18726942
180	0xbf2c1241	-0.67215353
181	0x3e81bea3	0.25340757
182	0xbe497a36	-0.19675526
183	0xbdc30efc	-0.095243424
184	0x3f0046a9	0.5010782
185	0xbea79b0c	-0.3273548
186	0x3e89d7a9	0.26922348
187	0xbd4c0b91	-0.049815718
188	0xbe80f92b	-0.251901
189	0xbe0d7bac	-0.13816708
190	0xbe282ae6	-0.16422614
191	0xbe1fc2f4	-0.15601712
192	0x3e4a5f50	0.19762921
193	0x3d873a6c	0.0660294
194	0x3d20e773	0.039283227
195	0x3d8e996a	0.06962855
196	0x3df1bacb	0.11803206
197	0xbdada1d6	-0.084781334
198	0xbe3ad4cb	-0.18245237
199	0x3ddabc68	0.10680467
200	0xbc759c6c	-0.014990907
201	0x3e42dc62	0.19029382
202	0xbf054d59	-0.5207115
203	0xbef1b36a	-0.47207195
204	0xbc6e810f	-0.014557137
205	0x3eee41f8	0.46534705
206	0x3e24a5ed	0.1607892
207	0x3d505c2f	0.050869163
208	0x3df19a81	0.117970474
209	0xbdd8f5e0	-0.10593772
210	0xbe1014f1	-0.14070489
211	0xbe45b02d	-0.19305487
212	0xbdaea546	-0.08527617
213	0xbdd9f730	-0.106428504
214	0x3d9105e4	0.07081202
215	0xbe3fc0cc	-0.1872589
216	0x3e03d511	0.12874247
217	0x3c33f2a8	0.010983147
218	0x3e1514ab	0.14558665
219	0xbe5520db	-0.20813315
220	0xbeba7121	-0.36414436
221	0x3e6b10f3	0.22955684
222	0xbea89320	-0.32924747
223	0x3d73bd6f	0.05950683
224	0xbda05dc6	-0.07830386
225	0xbd2af58a	-0.04173807
226	0xbd6f2629	-0.058386
227	0x3e011933	0.12607269
228	0x3da90663	0.08253171
229	0x3dfbbb88	0.12291628
230	0x3db4046b	0.08789905
231	0xbe7af8f8	-0.24509037
232	0xbebc0a5d	-0.36726657
233	0x3f2f951f	0.68586916
234	0xbe002cc1	-0.12517072
235	0xbe61a14e	-0.22034189
236	0xbe99fa54	-0.30073798
237	0x3e5ab122	0.21356633
238	0x3d06f764	0.032950774
239	0x3e6d692c	0.23184651
240	0x3e76f4e3	0.24116854
241	0x3e9fb6e4	0.31194222
242	0xbe269552	-0.16267899
243	0x3de6d6cc	0.11271438
244	0x3d501bb8	0.050807685
245	0x3e8084ac	0.2510122
246	0x3eca4179	0.39503077
247	0xbe04aff5	-0.12957747
248	0xbb208e2c	-0.0024498804
249	0x3d86a9a6	0.065753266
250	0xbb321c94	-0.0027177678
251	0xbab56f5e	-0.0013842394
252	0xbf1420be	-0.5786246
253	0x3d3804ca	0.044926442
254	0x3e4eb2c3	0.2018538
255	0x3dc9d7ae	0.09855591

conv.4.bias f4 [64]
0	0xbef32e14	-0.47496092
1	0xbec10259	-0.37697104
2	0xbe3603af	-0.17774843
3	0xbb34aff2	-0.0027570692
4	0xbf1f1690	-0.621438
5	0xbe6f421f	-0.23365067
6	0xbd351d8c	-0.04421763
7	0xbe801763	-0.25017843
8	0x3eaf482b	0.34234747
9	0xbe8a322a	-0.26991397
10	0x3e5ca97a	0.21549025
11	0xbd474e54	-0.048658684
12	0xbe60cb1b	-0.21952479
13	0xbd2ca76a	-0.042151846
14	0xbed664ba	-0.41873723
15	0xbe732e17	-0.2374805
16	0xbce20c2c	-0.027593695
17	0xbed12788	-0.40850472
18	0x3d21292b	0.0393459
19	0xbeb21916	-0.34784764
20	0xbdd24249	-0.10266549
21	0xbf0c652a	-0.54841864
22	0xbd4180e8	-0.047242075
23	0xbe8ecb8b	-0.27889666
24	0xbee08fb2	-0.4385963
25	0x3f23d3f6	0.639953
26	0xbd7cf4b8	-0.06175682
27	0xbddb99c9	-0.107226916
28	0xbceab95c	-0.02865284
29	0xbe5c9c98	-0.21544111
30	0xbe037b0a	-0.12839904
31	0xbe4203d7	-0.18946777
32	0xbeca76d9	-0.395438
33	0xbde12f99	-0.10995407
34	0xbe65de6d	-0.2244813
35	0x3de148c8	0.1100021
36	0x3e2e8f1d	0.17046781
37	0xbe533243	-0.20624642
38	0xbed85d88	-0.4225886
39	0xbd78b238	-0.060716838
40	0x3d7f846e	0.062382154
41	0xbe56641e	-0.20936629
42	0xbe95a943	-0.292307
43	0xbead87e8	-0.3389275
44	0xbe57aec3	-0.2106276
45	0xbd275136	-0.040848933
46	0xbea7640d	-0.3269352
47	0x3f0478ba	0.51746714
48	0xbd3dcdeb	-0.046338957
49	0xbca9f0ab	-0.020744642
50	0xbe55df8e	-0.2088606
51	0x3c22e01a	0.009941125
52	0x3effbae2	0.49947268
53	0x3ed95f9a	0.4245575
54	0xbe22f34d	-0.15913124
55	0xbdb3ac0d	-0.087730505
56	0x3d892c80	0.06697941
57	0xbedba3ba	-0.4289835
58	0xbe95d5b5	-0.29264608
59	0xbee79d7d	-0.45237342
60	0x3f3d7da6	0.7401985
61	0xbcc9e62e	-0.024645891
62	0xbeeb64f8	-0.4597547
63	0x3c9350e3	0.017982906

conv.7.weight f4 [64, 256]
0	0x3db76af9	0.0895595
1	0x3e6d85c4	0.23195559
2	0xbdbc3a15	-0.09190766
3	0x3d30d7a6	0.04317441
4	0x3ec63c5f	0.38717934
5	0x3e05f844	0.13082987
6	0x3e69c351	0.22828414
7	0xbdca4aaf	-0.09877526
8	0xbeb64df4	-0.3560635
9	0x3ca162d6	0.019700449
10	0x3d062eb3	0.03275938
11	0x3db2e07f	0.087342255
12	0xbd7baebe	-0.061445944
13	0x3cffeba0	0.031240284
14	0x3bf9c810	0.0076227263
15	0x3d237428	0.039905697
16	0xbe3a6ad3	-0.18204813
17	0x3e1424db	0.14467184
18	0x3ebb82b7	0.36623165
19	0xbc237bd4	-0.009978253
20	0x3ee092fb	0.43862137
21	0x3e27237e	0.16322133
22	0x3e4914a4	0.1963678
23	0x3e1bfe17	0.15233646
24	0x3cb64e10	0.02225402
25	0x3d156010	0.036468565
26	0xbd450314	-0.04809864
27	0x3c7a8188	0.015289672
28	0x3dc3b332	0.09555663
29	0x3e8503df	0.25979516
30	0x3e6c275c	0.2306189
31	0x3ce32fbf	0.027732728
32	0x3d51999e	0.05117189
33	0xbed0ef4f	-0.40807578
34	0xbdecf870	-0.11570823
35	0xbe83f9e9	-0.25776604
36	0xbe421a69	-0.18955387
37	0x3db59035	0.08865396
38	0xbd14b256	-0.036302887
39	0x3c9b12fd	0.018929953
40	0xbdab9325	-0.08377675
41	0x3ea412e5	0.32045665
42	0xbe2398b2	-0.15976217
43	0x3c394716	0.011308452
44	0x3cbf9254	0.023385204
45	0x3c869d58	0.01643245
46	0x3d00d19e	0.031449907
47	0xbced6f10	-0.028983623
48	0xbe1ad39e	-0.15119788
49	0x3eaabd7f	0.333477
50	0xbdd27927	-0.10277014
51	0x3deeeefa	0.11666675
52	0xbd5a293c	-0.05326198
53	0x3d39d05e	0.04536473
54	0x3c192df8	0.009349339
55	0xbd11ca18	-0.035593122
56	0xbdf577d6	-0.119857475
57	0x3f175666	0.5911621
58	0xbe805930	-0.25068045
59	0x3e3d93d7	0.18513428
60	0x3e9714a0	0.29507923
61	0x3e4181f4	0.1889723
62	0xbe754451	-0.23951842
63	0x3d9785d4	0.073985726
64	0xbd5563e0	-0.0520972
65	0xbcb55e9c	-0.02213984
66	0xbaa98340	-0.0012932792
67	0x3d1fe8d6	0.03904041
68	0xbea30c5b	-0.31845364
69	0xbe8dea13	-0.27717647
70	0xbdb6e695	-0.08930699
71	0x3d7cd8d1	0.06173021
72	0xbcc926e7	-0.024554683
73	0xbe1334a0	-0.14375544
74	0xbe541f0d	-0.2071497
75	0x3dd8e182	0.10589887
76	0xbe3cd4b6	-0.18440518
77	0xbe7003e3	-0.23438983
78	0x3e011531	0.1260574
79	0xbed3315e	-0.41248602
80	0x3b087e1d	0.0020827122
81	0x3dacaba2	0.08431174
82	0x3ccb5cab	0.024824461
83	0xbd42e917	-0.047585573
84	0x3ebdd54f	0.37076804
85	0xbce5f740	-0.028072
86	0x3cd9a318	0.026567027
87	0x3b7d1689	0.0038618168
88	0xbd5c4432	-0.053775974
89	0x3c8cf928	0.01720865
90	0x3b2bf780	0.002624005
91	0xbd5e5958	-0.054284424
92	0x3d64468f	0.055731352
93	0x3e8e4ff5	0.27795377
94	0x3db49691	0.08817781
95	0xbce67e22	-0.028136317
96	0x3d7943a7	0.060855534
97	0x3d2a75b3	0.041616153
98	0x3d6d1387	0.05787995
99	0x3e44448e	0.19166777
100	0xbdd4b76f	-0.1038655
101	0x3c752cbe	0.014964281
102	0xbd3f8e57	-0.046766605
103	0x3de4fe6b	0.11181339
104	0x3cb470b8	0.022026405
105	0x3d76f94e	0.06029635
106	0x3cc8cff8	0.02451323
107	0xbc33b528	-0.010968484
108	0xbd973d1c	-0.073847026
109	0x3db1f964	0.086901456
110	0xbd8fa2f5	-0.070135035
111	0x3cc65e15	0.024214784
112	0x3d34f95a	0.044183113
113	0x3c56ac50	0.013102606
114	0x3a81a980	0.0009892434
115	0x3ca38844	0.019962437
116	0x3d6d2396	0.057895266
117	0xbeb4a2c6	-0.35280436
118	0xbd185607	-0.037191417
119	0x3db8511a	0.08999844
120	0xbe85a78e	-0.26104397
121	0xbc5819e4	-0.013189767
122	0x3dbd1f3a	0.092344716
123	0xbc71874d	-0.014741731
124	0xbe059c79	-0.13047971
125	0xbe2ae127	-0.16687451
126	0x3e4f908e	0.20269987
127	0xbe7a7db9	-0.24462022
128	0x3e938db3	0.28819045
129	0x3e7c6e4c	0.2465145
130	0x3d6f5510	0.05843073
131	0x3f0a1f26	0.5395378
132	0x3e5cb1f6	0.21552262
133	0x3e4a4cd1	0.19755866
134	0x3dc5eec8	0.096646845
135	0x3d187807	0.037223842
136	0x3e8ac62f	0.27104327
137	0x3e079c0d	0.13243122
138	0x3ee45ddb	0.44602856
139	0x3e49e49e	0.19716117
140	0x3df7b598	0.12095183
141	0xbdc26d94	-0.094935566
142	0xbf3f9387	-0.74834484
143	0x3d3c53be	0.0459783
144	0x3e9759f7	0.29560825
145	0x3ec1686b	0.37774977
146	0xbf16e489	-0.58942467
147	0x3d7dc3a5	0.06195416
148	0x3d98a7cc	0.0745388
149	0x3e14a661	0.14516594
150	0xbbc9e4f3	-0.006161326
151	0xbcb74a5a	-0.02237432
152	0xbefec76a	-0.49761516
153	0x3e9d985d	0.30780306
154	0xbc875cf1	-0.01652381
155	0x3d14595d	0.036218036
156	0xbd2ca6de	-0.042151324
157	0xbd173db6	-0.036924087
158	0x3ccf1864	0.025280185
159	0x3b22bf80	0.0024833381
160	0x3de47a33	0.1115612
161	0xbd877ec0	-0.066159725
162	0xbe6a0e21	-0.22856952
163	0x3dd5d503	0.104410194
164	0x3d0857b0	0.03328675
165	0xbcad2d85	-0.02113987
166	0x3e0fdde6	0.14049491
167	0x3e172b7b	0.1476268
168	0xbdee11ab	-0.11624464
169	0x3e94cec6	0.29064006
170	0x3df4df03	0.119565986
171	0x3e9a94e5	0.30191723
172	0x3df46792	0.11933817
173	0x3e3c97be	0.1841726
174	0xbe06f596	-0.13179621
175	0x3e2e3d1f	0.17015503
176	0xbe2664a6	-0.16249332
177	0xbe3fd4db	-0.18733542
178	0x3e13e02d	0.14440985
179	0xbe1cb030	-0.15301585
180	0x3d5ab342	0.05339361
181	0x3d79d2d2	0.06099207
182	0x3cbeae24	0.023276396
183	0xbd053d20	-0.032528996
184	0xbe5cc819	-0.21560706
185	0x3e0aaf37	0.13543402
186	0x3e5aaa1c	0.21353954
187	0x3e50c42c	0.20387334
188	0xbd857b4d	-0.065176584
189	0xbe2459e3	-0.16049914
190	0x3d9c1137	0.07620471
191	0x3bc2a6a9	0.0059402776
192	0x3d0cf930	0.03441733
193	0x3d153192	0.036424227
194	0xbd206d80	-0.039166927
195	0xbbd2e310	-0.0064357594
196	0x3d186814	0.03720863
197	0xbcbf86f4	-0.02337978
198	0xbd40063c	-0.046880946
199	0x3c1f53c0	0.009724557
200	0x3eaa5e79	0.33275202
201	0x3d788773	0.06067605
202	0x3e466140	0.19373035
203	0xbdb16c1e	-0.086632
204	0xbd7e356e	-0.062062673
205	0xbcfdcf04	-0.030982502
206	0x3d0611ca	0.03273181
207	0x3d6d4014	0.057922438
208	0x3db0ced8	0.08633202
209	0xbe135fbe	-0.14391991
210	0x3e35c21f	0.17749833
211	0xbd07545a	-0.03303943
212	0x3e430f31	0.19048764
213	0xbe3ee1bd	-0.186408
214	0xbe89675d	-0.26836672
215	0x3dab31a7	0.0835908
216	0xbddaece6	-0.10689716
217	0xbe31b81f	-0.17355393
218	0xbcfab0d2	-0.030601893
219	0xbe0dc583	-0.13844876
220	0xbe2d6058	-0.16931283
221	0xbe7072a4	-0.23481232
222	0xbec24c22	-0.3794871
223	0xbe235ad7	-0.15952621
224	0xbe5ae5d7	-0.2137674
225	0x3d81c8e4	0.06337145
226	0xbd9f7352	-0.077856675
227	0x3cc6438b	0.024202129
228	0xbe043ef2	-0.12914637
229	0xbe55f907	-0.20895778
230	0x3e768768	0.24075091
231	0x3f19d99d	0.60097677
232	0x3da5ba6d	0.080921985
233	0x3c457c65	0.012053584
234	0x3e086b14	0.13322097
235	0xbd2ec2f2	-0.042666383
236	0xbde3a296	-0.11114995
237	0x3ea22770	0.31670713
238	0xbe1a501e	-0.15069625
239	0xbdff42e9	-0.12463934
240	0xbe28b2f3	-0.16474514
241	0x3eecab68	0.46224523
242	0xbca1d8c4	-0.019756682
243	0x3e6fa61d	0.23403211
244	0x3e338fcf	0.17535327
245	0x3d4cc07d	0.04998826
246	0xbeb3b7db	-0.35101208
247	0xbe0535fa	-0.13008872
248	0xbd39a288	-0.045321018
249	0xbd9b1af2	-0.07573499
250	0xbdd16354	-0.102240235
251	0x3c090519	0.008363032
252	0xbece5ccf	-0.40305182
253	0x3e0feb81	0.14054681
254	0x3e415d2e	0.18883201
255	0xbe9ac605	-0.30229202

conv.7.bias f4 [64]
0	0xbe590056	-0.21191534
1	0x3f4c1da8	0.7973275
2	0x3f06f62b	0.5271937
3	0x3ef29fcd	0.47387543
4	0x3f83b410	1.0289326
5	0x3f515a94	0.81778836
6	0xbea585ac	-0.32328546
7	0x3f231bdc	0.63714385
8	0x3c30d168	0.010792114
9	0x3eba1859	0.363467
10	0xbec1046d	-0.3769869
11	0x3ebb5f4c	0.36596143
12	0x3f5502b7	0.8320727
13	0x3f57dc5b	0.8432061
14	0x3f6e8974	0.93178487
15	0xbf5b98ab	-0.8577983
16	0x3f1a8811	0.6036387
17	0x3f1b7489	0.60724694
18	0x3fa91474	1.3209367
19	0x3ef1c399	0.47219542
20	0x3ec47213	0.38368282
21	0x3e24ced5	0.16094525
22	0x3f3849d9	0.7198768
23	0x3f2142f9	0.6299282
24	0x3e9153f9	0.2838438
25	0x3db917ff	0.0903778
26	0xbed385eb	-0.4131311
27	0x3ec5e809	0.3865359
28	0x3ed98a72	0.42488438
29	0x3e1899ac	0.14902371
30	0x3f0b0a23	0.5431234
31	0x3e247944	0.16061884
32	0xbe94691e	-0.28986448
33	0x3f152242	0.582554
34	0x3dd2156e	0.10257994
35	0xbc727e4e	-0.014800621
36	0x3e01cc55	0.12675603
37	0xbefa7893	-0.48920116
38	0xbe94678c	-0.2898525
39	0x3e01411d	0.12622495
40	0x3e86db57	0.26339218
41	0x3dfaff02	0.1225567
42	0x3e9c4a52	0.30525452
43	0x3e5fc84f	0.21853755
44	0x3f089919	0.5335861
45	0x3e20eb7e	0.15714833
46	0x3f869353	1.051371
47	0x3e87fd2c	0.26560342
48	0x3e9a573e	0.30144686
49	0x3eb72ddd	0.35777178
50	0xbebc7dd9	-0.36814764
51	0x3e5b66b6	0.214259
52	0x3e7f4746	0.24929532
53	0xbd270dee	-0.04078477
54	0x3f290066	0.6601623
55	0xbe6504b1	-0.22365071
56	0x3e7f3c93	0.24925451
57	0xbe50d195	-0.20392449
58	0x3f82b5b0	1.0211697
59	0x3d7a2678	0.061071843
60	0x3f53c5ee	0.8272389
61	0xbe6da885	-0.23208816
62	0x3f1a5978	0.6029277
63	0x3e559d64	0.20860821

out.weight f4 [4, 64]
0	0x3dfdacf8	0.12386507
1	0x3e1bf055	0.15228398
2	0x3cf875f9	0.030329691
3	0x3d5a7c04	0.053340927
4	0x3e45d70c	0.19320315
5	0x3d18c5b8	0.037297934
6	0x3cdd553b	0.02701818
7	0x3d0caeac	0.034346268
8	0x3cca255c	0.024676017
9	0xba9e71c1	-0.0012088345
10	0x3db61737	0.08891147
11	0x3db27810	0.08714306
12	0x3d116f4f	0.035506543
13	0xbcf9a0c2	-0.030472163
14	0xbc26c691	-0.010179178
15	0x3c38dd6d	0.011283261
16	0xbf37ad79	-0.71749073
17	0x3d2016f3	0.039084386
18	0x3f03447d	0.5127638
19	0xb7915938	-1.7326893e-05
20	0xbd607f12	-0.054808684
21	0x3c2eba7f	0.010664581
22	0x3df602d6	0.1201226
23	0x3c581455	0.013188441
24	0xbd26dce5	-0.040738005
25	0xba5bd0dc	-0.00083853095
26	0x3e353643	0.1769648
27	0x3dc11350	0.09427512
28	0x3d0e8a18	0.034799665
29	0xbd6ea21a	-0.05826006
30	0x3d4fe7ad	0.050758053
31	0xbd27ec82	-0.040997036
32	0xbc3c9b40	-0.011511624
33	0x3c9cdd00	0.01914835
34	0x3d8c7287	0.06857782
35	0xbd7a1a71	-0.061060373
36	0x3d5317c1	0.051536325
37	0xbdff6333	-0.124700926
38	0xbd3022af	-0.043001827
39	0xbdacf317	-0.08444803
40	0x3dc35ef1	0.09539593
41	0x3d25903c	0.040420756
42	0x3d279472	0.040913053
43	0xbd51eebb	-0.05125306
44	0xbfc933a1	-1.5718881
45	0xbfe8785c	-1.8161731
46	0xbcdbe992	-0.026844773
47	0xbfe67ffd	-1.8007809
48	0xbf4abf04	-0.79197717
49	0x3ba93d6d	0.005164793
50	0x3dcfba3f	0.101429455
51	0x3b9b5a2f	0.0047409753
52	0xbd8b277c	-0.067946404
53	0x3d841f73	0.06451311
54	0xbe13bc53	-0.14427309
55	0x409f9c5f	4.9878383
56	0x3d6698e9	0.05629817
57	0x3d08aef2	0.033369966
58	0x3d210917	0.03931531
59	0xbde0dc20	-0.109794855
60	0xbc8e2d93	-0.017355716
61	0x3cf5cbe8	0.030004457
62	0x3de3887e	0.11110018
63	0xbd2820da	-0.041046955
64	0xbc15b192	-0.009136574
65	0x3d82e8ad	0.06392036
66	0x3d0820c0	0.033234358
67	0x3c9f40f5	0.019440154
68	0x3e683ab8	0.2267865
69	0x3d564661	0.052313212
70	0x3e1c408b	0.15258996
71	0xbe027f69	-0.12743916
72	0xbec0ec7a	-0.37680417
73	0x3de5e67d	0.11225603
74	0x3d9a94b0	0.07547891
75	0x3d731b73	0.05935235
76	0x3d96ead8	0.07369012
77	0x3da665e5	0.081249036
78	0x3c9af9e5	0.018917987
79	0x3d0f42f7	0.034975972
80	0x3c103236	0.008801034
81	0x3d089e58	0.033354133
82	0x3f02ad15	0.5104535
83	0xbfaa2c56	-1.329478
84	0xbee3e7e0	-0.44512844
85	0x3e0ea2cb	0.13929288
86	0x3d8446a1	0.06458784
87	0xbc9b4bad	-0.018956983
88	0xbf2e4de7	-0.6808762
89	0xbba26687	-0.00495607
90	0x3cd820ac	0.026382767
91	0x3dcc2e86	0.09969811
92	0xbf8e3cb6	-1.1112278
93	0xbe26f7f3	-0.16305523
94	0xb9fdd290	-0.00048412802
95	0x3d65b196	0.056077562
96	0xbd31863c	-0.043340907
97	0x3de8b614	0.11362854
98	0xbd857730	-0.06516874
99	0x3c5d54fe	0.013509033
100	0x3ca7a6b3	0.02046523
101	0xba85d03e	-0.0010209156
102	0xbd135dfe	-0.03597831
103	0x3c979ac3	0.018506413
104	0xbcb723f9	-0.02235602
105	0xbda2c6d3	-0.07948079
106	0xbd21a1a8	-0.039460808
107	0xbd9b0252	-0.07568802
108	0x3db5a8dc	0.08870098
109	0xbd1ba3c0	-0.03799796
110	0xbe013ee7	-0.12621652
111	0x3bf8876a	0.007584502
112	0xbd813336	-0.06308596
113	0x3e0f65e2	0.14003709
114	0xbd300121	-0.042969827
115	0x3dae2e1b	0.08504888
116	0x3b1cf50c	0.002394977
117	0x3d9e9c9d	0.07744715
118	0x3d303364	0.04301776
119	0xbc96dd1e	-0.018415984
120	0xbc9b176a	-0.018932063
121	0xbdaa17a0	-0.08305287
122	0x3d056003	0.032562267
123	0x3db7e902	0.089799896
124	0x3d00ea31	0.031473342
125	0xbc96c1ed	-0.018403018
126	0xbd36d3f2	-0.04463572
127	0xbd6fa143	-0.0585034
128	0xbcc5fd60	-0.02416867
129	0x3d016ef7	0.031599965
130	0xbfadf45d	-1.3590199
131	0xbc495c22	-0.012290033
132	0x3cf284e9	0.029604392
133	0x3d801680	0.062542915
134	0xbe3a8bc4	-0.18217379
135	0xbd48256b	-0.04886381
136	0x3d98b096	0.07455556
137	0x3ce57118	0.028008029
138	0xbd1d678b	-0.038428824
139	0x3df91d91	0.121638425
140	0x3d566223	0.052339684
141	0x3d8f059b	0.06983491
142	0x3be1bcf3	0.0068889796
143	0xbde20010	-0.11035168
144	0x3b937c26	0.0045008836
145	0x3e068704	0.13137442
146	0x3f09ff6f	0.53905386
147	0x3cd228ee	0.025654282
148	0x3b9b1f87	0.004733983
149	0xbadc6537	-0.0016814832
150	0x3df1dfc6	0.118102595
151	0xbc07a467	-0.008278943
152	0x3b3fdeda	0.0029277117
153	0xbf9d92f0	-1.2310467
154	0xbd31ad7b	-0.043378334
155	0xbd7d2c77	-0.061809983
156	0xbd92011c	-0.07129118
157	0x3db01b9f	0.08599018
158	0x3e125649	0.14290728
159	0x3d4a8592	0.04944379
160	0xbcd5cbae	-0.026098099
161	0x3d117bbc	0.035518393
162	0x3d69ff91	0.057128493
163	0x4044d069	3.0752203
164	0x3cf41315	0.029794255
165	0xbb523524	-0.0032075131
166	0xbd192224	-0.037386075
167	0xbcb68abb	-0.022282949
168	0xbdc76c07	-0.097374015
169	0xc007b9a6	-2.120706
170	0xbe701785	-0.23446472
171	0x3c7b81dc	0.015350785
172	0x3be24759	0.006905478
173	0x3d52eef3	0.05149741
174	0xbe58dc8e	-0.21177885
175	0xbda247e3	-0.079238676
176	0xbcbb6e7f	-0.022879837
177	0xc00eb2e9	-2.2296698
178	0x3e77ea8e	0.2421057
179	0xbddfcf8e	-0.1092826
180	0x3c7c59c9	0.015402266
181	0xbd1eb3dc	-0.038745746
182	0x3df8319c	0.12118837
183	0xbbcf0f17	-0.0063189375
184	0x3d42c903	0.04755498
185	0x4073cf9c	3.8095465
186	0x3e48a200	0.19593048
187	0xbd4909a8	-0.049081475
188	0x3d67723e	0.056505434
189	0xbdc9d3f4	-0.0985488
190	0x3c80bbac	0.015714489
191	0xbfafb75a	-1.372783
192	0x3dc3559f	0.09537815
193	0x3c82e380	0.015977621
194	0x3c09fe91	0.00842251
195	0x3db5963d	0.08866546
196	0x3e0347f1	0.12820412
197	0xbd109428	-0.035297543
198	0xbf6f1221	-0.9338704
199	0x3dae3d8b	0.08507832
200	0xbd8cb3ea	-0.068702534
201	0xbd212627	-0.039343026
202	0x3d878db0	0.066188216
203	0x3da6ec93	0.08150592
204	0x3ccc72f1	0.024957152
205	0x3d85b302	0.06528284
206	0x3dbb9d41	0.09160853
207	0x38b6c200	8.7145716e-05
208	0x3cc19abd	0.023633355
209	0x3d8c5605	0.068523444
210	0x3f045e85	0.51706725
211	0x3dc38f33	0.095487975
212	0x3d477005	0.048690815
213	0xbee8738b	-0.45400652
214	0x3dd22fdb	0.10263034
215	0x3da68fd5	0.081329025
216	0x3cec1cc4	0.02882231
217	0xbd4b8490	-0.04968697
218	0xbbe75f1f	-0.0070609
219	0x3d66a463	0.056309115
220	0xbd8d4ad3	-0.06899037
221	0xbf5e912b	-0.8694026
222	0xbfc81b23	-1.5633281
223	0xbd67f653	-0.056631397
224	0x408cb1ae	4.3966894
225	0xbda22d31	-0.07918776
226	0xbe480751	-0.19534041
227	0x3bf38f56	0.0074328585
228	0x3e3f3329	0.1867186
229	0x3d414bb5	0.04719134
230	0x3d70607a	0.058685757
231	0xbfad3ef3	-1.3534836
232	0xbfb05677	-1.3776387
233	0xbd0d22b3	-0.03445692
234	0xbe74d57a	-0.2390956
235	0xbf9df0cd	-1.2339112
236	0x3dc33e27	0.09533339
237	0xbd89f8e9	-0.06736929
238	0xbee058ee	-0.43817848
239	0xbd0db8e5	-0.034600157
240	0x3d43d3ce	0.047809415
241	0x3c3e8880	0.011629224
242	0xbcb9b470	-0.022669047
243	0x3d7160cb	0.0589302
244	0x3db6d285	0.08926872
245	0xbe2ad232	-0.16681746
246	0x3c73a6c7	0.014871306
247	0xbd409429	-0.047016297
248	0x3da38bfd	0.07985685
249	0xbcbd2056	-0.023086708
250	0x3db0a82d	0.08625827
251	0xbc0fe3a9	-0.008782306
252	0x3cc00d26	0.02344377
253	0x3e17e981	0.14835168
254	0x3c2dfc9c	0.010619309
255	0x3d8f00aa	0.069825485

out.bias f4 [4]
0	0x3f8791f8	1.0591421
1	0x3f8f9ed1	1.1220342
2	0x3f802bc9	1.0013362
3	0x3f83b6f3	1.0290207
