models/v17.1/model_45500.pth (torch, 295095 bytes, 10 tensors)

conv.0.weight f4 [16, 2, 3, 3]
0.2120885 0.12675077 -0.18029132 0.19250377 -0.122201815 0.029983992 -0.28009036 0.23889208
0.09064443 -0.13853623 0.1253372 -0.055939294 -0.020317744 0.014374888 0.070914 -0.03272809
0.07927518 -0.025534205 -0.11798934 0.24244353 0.02337072 0.16565442 -0.118176304 0.22633335
-0.6716987 -0.49450046 -0.2042207 -0.9241873 0.48906288 -1.0969331 0.22114603 -0.19091333
0.23084223 -0.06174072 -0.030812796 0.1602251 -0.030364307 0.22439139 0.09479292 -0.116297945
0.314524 -0.030654473 0.31304637 0.22350869 0.15558408 0.04897103 0.16636196 0.015037962
0.27903125 -0.12861964 -1.3079512 -0.09046733 -0.2869356 0.06459253 -0.029112317 0.017323203
0.034016974 0.085099176 0.15648453 -0.56769484 -0.16523555 -0.30802134 0.1751256 0.0003613341
0.021780975 -0.08828625 0.32557976 -0.100408226 -0.63202757 -0.26093912 0.35549492 0.16657974
0.2551829 -0.120912895 -0.15569842 -1.1489651 -0.21684422 0.1854601 0.07729271 0.46001628
-1.0171096 -0.27854115 0.25171608 -0.8066016 0.23936015 -0.014073937 0.18729074 -0.03119407
-0.06995255 0.021181857 0.005909851 -0.15216029 0.39393497 0.22246963 -0.19643393 -0.08329524
0.44963476 -0.41090894 0.25219345 -0.12582383 -0.12705296 0.07104119 0.09457292 -0.32867807
-0.12185356 -0.037438456 -0.14438826 -0.27022606 -0.99184066 -0.0560938 0.33509514 0.19808036
0.094189905 -1.0262802 -0.24423817 0.11326265 -0.13939598 -0.098838545 0.06229646 -0.16392317
0.13607652 0.045756597 0.02388336 -0.89706296 -0.47982737 -0.055659264 0.060486257 -0.15676633
0.41043586 -0.046509676 0.3343735 0.060286056 0.030939076 0.30238724 -0.058748107 -1.4257181
-0.9002443 -0.8542916 0.089423835 0.03214601 0.05445825 -0.409661 0.2809583 -0.07732329
-0.011313992 0.0598813 0.1437953 0.26037854 0.1490796 -0.2533882 0.13872735 -0.26559284
0.024854716 -0.3639988 0.42041615 -0.42927852 0.060283884 0.21609552 -0.012584969 -0.31155705
0.38420966 0.08929668 -0.010302074 -0.14663109 0.16656224 0.06555354 -0.12162518 0.32648596
0.25531274 -0.0778534 -0.23984031 -0.0063610272 0.21104476 -0.13584863 -1.5449975 0.001926933
-0.21829632 0.21159478 0.35453078 -0.3500951 -0.03457828 0.10522028 0.057346616 -0.13468504
0.116520084 0.097380236 0.34121555 -0.26274016 0.0032199798 0.032047883 -0.2592518 -0.16914499
0.381618 0.06410532 -0.05551873 0.03869383 0.10547928 -0.09535944 0.26551592 0.16013439
-0.5287861 -0.060902048 0.14650954 0.12588586 -0.9321304 -0.33532113 -0.0870915 -1.3010814
-0.30142036 0.25693226 0.10996268 0.17252694 -0.24474889 0.025780668 0.10346729 0.15126815
-0.036058683 -0.06772058 0.094042666 -0.049923353 -0.01945805 0.24808325 -0.113776796 -0.018847996
-0.26017052 0.1554261 0.24721473 0.061042253 -0.15407853 -0.8729959 -0.24364069 0.10505894
0.08223322 0.26725057 0.28763333 0.10182286 0.017936574 -0.0018461053 -1.342058 -0.009052106
-0.02580423 -0.21743082 0.054324277 0.053571813 -1.2608577 -0.22832009 -0.17475009 0.068767756
-0.198795 0.25533724 -0.2367997 -0.13687801 0.033426158 -1.015881 4.074961e-05 -0.17866707
00000000: ba2d 593e f4ca 013e 4a9e 38be b51f 453e
00000010: f244 fabd fda0 f53c 0168 8fbe 20a0 743e
00000020: c9a3 b93d 71dc 0dbe 6558 003e 9a20 65bd
00000030: 6671 a6bc a684 6b3c 5c3b 913d e40d 06bd
00000040: 075b a23d 1c2d d1bc 65a4 f1bd 1e43 783e
00000050: f473 bf3c 50a1 293e 6b06 f2bd eec3 673e
00000060: 72f4 2bbf 2a2f fdbe 3b1f 51be 8a97 6cbf
00000070: 7366 fa3e 4e68 8cbf 1b74 623e c97e 43be
00000080: e861 6c3e d6e3 7cbd 1e6b fcbc 0c12 243e
00000090: 91be f8bc dbc6 653e ca22 c23d 9e2d eebd
000000a0: 4a09 a13e 171f fbbc 9d47 a03e 76df 643e
000000b0: 6f51 1f3e d995 483d ca5a 2a3e c961 763c
000000c0: 2fdd 8e3e deb4 03be f26a a7bf ef46 b9bd
000000d0: 39e9 92be 1749 843d f47c eebc 64e9 8d3c
000000e0: 6255 0b3d 7a48 ae3d 7b3d 203e 7354 11bf
000000f0: 8233 29be f9b4 9dbe 2054 333e 7171 bd39
00000100: 046e b23c 6ccf b4bd 64b2 a63e d4a2 cdbd
00000110: 8fcc 21bf d099 85be 6e03 b63e e193 2a3e
00000120: 55a7 823e 2ea1 f7bd 686f 1fbe 4a11 93bf
00000130: 690c 5ebe 41e9 3d3e a44b 9e3d 4187 eb3e
00000140: a630 82bf f29c 8ebe eee0 803e 717d 4ebf
00000150: d41a 753e 5f96 66bc 25c9 3f3e b58a ffbc
00000160: 4843 8fbd 9385 ad3c 6ca7 c13b e8cf 1bbe
00000170: d8b1 c93e 14cf 633e fa25 49be b296 aabd
00000180: 8736 e63e a862 d2be 801f 813e f6d7 00be
00000190: 2c1a 02be 0b7e 913d 72af c13d 7e48 a8be
000001a0: 5c8e f9bd 1159 19bd 84da 13be 125b 8abe
000001b0: 45e9 7dbf 9dc2 65bd 9791 ab3e 94d5 4a3e
000001c0: a3e6 c03d 265d 83bf 9219 7abe 40f6 e73d
000001d0: d2bd 0ebe dd6b cabd 932a 7f3d 7adb 27be
000001e0: a557 0b3e 456b 3b3d 09a7 c33c eba5 65bf
000001f0: efab f5be f8fa 63bd 70c0 773d 5a87 20be
00000200: a624 d23e ee80 3ebd 0133 ab3e 83ee 763d
00000210: f273 fd3c 80d2 9a3e dba1 70bd ee7d b6bf
00000220: 6976 66bf dbb2 5abf d823 b73d 89ab 033d
00000230: 9d0f 5f3d 16bf d1be c4d9 8f3e ac5b 9ebd
00000240: 525e 39bc 1846 753d 133f 133e 5650 853e
00000250: 53a8 183e 19bc 81be 8b0e 0e3e c9fb 87be
00000260: 1e9c cb3c 0d5e babe c940 d73e 65ca dbbe
00000270: 3cec 763d 2548 5d3e 3031 4ebc 6884 9fbe
00000280: 21b7 c43e 2ee1 b63d 08ca 28bc 7626 16be
00000290: 4b8f 2a3e ef40 863d 9f16 f9bd 2b29 a73e
000002a0: 5ab8 823e 9a71 9fbd b398 75be 2a70 d0bb
000002b0: 1e1c 583e e71b 0bbe 7ac2 c5bf 2491 fc3a
000002c0: 1289 5fbe 4dac 583e 0f85 b53e aa3f b3be
000002d0: f4a1 0dbd bb7d d73d 49e4 6a3d e0ea 09be
000002e0: 15a2 ee3d 4a6f c73d ceb3 ae3e e185 86be
000002f0: 4c06 533b a444 033d a7bc 84be 5834 2dbe
00000300: 6f63 c33e a649 833d 9c67 63bd 6c7d 1e3d
00000310: 8505 d83d cf4b c3bd b4f1 873e 45fa 233e
00000320: 875e 07bf 6d74 79bd 9906 163e 39e8 003e
00000330: 19a0 6ebf 36af abbe 075d b2bd d689 a6bf
00000340: c553 9abe a08c 833e 1d34 e13d e7aa 303e
00000350: 749f 7abe fb31 d33c a9e6 d33d 0ae6 1a3e
00000360: 45b2 13bd 16b1 8abd 7199 c03d 6e7c 4cbd
00000370: 7d66 9fbc 8909 7e3e cf03 e9bd 1d67 9abc
00000380: 1235 85be 0528 1f3e dc25 7d3e 7107 7a3d
00000390: c3c6 1dbe a97c 5fbf f27c 79be 2429 d73d
000003a0: e469 a83d 11d5 883e ad44 933e 8188 d03d
000003b0: b9ef 923c 04f9 f1ba 8ec8 abbf 494f 14bc
000003c0: 6463 d3bc 2fa6 5ebe 2283 5e3d 1e6e 5b3d
000003d0: c963 a1bf becc 69be b0f1 32be 1cd6 8c3d
000003e0: eb90 4bbe 90bb 823e 9f7b 72be c029 0cbe
000003f0: dee9 083d 6308 82bf 90ea 2a38 80f4 36be

conv.0.bias f4 [16]
0.060744908 0.08947495 -0.01658526 -0.08099799 -0.12396571 -0.26557618 0.17675784 -0.22586566
-0.1783068 -0.029708313 -0.24218823 -0.04296209 0.013397603 0.09594927 -0.0873812 0.06620737
00000000: a7cf 783d a53e b73d d0dd 87bc 46e2 a5bd
00000010: bce1 fdbd 9af9 87be 0200 353e 5449 67be
00000020: 0f96 36be d95e f3bc 3100 78be 04f9 2fbd
00000030: 9f81 5b3c 0d81 c43d eaf4 b2bd bb97 873d

conv.2.weight f4 [32, 16, 3, 3]
-0.08965194 0.17048293 -0.11780323 0.23122655 0.0301074 -0.0018183831 0.13915041 0.12359643
0.040407564 0.14082865 -0.015814247 -0.01887557 -0.019610748 0.09074577 0.05885995 0.03987589
-0.119073816 -0.16095199 0.08801736 0.066845246 -0.10040281 -0.22387369 0.14658439 -0.5353787
-0.04661879 -0.05602584 0.08223273 0.056655664 -0.0854213 -0.15255135 -0.0072395382 -0.17886215
-0.18090202 -0.0018732303 -0.02005688 0.21612735 -0.044634447 0.050652657 0.058684945 0.009806618
-0.07042418 -0.19928852 0.19502029 -0.17721117 -0.13428536 0.30170038 0.047619 -0.24213494
0.6075386 -0.14744166 -0.25574747 0.29798013 0.19228242 0.007323154 -0.273805 0.07672565
-0.16370511 0.04426615 -0.18792593 -0.039135184 -0.026082274 0.091676235 0.043690916 0.029733984
-0.27945778 -0.019275809 0.08519423 -0.070540756 0.099859565 0.035269946 -0.17923938 -0.12279194
-0.14582358 0.022864886 0.41361278 -0.10138088 0.06681087 0.22391072 0.045817863 0.23288232
0.034648605 0.04975782 -0.3274456 0.14090233 -0.051529337 -0.08140904 -0.076250024 0.015712397
0.14885594 0.16647582 0.10386467 0.029175084 0.26739419 -0.015039336 -0.02316366 -0.16828248
0.018633557 0.11519132 -0.20526813 -0.045957305 0.02864756 -0.32664964 -0.10477756 -0.08034836
-0.06887899 0.11580043 -0.17160314 -0.06840621 0.039188556 -0.020191131 -0.08778397 0.06807741
-0.13121305 -0.021969931 0.09321185 0.041575763 -0.059652574 -0.1909938 -0.42929864 0.112091966
-0.024346955 -0.00867101 -0.21564648 -0.6116536 0.14369804 0.017967409 0.16651401 -0.06730783
0.013086664 0.10975755 -0.1135075 -0.030618483 -0.06873683 0.03339683 0.12818246 0.028167814
-0.059940092 0.10363212 0.12601863 0.13891914 0.03446279 0.068754055 -0.40950486 0.032030106
0.029778922 -0.1097988 -0.0155136455 0.002686827 -0.2475068 -0.05221857 -0.02079448 -0.0017124107
-0.06348671 0.12010473 0.103394985 -0.060502842 -1.6365502 0.060490534 0.021455824 -0.15609102
0.042977296 0.0022375039 -0.039034914 -0.06923522 0.040991068 0.1619073 0.116664216 0.10030981
0.04767919 0.019574625 -0.109672144 -0.04010702 -0.22937481 0.0770022 -0.08321847 0.14518715
-0.04061442 -0.30517986 -0.10636296 0.16045597 -0.23100954 -0.24414654 -0.4129401 -0.19679007
0.17150293 0.30714828 0.043461174 0.0017944565 -0.08106093 0.10161942 -0.009291684 -0.009651359
-0.17647883 0.03187343 -0.5169949 -0.27680445 -0.27962777 0.20897534 -0.061901618 -0.069879934
0.14897914 0.033933274 -0.037112433 -0.34229332 0.051503815 0.033072542 0.4051145 -0.082474895
0.082384646 -0.15723334 0.17058109 -0.0007773947 -0.21256253 0.10923196 -0.12586871 -0.015527652
-0.00020129712 0.028100312 -0.057151306 0.15842734 0.16553363 -0.42730236 0.12829916 0.20481779
0.15673335 0.1898679 0.14427847 0.111414865 0.07487162 0.17220628 0.115513094 0.06707092
-0.1527668 0.040513538 -0.025952812 0.1449269 -0.2923447 -0.13561854 0.092171974 0.09549429
0.05307997 -0.16236176 0.16991585 0.13140447 0.30586419 0.00018130874 0.05170339 0.13639496
-0.19274592 0.12296381 0.014462195 -0.14633717 0.11274476 0.013409806 0.08245241 0.08033199
00000000: 709b b7bd 1493 2e3e d242 f1bd a7c6 6c3e
00000010: cba3 f63c d056 eeba 727d 0e3e 2020 fd3d
00000020: 6782 253d 6335 103e e18c 81bc f0a0 9abc
00000030: b8a6 a0bc ebd8 b93d 2217 713d e754 233d
00000040: f9dc f3bd 99d0 24be 7242 b43d 29e6 883d
00000050: fd9f cdbd 253f 65be 381a 163e 940e 09bf
00000060: 58f3 3ebd 5a7b 65bd a269 a83d c50f 683d
00000070: 5df1 aebd 6c36 1cbe a639 edbb a427 37be
00000080: 613e 39be 2e87 f5ba 534e a4bc 7d50 5d3e
00000090: 9cd2 36bd 2979 4f3d a05f 703d f0ab 203c
000000a0: 8d3a 90bd 4a12 4cbe 66b3 473e d876 35be
000000b0: 1a82 09be 7978 9a3e 240c 433d 39f2 77be
000000c0: a687 1b3f f2fa 16be 55f1 82be da90 983e
000000d0: afe5 443e 11f7 ef3b 2b30 8cbe 5622 9d3d
000000e0: 50a2 27be 6c50 353d a86f 40be 374c 20bd
000000f0: 7eaa d5bc c0c0 bb3d 3ff5 323d af94 f33c
00000100: 1715 8fbe 4de8 9dbc 507a ae3d ac77 90bd
00000110: 2c83 cc3d 3877 103d 878a 37be 577a fbbd
00000120: c752 15be 244f bb3c 0ec5 d33e c7a0 cfbd
00000130: 23d4 883d da48 653e 83ab 3b3d b478 6e3e
00000140: b2eb 0d3d dbce 4b3d f3a6 a7be b348 103e
00000150: 6d10 53bd c8b9 a6bd f928 9cbd 49b7 803c
00000160: b16d 183e a378 2a3e 00b7 d43d 9600 ef3c
00000170: e4e7 883e 8c67 76bc b7c1 bdbc 3e52 2cbe
00000180: 67a5 983c 6de9 eb3d cf31 52be ba3d 3cbd
00000190: 4aae ea3c 9f3e a7be 9e95 d6bd ae8d a4bd
000001a0: 6e10 8dbd c728 ed3d bcb8 2fbe 8e18 8cbd
000001b0: 2e84 203d df67 a5bc 15c8 b3bd 2b6c 8b3d
000001c0: b75c 06be 49fa b3bc dbe5 be3d 594b 2a3d
000001d0: 4256 74bd e193 43be 08cd dbbe 7990 e53d
000001e0: 4473 c7bc da10 0ebc 6ed2 5cbe 5595 1cbf
000001f0: 9425 133e 6330 933c a682 2a3e b0d8 89bd
00000200: 7269 563c 91c8 e03d 9f76 e8bd 9dd3 fabc
00000210: e5c5 8cbd 1dcb 083d 4342 033e 30c0 e63c
00000220: be83 75bd 143d d43d 070b 013e d240 0e3e
00000230: db28 0d3d edce 8c3d 9faa d1be 0032 033d
00000240: edf2 f33c 31de e0bd f22c 7ebc 7a15 303b
00000250: 6c72 7dbe 24e3 55bd 2f59 aabc f872 e0ba
00000260: 5205 82bd 78f9 f53d c0c0 d33d d4d1 77bd
00000270: 7a7a d1bf ecc4 773d 20c4 af3c 53d6 1fbe
00000280: f608 303d 16a3 123b 13e3 1fbd 32cb 8dbd
00000290: 40e6 273d 07cb 253e a6ed ee3d 3b6f cd3d
000002a0: 414b 433d f75a a03c ca9b e0bd 4247 24bd
000002b0: 3be1 6abe 54b3 9d3d 726e aabd f1ab 143e
000002c0: 4e5b 26bd 8940 9cbe d3d4 d9bd 924e 243e
000002d0: c48d 6cbe 8d01 7abe e36c d3be 5683 49be
000002e0: 779e 2f3e 8a42 9d3e 5804 323d f833 eb3a
000002f0: 4603 a6bd d81d d03d 263c 18bc bc20 1ebc
00000300: deb6 34be b78d 023d c759 04bf 50b9 8dbe
00000310: 5f2b 8fbe a2fd 553e 8d8c 7dbd 361d 8fbd
00000320: fd8d 183e 9efd 0a3d 3503 18bd 1241 afbe
00000330: aaf5 523d 1377 073d 2b6b cf3e 99e8 a8bd
00000340: 48b9 a83d c701 21be cfac 2e3e 13ca 4bba
00000350: fea9 59be 01b5 df3d bae3 00be b167 7ebc
00000360: 4913 53b9 a032 e63c 7d17 6abd c73a 223e
00000370: a681 293e 60c7 dabe db60 033e c1bb 513e
00000380: b57e 203e bb6c 423e bcbd 133e 7a2d e43d
00000390: 4b56 993d d856 303e 2192 ec3d 7a5c 893d
000003a0: e66e 1cbe 86f1 253d fe9a d4bc b867 143e
000003b0: 34ae 95be 96df 0abe a9c4 bc3d 8392 c33d
000003c0: 626a 593d 2942 26be 6cfe 2d3e e58e 063e
000003d0: 3b9a 9c3e b21d 3e39 efc6 533d 1fab 0b3e
000003e0: 305f 45be 73d4 fb3d d8f2 6c3c 69d9 15be
000003f0: bae6 e63d ceb4 5b3c cfdc a83d 1985 a43d

conv.2.bias f4 [32]
0.07394516 -0.03259676 -0.11587389 -0.119671665 0.07056832 -0.089100815 0.10399525 -0.10555219
0.03964391 -0.07248397 0.020013772 0.08434732 -0.009299583 0.036623064 0.07288129 0.0014296495
0.10343795 0.028296253 0.062495966 -0.13564098 -0.06626478 0.12787366 -0.13976693 0.0010345977
0.10991755 0.09744366 -0.054591466 0.023396911 0.11941178 0.07184665 0.011171249 0.0009262159
00000000: 8f70 973d 2e84 05bd 4a4f edbd 6b16 f5bd
00000010: 2086 903d 7d7a b6bd 76fb d43d bf2b d8bd
00000020: a761 223d 7a72 94bd ecf3 a33c 4abe ac3d
00000030: 475d 18bc 1102 163d c942 953d 1463 bb3a
00000040: 47d7 d33d 8bcd e73c c5fb 7f3d 78e5 0abe
00000050: d4b5 87bd 50f1 023e 101f 0fbe 579b 873a
00000060: 741c e13d 8b90 c73d 4d9b 5fbd e1aa bf3c
00000070: 2a8e f43d 5624 933d 9d07 373c 4ccd 723a

conv.4.weight f4 [64, 32, 5, 5]
-0.019313125 0.036707707 0.20442116 0.03174449 -0.11144271 -0.043786425 -0.1570422 0.15500456
-0.21772541 0.21775024 0.23954462 0.011019445 0.14619242 -0.31368473 -0.0690221 -0.17831086
-0.10602126 -0.08946148 0.105616435 -0.2672926 -0.12552923 -0.16909455 0.060993448 0.051505964
-0.09468072 -0.27158043 -0.4169062 0.11391073 0.17403898 -0.038630795 -0.22743993 -0.18655966
-0.31023645 0.048496626 -0.12782562 -0.02691834 -0.4245483 0.13171703 0.2759712 -0.5796336
-0.1428472 0.02576571 0.21048611 -0.22401527 -0.021625044 -0.17011961 0.005692904 -0.041229524
-0.015124415 0.06428453 -0.08003861 0.051234618 -0.043170232 -0.22785294 0.29310286 -0.08594235
-0.17672195 -0.22187774 0.16977061 -0.04637641 -0.1481491 -0.23484617 -0.2852923 -0.024675358
0.03364249 -0.04794264 -0.06758254 0.2371314 0.0087196175 -0.026982263 -0.08628051 -0.03321868
0.22677723 0.027996765 -0.008623829 -0.13884567 0.008505812 0.051530126 0.080189906 0.0127762025
0.098151885 0.073723435 -0.27240035 0.3998489 -0.20859054 -0.22003922 -0.099570364 -0.20819047
0.078092985 0.24329971 0.03778226 0.112343736 -0.050958656 -0.22386509 0.01692469 0.080743216
0.049433082 -0.04601738 0.05433295 0.02137668 0.114167355 -0.14672342 -0.14695816 -0.14653052
-0.10852593 0.059418414 -0.020434162 -0.022990197 -0.028919546 0.015296857 -0.082159065 0.30338374
-0.11869047 0.30047414 0.09179907 -0.16936164 0.036271688 -0.10395986 0.11952689 0.041942365
0.034622345 -0.16470096 -0.091511875 -0.31106475 0.28530455 0.15164055 -0.09735814 -0.060628425
-0.0865636 0.07778273 0.081554346 -0.040006436 0.14274211 0.03812809 -0.18716393 -0.097363226
0.15677978 -0.045527827 0.17998676 -0.07732702 -0.11071587 -0.2476989 0.025659954 -0.059255097
-0.10658969 -0.36817053 0.2409717 0.14080614 0.02502888 -0.11969449 -0.37517947 0.13214375
-0.17095743 0.047426485 -0.055126805 -0.02838998 -0.18102196 0.10502224 -0.14691569 0.07423996
-0.08450405 0.26798925 -0.14024362 0.010883674 0.25726223 0.0052851955 -0.119751185 0.08890618
-0.27442437 0.23990108 0.19948749 -0.20113185 0.06869983 -0.1756655 0.058272768 -0.09213622
-0.15875344 0.19480869 0.09422803 0.07854038 -0.039787658 0.052216496 0.0063318643 0.056124594
0.13238746 -0.111764856 0.21438804 0.0028419544 -0.2691724 -0.05981883 -0.20637837 -0.18367223
0.16112502 -0.36690053 0.12713292 -0.16944285 0.024760088 -0.18057665 0.0155916875 -0.0014651441
-0.118794635 -0.04445576 0.013494214 -0.25483426 0.03295773 0.30030861 0.057770856 -0.122237146
-0.18986872 0.0012837788 -0.10552214 -0.16090965 0.019861098 -0.0923214 0.23788811 -0.22294669
0.10745688 0.23628493 0.17314437 -0.15040413 0.03372498 -0.057623304 0.08437821 0.111917526
-0.03796029 -0.2717311 0.046551768 0.06209635 0.06658125 0.08867229 -0.13086367 0.008968141
-0.07763654 0.22610947 -0.112379916 -0.198596 -0.033038616 0.08142008 -0.10585516 -0.14314006
0.16171108 0.01839974 0.03348022 0.028081112 -0.0297299 0.224777 -0.047510687 -0.079760745
-0.05140065 0.13812812 -0.15896483 0.117009245 0.019373834 -0.104330584 0.17373872 0.10633107
00000000: 8f36 9ebc d25a 163d c853 513e 8306 023d
00000010: 133c e4bd 6559 33bd accf 20be 84b9 1e3e
00000020: 69f3 5ebe ebf9 5e3e 2f4b 753e e78a 343c
00000030: 77b3 153e 499b a0be 755b 8dbd 1f97 36be
00000040: ad21 d9bd 9537 b7bd 6e4d d83d 93da 88be
00000050: bc8a 00be 1f27 2dbe 44d4 793d ebf7 523d
00000060: f7e7 c1bd 970c 8bbe bb74 d5be 074a e93d
00000070: 4637 323e 533b 1ebd 03e6 68be 7f09 3fbe
00000080: 50d7 9ebe 66a4 463d b8e4 02be da83 dcbc
00000090: 655e d9be d4e0 063e 194c 8d3e de62 14bf
000000a0: 8946 12be 9c12 d33c ac89 573e 4264 65be
000000b0: 0127 b1bc d633 2ebe 8a8b ba3b 4ae0 28bd
000000c0: 65cc 77bc 9ca7 833d 48eb a3bd 64db 513d
000000d0: 45d3 30bd 4852 69be 9411 963e 8b02 b0bd
000000e0: 99f6 34be eb33 63be 59d8 2d3e 31f5 3dbd
000000f0: 66b4 17be 847b 70be d511 92be fa23 cabc
00000100: b5cc 093d 805f 44bd b768 8abd 93d2 723e
00000110: badc 0e3c e809 ddbc d6b3 b0bd 5010 08bd
00000120: 4a38 683e 7959 e53c f64a 0dbc 8f2d 0ebe
00000130: f65b 0b3c 4111 533d 9b3a a43d 4753 513c
00000140: db03 c93d 50fc 963d 0f78 8bbe ffb8 cc3e
00000150: c298 55be f651 61be 8ceb cbbd e22f 55be
00000160: 37ef 9f3d 8f23 793e 92c1 1a3d 7914 e63d
00000170: 06ba 50bd e43c 65be a6a5 8a3c b35c a53d
00000180: 587a 4a3d b87c 3cbd 3a8c 5e3d 261e af3c
00000190: 93d0 e93d aa3e 16be 337c 16be 190c 16be
000001a0: d842 debd b960 733d 8b65 a7bc f055 bcbc
000001b0: afe8 ecbc ab9f 7a3c 0343 a8bd 1d55 9b3e
000001c0: fd13 f3bd bfd7 993e 2701 bc3d 236d 2dbe
000001d0: 9f91 143d e8e8 d4bd 84ca f43d c2cb 2b3d
000001e0: 29d0 0d3d 5ea7 28be 946a bbbd e143 9fbe
000001f0: 7013 923e a947 1b3e b463 c7bd 8355 78bd
00000200: 4248 b1bd 8d4c 9f3d f705 a73d cadd 23bd
00000210: fd2a 123e 332c 1c3d e7a7 3fbe 5f66 c7bd
00000220: e18a 203e 637b 3abd 734e 383e a15d 9ebd
00000230: 01bf e2bd c8a4 7dbe d334 d23c 79b5 72bd
00000240: b24b dabd d980 bcbe 49c1 763e 7c2f 103e
00000250: 5e09 cd3c 6322 f5bd 8617 c0be b150 073e
00000260: 770f 2fbe 4642 423d a5cc 61bd 1a92 e8bc
00000270: d25d 39be e615 d73d 1171 16be 1f0b 983d
00000280: 7610 adbd e335 893e 069c 0fbe 7051 323c
00000290: e0b7 833e 6f2f ad3b 1c40 f5bd 7114 b63d
000002a0: 5a81 8cbe a1a8 753e 7346 4c3e 82f5 4dbe
000002b0: 7fb2 8c3d a8e1 33be 6daf 6e3d eab1 bcbd
000002c0: 4390 22be ee7b 473e a0fa c03d c7d9 a03d
000002d0: 62f8 22bd f7e0 553d 877b cf3b e7e2 653d
000002e0: 9490 073e f9e4 e4bd 8a88 5b3e 1540 3a3b
000002f0: f7d0 89be 9704 75bd da54 53be 9314 3cbe
00000300: f5fd 243e 63da bbbe 222f 023e 6d82 2dbe
00000310: abd5 ca3c 16e9 38be 4774 7f3c 140a c0ba
00000320: 9a4a f3bd 3e17 36bd d616 5d3c a379 82be
00000330: affe 063d 0dc2 993e 22a1 6c3d 7857 fabd
00000340: f26c 42be 7844 a83a fe1b d8bd 80c5 24be
00000350: beb3 a23c 0113 bdbd f198 733e 234c 64be
00000360: 5a12 dc3d adf4 713e c24c 313e 8a03 1abe
00000370: 3423 0a3d 6a06 6cbd 7cce ac3d 0435 e53d
00000380: 407c 1bbd 5720 8bbe 11ad 3e3d be58 7e3d
00000390: c05b 883d d199 b53d 2001 06be 1cef 123c
000003a0: e8ff 9ebd 3e89 673e 7127 e6bd c05c 4bbe
000003b0: 8053 07bd 92bf a63d 97ca d8bd 4f93 12be
000003c0: 9797 253e 0dbb 963c 8e22 093d 5c0a e63c
000003d0: 1f8c f3bc f12b 663e 919a 42bd 9a59 a3bd
000003e0: 7d89 52bd 7571 0d3e adc7 22be 8ba2 ef3d
000003f0: e0b5 9e3c 46ab d5bd 90e8 313e 1bc4 d93d

conv.4.bias f4 [64]
0.014806725 -0.043933842 0.065682776 0.007982165 -0.0011968673 -0.122346655 -0.03469184 -0.044765852
0.10212561 0.052603804 0.033214755 -0.043681864 -0.020943072 -0.033955477 0.0013787231 0.019720705
-0.0071616587 -0.0032418051 0.06588367 -0.037449416 0.13805753 -0.048885297 -0.03258264 -0.07140165
0.0044309567 0.16381295 -0.052777626 0.12834637 -0.02372092 0.018765751 -0.03944383 -0.0018079693
-0.03471818 -0.018700786 -0.005103425 0.1309496 0.07038434 0.11750646 0.0059222337 -0.04631325
0.10591877 -0.00782299 -0.03811549 -0.03358462 0.0012187408 -0.032419864 0.055960435 0.1842652
-0.03478407 -0.010830346 0.046068717 0.019840006 0.12022691 0.14057577 -0.022292288 0.059932943
0.08179219 -0.054837443 0.038602814 -0.0828443 0.17909655 0.054041743 -0.064019784 0.105425626
00000000: e897 723c f9f3 33bd b184 863d a0c7 023c
00000010: 34e0 9cba e290 fabd 0819 0ebd 665c 37bd
00000020: 3b27 d13d 1677 573d 320c 083d c1eb 32bd
00000030: ce90 abbc e614 0bbd 45b6 b43a 518d a13c
00000040: 59ac eabb 7774 54bb 04ee 863d 8f64 19bd
00000050: f45e 0d3e f33b 48bd 6075 05bd 073b 92bd
00000060: 8f31 913b 95be 273e 5a2d 58bd 3b6d 033e
00000070: 6052 c2bc a2ba 993c da8f 21bd 62f9 ecba
00000080: a634 0ebd 6432 99bc a23a a7bb a717 063e
00000090: aa25 903d 3aa7 f03d 4c0f c23b f6b2 3dbd
000000a0: f1eb d83d 002c 00bc fd1e 1cbd 0790 09bd
000000b0: 28be 9f3a b1ca 04bd c536 653d 04b0 3c3e
000000c0: be79 0ebd c371 31bc 8db2 3c3d 8287 a23c
000000d0: 8739 f63d 18f3 0f3e 519e b6bc 3f7c 753d
000000e0: aa82 a73d 3a9d 60bd fc1d 1e3d 46aa a9bd
000000f0: 1665 373e e05a 5d3d ce1c 83bd 64e9 d73d

conv.7.weight f4 [64, 256]
-0.03696745 -0.07210787 0.026647776 0.007709115 0.030286506 -0.04401508 0.05201475 -0.06342641
-0.009232521 -0.062702686 0.022445371 -0.002772409 -0.061445944 0.031240284 0.0076227263 0.039905697
-0.017586812 0.050830074 0.010296814 -0.044864096 0.013640567 0.0012154003 0.017841723 -0.03197401
0.02225402 0.036468565 -0.04809864 0.015289672 0.013958044 -0.048098683 -0.02349525 -0.013261728
-0.051171046 -0.030309593 -0.038304266 -0.03900094 0.009233535 -0.051668808 -0.022755697 -0.0031756652
-0.014769159 -0.020007674 -0.0645803 -0.0017451909 0.023385204 0.01643245 0.031449907 -0.028983623
-0.0069288462 0.003884226 0.0060442537 0.041563883 -0.05326198 0.04536473 0.009349339 -0.035593122
-0.03979444 -0.051237945 -0.048647802 0.05871135 -0.017381132 -0.029302375 -0.002439293 -0.03524534
-0.0520972 -0.02213984 -0.0012932792 0.03904041 -0.059927486 -0.009344675 0.043073595 -0.060457274
0.041259717 0.042856976 -0.015231371 -0.00013949722 -0.032275088 -0.021179155 -4.6990812e-05 -0.054456227
-0.0014313373 -0.06676008 -0.06518377 0.042400986 -0.022349887 0.039835945 -0.010068841 -0.04441767
-0.053775974 0.01720865 0.002624005 -0.054284424 0.041620284 0.025989346 -0.03830128 -0.0316976
0.020636115 -0.0155622065 -0.0153925605 -0.071970545 -0.045083 -0.032351095 0.024350505 -0.060323615
0.022026405 0.06029635 0.02451323 -0.010968484 -0.0020472493 -0.017955586 -0.042619366 -0.019725693
0.044183113 0.013102606 0.0009892434 0.019962437 -0.026356803 0.0021123732 0.021534717 0.012101296
-0.0032995641 0.0030834302 0.04318142 -0.020995997 0.039539993 -0.051783565 -0.008161063 -0.038242757
-0.015799195 0.018832654 0.04058762 0.041031785 0.049648166 0.029374532 -0.0065170303 -0.056735493
-0.061799735 -0.037049644 -0.012369886 0.0033572912 -0.04640351 -0.054780677 -0.007130556 0.014430106
-0.00802608 -0.022456074 0.03716156 -0.035905916 -0.061545838 -0.061366506 0.028156253 -0.004746229
-0.009669135 0.031969115 -0.048516646 -0.05251775 -0.042151324 -0.036924087 0.025280185 0.0024833381
-0.030256255 0.013922259 -0.009963506 0.016430665 0.037547395 -0.0070683975 -0.0057151746 -0.046978742
0.0056919605 0.039817743 0.004320152 0.008239262 0.0158903 -0.046421707 -0.027263507 0.035569467
0.05258002 -0.054764464 0.007967332 -0.006786838 0.05339361 0.06099207 0.023276396 -0.032528996
-0.040099315 0.010153644 0.040078234 -0.034525424 0.017290179 0.03746957 -0.056568056 -0.05100154
0.03441733 0.036424227 -0.039166927 -0.0064357594 0.03720863 -0.02337978 -0.046880946 0.009724557
-0.0088934 -0.044193596 -0.057739154 -0.048987925 -0.062062673 -0.030982502 0.03273181 0.057922438
0.012266554 -0.039598048 -0.025410546 -0.03868392 0.032704886 -0.008390431 0.041653812 -0.02186304
-0.029773157 -0.0077923555 -0.029533023 -0.025625259 -0.007231611 -0.00718705 0.031368695 -0.067843914
0.027209431 0.031230077 0.05544044 -0.049839478 -0.05804511 -0.05235754 -0.057068802 0.01681193
-0.06387679 -0.02091843 0.023014223 -0.054900303 -0.056825783 -0.038078204 -0.020954043 -0.025832549
0.0040141344 0.028744698 0.018722748 0.0071196016 0.012377892 -0.0021781698 -0.016924042 -0.05264348
0.005172832 -0.028674416 -0.045085136 0.031394616 0.0031188265 -0.056076813 -0.02184275 -0.004563267
00000000: 2e6b 17bd 4aad 93bd 704c da3c be9c fc3b
00000010: 681b f83c 2849 34bd 6b0d 553d b5e5 81bd
00000020: 0044 17bc 446a 80bd 5bdf b73c 4eb1 35bb
00000030: beae 7bbd a0eb ff3c 10c8 f93b 2874 233d
00000040: 3812 90bc 3233 503d f8b3 283c 6ac3 37bd
00000050: af7c 5f3c 114e 9f3a ce28 923c 2ef7 02bd
00000060: 104e b63c 1060 153d 1403 45bd 8881 7a3c
00000070: 48b0 643c 2003 45bd 1c79 c0bc b847 59bc
00000080: bb98 51bd d34b f8bc efe4 1cbd 73bf 1fbd
00000090: 4148 173c aca2 53bd 286a babc d21e 50bb
000000a0: 58fa 71bc 22e7 a3bc ad42 84bd e4be e4ba
000000b0: 5492 bf3c 589d 863c 9ed1 003d 106f edbc
000000c0: 600b e3bb 808e 7e3b e00e c63b e43e 2a3d
000000d0: 3c29 5abd 5ed0 393d f82d 193c 18ca 11bd
000000e0: 7fff 22bd e1de 51bd eb42 47bd 507b 703d
000000f0: e062 8ebc 890b f0bc 8cdc 1fbb 6b5d 10bd
00000100: e063 55bd 9c5e b5bc 4083 a9ba d6e8 1f3d
00000110: 8676 75bd 681a 19bc f06d 303d 0ca2 77bd
00000120: f3ff 283d cc8a 2f3d 008d 79bc 0046 12b9
00000130: e232 04bd e87f adbc 0018 45b8 7e0d 5fbd
00000140: b69b bbba 82b9 88bd 127f 85bd a8ac 2d3d
00000150: 1c17 b7bc 042b 233d c8f7 24bc 4eef 35bd
00000160: 3244 5cbd 28f9 8c3c 80f7 2b3b 5859 5ebd
00000170: 087a 2a3d 9ce7 d43c cee1 1cbd 58d5 01bd
00000180: 120d a93c a0f8 7ebc 1431 7cbc 4b65 93bd
00000190: f4a8 38bd 9582 04bd b67a c73c e515 77bd
000001a0: b870 b43c 4ef9 763d f8cf c83c 28b5 33bc
000001b0: 252b 06bb 9817 93bc a591 2ebd c797 a1bc
000001c0: 5af9 343d 50ac 563c 80a9 813a 4488 a33c
000001d0: 39ea d7bc be6f 0a3b 9369 b03c 8444 463c
000001e0: 803d 58bb 6013 4a3b 00df 303d ccff abbc
000001f0: b0f4 213d 011b 54bd fbb5 05bc 70a4 1cbd
00000200: 506d 81bc f046 9a3c 343f 263d f210 283d
00000210: e05b 4b3d dca2 f03c d08c d5bb 7a63 68bd
00000220: b821 7dbd 5ec1 17bd 10ab 4abc 0006 5c3b
00000230: 9b11 3ebd b461 60bd 70a7 e9bb 406c 6c3c
00000240: d27f 03bc cdf5 b7bc b836 183d 1512 13bd
00000250: 7d17 7cbd 725b 7bbd f1a7 e63c 4186 9bbb
00000260: 4b6b 1ebc 0cf2 023d 64b9 46bd da1c 57bd
00000270: dea6 2cbd b63d 17bd 6418 cf3c 80bf 223b
00000280: f7db f7bc 301a 643c f93d 23bc 9a99 863c
00000290: 4ccb 193d 049e e7bb 5c46 bbbb c86c 40bd
000002a0: a083 ba3b ee17 233d 1090 8d3b f8fd 063c
000002b0: 602c 823c b024 3ebd b857 dfbc 4ab1 113d
000002c0: 265e 573d b450 60bd 6a89 023c 2064 debb
000002d0: 42b3 5a3d d2d2 793d 24ae be3c 203d 05bd
000002e0: 2e3f 24bd 785b 263c 1329 243d 886a 0dbd
000002f0: 22a4 8d3c b179 193d e8b3 67bd fee6 50bd
00000300: 30f9 0c3d 9231 153d 806d 20bd 10e3 d2bb
00000310: 1468 183d f486 bfbc 3c06 40bd c053 1f3c
00000320: a0b5 11bc 5804 35bd e47f 6cbd 90a7 48bd
00000330: 6e35 7ebd 04cf fdbc ca11 063d 1440 6d3d
00000340: a8f9 483c 9031 22bd c729 d0bc 0873 1ebd
00000350: 8ff5 053d 0578 09bc 309d 2a3d 1e1a b3bc
00000360: d6e6 f3bc 0457 ffbb 3def f1bc 10ec d1bc
00000370: 26f7 ecbb 5881 ebbb 767c 003d c0f1 8abd
00000380: 50e6 de3c 38d6 ff3c 8415 633d 7b24 4cbd
00000390: b6c0 6dbd dc74 56bd fac0 69bd 2cb9 893c
000003a0: d6d1 82bd 215d abbc 5388 bc3c 24df 60bd
000003b0: 27c2 68bd e4f7 1bbd d0a7 abbc c89e d3bc
000003c0: 0089 833b 007a eb3c 7360 993c 8c4b e93b
000003d0: a4cc 4a3c a0bf 0ebb 4aa4 8abc b1a0 57bd
000003e0: dc80 a93b 9ce6 eabc 31ab 38bd a497 003d
000003f0: 3a65 4c3b cdb0 65bd 91ef b2bc 7587 95bb

conv.7.bias f4 [64]
-0.0464873 0.28746536 0.12008715 0.26980373 0.24901427 0.2319279 -0.13509744 0.062101196
0.05490611 0.17666869 -0.066539064 0.04512964 0.17396146 0.19497745 0.35010296 -0.19014129
0.17330462 0.1720714 0.4594994 0.065314874 -0.0037058853 0.04158546 0.15001637 0.18174991
0.075888835 0.014143972 0.008676553 -0.04683177 0.035582703 -0.0052179634 0.094969235 -0.05125558
-0.08496167 0.12962835 -0.011205361 -0.16056718 0.061008345 -0.07499811 0.08024358 0.05871082
0.059267633 0.051706396 -0.04036827 0.055171493 0.14069596 0.15612513 -0.028319957 0.14373419
0.11316897 0.09955631 -0.07633373 0.025308566 -0.008681628 -0.05450569 0.13720222 -0.15169689
-0.075567596 -0.19951974 0.30673537 0.0019181094 0.26851466 -0.09093567 0.22560622 0.10543446
00000000: 7869 3ebd a92e 933e 40f0 f53d b723 8a3e
00000010: 99fd 7e3e 827e 6d3e fc56 0abe d35d 7e3d
00000020: 3be5 603d a3e8 343e a245 88bd dbd9 383d
00000030: f422 323e 2ba8 473e b240 b33e 66b4 42be
00000040: c476 313e 7c33 303e 8143 eb3e cec3 853d
00000050: 70de 72bb 8455 2a3d e49d 193e a61c 3a3e
00000060: 9b6b 9b3d 1ebc 673c 1a28 0e3c acd2 3fbd
00000070: 2bbf 113d 73fb aabb 3b7f c23d 5ff1 51bd
00000080: 6200 aebd 4bbd 043e b196 37bc b96b 24be
00000090: e3e3 793d 9c98 99bd bf56 a43d c27a 703d
000000a0: 9ec2 723d 16ca 533d 3359 25bd 81fb 613d
000000b0: 9a12 103e 44df 1f3e 41ff e7bc 0e2f 133e
000000c0: 22c5 e73d 2ee4 cb3d dc54 9cbd e953 cf3c
000000d0: 633d 0ebc 5c41 5fbd bd7e 0c3e 6e56 1bbe
000000e0: 2fc3 9abd e74e 4cbe 6b0c 9d3e 1269 fb3a
000000f0: c17a 893e 7b3c babd 5105 673e 06ee d73d

out.weight f4 [4, 64]
0.08295399 0.57998604 -0.06828049 0.4467674 0.31825322 0.19493599 -0.2068478 0.38521245
-0.1093772 0.35017413 0.06590985 0.26054138 0.38505518 -0.018686436 0.022658752 0.051194735
-0.4381873 0.25670668 0.32587156 0.18387802 0.27657765 -0.004682001 0.29248798 0.0030132076
-0.12906934 -0.08264739 0.55551165 0.09083535 0.15553977 -0.098259374 0.19475879 -0.036671028
-0.15381172 0.2487496 0.050096817 -0.10881328 0.4142131 -0.80953693 -0.2534186 -0.189787
0.1601348 0.24439034 0.065915994 0.001873175 -1.061228 -0.9403419 -0.23946056 -0.9608545
-0.53736454 0.07755276 0.13040027 -0.15417428 -0.33676553 0.017680733 -0.46844926 1.204233
-0.048714157 -0.040727276 0.1994278 -0.33635023 0.06565348 -0.044954762 0.57662106 -0.22513428
-0.076494694 0.10319849 0.3159489 -0.10243688 0.5007384 0.40480193 0.29089478 -0.18581125
-0.86610353 0.4446046 0.017367175 0.19678995 0.44904235 0.29866534 0.14842394 -0.06971967
0.06868205 0.10054559 0.47921854 -1.2166315 -0.21418558 0.44876805 0.33252457 -0.117446005
-0.82019454 -0.17980017 -0.14718272 0.09645697 -1.2391366 -0.0125896325 -0.04428058 0.13243991
-0.21650614 0.60805416 -0.019990807 -0.10343857 0.004827482 0.08712319 -0.45549965 -0.08826845
0.026277289 -0.019762209 0.076512106 -0.2378913 0.15524077 -0.04741497 -0.3608158 0.13189955
-0.20128098 0.1755463 -0.39605927 0.4420701 0.17082226 -0.0003033552 0.28470114 -0.52503496
0.08466274 -0.5090165 -0.03589739 0.46258265 0.35513663 -0.030347884 0.03734044 -0.024932403
0.08247315 0.07832153 -0.5802733 0.022887234 -0.029054925 0.010172419 -0.39063776 -0.03204344
0.12743782 0.06433935 -0.08741339 0.2308492 0.33652663 0.2952454 0.08806526 -0.5912989
0.24281509 0.47856408 0.47470576 0.12210212 0.13602391 0.037544228 0.42497882 0.20496528
-0.0149679 -0.64718586 -0.012207296 0.03325322 -0.10735211 0.56172925 0.31694087 0.09714581
-0.08225461 0.13716638 0.0587583 1.2953637 0.14683035 0.008585175 -0.027810698 -0.12789336
-0.11386838 -1.1911429 -0.06600768 0.07644288 -0.023709603 0.094131276 0.112327494 -0.0738661
0.22604994 -1.376555 0.34259588 -0.41930872 0.11864184 -0.042090576 0.55696493 -0.2613874
0.104623444 1.5015812 0.51717883 -0.08255581 0.53707385 -0.40054473 0.054453813 -0.7836245
0.059595495 -0.08011835 0.06086791 0.41092673 0.16013317 0.052487154 -0.317711 0.36870342
-0.13271399 0.25774238 0.031193133 -0.122416906 0.2944961 0.29845628 0.5797383 -0.11631639
-0.12733862 0.16974679 0.36629033 0.13282634 0.5171983 -0.72200143 0.35043064 0.57013595
-0.024366578 -0.21915936 0.1884305 0.04288522 -0.043422967 -0.09566695 -0.95419234 -0.22110547
0.8056379 -0.15059038 0.095327094 -0.1504375 0.39432383 0.14865035 0.2943476 -0.6798474
-0.8834385 -0.0009788369 -0.122615926 -0.79800665 0.17012611 -0.028750004 -0.050073363 0.0024935561
0.08154716 0.1482118 -0.094976686 0.36882022 0.082230076 0.030139143 -0.040399782 -0.44680086
0.09765796 -0.23433189 0.0912964 0.013654078 0.09329558 0.71478796 -0.068166874 0.19228213
00000000: c8e3 a93d f779 143f a4d6 8bbd b2be e43e
00000010: 16f2 a23e 4d9d 473e e9cf 53be 913a c53e
00000020: 2701 e0bd 064a b33e befb 863d ae65 853e
00000030: f425 c53e 4c14 99bc d99e b93c 92b1 513d
00000040: 165a e0be 0f6f 833e a3d8 a63e 854a 3c3e
00000050: 969b 8d3e 796b 99bb fcc0 953e 3c79 453b
00000060: c12a 04be 0943 a9bd 0336 0e3f e207 ba3d
00000070: d145 1f3e 363c c9bd d96e 473e 5c34 16bd
00000080: d280 1dbe 37b8 7e3e 5232 4d3d 7fd9 debd
00000090: bd13 d43e d03d 4fbf 15c0 81be 8657 42be
000000a0: 61fa 233e 7641 7a3e f7fe 863d 5385 f53a
000000b0: 52d6 87bf 3fba 70bf 2635 75be 8ffa 75bf
000000c0: b990 09bf fbd3 9e3d a687 053e dddf 1dbe
000000d0: 886c acbe 2fd7 903c 95d8 efbe 4f24 9a3f
000000e0: 7f88 47bd a5d1 26bd cd36 4c3e 1936 acbe
000000f0: 5575 863d 7c22 38bd 709d 133f 9a89 66be
00000100: 40a9 9cbd bb59 d33d 0ec4 a13e 6dca d1bd
00000110: 6430 003f 3342 cf3e 29f0 943e 4e45 3ebe
00000120: f6b8 5dbf 37a3 e33e 9b45 8e3c 4e83 493e
00000130: e1e8 e53e aaea 983e 72fc 173e 30c9 8ebd
00000140: 2da9 8c3d d9ea cd3d 225c f53e 95ba 9bbf
00000150: 7753 5bbe edc4 e53e a940 aa3e 8887 f0bd
00000160: 45f8 51bf 891d 38be 11b7 16be 3b8b c53d
00000170: 079c 9ebf bf44 4ebc 8e5f 35bd 549e 073e
00000180: c9b3 5dbe 70a9 1b3f c3c3 a3bc 9ad7 d3bd
00000190: db2f 9e3b a56d b23d 4037 e9be 17c6 b4bd
000001a0: 7843 d73c 5be4 a1bc 61b2 9c3d c799 73be
000001b0: 70f7 1e3e 3336 42bd d9bc b8be ad10 073e
000001c0: 9a1c 4ebe 69c2 333e 48c8 cabe 0357 e23e
000001d0: 08ec 2e3e a50b 9fb9 59c4 913e b168 06bf
000001e0: a963 ad3d e84e 02bf 2409 13bd a2d7 ec3e
000001f0: 78d4 b53e 209c f8bc 4af2 183d 0a3f ccbc
00000200: afe7 a83d 0a67 a03d ca8c 14bf 027e bb3c
00000210: 9804 eebc 38aa 263c ac01 c8be fb3f 03bd
00000220: 0f7f 023e 59c4 833d cb05 b3bd bc63 6c3e
00000230: 384d ac3e 682a 973e 8f5b b43d 5d5f 17bf
00000240: 85a4 783e 5a06 f53e a20c f33e ad10 fa3d
00000250: da49 0b3e fac7 193d d396 d93e 6be2 513e
00000260: ec3b 75bc f9ad 25bf 1c01 48bc 8734 083d
00000270: 6cdb dbbd 7dcd 0f3f 1346 a23e 62f4 c63d
00000280: 1b75 a8bd 5875 0c3e 8bac 703d 7ace a53f
00000290: b25a 163e d5a8 0c3c 43d3 e3bc 7af6 02be
000002a0: d333 e9bd 5f77 98bf 092f 87bd 168e 9c3d
000002b0: a43a c2bc e6c7 c03d f50b e63d 1c47 97bd
000002c0: a379 673e f432 b0bf ba68 af3e a2af d6be
000002d0: 7efa f23d 2b67 2cbd 4195 0e3f 92d4 85be
000002e0: d144 d63d d033 c03f d565 043f 0513 a9bd
000002f0: ac7d 093f 3314 cdbe f60a 5f3d 9d9b 48bf
00000300: 681a 743d 1715 a4bd a150 793d fd64 d23e
00000310: f3f9 233e c5fc 563d 04ab a2be b2c6 bc3e
00000320: 2de6 07be cff6 833e be88 ff3c b7b5 fabd
00000330: 31c8 963e 43cf 983e bb69 143f 4a37 eebd
00000340: 0e65 02be 1ad2 2d3e 688a bb3e a103 083e
00000350: 1c67 043f 16d5 38bf a56b b33e 6ef4 113f
00000360: 6b9c c7bc 506b 60be edf3 403e 6aa8 2f3d
00000370: 48dc 31bd 09ed c3bd f345 74bf 7969 62be
00000380: 493e 4e3f 5d34 1abe da3a c33d 4a0c 1abe
00000390: d0e4 c93e cc37 183e bbb4 963e 7b0a 2ebf
000003a0: 0729 62bf 514c 80ba 0f1e fbbd 2a4a 4cbf
000003b0: 8a35 2e3e 2185 ebbc ba19 4dbd ee6a 233b
000003c0: 3302 a73d d6c4 173e 2383 c2bd 01d6 bc3e
000003d0: 3e68 a83d 5de6 f63c 3e7a 25bd 15c3 e4be
000003e0: e600 c83d b3f4 6fbe 9bf9 ba3d 5bb5 5f3c
000003f0: c111 bf3d 58fc 363f 139b 8bbd 9be5 443e

out.bias f4 [4]
0.4236244 0.35503066 0.20346192 0.26305422
00000000: 4ce5 d83e 94c6 b53e 5258 503e 0baf 863e
