models/v17.1/model_416000.pth (torch, 295107 bytes, 10 tensors)

conv.0.weight f4 [16, 2, 3, 3]
00000000: fbe3 f23d c2dc 6e3c 40ef 47be 1617 a03e
00000010: a053 eebd 30d4 093e 7b3d cabe 421a dd3e
00000020: f7c8 9f3d e422 d53c df38 9abc 313f 36bc
00000030: 602c abbd 04e8 cb3d 18d6 2d3b 2843 3bbc
00000040: 1b88 223d 3b1c e9bb fa9f 5cbe bea6 903e
00000050: e40d c53c 77c0 693e a202 3ebe 4b45 5b3e
00000060: 85e8 48bf ae0a 15bf 8984 aabd 6296 7abf
00000070: fa81 2e3f c889 9cbf 86e5 4c3e 32f9 34be
00000080: c7d3 4b3e e080 8339 0d45 05bc 3a0b c63d
00000090: 7f40 1b3d 80f3 543e fa0f af3d d17d 69bd
000000a0: b98e 873e b9f0 aabd bec0 653e 9c4e 1d3e
000000b0: 7841 a73d ebbb 8d3d d0fe 0b3e e60d afba
000000c0: 80ae 723e 39a0 b9bb 80d4 bcbf dca7 963b
000000d0: 425c 91be c2d1 dd3c 7586 6abc bf99 0a3e
000000e0: 738d ae3c 7edc 023e 377d 073e 4c5e 39bf
000000f0: b7ce c3be 4d30 d8be 6fdf 483e 3031 88bd
00000100: c059 cfbb 1ba8 05bd b110 a03e ec12 98bd
00000110: 7f76 7fbf dd5f 92be 1e7f c73e 4b3b f03d
00000120: c6d4 383e bb23 d2bd 77bd e4bd e959 93bf
00000130: 321b 00be b989 b93d 892b e63c 0124 033f
00000140: 876d 87bf 06d6 94be 188e 573e a45c a8be
00000150: 9c4e 653e d29f 98bc ee27 363e 3d78 243d
00000160: 6101 03bd 4427 893c 85f6 26bd 4222 2bbe
00000170: e1df ee3e 704f 933e 466f a6bd d645 3ebe
00000180: 7e57 403f 6d18 cbbe 637c d63e 6f6f bcbe
00000190: 2616 26bd a7a9 c53d d1a6 d53d a99d b4be
000001a0: f380 45bd ab1b fb3c 0064 20be bba4 97be
000001b0: 5443 55bf 3fc9 00be 0432 803e bdad 4a3e
000001c0: 8609 853d d99b 84bf 83c8 82be 0679 243e
000001d0: b60c 81be dced b3bd 2c96 4fbd 9cb2 64bd
000001e0: d9b0 e13d 7ff2 a03b f7c3 173d 9eea 11bf
000001f0: db21 3fbd 2a4b 46be 97cc 893e b47c 4ebe
00000200: eefc 073f 5ea6 07be 0e11 893e 87de 1b3e
00000210: e0a4 bf3c ed0b c43e c9c5 b8bd 7062 c4bf
00000220: b429 2bbf d9cc 5abf fb82 e23d 95bd ae3c
00000230: 537b bfbd d183 adbd 3004 973d b97b 173d
00000240: 38d6 85bb 7cc2 bc3d cb4b 1f3d 3105 ca3e
00000250: d867 313d 724d 20be de7e 813e df39 e9be
00000260: c2d8 2f3d db7e bbbe 4534 193f 0c51 e9be
00000270: ed50 403d 2f25 8b3e dae0 9eba 52aa a2be
00000280: 9fa3 f63e d868 a43b 0f43 073c 784a 6d3c
00000290: 59fe 023d c218 ee3c 05b6 0fbe fc96 733e
000002a0: 33f9 a63e 827d d4bd b9ee 33be 45b0 39bc
000002b0: f210 413e 680d 0ebe b757 d6bf 3865 2bbd
000002c0: eeb5 33bd d522 353e aeda a93e 4437 53be
000002d0: 63e5 18be 39f8 0f3e a940 9d3d c0fb dbbd
000002e0: 0be8 143d aeb8 e43d 6f54 1f3f cd9c d7be
000002f0: d3cf f9bc f71a f23d 10ff 91be 06d7 e6bd
00000300: f3c5 833f 58a4 1bbd 7f33 25bd e28b 433e
00000310: fdbe e93c 1ff0 13be bd1f 1d3e 0ac5 ed3d
00000320: e648 bbbe b379 cebd a0ce 963d 133c 673e
00000330: c748 a0bf deb1 d2bd 1c0f d2bd 1e57 b1bf
00000340: dec1 95be 5426 993e df87 283e 8da1 763e
00000350: f3c0 86be 36e5 0b3e 70a8 183e f2a6 613c
00000360: 6194 1fbe b437 24bd a4d0 603d 2d36 a7bd
00000370: e58c 033d ab20 1a3e 6652 bebd a00c 693b
00000380: 4f78 44be 5439 e33d 5452 683e 340f d33c
00000390: f303 cdbc 1247 78bf 0a94 ffbd 3597 533d
000003a0: 8db4 8c3d 71ff 693e ba38 493e 2335 cb3c
000003b0: b9dd c93c 6590 74bb cec1 b2bf 2aa8 5abd
000003c0: 5261 86bc c962 2bbe cdcb 9e3d 4528 673e
000003d0: 0393 b4bf ad0f 85be ff44 eabd 7095 5a3d
000003e0: d4d9 fabd 7007 4b3e dc1c 46be e3b0 76bc
000003f0: 630f 2a3e 70c9 a5bf 2735 483d 354b b8bd
0.1185989 0.014579 -0.1952486 0.31267613 -0.11637044 0.1345985 -0.3950003 0.43184096
0.07802003 0.026017614 -0.018825946 -0.011123464 -0.08358073 0.09956363 0.0026525315 -0.0114295855
0.03968058 -0.007113961 -0.21545401 0.28252214 0.024054475 0.22827326 -0.18555692 0.21413152
-0.78479797 -0.5821942 -0.0832606 -0.97885716 0.6816708 -1.2229548 0.20009431 -0.17673185
0.19905005 0.00025082286 -0.008134139 0.0967011 0.037903305 0.20796013 0.08547969 -0.057004754
0.26476076 -0.083466955 0.22436807 0.15362018 0.08166784 0.06920608 0.13671422 -0.0013355582
0.23699379 -0.005664852 -1.475235 0.004597647 -0.283907 0.02707756 -0.014314284 0.13535212
0.021307683 0.12779424 0.1323136 -0.7240951 -0.38243648 -0.4222435 0.19616483 -0.06650007
-0.0063278377 -0.03263102 0.31262735 -0.07425484 -0.99790186 -0.28588763 0.3896417 0.11730059
0.18049917 -0.10260721 -0.1116895 -1.1511813 -0.12510374 0.09059472 0.028096931 0.5122681
-1.05803 -0.29069537 0.21050298 -0.3288318 0.22393268 -0.018630896 0.1778867 0.04015373
-0.031983737 0.016742356 -0.040762443 -0.16712287 0.4665518 0.28771544 -0.081266925 -0.18581328
0.751335 -0.39667073 0.41891775 -0.36803767 -0.040548466 0.09651499 0.10432208 -0.35276535
-0.04821868 0.030652842 -0.15663147 -0.29617867 -0.8330586 -0.1257677 0.2503816 0.19792838
0.06495957 -1.0360061 -0.25543603 0.16061792 -0.2520501 -0.087856025 -0.050680324 -0.055834398
0.11020059 0.0049117203 0.03705212 -0.5699862 -0.046663146 -0.1936461 0.26913902 -0.20164758
0.53120315 -0.13247058 0.26770824 0.15221606 0.023394048 0.3829035 -0.090220995 -1.5342541
-0.6686051 -0.8546882 0.11060139 0.021330634 -0.09349694 -0.084724076 0.073738456 0.036983225
-0.0040843748 0.092167825 0.03889064 0.39457086 0.043311924 -0.15654543 0.25292104 -0.45551965
0.042931326 -0.3662022 0.5984538 -0.45569646 0.046952177 0.27176806 -0.0012121454 -0.3177057
0.48171708 0.005017381 0.008255734 0.014483087 0.031980846 0.02906454 -0.14034279 0.23788065
0.32612 -0.10375501 -0.17571534 -0.01133353 0.1885412 -0.13872302 -1.6745518 -0.041844577
-0.043874674 0.17689069 0.33174652 -0.20626551 -0.14931254 0.14059533 0.076783486 -0.10741377
0.036354106 0.11168037 0.6223821 -0.42111817 -0.030494606 0.118215494 -0.2851491 -0.11271481
1.0294784 -0.037998527 -0.040332314 0.1909633 0.028533453 -0.14447068 0.15344138 0.11609848
-0.36579055 -0.10081806 0.07363629 0.2258151 -1.252221 -0.10287832 -0.10256788 -1.3854711
-0.2924947 0.29912055 0.1645808 0.24085064 -0.26319084 0.13661656 0.14908004 0.013772713
-0.15583946 -0.040092185 0.054886475 -0.0816463 0.03211679 0.15051524 -0.0929306 0.0035560504
-0.19186519 0.11094919 0.22687656 0.025764085 -0.025026297 -0.96983445 -0.12479408 0.051657874
0.06870375 0.2285135 0.19650546 0.024805611 0.024641858 -0.003731751 -1.3965394 -0.05338303
-0.016403828 -0.16736902 0.07753716 0.22573955 -1.4107364 -0.25988522 -0.11438941 0.05336517
-0.12248579 0.19827056 -0.19346946 -0.0150568215 0.16607432 -1.2952099 0.048878815 -0.089987196

conv.0.bias f4 [16]
00000000: 5791 bebc efbd dc3d 53a2 ad3c e3a3 333c
00000010: 2da7 27bd d73d eebe b4d3 a13e 5017 c1be
00000020: 99f7 8ebe 1505 f2bd c409 35bf bb26 63bd
00000030: 9836 3b3d 5831 ab3d f814 17be a923 e63d
-0.023262663 0.107784145 0.021195566 0.010964367 -0.040930916 -0.46531555 0.3160683 -0.377131
-0.27923277 -0.118173756 -0.70718026 -0.055456858 0.04570636 0.08359021 -0.14754093 0.112372704

conv.2.weight f4 [32, 16, 3, 3]
00000000: df4f de3c fa4a ac3d 5789 303d 0740 8e3d
00000010: 9930 ed3c b968 103c 9374 9b3e 3be6 783e
00000020: 9887 7dbe 29e3 923e 300b b73d 072d 0dbe
00000030: 24ba 67be 1837 053d 7802 47bb 47be e53d
00000040: 92f9 12bd 14dc 77be e27e 11bd 8e8e 0e3e
00000050: c2b0 e1bc 9e8e 18bf 61c1 c73e 5196 ffbf
00000060: 98cb ecbd fa68 21bd c813 083d b1fb 1d3e
00000070: 609f 36be ec40 7bbe df76 343e 1ef4 e2be
00000080: 599f 3bbe 3f02 42be f67d 6e3e bda0 693d
00000090: 25c1 323e 2bd7 9b3d 7356 963e ea9e cd3b
000000a0: efd3 f43c 2ae7 40be 7686 423e c931 e5bd
000000b0: 8246 5a3d 6f6a 62be 3543 3e3d 320a d4be
000000c0: 1145 943e 6bc0 68be 7c45 e4ba 34be 443d
000000d0: 3036 403d bdc9 11bc 634d 97be 9036 183c
000000e0: 4cfe fcbe 4763 053d e9f5 8cbe c49f 0ebe
000000f0: 1d90 50be e448 993d 2c56 8c3c fc0c 813e
00000100: 4eb7 a7bd 36e2 883d 592c 25be 3d45 1cbe
00000110: 3b0c 87bc f25b 653e 25d8 99be c50c 3abf
00000120: acdc 88be 29c2 0ebd e18c ff3e 4a09 ad3d
00000130: ecf9 943d 2cb1 183e f71a a63d 228c a4bd
00000140: 9e97 80be f3ce 353e 71aa febe 3fab b93e
00000150: d171 7bbe fff1 d2be 26b0 07be cc6c d53c
00000160: d8e9 203e 6773 a03e cfd7 9f3e 0c90 7abd
00000170: 4209 4a3b 1d83 0c3d 9e4a 2abe 4e15 45bf
00000180: 780f d13e fe26 a23d f2ea 4fbe eb68 8a3c
00000190: b2af 34be 89f8 e1bd bf29 06be 55f9 83be
000001a0: 1313 61be bb7d 403e 77a9 a5bd e37c 10bb
000001b0: 9ac4 6cbd 6584 c03c c4d5 0f3d da60 82b9
000001c0: 47c4 41bf 5fbf 9abd 043b 893d 91b0 183d
000001d0: 4987 b4bd dad1 81be 0d1f 3bbf cc3c 24be
000001e0: 9b95 933d a0a4 1fbe cfed a4bc ce58 6bbf
000001f0: c0f5 5fbe f20f a7be a6e2 603e b81e 0ebe
00000200: e27d 853e fa2d 313d 0069 48be b18b 9cbe
00000210: 8d1c ae3d b77a 5e3d 0c15 ecbd 6132 223d
00000220: cf6d 2abd 0123 463d 3e8e 2b3d aeb6 123e
00000230: 8ee6 efbd 4ac3 8b3d 0736 82be a795 083d
00000240: 2888 6abb acf1 a93e 40da 30be 56a0 7b3d
00000250: 7c00 8abe fe97 28be 9d61 1c3e 4f7a a43d
00000260: 14f8 efb9 9c38 91bd 04fa 0b3e 4534 0b3d
00000270: f071 5cc0 704e f63d 5c59 d23d dcbb 15be
00000280: a55b b03e 16f6 bd3b c60a 7fbe 059c 1fbc
00000290: eff1 033d b60c 963d fa4e 093d 4522 c43d
000002a0: 64a8 37be 8d5b b23e ef58 a5bd 87b6 02bf
000002b0: 3fac b7be bead b83e e443 82be 5c52 5c3e
000002c0: 730b 9dbc 94dc 43bf f7be c6be aca4 a63e
000002d0: 2668 d2be e99b c7be 96c8 6fbf e945 4dbe
000002e0: b3b0 143e 7dab a33e 3678 18be 634e 983d
000002f0: c76f 00be 2cfa 6ebe 06ae 23be 2016 643e
00000300: f228 a43e 5b53 c13e ddcd 91be 852d 8a3d
00000310: f3e6 afbe 106f 1bbe e55b 6bbd a83c 1cbd
00000320: b931 be3e 2ca4 7dbd f47d adbe cb21 62bf
00000330: 4fda 003d bca8 393e a42a 153f 8898 72bd
00000340: fc20 0d3e c2eb 89be f757 713d 0289 1cbe
00000350: 176e bb3e edae a93e 2b1a 1fbe 0059 e1bd
00000360: 4e66 12be 4da6 8b3d dae3 88be 4278 ed3e
00000370: 4857 033e f2bd a3be 5e0f 833e 3005 7d3e
00000380: 20dc 423e 34cb a03e d2eb 01be b4c4 db3d
00000390: 889a 9bbd da2c 003e 5046 9abe 6cec 553d
000003a0: 0f9d 723d ab7d f13b d48b 233e f7a1 913e
000003b0: 90bb 11bf eb30 56be e796 6bbe e330 773e
000003c0: 19dc bebc f916 b6be 1019 b63e 368c 2ebe
000003d0: bae1 b63e 6f45 72bd cfe7 673e 4168 843c
000003e0: ec2e b0bd 836a a53d 127f ad3d 86e6 75be
000003f0: 2909 f03e 3687 53be 253d 893e b872 493d
0.027137695 0.08412738 0.043099727 0.06945806 0.028953837 0.00881403 0.30362377 0.24306576
-0.24758756 0.28688934 0.08937681 -0.13786708 -0.22629601 0.032523245 -0.0030366462 0.11217933
-0.03588254 -0.24205047 -0.035521396 0.13921568 -0.027550105 -0.59592617 0.39014724 -1.9967748
-0.1156227 -0.039406754 0.03322199 0.15428044 -0.17834234 -0.24536484 0.1762347 -0.44326872
-0.18322505 -0.1894617 0.23290238 0.057038058 0.17456491 0.076093994 0.2936283 0.0062750475
0.029886214 -0.18838182 0.18996605 -0.111911364 0.053289898 -0.22110914 0.046450812 -0.41414028
0.28958943 -0.22729652 -0.0017415727 0.048032954 0.046926677 -0.008898196 -0.2955123 0.009290352
-0.49412763 0.03256538 -0.27531365 -0.13928133 -0.20367475 0.07484606 0.017130934 0.2520522
-0.081892595 0.06683771 -0.16130199 -0.15260787 -0.016485324 0.22398356 -0.30047718 -0.72675735
-0.2673086 -0.034853134 0.4991217 0.084490374 0.07274231 0.14911336 0.08110612 -0.08034541
-0.25115675 0.17754726 -0.4973941 0.36263463 -0.24555136 -0.41200253 -0.13250789 0.026052855
0.15714204 0.31338045 0.31219336 -0.06117253 0.0030828272 0.034304727 -0.16630027 -0.76985633
0.40832114 0.079175934 -0.20304468 0.016895732 -0.17645147 -0.110337324 -0.13101862 -0.25776163
-0.21979932 0.18797962 -0.080889635 -0.0022047095 -0.05780468 0.02350063 0.035115972 -0.00024867692
-0.7569012 -0.075560324 0.067007095 0.03727776 -0.08814866 -0.25355417 -0.73094255 -0.16038817
0.07206269 -0.15590143 -0.020132927 -0.9193238 -0.2187109 -0.32629353 0.2196146 -0.13878906
0.26072603 0.043256737 -0.19571304 -0.30575326 0.085015394 0.05431625 -0.11527452 0.039598826
-0.041608628 0.048373226 0.0418837 0.143275 -0.11713897 0.06824358 -0.25431845 0.033345845
-0.0035786722 0.33192194 -0.17270756 0.061432205 -0.26953495 -0.1646423 0.15271612 0.08031141
-0.00045770465 -0.070908755 0.13669592 0.033985395 -3.4444542 0.120266795 0.1027095 -0.14622444
0.3444492 0.005797158 -0.24906453 -0.009741788 0.032213148 0.07326643 0.033522584 0.09576849
-0.1793533 0.34835473 -0.08073603 -0.51059765 -0.358736 0.36070055 -0.2544242 0.21515793
-0.019170498 -0.7650845 -0.3881757 0.3254751 -0.41095084 -0.38986138 -0.93665445 -0.200462
0.1452053 0.31966773 -0.14889607 0.07436826 -0.1254264 -0.2333762 -0.15984353 0.22274065
0.3206249 0.37758908 -0.28477374 0.067469634 -0.34355888 -0.15179086 -0.057460684 -0.038143784
0.3714731 -0.061924145 -0.33885157 -0.88332814 0.031458195 0.18130773 0.5826819 -0.059227496
0.13782114 -0.2693768 0.05892178 -0.1528664 0.3660743 0.3314127 -0.15537326 -0.110033035
-0.14296839 0.06818829 -0.26736337 0.46380812 0.12826264 -0.31980854 0.25597662 0.2470901
0.19029284 0.31405032 -0.12687615 0.107308775 -0.07597834 0.1251711 -0.3013177 0.052227423
0.059231814 0.007369717 0.15971309 0.28443882 -0.5692682 -0.20917098 -0.23006783 0.24139743
-0.02329831 -0.35564402 0.35565996 -0.17045674 0.3571909 -0.05914825 0.22647022 0.016162993
-0.086027 0.08076956 0.08471502 -0.24013719 0.4688199 -0.20657048 0.26804462 0.04918167

conv.2.bias f4 [32]
00000000: e3ca c13e d819 103d 45d8 e7be 15e1 dbbe
00000010: d1a3 893e 97b0 7bbe 27d5 913d 2f51 9cbe
00000020: ea11 5fbe 4a11 3bbc e4ca 1e3e 92d5 153c
00000030: 9865 3abe 9d65 a9bd d852 3ebc 7fac 9fbe
00000040: 8674 b33d f78f f8bc 640e 893d 36e3 f8be
00000050: 0016 dfbd fd67 aa3e 4e71 38bf c0ba 423e
00000060: e4a2 d7bc 471a 2e3e b271 8dbe 78f5 8b3d
00000070: aec4 2cbc f495 c7bd 8e93 c4bc 6b1e c8bd
0.37850103 0.035180897 -0.45282188 -0.4294516 0.26882794 -0.24579082 0.07120734 -0.30530688
-0.21784177 -0.011417696 0.15507084 0.009145157 -0.18202817 -0.08271334 -0.011616431 -0.31186292
0.087624595 -0.030342085 0.06692198 -0.48610848 -0.10892868 0.33282462 -0.7204789 0.19016552
-0.02632279 0.17002212 -0.27625805 0.06833929 -0.010544939 -0.09745398 -0.02399614 -0.09771427

conv.4.weight f4 [64, 32, 5, 5]
00000000: bb7c febd f329 ccbd 817d 2ebb 0078 a63e
00000010: 27f1 eb3d 87e8 15be 6305 b83d 2443 0c3d
00000020: 1012 6fbd 0d42 553e f726 d93d 5cba cbbd
00000030: bff8 913e 1848 47be 8f2a d33d 28cc 66be
00000040: 3e25 003e 0104 88be 958d 643f ebc0 e6be
00000050: 51fe 823d 551e 9fbe df0e 0abe 6117 ab3c
00000060: ed56 9cbd 8296 3ebd cc9e c8be cd77 aebc
00000070: 3ff2 bf3e 1b48 3bbe 06f0 8fbb b794 343e
00000080: a98a 24be 6a8a 103e 15e1 083d 5cb8 cf3e
00000090: f07d c2be 37f0 673e 215e 2d3f ef3d 26bf
000000a0: 6e73 753e 7885 1e3e 91aa 173d 1d78 903e
000000b0: 1014 003f 70de 1dbe 6572 843e 49ba 023e
000000c0: 0b69 13be 33a3 843e dacb 8dbe 64ef 313d
000000d0: 1d79 23bf c956 ccbe cd8f 963e 4bc5 853e
000000e0: 1028 393d 1ef2 c8be 2070 823e 6df2 c8bf
000000f0: 874d 85bf 9915 af3e 58ef 50bf a43a 96be
00000100: 66a6 933e 5042 8e3e 436b 3bbe 33be 513f
00000110: 96d8 34bc e2bb 2ebe e570 3cbc bb40 453e
00000120: 52e3 0abe cee1 0dbe 0625 b63d 21e0 7e3b
00000130: 1454 13be 9c7b 14be 8857 5bbd 7492 91be
00000140: d7eb 5d3c 023b 8e3e f933 813d 524c 0d3f
00000150: ed98 b53d 8f16 93be 8bb5 14bd 6bd5 34bf
00000160: d09e 00be 53b0 873f 49ab d13d b1a2 b93e
00000170: 09de d0be e670 17bf 6cbf 1dbe 84d4 f93e
00000180: 2758 013e 9f77 02ba 2928 003f 6a2a 80be
00000190: 59b6 043d 62f6 893d 2925 f3bd 26e6 52be
000001a0: d989 33be 6ec3 013e e83b a93d e409 853e
000001b0: 3361 c0bd 830b 103e f26c 20be 09f5 843d
000001c0: 785e ed3e 2ebf 2f3e 8810 0e3e 1181 89be
000001d0: 8661 9abd eb4c a33e ce1b b03e fc65 fd3d
000001e0: 1af7 b03d 5e66 27be f758 043f 35a8 443c
000001f0: 40cd a83e cf16 853f 3a6d 8f3e 4c42 a2bc
00000200: 1f0e 423e b584 9abd 46bf ba3e 49a3 03bd
00000210: 9e38 943e 9b3c 87be 5dee 32be 45eb caba
00000220: 32c8 ab3d 2214 0fbe 3b61 073f c6fb 32be
00000230: fabf 60bf 33c8 b13d eabc 1a3d 67a9 f1be
00000240: d695 81be 08d4 13bf a696 81be efa6 8c3e
00000250: 4124 fc3a 0bbd 2dbf 6a1e 01bf eec9 a33e
00000260: 1a75 afbe 2b0d af3d b9ca e1be 65c9 a3be
00000270: 7846 bdbe fafc aabe cc47 8bbe daec 0dbe
00000280: 5748 eebd 8296 123e fb8f d5be c17a 05bd
00000290: 25c2 a03f 98cd bf3e 906f e23d b966 c0bd
000002a0: 6830 31bf b6ee 273f c428 923e 9a8f 12bf
000002b0: 76a6 73bb 268f 1dbe c222 563e 211d 083d
000002c0: 4a34 063f 25b4 933e 59b9 1c3e ba53 503e
000002d0: 1b68 4bbf 1674 aa3e d981 20be b030 1abe
000002e0: fdd9 cb3e 0d9d a0be 8bad 823e a1d3 23bd
000002f0: e282 85be 0e07 9dbe f4aa 41be da74 91be
00000300: 3732 3c3e e56d f43d b4bf 253c f7ac 4a3d
00000310: b37b f03d 31fa fcbd addc 82be 095e 343d
00000320: 6753 b2bd e98e 183e 2220 f5be 09a0 13bf
00000330: 5387 9d3d 56c8 113f 06b0 c63d e8dd 233b
00000340: 2b92 073e 0102 8bbe 2200 43bd 42c4 b6be
00000350: 19e3 d0bd 95b3 55be d902 103e e6cf 3dbe
00000360: 6f7b 863e 3452 b5bc bfa6 3b3e 2b66 e4bd
00000370: 5663 91be cd0d a03e 634b fcbe a3f6 e23d
00000380: 4bcf 99bc 8761 7dbd 8250 773d 7596 8d3d
00000390: e195 003e dc41 083e 98b7 783d bb41 88be
000003a0: b786 92be 28c9 323f 8c0f dabd 45aa 99be
000003b0: 58ad adbe c856 733e 7128 903c 4178 723e
000003c0: 62ec 923e d23e 833e 3029 e1bd 3277 b13d
000003d0: 2605 9c3b 8abf 8a3e 80b5 9d3e 5847 45be
000003e0: 91d0 92b9 6933 2c3d c44c fd3b 9a0c d63d
000003f0: 3817 08bf ae53 033e 5f8a 573e 06f8 9e3c
-0.12426134 -0.09968939 -0.00266251 0.32513428 0.115206055 -0.14639483 0.089854024 0.034243718
-0.058366835 0.20825978 0.10603135 -0.099476546 0.2851009 -0.19461095 0.10310852 -0.22538817
0.12514207 -0.26565555 0.8927854 -0.4506906 0.06396163 -0.3107783 -0.13482235 0.020885171
-0.07633767 -0.046530254 -0.39183652 -0.02129736 0.37489507 -0.18289225 -0.0043926267 0.17634855
-0.1606852 0.14115301 0.03341778 0.40570343 -0.37986708 0.22650228 0.67721754 -0.64938253
0.23969814 0.15480602 0.0370279 0.2821664 0.5003061 -0.15416884 0.25868526 0.12766375
-0.1439554 0.2590576 -0.2769459 0.04344119 -0.6385668 -0.39909962 0.29406586 0.26127085
0.045204222 -0.3924722 0.2547617 -1.5698982 -1.0414284 0.34196165 -0.8161521 -0.29341614
0.2883789 0.27784967 -0.18302636 0.81930846 -0.011037966 -0.17063859 -0.0115015255 0.19262974
-0.13563278 -0.13855669 0.088937804 0.0038890915 -0.14387542 -0.14500278 -0.053550273 -0.28432047
0.013544998 0.27779394 0.06308741 0.5519458 0.08867059 -0.28728148 -0.036305945 -0.7063815
-0.12560582 1.0600685 0.10237748 0.36256936 -0.407944 -0.59156644 -0.15405053 0.4879495
0.12631284 -0.00049769314 0.5006128 -0.2503236 0.032400463 0.06736447 -0.11872322 -0.20595607
-0.17533053 0.12672207 0.08263379 0.25984108 -0.09393539 0.14066891 -0.1566656 0.06492049
0.46361136 0.17162773 0.13873494 -0.26856282 -0.07538132 0.3189462 0.34396213 0.123729676
0.08640881 -0.16347644 0.5169825 0.012002994 0.32969093 1.0397586 0.2801302 -0.019807003
0.189507 -0.07544843 0.36474055 -0.032138143 0.28949445 -0.26413426 -0.17473741 -0.0015481493
0.083877936 -0.13972524 0.52882737 -0.17478856 -0.87792933 0.08680763 0.03777782 -0.47199556
-0.25309628 -0.5774541 -0.25310248 0.2747111 0.0019236879 -0.6786658 -0.50437033 0.31989998
-0.3426903 0.085474335 -0.44099978 -0.3198959 -0.36967826 -0.3339613 -0.27203214 -0.13859883
-0.116348915 0.14315227 -0.4171141 -0.03258777 1.2559248 0.37461543 0.11056435 -0.09394593
-0.6921449 0.6559862 0.28546727 -0.5725037 -0.0037178076 -0.15386638 0.20911697 0.033230904
0.52423537 0.28848377 0.1530508 0.20344439 -0.7945573 0.33291692 -0.15674533 -0.15057635
0.3981475 -0.3136982 0.25523028 -0.039996747 -0.26076418 -0.30669445 -0.1891287 -0.28409463
0.1837853 0.11935023 0.010116506 0.04948136 0.11742344 -0.12352408 -0.25558987 0.04403499
-0.08707314 0.14898266 -0.47876078 -0.5766607 0.07691827 0.56946313 0.097015426 0.0025004093
0.13239352 -0.27149966 -0.04760755 -0.35696608 -0.101995654 -0.20869286 0.14063586 -0.18536338
0.26266047 -0.022133924 0.18325327 -0.111522995 -0.283961 0.3126053 -0.49276266 0.110821985
-0.018775603 -0.061860587 0.060379513 0.06913463 0.12557174 0.13306373 0.060721964 -0.26612648
-0.28618404 0.6983819 -0.106474966 -0.30012718 -0.33921313 0.23763573 0.017597409 0.23678686
0.2869597 0.25633866 -0.10994184 0.08665313 0.004761356 0.27099258 0.30802536 -0.19265497
-0.00028002684 0.042041216 0.0077300984 0.10451622 -0.5316043 0.1282489 0.21048878 0.019405376

conv.4.bias f4 [64]
00000000: a88e 05bf 5a6a d2be 581a 54be f2af 34bb
00000010: 6f50 2dbf f712 8cbe b480 6cbd 688f 99be
00000020: 1a67 a83e fa31 9abe 342a 563e 45bf 4abd
00000030: 83f6 93be 6aa7 2cbd aa6c fbbe b264 8cbe
00000040: 2c0c e2bc 370a febe 5a46 24bc 2780 cabe
00000050: 5e51 ffbd f639 23bf e880 41bd c382 96be
00000060: c5dc 0bbf 773e 2a3f b8f4 7cbd d5fd 0fbe
00000070: 5cb9 eabc fc63 67be 6000 40be cfcb 66be
00000080: b6d7 e2be 8e51 19be 990a 8bbe 64cd 9e3d
00000090: 465e 1a3e 3589 65be 521d febe 38b2 78bd
000000a0: 8a49 813d 4808 7cbe 41b1 c6be 4877 abbe
000000b0: 169c 69be 3651 27bd edb9 bfbe d8c9 033f
000000c0: ebcd 3dbd abf0 a9bc 4e56 97be 1ae0 223c
000000d0: 6db6 073f 6a06 dc3e 71f2 38be 7f2d 00be
000000e0: 82f8 103d b80f efbe 1aaa adbe 3699 0abf
000000f0: 9293 443f 8103 0cbd 6421 01bf b366 19bd
-0.521708 -0.41096765 -0.20713174 -0.0027570692 -0.67700857 -0.2735822 -0.05773993 -0.29992223
0.3289116 -0.30116254 0.20914537 -0.049498815 -0.2889901 -0.042151846 -0.49106342 -0.27420574
-0.027593695 -0.49617168 -0.010026539 -0.39550897 -0.124666914 -0.63760316 -0.047242075 -0.29396638
-0.5463374 0.66501564 -0.06175682 -0.14061673 -0.02865284 -0.22596735 -0.18750143 -0.22538684
-0.443052 -0.14972517 -0.27156523 0.07754019 0.15075025 -0.22415622 -0.49631745 -0.060716838
0.063128546 -0.24612534 -0.3880711 -0.33489442 -0.22813448 -0.040848933 -0.37446538 0.51479864
-0.046338957 -0.020744642 -0.29558033 0.009941125 0.53012735 0.42973644 -0.18061234 -0.12517355
0.035393246 -0.4669168 -0.3391884 -0.5414003 0.76787674 -0.03418303 -0.50441575 -0.037451457

conv.7.weight f4 [64, 256]
00000000: c293 e43d 568c b73e af8b 0dbe 2456 83bd
00000010: 0614 9d3e d1c4 ed3c 37e8 863e 9b39 dbbd
00000020: 260e 05bf ca5c 1b3c d3a5 833a 5efe afbc
00000030: beae 7bbd a0eb ff3c 10c8 f93b 2874 233d
00000040: 7906 a6bd 3bf5 873e 0061 dc3e 2d45 b8bd
00000050: 036b ca3e b081 9b3d 322b 773e 5d16 ae3e
00000060: 4d2f 41bd 968e 833d 21cf 38be b24e 89ba
00000070: e759 593e 2c93 873e d491 9f3e 081d 273e
00000080: 49d6 52bd a507 1cbf ef62 f8bd 48e3 9ebe
00000090: 3305 42be 4616 623e 7fbc 3ebe 69a6 d93d
000000a0: 798b 41bd 33a7 b13e 8e09 54be c973 22bd
000000b0: 5492 bf3c 589d 863c 9ed1 003d 106f edbc
000000c0: a3d4 8cbd 452e c33e de5d a1bd 4319 c63d
000000d0: 3c29 5abd 5ed0 393d f82d 193c 18ca 11bd
000000e0: 60be 2cbd 8d6b 293f 6333 49be c153 1c3e
000000f0: eec2 b03e 3e77 9f3e 6026 9fbe 21e3 283d
00000100: e063 55bd 9c5e b5bc 4083 a9ba d6e8 1f3d
00000110: cca6 7fbe 0356 75be 23a3 9abd f53a f93d
00000120: 3d16 2cbd 8d71 fcbc 3797 adbe b4be 30bd
00000130: 605a 87be f2ec 28be 9eb2 ec3d 407c b5be
00000140: eda0 593d c49d a5bc b6ad bebd 9a9b 34be
00000150: ef43 d03e f254 13bd c8eb 613e 20b9 e9ba
00000160: 3244 5cbd 28f9 8c3c 80f7 2b3b 5859 5ebd
00000170: 618a 843d 9656 783e f8ee 223e 952b 04bc
00000180: 07c0 b63d f0a8 c43d 3d72 923d 5241 a03e
00000190: d986 d6bd a4ae 173e f97d f4bd 5119 6d3e
000001a0: b870 b43c 4ef9 763d f8cf c83c 28b5 33bc
000001b0: 7575 91bd c3ec 86bb 622c 8f3c f4e7 eb3d
000001c0: 5af9 343d 50ac 563c 80a9 813a 4488 a33c
000001d0: eea6 da3d c33b e1be c331 2bbc 2a76 473e
000001e0: 4d98 acbe b233 c8bd fcd7 4fbc 5c44 203d
000001f0: c2e0 07bd 65df 2fbe 3d32 353e faa1 01be
00000200: 8e83 963e 2fb1 8f3e e25f 903d 9deb 213f
00000210: ba7b 9e3e 5802 473e 3d85 a53c ed2b a83c
00000220: 0a6d 963e 6cb2 7f3e 033c c23e a44a 923d
00000230: 3019 5b3e d7be e33c 17e8 18bf 5a45 4d3c
00000240: 7f25 9a3e a586 ec3e a9f1 54bf 8abb eabc
00000250: b0be 30bd acae 5f3d 00f9 f9bd 3ff4 133c
00000260: 9628 cabe 1c0c a13e d9dc 943d a4a3 433e
00000270: dea6 2cbd b63d 17bd 6418 cf3c 80bf 223b
00000280: 2b74 fb3d 6cb6 0fbd bb3c 9ebe 1020 8d3d
00000290: 39aa 943d bd83 04be d2a7 d33d 6c06 cd3c
000002a0: 7a18 51be 2ede 9f3e 7f86 563e 33b3 bf3e
000002b0: cb67 043e e032 613e 4a4c c2bd 5763 713b
000002c0: 0238 eabd 24d8 8ebe eb85 353e 828b 6abe
000002d0: 42b3 5a3d d2d2 793d 24ae be3c 203d 05bd
000002e0: 1685 47be 134b 173e e3fb b03d f89f 943e
000002f0: 3f9b b3bc 561d eabd c66f 293d dc4c 0ebd
00000300: 30f9 0c3d 9231 153d 806d 20bd 10e3 d2bb
00000310: 1468 183d f486 bfbc 3c06 40bd c053 1f3c
00000320: 0cd4 073f a2b4 1f3b e8d9 0b3e a123 4ebe
00000330: 6e35 7ebd 04cf fdbc ca11 063d 1440 6d3d
00000340: 5a6b 403c 45e7 0cbe 4c7f 883e 0d2f 97bd
00000350: 7577 643e 3156 6dbe d8eb 90bc a3f5 cbbd
00000360: 918a 11bd 4410 81be 03ec dbbc af40 7dbd
00000370: 2dcb 21be 2fb5 e7be f32d bfbe 85b3 16be
00000380: 218d b2be bb30 9abd 5eec 65bd 22a9 a03d
00000390: 6c56 083c bd3b 95be 7174 9c3e 058d 2c3f
000003a0: 0d89 a73d 8002 053e dc24 883e 6796 93bd
000003b0: b747 24be e2a4 e83e 42e6 83be 9af0 ecbd
000003c0: 6b98 6abe 3c72 e63e e88c 88bd 1060 d73e
000003d0: bf0e 853d c7f3 a03d 69a9 abbe b565 12bd
000003e0: 4eda e9bd 4930 d8bc 7d4d 1ebe b2f1 813d
000003f0: 444d dabe 283e 773e e905 663e 53de c8be
0.11160995 0.35849255 -0.13822816 -0.064129144 0.3067934 0.029024513 0.2634904 -0.10704347
-0.51974714 0.009482572 0.0010043926 -0.021483596 -0.061445944 0.031240284 0.0076227263 0.039905697
-0.08106703 0.26554283 0.43042755 -0.08997569 0.39534768 0.07593095 0.24137571 0.34001437
-0.04716425 0.064236805 -0.18047763 -0.0010475724 0.21225701 0.2647947 0.31165946 0.16319668
-0.05147389 -0.60949165 -0.12128245 -0.31032777 -0.18947296 0.22078809 -0.18626593 0.10627443
-0.047252152 0.34697875 -0.2070677 -0.039661203 0.023385204 0.01643245 0.031449907 -0.028983623
-0.06876495 0.38121238 -0.07879232 0.09672787 -0.05326198 0.04536473 0.009349339 -0.035593122
-0.042173743 0.66179734 -0.19648509 0.15266325 0.3452372 0.31145662 -0.31083965 0.041232232
-0.0520972 -0.02213984 -0.0012932792 0.03904041 -0.24965972 -0.23958592 -0.07550647 0.12169448
-0.042013396 -0.030815864 -0.3390443 -0.04315062 -0.26436138 -0.16496637 0.11557506 -0.35446358
0.053131986 -0.02021683 -0.093104765 -0.17637482 0.4067683 -0.035969682 0.220626 -0.0017831661
-0.053775974 0.01720865 0.002624005 -0.054284424 0.06471706 0.2425178 0.15911472 -0.008067031
0.08923345 0.09602535 0.071506955 0.31299835 -0.10474939 0.14812714 -0.1193809 0.23154189
0.022026405 0.06029635 0.02451323 -0.010968484 -0.07102481 -0.0041175797 0.017477218 0.11518851
0.044183113 0.013102606 0.0009892434 0.019962437 0.106763706 -0.43990907 -0.010448876 0.1947867
-0.33709946 -0.09775485 -0.012685772 0.039127693 -0.03317333 -0.17175062 0.17694946 -0.12659445
0.29397243 0.28064868 0.07049538 0.6325014 0.3095377 0.19434488 0.020205135 0.020528758
0.29380065 0.24970406 0.3793641 0.07143143 0.21396327 0.02780096 -0.5972914 0.012528742
0.30106732 0.46196476 -0.83181244 -0.028653879 -0.043150604 0.05460994 -0.12205696 0.009030401
-0.3948409 0.3145455 0.07268686 0.19105393 -0.042151324 -0.036924087 0.025280185 0.0024833381
0.12278017 -0.03508608 -0.3090571 0.06890881 0.0725903 -0.12940879 0.103347436 0.025027476
-0.20419493 0.31224197 0.20949744 0.37441406 0.12930219 0.21992064 -0.09487207 0.0036832893
-0.11436464 -0.27899277 0.17726867 -0.2290478 0.05339361 0.06099207 0.023276396 -0.032528996
-0.19484362 0.14774732 0.086417936 0.29028296 -0.021924613 -0.11431377 0.04136636 -0.034741268
0.03441733 0.036424227 -0.039166927 -0.0064357594 0.03720863 -0.02337978 -0.046880946 0.009724557
0.5305793 0.002436914 0.13657343 -0.20130779 -0.062062673 -0.030982502 0.03273181 0.057922438
0.011744345 -0.13760097 0.2665962 -0.07382021 0.22311194 -0.2317741 -0.017690584 -0.09958961
-0.035532538 -0.25207722 -0.026845938 -0.061829265 -0.15800162 -0.4525542 -0.37339744 -0.14716919
-0.34873298 -0.07528826 -0.05613362 0.078447595 0.008321386 -0.2914714 0.30557588 0.6740268
0.08180437 0.12989235 0.2659062 -0.07206421 -0.16042982 0.45438296 -0.2576161 -0.115693286
-0.22909705 0.4500903 -0.06667501 0.42065477 0.06496953 0.07858997 -0.33527687 -0.035741527
-0.114185914 -0.026390212 -0.15459247 0.06344928 -0.42637074 0.24144804 0.22463192 -0.3923212

conv.7.bias f4 [64]
00000000: 1b35 7fbe 63cb 533f 594b 073f cc5e e23e
00000010: 1c0a 873f 0e17 4c3f 2324 bebe 9ae5 303f
00000020: 183b 2b3d af37 a83e b4c1 dcbe cd14 ce3e
00000030: c7b4 5d3f 43b2 613f 83ad 673f 444e 6ebf
00000040: 4f1b 233f e4f9 1f3f bfd3 ac3f cddf 013f
00000050: 9854 dc3e 1354 0f3e ca44 403f 5129 233f
00000060: 5f14 943e 0243 ef3d 6fe2 f4be d7a9 db3e
00000070: aa14 fa3e 2f73 203e 348c 0a3f 32e6 4a3e
00000080: e007 8ebe 1739 183f e1ca fd3d 0093 4e3a
00000090: f1f8 e13d ba70 0dbf 03f4 bebe 5fe4 043e
000000a0: f2d0 8e3e 2450 053e 0187 ef3e 77ae 6a3e
000000b0: 12ed 0c3f fa7c 133e 5c8e 883f 19a2 8d3e
000000c0: 064d a63e 57cf b43e ade8 c4be 146e 5e3e
000000d0: ea56 6e3e 270f 0fbd ae70 293f 9475 3cbe
000000e0: 9a57 873e 225b 5fbe b476 853f 2357 543d
000000f0: 61e6 493f 6856 8cbe b6b0 243f fc97 603e
-0.24922602 0.8273222 0.52849346 0.4421295 1.054996 0.7972268 -0.37136945 0.69100344
0.041804403 0.32854983 -0.43116534 0.40250245 0.8660397 0.8816263 0.9049913 -0.93088174
0.63713545 0.6249068 1.350212 0.5073212 0.4303329 0.13996916 0.75104964 0.6373492
0.28921792 0.116827026 -0.47829005 0.42903015 0.4884389 0.15668939 0.54120183 0.19814375
-0.27740383 0.5946211 0.12392212 0.0007880181 0.1103381 -0.5525013 -0.3729554 0.12977742
0.27893788 0.13018852 0.46782687 0.22918116 0.5504924 0.14403144 1.0668445 0.27662733
0.3248064 0.35314438 -0.38458768 0.21721679 0.23275343 -0.03492656 0.6618756 -0.18404227
0.26434022 -0.21812108 1.042685 0.051840913 0.78867155 -0.27409673 0.6433214 0.21932977

out.weight f4 [4, 64]
00000000: 5346 973d fdd1 f33d 0465 df3c 1954 453d
00000010: ff3a 183e e2ba 5a3d 5f9a 503b a2f8 be3c
00000020: 3ba7 3f3c d219 fcbb dbe7 9f3d d863 533d
00000030: 8caa c23c b037 d3bc 8155 b1bc e487 373c
00000040: c434 37bf 2da8 ce3c 91f5 003f 3843 53bb
00000050: 462b cabc a244 9f3c 3ba1 e93d 48ad df3b
00000060: 056c 3dbd 9f01 48bc 6a17 373e 05a6 c63d
00000070: a38c 003d d837 a0bd bdd9 493d 76c2 58bd
00000080: 8882 1dbc 4af2 763c b2e1 043d 23c3 54bd
00000090: 1613 443d 814c 91bd 67c6 efbc 62bc a1bd
000000a0: 8541 a83d 130d 083d da35 853d d60a 45bd
000000b0: da3b c7bf a4db e8bf 569a b6bc 7b79 e6bf
000000c0: fdc5 3ebf e03a 91bb 1232 d73d 08bb 02bc
000000d0: e398 86bd 47ea 413d 578b 11be 168a 9f40
000000e0: 12a8 943d 7df4 4e3d 1570 8a3c 3be9 10be
000000f0: 7e59 a7bd 6116 133d cf7a 9d3d dbdb febc
00000100: 1c91 8abc ffe2 083d ec64 d43c bb26 8c3c
00000110: 4af0 393e fc65 993d cc0a e33d 651e 21be
00000120: 64c1 97be d2e8 e53d 1e8b df3d e049 653d
00000130: e8df 553d 836a 823d 860f 233c d202 623d
00000140: fa4a 553b 2078 d83c c713 ff3e 3dda 9bbf
00000150: 78cc 3bbf 5e7f 013e dc9c 773d 33ab dabc
00000160: 72cc 13bf e708 ffba d348 993c d7c4 b83d
00000170: de30 77bf d8be 41be bceb ffbb 4854 5b3d
00000180: e5eb 43bd ef68 d73d b18f 66bd a217 aa3c
00000190: 1f69 413c 8005 103c 30e4 94bd 9d26 093c
000001a0: 2bba 51bb ced9 8bbd 87f7 9cbd ae55 afbd
000001b0: 1015 8c3d 8d5b f0bc 9f78 adbd 0175 773b
000001c0: 793b 8ebd 601d 103e f188 6abc 2856 993d
000001d0: a55a 8a3c d968 323d d632 d53c 4290 843b
000001e0: c78d 32bc 9ca5 81bd dd12 723c 5523 b93d
000001f0: 8241 16bc bc39 06bd 1b44 c2bd 5749 73bd
00000200: a5e4 ce3b e097 9c3c 061f b2bf d2f3 283a
00000210: ac3b 08bc 30c6 a03d 3e58 2fbe a622 91bd
00000220: 9846 803d d3b8 c13c 5c22 b2bc 228e f13d
00000230: ff49 4c3d 30ae 4c3d 5663 57bc 7c23 ccbd
00000240: df46 663c ba98 073e 0cd0 043f 5623 003d
00000250: e29f 45bc 419a b03c 0da6 c03d d2b8 34bc
00000260: 73ff 91ba d98d 9bbf 260b cdbc c29a 92bd
00000270: 441d 8dbd 94c0 9a3d 7619 f93d 9882 2b3d
00000280: 5a82 cbbc 38af eb3c 43d0 9e3d 7f67 4040
00000290: 05b2 f73c 1d49 873c 2c50 34bd e2a4 92bc
000002a0: c6d9 a6bd 115b 07c0 01b8 6abe f4cb aa3c
000002b0: 5e60 c7b9 872f 693d 6d0e 7abe 2946 78bd
000002c0: a2c6 0cbd 6d77 0ec0 c29b 443e 742b ecbd
000002d0: 17e4 f53c c80e 59bd a84f e33d 6b7f e13b
000002e0: e89b 233d e641 6d40 e34b 223e eb7e 50bd
000002f0: 9dac 863c 8e07 d8bd ef95 763a f0ac abbf
00000300: a7cf 903d a643 5b3b 63ba 0b3c 20d5 b23d
00000310: 95c9 d13d 61ef 26bd 6bd6 77bf 37ef 9a3d
00000320: 8fd0 82bd a8b0 14bd 1b29 713d b5e4 843d
00000330: 2a2d 6d3c 6c4a 853d c6f7 513d bbc0 91bc
00000340: 2327 9b3c c3ce 303d 70c1 013f 3a9c d63d
00000350: c572 e63c 73e9 b5be db01 ad3d 1157 9b3d
00000360: d273 f33a 5ea1 08bd 7f5c 40bc 4253 873d
00000370: 78ae 9cbd d68b 85bf 4076 c8bf 87fc 32bd
00000380: d905 8d40 a85f c0bd 9be0 68be c3bc 033b
00000390: a8f2 3b3e b2b4 d23c 060a 813d 9e39 aabf
000003a0: d106 b4bf e464 bbbc a8e4 53be 7395 9ebf
000003b0: cb2c b43d c56f 93bd 86f1 e2be 8b7d febc
000003c0: c0ac 7a3d ef5a a03c fe46 04bd 847c 913d
000003d0: 3c0a af3d 6a89 58be 9470 1aba 9c47 3ebd
000003e0: de8a a43d a6d5 02bd 4b34 353d bf8d 10bd
000003f0: be12 983c c7a7 183e 3e76 a9bc f299 9f3d
0.0738646 0.119052865 0.027269848 0.048175905 0.14866255 0.05340088 0.0031830294 0.023311917
0.011697586 -0.0076935077 0.07807895 0.05160889 0.023762964 -0.02578339 -0.021647217 0.011201832
-0.7156489 0.025226677 0.50374705 -0.003223611 -0.024678838 0.019441906 0.114077054 0.0068260767
-0.046245594 -0.012207418 0.17880026 0.096996345 0.03138412 -0.07823151 0.049279917 -0.052919827
-0.009613641 0.015072415 0.032441802 -0.05194391 0.047869764 -0.0709467 -0.02926941 -0.07897259
0.08215622 0.033215594 0.06504412 -0.048106037 -1.556514 -1.8192029 -0.02229039 -1.8005823
-0.74520856 -0.0044320673 0.10507597 -0.007979162 -0.065721296 0.047342565 -0.1421331 4.985606
0.07258619 0.05052613 0.016899148 -0.1415147 -0.08171366 0.035910014 0.076894395 -0.031110695
-0.016914897 0.033419605 0.02592703 0.017108312 0.18158069 0.07490155 0.11086044 -0.15734251
-0.29639733 0.112260476 0.109152064 0.055978656 0.052215487 0.06367972 0.009952432 0.05517847
0.003254591 0.026424468 0.49819776 -1.2175976 -0.7335887 0.12646243 0.060452327 -0.026692962
-0.57733834 -0.0019457609 0.018711483 0.09021919 -0.9655894 -0.18920457 -0.007810084 0.053547174
-0.04783239 0.10518061 -0.05628938 0.020763222 0.011804848 0.008790374 -0.07270086 0.0083710225
-0.0032001834 -0.06828652 -0.076643996 -0.08561264 0.06839955 -0.02934053 -0.08470272 0.0037758949
-0.06944937 0.14073706 -0.014314876 0.07487136 0.016888926 0.04355702 0.026025217 0.004045517
-0.01089806 -0.063304156 0.014775005 0.09039942 -0.009170892 -0.032769904 -0.09485646 -0.059396114
0.0063138776 0.019115388 -1.3915718 0.00064450235 -0.008315008 0.07850301 -0.17123505 -0.07086687
0.06263465 0.023647701 -0.0217449 0.11794688 0.049875256 0.049970806 -0.013146242 -0.099677056
0.014054983 0.13241854 0.51879954 0.0312837 -0.012062045 0.021557929 0.09406672 -0.011030393
-0.0011138752 -1.2152663 -0.02502973 -0.07158424 -0.068903476 0.075562626 0.121630594 0.04187259
-0.02484243 0.028770074 0.077545665 3.006317 0.030236254 0.016514355 -0.04402177 -0.017900888
-0.08147006 -2.1149333 -0.22921754 0.020849206 -0.00038028037 0.05693009 -0.24419565 -0.060613785
-0.03436912 -2.2260392 0.19200042 -0.115317255 0.030015988 -0.052992612 0.110991776 0.0068816445
0.039943606 3.7071471 0.15849261 -0.05090229 0.01643973 -0.10548316 0.0009406497 -1.3412151
0.070708565 0.003345707 0.008528325 0.087320566 0.10243527 -0.040755633 -0.9681155 0.07565158
-0.06387436 -0.036301285 0.05887709 0.06488935 0.0144761 0.065083355 0.051261686 -0.017792096
0.01893956 0.043165933 0.5068579 0.104790166 0.028130898 -0.3552967 0.084476195 0.07584966
0.0018573946 -0.033357017 -0.011740803 0.06607677 -0.07650465 -1.04333 -1.5661087 -0.04369786
4.406964 -0.09393245 -0.2274193 0.0020101524 0.18354285 0.025720928 0.0630074 -1.3298833
-1.406458 -0.022875257 -0.20692694 -1.2389358 0.08797606 -0.07199053 -0.44324893 -0.031065723
0.061199903 0.01957461 -0.032294266 0.071038276 0.08546874 -0.2114617 -0.0005891409 -0.04645501
0.08034299 -0.031942032 0.044239324 -0.03529143 0.018563624 0.14907752 -0.020686265 0.077930346

out.bias f4 [4]
00000000: 061b 8a3f 0e2a 923f 400a 843f 1b5a 863f
1.0789497 1.1419084 1.0315628 1.0496248
