models/v17.1/model_132500.pth (torch, 295107 bytes, 10 tensors)

conv.0.weight f4 [16, 2, 3, 3]
000000 12 86 07 3e 04 da 59 3d 1b 6f 2e be 0c a2 70 3e
       0.13234738 0.05318643 -0.17034571 0.23499316
000010 0b 88 02 be 9d 0d bb 3d 21 5b 9b be 17 56 b2 3e
       -0.12747209 0.09133456 -0.30342963 0.34831306
000020 49 67 d0 3d 60 3b 22 bd ee eb 8b 3d 3c 30 51 bd
       0.1017595 -0.039607406 0.068321094 -0.05107139
000030 a1 1b 95 bd d5 41 bf 3d e5 ed e8 3c 2a 2b 09 bd
       -0.072806604 0.09338728 0.02843375 -0.03348843
000040 83 fb 9b 3c e4 e9 5d 3c 00 d3 12 be da c2 8a 3e
       0.019040829 0.013544533 -0.14338303 0.27101785
000050 01 e8 ed 3c 1e 01 67 3e 87 7c 38 be c3 4d 6d 3e
       0.029041292 0.2255902 -0.18016253 0.23174195
000060 e6 8e 56 bf f4 0a 05 bf 55 32 30 be 34 b2 84 bf
       -0.83811796 -0.5196984 -0.172067 -1.0366883
000070 7d c4 15 3f 16 cf 9b bf 6d 52 54 3e 07 7c 2e be
       0.5850294 -1.2172573 0.20734568 -0.170395
000080 44 51 64 3e 64 48 36 bd f0 0d ef 3b 2d 5f d3 3d
       0.22296625 -0.04450263 0.0072953627 0.10320888
000090 9e ab be 3b ec 3f 61 3e d1 02 f8 3d af 5f f3 bd
       0.005818798 0.2199704 0.12109912 -0.118834846
0000a0 dd 27 9c 3e b8 5f 89 bd 11 53 9d 3e 30 89 2f 3e
       0.30499163 -0.0670771 0.30727437 0.17142177
0000b0 7b db 18 3e 2f 22 ce 3d c0 9d 05 3e f5 63 a9 3c
       0.14927475 0.10065114 0.13048458 0.020677546
0000c0 3e a4 85 3e 82 8f a2 bd be c0 b9 bf 1b af 98 bd
       0.2610187 -0.07937528 -1.4511945 -0.07455274
0000d0 84 bb a1 be b3 a6 80 3d 15 3c 89 3c 58 ed 63 3d
       -0.31588376 0.06281795 0.016752282 0.05564627
0000e0 68 1b 84 3d 2c d8 12 3e f4 5b ee 3d c9 a8 2f bf
       0.0645054 0.14340276 0.116386324 -0.6861692
0000f0 a7 3d aa be b1 38 ac be 21 b5 3b 3e 32 03 46 bd
       -0.33250162 -0.33637002 0.18330814 -0.04834289
000100 24 84 1a 3d f8 cb 39 bd 27 46 9d 3e ac a7 8f bd
       0.037723675 -0.045360535 0.30717584 -0.07014403
000110 bd d7 41 bf 26 ab 8d be 49 1b b7 3e 8d 25 1d 3e
       -0.75719815 -0.27669638 0.35763004 0.15346356
000120 0d d3 71 3e ad 00 f9 bd 99 4f 05 be 1a 91 9c bf
       0.23615666 -0.12158332 -0.13018645 -1.2231781
000130 f3 b0 50 be cd 76 16 3e fa b2 14 3d 13 17 03 3f
       -0.20380001 0.14693756 0.036303498 0.51207083
000140 f8 6e 98 bf a2 f0 8c be 11 8b 6d 3e df ff 41 bf
       -1.1908865 -0.27527338 0.23197581 -0.75781053
000150 e8 72 69 3e 9f 79 4f bc 0b 63 48 3e d4 2d 19 3c
       0.2279774 -0.012663274 0.19569032 0.009349305
000160 5b 47 47 bd 82 36 a4 3a ac 4f a2 bb 3c 21 2c be
       -0.048652034 0.0012528452 -0.0049533453 -0.16809553
000170 81 54 e1 3e e3 2b 8f 3e ec a6 f4 bd 3f c3 c6 bd
       0.44009784 0.2796317 -0.119459 -0.09705209
000180 37 a1 10 3f 05 f5 c2 be cf 57 b3 3e bf 98 64 be
       0.56495994 -0.3807756 0.3502793 -0.22323893
000190 e2 b7 c8 bd cb e0 a7 3d 90 9e c5 3c 98 60 c3 be
       -0.09800698 0.08197173 0.02412346 -0.38159633
0001a0 b2 c8 ba bd e6 d8 20 bd cf ef 0a be eb 41 a5 be
       -0.09120311 -0.03926935 -0.13568042 -0.32276854
0001b0 a2 af 7f bf d4 ae 90 bb 57 f7 aa 3e d9 ad 6b 3e
       -0.9987737 -0.0044153724 0.3339183 0.23015536
0001c0 ee ed 7b 3d 50 82 8c bf 94 50 8a be a2 37 c3 3d
       0.061506204 -1.0977268 -0.270146 0.095320955
0001d0 e4 c5 0f be a3 b5 ae bd a5 11 32 3d 23 cb 11 be
       -0.14040333 -0.08530738 0.04347386 -0.14237647
0001e0 86 3d f9 3d ae 45 cb 3c 32 93 25 3d e7 cf 53 bf
       0.12169938 0.0248135 0.04042358 -0.8273911
0001f0 69 64 3c be 10 57 35 bd 57 b1 41 3e c6 23 3d be
       -0.18397678 -0.044272482 0.18915306 -0.18470678
000200 74 21 fd 3e aa 58 b4 bd 07 8e 9c 3e c4 6f c7 3d
       0.49439585 -0.08805974 0.30577108 0.097381145
000210 be 80 cb 3c a6 dc c8 3e c5 69 7f bd 9b 86 cd bf
       0.024841662 0.3923084 -0.06235673 -1.6056703
000220 56 09 72 bf 86 85 4e bf 47 f5 c0 3d 04 61 71 3d
       -0.94545496 -0.8067249 0.09421783 0.058930412
000230 e9 b3 d9 bc 2d d6 8d be 2e de 49 3e bb 6a 67 bd
       -0.026575046 -0.27702466 0.19713661 -0.05649827
000240 83 b7 f2 bc 6b d0 b3 3d 18 a3 ae 3d e5 de 9e 3e
       -0.02962852 0.08779987 0.085272014 0.3102943
000250 c4 8a b2 3d 5c 43 56 be a5 90 26 3e d9 fe a9 be
       0.08717874 -0.20924133 0.16266115 -0.33202246
000260 bb 32 1f 3d 8e 5d bf be 33 d8 f9 3e 62 f5 e8 be
       0.03886674 -0.37376064 0.4879776 -0.45499712
000270 13 a9 48 3d 46 c3 77 3e ce 7f 61 3c 63 07 9f be
       0.048989367 0.24195585 0.013763381 -0.31060323
000280 ea 73 d8 3e d3 d0 86 3d 44 0e 6b 3c 75 42 b9 bd
       0.42275935 0.06582799 0.014346663 -0.09045879
000290 9a 5e 20 3e 10 bc 30 3d c9 27 f9 bd da 87 98 3e
       0.15661088 0.0431481 -0.121657915 0.29791147
0002a0 3a 5a 86 3e 8c 4e 96 bd 50 b1 59 be 8b 86 a8 bc
       0.26240712 -0.073392004 -0.21259046 -0.020571968
0002b0 1e 45 47 3e 35 79 ed bd 41 ff cd bf f8 6f 91 3c
       0.1945996 -0.11595384 -1.6093522 0.017753586
0002c0 b6 98 46 be 4a f7 60 3e 29 54 b3 3e 96 eb 97 be
       -0.19394192 0.21969333 0.35025147 -0.29671925
0002d0 59 fc c7 bd f0 80 e5 3d bb 07 17 3d 5d 37 03 be
       -0.09764928 0.112062335 0.036872607 -0.12814088
0002e0 a4 f3 fc 3c c3 46 b0 3d 62 b8 e9 3e ef ee aa be
       0.030877896 0.08607247 0.45648485 -0.33385417
0002f0 7b 0d 57 3c 86 02 9c 3d cc a0 8c be bc c6 ea bd
       0.013125773 0.07617669 -0.27466428 -0.11463687
000300 e7 3b 1b 3f 98 54 e7 bb 7e ca 89 bd f2 42 ea 3d
       0.6063828 -0.007059645 -0.067280754 0.1143855
000310 03 d5 9c 3d a1 3e fc bd 5d 3c 85 3e 6e 7e 2a 3e
       0.07657816 -0.12316633 0.26022616 0.16649792
000320 1c b0 ec be 8c dc 28 bd 37 5e 0a 3e c8 bf 36 3e
       -0.4622811 -0.041225955 0.13512503 0.17846596
000330 c5 91 99 bf 65 fe 4f be 6a 9b 83 bd 70 8c ba bf
       -1.199761 -0.20311888 -0.06426127 -1.4574108
000340 10 c4 8f be 43 55 87 3e f2 01 06 3e 5f eb 51 3e
       -0.2807927 0.26432237 0.1308668 0.20499943
000350 e7 9d 84 be 3f cd b5 3d 93 59 10 3e 12 c8 6f 3d
       -0.2590172 0.08877038 0.1409667 0.05854041
000360 02 37 d1 bd 78 3e 39 bd d4 e6 72 3d 4f 31 90 bd
       -0.1021557 -0.04522559 0.059302166 -0.07040655
000370 a2 ec e5 bc 85 88 6b 3e c2 7c 07 be 45 41 c4 3c
       -0.028066937 0.23001297 -0.13231185 0.023956904
000380 3c ca 72 be 3c dd 0b 3e c3 d8 5a 3e 7e 35 2d 3d
       -0.23709959 0.13658613 0.2137175 0.042287342
000390 49 b6 17 bd f5 9d 68 bf 64 40 32 be f9 7e 87 3d
       -0.037039075 -0.90866023 -0.17407376 0.06616015
0003a0 eb 7b 93 3d 51 03 6e 3e 17 ca 7c 3e 30 e3 9a 3d
       0.0720137 0.23243453 0.24686466 0.07562864
0003b0 bb 4a f5 3c 23 a7 a5 3c 28 cc ba bf 23 5f b2 bb
       0.02994286 0.020221299 -1.4593554 -0.00544347
0003c0 69 09 2f bd 8c cb 45 be 0e 24 af 3d 13 30 03 3e
       -0.042733584 -0.19315928 0.08551799 0.12811308
0003d0 b0 22 b9 bf d4 52 41 be 1a 8e 22 be 82 53 6d 3d
       -1.4463711 -0.18879253 -0.1587452 0.057940967
0003e0 f1 66 2b be 7d 84 87 3e 7d 40 7e be 3e e8 69 bd
       -0.16738488 0.26468268 -0.24829288 -0.05710625
0003f0 2a 5c 7a 3d 79 d7 8e bf b1 55 1b 3d 5a 41 17 be
       0.06112305 -1.1159507 0.03792352 -0.14771023

conv.0.bias f4 [16]
000000 f3 63 cd bc 60 09 bc 3d d7 db 11 bd 4b c0 4f bd
       -0.025072074 0.09181476 -0.035610046 -0.050720494
000010 c7 b8 81 bd 52 34 a3 be c4 99 5d 3e 97 01 ac be
       -0.063340716 -0.31875855 0.21640688 -0.33594963
000020 de 37 54 be f0 77 ae bd 0c 1a ca be 22 15 19 bd
       -0.20724437 -0.0851897 -0.39472997 -0.03737367
000030 ff 11 43 3c bc ea c0 3d ca 86 f9 bd d5 85 c3 3d
       0.011906146 0.09419772 -0.12183912 0.09547011

conv.2.weight f4 [32, 16, 3, 3]
000000 a4 fb 8c bd e4 ca fb 3d e2 6a db bd b4 76 71 3e
       -0.06883934 0.12294558 -0.10713746 0.23580438
000010 32 f3 72 3d d1 6a e9 3d 8e 0a 53 3e 9d 0c 25 3e
       0.05931396 0.11397327 0.20609495 0.16118093
000020 89 02 ac bd bf 5a 2f 3e 26 c3 56 ba a4 c3 81 bd
       -0.08398921 0.1712446 -0.00081925315 -0.063361436
000030 5f 9c 1d be ad fc 2b 3d 68 f3 ca bc e6 07 8a 3d
       -0.15391682 0.041989017 -0.024774268 0.06739788
000040 e9 3c 92 bc cf b8 59 be 86 88 8c 3c 3c 9f 09 3e
       -0.01785131 -0.21261905 0.017154943 0.1343965
000050 c3 a1 2f be 29 03 c3 be 67 03 87 3e 3d 81 62 bf
       -0.17151551 -0.38088349 0.26369783 -0.8847845
000060 32 1d a2 bd 7d 24 c3 bc ce 7c 52 3d c1 69 62 3d
       -0.07915725 -0.02382111 0.051388554 0.055276636
000070 2e cf da bd f7 96 37 be d4 47 54 3d 5c 77 ad be
       -0.10684048 -0.17928682 0.051826313 -0.33880126
000080 a7 99 0a be 9c 78 04 be f6 a4 ec 3d e6 5f 06 3e
       -0.13535176 -0.12936634 0.11554901 0.1312252
000090 0f c6 f8 3d ae c1 5f 3c 3d da ed 3d 2d 82 e7 3c
       0.12147152 0.013657017 0.11613891 0.028260315
0000a0 f1 b5 1e 3d ae a9 89 be 30 cb 68 3e 4a df 6e be
       0.03874773 -0.26887268 0.2273376 -0.23327366
0000b0 bc 73 20 be 0d e6 91 3e 49 c2 02 3e 36 48 b1 be
       -0.15669149 0.28495827 0.12769426 -0.34625405
0000c0 17 14 e7 3e f1 97 9f be e7 1b 62 be f4 05 0f 3e
       0.45132515 -0.3117061 -0.22080956 0.13967115
0000d0 a6 33 d4 3d 93 e1 f3 bc a6 43 96 be a0 b7 9f bc
       0.10361414 -0.029770648 -0.29348487 -0.019496739
0000e0 ee da c2 be ec b0 97 3d 85 c2 7b be d1 45 a3 bd
       -0.38057655 0.07406792 -0.24585922 -0.07972301
0000f0 12 cd 42 bd 02 db 25 3e 71 8d ae 3d 87 f4 d2 3d
       -0.04755885 0.16196826 0.085230716 0.10300546
000100 c1 f8 5b be c0 a9 3f 3d 19 68 04 3c 75 5a 84 be
       -0.21481611 0.046792746 0.008081459 -0.25850263
000110 b1 c7 67 3e bc 8b 31 3d fd d9 99 be e1 9d 17 bf
       0.2263477 0.04334615 -0.30049124 -0.5922528
000120 90 51 86 be 38 fc 9c 3d b1 77 e2 3e 02 2d a8 3d
       -0.26234102 0.076652944 0.44231942 0.082117096
000130 1b 31 4f 3c 94 ff 95 3e b8 28 8c 3d 74 de 10 3e
       0.012645985 0.29296553 0.06843704 0.14147359
000140 21 05 d5 3c 0d f7 43 3d ed cc a7 be fe 66 83 3e
       0.026003422 0.047843028 -0.32773533 0.25664514
000150 5b 07 96 bd c2 29 2b be 41 5d c5 bd 11 35 35 3d
       -0.07325622 -0.16715148 -0.096369274 0.04424006
000160 18 c1 38 3e fe 03 83 3e 3d b1 50 3e 70 87 c9 ba
       0.1804241 0.25588983 0.20380111 -0.0015375447
000170 5a 4c 8c 3e 1e 18 99 bd 7d aa 8d bd bf a8 9c be
       0.27402002 -0.07475303 -0.06917284 -0.30597493
000180 8b b8 38 3e 17 89 28 3e c9 46 5f be ab 4c a5 bd
       0.18039148 0.16458546 -0.21804346 -0.08071264
000190 e8 ad 81 bd 5a b9 92 be d7 14 58 be 0a b8 93 bd
       -0.06331998 -0.28657037 -0.211017 -0.07212837
0001a0 ff a5 07 be 14 99 c6 3d bf 63 20 be 84 f6 90 bd
       -0.13246916 0.09697166 -0.1566305 -0.07078269
0001b0 f0 82 9f 3c 19 e1 38 3b 59 f4 72 bd 87 a5 04 bd
       0.019471616 0.002821034 -0.05931506 -0.03238442
0001c0 32 45 ac be f8 25 c2 bd 15 13 53 3d 7b db d8 3c
       -0.33646542 -0.09479898 0.05153187 0.026471844
0001d0 99 61 79 bd 47 97 25 be 01 a2 2a bf 18 08 b0 3d
       -0.060884092 -0.16170989 -0.6665345 0.08595294
0001e0 df a9 b1 bd 6e 0c 43 be 9c 53 75 be 50 5f 45 bf
       -0.086749785 -0.1904771 -0.23957676 -0.7709856
0001f0 bb 14 f0 3d e8 6e 1a 3d 6a fc 2f 3e 77 9a f6 bc
       0.11722704 0.037703425 0.17186132 -0.030102951
000200 3d 8a 98 3d fd 10 40 3e 64 95 0c be 69 8d 2d be
       0.07448242 0.1875648 -0.13728863 -0.16948475
000210 ed 28 56 3d 41 c7 16 3d 7e 72 16 3e f6 01 88 3d
       0.052285124 0.036811117 0.14692113 0.06640999
000220 c6 52 c7 bb b6 4c aa 3d 87 c6 13 3e 14 5a 1b 3e
       -0.0060828654 0.08315413 0.14431201 0.15171081
000230 28 94 05 bd e8 ff cd 3d cc a1 bc be 5a 0b a3 3d
       -0.032611996 0.10058576 -0.3684219 0.079611495
000240 99 61 f3 3a 87 48 e0 3d 0a 89 04 bd 4b c9 c4 3d
       0.0018568515 0.109513335 -0.032357253 0.09608706
000250 7f f7 97 be b1 18 07 be 98 64 34 bd 70 5c 92 3d
       -0.29681012 -0.13193013 -0.044041246 0.07146537
000260 30 9a fe bc ad 06 48 3d 09 9e f1 3d c4 e8 53 bc
       -0.031079382 0.04883449 0.11797721 -0.012933914
000270 d7 69 20 c0 18 c1 f1 3c fd ec 04 3d db 53 07 be
       -2.50646 0.02951102 0.032452572 -0.13215582
000280 bb 75 04 3e 7d 82 94 bd 2b 50 fd bc ee 1b fa 3c
       0.12935536 -0.07251451 -0.030922016 0.030530896
000290 b2 53 2d bd 82 b9 0e 3e a2 9c 98 3d 6c 32 a6 3d
       -0.042316146 0.13937953 0.0745175 0.08115086
0002a0 3b b8 08 3d d9 46 0c 3e 6c 7e 8b bd 61 5b 6a bd
       0.03337882 0.13698901 -0.068112224 -0.057216052
0002b0 12 71 95 be 3c 82 30 3e 39 08 3a be 01 47 3f 3e
       -0.29187828 0.1723718 -0.18167199 0.1867943
0002c0 29 ef 32 bc 44 7e b5 be ee 18 34 be 28 f2 72 3e
       -0.010921278 -0.35447896 -0.17587635 0.23725188
0002d0 0b 23 94 be a2 89 ad be 73 96 1b bf b3 f2 93 be
       -0.28932986 -0.33894068 -0.6077644 -0.28896102
0002e0 79 b9 24 3e 29 11 a5 3e f7 14 3a bd ae 0e 99 3d
       0.16086377 0.32239655 -0.04543015 0.07473503
0002f0 a9 7e 79 bd ea d9 96 bd 1a 73 f1 bd 07 59 e9 bc
       -0.06091181 -0.073657826 -0.11789532 -0.028484834
000300 d0 fb c8 3c 81 be fd 3d 75 57 b8 be bf 0c 7d be
       0.024534136 0.12389851 -0.36004224 -0.24711893
000310 a1 9a b1 be 74 fe 49 bd db c2 b2 3c 2b 40 45 bd
       -0.34688285 -0.04931493 0.02182143 -0.0481569
000320 fd d9 83 3e 2b b8 40 3d f7 9c 4d be 2f 60 44 bf
       0.2575225 0.047050636 -0.20079409 -0.76709265
000330 95 16 8b 3d 00 54 9f 3d 0c f0 b5 3e cd 24 59 3c
       0.067914166 0.077796936 0.35534704 0.013253403
000340 03 22 8e bc b6 15 57 be 8d 96 02 3e 53 fa 92 be
       -0.017350202 -0.21004376 0.12752743 -0.28706607
000350 98 29 2d be b5 8a 62 3e 43 85 8b be d5 53 a5 3c
       -0.16910398 0.22123225 -0.27250108 0.020181576
000360 15 f9 70 bc 12 ee 44 3d 53 7a 29 bd 71 87 6a 3e
       -0.014707823 0.048078604 -0.041376423 0.2290323
000370 0c a4 39 3e a9 0d 01 bf 6f b0 61 3e 69 5a 53 3e
       0.18128985 -0.5041147 0.2203996 0.20639957
000380 48 19 50 3e c6 2e 73 3e 8b d4 c6 bc 04 8a 51 3d
       0.20322144 0.23748311 -0.02427127 0.051157013
000390 92 6a b9 3d af 63 33 3e f7 bb 27 bc d4 cd b6 3d
       0.0905353 0.17518495 -0.010237685 0.08925977
0003a0 7b 1d 4c bd fc 33 39 3e 3a 1c 02 3e 03 af 66 3e
       -0.049832802 0.18086237 0.1270608 0.22527699
0003b0 b9 6b d9 be 35 bb 05 be 07 bf 5e bd 1e e6 45 3e
       -0.42464998 -0.13059695 -0.054381397 0.19326064
0003c0 11 71 18 bd 88 a8 7e be 5d cd 83 3e 21 41 73 ba
       -0.037217204 -0.24868977 0.25742617 -0.00092794193
0003d0 86 04 97 3e 56 31 9a bd 06 37 47 3e ee 48 c1 3d
       0.2949564 -0.07528941 0.19454584 0.09437738
0003e0 17 a1 1b be 20 00 22 3e dc 34 12 3d e6 36 4e be
       -0.1519817 0.1582036 0.035694942 -0.2013813
0003f0 64 1f 97 3e 04 62 74 3c c4 2f 1b 3e 04 0a e9 3d
       0.29516137 0.014915947 0.1515494 0.113788635

conv.2.bias f4 [32]
000000 f6 2f 24 3e 99 bf 11 bd 42 3a 83 be a9 7b 6d be
       0.1603392 -0.035583112 -0.25630385 -0.23191704
000010 95 b4 a5 3d 62 fd f7 bd 0f 33 e0 3d b4 cd 24 be
       0.08091084 -0.12108876 0.10947239 -0.16094095
000020 9f af 37 bc 4a b9 95 bd 99 3e 6e 3d c1 47 b0 3d
       -0.011211305 -0.07310732 0.058165167 0.08607436
000030 f7 9e e2 bd 80 e5 ff ba ac 42 f6 3c f1 61 02 be
       -0.110654764 -0.0019523352 0.030061089 -0.12732674
000040 3c b3 fa 3d 0a 19 ed 3c 6f 0b 7e 3d 64 fb 7c be
       0.122412175 0.028942604 0.062022623 -0.24705273
000050 6f b9 9f bd ba b6 2a 3e f2 b1 9f be 79 81 a6 3d
       -0.077990405 0.16671267 -0.3119045 0.08130164
000060 9d aa dc 3d 95 ca 2a 3e e0 60 c2 bd c8 f2 ee 3c
       0.107747294 0.16678841 -0.09491134 0.029168501
000070 38 20 df 3d 7c 14 47 3d 21 20 4e bd 01 b1 6e bd
       0.10894817 0.04860352 -0.05032361 -0.058274273

conv.4.weight f4 [64, 32, 5, 5]
000000 57 96 15 bd 74 49 09 be df 86 ec 3d 88 65 77 bd
       -0.03652033 -0.13406926 0.11549162 -0.060399562
000010 f5 9d 00 bc b9 dd fb bd 76 0d 85 bd 23 9c 00 3e
       -0.00785016 -0.122981496 -0.06496708 0.12559561
000020 e6 97 38 be b5 5d 0b 3d 22 03 3a 3e 4d 58 e0 ba
       -0.18026695 0.034024913 0.18165258 -0.001711616
000030 92 f6 9d 3d f7 68 14 be 81 9d a3 bd d1 7e f1 be
       0.07713045 -0.14493166 -0.07989026 -0.47167066
000040 a2 04 dd 3d 48 ab 03 be b2 9f e1 3e 3f 56 ce be
       0.10791899 -0.12858307 0.4406715 -0.40300176
000050 46 95 0e 3d 4d 4b 4f bd 02 b4 76 bd a3 3e 9e 3d
       0.034810327 -0.05060892 -0.060230263 0.07726791
000060 e0 c4 6f be 8f 4c 18 be c5 d6 b3 be 23 44 3e 3e
       -0.23414946 -0.14872955 -0.35124794 0.1858068
000070 06 be 5d 3e 78 47 41 be 2f 3c 84 be 13 57 14 3d
       0.2165452 -0.1887492 -0.25827166 0.036215853
000080 3a 95 dd be a8 19 1a 3e 81 59 18 bd 23 f9 81 3e
       -0.43277913 0.1504885 -0.037194733 0.2538539
000090 00 93 c7 be 3b 51 65 3e 79 cb 9e 3e 29 c5 21 bf
       -0.3897934 0.22394268 0.31014612 -0.6319147
0000a0 71 27 0b be db 00 b7 3d ae bd ad 3d 4d a1 0b be
       -0.13589264 0.0893571 0.08483444 -0.1363575
0000b0 86 cb 24 3e 27 b7 d9 bd 72 99 41 bb c6 bf 55 3d
       0.16093263 -0.10630637 -0.0029540923 0.052184843
0000c0 81 38 a2 bd be ef 69 3d fb 07 b4 be fc 7a ef 3d
       -0.079209335 0.0571134 -0.3516234 0.11693379
0000d0 2e 8d ef bd cf d9 d8 be cd 43 01 3f 01 d2 56 3e
       -0.1169685 -0.42353675 0.5049408 0.20978548
0000e0 23 e2 eb bd a5 d1 b1 be c2 5f 88 3d 38 e8 14 bf
       -0.115177415 -0.3473026 0.06658889 -0.5816684
0000f0 44 c9 cd be db cf 2a 3d 0e ec c1 be 24 98 69 be
       -0.40192616 0.041702133 -0.37875408 -0.22811943
000100 84 3c 01 be bb 9b b9 3d a5 4a 1d bb ca 48 07 3f
       -0.12620741 0.09062906 -0.002400079 0.5284544
000110 4a a2 7f 3d 15 22 80 3c 73 4e ef bc 40 6b fa 3d
       0.06241063 0.015641252 -0.029212212 0.122274876
000120 0d eb 6b 3e 1d 6b 28 3d 63 39 8d bd 6c af 49 3d
       0.23038884 0.041117776 -0.06895711 0.04923956
000130 5a 28 3f bd 91 bc 2a be ae 4f a1 bd f2 82 05 bc
       -0.04666934 -0.16673495 -0.07876526 -0.008148896
000140 c1 8a 0e 3e 80 56 39 3d 9e 06 01 be 73 f2 fc 3e
       0.13920118 0.04524851 -0.1260018 0.49403724
000150 98 36 1c be f8 18 3d be e5 af 32 3c 25 35 83 be
       -0.15255201 -0.18466556 0.010906194 -0.25626484
000160 8d 61 3c 3e 9b 8e dc 3e ab 0d 37 bd 61 75 8c 3e
       0.18396588 0.4307755 -0.04469077 0.27433303
000170 30 40 13 be 80 ca 8c be 26 ed 13 3e 2e e9 a8 3e
       -0.14379954 -0.27498245 0.14445934 0.32990402
000180 a8 45 2c 3e 92 78 ff bd a9 a1 a2 3e 97 b2 22 be
       0.16823447 -0.12474169 0.31763962 -0.15888439
000190 60 e6 3a 3e bc a6 3a be 28 b5 1c be 3b ec 0a be
       0.18251944 -0.18227667 -0.1530348 -0.13566677
0001a0 9f 6e 64 bd 1c f4 01 3e 8d 92 81 3d c8 09 0c be
       -0.05576956 0.12690777 0.063267805 -0.13675606
0001b0 29 ce 72 be 4d 5c f6 3d 5e 11 55 bb c0 72 50 3e
       -0.23711456 0.12029324 -0.0032511572 0.20356274
0001c0 3d 51 ec 3d 4e 84 8a 3e 61 dd 12 3e 77 a0 ba be
       0.115389325 0.27054065 0.14342262 -0.3645055
0001d0 75 de 86 3d bd 27 e4 bd d8 54 42 3e fc e9 30 3e
       0.06585399 -0.11140392 0.18977678 0.17276758
0001e0 ac 8e ae 3d 33 c5 aa be a4 d9 05 3e ea 73 60 be
       0.08523306 -0.33353576 0.13071305 -0.21919218
0001f0 85 d1 9a 3e a4 5a 04 3f f1 90 3a bd 83 b9 e5 3d
       0.30237976 0.51700807 -0.045548383 0.11217024
000200 62 da 7f bd 83 cc c3 bd 59 4d 47 3d 4a aa 0d be
       -0.062464125 -0.09560492 0.04865775 -0.13834491
000210 ce 5a 3c 3e 30 de c0 bd af 1b 90 be 25 22 fc bd
       0.18394014 -0.09417379 -0.2814612 -0.123112
000220 d9 62 e8 3d 6e 47 81 bd ba ef b6 3e 54 ed b7 bd
       0.11346979 -0.06312452 0.35729772 -0.089808136
000230 99 bd fc be 90 1a 24 be 85 1e 65 3d e2 be 3e 3d
       -0.49363402 -0.16025758 0.05593731 0.04656876
000240 2f 69 c6 bd a0 20 c1 be bd 6c 02 3e 7a 2e 64 3e
       -0.09688031 -0.37720203 0.12736793 0.22283354
000250 4b 62 5b 3c 66 0b 6e be 5a 7c bb be cd 84 c9 3e
       0.013390134 -0.23246536 -0.3661831 0.3935913
000260 d2 06 9a be a4 ed 68 3d a7 72 26 be 46 82 37 be
       -0.30083328 0.056867257 -0.16254674 -0.17920789
000270 5f 2b ce be 93 78 c9 bd e1 f3 8c 3c 4f be f6 bd
       -0.40267465 -0.09837451 0.017206134 -0.12048017
000280 1b 22 a3 bc cf 4d 15 3e 00 0b a9 be 54 56 ae 3d
       -0.019913724 0.14580463 -0.33016205 0.085125595
000290 25 22 00 3f dc 72 1e 3e 18 e6 26 be ee 0b 53 3d
       0.500521 0.15473503 -0.16298711 0.05152505
0002a0 a0 07 12 bf fb 25 9b 3e 45 cc 7e 3e 67 01 a6 be
       -0.57042885 0.30302414 0.2488261 -0.32422945
0002b0 66 45 43 3d 96 ec 4e be d4 45 4f 3d a8 55 84 bd
       0.047673605 -0.20207438 0.050603703 -0.0646165
0002c0 99 96 f9 3d 86 08 bb 3e fa 89 09 3c c9 b3 47 bd
       0.12186927 0.3652994 0.008394713 -0.04875544
0002d0 8a 55 a9 be 33 5d d9 3d fd 1e fb bc a5 f2 00 be
       -0.33073074 0.106134795 -0.030654425 -0.12592562
0002e0 51 62 79 3e 6a 2b bf be 6e 77 6b 3e d2 a7 81 be
       0.24353911 -0.3733781 0.22994778 -0.2532335
0002f0 cb 5e b7 be 9a 10 42 bd f0 cd df be 54 1f f6 bd
       -0.3581451 -0.047379114 -0.43711805 -0.12017694
000300 9d 3a b5 3d 1d 77 e9 bd 48 f7 87 3d 3c d4 4c bd
       0.0884907 -0.11399672 0.06638962 -0.05000709
000310 2f 71 c5 bb 17 a0 98 be 2b 39 82 3b 27 17 98 3d
       -0.0060254554 -0.2980964 0.0039741 0.07426291
000320 6f 30 7a bd 7b 0d 46 bb e5 0e 8a be 3a ee df be
       -0.061081346 -0.0030220437 -0.2696449 -0.4373644
000330 8c 4c da 3c 46 c7 fa 3e a1 e7 84 3d 20 6b 0d be
       0.026647829 0.4898016 0.06489492 -0.13810396
000340 92 cd 78 bb ce 2d bd 3b 21 5a f3 3c c8 7d 06 be
       -0.0037964326 0.0057732826 0.029706063 -0.13133919
000350 e9 f1 92 bd ce e6 66 bd 3f 22 fb 3c 3a 4f 30 be
       -0.07175047 -0.056372456 0.030655978 -0.17217723
000360 26 8c bd 3c 8b ce 9c 3e 75 66 7e 3e 7a 90 27 be
       0.023138117 0.3062633 0.24843772 -0.16363707
000370 e4 fb e0 bd a9 39 90 be fc 21 61 3d ff a7 0b 3e
       -0.10985544 -0.2816899 0.05496405 0.13638304
000380 61 15 a3 bd 41 e7 e3 bb 19 66 9a bd cf 4c 1e 3e
       -0.07963062 -0.006955058 -0.07539005 0.15458988
000390 d7 c5 de bb 29 e5 4b 3b fe 28 a4 bd cd 32 2f 3e
       -0.0067984867 0.0031111932 -0.08015631 0.17109223
0003a0 fc 1f 84 be c3 34 e8 3e e3 19 5c bd cc 5c 5e be
       -0.25805652 0.45352754 -0.053735625 -0.21715087
0003b0 14 b6 e0 bd fd 0c 99 3e d1 e7 43 be dd c4 c5 bc
       -0.10972229 0.29892722 -0.191314 -0.024141723
0003c0 c2 cd 49 3e 55 08 c5 3c 58 f0 5c bd 46 d2 77 3e
       0.19707397 0.024051825 -0.053940147 0.24201307
0003d0 86 a4 c2 bd e7 a9 bf 3e 69 a4 d0 bb f3 74 4f be
       -0.095040366 0.37434313 -0.0063672555 -0.20259456
0003e0 03 d2 f9 3c 2e 71 89 3c aa e0 86 be 5f c3 21 3e
       0.03049565 0.016777601 -0.2634328 0.15797184
0003f0 c4 2d a4 be 7b 20 af bd 70 96 2d 3e bf 7b 6b 3e
       -0.32066166 -0.08551117 0.16951919 0.22996424

conv.4.bias f4 [64]
000000 12 39 01 be d5 74 f5 bd af 70 56 3c 86 2a 64 3b
       -0.12619427 -0.119851746 0.013088389 0.0034815385
000010 7b 37 0a be 6e 8d 69 be 8c 1d 35 bd 62 cd 4b bd
       -0.13497727 -0.22807857 -0.04421763 -0.049756415
000020 93 c1 59 3e 18 25 ed bc 8a dc fa 3d 54 4e 47 bd
       0.21265249 -0.028948352 0.12249096 -0.048658684
000030 42 10 04 3c 37 d5 18 bd 47 2e e8 bd cd d8 88 bd
       0.008060517 -0.037312713 -0.11336952 -0.066819765
000040 ac 34 b9 bc fc 90 52 3c 0f 6a f5 3d 02 83 b8 bd
       -0.022608124 0.01285195 0.1198312 -0.09009363
000050 75 e8 3d 3e d8 cf 99 bd 0d 10 2d bd 90 92 20 be
       0.18545707 -0.07510346 -0.042251635 -0.15680909
000060 e9 8f 26 be cf 29 be 3e fc cf 69 bd 82 fd ce 3d
       -0.16265835 0.37141272 -0.057083115 0.101069465
000070 5c b9 ea bc d9 54 35 bd da 8f 21 bd 01 96 c3 bb
       -0.02865284 -0.04427037 -0.03944383 -0.0059688096
000080 f0 82 c1 bd d1 99 0e bd 68 a3 21 bc 3e 33 74 3e
       -0.094488025 -0.03481466 -0.009865619 0.23847672
000090 34 26 fb 3d 4d cb ef 3d 97 44 ea bd 72 50 64 bd
       0.12263146 0.117086984 -0.11438864 -0.05574078
0000a0 5a 76 09 3e 5b fc 4b bd c7 f8 50 bd 3f ba 1d bd
       0.13424054 -0.04980121 -0.051018503 -0.038507696
0000b0 1a ca a8 bc 3e 74 16 bd 15 e6 2d 3c 75 f5 b3 3e
       -0.020604182 -0.03673195 0.010613938 0.35148206
0000c0 3f d1 22 bd 9c 87 81 bc 01 3d 8d 3c 5f 03 74 3c
       -0.039750334 -0.015811734 0.017241003 0.014893382
0000d0 7c 12 97 3e c1 2f 9d 3e a3 1a af bd 5d 13 e0 3d
       0.2950629 0.30700496 -0.085500024 0.10941193
0000e0 53 d3 22 3e 14 02 be bd d3 81 13 bd 1f 36 33 be
       0.15900926 -0.0927774 -0.036012482 -0.17501114
0000f0 68 5b d1 3e c9 fe 51 3d c6 4e 25 be 6c 7e 2d 3e
       0.4089005 0.051268373 -0.16143331 0.16942757

conv.7.weight f4 [64, 256]
000000 a7 e7 36 bd da 43 8f bd ea b5 bd 3c 78 b1 8c 3c
       -0.044654515 -0.069953635 0.023158032 0.017174467
000010 df 30 ef 3c d4 e9 46 bd 7e 2b 28 3d 5b 95 8b bd
       0.029198108 -0.04856284 0.041057102 -0.06815597
000020 ee 77 b1 bb e8 6e 5a bd 52 1f e5 3c 3d b0 52 bc
       -0.005415908 -0.053328425 0.027969036 -0.012859401
000030 be ae 7b bd a0 eb ff 3c 10 c8 f9 3b 28 74 23 3d
       -0.061445944 0.031240284 0.0076227263 0.039905697
000040 1d 82 67 bc 57 05 21 3d a4 93 b7 3a 8a cb 84 bd
       -0.0141301425 0.039311733 0.0014005792 -0.064841345
000050 6a 0a 2a ba 53 a4 c0 3b 0a e9 0f 3c 31 84 47 bd
       -0.0006486537 0.005878964 0.008783588 -0.048710052
000060 10 4e b6 3c 10 60 15 3d 14 03 45 bd 88 81 7a 3c
       0.02225402 0.036468565 -0.04809864 0.015289672
000070 48 b0 64 3c 20 03 45 bd 1c 79 c0 bc b8 47 59 bc
       0.013958044 -0.048098683 -0.02349525 -0.013261728
000080 0a f4 3d bd d7 f0 d7 bc 22 32 2f bd 68 f5 27 bd
       -0.046375312 -0.026359959 -0.04277242 -0.041005522
000090 4d eb 94 3c 5a 9e 64 bd 6c 9a c9 bc 46 d6 12 3c
       0.018178606 -0.05581508 -0.024609767 0.00896222
0000a0 33 e7 67 bc 0a 15 b1 bc b9 06 b0 bd b2 41 05 bc
       -0.014154243 -0.021616478 -0.08595032 -0.008133339
0000b0 54 92 bf 3c 58 9d 86 3c 9e d1 00 3d 10 6f ed bc
       0.023385204 0.01643245 0.031449907 -0.028983623
0000c0 ba 8c 91 bc f9 e9 b6 3b c0 d9 94 3c 50 6c 4b 3d
       -0.017767299 0.005582091 0.018170238 0.04966384
0000d0 3c 29 5a bd 5e d0 39 3d f8 2d 19 3c 18 ca 11 bd
       -0.05326198 0.04536473 0.009349339 -0.035593122
0000e0 01 7e 32 bd 0b 09 75 bd c4 13 5c bd 19 5b 32 3d
       -0.043577198 -0.059823077 -0.053729787 0.04354391
0000f0 cb fa 96 bc fc 2a 18 bd e0 98 66 3a 54 60 ea bc
       -0.018430134 -0.037150368 0.0008796584 -0.028610386
000100 e0 63 55 bd 9c 5e b5 bc 40 83 a9 ba d6 e8 1f 3d
       -0.0520972 -0.02213984 -0.0012932792 0.03904041
000110 12 b7 93 bd b7 86 9a bc 15 3e ff 3c 15 f8 85 bd
       -0.07212652 -0.018863065 0.031157533 -0.065414585
000120 e9 bf 01 3d 4e cd bc 3c 8e 72 ae bc 00 46 12 b9
       0.03167716 0.023047116 -0.021294858 -0.00013949722
000130 0b da c4 bc a6 98 c6 bb b6 51 4a 3c ac 44 34 bd
       -0.024029752 -0.0060606776 0.012348583 -0.044010803
000140 5b 7d 39 bc 94 21 be bd 6c 7b 9d bd fc 90 02 3d
       -0.011321391 -0.09283748 -0.076895565 0.03187655
000150 1c 17 b7 bc 04 2b 23 3d c8 f7 24 bc 4e ef 35 bd
       -0.022349887 0.039835945 -0.010068841 -0.04441767
000160 32 44 5c bd 28 f9 8c 3c 80 f7 2b 3b 58 59 5e bd
       -0.053775974 0.01720865 0.002624005 -0.054284424
000170 dc 70 3b 3d 7c 39 03 3d e4 4f 49 bd 61 cf 2d bd
       0.045761928 0.032037243 -0.049148455 -0.0424341
000180 07 0a 29 3b be 60 10 bd 77 1c bc bc 25 32 a3 bd
       0.002579333 -0.03524851 -0.022962792 -0.07968549
000190 e4 99 58 bd 7f ca 4b bd 44 77 d8 3c 32 b5 87 bd
       -0.052881137 -0.049753662 0.026424058 -0.06626357
0001a0 b8 70 b4 3c 4e f9 76 3d f8 cf c8 3c 28 b5 33 bc
       0.022026405 0.06029635 0.02451323 -0.010968484
0001b0 40 be 4d bc 0b b9 f4 bc 98 a3 fa bc 50 76 19 bd
       -0.012557566 -0.029873392 -0.030595586 -0.037466347
0001c0 5a f9 34 3d 50 ac 56 3c 80 a9 81 3a 44 88 a3 3c
       0.044183113 0.013102606 0.0009892434 0.019962437
0001d0 4a f8 df bc 62 b9 61 3b 62 67 97 3c ff 3f e9 bb
       -0.027340073 0.0034442772 0.018481914 -0.0071182246
0001e0 80 3d 58 bb 60 13 4a 3b 00 df 30 3d cc ff ab bc
       -0.0032995641 0.0030834302 0.04318142 -0.020995997
0001f0 67 ae b3 3c 0a f4 27 bd e4 07 d7 bb 8e 6a cd bc
       0.021933747 -0.04100422 -0.00656222 -0.025075223
000200 b1 fa 87 bc 45 94 b6 3c 82 ac f6 3c 08 e3 16 3d
       -0.016599031 0.022287497 0.030111555 0.036837608
000210 e0 5b 4b 3d dc a2 f0 3c d0 8c d5 bb 7a 63 68 bd
       0.049648166 0.029374532 -0.0065170303 -0.056735493
000220 b8 21 7d bd 5e c1 17 bd 10 ab 4a bc 00 06 5c 3b
       -0.061799735 -0.037049644 -0.012369886 0.0033572912
000230 a7 71 27 bd 10 0b 54 bd 42 8b 48 bb b2 5b ba 3a
       -0.04087987 -0.051768363 -0.0030600582 0.0014218001
000240 b2 71 b5 bc b0 9a db bc d0 36 cc 3c 06 0a 1d bd
       -0.02214894 -0.02680716 0.02492848 -0.038339637
000250 00 03 30 bd 91 0a 92 bd 4e e6 cd 3c 92 94 73 bc
       -0.04297161 -0.07130922 0.025134232 -0.014866965
000260 b0 39 3f bc 54 fd ac 3c ee ff 43 bd 99 78 4f bd
       -0.011671469 0.02111689 -0.047851495 -0.05065212
000270 de a6 2c bd b6 3d 17 bd 64 18 cf 3c 80 bf 22 3b
       -0.042151324 -0.036924087 0.025280185 0.0024833381
000280 bf 63 2c bd 91 b8 e1 3b 6b 0d a9 bc bc 75 2a 3c
       -0.042087313 0.006888457 -0.020636281 0.010404047
000290 e6 ce d9 3c 40 ee 62 bc b8 03 7b bc 5c 70 81 bd
       0.026587915 -0.013850749 -0.015320711 -0.06320259
0002a0 a0 83 ba 3b ee 17 23 3d 10 90 8d 3b f8 fd 06 3c
       0.0056919605 0.039817743 0.004320152 0.008239262
0002b0 60 2c 82 3c b0 24 3e bd b8 57 df bc 4a b1 11 3d
       0.0158903 -0.046421707 -0.027263507 0.035569467
0002c0 a1 f0 51 3d 81 11 58 bd 4e 47 16 3c bb ae 2f bc
       0.051254872 -0.052751068 0.009172274 -0.010722811
0002d0 42 b3 5a 3d d2 d2 79 3d 24 ae be 3c 20 3d 05 bd
       0.05339361 0.06099207 0.023276396 -0.032528996
0002e0 57 e8 00 bd 56 2d c1 bb 59 27 0d 3d 1c f7 db bc
       -0.031471577 -0.005895297 0.034461353 -0.02685123
0002f0 1e 46 ac 3c d2 5b d3 3c 4a 79 8e bd cd e8 61 bd
       0.021029528 0.02580062 -0.06956728 -0.055153657
000300 30 f9 0c 3d 92 31 15 3d 80 6d 20 bd 10 e3 d2 bb
       0.03441733 0.036424227 -0.039166927 -0.0064357594
000310 14 68 18 3d f4 86 bf bc 3c 06 40 bd c0 53 1f 3c
       0.03720863 -0.02337978 -0.046880946 0.009724557
000320 22 a7 5e bc 14 42 64 bd 69 da 7e bd 32 e3 7f bd
       -0.013589652 -0.05572708 -0.06222001 -0.06247253
000330 6e 35 7e bd 04 cf fd bc ca 11 06 3d 14 40 6d 3d
       -0.062062673 -0.030982502 0.03273181 0.057922438
000340 04 2b e9 bb 2e 14 4c bd 3f 55 05 bd 1e 28 3f bd
       -0.0071157236 -0.049823932 -0.032552 -0.046669118
000350 10 0e d3 3c af ca 94 bc 44 05 06 3d bb a0 c1 bc
       0.025763541 -0.018163053 0.032719865 -0.023636213
000360 59 c9 1e bd 98 df a9 bc f1 97 07 bd 44 af 07 bd
       -0.03876624 -0.0207365 -0.033103887 -0.03312613
000370 a4 63 76 bc 1b e8 ca bc a1 ef 97 3c b2 02 b3 bd
       -0.015038405 -0.02476888 0.018546881 -0.087407485
000380 1a 00 09 3d c1 d7 ca 3c 50 c5 55 3d e7 2a 63 bd
       0.033447362 0.024761083 0.052190125 -0.055460837
000390 b6 c0 6d bd 53 ba 8d bd 2b 52 74 bd b7 59 6b 3c
       -0.05804511 -0.06920304 -0.059648674 0.014364651
0003a0 5b 30 85 bd 3c 0a 01 bd 62 b0 b3 3c 76 b9 7c bd
       -0.06503364 -0.0315039 0.021934692 -0.061700307
0003b0 4f 29 7d bd 63 0c 30 bd b7 76 be bb fc fa b5 bc
       -0.061806973 -0.042980563 -0.0058124918 -0.022214405
0003c0 1b 70 8e bb 74 2b c3 3c 00 a9 3d 3c 68 90 62 3b
       -0.00434686 0.023824431 0.011575937 0.0034570936
0003d0 ac 0b ac 3b 62 21 e7 bb 85 02 99 bb 4b a8 59 bd
       0.005250415 -0.00705354 -0.00466949 -0.053139012
0003e0 f2 8c 38 bb 30 25 1b bd 54 57 67 bd 82 bf 13 3d
       -0.0028160182 -0.03787726 -0.056479767 0.036071308
0003f0 80 67 62 ba 8f 65 66 bd bc e3 f5 bb 3d 7c 34 3c
       -0.00086366385 -0.056249198 -0.0075039547 0.011015949

conv.7.bias f4 [64]
000000 da 8b 73 bd c9 24 e7 3e bd 0d 9c 3e 8b 28 ce 3e
       -0.059459545 0.45145252 0.3047923 0.40265307
000010 70 44 0e 3f b8 5f 00 3f c5 04 4f be ba f1 6c 3e
       0.5557318 0.50146055 -0.20216663 0.23139086
000020 a3 46 f1 3b 32 8e ab 3e 61 01 3e be 8f eb 23 3e
       0.007363157 0.33506924 -0.18555214 0.16007827
000030 fb 7f e2 3e 2a c5 ee 3e 83 6e 1d 3f dd 2b d2 be
       0.44238266 0.466348 0.6149675 -0.4104909
000040 12 4a 7b 3e 03 3b b3 3e c3 24 4f 3f e4 0d 3d 3e
       0.24539974 0.3500596 0.8091547 0.1846233
000050 b8 2b 10 3e 75 6c f5 3d 72 e1 c1 3e c9 c7 cb 3e
       0.14079177 0.11983577 0.37867314 0.3980086
000060 ec 55 af 3d 7a 74 0c bc 01 b1 03 be 31 12 88 3d
       0.0856131 -0.008572692 -0.1286049 0.06644095
000070 e3 14 3d 3e df a5 96 bd 87 7a a6 3e e6 94 d3 bd
       0.18464999 -0.07355856 0.32515356 -0.103311345
000080 ba 3c 55 be f0 d7 90 3e 3c f0 d1 bc 25 81 13 be
       -0.20823947 0.28289747 -0.025627248 -0.14404733
000090 72 93 0c 3e 8e 64 20 be 93 80 f2 3a 10 97 9b 3d
       0.13728121 -0.15663359 0.0018501453 0.07597172
0000a0 ef 2c ec 3d 5d d6 d4 3d cb 9f 48 bd fa b3 19 3e
       0.11532008 0.10392449 -0.048980515 0.15010062
0000b0 23 0b a7 3e d6 f0 24 3e a6 c3 87 3e 6c 83 6d 3e
       0.32625684 0.16107497 0.26516455 0.23194665
0000c0 3b f0 26 3e 91 8a 76 3e d9 fb 64 be c0 c0 b3 3d
       0.16302578 0.24076296 -0.22361697 0.087769985
0000d0 be 1d 31 3e eb e6 a0 bd a8 87 9e 3e 39 ef a3 be
       0.17296502 -0.07856544 0.30962873 -0.3201845
0000e0 22 dc 02 3d 87 29 97 be 8d bc 0a 3f 8a f8 01 3d
       0.031948216 -0.2952387 0.54193956 0.031731166
0000f0 72 53 01 3f 08 ad 4f be ba 74 bc 3e f4 fc 46 3e
       0.5051795 -0.2028085 0.36807805 0.19432431

out.weight f4 [4, 64]
000000 eb f0 be 3d 53 12 f9 3e fe ec 66 3b bb e1 52 3e
       0.09323295 0.48646793 0.0035236473 0.20593922
000010 38 37 9b 3e dc 28 c4 3d bb f7 00 bc f2 56 69 3e
       0.30315566 0.09578106 -0.007871564 0.22787073
000020 47 88 f2 bc a4 30 1a 3e ef e2 8f 3d bb 9a 0f 3e
       -0.029605998 0.15057617 0.07025706 0.14023869
000030 00 42 5a 3e 07 9a c8 3a d4 5a 36 3d 01 ba 35 3c
       0.2131424 0.0015304693 0.044520214 0.01109171
000040 db 0f 39 bf 69 cd 9c 3d 53 82 e4 3e 63 3e cc 3d
       -0.7228982 0.076563664 0.4463068 0.09972837
000050 f0 a8 93 bb 39 6e b0 b9 a4 3c 7a 3e 82 40 0a 3d
       -0.004506223 -0.00033651458 0.24437195 0.033752926
000060 56 f0 2f be 1a 69 f1 bc 81 69 c3 3e e2 ae 10 3e
       -0.17181525 -0.029469062 0.3816643 0.14129212
000070 e6 2f cf 3d a2 9e 79 bc 55 47 03 3e a4 72 ad bd
       0.10116558 -0.015235575 0.1282018 -0.084691316
000080 56 76 e4 bd 65 75 ad 3d 92 72 02 3d 45 50 15 be
       -0.11155383 0.08469657 0.031847544 -0.14581402
000090 e1 f3 6a 3e 27 f0 38 bf 9f 1a a6 bd c3 a8 4c be
       0.22944595 -0.72241443 -0.08110546 -0.19986252
0000a0 77 ae 37 3e 01 93 11 3e 82 49 4f 3d 6d b3 22 bd
       0.17937647 0.14216234 0.050607212 -0.039721895
0000b0 b1 53 bc bf 0b 68 b4 bf 74 04 9a bd 73 56 b8 bf
       -1.471304 -1.4094251 -0.075203806 -1.4401382
0000c0 fd c8 4f bf 3c 65 bb 3b 0f 50 25 3e 68 81 47 3b
       -0.8116606 0.005718855 0.16143821 0.0030442122
0000d0 71 b4 68 be bd 8c 00 3d 62 70 2b be 9a e0 4b 40
       -0.22725083 0.03138422 -0.1674209 3.1855836
0000e0 5c e8 24 3e 35 66 26 3d 8a ce 10 3e 5a ec bd be
       0.16104263 0.040624816 0.14141288 -0.37094384
0000f0 c7 e3 7e 3d d2 7d 05 3d 3c 7e f7 3e 24 d4 0c be
       0.062228944 0.032590695 0.48338497 -0.137528
000100 0e 61 a1 bd f6 64 d2 3d 2d 89 5e 3e 0e 18 1a bd
       -0.0787984 0.10273163 0.21732016 -0.037620597
000110 eb 33 cb 3e 81 36 8a 3e 53 62 43 3e dd cb 9e bd
       0.39688048 0.26994708 0.19080476 -0.077537276
000120 ed 7b 8a bf 20 36 be 3e ff 02 30 3e 4f 4b 5d 3e
       -1.0819069 0.3715067 0.17188643 0.21610759
000130 c6 61 6c 3e 10 90 2e 3e 96 6c 41 3e 90 97 f3 3c
       0.23084173 0.17047143 0.18889078 0.029735357
000140 fa 88 dc 3a 3d 2c bd 3d d2 f9 fc 3e ae 9b c5 bf
       0.001682549 0.092369534 0.49409348 -1.5438135
000150 65 b0 82 bd 13 e0 88 3e 04 08 42 3e 07 6b b2 3c
       -0.06381301 0.26733455 0.1894837 0.02177955
000160 31 e7 99 bf e5 e7 5c bd ef 45 08 bc 34 c1 5c 3e
       -1.2023679 -0.05393209 -0.008317455 0.21558076
000170 6a f2 cc bf 7d b0 a5 bd c5 d3 12 bc e7 b1 19 3e
       -1.6011479 -0.08090303 -0.008961623 0.1500927
000180 c6 26 f6 bd d3 f7 83 3e ca 79 97 bc 9b 11 8a bc
       -0.12019114 0.25775012 -0.01849069 -0.016854098
000190 7e 97 05 3d d8 3f 36 3b 47 c6 50 be a6 14 87 bc
       0.032615177 0.002780905 -0.20388137 -0.016489338
0001a0 1a e0 f7 bc e5 00 dc bd 95 88 bc 3d e8 76 2c be
       -0.030258227 -0.10742358 0.092057385 -0.16842234
0001b0 ac 6e 09 3e 5f c1 bf bd 93 8b 93 be 89 8b b1 3d
       0.13421124 -0.093630545 -0.28817424 0.08669192
0001c0 08 8f 07 be 77 98 d7 3d 79 cc 9c bd 03 f6 8f 3e
       -0.13238156 0.10527127 -0.076561876 0.2811738
0001d0 ca 6d 8d 3d de 2b 33 bc d7 a4 06 3e 2b d7 29 be
       0.06905706 -0.010935752 0.13148819 -0.16585986
0001e0 f6 c2 b8 bd ab 40 2a be 6c dc 00 3d 25 f5 44 3e
       -0.09021561 -0.16626231 0.03146021 0.1923414
0001f0 26 d0 61 3e e7 48 72 3d 96 29 93 3c 6c b3 98 bd
       0.22052059 0.059151556 0.017964166 -0.07456097
000200 bf d0 95 3d a7 80 9a 3d a2 c3 79 bf e9 13 2b bd
       0.07315206 0.0754407 -0.97564137 -0.041767035
000210 d4 4d 36 3d d6 47 67 3d 47 28 80 be cb 27 7b bd
       0.044507816 0.056464992 -0.2503073 -0.061317246
000220 ec 60 1d 3e 21 16 f8 3c e2 ee 29 be 4c ba 9d 3e
       0.15369004 0.03028399 -0.16595033 0.30806196
000230 b2 b1 44 3e 6e 37 2d 3e ca 2d a1 3d da 7b d3 be
       0.1920841 0.16915676 0.07870062 -0.4130543
000240 f0 ec 81 3d 1b 14 bc 3e 2e f8 0f 3f 80 b6 c9 3d
       0.0634402 0.3673409 0.5623807 0.09849262
000250 5f a1 17 3c 3f 9b 76 3b b4 70 a4 3e 42 4e 51 3d
       0.009254782 0.0037629155 0.32117236 0.051100023
000260 04 bb 1c bd c9 66 8f bf 18 02 d8 bd b9 c9 66 be
       -0.03826429 -1.1203243 -0.10547274 -0.22537889
000270 44 ef 0c be 05 3e 99 3e 0f d0 89 3e 3d c4 a1 3d
       -0.13763148 0.2993013 0.2691655 0.078987576
000280 b5 a8 9e bd 3d 3f f5 3d b3 9b 7b 3d 60 f8 27 40
       -0.07747022 0.11974952 0.061427783 2.6245346
000290 2d fb f0 3c 3b 35 e5 3c ed b1 9c bd 9b ea 9e bd
       0.029416645 0.027979484 -0.07651124 -0.07759591
0002a0 b1 f4 32 be 6d 42 ee bf c4 22 68 bd 7c db 30 3d
       -0.17476155 -1.8614022 -0.05667378 0.043178067
0002b0 8d f6 84 bc 5b b4 9b 3d 8f 6d 08 be 2a e5 cd bd
       -0.016230846 0.076027595 -0.13323043 -0.10053475
0002c0 0d c1 8b 3d 79 bd 00 c0 6e ec 0b 3f bb f3 8b be
       0.06823931 -2.0115645 0.5465764 -0.2733439
0002d0 d4 6d d1 3d 47 24 c6 bc 2f 99 7e 3e d3 03 d7 bd
       0.10226026 -0.02418722 0.24863122 -0.10498776
0002e0 cf 46 2d 3e 87 a6 48 40 f0 6d ca 3e 2d 53 c0 bd
       0.16921543 3.135164 0.39537 -0.093908645
0002f0 e5 96 e2 3e cb a3 01 be d4 a0 ca 3c a5 c2 a4 bf
       0.44255748 -0.12660138 0.024734892 -1.2871901
000300 0a aa 73 3d e3 79 96 3c d8 e0 ef 3b 98 9c 08 3e
       0.059488334 0.018368667 0.0073205046 0.13340986
000310 7f c4 37 3e c8 4a fc 3d ef 66 b3 be 98 7f 6f 3e
       0.17946051 0.12318951 -0.3503947 0.23388517
000320 ec e8 2b be b3 96 b3 3d ef 3c 31 3e 82 df 2b bc
       -0.16788071 0.08768978 0.173084 -0.0104903
000330 72 dd 4e 3e 42 52 3f 3e 40 cd ea 3e f2 12 88 3c
       0.20201662 0.18683723 0.45859718 0.016610596
000340 64 78 4d bd 0a 75 bd 3d aa c2 e7 3e ef 83 00 3e
       -0.05016364 0.09250839 0.45265704 0.12550329
000350 f9 07 7e 3e 30 5f 7c bf 97 34 87 3e 63 84 ce 3e
       0.24807729 -0.98582745 0.2640731 0.40335378
000360 0e 7b 1c 3d d4 45 40 be b7 57 aa 3d 9c c8 73 3e
       0.03820329 -0.18776637 0.083175115 0.23806995
000370 c7 93 92 bd c0 36 2a be 00 82 b1 bf e7 ac 43 be
       -0.071570925 -0.16622448 -1.3867798 -0.19108926
000380 f7 ab 16 40 e2 31 83 be eb 04 ba 3d 4e 94 82 bd
       2.354246 -0.25623995 0.09082969 -0.06375943
000390 1b e9 cd 3e 3e eb c1 3d bb 56 b2 3d 43 f2 87 bf
       0.40216908 0.09468697 0.08707949 -1.0620807
0003a0 bc 30 a5 bf 3a aa 21 bd f6 07 f7 bd fa 38 93 bf
       -1.2905498 -0.03946898 -0.12062065 -1.1501763
0003b0 6a ac 21 3e 31 46 c7 bd fa de 9e be 84 7f 97 bd
       0.15788427 -0.09730185 -0.31029493 -0.073973686
0003c0 97 3b 88 3d 6b 6e be 3d 47 6a 40 3c 69 8f 87 3e
       0.06651991 0.09298404 0.0117440885 0.264766
0003d0 2e 60 28 3e fa bf 8b 3b 2d ed a5 3c b0 26 38 be
       0.1644294 0.0042648287 0.020254696 -0.17983508
0003e0 8c 30 55 3e 10 3b 80 bd b6 4a 06 3e 09 c3 35 bd
       0.208193 -0.06261265 0.13114437 -0.044375453
0003f0 09 a6 e2 3d bd 68 e2 3e 21 06 4f 3c 7c 35 18 3e
       0.11066825 0.44220534 0.012635739 0.14864153

out.bias f4 [4]
000000 af 3d 2b 3f ac 93 24 3f 2b 29 07 3f 78 af 16 3f
       0.66890997 0.6428783 0.5279719 0.58861494
