models/v17.1/model_114500_target.pth (torch, 295191 bytes, 10 tensors)

conv.0.weight f4 [16, 2, 3, 3]
0.14178003 0.057938866 -0.17842257 0.21811098 -0.13134216 0.078530714 -0.29938188 0.32378754
0.087329164 -0.05655324 0.07997389 -0.05589055 -0.066065945 0.08822292 0.036623366 -0.03187366
0.021899832 -0.009369755 -0.14682914 0.2560167 0.03436839 0.20818648 -0.17884925 0.2295869
-0.8576304 -0.51208276 -0.1848337 -1.0117881 0.57785636 -1.212077 0.19664466 -0.19562253
0.21992257 -0.04999799 0.014500014 0.12049201 -0.0008105247 0.22762553 0.11538658 -0.09781906
0.30157724 -0.0584195 0.32821542 0.18289068 0.13318904 0.09654858 0.124483876 0.016878795
0.29357028 -0.11165596 -1.4388429 -0.07493077 -0.31671327 0.07568936 0.00832254 0.040336836
0.06550611 0.123592615 0.12371155 -0.6618868 -0.29961497 -0.34184328 0.18323947 -0.051926073
0.026769293 -0.056527622 0.30763572 -0.052814398 -0.7275939 -0.27877924 0.34819883 0.15182348
0.2304293 -0.122619145 -0.16598026 -1.18716 -0.22504574 0.13364893 0.044588577 0.5023497
-1.1979882 -0.26939353 0.25584704 -0.8016703 0.23822103 -0.0045963014 0.20529692 -0.009374783
-0.061082862 -0.0032725309 -0.008869905 -0.19451922 0.40765083 0.26280972 -0.11673308 -0.091085106
0.5492003 -0.41254985 0.3269786 -0.21691439 -0.099261396 0.0780138 0.027351515 -0.4025573
-0.12416191 -0.045133743 -0.13043948 -0.31203425 -0.99929875 -0.026007006 0.34096473 0.2394774
0.057810068 -1.0733689 -0.2576259 0.1195339 -0.15403011 -0.10959004 0.042991877 -0.15059295
0.124719895 0.015786316 0.01285837 -0.89514416 -0.22896123 -0.08717796 0.16617444 -0.18301053
0.4708554 -0.08586561 0.3073023 0.086585104 0.025304249 0.37726372 -0.0638364 -1.6023932
-0.9438917 -0.8332999 0.08106645 0.070910454 -0.0018190201 -0.284213 0.19546005 -0.06885402
-0.01859115 0.07875014 0.108022906 0.306784 0.09212204 -0.22730128 0.14278558 -0.32924706
0.023152862 -0.3692061 0.4759171 -0.45063925 0.05126219 0.24233799 -0.013681529 -0.30066034
0.4141925 0.053877648 0.006106943 -0.11209964 0.15701294 0.039689116 -0.13624422 0.29859912
0.2608815 -0.051513955 -0.2068884 -0.016550262 0.20768584 -0.10856051 -1.605999 0.016517594
-0.19392723 0.22233756 0.35100153 -0.33128288 -0.08617358 0.10956374 0.05448747 -0.11751991
0.035500713 0.10062674 0.4193122 -0.32546023 -0.009181391 0.06723231 -0.24917534 -0.12630287
0.57742065 0.010122687 -0.065379255 0.12404411 0.0812592 -0.122574 0.24937989 0.17082591
-0.49121606 -0.06519845 0.13482329 0.15310165 -1.125031 -0.24608031 -0.06550162 -1.4552112
-0.3053937 0.26520327 0.12852839 0.20203047 -0.24841653 0.07483893 0.12945823 0.07336052
-0.08361973 -0.027942834 0.07579876 -0.06818752 -0.024760002 0.22035348 -0.10842474 0.00824874
-0.25392526 0.14413127 0.21464981 0.05568759 -0.06133988 -0.878322 -0.19996901 0.09589436
0.07071332 0.23000719 0.25392318 0.08729081 0.029202856 0.04902511 -1.4638834 -0.0016316038
-0.052215315 -0.18825285 0.05467857 0.12481045 -1.4205292 -0.20279609 -0.15797602 0.049272172
-0.17522271 0.27317733 -0.25333402 -0.07201662 0.060528506 -1.1030335 -0.0035961238 -0.13898352
00000000: c92e 113e 4e51 6d3d 68b4 36be 7c58 5f3e
00000010: 8f7e 06be b6d4 a03d 9548 99be 7bc7 a53e
00000020: a2d9 b23d 5fa4 67bd 5ac9 a33d 7ded 64bd
00000030: 954d 87bd 38ae b43d 6202 163d f48d 02bd
00000040: 4767 b33c 9a83 19bc 615a 16be 9f14 833e
00000050: dec5 0c3d d62e 553e 4224 37be d418 6b3e
00000060: aa8d 5bbf db17 03bf 0c45 3dbe 4682 81bf
00000070: 65ee 133f 5725 9bbf 385d 493e 4651 48be
00000080: 6233 613e b1ca 4cbd 7791 6d3c 84c4 f63d
00000090: 6479 54ba ab16 693e cd4f ec3d 5c55 c8bd
000000a0: 5568 9a3e 4949 6fbd da0b a83e b247 3b3e
000000b0: b562 083e 43bb c53d 67f1 fe3d 6645 8a3c
000000c0: d84e 963e e1ab e4bd 012c b8bf 4e75 99bd
000000d0: 3e28 a2be 0603 9b3d 435b 083c 3d38 253d
000000e0: 1128 863d 201e fd3d 7b5c fd3d 6a71 29bf
000000f0: 2267 99be 1506 afbe 21a3 3b3e 6fb0 54bd
00000100: 474b db3c 8289 67bd 6e82 9d3e e953 58bd
00000110: 9843 3abf 27bc 8ebe 1e47 b23e 9d77 1b3e
00000120: a9f5 6b3e bf1f fbbd bbf6 29be dcf4 97bf
00000130: 6472 66be 44db 083e 83a2 363d fd99 003f
00000140: ad57 99bf f3ed 89be 62fe 823e 443a 4dbf
00000150: 37f0 733e 929c 96bb 5b39 523e b198 19bc
00000160: 0632 7abd f577 56bb 1453 11bc 0c30 47be
00000170: 9cb7 d03e ff8e 863e c111 efbd d48a babd
00000180: 6498 0c3f bc39 d3be bd69 a73e ce1e 5ebe
00000190: 8f49 cbbd b3c5 9f3d 4910 e03c fe1b cebe
000001a0: 9948 febd 29de 38bd ed91 05be f4c2 9fbe
000001b0: 0bd2 7fbf a50c d5bc ee92 ae3e 9039 753e
000001c0: 40ca 6c3d 2764 89bf 8be7 83be 30ce f43d
000001d0: 12ba 1dbe be70 e0bd 4018 303d 0a35 1abe
000001e0: 256d ff3d 4e52 813c eaab 523c 2b28 65bf
000001f0: d074 6abe 5c8a b2bd a229 2a3e 1d67 3bbe
00000200: f613 f13e 4fda afbd ba56 9d3e 8853 b13d
00000210: db4a cf3c b628 c13e a9bc 82bd 381b cdbf
00000220: e3a2 71bf 2453 55bf 2b06 a63d 8039 913d
00000230: 306c eeba 5e84 91be ae26 483e 5603 8dbd
00000240: 784c 98bc c147 a13d 1d3b dd3d cb12 9d3e
00000250: 7baa bc3d abc1 68be 6236 123e 1293 a8be
00000260: 12ab bd3c 9508 bdbe 68ab f33e 30ba e6be
00000270: 4df8 513d 7327 783e 7e28 60bc 27f0 99be
00000280: 0a11 d43e cfae 5c3d c01c c83b 7f94 e5bd
00000290: 00c8 203e 0e91 223d 9b83 0bbe fce1 983e
000002a0: 4392 853e 4c00 53bd 8dda 53be 6a94 87bc
000002b0: 99ab 543e f954 debd 6091 cdbf e84f 873c
000002c0: dc94 46be 75ac 633e 79b6 b33e e99d a9be
000002d0: c67b b0bd f462 e03d 412e 5f3d 47ae f0bd
000002e0: 3269 113d 6415 ce3d 17b0 d63e b9a2 a6be
000002f0: 8c6d 16bc 18b1 893d d227 7fbe 8a55 01be
00000300: d7d1 133f a0d9 253c 8fe5 85bd d70a fe3d
00000310: 396b a63d 1408 fbbd 715d 7f3e fdec 2e3e
00000320: ac80 fbbe c486 85bd 1e0f 0a3e aec6 1c3e
00000330: 0401 90bf 7afc 7bbe b725 86bd 5c44 babf
00000340: 905c 9cbe b9c8 873e f29c 033e 13e1 4e3e
00000350: e760 7ebe 2745 993d b390 043e 0a3e 963d
00000360: d240 abbd 5fe8 e4bc 613c 9b3d e6a5 8bbd
00000370: 7dd5 cabc 58a4 613e ca0d debd b925 073c
00000380: 7e02 82be 2697 133e 29cd 5b3e ac18 643d
00000390: 873f 7bbd b6d9 60bf adc4 4cbe 4364 c43d
000003a0: 25d2 903d 0187 6b3e 3802 823e 86c5 b23d
000003b0: d43a ef3c 8ece 483d 8860 bbbf 8adb d5ba
000003c0: badf 55bd 5bc5 40be a3f6 5f3d 9f9c ff3d
000003d0: e7d3 b5bf c7a9 4fbe 77c4 21be 9ed1 493d
000003e0: 956d 33be e6dd 8b3e ffb4 81be 737d 93bd
000003f0: bdec 773d 3430 8dbf f2ac 6bbb b251 0ebe

conv.0.bias f4 [16]
-0.019020442 0.08563187 -0.025521219 -0.058254823 -0.074832976 -0.31144136 0.21621501 -0.30769524
-0.21079767 -0.07428527 -0.3644665 -0.023552068 0.0056270543 0.097796105 -0.13149832 0.09953488
00000000: c2d0 9bbc c35f af3d e011 d1bc 9c9c 6ebd
00000010: 0842 99bd 3e75 9fbe 7867 5d3e 3b8a 9dbe
00000020: 58db 57be e022 98bd 5a9b babe 44f0 c0bc
00000030: 2763 b83b 5349 c83d 7fa7 06be f1d8 cb3d

conv.2.weight f4 [32, 16, 3, 3]
-0.055464886 0.12641932 -0.117094286 0.23011169 0.07459765 0.10427908 0.22585793 0.13994798
-0.06444724 0.16495924 0.022965243 -0.0774592 -0.138688 0.046595108 0.0009836446 0.082897685
-0.007025609 -0.187023 0.01039903 0.13752134 -0.14244129 -0.33136043 0.22612482 -0.84892654
-0.07843148 -0.058159556 0.079093106 0.055591334 -0.12259656 -0.14586756 0.024317205 -0.31073347
-0.14972353 -0.10032597 0.06356304 0.10454211 0.049849726 0.04398147 0.16915354 0.059998658
0.052893963 -0.29580107 0.20850581 -0.21467474 -0.13348696 0.32577553 0.089010835 -0.31828386
0.46026853 -0.2716306 -0.23953724 0.13703965 0.101648696 0.017804572 -0.27911577 -0.038936418
-0.35149813 0.06269385 -0.21373744 -0.055185188 -0.0036530788 0.1347445 0.10913511 0.105772644
-0.21851924 0.049351852 0.003965377 -0.1638021 0.20482801 0.09925002 -0.29978883 -0.4700197
-0.22584996 0.050804418 0.4513346 0.06640168 0.0132723125 0.25866225 0.067322515 0.14291582
-0.038620386 0.03294922 -0.33604744 0.22704627 -0.074727654 -0.16687232 -0.10524793 0.039352503
0.14516033 0.23735964 0.1676996 0.015887294 0.30824167 -0.06359519 -0.03622386 -0.30579892
0.13893728 0.14049436 -0.20994511 -0.06543247 -0.05586903 -0.27337968 -0.18667084 -0.06794576
-0.10384201 0.09633233 -0.15509337 -0.044800103 0.039159324 0.035098843 -0.056491878 -0.023184776
-0.26581663 -0.06155404 0.06399605 0.041129973 -0.08024992 -0.18888502 -0.64786464 0.12515675
-0.057001684 -0.1397402 -0.24968667 -0.6831382 0.16735241 0.07329528 0.16346498 -0.0322009
0.054801483 0.18122268 -0.11088472 -0.12993275 0.058323108 0.028795704 0.14490429 0.07579359
-0.019346192 0.079879925 0.14874403 0.15829843 -0.028127193 0.09795534 -0.37871253 0.05417866
-0.013428349 0.103296004 0.0072151236 0.09027882 -0.28288162 -0.082098715 -0.08961634 0.05705313
-0.03596995 0.061877858 0.098686695 -0.022188386 -2.4067166 0.037871514 0.051708736 -0.17072512
0.13273188 -0.086047634 -0.028097723 -0.00027171458 -0.019954816 0.13315819 0.09354548 0.081315406
0.024699751 0.11477212 -0.06299987 -0.070548944 -0.24652988 0.16577628 -0.18692473 0.1608091
-0.03323045 -0.33446527 -0.14379735 0.23383977 -0.25905198 -0.41620672 -0.5483741 -0.29243898
0.17838079 0.3356016 -0.035954226 0.017231511 -0.029390689 -0.086668186 -0.10787429 -0.048246775
0.0029058931 0.15678509 -0.3448443 -0.21837448 -0.3320529 -0.03195409 -0.012928522 -0.06330022
0.23118846 0.07031173 -0.16557875 -0.7418014 0.107369326 0.053200305 0.39881256 0.007485915
-0.029096738 -0.18208584 0.108410336 -0.1936313 -0.23294961 0.22700785 -0.18541221 0.02260566
0.020098353 0.06762691 -0.05189693 0.17520665 0.19422726 -0.47166073 0.20546359 0.23283456
0.16182579 0.20812766 0.021789737 0.05423642 0.081668064 0.19116049 -0.0031541984 0.12154916
-0.035530727 0.16768643 0.087098375 0.18042217 -0.43125597 -0.14645617 -0.104856424 0.17261136
-0.032086954 -0.24959312 0.20676176 0.029402861 0.27824712 -0.056743402 0.19485523 0.16144529
-0.12921987 0.14099565 0.006511232 -0.21538214 0.25056013 -0.058541328 0.13925779 0.109631926
00000000: 262f 63bd 1174 013e 21cf efbd 66a2 6b3e
00000010: a7c6 983d 4590 d53d 4d47 673e 864e 0f3e
00000020: eafc 83bd 13eb 283e 9b21 bc3c eea2 9ebd
00000030: 3a04 0ebe 83da 3e3d a3ed 803a 43c6 a93d
00000040: 1437 e6bb f582 3fbe b160 2a3c 65d2 0c3e
00000050: 21dc 11be 13a8 a9be 448d 673e 4053 59bf
00000060: afa0 a0bd b738 6ebd 91fb a13d bdb3 633d
00000070: e813 fbbd 4e5e 15be e034 c73c 7518 9fbe
00000080: 2051 19be b477 cdbd 572d 823d 2c1a d63d
00000090: 3a2f 4c3d ea25 343d 9636 2d3e 27c1 753d
000000a0: 57a7 583d 3d73 97be 8c82 553e b2d3 5bbe
000000b0: ceb0 08be 0dcc a63e 504b b63d 1af6 a2be
000000c0: 51a8 eb3e 2a13 8bbe 4049 75be 1f54 0c3e
000000d0: 312d d03d e5da 913c 43e8 8ebe cb7b 1fbd
000000e0: 90f7 b3be a265 803d fddd 5abe dd09 62bd
000000f0: 7e68 6fbb 76fa 093e 3b82 df3d 549f d83d
00000100: 82c3 5fbe 2b25 4a3d feef 813b bdbb 27be
00000110: 6fbe 513e 9843 cb3d ec7d 99be 6ca6 f0be
00000120: 3645 67be 4b18 503d 5415 e73e 9bfd 873d
00000130: 1d74 593c 616f 843e 63e0 893d 8658 123e
00000140: 6930 1ebd c3f5 063d 690e acbe d17e 683e
00000150: d00a 99bd 94e0 2abe 3a8c d7bd 1730 213d
00000160: e9a4 143e 680e 733e 72b9 2b3e 1226 823c
00000170: dad1 9d3e 323e 82bd 785f 14bd ad91 9cbe
00000180: 9345 0e3e c1dd 0f3e dafb 56be 7501 86bd
00000190: edd6 64bd 6cf8 8bbe a426 3fbe 2627 8bbd
000001a0: 1fab d4bd e249 c53d ccd0 1ebe 5080 37bd
000001b0: 8765 203d cec3 0f3d 0764 67bd 00ee bdbc
000001c0: 1e19 88be 1720 7cbd 5c10 833d e777 283d
000001d0: 125a a4bd 136b 41be 75da 25bf 1729 003e
000001e0: 997a 69bd 0e18 0fbe ddad 7fbe 25e2 2ebf
000001f0: 6e5e 2b3e d61b 963d 5d63 273e 17e5 03bd
00000200: 8577 603d 7092 393e 8717 e3bd 170d 05be
00000210: 36e4 6e3d f8e4 eb3c ca61 143e ab39 9b3d
00000220: e87b 9ebc 1698 a33d 5b50 183e fc18 223e
00000230: 006b e6bc cf9c c83d 9ce6 c1be 71ea 5d3d
00000240: 9402 5cbc db8c d33d d86c ec3b 1ae4 b83d
00000250: dcd5 90be 5f23 a8bd c688 b7bd 8bb0 693d
00000260: 3a55 13bd a373 7d3d 401c ca3d 6bc4 b5bc
00000270: a507 1ac0 291f 1b3d 8acc 533d 91d2 2ebe
00000280: deea 073e be39 b0bd 322d e6bc ea74 8eb9
00000290: 4878 a3bc 9f5a 083e c694 bf3d b188 a63d
000002a0: 2257 ca3c a50d eb3d 1306 81bd f77b 90bd
000002b0: 5472 7cbe 42c1 293e 3269 3fbe 24ab 243e
000002c0: a71c 08bd 083f abbe 9d3f 13be b173 6f3e
000002d0: 76a2 84be 0c19 d5be 3f62 0cbf 90ba 95be
000002e0: 74a9 363e f9d3 ab3e bd44 13bd 1929 8d3c
000002f0: bec4 f0bc 177f b1bd 32ed dcbd 699e 45bd
00000300: cc70 3e3b 458c 203e 6f8f b0be 8f9d 5fbe
00000310: d602 aabe 4be2 02bd 27d2 53bc 8ca3 81bd
00000320: abbc 6c3e 99ff 8f3d 7a8d 29be b2e6 3dbf
00000330: 73e4 db3d 90e8 593d 2931 cc3e 684c f53b
00000340: 485c eebc b674 3abe 3d06 de3d 4947 46be
00000350: 588a 6ebe bf74 683e b3dc 3dbe 812f b93c
00000360: 4da5 a43c fa7f 8a3d e091 54bd 5f69 333e
00000370: 83e3 463e 847d f1be 0c65 523e 2f6c 6e3e
00000380: a9b5 253e 6b1f 553e 6480 b23c 0227 5e3d
00000390: 9641 a73d 93bf 433e abb6 4ebb c4ee f83d
000003a0: ab88 11bd feb5 2b3e a260 b23d 97c0 383e
000003b0: 95cd dcbe 9bf8 15be f7be d6bd 08c1 303e
000003c0: 9c6d 03bd 5795 7fbe 5bb9 533e 45de f03c
000003d0: 6876 8e3e c56b 68bd 2188 473e ea51 253e
000003e0: 3752 04be 2a61 103e 2c5c d53b 238d 5cbe
000003f0: 6b49 803e 08c9 6fbd 9899 0e3e b486 e03d

conv.2.bias f4 [32]
0.15636425 -0.043295894 -0.22819564 -0.22404982 0.084106624 -0.12374649 0.12293479 -0.15392943
0.0053463527 -0.0705602 0.06267684 0.072277844 -0.09897386 0.0150263775 0.04532964 -0.09369422
0.11412804 0.03628639 0.06099892 -0.2354442 -0.058432322 0.15039313 -0.27632928 0.06551191
0.10622409 0.14721233 -0.0682712 0.027384454 0.118468925 0.06031597 -0.05259256 -0.060293652
00000000: f31d 203e 0957 31bd 1eac 69be 516d 65be
00000010: 1840 ac3d cd6e fdbd 3cc5 fb3d ad9f 1dbe
00000020: 7530 af3b de81 90bd b75c 803d 6806 943d
00000030: cfb2 cabd 3231 763c 93ab 393d c1e2 bfbd
00000040: f6bb e93d 0aa1 143d 01da 793d 4918 71be
00000050: bb56 6fbd a800 1a3e 087b 8dbe 1c2b 863d
00000060: 048c d93d d4be 163e c5d1 8bbd 5d55 e03c
00000070: d69f f23d e10d 773d 4c6b 57bd 7af6 76bd

conv.4.weight f4 [64, 32, 5, 5]
-0.0705801 -0.12165089 0.18239401 -0.09075626 -0.058305662 -0.13810162 -0.07939992 0.18373588
-0.199948 0.03576173 0.22586466 0.0259444 0.025291683 -0.26279962 -0.09268555 -0.44052133
0.079777 -0.13439745 0.37526253 -0.4040045 -0.0030836926 -0.07764977 -0.034992702 0.049033746
-0.16997887 -0.18911874 -0.34509405 0.19109154 0.2280272 -0.05396975 -0.28571096 0.09216266
-0.4395593 0.11138683 -0.08393639 0.18533362 -0.4695824 0.2284835 0.38648018 -0.62675256
-0.16069317 0.12512605 0.10392311 -0.16718891 0.15587346 -0.17393178 0.011317811 0.03930443
-0.1428553 0.06542599 -0.36053735 0.07126539 -0.085512176 -0.41860944 0.56059283 0.16790463
-0.10506585 -0.3913011 0.0923723 -0.4483805 -0.37225813 -0.01845205 -0.48856464 -0.25948647
-0.0794767 0.05710013 -0.04501204 0.51075506 0.06542275 -0.042756006 -0.038007226 0.066585004
0.2600698 0.010170503 -0.037398558 0.14303672 -0.003037771 -0.1641986 -0.06191823 -0.018250076
0.108117186 -0.027965665 -0.14570461 0.5160547 -0.16585065 -0.19591658 -0.02595647 -0.26315022
0.1929526 0.39246494 -0.05478339 0.26746222 -0.098463565 -0.26839533 0.22776157 0.26794335
0.1557407 -0.07654451 0.23399356 -0.06585569 0.14375529 -0.185054 -0.13035582 -0.122879714
-0.12617733 0.18526946 0.055827983 -0.13403489 -0.26219493 0.08654267 -0.017952258 0.24226917
0.12487763 0.3574448 0.13227901 -0.3075441 0.09653313 -0.10792612 0.14748085 0.21829966
0.08690617 -0.32303968 0.14549458 -0.16758487 0.268735 0.34206372 -0.058159254 0.11984072
-0.11504957 -0.023849955 0.07988903 -0.07394482 0.20332874 0.03345099 -0.28595716 -0.18543439
0.1049044 -0.024996897 0.32330495 -0.019023325 -0.42494538 -0.22358584 0.04189081 0.043124344
-0.12294763 -0.42463169 0.18567425 0.2218737 -0.015309967 -0.21503113 -0.4025758 0.30841637
-0.24801575 0.035197183 -0.1533118 -0.1373548 -0.3598975 -0.0046789977 -0.050925452 -0.15963972
-0.03979912 0.15535043 -0.32033888 0.055551764 0.42661202 0.10029439 -0.17125925 0.106302954
-0.5177022 0.3478791 0.20364287 -0.30641094 0.09678546 -0.17724133 0.024173679 -0.073954284
0.08101225 0.2728554 0.026401946 -0.022721838 -0.33483854 0.03854715 -0.016015213 -0.13073702
0.22363363 -0.27807608 0.20471895 -0.24577825 -0.34893256 -0.028535899 -0.45340136 -0.11650251
0.098848194 -0.09638991 0.0692563 -0.08855939 -0.089407735 -0.25711885 -0.045482855 0.054358013
-0.1317198 -0.04676513 -0.22558002 -0.4318374 -0.0016810858 0.5109044 0.090980664 -0.20932892
-0.031030733 -0.058391973 -0.06097337 -0.19312829 -0.061779186 -0.13933207 -0.015700575 -0.11180001
0.06744856 0.3082861 0.17311007 -0.16396831 -0.13525459 -0.32202643 0.022209106 0.13640743
-0.12262776 -0.110940404 -0.10163973 0.119613275 -0.015429056 0.019103713 -0.107955255 0.19343494
-0.18952079 0.4533512 -0.056843817 -0.2380302 -0.08429469 0.2906213 -0.2290217 -0.008006961
0.19464533 0.003783957 -0.042670026 0.18541306 -0.062375877 0.36230946 0.028961957 -0.1615141
-0.018199038 0.064976506 -0.28753865 0.17727987 -0.32096967 -0.085546955 0.16008426 0.12896532
00000000: 4d8c 90bd 1a24 f9bd 7fc5 3a3e 6bde b9bd
00000010: ebd1 6ebd 836a 0dbe 6d9c a2bd 4225 3c3e
00000020: 2bbf 4cbe e47a 123d 1149 673e 5a89 d43c
00000030: 8130 cf3c ac8d 86be ecd1 bdbd 038c e1be
00000040: 2062 a33d 7c9f 09be 6922 c03e aed9 cebe
00000050: c717 4abb d806 9fbd 8254 0fbd 9cd7 483d
00000060: f10e 2ebe 58a8 41be 2bb0 b0be 80ad 433e
00000070: f67f 693e 620f 5dbd b548 92be c7bf bc3d
00000080: eb0d e1be c71e e43d d8e6 abbd 19c8 3d3e
00000090: 1b6d f0be 94f7 693e bbe0 c53e db72 20bf
000000a0: c08c 24be 0b21 003e a4d5 d43d 9233 2bbe
000000b0: 4b9d 1f3e 2c1b 32be 576e 393c affd 203d
000000c0: a948 12be 10fe 853d 5a98 b8be 97f3 913d
000000d0: 0221 afbd fa53 d6be 0383 0f3f 31ef 2b3e
000000e0: c42c d7bd 9e58 c8be b02d bd3d 2192 e5be
000000f0: 9e98 bebe c128 97bc 2525 fabe 69db 84be
00000100: aec4 a2bd d3e1 693d 8b5e 38bd d8c0 023f
00000110: 5dfc 853d ec20 2fbd 77ad 1bbd b85d 883d
00000120: de27 853e 2ea2 263c 3b2f 19bd 3878 123e
00000130: 5715 47bb ae23 28be f89d 7dbd 2f81 95bc
00000140: 8b6c dd3d 4018 e5bc 9733 15be 291c 043f
00000150: c1d4 29be 5b9e 48be aaa2 d4bc a0bb 86be
00000160: 5e95 453e 2af1 c83e 8c64 60bd cff0 883e
00000170: 44a7 c9bd 1d6b 89be 543a 693e df2f 893e
00000180: 7d7a 1f3e 5ec3 9cbd 029c 6f3e 59df 86bd
00000190: 9634 133e cc7e 3dbe ff7b 05be 5ca8 fbbd
000001a0: a134 01be 47b7 3d3e e2ab 643d 7140 09be
000001b0: 6a3e 86be 493d b13d 9d10 93bc 6915 783e
000001c0: d8bf ff3d 0103 b73e 2674 073e 6c76 9dbe
000001d0: 29b3 c53d 5f08 ddbd 3805 173e f289 5f3e
000001e0: ddfb b13d 7565 a5be 88fc 143e 5e9b 2bbe
000001f0: a297 893e fa22 af3e 6638 6ebd 0d6f f53d
00000200: 1c9f ebbd fb60 c3bc dc9c a33d 6270 97bd
00000210: 6935 503e e803 093d fa68 92be 83e2 3dbe
00000220: 1ed8 d63d 4bc6 ccbc 3a88 a53e ced6 9bbc
00000230: 7192 d9be b0f3 64be b395 2b3d 27a3 303d
00000240: f8cb fbbd 5369 d9be 6421 3e3e dc32 633e
00000250: a8d6 7abc 1f31 5cbe 6a1e cebe c0e8 9d3e
00000260: d7f7 7dbe ec2a 103d c5fd 1cbe bda6 0cbe
00000270: 7c44 b8be 4752 99bb 3597 50bd 9878 23be
00000280: 6704 23bd 2f14 1f3e 7503 a4be 3f8a 633d
00000290: e46c da3e 2567 cd3d 965e 2fbe 5db5 d93d
000002a0: 2288 04bf 361d b23e c287 503e e5e1 9cbe
000002b0: 7537 c63d c07e 35be e107 c63c 5875 97bd
000002c0: c0e9 a53d b4b3 8b3e e548 d83c 2623 babc
000002d0: f56f abbe 9ee3 1d3d 5632 83bc eddf 05be
000002e0: 3700 653e fd5f 8ebe d8a1 513e 4bad 7bbe
000002f0: 4aa7 b2be 1ec4 e9bc 3924 e8be de98 eebd
00000300: ec70 ca3d 1368 c5bd 3fd6 8d3d a05e b5bd
00000310: 671b b7bd 15a5 83be 3b4c 3abd 82a6 5e3d
00000320: 8ee1 06be cb8c 3fbd 73fe 66be cb19 ddbe
00000330: e157 dcba a1ca 023f 1254 ba3d 525a 56be
00000340: 2a34 febc 6c2c 6fbd 36bf 79bd 6cc3 45be
00000350: 2c0c 7dbd 11ad 0ebe 7e9e 80bc 67f7 e4bd
00000360: 7822 8a3d add7 9d3e c443 313e 4fe7 27be
00000370: 2e80 0abe a6e0 a4be dfef b53c 64ae 0b3e
00000380: 4324 fbbd b934 e3bd 7e28 d0bd cef7 f43d
00000390: 27ca 7cbc 647f 9c3c a517 ddbd cf13 463e
000003a0: bd11 42be a61d e83e 10d5 68bd 30be 73be
000003b0: b2a2 acbd 51cc 943e aa84 6abe a12f 03bc
000003c0: 1b51 473e 44fc 773b c4c6 2ebd ecdc 3d3e
000003d0: d97d 7fbd a080 b93e a041 ed3c f463 25be
000003e0: 2616 95bc 6712 853d 4438 93be db88 353e
000003f0: 2356 a4be 3e33 afbd 21ed 233e 7c0f 043e

conv.4.bias f4 [64]
-0.11078462 -0.100767836 0.03238748 0.0034815385 -0.0876118 -0.20431435 -0.039222885 -0.049756415
0.19995476 -0.014476012 0.108364545 -0.048658684 0.0076723574 -0.037107088 -0.053563245 -0.061575137
-0.022608124 0.008960713 0.10552414 -0.07579915 0.18340231 -0.053863633 -0.03733564 -0.15495136
-0.13211755 0.3284763 -0.052777626 0.10972106 -0.02372092 -0.031081447 -0.03944383 0.005756282
-0.07588982 -0.012999068 -0.009865619 0.23154764 0.13057625 0.118774705 -0.07201676 -0.05088223
0.13344897 -0.03729359 -0.051018503 -0.038507696 -0.040443163 -0.03673195 0.03879844 0.3169181
-0.039750334 -0.015811734 0.024421383 0.014893382 0.26484302 0.2770665 -0.08141076 0.0767877
0.15091985 -0.08438681 -0.008151523 -0.16327764 0.36437154 0.061981764 -0.1300044 0.17616394
00000000: 0ce3 e2bd 5e5f cebd bca8 043d 862a 643b
00000010: d16d b3bd c837 51be 2da8 20bd 62cd 4bbd
00000020: f1c0 4c3e cc2c 6dbc 3bee dd3d 544e 47bd
00000030: 6668 fb3b 9afd 17bd 2265 5bbd 3636 7cbd
00000040: ac34 b9bc f4cf 123c 0a1d d83d 963c 9bbd
00000050: d1cd 3b3e 1da0 5cbd 42ed 18bd 92ab 1ebe
00000060: d349 07be 0c2e a83e 5a2d 58bd 6fb5 e03d
00000070: 6052 c2bc 859e febc da8f 21bd 319f bc3b
00000080: 1f6c 9bbd 0bfa 54bc 68a3 21bc d31a 6d3e
00000090: c8b5 053e 2740 f33d 867d 93bd e369 50bd
000000a0: d9a6 083e 2ac1 18bd c7f8 50bd 3fba 1dbd
000000b0: bba7 25bd 3e74 16bd 1deb 1e3d 1743 a23e
000000c0: 3fd1 22bd 9c87 81bc 5a0f c83c 5f03 743c
000000d0: 8199 873e a9db 8d3e afba a6bd df42 9d3d
000000e0: bc8a 1a3e fed2 acbd f78d 05bc 4132 27be
000000f0: e88e ba3e 97e0 7d3d e01f 05be 5264 343e

conv.7.weight f4 [64, 256]
-0.044654515 -0.069953635 0.023158032 0.017174467 0.029198108 -0.04856284 0.041057102 -0.06815597
-0.005415908 -0.053328425 0.027969036 -0.012859401 -0.061445944 0.031240284 0.0076227263 0.039905697
-0.0141301425 0.039311733 0.0014005792 -0.064841345 -0.0006486537 0.005878964 0.008783588 -0.048710052
0.02225402 0.036468565 -0.04809864 0.015289672 0.013958044 -0.048098683 -0.02349525 -0.013261728
-0.046375312 -0.026359959 -0.04277242 -0.041005522 0.018178606 -0.05581508 -0.024609767 0.00896222
-0.014154243 -0.021616478 -0.08595032 -0.008133339 0.023385204 0.01643245 0.031449907 -0.028983623
-0.017767299 0.005582091 0.018170238 0.04966384 -0.05326198 0.04536473 0.009349339 -0.035593122
-0.043577198 -0.059823077 -0.053729787 0.04354391 -0.018430134 -0.037150368 0.0008796584 -0.028610386
-0.0520972 -0.02213984 -0.0012932792 0.03904041 -0.07212652 -0.018863065 0.031157533 -0.065414585
0.03167716 0.023047116 -0.021294858 -0.00013949722 -0.024029752 -0.0060606776 0.012348583 -0.044010803
-0.011321391 -0.09283748 -0.076895565 0.03187655 -0.022349887 0.039835945 -0.010068841 -0.04441767
-0.053775974 0.01720865 0.002624005 -0.054284424 0.045761928 0.032037243 -0.049148455 -0.0424341
0.002579333 -0.03524851 -0.022962792 -0.07968549 -0.052881137 -0.049753662 0.026424058 -0.06626357
0.022026405 0.06029635 0.02451323 -0.010968484 -0.012557566 -0.029873392 -0.030595586 -0.037466347
0.044183113 0.013102606 0.0009892434 0.019962437 -0.027340073 0.0034442772 0.018481914 -0.0071182246
-0.0032995641 0.0030834302 0.04318142 -0.020995997 0.021933747 -0.04100422 -0.00656222 -0.025075223
-0.016599031 0.022287497 0.030111555 0.036837608 0.049648166 0.029374532 -0.0065170303 -0.056735493
-0.061799735 -0.037049644 -0.012369886 0.0033572912 -0.04087987 -0.051768363 -0.0030600582 0.0014218001
-0.02214894 -0.02680716 0.02492848 -0.038339637 -0.04297161 -0.07130922 0.025134232 -0.014866965
-0.011671469 0.02111689 -0.047851495 -0.05065212 -0.042151324 -0.036924087 0.025280185 0.0024833381
-0.042087313 0.006888457 -0.020636281 0.010404047 0.026587915 -0.013850749 -0.015320711 -0.06320259
0.0056919605 0.039817743 0.004320152 0.008239262 0.0158903 -0.046421707 -0.027263507 0.035569467
0.051254872 -0.052751068 0.009172274 -0.010722811 0.05339361 0.06099207 0.023276396 -0.032528996
-0.031471577 -0.005895297 0.034461353 -0.02685123 0.021029528 0.02580062 -0.06956728 -0.055153657
0.03441733 0.036424227 -0.039166927 -0.0064357594 0.03720863 -0.02337978 -0.046880946 0.009724557
-0.013589652 -0.05572708 -0.06222001 -0.06247253 -0.062062673 -0.030982502 0.03273181 0.057922438
-0.0071157236 -0.049823932 -0.032552 -0.046669118 0.025763541 -0.018163053 0.032719865 -0.023636213
-0.03876624 -0.0207365 -0.033103887 -0.03312613 -0.015038405 -0.02476888 0.018546881 -0.087407485
0.033447362 0.024761083 0.052190125 -0.055460837 -0.05804511 -0.06920304 -0.059648674 0.014364651
-0.06503364 -0.0315039 0.021934692 -0.061700307 -0.061806973 -0.042980563 -0.0058124918 -0.022214405
-0.00434686 0.023824431 0.011575937 0.0034570936 0.005250415 -0.00705354 -0.00466949 -0.053139012
-0.0028160182 -0.03787726 -0.056479767 0.036071308 -0.00086366385 -0.056249198 -0.0075039547 0.011015949
00000000: a7e7 36bd da43 8fbd eab5 bd3c 78b1 8c3c
00000010: df30 ef3c d4e9 46bd 7e2b 283d 5b95 8bbd
00000020: ee77 b1bb e86e 5abd 521f e53c 3db0 52bc
00000030: beae 7bbd a0eb ff3c 10c8 f93b 2874 233d
00000040: 1d82 67bc 5705 213d a493 b73a 8acb 84bd
00000050: 6a0a 2aba 53a4 c03b 0ae9 0f3c 3184 47bd
00000060: 104e b63c 1060 153d 1403 45bd 8881 7a3c
00000070: 48b0 643c 2003 45bd 1c79 c0bc b847 59bc
00000080: 0af4 3dbd d7f0 d7bc 2232 2fbd 68f5 27bd
00000090: 4deb 943c 5a9e 64bd 6c9a c9bc 46d6 123c
000000a0: 33e7 67bc 0a15 b1bc b906 b0bd b241 05bc
000000b0: 5492 bf3c 589d 863c 9ed1 003d 106f edbc
000000c0: ba8c 91bc f9e9 b63b c0d9 943c 506c 4b3d
000000d0: 3c29 5abd 5ed0 393d f82d 193c 18ca 11bd
000000e0: 017e 32bd 0b09 75bd c413 5cbd 195b 323d
000000f0: cbfa 96bc fc2a 18bd e098 663a 5460 eabc
00000100: e063 55bd 9c5e b5bc 4083 a9ba d6e8 1f3d
00000110: 12b7 93bd b786 9abc 153e ff3c 15f8 85bd
00000120: e9bf 013d 4ecd bc3c 8e72 aebc 0046 12b9
00000130: 0bda c4bc a698 c6bb b651 4a3c ac44 34bd
00000140: 5b7d 39bc 9421 bebd 6c7b 9dbd fc90 023d
00000150: 1c17 b7bc 042b 233d c8f7 24bc 4eef 35bd
00000160: 3244 5cbd 28f9 8c3c 80f7 2b3b 5859 5ebd
00000170: dc70 3b3d 7c39 033d e44f 49bd 61cf 2dbd
00000180: 070a 293b be60 10bd 771c bcbc 2532 a3bd
00000190: e499 58bd 7fca 4bbd 4477 d83c 32b5 87bd
000001a0: b870 b43c 4ef9 763d f8cf c83c 28b5 33bc
000001b0: 40be 4dbc 0bb9 f4bc 98a3 fabc 5076 19bd
000001c0: 5af9 343d 50ac 563c 80a9 813a 4488 a33c
000001d0: 4af8 dfbc 62b9 613b 6267 973c ff3f e9bb
000001e0: 803d 58bb 6013 4a3b 00df 303d ccff abbc
000001f0: 67ae b33c 0af4 27bd e407 d7bb 8e6a cdbc
00000200: b1fa 87bc 4594 b63c 82ac f63c 08e3 163d
00000210: e05b 4b3d dca2 f03c d08c d5bb 7a63 68bd
00000220: b821 7dbd 5ec1 17bd 10ab 4abc 0006 5c3b
00000230: a771 27bd 100b 54bd 428b 48bb b25b ba3a
00000240: b271 b5bc b09a dbbc d036 cc3c 060a 1dbd
00000250: 0003 30bd 910a 92bd 4ee6 cd3c 9294 73bc
00000260: b039 3fbc 54fd ac3c eeff 43bd 9978 4fbd
00000270: dea6 2cbd b63d 17bd 6418 cf3c 80bf 223b
00000280: bf63 2cbd 91b8 e13b 6b0d a9bc bc75 2a3c
00000290: e6ce d93c 40ee 62bc b803 7bbc 5c70 81bd
000002a0: a083 ba3b ee17 233d 1090 8d3b f8fd 063c
000002b0: 602c 823c b024 3ebd b857 dfbc 4ab1 113d
000002c0: a1f0 513d 8111 58bd 4e47 163c bbae 2fbc
000002d0: 42b3 5a3d d2d2 793d 24ae be3c 203d 05bd
000002e0: 57e8 00bd 562d c1bb 5927 0d3d 1cf7 dbbc
000002f0: 1e46 ac3c d25b d33c 4a79 8ebd cde8 61bd
00000300: 30f9 0c3d 9231 153d 806d 20bd 10e3 d2bb
00000310: 1468 183d f486 bfbc 3c06 40bd c053 1f3c
00000320: 22a7 5ebc 1442 64bd 69da 7ebd 32e3 7fbd
00000330: 6e35 7ebd 04cf fdbc ca11 063d 1440 6d3d
00000340: 042b e9bb 2e14 4cbd 3f55 05bd 1e28 3fbd
00000350: 100e d33c afca 94bc 4405 063d bba0 c1bc
00000360: 59c9 1ebd 98df a9bc f197 07bd 44af 07bd
00000370: a463 76bc 1be8 cabc a1ef 973c b202 b3bd
00000380: 1a00 093d c1d7 ca3c 50c5 553d e72a 63bd
00000390: b6c0 6dbd 53ba 8dbd 2b52 74bd b759 6b3c
000003a0: 5b30 85bd 3c0a 01bd 62b0 b33c 76b9 7cbd
000003b0: 4f29 7dbd 630c 30bd b776 bebb fcfa b5bc
000003c0: 1b70 8ebb 742b c33c 00a9 3d3c 6890 623b
000003d0: ac0b ac3b 6221 e7bb 8502 99bb 4ba8 59bd
000003e0: f28c 38bb 3025 1bbd 5457 67bd 82bf 133d
000003f0: 8067 62ba 8f65 66bd bce3 f5bb 3d7c 343c

conv.7.bias f4 [64]
-0.059459545 0.41003084 0.27069777 0.3766856 0.4817953 0.42577755 -0.2205143 0.19958796
0.002775371 0.30644396 -0.1371096 0.13552015 0.3858348 0.40523273 0.55901474 -0.3576145
0.2118558 0.3133228 0.73041207 0.15067726 0.09339012 0.12311642 0.33582374 0.3475997
0.077669315 -0.019254507 -0.110742584 0.012975818 0.15150341 -0.09940342 0.27111897 -0.10922094
-0.20240436 0.22589199 -0.019333968 -0.16771801 0.116411865 -0.13796853 0.03612433 0.077439964
0.11325197 0.10154784 -0.048980515 0.12268863 0.2888633 0.15558183 0.18800749 0.21390387
0.15944785 0.2122802 -0.22153904 0.06530228 0.13514629 -0.07856544 0.25445965 -0.29598638
-0.020205194 -0.2765486 0.48013437 0.0039210483 0.44398513 -0.19315533 0.33723176 0.16982499
00000000: da8b 73bd 90ef d13e e698 8a3e efdc c03e
00000010: e0ad f63e 84ff d93e 80ce 61be c960 4c3e
00000020: 00e3 353b 39e6 9c3e 7566 0cbe cbc5 0a3e
00000030: 248c c53e aa7a cf3e 971b 0f3f 3f19 b7be
00000040: baf0 583e d96b a03e 49fc 3a3f 244b 1a3e
00000050: 5243 bf3d 7624 fc3d 17f1 ab3e 96f8 b13e
00000060: 1711 9f3d a1bb 9dbc 02cd e2bd 8698 543c
00000070: b623 1b3e 0594 cbbd 1bd0 8a3e 3aaf dfbd
00000080: 1743 4fbe 3b50 673e 4562 9ebc 45be 2bbe
00000090: 5869 ee3d 9f47 0dbe 1bf7 133d d898 9e3d
000000a0: a6f0 e73d 50f8 cf3d cb9f 48bd 2d44 fb3d
000000b0: e4e5 933e d850 1f3e 0985 403e 9e09 5b3e
000000c0: 4c46 233e fb5f 593e 21db 62be 34bd 853d
000000d0: ca63 0a3e ebe6 a0bd 8948 823e 878b 97be
000000e0: 5d85 a5bc c797 8dbe 2cd4 f53e 237c 803b
000000f0: 0552 e33e 83ca 45be a4a9 ac3e 9ae6 2d3e

out.weight f4 [4, 64]
0.09323295 0.50537163 -0.0071879225 0.24990848 0.30189484 0.094373725 -0.03730377 0.27079538
-0.060757376 0.17112216 0.13196664 0.15632528 0.22791907 -0.002609271 0.04509603 0.007675563
-0.661928 0.070745654 0.43042096 0.107329205 0.01460574 -0.013155493 0.25501102 0.025151849
-0.1687366 -0.025741862 0.4174716 0.1102141 0.08842482 -0.025017278 0.1249364 -0.07542852
-0.112760656 0.14996448 0.031847544 -0.1667556 0.2688204 -0.7733382 -0.07015318 -0.21664582
0.16822593 0.16208677 0.050607212 -0.05101662 -1.437482 -1.3777052 -0.103088275 -1.3936353
-0.7776235 0.015291002 0.0893781 -0.024677424 -0.24691418 0.03138422 -0.1726388 2.838562
0.12924427 0.037491865 0.15112698 -0.4554382 0.07130164 0.0087145725 0.50382864 -0.16462003
-0.0787984 0.10573354 0.22862685 -0.040131006 0.4076386 0.29999325 0.14778265 -0.09560502
-1.0713063 0.37701663 0.16129713 0.2402812 0.2465822 0.17377967 0.18041082 0.0011496255
-0.015183745 0.09507134 0.48824224 -1.542528 -0.10641667 0.2944501 0.19733657 0.006151406
-1.1601154 -0.07372139 -0.041214768 0.21078113 -1.5546347 -0.07532753 -0.022965003 0.17195168
-0.13527147 0.31505948 -0.021007773 -0.051166095 0.01802987 0.0023730719 -0.25563875 -0.03143921
-0.019390535 -0.11218547 0.092057385 -0.18580711 0.14293334 -0.092584595 -0.3107331 0.09542031
-0.16967323 0.10169153 -0.15633106 0.30945605 0.090116695 -0.010935752 0.12481675 -0.2086729
-0.06656796 -0.2012702 0.02287894 0.21126537 0.25139648 0.08215488 0.024741948 -0.08526325
0.07315206 0.07652953 -0.93154806 -0.033640817 0.031997554 0.042767342 -0.22552511 -0.076031744
0.15928242 0.047146346 -0.1567462 0.28827628 0.2063515 0.18389192 0.07217957 -0.44759944
0.060321677 0.40827978 0.5506773 0.092417434 -0.0063340873 -0.0058261636 0.33585122 0.0587384
-0.055060085 -1.0498726 -0.16999584 -0.16785699 -0.15791528 0.3460824 0.2729117 0.0850606
-0.0867866 0.10500322 0.061427783 2.445827 0.055672083 0.028822256 -0.060546547 -0.08787245
-0.17116761 -1.7854525 -0.05667378 0.04177955 -0.023587825 0.071435414 -0.13747865 -0.10462892
0.090238854 -1.9339681 0.5985176 -0.25941387 0.105486445 -0.02418722 0.28654948 -0.13199243
0.17647463 2.9494336 0.41609105 -0.060208775 0.46378374 -0.12934397 0.03242357 -1.2340534
0.059488334 0.012386364 -0.004583628 0.15770401 0.17144355 0.10685051 -0.3743513 0.24834006
-0.16675943 0.12513758 0.1483942 -0.061988242 0.21626858 0.18695559 0.47970262 0.032037955
-0.06706744 0.11470033 0.4324086 0.14700435 0.2729163 -0.9674725 0.30053043 0.42408037
0.0049988665 -0.20494124 0.11009407 0.22241735 -0.06623149 -0.18636514 -1.3411599 -0.18582392
2.0953119 -0.30321583 0.09577952 -0.08672776 0.42324975 0.105411366 0.107128315 -1.0318929
-1.2462268 -0.047355328 -0.12062065 -1.1141821 0.15932061 -0.09411366 -0.21847522 -0.07455628
0.06891976 0.10002379 -0.038152713 0.29815185 0.17537281 0.0042648287 0.019628305 -0.1935297
0.20546424 -0.088458896 0.11656224 0.023688836 0.105174854 0.5131574 0.006891999 0.16072468
00000000: ebf0 be3d 0960 013f aa88 ebbb 02e8 7f3e
00000010: f691 9a3e 0347 c13d d7cb 18bd b1a5 8a3e
00000020: badc 78bd a63a 2f3e 4322 073e bc13 203e
00000030: 9e63 693e 4e00 2bbb 9db6 383d 4a83 fb3b
00000040: 1d74 29bf 19e3 903d 2360 dc3e 6acf db3d
00000050: ea4c 6f3c 238a 57bc ce90 823e 400b ce3c
00000060: 4ac9 2cbe 99e0 d2bc d6be d53e eeb7 e13d
00000070: 1218 b53d 09f1 ccbc a8de ff3d 457a 9abd
00000080: 0fef e6bd 4a90 193e 9272 023d fbc1 2abe
00000090: d4a2 893e 7ef9 45bf 78ac 8fbd 67d8 5dbe
000000a0: 6b43 2c3e 13fa 253e 8249 4f3d cef6 50bd
000000b0: 69ff b7bf a558 b0bf f21f d3bd a462 b2bf
000000c0: 5512 47bf 1c87 7a3c de0b b73d 4f28 cabc
000000d0: 12d7 7cbe bd8c 003d 3ac8 30be 00ab 3540
000000e0: 9c58 043e 1291 193d 08c1 1a3e 322f e9be
000000f0: 9806 923d 91c7 0e3c eafa 003f 2792 28be
00000100: 0e61 a1bd d48a d83d 281d 6a3e 6960 24bd
00000110: 02b6 d03e b798 993e 5654 173e 91cc c3bd
00000120: 9120 89bf 5308 c13e 132b 253e 460c 763e
00000130: 0b80 7c3e 4cf3 313e 9dbd 383e 08af 963a
00000140: 3ec5 78bc c3b4 c23d e3fa f93e 8f71 c5bf
00000150: fcf0 d9bd 2ac2 963e 9912 4a3e bc91 c93b
00000160: a97e 94bf 3dfb 96bd d1d0 28bd 02d7 573e
00000170: 45fe c6bf 5245 9abd 1a21 bcbc 1a14 303e
00000180: 9b84 0abe 7a4f a13e 7e18 acbc 8a93 51bd
00000190: 61b3 933c 8a85 1b3b 15e3 82be 67c6 00bd
000001a0: e6d8 9ebc 7fc1 e5bd 9588 bc3d 3844 3ebe
000001b0: 1e5d 123e fe9c bdbd 6918 9fbe b96b c33d
000001c0: d2be 2dbe a643 d03d 4015 20be 0671 9e3e
000001d0: 1a8f b83d de2b 33bc ed9f ff3d 59ae 55be
000001e0: c854 88bd c619 4ebe 9d6c bb3c f355 583e
000001f0: 0ab7 803e d140 a83d a0af ca3c 809e aebd
00000200: bfd0 953d 84bb 9c3d ef79 6ebf f4ca 09bd
00000210: de0f 033d cf2c 2f3d 0ef0 66be 88b6 9bbd
00000220: ee1a 233e 871c 413d 1382 20be f398 933e
00000230: cf4d 533e 2a4e 3c3e e2d2 933d c12b e5be
00000240: dd13 773d 0c0a d13e 30f9 0c3f 5a45 bd3d
00000250: 2d8e cfbb 67e9 bebb b1f4 ab3e ad97 703d
00000260: af86 61bd 3a62 86bf 6413 2ebe b4e2 2bbe
00000270: 8bb4 21be b631 b13e 15bb 8b3e 4034 ae3d
00000280: 2cbd b1bd ee0b d73d b39b 7b3d 6e88 1c40
00000290: 6908 643d a71c ec3c a8ff 77bd 79f6 b3bd
000002a0: 9046 2fbe b589 e4bf c422 68bd 0921 2b3d
000002b0: 413b c1bc bb4c 923d 34c7 0cbe b047 d6bd
000002c0: 26cf b83d 448c f7bf 7338 193f e5d1 84be
000002d0: 4709 d83d 4724 c6bc 9db6 923e 0629 07be
000002e0: c4b5 343e 85c3 3c40 e309 d53e 7a9d 76bd
000002f0: 1075 ed3e bf72 04be 94ce 043d 76f5 9dbf
00000300: 0aaa 733d 2df0 4a3c 4232 96bb 297d 213e
00000310: e68e 2f3e 71d4 da3d f9aa bfbe db4c 7e3e
00000320: fcc2 2abe 1124 003e a6f4 173e 62e7 7dbd
00000330: 8375 5d3e 4971 3f3e 959b f53e 3b3a 033d
00000340: a75a 89bd 02e8 ea3d a964 dd3e 4f88 163e
00000350: afbb 8b3e 47ac 77bf 20df 993e 1021 d93e
00000360: 88cd a33b 1edc 51be 0079 e13d 60c1 633e
00000370: 60a4 87bd 81d6 3ebe 21ab abbf a048 3ebe
00000380: 9719 0640 1b3f 9bbe 0e28 c43d 539e b1bd
00000390: 31b4 d83e eae1 d73d 1766 db3d 1115 84bf
000003a0: 5c84 9fbf a9f7 41bd f607 f7bd 859d 8ebf
000003b0: f124 233e aabe c0bd f8b7 5fbe f7b0 98bd
000003c0: ce25 8d3d 46d9 cc3d 0546 1cbd 5ca7 983e
000003d0: ee94 333e fabf 8b3b 8acb a03c a62c 46be
000003e0: 3865 523e f029 b5bd 2fb8 ee3d 170f c23c
000003f0: ea65 d73d 495e 033f 47d6 e13b 0395 243e

out.bias f4 [4]
0.61755395 0.5662807 0.45776123 0.5214558
00000000: 0418 1e3f c6f7 103f ae5f ea3e 217e 053f
