models/v17.1/model_116500_target.pth (torch, 295191 bytes, 10 tensors)

conv.0.weight f4 [16, 2, 3, 3]
00000000: 2435 153e 35e3 823d f834 2abe de21 623e
00000010: 15e3 f2bd 7aac b73d 1939 95be 451e aa3e
00000020: 8a3b bb3d 638f 8cbd 2ff1 a33d 1714 67bd
00000030: 20b3 72bd 4b62 c33d 8143 0a3d 5720 01bd
00000040: 2d11 c63c fcf9 2abc 0a0b 1bbe f1f4 823e
00000050: e435 273d 3fde 5e3e f8f9 35be 71cd 703e
00000060: 3bfe 5abf 3adb fdbe b3b8 27be 2f62 80bf
00000070: 6758 133f 5cc5 9cbf d312 553e 7847 3abe
00000080: f87d 5e3e 1da7 18bd d3a1 c73c ffe7 063e
00000090: f25a 9c3b 92ee 673e 3d9c f13d f3ae b9bd
000000a0: 62c7 9b3e 2e14 78bd cd2e 9d3e 5f6d 2f3e
000000b0: b5eb 013e 4669 bd3d b15d e93d 6289 323c
000000c0: dbc2 993e 93e1 d8bd e920 b7bf c6fc a2bd
000000d0: 309b a3be 49c1 7d3d 0b42 b33b 19fc 403d
000000e0: 3d53 843d 0483 f63d 119d 003e 2e39 29bf
000000f0: 861b a2be a8eb a4be d4fc 3c3e c819 41bd
00000100: 7fdc 343d c20f 72bd bcc9 9b3e fe65 85bd
00000110: dc2b 37bf 6104 8bbe e114 bb3e c768 233e
00000120: 52f6 673e cfa1 fabd ba15 37be 76d8 97bf
00000130: fb58 5bbe 554b 083e 728a 0c3d 4d8a ff3e
00000140: d54e 99bf 57eb 87be 4bc9 803e 2627 51bf
00000150: 1a56 6e3e e931 62bc 4b05 4f3e 6f9c 533c
00000160: 07a1 33bd 52a0 d3b8 17f1 40bb d136 3dbe
00000170: fa38 d13e ba8f 853e 4d7b ffbd a035 b6bd
00000180: 6ba9 0c3f 4de1 d7be cc49 ac3e 8be0 55be
00000190: 3fdd eabd 5d49 a33d 813c 6e3c e901 d3be
000001a0: 7edb fbbd 0aea 5cbd beb3 06be b621 97be
000001b0: fac5 7fbf 8037 cfbc b7f9 ae3e bc0a 733e
000001c0: ce8a 493d c107 8cbf 47e9 84be 0dfc e83d
000001d0: 1658 19be 0969 d9bd b2ff 193d 096c 2cbe
000001e0: 3066 fb3d e6c6 843c 9b4e 623c bb8d 60bf
000001f0: a40a 74be 684b cfbd 4c3e 323e 2630 37be
00000200: 8a01 f13e e3f6 b2bd 9107 9c3e 7dfe a33d
00000210: 048c 0c3d 1760 bf3e c88a 6fbd eed7 cebf
00000220: c25e 6fbf 32b2 56bf 0cd8 b93d 8a7e 683d
00000230: 14a0 aabc d358 8fbe b99d 583e c219 37bd
00000240: 88eb f0bc 53dd 8f3d fbbc da3d 1b16 9a3e
00000250: 885f b23d 42f5 76be e5f7 173e fae2 a2be
00000260: 7520 a33c 8f38 bfbe bcfe f33e 90df e2be
00000270: 22a8 4e3d 4a57 803e 7b9b 863a 9999 98be
00000280: bf05 d73e 6595 6c3d 799b 113c 1554 e2bd
00000290: 0f27 283e caba 2e3d 855d 02be ff4e 9a3e
000002a0: b509 833e 3d97 7fbd 251b 56be ea63 99bc
000002b0: 0ef3 553e 4303 c1bd 856f cebf 4147 973b
000002c0: 8d82 50be 43a7 5a3e 05bb b23e 06e9 a2be
000002d0: fb4d ccbd 20c4 d23d 6295 423d 0ac3 03be
000002e0: 82ee 173d a64c d33d 5f4d dc3e 0fd8 a1be
000002f0: 2154 c4ba 093f 803d 6228 7fbe bb37 00be
00000300: 9057 183f 1bf3 713c d402 87bd 56d4 d63d
00000310: d436 983d 3ef4 fbbd 0bbe 7e3e e137 283e
00000320: 3b93 f6be 0728 94bd cb78 043e 3120 1d3e
00000330: 249a 91bf 127f 77be a966 8abd 7890 bcbf
00000340: fb3b a5be 4ff6 893e 6fd3 023e 53fc 503e
00000350: 6766 77be c1ac a63d 4774 fe3d 5bb1 933d
00000360: 8792 c0bd bbe1 c4bc cd52 993d 0e83 94bd
00000370: 8773 22bd b20a 5c3e d46b e2bd de0c 9b3c
00000380: 2a7a 81be a4a2 123e c0cf 623e 2aa1 7a3d
00000390: f2f2 83bd a35d 60bf f22e 4dbe 800a bc3d
000003a0: 1deb 8a3d c2a0 6d3e beb9 853e 2920 b13d
000003b0: a74e cc3c 186e 203d 36e7 bbbf 6f44 3abc
000003c0: 9d85 27bd 75bf 43be 878a 533d 94be 053e
000003d0: afb2 b3bf a717 3ebe 696d 23be ece8 3f3d
000003e0: 3aaa 35be f1c6 8c3e 0ed9 83be 95af a4bd
000003f0: 2da5 8a3d 8516 8dbf 5784 f13b 525d 03be
0.14571053 0.063909926 -0.16621768 0.22083232 -0.11859719 0.08968444 -0.29145125 0.3322622
0.091422155 -0.06863286 0.080049865 -0.056415644 -0.05925286 0.09540232 0.033755783 -0.031524982
0.024178112 -0.0104355775 -0.1514093 0.255775 0.04082288 0.21764468 -0.17771137 0.2351587
-0.85544175 -0.4958132 -0.16379051 -1.0029963 0.57556766 -1.2247729 0.20807962 -0.18191326
0.21727741 -0.037268747 0.024369156 0.13174437 0.0047715837 0.22649601 0.11797378 -0.09066572
0.30425555 -0.06056612 0.3069977 0.17131566 0.12687571 0.09248595 0.11394823 0.010897012
0.30031475 -0.105899 -1.4306918 -0.07958369 -0.31954336 0.06195191 0.0054705194 0.04711542
0.06461189 0.12036708 0.12559916 -0.66102874 -0.31661624 -0.3221104 0.18455821 -0.047143728
0.044155594 -0.05909706 0.3042735 -0.06513594 -0.715513 -0.27151778 0.36539367 0.15957938
0.22652557 -0.12237894 -0.17879382 -1.1862934 -0.21420662 0.13309987 0.03431172 0.49910203
-1.1977183 -0.26546738 0.25153574 -0.8170036 0.23275033 -0.013805845 0.20216863 0.012915715
-0.04385474 -0.00010091126 -0.0029440576 -0.18477942 0.40863782 0.26086217 -0.1247469 -0.08896947
0.5494601 -0.42164078 0.33650053 -0.20886438 -0.114679806 0.07972977 0.014540792 -0.41212395
-0.12297724 -0.053934135 -0.13154504 -0.29517907 -0.99911463 -0.02529502 0.34174892 0.23734564
0.04920464 -1.0939866 -0.25959226 0.113762 -0.14975008 -0.10615737 0.037597366 -0.16838087
0.1227535 0.016208123 0.013812686 -0.87716264 -0.23832184 -0.101218045 0.17406577 -0.17889461
0.47071487 -0.08738496 0.30474523 0.08007524 0.034313217 0.37377998 -0.05848196 -1.6159647
-0.93503964 -0.83865654 0.09074411 0.056761302 -0.020828284 -0.27997455 0.21153916 -0.0447023
-0.029409185 0.07024636 0.106805764 0.3009499 0.087096274 -0.24116996 0.14840658 -0.31813794
0.019912938 -0.37347838 0.47655284 -0.4431119 0.050453313 0.25066596 0.0010269725 -0.29804686
0.4199657 0.05775966 0.008887165 -0.110511936 0.1642115 0.042658605 -0.12730987 0.30138394
0.25593343 -0.06240009 -0.20908792 -0.0187244 0.208935 -0.0942445 -1.6127783 0.0046166484
-0.20362301 0.21352868 0.3490831 -0.31818408 -0.09975811 0.10291314 0.047505744 -0.1286737
0.037092693 0.10317354 0.4302778 -0.31610152 -0.0014978686 0.06262023 -0.24917749 -0.1252126
0.5950861 0.0147674335 -0.06592336 0.104897186 0.07432333 -0.12302445 0.24877183 0.16427566
-0.48159203 -0.07234197 0.12936704 0.15344311 -1.1375165 -0.24169567 -0.06757862 -1.4731588
-0.32272324 0.2694573 0.12775968 0.20408754 -0.24160157 0.08138419 0.12424522 0.07211562
-0.09402948 -0.024033418 0.07486496 -0.07251559 -0.039660957 0.21488455 -0.11055723 0.018927034
-0.25288516 0.14319855 0.22149563 0.061188854 -0.064428225 -0.8764288 -0.2003744 0.0918169
0.067831255 0.23205855 0.26118273 0.08648712 0.024939848 0.039167494 -1.4679935 -0.011368855
-0.040898908 -0.19116004 0.05164578 0.13060981 -1.4038905 -0.1856371 -0.15959705 0.04685299
-0.17740718 0.2749553 -0.25751537 -0.08041302 0.06769786 -1.1022497 0.0073705125 -0.12828568

conv.0.bias f4 [16]
00000000: 3aad c3bc cc5b bc3d df20 f7bc cfa9 5fbd
00000010: d7e1 9fbd 6f7d a1be 28fa 603e 3358 a2be
00000020: d172 5bbe 9d9a 89bd 0ae4 b7be d60a ebbc
00000030: 8777 223c 757c ca3d 965e 01be feed d03d
-0.023886312 0.09197196 -0.030167041 -0.0546053 -0.078067474 -0.3154101 0.21970427 -0.31707916
-0.21430518 -0.06718943 -0.35916167 -0.02869169 0.009916193 0.098870195 -0.12633738 0.102016434

conv.2.weight f4 [32, 16, 3, 3]
00000000: 9a64 84bd c5c2 0e3e 3ef8 f5bd 31a6 763e
00000010: 8781 743d aa4c d03d fb54 5c3e 92bb 113e
00000020: 6e07 97bd fa7f 2d3e d480 973b 078a 82bd
00000030: 906f 10be a6b5 383d 089d 263c 7db5 9a3d
00000040: 1228 bcbc 61d1 49be 7277 653c 3df3 0d3e
00000050: 3249 0cbe 8851 a8be 07f0 7a3e e0df 5bbf
00000060: 9845 8fbd 78cb 45bd a379 ad3d 128e 523d
00000070: 4b35 f1bd ea8a 17be 1e67 953c a1b1 9ebe
00000080: 8ab1 22be 6872 bcbd e38e 7d3d d678 fa3d
00000090: b209 663d 63e7 253d 7550 0f3e 2621 953d
000000a0: a55b 5f3d e532 9abe 9634 523e 572b 60be
000000b0: 4b34 01be 1cd7 b73e ad80 c53d 2a8d 9abe
000000c0: f546 e83e 0ad5 93be 52e1 85be addc 0b3e
000000d0: d438 d63d 5cfe d0bb 2a12 98be 22a8 1abd
000000e0: b5f1 b8be 628b 4a3d ca1c 61be 0d25 36bd
000000f0: d490 cc3b 18a4 193e 6ff1 b63d f2a0 d43d
00000100: c6a5 5cbe a0d0 5e3d 812b b1bb 0114 2cbe
00000110: 2917 613e 6c6a 043e cea6 a2be 467b f9be
00000120: 5c96 6abe 058e 093d b9ed eb3e d710 543d
00000130: e1c0 043c f31b 8c3e afe9 813d 051c 003e
00000140: d787 c7bc be86 4e3d 5827 aebe 5c11 663e
00000150: e639 b4bd b8a0 43be 9d35 cfbd c26a 0b3d
00000160: 7e28 253e 001f 723e 71ce 233e 2aa5 97bb
00000170: c59f 9b3e 17ad 83bd 359f a5bc c7eb 9ebe
00000180: 3879 0b3e 3ccd 083e c9bc 5cbe bb3b 6bbd
00000190: 6ce7 7ebd 0dc7 89be 982b 46be e36f 8ebd
000001a0: 0aa2 edbd b7a4 bc3d cb31 29be 6abe 3dbd
000001b0: a1ea f63c 38d2 c63c 5974 3bbd 983f 13bd
000001c0: 3df2 8ebe bfe9 88bd feca 913d b05c 173d
000001d0: 97e1 a1bd b230 42be 03a1 23bf 07b5 d73d
000001e0: 18c0 8cbd 1912 23be 251a 82be 7284 31bf
000001f0: f67f 2d3e fe7d 6b3d 5fd5 2b3e 2f44 b6bc
00000200: 1514 643d ed30 333e 8a67 f1bd 091b 0fbe
00000210: eceb 663d c869 c03c ed00 183e fe17 953d
00000220: 8966 93bc 721b a73d d15e 113e c9f8 1b3e
00000230: 4115 efbc 94ce c63d 279d c1be aa34 5f3d
00000240: c859 e33b 0a5a a13d b98d 283b 855c ac3d
00000250: e673 92be a832 81bd 7833 8abd a753 783d
00000260: c4b1 09bd d0c0 7f3d d87f a23d 6c9e bcbb
00000270: de0a 1bc0 177e 183d 4583 463d ae71 23be
00000280: a6b6 133e 9511 9ebd 6e00 11bd 4412 39bb
00000290: 6ad3 adbc 35c7 0b3e 9ac6 a93d 768c b13d
000002a0: 6a1a 223d 6e1e 0a3e 4b23 7dbd ceb7 c6bd
000002b0: 59c2 81be a431 303e 91f6 44be c41b 3d3e
000002c0: b5f8 bcbc 6efe a2be 055a 21be 30c4 5f3e
000002d0: 3ef0 87be df4e ccbe 6516 15bf e7aa 9fbe
000002e0: efc3 363e c803 a43e 3a43 24bd 0819 133d
000002f0: 2e66 febc d3d4 bbbd 2321 00be bbde 1ebd
00000300: c035 adb6 bb1a 213e b797 b5be fb2a 53be
00000310: 053d a6be 9067 bebc 87a0 4cbc 6ce8 8dbd
00000320: 8707 703e 15c9 3b3d 0fc5 32be 58c2 3bbf
00000330: 8f69 e53d 0828 2d3d 24a2 c93e f1b2 263c
00000340: 31c7 abbc 79e5 40be 80e4 c43d 4b47 6fbe
00000350: 64f4 6ebe abda 6b3e cce9 52be d1ea c63c
00000360: 2a44 b6bb 8d4c 833d 27e1 d3bc 67d2 3a3e
00000370: 0ce3 4b3e bab7 fdbe 8659 4d3e f461 5f3e
00000380: 9c11 2a3e b0fd 463e 1302 093d e843 603d
00000390: 9433 ad3d 4d0b 443e 22d7 00bc 9f9a d83d
000003a0: ca63 00bd bda1 1d3e eb36 c03d 2af6 3e3e
000003b0: 1c3a cdbe 7e23 08be 2f7e f2bd 23c5 363e
000003c0: a960 bcbc 4075 77be eaf7 563e 7d56 a23c
000003d0: 5ebc 8f3e 839d 4abd c160 3f3e 2718 193e
000003e0: 0536 f5bd 9aef 113e fabe e33c 9f23 4ebe
000003f0: 510d 863e 8d5c 4dbd 836a 183e c78b 033e
-0.06464501 0.13941486 -0.12010239 0.24086834 0.05969384 0.101708725 0.21516792 0.14231709
-0.07374464 0.1694335 0.004623512 -0.06373983 -0.14105058 0.04509511 0.010169275 0.075541474
-0.022968326 -0.19708778 0.014005529 0.1386232 -0.13699797 -0.32874703 0.24505626 -0.8588848
-0.06995696 -0.048289746 0.08470466 0.05140502 -0.11777743 -0.14799085 0.018237647 -0.30994895
-0.15888038 -0.09201509 0.061903846 0.12230079 0.05616159 0.04050387 0.13995536 0.07281713
0.05453076 -0.30116954 0.20527872 -0.21891533 -0.12617604 0.35906303 0.096436836 -0.30185825
0.45366636 -0.28873473 -0.26148468 0.136584 0.10460058 -0.0063779783 -0.29701358 -0.037758
-0.36121908 0.049449332 -0.21983638 -0.044468928 0.006242851 0.15004003 0.089327686 0.103822604
-0.21547613 0.05439818 -0.0054067974 -0.16804506 0.21981491 0.12931222 -0.31767887 -0.48726863
-0.2290892 0.033582706 0.46079805 0.051773872 0.008102627 0.27365074 0.063434 0.12510689
-0.024356766 0.05042147 -0.34014392 0.2246756 -0.08800106 -0.19104278 -0.10117648 0.03403736
0.16128728 0.23644638 0.1599672 -0.0046278434 0.30395332 -0.06429499 -0.020217517 -0.3103926
0.1362046 0.1335954 -0.21556391 -0.05743001 -0.06223242 -0.26909676 -0.19352567 -0.069549344
-0.11603172 0.09211104 -0.16522901 -0.04632417 0.030141177 0.024270162 -0.045765255 -0.03594932
-0.27919188 -0.066852085 0.07118796 0.036953628 -0.07904356 -0.18963888 -0.6391756 0.10532575
-0.068725765 -0.15924872 -0.25410572 -0.6934272 0.16943344 0.057493202 0.16780613 -0.02224931
0.055683214 0.17499132 -0.11787327 -0.13975157 0.056377336 0.02348794 0.14844103 0.07279967
-0.017993229 0.08159532 0.14196326 0.15231623 -0.02918494 0.097073704 -0.3781521 0.054493584
0.006938193 0.07878502 0.002571924 0.08416084 -0.28604048 -0.0630849 -0.06748098 0.060626652
-0.033616796 0.06243974 0.079345405 -0.00575619 -2.4225383 0.037229624 0.048465032 -0.15961334
0.14425144 -0.07718197 -0.0354008 -0.0028239647 -0.021218974 0.1365021 0.08289833 0.08669369
0.03957597 0.1348817 -0.061801236 -0.09703027 -0.25343588 0.17206436 -0.19234683 0.18467623
-0.023067812 -0.3183474 -0.15756996 0.21852183 -0.26550478 -0.39903924 -0.58237296 -0.31185076
0.1784818 0.32034135 -0.040103175 0.035912544 -0.031054582 -0.091714524 -0.1251264 -0.03878663
-5.162059e-06 0.15732853 -0.35467312 -0.20621864 -0.3246843 -0.023242742 -0.012489445 -0.069290966
0.23440371 0.045846064 -0.17457984 -0.7334342 0.11201774 0.042274505 0.39381516 0.010174499
-0.020969005 -0.18837537 0.096138954 -0.2336704 -0.23335415 0.23032634 -0.20596999 0.024281891
-0.005562325 0.06411085 -0.025864197 0.18244325 0.1991083 -0.49554235 0.20053682 0.2181471
0.1660828 0.19432712 0.033449244 0.05475226 0.08457103 0.19144936 -0.007863792 0.10576367
-0.031345166 0.1539373 0.09385475 0.18648592 -0.40083396 -0.13294789 -0.11840474 0.17848639
-0.02299531 -0.24165821 0.20993009 0.019816631 0.280734 -0.04946662 0.18689252 0.1495062
-0.11973194 0.14251557 0.027801026 -0.20130776 0.26182035 -0.05013709 0.14884381 0.1284629

conv.2.bias f4 [32]
00000000: a917 1e3e f6f0 1dbd e4f2 69be 2c0a 62be
00000010: 6627 ba3d 8ebc e4bd 4919 013e 50a5 14be
00000020: 2653 d639 6aae 99bd 6ac6 4d3d dbf4 993d
00000030: abb3 d9bd 6cc7 943c f0ce 1d3d 8a00 debd
00000040: b2ee e03d bf09 113d 118b 6c3d 12a3 71be
00000050: 40f9 74bd 4510 193e 245a 93be 2bb3 863d
00000060: 07f2 d53d 0c06 113e 3b57 93bd edcb 233d
00000070: 2044 f53d 9fbc 663d 978d 3bbd 9bda 8abd
0.15438713 -0.038559876 -0.22846562 -0.22074193 0.09089546 -0.111687765 0.12607302 -0.14516187
0.0004087921 -0.0750397 0.05023805 0.075174056 -0.10629972 0.018161498 0.03852743 -0.108399466
0.109830275 0.035409685 0.05774981 -0.23597363 -0.059808016 0.14947613 -0.2877971 0.06577142
0.10446554 0.14162463 -0.07194372 0.0399894 0.119758844 0.056332227 -0.045789327 -0.06779977

conv.4.weight f4 [64, 32, 5, 5]
00000000: fb6a 96bc 3215 c3bd 893a 333e 38be cfbd
00000010: 3a96 5bbd 2e0c f6bd 0ac1 bcbd 93f4 3b3e
00000020: 0496 23be 20a0 b93c f0f3 683e 43cf 2c3d
00000030: c43b 5d3d 4506 70be 254a bcbd 117e dfbe
00000040: fcbc b03d ecbb 09be b8be c63e a75b c3be
00000050: a37b bfbb be6c 86bd 6a35 22bd 8a66 383d
00000060: c3ff 3fbe 11a2 31be 77f7 bbbe dc61 483e
00000070: a3f3 5e3e 18c9 c9bd f231 93be 6b75 a53d
00000080: 6e2d e2be a584 be3d 3a41 96bd ea0a 533e
00000090: 3000 efbe 88c4 663e 74c4 bd3e 7e82 23bf
000000a0: fc7f 0abe b5a0 003e 6f36 9b3d 9b98 28be
000000b0: e449 443e e84c 27be 57a8 ad3c 6c22 353d
000000c0: 6e3f f1bd 1eb3 713d 87d5 a8be 18b1 aa3d
000000d0: 0064 b2bd 5875 dbbe 9b39 063f 94f3 343e
000000e0: 03ae f6bd 0d6f c2be c2b7 a43d 1db0 f5be
000000f0: 6a50 c0be 056b 0f3c acc6 f0be 28c1 89be
00000100: 499e a8bd f0de 943d c607 8cbc e41b 053f
00000110: fb6a 443d f4ba 8cbc 80e9 8fbc eda0 d83d
00000120: eba2 8a3e 9856 463d 81d9 b3bc eeee 0d3e
00000130: 6678 fabc c3a4 17be 84b2 89bd 0d59 393c
00000140: 2f92 fd3d 66d5 2ebc 582a 14be cfaa fd3e
00000150: 9df3 31be e546 59be 8cf4 e33b f1e1 86be
00000160: 9f25 483e edd7 cc3e 19da e2bc ca3d 853e
00000170: 8797 e5bd 3bbe 86be e6b6 553e a74f 903e
00000180: b63a 183e 19b7 babd 481c 863e 603c b5bd
00000190: 0666 2b3e 13fd 45be 8828 dbbd 1e1e fabd
000001a0: de17 0dbe 54cf 3c3e 056f 813d 96e7 eebd
000001b0: b857 7fbe 8fc2 873d bf64 85bc 41a0 8d3e
000001c0: 2669 0b3e 2b7b a53e df1e 1a3e b7d5 a8be
000001d0: dfa5 f63d 5db7 95bd 42c7 3e3e b4f6 453e
000001e0: 2f92 e43d 03ab a8be e101 083e 0db7 3cbe
000001f0: dae1 863e 347f c33e 827c 94bd b2ce 063e
00000200: 6fe7 a5bd ed14 04bd b1f3 933d ffe7 d9bd
00000210: 4ee9 653e 4bbc 9e3c 8804 94be 6dd8 55be
00000220: 8fe7 df3d 6af9 18bd ddb6 a33e a1fb 36bd
00000230: feb7 cebe bb49 41be 97b0 963d 834a 513d
00000240: f23d fdbd ca36 ccbe 7e0e 403e 92c6 543e
00000250: 1156 d4bc 1ace 58be 05a9 c2be 59c6 b83e
00000260: 26f5 5cbe 3cfe 0c3d fee8 20be c34c e8bd
00000270: f3a8 bcbe 3602 c83c 94d2 71bd c482 0bbe
00000280: bc79 11bd e3eb 223e 7c13 9fbe e4c6 ad3d
00000290: 40db dc3e 304f 013e 41b1 43be a15e da3d
000002a0: 3a71 05bf 8e6b ac3e 58dc 683e 6613 9fbe
000002b0: 8f40 c43d ae31 39be 855a 073d 8bb2 96bd
000002c0: 7159 dc3d 3d1b 9c3e c8f6 413d c63d 3cbc
000002d0: 47ec afbe 243c 123d 9a4c c0bc a524 1bbe
000002e0: 5c2e 663e 43df 87be 1dec 563e e9cd 5bbe
000002f0: 8037 a7be 65e5 cfbc 55c5 ebbe 5648 debd
00000300: 2406 e43d 422e a5bd 719e 7d3d 86ec 89bd
00000310: 5a23 00bd dfc2 83be 32ab 2ebb 88eb b13d
00000320: e1c3 dcbd d13e 0bbd d898 64be 5959 dabe
00000330: 5600 7fbc 9cda 043f 8a95 ba3d 8f99 60be
00000340: 45b3 7bbc 961d 4fbd 34db 7cbd 1223 51be
00000350: 7f7a 33bd d366 02be 550b b9bc 5875 a7bd
00000360: c8ea 893d 27d3 a93e ff73 4f3e 8329 34be
00000370: 147d 1dbe fdf5 a4be 88b6 453d 1643 0a3e
00000380: 4cf4 fbbd f0ef b3bd edc2 e3bd c147 d43d
00000390: baac 7fbc 6dc7 fe3c e49d c8bd 4617 4e3e
000003a0: 6df1 3dbe 20dd e23e 8400 8ebd 0d80 6cbe
000003b0: dc70 afbd dc49 8d3e 85b5 5cbe 135e 043c
000003c0: 1fde 5a3e b0e7 273c 59d9 cbbc 0374 4a3e
000003d0: 2730 72bd 1d99 bf3e 357c 233d 43bc 30be
000003e0: 52e3 d7bc 6278 8f3d 801a 8abe 4666 143e
000003f0: 31a0 9ebe 4a2d 97bd ec45 333e 58aa 1c3e
-0.01836156 -0.09525527 0.17502798 -0.10143703 -0.053610064 -0.12014042 -0.09216507 0.18355016
-0.15975195 0.022659361 0.22749305 0.042189848 0.054012075 -0.23439892 -0.091938294 -0.4365087
0.08629796 -0.13450593 0.38817382 -0.38155863 -0.005843596 -0.0656371 -0.03960172 0.045019664
-0.18749909 -0.1734698 -0.36712238 0.1956858 0.21772628 -0.09852809 -0.28749043 0.08079036
-0.44175285 0.09302644 -0.0733666 0.20609632 -0.4667983 0.22535908 0.37063944 -0.6387099
-0.13525385 0.12561305 0.07578742 -0.16464464 0.19168812 -0.16337931 0.021198435 0.04422228
-0.117796764 0.05900871 -0.32975408 0.08334559 -0.0871048 -0.42862964 0.5243165 0.17671043
-0.12044909 -0.3797535 0.080428615 -0.47985926 -0.3756135 0.008753543 -0.47026575 -0.2690518
-0.082333155 0.072690845 -0.01709355 0.5199568 0.047953587 -0.01717899 -0.017567396 0.10577569
0.27077422 0.048422426 -0.0219543 0.13860676 -0.030574989 -0.14808945 -0.06723502 0.011312735
0.12381398 -0.010670995 -0.14469278 0.4954438 -0.17378087 -0.2121845 0.0069566425 -0.26344255
0.19545601 0.40008488 -0.027691888 0.26023704 -0.11210542 -0.2631701 0.20870551 0.2818577
0.14866146 -0.09116954 0.26193452 -0.08849406 0.16738138 -0.19334821 -0.1070109 -0.12212776
-0.13778636 0.18438464 0.063200034 -0.11665265 -0.24935806 0.06628906 -0.016283391 0.27661327
0.1361433 0.32320532 0.15050839 -0.3297555 0.12043356 -0.073103644 0.18630698 0.19332391
0.11160695 -0.32942972 0.13281967 -0.18429203 0.26344186 0.38182986 -0.072503105 0.13164786
-0.08100783 -0.03224652 0.07224215 -0.10639953 0.2245228 0.019376894 -0.28909707 -0.20883341
0.10932838 -0.037347235 0.3197545 -0.044673566 -0.4037475 -0.18875782 0.073579006 0.05109645
-0.12365331 -0.3988555 0.18755528 0.20778874 -0.025919946 -0.21172372 -0.38019577 0.36088827
-0.21577892 0.034422144 -0.1571388 -0.11342766 -0.36847648 0.024415117 -0.059038714 -0.13624102
-0.035516486 0.15910296 -0.31069553 0.08485201 0.43136024 0.12627864 -0.19110586 0.1066258
-0.52125895 0.33675808 0.22740304 -0.31069487 0.09582626 -0.18085358 0.03304531 -0.07358273
0.10759247 0.3048953 0.04735449 -0.011489337 -0.34359953 0.035701886 -0.023474026 -0.15150698
0.22478622 -0.26537523 0.20988508 -0.21465267 -0.3265953 -0.025377939 -0.4604899 -0.10853641
0.11133984 -0.080654636 0.06191868 -0.067345664 -0.031283714 -0.25734612 -0.0026652333 0.08687502
-0.107795484 -0.033995453 -0.2232393 -0.42646292 -0.015564045 0.5189607 0.091105536 -0.21933578
-0.015362565 -0.050565325 -0.061732486 -0.20423535 -0.043817993 -0.12734537 -0.022588411 -0.081766784
0.06734234 0.3316891 0.20259093 -0.1759396 -0.15379745 -0.32218924 0.04826978 0.13502154
-0.12302455 -0.08785999 -0.111211635 0.103652485 -0.015605146 0.031100953 -0.0979574 0.20126066
-0.18549128 0.4430933 -0.06933692 -0.23095722 -0.08566448 0.27595413 -0.21553619 0.00807907
0.21373795 0.01024811 -0.024883913 0.19770817 -0.059127953 0.37421504 0.039913375 -0.17259316
-0.026353512 0.07005383 -0.26973343 0.14492139 -0.3098159 -0.07381685 0.17507142 0.15299356

conv.4.bias f4 [64]
00000000: fce1 dcbd e5b4 c9bd 9f97 c33c 862a 643b
00000010: 6ccf c6bd a81f 56be 2da8 20bd 62cd 4bbd
00000020: 276c 453e 66ea 8bbc ea88 ea3d 544e 47bd
00000030: 977a 603b 9afd 17bd e255 7abd 8529 6dbd
00000040: ac34 b9bc c78c ba3b bd76 e93d e436 9cbd
00000050: 6930 443e 1da0 5cbd 42ed 18bd b65d 22be
00000060: 6725 10be 3548 aa3e fccf 69bd b084 bb3d
00000070: 6052 c2bc 0524 0fbd da8f 21bd 6ce2 103c
00000080: c125 a0bd c270 acbc 68a3 21bc 675f 6a3e
00000090: 3281 073e e6a9 ff3d d3dd a1bd e369 50bd
000000a0: 5b52 083e 79c2 debc c7f8 50bd 3fba 1dbd
000000b0: 5ddf b6bc 3e74 16bd 1fcf 233d 757a a43e
000000c0: 3fd1 22bd 9c87 81bc 7ed5 b83c 5f03 743c
000000d0: dafd 883e 2fa8 913e 9f15 93bd 4060 a63d
000000e0: 2dfe 173e dc00 bcbd b86d d1bb d56a 29be
000000f0: 1da4 bc3e 6872 633d 9153 08be ceef 2d3e
-0.107852906 -0.09848956 0.02387601 0.0034815385 -0.09707531 -0.20910513 -0.039222885 -0.049756415
0.19279538 -0.017079543 0.114518955 -0.048658684 0.0034252757 -0.037107088 -0.06111706 -0.057900924
-0.022608124 0.0056930515 0.11399601 -0.07627657 0.19159092 -0.053863633 -0.03733564 -0.1585606
-0.14076768 0.33258215 -0.057083115 0.091561675 -0.02372092 -0.03494646 -0.03944383 0.008843046
-0.07819701 -0.02104986 -0.009865619 0.22887956 0.13232878 0.124835774 -0.07903638 -0.05088223
0.13312666 -0.027192341 -0.051018503 -0.038507696 -0.022323305 -0.03673195 0.039992448 0.32124677
-0.039750334 -0.015811734 0.022562739 0.014893382 0.26756173 0.28448626 -0.07181858 0.08123827
0.14843054 -0.091798514 -0.0063912533 -0.1654466 0.36843958 0.05552903 -0.13313128 0.1698601

conv.7.weight f4 [64, 256]
00000000: a7e7 36bd da43 8fbd eab5 bd3c 78b1 8c3c
00000010: df30 ef3c d4e9 46bd 7e2b 283d 5b95 8bbd
00000020: ee77 b1bb e86e 5abd 521f e53c 3db0 52bc
00000030: beae 7bbd a0eb ff3c 10c8 f93b 2874 233d
00000040: 1d82 67bc 5705 213d a493 b73a 8acb 84bd
00000050: 6a0a 2aba 53a4 c03b 0ae9 0f3c 3184 47bd
00000060: 104e b63c 1060 153d 1403 45bd 8881 7a3c
00000070: 48b0 643c 2003 45bd 1c79 c0bc b847 59bc
00000080: 0af4 3dbd d7f0 d7bc 2232 2fbd 68f5 27bd
00000090: 4deb 943c 5a9e 64bd 6c9a c9bc 46d6 123c
000000a0: 33e7 67bc 0a15 b1bc b906 b0bd b241 05bc
000000b0: 5492 bf3c 589d 863c 9ed1 003d 106f edbc
000000c0: ba8c 91bc f9e9 b63b c0d9 943c 506c 4b3d
000000d0: 3c29 5abd 5ed0 393d f82d 193c 18ca 11bd
000000e0: 017e 32bd 0b09 75bd c413 5cbd 195b 323d
000000f0: cbfa 96bc fc2a 18bd e098 663a 5460 eabc
00000100: e063 55bd 9c5e b5bc 4083 a9ba d6e8 1f3d
00000110: 12b7 93bd b786 9abc 153e ff3c 15f8 85bd
00000120: e9bf 013d 4ecd bc3c 8e72 aebc 0046 12b9
00000130: 0bda c4bc a698 c6bb b651 4a3c ac44 34bd
00000140: 5b7d 39bc 9421 bebd 6c7b 9dbd fc90 023d
00000150: 1c17 b7bc 042b 233d c8f7 24bc 4eef 35bd
00000160: 3244 5cbd 28f9 8c3c 80f7 2b3b 5859 5ebd
00000170: dc70 3b3d 7c39 033d e44f 49bd 61cf 2dbd
00000180: 070a 293b be60 10bd 771c bcbc 2532 a3bd
00000190: e499 58bd 7fca 4bbd 4477 d83c 32b5 87bd
000001a0: b870 b43c 4ef9 763d f8cf c83c 28b5 33bc
000001b0: 40be 4dbc 0bb9 f4bc 98a3 fabc 5076 19bd
000001c0: 5af9 343d 50ac 563c 80a9 813a 4488 a33c
000001d0: 4af8 dfbc 62b9 613b 6267 973c ff3f e9bb
000001e0: 803d 58bb 6013 4a3b 00df 303d ccff abbc
000001f0: 67ae b33c 0af4 27bd e407 d7bb 8e6a cdbc
00000200: b1fa 87bc 4594 b63c 82ac f63c 08e3 163d
00000210: e05b 4b3d dca2 f03c d08c d5bb 7a63 68bd
00000220: b821 7dbd 5ec1 17bd 10ab 4abc 0006 5c3b
00000230: a771 27bd 100b 54bd 428b 48bb b25b ba3a
00000240: b271 b5bc b09a dbbc d036 cc3c 060a 1dbd
00000250: 0003 30bd 910a 92bd 4ee6 cd3c 9294 73bc
00000260: b039 3fbc 54fd ac3c eeff 43bd 9978 4fbd
00000270: dea6 2cbd b63d 17bd 6418 cf3c 80bf 223b
00000280: bf63 2cbd 91b8 e13b 6b0d a9bc bc75 2a3c
00000290: e6ce d93c 40ee 62bc b803 7bbc 5c70 81bd
000002a0: a083 ba3b ee17 233d 1090 8d3b f8fd 063c
000002b0: 602c 823c b024 3ebd b857 dfbc 4ab1 113d
000002c0: a1f0 513d 8111 58bd 4e47 163c bbae 2fbc
000002d0: 42b3 5a3d d2d2 793d 24ae be3c 203d 05bd
000002e0: 57e8 00bd 562d c1bb 5927 0d3d 1cf7 dbbc
000002f0: 1e46 ac3c d25b d33c 4a79 8ebd cde8 61bd
00000300: 30f9 0c3d 9231 153d 806d 20bd 10e3 d2bb
00000310: 1468 183d f486 bfbc 3c06 40bd c053 1f3c
00000320: 22a7 5ebc 1442 64bd 69da 7ebd 32e3 7fbd
00000330: 6e35 7ebd 04cf fdbc ca11 063d 1440 6d3d
00000340: 042b e9bb 2e14 4cbd 3f55 05bd 1e28 3fbd
00000350: 100e d33c afca 94bc 4405 063d bba0 c1bc
00000360: 59c9 1ebd 98df a9bc f197 07bd 44af 07bd
00000370: a463 76bc 1be8 cabc a1ef 973c b202 b3bd
00000380: 1a00 093d c1d7 ca3c 50c5 553d e72a 63bd
00000390: b6c0 6dbd 53ba 8dbd 2b52 74bd b759 6b3c
000003a0: 5b30 85bd 3c0a 01bd 62b0 b33c 76b9 7cbd
000003b0: 4f29 7dbd 630c 30bd b776 bebb fcfa b5bc
000003c0: 1b70 8ebb 742b c33c 00a9 3d3c 6890 623b
000003d0: ac0b ac3b 6221 e7bb 8502 99bb 4ba8 59bd
000003e0: f28c 38bb 3025 1bbd 5457 67bd 82bf 133d
000003f0: 8067 62ba 8f65 66bd bce3 f5bb 3d7c 343c
-0.044654515 -0.069953635 0.023158032 0.017174467 0.029198108 -0.04856284 0.041057102 -0.06815597
-0.005415908 -0.053328425 0.027969036 -0.012859401 -0.061445944 0.031240284 0.0076227263 0.039905697
-0.0141301425 0.039311733 0.0014005792 -0.064841345 -0.0006486537 0.005878964 0.008783588 -0.048710052
0.02225402 0.036468565 -0.04809864 0.015289672 0.013958044 -0.048098683 -0.02349525 -0.013261728
-0.046375312 -0.026359959 -0.04277242 -0.041005522 0.018178606 -0.05581508 -0.024609767 0.00896222
-0.014154243 -0.021616478 -0.08595032 -0.008133339 0.023385204 0.01643245 0.031449907 -0.028983623
-0.017767299 0.005582091 0.018170238 0.04966384 -0.05326198 0.04536473 0.009349339 -0.035593122
-0.043577198 -0.059823077 -0.053729787 0.04354391 -0.018430134 -0.037150368 0.0008796584 -0.028610386
-0.0520972 -0.02213984 -0.0012932792 0.03904041 -0.07212652 -0.018863065 0.031157533 -0.065414585
0.03167716 0.023047116 -0.021294858 -0.00013949722 -0.024029752 -0.0060606776 0.012348583 -0.044010803
-0.011321391 -0.09283748 -0.076895565 0.03187655 -0.022349887 0.039835945 -0.010068841 -0.04441767
-0.053775974 0.01720865 0.002624005 -0.054284424 0.045761928 0.032037243 -0.049148455 -0.0424341
0.002579333 -0.03524851 -0.022962792 -0.07968549 -0.052881137 -0.049753662 0.026424058 -0.06626357
0.022026405 0.06029635 0.02451323 -0.010968484 -0.012557566 -0.029873392 -0.030595586 -0.037466347
0.044183113 0.013102606 0.0009892434 0.019962437 -0.027340073 0.0034442772 0.018481914 -0.0071182246
-0.0032995641 0.0030834302 0.04318142 -0.020995997 0.021933747 -0.04100422 -0.00656222 -0.025075223
-0.016599031 0.022287497 0.030111555 0.036837608 0.049648166 0.029374532 -0.0065170303 -0.056735493
-0.061799735 -0.037049644 -0.012369886 0.0033572912 -0.04087987 -0.051768363 -0.0030600582 0.0014218001
-0.02214894 -0.02680716 0.02492848 -0.038339637 -0.04297161 -0.07130922 0.025134232 -0.014866965
-0.011671469 0.02111689 -0.047851495 -0.05065212 -0.042151324 -0.036924087 0.025280185 0.0024833381
-0.042087313 0.006888457 -0.020636281 0.010404047 0.026587915 -0.013850749 -0.015320711 -0.06320259
0.0056919605 0.039817743 0.004320152 0.008239262 0.0158903 -0.046421707 -0.027263507 0.035569467
0.051254872 -0.052751068 0.009172274 -0.010722811 0.05339361 0.06099207 0.023276396 -0.032528996
-0.031471577 -0.005895297 0.034461353 -0.02685123 0.021029528 0.02580062 -0.06956728 -0.055153657
0.03441733 0.036424227 -0.039166927 -0.0064357594 0.03720863 -0.02337978 -0.046880946 0.009724557
-0.013589652 -0.05572708 -0.06222001 -0.06247253 -0.062062673 -0.030982502 0.03273181 0.057922438
-0.0071157236 -0.049823932 -0.032552 -0.046669118 0.025763541 -0.018163053 0.032719865 -0.023636213
-0.03876624 -0.0207365 -0.033103887 -0.03312613 -0.015038405 -0.02476888 0.018546881 -0.087407485
0.033447362 0.024761083 0.052190125 -0.055460837 -0.05804511 -0.06920304 -0.059648674 0.014364651
-0.06503364 -0.0315039 0.021934692 -0.061700307 -0.061806973 -0.042980563 -0.0058124918 -0.022214405
-0.00434686 0.023824431 0.011575937 0.0034570936 0.005250415 -0.00705354 -0.00466949 -0.053139012
-0.0028160182 -0.03787726 -0.056479767 0.036071308 -0.00086366385 -0.056249198 -0.0075039547 0.011015949

conv.7.bias f4 [64]
00000000: da8b 73bd b430 d33e 3738 8e3e db0f c23e
00000010: 0349 fa3e c29f dd3e 01df 5dbe 1b5c 4a3e
00000020: 890d 043c 7616 9f3e 9ea7 0fbe 870c 063e
00000030: d3cb c83e 064b d33e 0783 0f3f 42fb b9be
00000040: fe48 663e ec10 a33e 8958 3d3f 914b 143e
00000050: 6b75 cb3d fb34 e13d 3f0e b03e 4281 b23e
00000060: f9ef 943d dac7 b2bc 6107 f4bd c1bf 453c
00000070: 4524 273e 1244 c6bd 3192 8c3e e2ce d2bd
00000080: d07e 4dbe b66e 773e 4562 9ebc f74b 2dbe
00000090: 2dd4 f73d 56e0 11be d681 093d c821 923d
000000a0: 4a80 e83d 305c c43d cb9f 48bd 74f5 063e
000000b0: fe76 953e ff0d 223e ec74 4d3e b2ca 5c3e
000000c0: 0ee4 213e 7b7f 583e 3a69 6cbe 8b59 903d
000000d0: 3df7 153e ebe6 a0bd e4e5 883e 81ae 94be
000000e0: 879b 55bc 0c11 8dbe 6bda fa3e a591 033a
000000f0: 5d10 e63e 3d62 44be 1e66 ad3e c818 2c3e
-0.059459545 0.41248095 0.27777264 0.37902722 0.4888383 0.43285948 -0.216671 0.19761698
0.008059868 0.31071824 -0.14028785 0.13090716 0.39218006 0.41268176 0.56059307 -0.36324507
0.22488782 0.31848848 0.7396322 0.14481951 0.09934505 0.10996433 0.3438587 0.3486424
0.07272334 -0.021823812 -0.1191547 0.0120696435 0.1632243 -0.09680952 0.27455285 -0.10293366
-0.20067906 0.24163327 -0.019333968 -0.1692351 0.12101016 -0.14245734 0.033571087 0.071353495
0.11352594 0.09587896 -0.048980515 0.1317957 0.29192346 0.15825652 0.20064133 0.21561697
0.15809652 0.2114238 -0.23087016 0.07048329 0.14645095 -0.07856544 0.26737893 -0.29039386
-0.013037569 -0.27552068 0.48994765 0.0005018956 0.4493436 -0.191781 0.33866972 0.16806328

out.weight f4 [4, 64]
00000000: ebf0 be3d 6baf 003f 88e3 b4bb 5f55 7c3e
00000010: 34e7 983e 7820 b33d 4e39 46bd 8d9f 873e
00000020: 2473 6dbd 8fd3 2c3e f567 023e 2150 203e
00000030: 45c7 5f3e b492 77ba 0456 313d 4c4c e83b
00000040: 5fdd 2cbf 202c 953d 53f7 db3e e7e3 d13d
00000050: a017 bc3c cb16 70bc 0946 843e d2c0 c13c
00000060: eeba 30be e023 e8bc 8f8e d53e f0fc 093e
00000070: 6c85 b43d 950d 4d3c 906d f83d 7685 ddbd
00000080: 552d d3bd f9aa 3a3e 9272 023d 91a9 22be
00000090: 5e53 913e f0ba 44bf 44e8 84bd b99a 5ebe
000000a0: 161e 283e f0db 233e 8249 4f3d f73d 49bd
000000b0: e44d b9bf 9261 b0bf bb6a cebd b5df b3bf
000000c0: 857b 48bf f5cc 813c 746b cd3d 89a0 1fbd
000000d0: 210d 75be bd8c 003d 8d83 1dbe ba17 3740
000000e0: 6df4 043e 5d81 193d 28e6 1a3e 3475 ddbe
000000f0: 4f00 8b3d 71a9 b23c a28c 003f 2bb5 23be
00000100: 0e61 a1bd 4634 d63d cc67 6a3e 56b4 1fbd
00000110: 8227 cd3e 0b54 963e 953e 383e bddb acbd
00000120: b39d 87bf 1de4 c23e 024d 2b3e 65b6 6e3e
00000130: 23ea 703e 4f74 343e 7c78 383e 614d f83b
00000140: ee1f 95bb ef2e ad3d c252 f93e bf9c c2bf
00000150: edee dcbd 71c0 963e 6d09 433e 56f0 563b
00000160: d225 93bf 09fa 8fbd a0bf 27bd 7932 553e
00000170: 0007 c6bf 514d a3bd 75c8 4bbc 5b98 243e
00000180: b287 05be 8cc0 a23e 7e18 acbc e224 46bd
00000190: 9ce7 b33c 35da 433c 5f04 82be e69d cabc
000001a0: e8dd 82bc 315f dabd 9588 bc3d 549c 30be
000001b0: 0d98 103e cd04 bfbd a499 aebe 3f17 b83d
000001c0: b43b 27be a42c d83d 2a6e 20be 2792 9b3e
000001d0: 0276 a73d de2b 33bc 1b23 103e 46b2 51be
000001e0: 0b0e 99bd a461 47be b109 d53c 03a0 673e
000001f0: 76b9 7d3e 097c b63d 8131 cd3c 88d1 a5bd
00000200: bfd0 953d 95e2 a03d 34a1 6fbf e886 d6bc
00000210: a8a0 0a3d f7f3 3f3d 2d59 6bbe 697c 8dbd
00000220: dc0e 233e f079 6e3d f260 22be 02b9 9e3e
00000230: 2592 503e 476c 473e fb02 8c3d 02ca e0be
00000240: 8d1e 8b3d c7b8 d03e 5e09 0e3f 49cb bd3d
00000250: 0719 213c d9eb faba 6d3f b03e 6dc1 6e3d
00000260: 415a 57bd 6ea5 85bf ace0 29be deb9 1cbe
00000270: 0a24 1cbe 99d5 ab3e ff77 8d3e 91da b93d
00000280: 747b c6bd 57ec 023e b39b 7b3d a197 1d40
00000290: 1db2 453d e0c1 f83c 975e 9bbd b74d a6bd
000002a0: 18cb 29be f4c5 e3bf c422 68bd 9006 493d
000002b0: fd5d 7abc a17c 973d e0a5 ccbd 8e76 d4bd
000002c0: 684e c13d ccfc f6bf d2b8 153f 8165 7ebe
000002d0: d1d9 e23d 4724 c6bc 0337 8e3e 984e debd
000002e0: e997 593e 9ff8 3d40 40ee d23e bb18 80bd
000002f0: a22d ec3e 5307 05be 3626 033d 19a5 9dbf
00000300: 0aaa 733d 36c1 b13c 2f5f 023b 8b5f 273e
00000310: e206 313e 4823 e23d c011 b8be ce65 763e
00000320: efca 23be 0415 003e c892 133e fe53 7cbd
00000330: e7e2 583e 30c0 483e cea5 f23e 4f33 093d
00000340: 830c 90bd 48f9 fd3d 386f df3e 898a 183e
00000350: e713 8e3e 60bd 78bf ae7c 9a3e ad86 d83e
00000360: 5e7e 373c f174 47be 37f2 e43d 499d 7c3e
00000370: 7eb7 88bd f799 21be d8f7 acbf 22e2 2fbe
00000380: 8ccf 0840 063b 91be 0e28 c43d 5e41 a9bd
00000390: 6b08 dd3e 0d26 ec3d 5ed1 ec3d 1d84 84bf
000003a0: d345 a1bf 3c5e 41bd f607 f7bd 6b7b 90bf
000003b0: 9150 223e d5d3 bdbd bb19 7bbe 4a23 9ebd
000003c0: 7ffd 953d a106 d93d fb1a 2fbd d154 943e
000003d0: 0e15 3a3e fabf 8b3b c731 b93c 993c 41be
000003e0: 6eee 543e 8df7 91bd c70b ed3d 3031 043c
000003f0: cc66 d23d 0da2 043f 89b2 613c 05be 1d3e
0.09323295 0.50267667 -0.005520288 0.24641941 0.29863894 0.08746427 -0.048394494 0.26488915
-0.057971135 0.16877578 0.12734969 0.15655567 0.21853359 -0.0009444163 0.04329492 0.0070891734
-0.67525285 0.07283807 0.4296213 0.10248547 0.022960484 -0.014653872 0.25834683 0.023651514
-0.17258808 -0.028337419 0.41710326 0.13475394 0.08814511 0.012515445 0.121302724 -0.10816471
-0.10311381 0.18229283 0.031847544 -0.15884997 0.28383917 -0.76847744 -0.06489614 -0.2173871
0.16417727 0.16001868 0.050607212 -0.04913136 -1.4476895 -1.3779776 -0.10078951 -1.4052645
-0.78313476 0.015844801 0.10030261 -0.038971458 -0.2393079 0.03138422 -0.15382214 2.8608232
0.12983866 0.037476886 0.1512686 -0.4325348 0.06787168 0.021809312 0.5021459 -0.15987079
-0.0787984 0.10459189 0.22891158 -0.03899034 0.40069205 0.29360995 0.17992623 -0.08440349
-1.0595001 0.38064662 0.16728595 0.23311765 0.23526816 0.17622493 0.18014711 0.0075775837
-0.0045509255 0.084562175 0.48695952 -1.5204085 -0.10787759 0.29443696 0.19046564 0.003279706
-1.1495917 -0.07030112 -0.040954232 0.20820035 -1.5470886 -0.07973731 -0.012437929 0.16073744
-0.13040045 0.31787527 -0.021007773 -0.048375018 0.021961026 0.01195388 -0.2539396 -0.024733495
-0.015974954 -0.106626876 0.092057385 -0.17247134 0.14120503 -0.093270876 -0.34101593 0.08988809
-0.16331369 0.105553895 -0.15667024 0.30384943 0.08176805 -0.010935752 0.14075892 -0.20478162
-0.074733816 -0.1947084 0.026005598 0.22619633 0.24777779 0.089103766 0.02504802 -0.080966055
0.07315206 0.07855717 -0.9360535 -0.026187375 0.03384462 0.046863522 -0.22983237 -0.06908495
0.15923637 0.058221757 -0.15857294 0.31000525 0.2036825 0.19474898 0.06836506 -0.4390412
0.067929365 0.40765974 0.55483043 0.09267289 0.009832627 -0.0019143774 0.3442339 0.058289934
-0.052576307 -1.044111 -0.16589612 -0.15305278 -0.15248123 0.335614 0.27630612 0.09074891
-0.096915156 0.12785469 0.061427783 2.4623797 0.048265565 0.030365884 -0.07586401 -0.08120292
-0.1658138 -1.7794785 -0.05667378 0.049078524 -0.015281198 0.07396818 -0.09992576 -0.10374175
0.09438783 -1.9295897 0.5848514 -0.24843408 0.110767014 -0.02418722 0.27776346 -0.10854834
0.21249355 2.9682996 0.41197395 -0.06254717 0.46128565 -0.12991075 0.032018863 -1.2316009
0.059488334 0.021698575 0.001989316 0.1634504 0.17287782 0.110418856 -0.35951042 0.24062273
-0.15995382 0.12508017 0.14411461 -0.06160354 0.21180306 0.19604564 0.47392124 0.033496197
-0.070336364 0.12401062 0.4363954 0.14896597 0.2774956 -0.97163963 0.30173248 0.4229025
0.011199562 -0.19478203 0.11179011 0.24669375 -0.06675623 -0.15781389 -1.3513136 -0.17176107
2.1376677 -0.28365344 0.09577952 -0.08264421 0.43170485 0.11530695 0.11563371 -1.0352818
-1.2599434 -0.04720901 -0.12062065 -1.1287664 0.15851046 -0.092689194 -0.24521534 -0.077215746
0.07323741 0.105969675 -0.04275034 0.2897096 0.18172094 0.0042648287 0.022606743 -0.18870772
0.20794079 -0.07127295 0.11574512 0.008068368 0.10273513 0.5180977 0.013775476 0.15404518

out.bias f4 [4]
00000000: 6d12 1f3f cdca 123f 6579 f13e 63d7 063f
0.6213749 0.573407 0.4716293 0.52672404
