models/v17.1/model_420500.pth (torch, 295107 bytes, 10 tensors)

conv.0.weight f4 [16, 2, 3, 3]
0.10611831 0.02154082 -0.21640323 0.29587632 -0.12182228 0.13429739 -0.38836125 0.447421
0.06676355 0.006853641 7.958122e-05 -0.012191387 -0.09855631 0.09449354 -0.026016317 -0.0073500406
0.03599311 0.0097058145 -0.1877544 0.28911325 0.01637397 0.22679634 -0.1735236 0.2176671
-0.7786768 -0.5801112 -0.061954223 -0.9878041 0.6907842 -1.2031556 0.21551327 -0.17480019
0.20399095 -0.006589074 0.0008873736 0.10081358 0.035263732 0.20300002 0.085838564 -0.056253396
0.26679185 -0.07243229 0.23416603 0.16916071 0.08513199 0.074038096 0.14663339 0.0078328345
0.23798773 -0.0037587858 -1.4600763 -0.004835652 -0.28055236 0.03709405 -0.030928133 0.11952073
-0.0066298936 0.13222244 0.13296455 -0.7288063 -0.3741599 -0.41676396 0.20035258 -0.06753723
-0.009674505 -0.019989362 0.31901208 -0.07442783 -0.9955935 -0.2857551 0.38986495 0.13586576
0.18019639 -0.09313378 -0.0882633 -1.1495492 -0.11314162 0.104193985 0.032922067 0.5081895
-1.0779397 -0.29586637 0.22188851 -0.30677205 0.23197015 -0.014015081 0.18761702 0.019285794
-0.046636038 0.0036180993 -0.043844398 -0.18138649 0.46489212 0.2770654 -0.11291297 -0.20998661
0.75650287 -0.41575333 0.40448555 -0.34773666 -0.048164595 0.0943569 0.1097833 -0.34355175
-0.050556816 0.0405308 -0.14930561 -0.29049367 -0.831733 -0.093792595 0.27242136 0.19635424
0.04511231 -1.0022535 -0.25705716 0.15453392 -0.2657541 -0.07357776 -0.035465628 -0.050625645
0.108955406 -0.0031395669 0.052878685 -0.5536688 -0.0749468 -0.1922422 0.26835003 -0.20080817
0.53876245 -0.12529133 0.26139194 0.14577854 0.03826264 0.38747993 -0.076734096 -1.5308388
-0.66390556 -0.8423511 0.12820667 0.026890466 -0.09464879 -0.0866967 0.07269462 0.04711101
-0.0035337852 0.092035286 0.027412165 0.41372067 0.051271506 -0.15356284 0.25609812 -0.4522828
0.03407711 -0.38410348 0.5943922 -0.4637406 0.045747243 0.27005374 -0.006389442 -0.31729874
0.46203187 -0.007157978 0.008884185 0.026551127 0.040585104 0.037973423 -0.1445813 0.2479531
0.3324621 -0.11248504 -0.15116422 -0.031425737 0.18682048 -0.115596816 -1.6530966 -0.021342786
-0.047408972 0.1817427 0.33424917 -0.20722835 -0.14159338 0.1309254 0.087004505 -0.118984155
0.02629575 0.08102703 0.6278066 -0.4361711 -0.035898875 0.121549346 -0.2848375 -0.11022205
1.0329418 -0.03687442 -0.055388615 0.1987832 0.029406218 -0.12734531 0.1549348 0.1223338
-0.3658432 -0.11792108 0.08111537 0.2196455 -1.2471329 -0.13263725 -0.12344589 -1.3587629
-0.28770292 0.2947133 0.16500492 0.24183044 -0.27036223 0.12140006 0.14035372 0.009442322
-0.16405489 -0.047500074 0.054170717 -0.08832086 0.04078206 0.16844413 -0.080395 0.007726553
-0.19859812 0.11500127 0.22424024 0.023837445 -0.017324839 -0.9497026 -0.12570053 0.07165978
0.07840152 0.21537198 0.20744962 0.029432382 0.025657253 0.006533904 -1.3484101 -0.011615689
-0.029201386 -0.15812378 0.09634564 0.22861393 -1.4001656 -0.2552253 -0.108912714 0.049486034
-0.122498505 0.19253044 -0.18926732 -0.007884051 0.16025454 -1.299203 0.012752908 -0.09759986
00000000: 8e54 d93d 6076 b03c cf98 5dbe 1a7d 973e
00000010: f67d f9bd 4185 093e 49d7 c6be 5e14 e53e
00000020: 54bb 883d 8294 e03b d8e4 a638 62be 47bc
00000030: e4d7 c9bd d485 c13d 2c20 d5bc 9cd8 f0bb
00000040: 836d 133d 2305 1f3c b042 40be a706 943e
00000050: b422 863c 4d3d 683e 2cb0 31be 20e4 5e3e
00000060: 5d57 47bf 2b82 14bf b6c3 7dbd bbe0 7cbf
00000070: 3cd7 303f 0101 9abf 83af 5c3e d2fe 32be
00000080: 01e3 503e 29e9 d7bb a29e 683a 5a77 ce3d
00000090: b470 103d 3ddf 4f3e 21cc af3d f669 66bd
000000a0: f198 883e 6157 94bd 38c9 6f3e 7738 2d3e
000000b0: ae59 ae3d 49a1 973d 1027 163e 4a55 003c
000000c0: 0eb3 733e f655 76bb c8e3 babf 6474 9ebb
000000d0: 8fa4 8fbe eeef 173d ff5c fdbc 49c7 f43d
000000e0: 943f d9bb 5265 073e dc27 083e 0d93 3abf
000000f0: e391 bfbe 1662 d5be 3a29 4d3e f650 8abd
00000100: d181 1ebc bbc0 a3bc 8d55 a33e 9e6d 98bd
00000110: 37df 7ebf 7e4e 92be 619c c73e 6520 0b3e
00000120: 6785 383e ecbc bebd 64c3 b4bd 6e24 93bf
00000130: cbb6 e7bd a863 d53d 4ad9 063d b518 023f
00000140: eef9 89bf cc7b 97be be36 633e 3a11 9dbe
00000150: 9589 6d3e 839f 65bc ad1e 403e 3efd 9d3c
00000160: 6e05 3fbd a21d 6d3b 2f96 33bd 61bd 39be
00000170: 5706 ee3e 84db 8d3e ea3e e7bd bb06 57be
00000180: 2caa 413f 9fdd d4be bb18 cf3e 8a0a b2be
00000190: 3d48 45bd 313e c13d 11d6 e03d 04e6 afbe
000001a0: aa14 4fbd a003 263d 92e3 18be 96bb 94be
000001b0: 74ec 54bf 5516 c0bd d07a 8b3e 1611 493e
000001c0: b0c7 383d d849 80bf ff9c 83be 243e 1e3e
000001d0: ec10 88be f0af 96bd 6844 11bd d65c 4fbd
000001e0: 0324 df3d 31c1 4dbb 5297 583d 3dbd 0dbf
000001f0: b57d 99bd 24db 44be 2d65 893e a8a0 4dbe
00000200: 56ec 093f 5f4c 00be 2ad5 853e f846 153e
00000210: 49b9 1c3d c563 c63e c426 9dbd 87f2 c3bf
00000220: b7f5 29bf 52a4 57bf 9c48 033e 6549 dc3c
00000230: 3ad7 c1bd 0a8e b1bd ebe0 943d 79f7 403d
00000240: 1497 67bb ff7c bc3d 7a8f e03c 32d3 d33e
00000250: 1202 523d 943f 1dbe 4b1f 833e 9c91 e7be
00000260: 7194 0b3d 36a9 c4be 162a 183f 686f edbe
00000270: 7661 3b3d 7c44 8a3e 865e d1bb fb74 a2be
00000280: 718f ec3e 798d eabb f98e 113c c081 d93c
00000290: 913c 263d 058a 1b3d 1f0d 14be 6be7 7d3e
000002a0: 7938 aa3e 8f5e e6bd cbca 1abe 46b8 00bd
000002b0: de4d 3f3e 06be ecbd ab98 d3bf 11d7 aebc
000002c0: e92f 42bd c21a 3a3e b522 ab3e ab33 54be
000002d0: dbfd 10be 4f11 063e 6b2f b23d f7ad f3bd
000002e0: 2f6a d73c 80f1 a53d efb7 203f d251 dfbe
000002f0: b30a 13bd ddee f83d 39d6 91be 19bc e1bd
00000300: 7037 843f a209 17bd 2cdf 62bd d38d 4b3e
00000310: 4fe5 f03c cf66 02be 3aa7 1e3e 258a fa3d
00000320: cd4f bbbe 9b80 f1bd d11f a63d c0ea 603e
00000330: 0da2 9fbf 0fd2 07be 33d1 fcbd f1eb adbf
00000340: cc4d 93be a9e4 963e 0df7 283e 66a2 773e
00000350: eb6c 8abe 98a0 f83d e3b8 0f3e f8b3 1a3c
00000360: 01fe 27be 708f 42bd 1de2 5d3d 91e1 b4bd
00000370: 170b 273d 9e7c 2c3e 22a6 a4bd 062f fd3b
00000380: 4e5d 4bbe c985 eb3d 3c9f 653e bf46 c33c
00000390: d2ec 8dbc b61f 73bf a4b7 00be 5dc2 923d
000003a0: fa90 a03d 798a 5c3e ac6d 543e 2e1c f13c
000003b0: 292f d23c 5c1a d63b b498 acbf bb4f 3ebc
000003c0: bf37 efbc 33eb 21be dd50 c53d c519 6a3e
000003d0: a038 b3bf e4ac 82be a10d dfbd deb1 4a3d
000003e0: 7fe0 fabd b326 453e 4bcf 41be 1b2c 01bc
000003f0: c419 243e 494c a6bf 93f1 503c 6fe2 c7bd

conv.0.bias f4 [16]
-0.010708075 0.100336835 0.02575762 0.017337637 -0.032167822 -0.48243305 0.31978056 -0.3765132
-0.28726417 -0.119809374 -0.71249264 -0.060025364 0.044508282 0.07202211 -0.13822062 0.11291271
00000000: ec70 2fbc 667d cd3d a501 d33c a907 8e3c
00000010: 68c2 03bd 7701 f7be 47ba a33e 57c6 c0be
00000020: 4a14 93be 9e5e f5bd eb65 36bf 28dd 75bd
00000030: 514e 363d 5480 933d b589 0dbe c73e e73d

conv.2.weight f4 [32, 16, 3, 3]
0.0048188264 0.11379581 0.032126684 0.07476472 0.028752182 0.033186123 0.27848184 0.2606961
-0.24647109 0.2856051 0.12167246 -0.1469734 -0.22294061 0.0006796136 0.012963778 0.09163313
-0.011044573 -0.22044408 -0.054729294 0.13179909 -0.0098464675 -0.616118 0.42913228 -1.9721545
-0.12758945 -0.05881372 0.0301939 0.14958395 -0.18467173 -0.26435065 0.17650582 -0.41854692
-0.151228 -0.2008646 0.20229048 0.060015377 0.13745578 0.08598846 0.312261 0.027810114
0.023349606 -0.18129346 0.19810143 -0.11829081 0.033230826 -0.20012677 -0.0070762346 -0.4045142
0.2703671 -0.22865692 -0.0066067264 0.035876688 0.054634247 -0.029640267 -0.31440446 -0.0016628688
-0.48679215 0.0448249 -0.24599236 -0.15850535 -0.2238124 0.09074039 0.037639603 0.24497603
-0.06735551 0.06914256 -0.1574512 -0.16736586 0.0027335295 0.2556915 -0.27222353 -0.719058
-0.26294956 -0.021201076 0.49234915 0.10519001 0.07408169 0.14794287 0.06940874 -0.07956874
-0.22844267 0.19483492 -0.5036959 0.35031068 -0.26184058 -0.44672135 -0.120500445 0.05568802
0.17842954 0.30052435 0.3422726 -0.046921678 0.015693624 0.034840256 -0.15146607 -0.7454146
0.4196774 0.069646455 -0.19029325 0.011981064 -0.16142254 -0.08025719 -0.115114115 -0.26756328
-0.24822015 0.18687032 -0.07165167 -0.010474133 -0.053534377 0.026539749 0.024363467 0.0076362435
-0.7474394 -0.06432957 0.08104227 0.040885802 -0.08957679 -0.25435588 -0.7465645 -0.16130221
0.04558374 -0.1639626 -0.014234788 -0.918515 -0.19032118 -0.3009092 0.20107237 -0.13547847
0.275418 0.052028082 -0.16547047 -0.30419883 0.10803686 0.055088583 -0.12997295 0.036626425
-0.029272726 0.0546014 0.060926437 0.17379951 -0.1111586 0.063649796 -0.276401 0.01468012
0.01730945 0.34082267 -0.16647182 0.06319556 -0.2540795 -0.15316854 0.13390237 0.084422134
0.00032669725 -0.035763085 0.12188271 0.013672153 -3.4609053 0.14162664 0.12691753 -0.1351348
0.3376004 -0.00016207108 -0.2591233 -0.020677507 0.040884092 0.091977276 0.059539165 0.087584674
-0.17271838 0.33166125 -0.08975023 -0.5256818 -0.37186888 0.38895243 -0.23682342 0.24157079
0.0070779435 -0.73885643 -0.3909447 0.3180353 -0.42681727 -0.41969666 -0.99256974 -0.20406215
0.1574165 0.32405365 -0.16154306 0.09152097 -0.15486884 -0.2866716 -0.17665125 0.22994916
0.33033097 0.3899552 -0.26825988 0.08340727 -0.3482343 -0.1589644 -0.079687044 -0.03306782
0.36436844 -0.051407546 -0.3434459 -0.85740775 0.03612041 0.19628295 0.58368003 -0.06460864
0.14574938 -0.26438385 0.06075326 -0.16819376 0.37197506 0.36721423 -0.12381041 -0.13411649
-0.15105252 0.06239235 -0.26827872 0.43212542 0.13766465 -0.3280002 0.23513761 0.24053636
0.19321306 0.28778532 -0.14516397 0.08957609 -0.10554868 0.11748983 -0.26710135 0.0720696
0.07536806 0.010722007 0.14922833 0.29239 -0.55998516 -0.23139887 -0.24658391 0.2356033
-0.011052749 -0.3628717 0.34113774 -0.16996685 0.36061722 -0.06240265 0.23714101 0.028725786
-0.07710477 0.06496303 0.07251711 -0.25493228 0.49078053 -0.1916718 0.26349196 0.033905737
00000000: 3fe7 9d3b c70d e93d 4597 033d 3f1e 993d
00000010: b289 eb3c 2cee 073d 2c95 8e3e f679 853e
00000020: eb62 7cbe d53a 923e 692f f93d 3280 16be
00000030: 8b4a 64be 1928 323a 0766 543c 27aa bb3d
00000040: 4cf4 34bc 18bc 61be d32b 60bd 57f6 063e
00000050: 1453 21bc e9b9 1dbf 3ab7 db3e 8f6f fcbf
00000060: cfa6 02be a8e6 70bd 3359 f73c 892c 193e
00000070: 961a 3dbe f858 87be f1bd 343e c84b d6be
00000080: 83db 1abe 73af 4dbe 3c25 4f3e afd2 753d
00000090: 35c1 0c3e b81a b03d ace0 9f3e 09d2 e33c
000000a0: ac47 bf3c fea4 39be 1adb 4a3e 7442 f2bd
000000b0: 0c1d 083d 08ee 4cbe c2df e7bb 7c1c cfbe
000000c0: 8e6d 8a3e 0a25 6abe 3d7d d8bb 6ff3 123d
000000d0: 29c8 5f3d 25d0 f2bc 9ff9 a0be 9ef4 d9ba
000000e0: d23c f9be 509a 373d 6ce5 7bbe 3a4f 22be
000000f0: 142f 65be 19d6 b93d fc2b 1a3d ffda 7a3e
00000100: b0f1 89bd 9d9a 8d3d e33a 21be f561 2bbe
00000110: 0425 333b ffe9 823e e260 8bbe 2f14 38bf
00000120: 53a1 86be e1ad adbc 3015 fc3e dc6d d73d
00000130: 24b8 973d 567e 173e 2b26 8e3d f0f4 a2bd
00000140: e0ec 69be ce82 473e 37f2 00bf ec5b b33e
00000150: f80f 86be a9b8 e4be f0c8 f6bd 1f19 643d
00000160: 3cb6 363e 54de 993e 5b3e af3e f230 40bd
00000170: ea8f 803c a8b4 0e3d ec19 1bbe 7ed3 3ebf
00000180: f5df d63e cda2 8e3d 3cdc 42be 3a4c 443c
00000190: f34b 25be e25d a4bd f3c0 ebbd 0efe 88be
000001a0: 6c2d 7ebe ef5a 3f3e 1cbe 92bd b39b 2bbc
000001b0: dd46 5bbd e369 d93c e595 c73c 7439 fa3b
000001c0: 3058 3fbf 39bf 83bd 7df9 a53d df77 273d
000001d0: 0974 b7bd ef3a 82be da1e 3fbf 682c 25be
000001e0: 04b6 3a3d d0e5 27be 0739 69bc cd23 6bbf
000001f0: 8ee3 42be c510 9abe eae5 4d3e deba 0abe
00000200: 9703 8d3e 661b 553d 1771 29be f3bf 9bbe
00000210: 6e42 dd3d 91a4 613d a117 05be 9705 163d
00000220: 5bcd efbc b8a5 5f3d 008e 793d 80f8 313e
00000230: 1fa7 e3bd d35a 823d 6f84 8dbe e384 703c
00000240: 8ccc 8d3c 4f80 ae3e 9777 2abe ac6c 813d
00000250: b516 82be 37d8 1cbe b41d 093e 83e5 ac3d
00000260: 9048 ab39 507c 12bd a49d f93d 2b01 603c
00000270: 797f 5dc0 9306 113e abf6 013e c760 0abe
00000280: f6d9 ac3e a0f1 29b9 cfab 84be e063 a9bc
00000290: 1476 273d 955e bc3d 57df 733d 985f b33d
000002a0: 16dd 30be 81cf a93e f8ce b7bd 1593 06bf
000002b0: 9965 bebe c624 c73e d781 72be 555e 773e
000002c0: 18ee e73b b225 3dbf e729 c8be 86d5 a23e
000002d0: cb87 dabe 7be2 d6be 0d19 7ebf abf5 50be
000002e0: ca31 213e 5cea a53e 8b6b 25be 596f bb3d
000002f0: f095 1ebe 9fc6 92be 11e4 34be cb77 6b3e
00000300: 2421 a93e 35a8 c73e 5c59 89be 6ed1 aa3d
00000310: c44b b2be 90c7 22be f632 a3bd 1f72 07bd
00000320: 808e ba3e b890 52bd 24d8 afbe 137f 5bbf
00000330: fff2 133d 66fe 483e 0e6c 153f 8951 84bd
00000340: 533f 153e 525d 87be 69d8 783d fc3a 2cbe
00000350: 8473 be3e 8103 bc3e 5090 fdbd d555 09be
00000360: 83ad 1abe 1f8f 7f3d d45b 89be 8b3f dd3e
00000370: f6f7 0c3e a4ef a7be eac7 703e 2a4f 763e
00000380: a5d9 453e 9958 933e dda5 14be ab73 b73d
00000390: e829 d8bd 829e f03d 82c1 88be 3a99 933d
000003a0: 925a 9a3d 5bab 2f3c 50cf 183e 24b4 953e
000003b0: 305b 0fbf d3f3 6cbe 7e80 7cbe fe41 713e
000003c0: 9716 35bc 52ca b9be 9ba9 ae3e ca0b 2ebe
000003d0: d2a2 b83e ec99 7fbd 18d5 723e 5752 eb3c
000003e0: 1be9 9dbd 560b 853d da83 943d 7c86 82be
000003f0: 9647 fb3e 9d45 44be 6be8 863e bee0 0a3d

conv.2.bias f4 [32]
0.3842551 0.027939022 -0.46376553 -0.41621968 0.2561587 -0.24098635 0.067583285 -0.30671045
-0.21494928 0.004272304 0.15771148 0.014081095 -0.17297989 -0.101997904 0.004401065 -0.31922296
0.10449453 -0.021504521 0.07175689 -0.4885747 -0.09870413 0.3306204 -0.7297836 0.19066094
-0.042116646 0.17483126 -0.28650752 0.06503575 -0.0018626002 -0.09840165 -0.027124159 -0.091681704
00000000: 16bd c43e 60e0 e43c ad72 edbe bf1a d5be
00000010: 3c27 833e 20c5 76be 1b69 8a3d 2709 9dbe
00000020: aa1b 5cbe affe 8b3b 1e7f 213e 65b4 663c
00000030: a421 31be 47e4 d0bd cf36 903b 3171 a3be
00000040: 3a01 d63d 402a b0bc 47f5 923d 7726 fabe
00000050: 6425 cabd 1447 a93e 19d3 3abf 9f3c 433e
00000060: 8182 2cbd f706 333e 1db1 92be 7731 853d
00000070: 7e22 f4ba ce86 c9bd 7c33 debc 9ec3 bbbd

conv.4.weight f4 [64, 32, 5, 5]
-0.09034238 -0.08845563 0.0077185445 0.3171051 0.13007046 -0.18461888 0.05651991 0.01380079
-0.035850298 0.17706151 0.06295384 -0.07992777 0.28382406 -0.22746027 0.051522024 -0.22129232
0.14049843 -0.2722415 0.87701726 -0.4339483 0.051817123 -0.32335743 -0.14696364 0.021068674
-0.07245418 -0.0803197 -0.39932048 -0.030622784 0.37014976 -0.18984812 -0.030254858 0.19540864
-0.17824607 0.15599167 -0.022596756 0.41038615 -0.36961842 0.20209 0.67929524 -0.6636378
0.24867876 0.16030517 0.00029999713 0.26505038 0.4827445 -0.16216657 0.2740853 0.15636055
-0.14986719 0.26064843 -0.2521296 0.09580709 -0.6199063 -0.38070783 0.27635854 0.28806046
0.041649625 -0.3913747 0.2439394 -1.6132405 -1.0631893 0.37781477 -0.83738744 -0.34575063
0.2808066 0.28387475 -0.21132332 0.87202716 -0.025148587 -0.19094071 -0.026761135 0.15265478
-0.17965482 -0.14974092 0.102005616 0.0016413924 -0.11794634 -0.13729604 -0.059978772 -0.2803228
-0.040808447 0.23555042 0.02833039 0.5635888 0.09337231 -0.31410307 -0.032793686 -0.7290292
-0.12410135 1.056698 0.09508935 0.32802567 -0.422311 -0.5815509 -0.14064716 0.48169398
0.15783376 -0.025485674 0.4924335 -0.30764973 0.01416665 0.04555766 -0.14111586 -0.23359767
-0.21594706 0.12760179 0.09503246 0.24187572 -0.09738067 0.11278393 -0.18254729 0.01372787
0.4446786 0.15202078 0.12677222 -0.2977874 -0.085813016 0.27345395 0.33692816 0.14845599
0.094304815 -0.19592446 0.52319676 -0.0027081724 0.2993053 1.0270518 0.2846576 -0.085756704
0.19534568 -0.11419849 0.3470187 -0.04234645 0.30334437 -0.26814574 -0.19176526 0.05725768
0.100267425 -0.16296397 0.58717275 -0.18068123 -0.88717985 0.07147912 0.018621454 -0.47959208
-0.24928746 -0.57462394 -0.28314218 0.29859787 -9.734001e-05 -0.65849835 -0.52107227 0.30924818
-0.35402897 0.10321244 -0.47590274 -0.3267494 -0.36283934 -0.32242775 -0.3235296 -0.18242511
-0.10073328 0.10620496 -0.4205316 -0.032746505 1.2676976 0.36505666 0.11299298 -0.05035522
-0.75294554 0.6553214 0.32542077 -0.55988306 -0.0018081042 -0.15855014 0.21226919 0.0045886664
0.53594863 0.29624045 0.10977792 0.2023092 -0.81851596 0.31601602 -0.16266595 -0.16733149
0.37718046 -0.3398519 0.23553988 -0.0334251 -0.22768034 -0.31314197 -0.24451904 -0.20620815
0.19873677 0.12474007 0.049430575 0.06640993 0.09233542 -0.15091772 -0.2686238 0.034535453
-0.0917869 0.12930568 -0.511962 -0.63445204 0.06047742 0.56976944 0.1066451 0.025147721
0.15658376 -0.2533662 -0.043500666 -0.36068726 -0.14234363 -0.2282382 0.100413375 -0.16112544
0.27363762 -0.034122165 0.21145333 -0.11303343 -0.24576215 0.35618418 -0.4621715 0.098495774
-0.004372949 -0.10024215 0.04345791 0.08693264 0.12379095 0.106111504 0.019305225 -0.2448773
-0.3081727 0.67914784 -0.10527702 -0.3053219 -0.34601194 0.23461977 -0.024062347 0.23566692
0.30181327 0.23214787 -0.096424565 0.06938844 0.005238144 0.22625014 0.33472523 -0.21551268
-0.02149119 0.06858003 -0.0014242788 0.09255687 -0.52986306 0.06278472 0.18497238 -0.015552446
00000000: 6d05 b9bd 3a28 b5bd d8eb fc3b 9a5b a23e
00000010: 3131 053e bb0c 3dbe 6c81 673d b51c 623c
00000020: c3d7 12bd 9d4f 353e f1ed 803d 2cb1 a3bd
00000030: 6351 913e 58eb 68be c208 533d 749a 62be
00000040: d2de 0f3e 3d63 8bbe 3484 603f 792e debe
00000050: 313e 543d 1b8f a5be a37d 16be 3698 ac3c
00000060: db62 94bd a87e a4bd bc73 ccbe a2dc fabc
00000070: 4584 bd3e 8c67 42be 09d9 f7bc 3419 483e
00000080: 2386 36be 48bc 1f3e d51c b9bc 221e d23e
00000090: a03e bdbe aef0 4e3e 4be6 2d3f 2be4 29bf
000000a0: a5a5 7e3e 0a27 243e ef48 9d39 afb4 873e
000000b0: 492a f73e fe0e 26be e954 8c3e fb1c 203e
000000c0: c976 19be b673 853e 2217 81be 8236 c43d
000000d0: 2eb2 1ebf 23ec c2be de7e 8d3e a97c 933e
000000e0: cc98 2a3d 4462 c8be 40cb 793e aa7e cebf
000000f0: 9616 88bf f070 c13e 065f 56bf 3a06 b1be
00000100: e2c5 8f3e 0858 913e 2465 58be 2c3d 5f3f
00000110: 6904 cebc f685 43be 2b3a dbbc 8951 1c3e
00000120: 6ff7 37be af55 19be 52e8 d03d fd23 d73a
00000130: da8d f1bd 5597 0cbe 4dac 75bd 7886 8fbe
00000140: c226 27bd 2134 713e 2215 e83c 5b47 103f
00000150: fb39 bf3d 1ed2 a0be ac52 06bd a8a1 3abf
00000160: d928 febd e141 873f 35be c23d fbf2 a73e
00000170: 2639 d8be 85e0 14bf cf05 10be 98a0 f63e
00000180: 2c9f 213e 55c7 d0bc 3e20 fc3e 4484 9dbe
00000190: 3d1b 683c ab9a 3a3d ad80 10be 3a34 6fbe
000001a0: 3a21 5dbe 0baa 023e 61a0 c23d 45ae 773e
000001b0: 846f c7bd 43fb e63d aded 3abe dcea 603c
000001c0: eaac e33e 56ab 1b3e 94d0 013e 9777 98be
000001d0: bcbe afbd 2802 8c3e d981 ac3e d904 183e
000001e0: e222 c13d 6ca0 48be 39f0 053f 987b 31bb
000001f0: 8b3e 993e 6f76 833f a4be 913e 36a1 afbd
00000200: b308 483e e6e0 e9bd 6fac b13e 7973 2dbd
00000210: f44f 9b3e 664a 89be 1d5e 44be 0787 6a3d
00000220: 0259 cd3d 07e0 26be f450 163f 8004 39be
00000230: 381e 63bf a563 923d 058c 983c 188d f5be
00000240: 3645 7fbe 8e1a 13bf 03f8 90be d2e1 983e
00000250: 0523 ccb8 5993 28bf fe64 05bf c755 9e3e
00000260: 4943 b5be 0b61 d33d 86a9 f3be b34b a7be
00000270: 14c6 b9be 4015 a5be aca5 a5be a6cd 3abe
00000280: 404d cebd fc81 d93d eb4f d7be 3321 06bd
00000290: ea43 a23f b5e8 ba3e dd68 e73d 4641 4ebd
000002a0: 0ac1 40bf 25c3 273f 8d9d a63e 7f54 0fbf
000002b0: e9fd ecba f85a 22be 185d 593e 865c 963b
000002c0: ee33 093f d4ac 973e 3fd3 e03d 252a 4f3e
000002d0: 438a 51bf dacc a13e e791 26be f258 2bbe
000002e0: cc1d c13e 1101 aebe 5e31 713e c2e8 08bd
000002f0: 0925 69be 2554 a0be 3363 7abe 3b28 53be
00000300: a781 4b3e b977 ff3d b777 4a3d ee01 883d
00000310: 5a1a bd3d 2d8a 1abe 0f89 89be 0c75 0d3d
00000320: c5fa bbbd b568 043e f10f 03bf 736b 22bf
00000330: 2cb7 773d 69dc 113f bf68 da3d 9802 ce3c
00000340: 7e57 203e 37b9 81be c12d 32bd 00ac b8be
00000350: 87c2 11be 46b7 69be 87a5 cd3d 11fe 24be
00000360: 3b1a 8c3e afc3 0bbd 3987 583e 127e e7bd
00000370: 13a9 7bbe c65d b63e bea1 ecbe 27b8 c93d
00000380: f44a 8fbb c24b cdbd ec00 323d bd09 b23d
00000390: 1c86 fd3d fd50 d93d fe25 9e3c 1dc1 7abe
000003a0: d0c8 9dbe a2dc 2d3f 7a9b d7bd 2753 9cbe
000003b0: 7a28 b1be 2a40 703e 661e c5bc ab52 713e
000003c0: 4587 9a3e 2cb8 6d3e 3e7a c5bd 871b 8e3d
000003d0: bda4 ab3b 1eae 673e 1b61 ab3e 5baf 5cbe
000003e0: 4b0e b0bc b073 8c3d deae baba 758e bd3d
000003f0: 1ba5 07bf 4695 803d 6669 3d3e b0cf 7ebc

conv.4.bias f4 [64]
-0.53104645 -0.38952798 -0.20735729 -0.0027570692 -0.67951 -0.27529505 -0.068089284 -0.2910098
0.33420336 -0.3017263 0.20889221 -0.049498815 -0.2912518 -0.042151846 -0.48484972 -0.30512232
-0.027593695 -0.49679098 -0.026678547 -0.4304048 -0.12641822 -0.6400579 -0.047242075 -0.28664133
-0.5330275 0.6671652 -0.06175682 -0.13739337 -0.02865284 -0.24246301 -0.19248614 -0.22098464
-0.45756602 -0.14121917 -0.2639247 0.08652327 0.15557559 -0.24564552 -0.49910346 -0.060716838
0.04917951 -0.24601972 -0.3898595 -0.33892694 -0.24752781 -0.040848933 -0.4034185 0.5175767
-0.046338957 -0.020744642 -0.29475984 0.009941125 0.5224155 0.41767648 -0.18159339 -0.12485381
0.028093752 -0.45064732 -0.3403527 -0.5146632 0.7722659 -0.03525407 -0.5127261 -0.056047387
00000000: a9f2 07bf 3670 c7be 7855 54be f2af 34bb
00000010: 5ef4 2dbf 79f3 8cbe 6572 8bbd 3dff 94be
00000020: b41c ab3e df7b 9abe d7e7 553e 45bf 4abd
00000030: f51e 95be 6aa7 2cbd 393e f8be fe38 9cbe
00000040: 2c0c e2bc 635b febe f88c dabc 055e dcbe
00000050: c773 01be d6da 23bf e880 41bd a7c2 92be
00000060: 7e74 08bf 57cb 2a3f b8f4 7cbd d9b0 0cbe
00000070: 5cb9 eabc 3948 78be 161b 45be cc49 62be
00000080: 1846 eabe c29b 10be 2321 87be 1d33 b13d
00000090: 354f 1f3e 808a 7bbe 7d8a ffbe 38b2 78bd
000000a0: 7470 493d 98ec 7bbe aa9b c7be d587 adbe
000000b0: ee77 7dbe 3651 27bd df8c cebe e87f 043f
000000c0: ebcd 3dbd abf0 a9bc c3ea 96be 1ae0 223c
000000d0: 06bd 053f b1d9 d53e 9ef3 39be 5bb3 ffbd
000000e0: de24 e63c 3fbb e6be b642 aebe f8c0 03bf
000000f0: 38b3 453f 9266 10bd 0542 03bf f291 65bd

conv.7.weight f4 [64, 256]
0.036116846 0.32291588 -0.1186813 -0.09644914 0.29564816 0.027895488 0.26305825 -0.1075751
-0.5194425 -0.024949403 0.022351027 -0.01889301 -0.061445944 0.031240284 0.0076227263 0.039905697
-0.047423497 0.27090946 0.42464873 -0.100160375 0.39271015 0.053941127 0.25899506 0.35609347
-0.07301848 0.04871768 -0.2018403 -0.028730424 0.19411738 0.27556986 0.28184655 0.1920888
-0.052983563 -0.5993361 -0.10154093 -0.30047444 -0.15468124 0.24557738 -0.13738449 0.0761455
-0.00080655096 0.34639004 -0.24377824 -0.11476055 0.023385204 0.01643245 0.031449907 -0.028983623
-0.0639734 0.40393874 -0.08073787 0.13221435 -0.05326198 0.04536473 0.009349339 -0.035593122
-0.0056024385 0.7100544 -0.24494214 0.095126316 0.33622804 0.35964787 -0.33360368 0.08149723
-0.0520972 -0.02213984 -0.0012932792 0.03904041 -0.19576801 -0.2534067 -0.11700586 0.11519994
-0.03154961 0.001956172 -0.37689203 -0.055177696 -0.2712865 -0.20360373 0.0817055 -0.3498207
0.07910301 0.0012225772 -0.1261118 -0.23524204 0.391256 0.0014780685 0.23277865 -0.06431201
-0.053775974 0.01720865 0.002624005 -0.054284424 0.057475593 0.25262046 0.15695341 0.029339112
0.041958615 0.08339565 0.04708352 0.3298591 -0.08560033 0.16525602 -0.12459987 0.18372987
0.022026405 0.06029635 0.02451323 -0.010968484 -0.077325046 0.020111997 -0.010454133 0.12902397
0.044183113 0.013102606 0.0009892434 0.019962437 0.11189747 -0.3937504 0.0313937 0.20428464
-0.32705027 -0.019769944 0.0607453 -0.0023358555 -0.032152798 -0.1347421 0.19136646 -0.057273697
0.350082 0.26905024 0.054426197 0.62240255 0.26715437 0.17647254 0.040192053 0.015128349
0.32379115 0.2582916 0.4035326 0.09721756 0.20660532 0.0588684 -0.56432146 -0.071999885
0.31728646 0.49507532 -0.86552036 -0.03675601 -0.045733135 0.039844956 -0.1843745 -0.021336295
-0.45915705 0.3373291 0.07385796 0.1279711 -0.042151324 -0.036924087 0.025280185 0.0024833381
0.1621901 -0.02240344 -0.3243968 0.06314865 0.0960584 -0.17502938 0.085994504 0.025535982
-0.11399438 0.30992076 0.21238695 0.3826365 0.18889914 0.20783576 -0.0997635 0.027880715
-0.15501541 -0.2596762 0.17295475 -0.23735714 0.05339361 0.06099207 0.023276396 -0.032528996
-0.21040212 0.1598819 0.10514337 0.26394856 -0.038416266 -0.0980642 0.020872667 -0.05587128
0.03441733 0.036424227 -0.039166927 -0.0064357594 0.03720863 -0.02337978 -0.046880946 0.009724557
0.5302175 0.026592685 0.17516363 -0.20846015 -0.062062673 -0.030982502 0.03273181 0.057922438
0.03242687 -0.1372608 0.2878622 -0.11707466 0.25539982 -0.24240327 -0.062444218 -0.07194865
-0.07279892 -0.21423608 0.0028409252 -0.040416356 -0.16514851 -0.40072474 -0.38137856 -0.10001499
-0.3366695 -0.10493619 -0.058779873 0.08554057 0.036098942 -0.31571895 0.36229008 0.67075896
0.094063744 0.17131302 0.29554567 -0.1117077 -0.18785803 0.47551778 -0.2190357 -0.08085466
-0.23836042 0.43101817 -0.06614696 0.3945582 0.048008285 0.12204024 -0.32275018 -0.021553313
-0.11859488 -0.02044129 -0.15795808 0.054741144 -0.36380622 0.21708342 0.19607455 -0.42971203
00000000: 42ef 133d 3b55 a53e 2e0f f3bd 2087 c5bd
00000010: 325f 973e 1485 e43c 92af 863e 5650 dcbd
00000020: 2ffa 04bf b162 ccbc 8019 b73c 84c5 9abc
00000030: beae 7bbd a0eb ff3c 10c8 f93b 2874 233d
00000040: 243f 42bd a5b4 8a3e 8f6b d93e e220 cdbd
00000050: 4e11 c93e 5ff1 5c3d 009b 843e e251 b63e
00000060: b68a 95bd 318c 473d 39af 4ebe 115c ebbc
00000070: b5c6 463e 7e17 8d3e 314e 903e edb2 443e
00000080: 4b05 59bd 176e 19bf b1f4 cfbd c9d7 99be
00000090: c264 1ebe a378 7b3e 85ae 0cbe 2cf2 9b3d
000000a0: b86e 53ba 095a b13e 01a1 79be 9407 ebbd
000000b0: 5492 bf3c 589d 863c 9ed1 003d 106f edbc
000000c0: 7c04 83bd 0fd1 ce3e e559 a5bd 3363 073e
000000d0: 3c29 5abd 5ed0 393d f82d 193c 18ca 11bd
000000e0: a994 b7bb 20c6 353f 1dd2 7abe 96d1 c23d
000000f0: 1526 ac3e c423 b83e 1ace aabe 05e8 a63d
00000100: e063 55bd 9c5e b5bc 4083 a9ba d6e8 1f3d
00000110: 6977 48be 86be 81be c5a0 efbd f2ed eb3d
00000120: 2a3a 01bd 1f33 003b fef7 c0be 0202 62bd
00000130: 10e6 8abe 7f7d 50be 3755 a73d b31b b3be
00000140: c200 a23d e23e a03a 7423 01be 4ae3 70be
00000150: b552 c83e c0bb c13a 875d 6e3e 04b6 83bd
00000160: 3244 5cbd 28f9 8c3c 80f7 2b3b 5859 5ebd
00000170: 876b 6b3d 7857 813e 65b8 203e 9458 f03c
00000180: ccdc 2b3d 57cb aa3d a6da 403d 4be3 a83e
00000190: 3a4f afbd e038 293e 372e ffbd af23 3c3e
000001a0: b870 b43c 4ef9 763d f8cf c83c 28b5 33bc
000001b0: 985c 9ebd eac1 a43c d047 2bbc dc1e 043e
000001c0: 5af9 343d 50ac 563c 80a9 813a 4488 a33c
000001d0: 802a e53d a799 c9be ae96 003d fe2f 513e
000001e0: 2273 a7be 94f4 a1bc 10d0 783d 2715 19bb
000001f0: a7b2 03bd d5f9 09be 92f5 433e d397 6abd
00000200: f33d b33e f4c0 893e 01ee 5e3d c655 1f3f
00000210: 75c8 883e 38b5 343e 6ca0 243d e5dc 773c
00000220: f4c7 a53e cc3e 843e d39b ce3e 001a c73d
00000230: 5890 533e fe1f 713d 5f77 10bf ad74 93bd
00000240: 5f73 a23e 837a fd3e be92 5dbf 788d 16bd
00000250: ab52 3bbd 7734 233d abcc 3cbe 74c9 aebc
00000260: a216 ebbe 66b6 ac3e d842 973d db0a 033e
00000270: dea6 2cbd b63d 17bd 6418 cf3c 80bf 223b
00000280: 2915 263e 6b87 b7bc 5617 a6be 1454 813d
00000290: 44ba c43d e73a 33be e31d b03d d630 d13c
000002a0: e375 e9bd efad 9e3e f77b 593e eee8 c33e
000002b0: c76e 413e e6d2 543e ce50 ccbd 1966 e43c
000002c0: 5cbc 1ebe 47f4 84be 0d1b 313e c00d 73be
000002d0: 42b3 5a3d d2d2 793d 24ae be3c 203d 05bd
000002e0: a773 57be 15b8 233e 6855 d73d 4424 873e
000002f0: 605a 1dbd e2d5 c8bd 28fd aa3c 49d9 64bd
00000300: 30f9 0c3d 9231 153d 806d 20bd 10e3 d2bb
00000310: 1468 183d f486 bfbc 3c06 40bd c053 1f3c
00000320: 56bc 073f e7d8 d93c 185e 333e 9476 55be
00000330: 6e35 7ebd 04cf fdbc ca11 063d 1440 6d3d
00000340: 0ad2 043d 188e 0cbe ad62 933e d7c4 efbd
00000350: c4c3 823e 9038 78be 82c5 7fbd d059 93bd
00000360: 9a17 95bd b460 5bbe d12e 3a3b 9f8b 25bd
00000370: b11c 29be cb2b cdbe 0d44 c3be a9d4 ccbd
00000380: f25f acbe c9e8 d6bd 2ac3 70bd e52f af3d
00000390: 7cdc 133d eaa5 a1be 167e b93e dcb6 2b3f
000003a0: 7ea4 c03d ae6c 2f3e c351 973e 02c7 e4bd
000003b0: db5d 40be 1177 f33e e54a 60be 2197 a5bd
000003c0: c114 74be 6aae dc3e 0f78 87bd 8803 ca3e
000003d0: 56a4 443d 3cf0 f93d 833f a5be 9390 b0bc
000003e0: dfe1 f2bd 7e74 a7bc c3bf 21be 4038 603d
000003f0: cf44 babe 1e4b 5e3e c4c7 483e 3703 dcbe

conv.7.bias f4 [64]
-0.24501231 0.8329299 0.53987145 0.4562888 1.0553375 0.80152196 -0.38596565 0.69169676
0.031035325 0.32536277 -0.42748004 0.39218196 0.86784905 0.8897454 0.8902498 -0.9429371
0.64673626 0.63210076 1.3565626 0.50890416 0.43447006 0.13374656 0.7483759 0.6353257
0.2998766 0.11649996 -0.4835484 0.42434826 0.48135793 0.091506824 0.55483764 0.19715971
-0.27288234 0.61064464 0.1374167 -0.007434578 0.15522327 -0.5735523 -0.36586958 0.13753241
0.2615797 0.1363741 0.5002121 0.22278355 0.54104364 0.1476618 1.0870273 0.2687045
0.31539783 0.35345578 -0.38407156 0.23519737 0.22866836 -0.006697925 0.68045557 -0.1822495
0.26651794 -0.20676832 1.049973 0.044073258 0.8049715 -0.26646483 0.6572535 0.23151551
00000000: 82e4 7abe e53a 553f 0435 0a3f b09e e93e
00000010: 4d15 873f 8b30 4d3f 4a9d c5be 0a13 313f
00000020: cb3d fe3c f395 a63e aade dabe 13cc c83e
00000030: 5b2b 5e3f 5bc6 633f 69e7 633f 5364 71bf
00000040: 8290 253f 5bd1 213f d8a3 ad3f 8b47 023f
00000050: dc72 de3e dcf4 083e 9095 3f3f b4a4 223f
00000060: 6d89 993e 8897 ee3d a893 f7be 2d44 d93e
00000070: 8c74 f63e ee67 bb3d d709 0e3f 3ce4 493e
00000080: 3cb7 8bbe 3553 1c3f f7b6 0c3e c39d f3bb
00000090: d9f2 1e3e 53d4 12bf 4253 bbbe 4cd5 0c3e
000000a0: c6ed 853e a7a5 0b3e e60d 003f 5f21 643e
000000b0: d681 0a3f a834 173e b623 8b3f a393 893e
000000c0: d37b a13e 28f8 b43e 07a5 c4be 94d7 703e
000000d0: 0a28 6a3e 447a dbbb 5632 2e3f 9d9f 3abe
000000e0: 0a75 883e 13bb 53be 8465 863f 2986 343d
000000f0: 9d12 4e3f 146e 88be c441 283f 6712 6d3e

out.weight f4 [4, 64]
0.08446966 0.11133224 0.031120762 0.06536508 0.14373498 0.0573106 0.028644105 0.022081308
-0.0074453144 -0.008551829 0.06668613 0.06356184 0.028434105 -0.03464842 -0.041953478 0.019466976
-0.70139664 0.012636101 0.5027356 -0.002299161 -0.02478884 0.006523085 0.10572674 -0.009045304
-0.03484916 -0.0151670845 0.1904778 0.07741708 0.029852422 -0.07318895 0.046438266 -0.058440335
-0.025113193 0.025527831 0.074227765 -0.058691185 0.037732318 -0.06484976 -0.028301308 -0.07568546
0.084639125 0.026498236 0.01461072 -0.043415993 -1.5522324 -1.8192742 -0.016193172 -1.7935051
-0.7379964 -0.01033524 0.12470451 0.0031793187 -0.07814123 0.041654196 -0.1562833 4.985665
0.071636416 0.051193472 0.017476575 -0.08519524 -0.10285347 0.03311724 0.06388263 -0.023803372
-0.041243996 0.047379635 0.035725378 0.018678451 0.17786123 0.052055724 0.13336757 -0.15037137
-0.29221904 0.10596466 0.10044577 0.044348724 0.061047003 0.06903207 0.0013599603 0.047580212
-0.0029109558 0.009683549 0.49930114 -1.2356182 -0.7249664 0.11921832 0.06385367 -0.06158739
-0.5795357 -0.004224661 0.015861103 0.096189775 -0.96786535 -0.19381948 -0.010609089 0.043803997
-0.025366671 0.101373315 -0.05436569 0.024408128 0.008451638 0.00560988 -0.08557908 0.02144512
-0.0077752406 -0.07364393 -0.07019027 -0.0723748 0.069815286 -0.025158849 -0.077418394 0.002093669
-0.065556124 0.14077443 -0.06406342 0.08066601 0.011515016 0.06143649 0.027418414 -0.0066042277
-0.009841908 -0.083717175 0.0047693825 0.0911304 0.000104239036 -0.03742405 -0.10583586 -0.05937587
-0.01071075 0.02195293 -1.4136742 -0.020671226 -0.0066699623 0.051945835 -0.15066104 -0.05949001
0.065005265 0.022840401 -0.023455761 0.102710806 0.05406471 0.06401543 0.0140320845 -0.09040258
0.009962589 0.12386228 0.5203145 0.03649399 -0.009682724 0.018541804 0.09716985 -0.0052794926
-0.0060146586 -1.2074184 -0.019084604 -0.03847572 -0.07014979 0.07557642 0.11643915 0.042507887
-0.022984898 0.050965898 0.09885735 2.9912894 0.031249791 0.014571243 -0.04526481 -0.024252292
-0.0901297 -2.1035495 -0.24124499 0.015063567 0.0043723197 0.0542771 -0.21729569 -0.06355462
-0.034109164 -2.214759 0.20857272 -0.10149793 0.0207083 -0.06927335 0.11194601 -0.0019875518
0.05624241 3.7083054 0.1536237 -0.04373416 0.023939973 -0.09883009 0.0076038535 -1.3328884
0.080803156 0.01541742 0.013175986 0.08888112 0.0950594 -0.067824386 -0.9655448 0.055367913
-0.07047627 -0.046393253 0.040171985 0.06435952 0.039406523 0.054695643 0.039899856 -0.013016713
0.014235226 0.049764764 0.5065654 0.10783987 0.006807537 -0.37151378 0.08368293 0.074990354
0.006125735 -0.033537377 -0.025426421 0.053613316 -0.06913536 -0.9813846 -1.5903465 -0.038937807
4.365295 -0.08433688 -0.2632466 -0.0036314128 0.17115669 0.0072030704 0.049607452 -1.3416743
-1.4196513 -0.0246748 -0.21169351 -1.2551388 0.08943267 -0.06855786 -0.48434383 -0.030223195
0.05438711 0.012851967 -0.027521294 0.067541085 0.07911432 -0.21908125 0.010738005 -0.043850325
0.07941102 -0.024998711 0.04144779 -0.02616456 0.012175533 0.16584678 -0.013729237 0.07797128
00000000: 6efe ac3d 2802 e43d f8f0 fe3c 21de 853d
00000010: 432f 133e 85be 6a3d 0ba7 ea3c dce3 b43c
00000020: d3f7 f3bb f81c 0cbc bd92 883d b62c 823d
00000030: a4ee e83c 80eb 0dbd 69d7 2bbd 3579 9f3c
00000040: bb8e 33bf a607 4f3c 48b3 003f 85ad 16bb
00000050: f711 cbbc 9abf d53b 4387 d83d c132 14bc
00000060: febd 0ebd 5d7f 78bc 9d0c 433e d98c 9e3d
00000070: 118d f43c 17e4 95bd 0d36 3e3d 225f 6fbd
00000080: 2fba cdbc be1f d13c ba04 983d 2b66 70bd
00000090: 348d 1a3d f3cf 84bd 25d8 e7bc fa00 9bbd
000000a0: 4757 ad3d d412 d93c cd61 6f3c f8d4 31bd
000000b0: 8daf c6bf fadd e8bf 8ba7 84bc 9391 e5bf
000000c0: 55ed 3cbf 2355 29bc 1465 ff3d 1e5c 503b
000000d0: 8208 a0bd 979d 2a3d bb08 20be 918a 9f40
000000e0: 1db6 923d 3fb0 513d 092b 8f3c d87a aebd
000000f0: d7a4 d2bd f1a5 073d e5d4 823d 4aff c2bc
00000100: 77ef 28bd 2611 423d c654 123d 8d03 993c
00000110: 4121 363e 6238 553d 8291 083e f4fa 19be
00000120: bc9d 95be 0004 d93d 83b6 cd3d 02a7 353d
00000130: 6c0c 7a3d b060 8d3d b240 b23a 78e3 423d
00000140: bcc5 3ebb c0a7 1e3c 66a4 ff3e bd28 9ebf
00000150: 6697 39bf bc28 f43d b7c5 823d 0f43 7cbd
00000160: 745c 14bf 066f 8abb 25ef 813c 25ff c43d
00000170: 06c6 77bf 9d78 46be bfd1 2dbc d26b 333d
00000180: c4cd cfbc d09c cf3d 8fae 5ebd 8ef3 c73c
00000190: bd78 0a3c 16d3 b73b 1644 afbd adad af3c
000001a0: 72c7 febb a1d2 96bd ebbf 8fbd 3d39 94bd
000001b0: 51fb 8e3d ee19 cebc 898d 9ebd f035 093b
000001c0: 4a42 86bd 2c27 103e af33 83bd 3934 a53d
000001d0: 7aa9 3c3c d4a4 7b3d 959c e03c 4768 d8bb
000001e0: f43f 21bc e973 abbd 7b48 9c3b 93a2 ba3d
000001f0: e89a da38 f649 19bd 79c0 d8bd 1d34 73bd
00000200: 247c 2fbc a2d6 b33c 47f3 b4bf b456 a9bc
00000210: b38f dabb 28c5 543d e346 1abe ccab 73bd
00000220: 7b21 853d cb1b bb3c 4c26 c0bc 0b5a d23d
00000230: f572 5d3d 861a 833d d4e6 653c fd24 b9bd
00000240: 203a 233c 82ab fd3d 5533 053f b97a 153d
00000250: 4aa4 1ebc fbe4 973c fc00 c73d 98ff acbb
00000260: 9d16 c5bb b08c 9abf 5157 9cbc b798 1dbd
00000270: b1aa 8fbd cfc7 9a3d a677 ee3d c01c 2e3d
00000280: d34a bcbc 9ec1 503d b975 ca3d 4971 3f40
00000290: 90ff ff3c 39bc 6e3c 9867 39bd beac c6bc
000002a0: ec95 b8bd 8ea0 06c0 ed08 77be 2ecd 763c
000002b0: ad45 8f3b aa51 5e3d c382 5ebe ed28 82bd
000002c0: 0db6 0bbd 9dbe 0dc0 1694 553e 26de cfbd
000002d0: 74a4 a93c 30df 8dbd f343 e53d 9641 02bb
000002e0: 715e 663d e054 6d40 884f 1d3e 9722 33bd
000002f0: c31d c43c 6e67 cabd bf29 f93b 169c aabf
00000300: 207c a53d 5999 7c3c 17e0 573c 4e07 b63d
00000310: 81ae c23d 83e7 8abd f22d 77bf 77c9 623d
00000320: dd55 90bd da06 3ebd 618b 243d edce 833d
00000330: bc68 213d 8a08 603d 086e 233d 0d44 55bc
00000340: de3a 693c 23d6 4b3d 45ae 013f 26db dc3d
00000350: c211 df3b 0e37 bebe f561 ab3d 8b94 993d
00000360: 64ba c83b 7d5e 09bd 124b d0bc a399 5b3d
00000370: d796 8dbd 053c 7bbf 7990 cbbf 407d 1fbd
00000380: 7fb0 8b40 d0b8 acbd 42c8 86be fffc 6dbb
00000390: b343 2f3e bc07 ec3b 2f31 4b3d fcbb abbf
000003a0: 22b7 b5bf ce22 cabc 2fc6 58be 63a8 a0bf
000003b0: 7a28 b73d 1068 8cbd eafb f7be a296 f7bc
000003c0: 05c5 5e3d 0e91 523c 5674 e1bc fb52 8a3d
000003d0: b006 a23d d656 60be 75ee 2f3c 669c 33bd
000003e0: 3fa2 a23d 19ca ccbc 28c5 293d 0f57 d6bc
000003f0: e37b 473c bdd3 293e 98f0 60bc 68af 9f3d

out.bias f4 [4]
1.08149 1.1483725 1.0398542 1.046473
00000000: 446e 8a3f dffd 923f f119 853f d4f2 853f
