models/v17.1/model_78500.pth (torch, 295095 bytes, 10 tensors)

conv.0.weight f4 [16, 2, 3, 3]
0	0x3e2c1b1d	0.16807218
1	0x3dba6093	0.09100451
2	0xbe3c9708	-0.18416989
3	0x3e594040	0.21215916
4	0xbe11c0fa	-0.14233771
5	0x3d80bd01	0.0628605
6	0xbe8954e0	-0.26822567
7	0x3e9b3ee6	0.30321425
8	0x3d9080d7	0.07055824
9	0xbdc8a8a8	-0.097977936
10	0x3da845ec	0.082164615
11	0xbd516d67	-0.051129725
12	0xbd338233	-0.04382534
13	0x3d88540e	0.06656657
14	0x3d56a4c2	0.05240322
15	0xbd4f4e43	-0.050611746
16	0x3d23e5bf	0.040014025
17	0x3b45cb1b	0.0030180875
18	0xbdffab1f	-0.12483811
19	0x3e80a129	0.25122955
20	0x3cca678a	0.024707574
21	0x3e466878	0.19375789
22	0xbe1669fd	-0.14688869
23	0x3e6656ce	0.22494051
24	0xbf52447c	-0.8213575
25	0xbeff43d4	-0.49856436
26	0xbe40a744	-0.18813807
27	0xbf771f5a	-0.96532214
28	0x3f0671c7	0.5251736
29	0xbf95fe87	-1.17183
30	0x3e57c31f	0.21070527
31	0xbe4a1f4a	-0.19738498
32	0x3e6545ee	0.22389957
33	0xbd7ffc77	-0.06249663
34	0xbbd1be55	-0.006400863
35	0x3e17baaa	0.148173
36	0xbc8b170f	-0.016978769
37	0x3e5a52c7	0.2132064
38	0x3de7ff11	0.11327947
39	0xbe044eec	-0.12920731
40	0x3ea915a7	0.33024332
41	0xbd50ee26	-0.051008366
42	0x3e9c18b3	0.30487594
43	0x3e3c5878	0.18393123
44	0x3e1fc7f8	0.15603626
45	0x3dae7536	0.0851845
46	0x3e0d1dce	0.13780901
47	0x3bfb7057	0.007673304
48	0x3e8ecf7c	0.27892673
49	0xbde46bb7	-0.111533575
50	0xbfb5e20c	-1.4209609
51	0xbd911bd5	-0.07085387
52	0xbea27e05	-0.3173677
53	0x3d7a6a1e	0.061136357
54	0xbc7d6d9f	-0.01546803
55	0x3d18adc3	0.037275087
56	0x3d499f1c	0.049224004
57	0x3e032f60	0.12811041
58	0x3e167598	0.14693296
59	0xbf1c331c	-0.61015487
60	0xbe8b0c45	-0.27157798
61	0xbe9aa5f0	-0.30204725
62	0x3e3ddd92	0.18541554
63	0xbd0ae780	-0.03391218
64	0x3d055802	0.032554634
65	0xbd86ceda	-0.065824226
66	0x3ea8ae40	0.32945442
67	0xbdab3fec	-0.083618015
68	0xbf3006f3	-0.68760604
69	0xbe8b94bf	-0.27261922
70	0x3eb856e6	0.36003798
71	0x3e299510	0.16560769
72	0x3e74d346	0.2390872
73	0xbdfac592	-0.12244715
74	0xbe17472e	-0.14773247
75	0xbf9d3805	-1.2282721
76	0xbe57db3e	-0.21079728
77	0x3e1eb796	0.1549972
78	0x3d60ad33	0.054852676
79	0x3ef90e02	0.486435
80	0xbf91be73	-1.1386245
81	0xbe7d4d95	-0.24736626
82	0x3e85a839	0.26104906
83	0xbf4cccbe	-0.7999991
84	0x3e75e7a3	0.24014144
85	0xbbf721c6	-0.007541868
86	0x3e4f9f10	0.20275521
87	0xbbd5c596	-0.006523798
88	0xbd2d2069	-0.042267237
89	0xbca11e88	-0.019667879
90	0xbc337d7e	-0.010955213
91	0xbe1c3b29	-0.15256943
92	0x3ed3d325	0.41372028
93	0x3e7be7b4	0.24600106
94	0xbe1248c7	-0.14285575
95	0xbd991694	-0.074750096
96	0x3f020f3e	0.5080451
97	0xbecfa710	-0.40557146
98	0x3e951bbe	0.29122728
99	0xbe473d05	-0.19456871
100	0xbdf8f1b8	-0.12155479
101	0x3da0297b	0.07820412
102	0x3d27ed50	0.040997803
103	0xbeb68669	-0.35649422
104	0xbdef045c	-0.11670753
105	0xbd252c80	-0.04032564
106	0xbe02a922	-0.12759832
107	0xbe9ae262	-0.3025084
108	0xbf7f968d	-0.998391
109	0xbcf12a86	-0.029439222
110	0x3ead16ea	0.33806545
111	0x3e64dc2f	0.22349618
112	0x3d689168	0.056779295
113	0xbf8c3e6c	-1.095655
114	0xbe8fdf86	-0.28100222
115	0x3e14f58d	0.14546795
116	0xbe0c7adc	-0.13718742
117	0xbdc9496a	-0.09828456
118	0x3d479922	0.048730023
119	0xbe17c2df	-0.14820431
120	0x3e047b32	0.1293762
121	0x3cde3ebf	0.027129529
122	0x3d085f91	0.033294264
123	0xbf62cd4f	-0.88594526
124	0xbebb4c0d	-0.3658146
125	0xbd2baa98	-0.041910738
126	0x3e046edc	0.12932914
127	0xbe2ecfb8	-0.17071426
128	0x3ee53616	0.44767827
129	0xbd64471f	-0.05573189
130	0x3e9d83e5	0.3076469
131	0x3d5cc52a	0.053898968
132	0x3d52e63d	0.051489104
133	0x3eb4f0bd	0.3533992
134	0xbd8d21c0	-0.06891203
135	0xbfca1896	-1.5788753
136	0xbf695317	-0.9114241
137	0xbf4fbb43	-0.81145114
138	0x3db2cdae	0.087306365
139	0x3d28f76b	0.04125158
140	0x3c6419a1	0.013922126
141	0xbeb32d3e	-0.34995455
142	0x3e7b9fb2	0.24572638
143	0xbd715a52	-0.058924027
144	0xbb50be62	-0.0031851758
145	0x3da0f0ce	0.0785843
146	0x3dfa67d5	0.12226836
147	0x3e8e998c	0.27851522
148	0x3debccce	0.11513673
149	0xbe7f9c44	-0.24961954
150	0x3e1f0691	0.15529849
151	0xbe986ad5	-0.29769006
152	0x3c9df4a6	0.019281697
153	0xbecdf211	-0.40223745
154	0x3ee263a2	0.4421664
155	0xbee3533f	-0.4439945
156	0x3d4f4574	0.050603345
157	0x3e7948cd	0.24344178
158	0xbc4b058e	-0.012391461
159	0xbe9955d0	-0.29948282
160	0x3ed04b2b	0.4068235
161	0x3d9ab312	0.07553686
162	0x3c0e6d79	0.0086930925
163	0xbe078a4e	-0.13236353
164	0x3e351f6e	0.1768777
165	0x3d7da2f3	0.06192298
166	0xbdddbf97	-0.108275585
167	0x3ea23732	0.31682736
168	0x3e8c831c	0.2744378
169	0xbd84d081	-0.064850815
170	0xbe5f00b0	-0.21777606
171	0xbb991a43	-0.00467232
172	0x3e4d62ea	0.20057264
173	0xbe10dae2	-0.14145997
174	0xbfce12db	-1.6099504
175	0x3a9d0e2a	0.0011982371
176	0xbe5ea85b	-0.2174391
177	0x3e5d6aa9	0.21622719
178	0x3eb8a48b	0.36063036
179	0xbea53c7c	-0.32272708
180	0xbdb11ffa	-0.08648677
181	0x3dfc0a11	0.123066075
182	0x3d825ba0	0.06365132
183	0xbde65162	-0.11245991
184	0x3d8efaac	0.069814056
185	0x3dc11936	0.09428637
186	0x3eb705f9	0.35746744
187	0xbea22b5d	-0.3167371
188	0x3b352bdd	0.0027644553
189	0x3d312aae	0.043253593
190	0xbe859c00	-0.2609558
191	0xbe2060a6	-0.15661868
192	0x3ef35571	0.47526124
193	0x3cf92c6f	0.030416695
194	0xbd7fbba7	-0.06243482
195	0x3db37909	0.0876332
196	0x3dc3b3f7	0.0955581
197	0xbde07e4a	-0.10961588
198	0x3e8a314f	0.26990744
199	0x3e335b0e	0.17515203
200	0xbefbf4a6	-0.4921009
201	0xbd8c8b7e	-0.068625435
202	0x3e0a1aaf	0.13486741
203	0x3dfb3969	0.122668095
204	0xbf8bbec3	-1.0917591
205	0xbe9ca7f3	-0.30596885
206	0xbdac34d6	-0.08408515
207	0xbfbbcc00	-1.4671631
208	0xbe9cd174	-0.3062855
209	0x3e8a8e55	0.27061716
210	0x3dcd44fe	0.10022925
211	0x3e378fc2	0.17925933
212	0xbe7ff937	-0.24997412
213	0x3d622314	0.055209234
214	0x3df15523	0.11783817
215	0x3de2895e	0.11061357
216	0xbd8dd7b7	-0.0692591
217	0xbd01e1de	-0.031709544
218	0x3d992526	0.074777886
219	0xbd5c9ef2	-0.05386252
220	0xbd051999	-0.032495115
221	0x3e5cbd7b	0.21556656
222	0xbdf420af	-0.119202964
223	0xbbd2d954	-0.006434599
224	0xbe8cbdf3	-0.2748867
225	0x3e1109d9	0.14163913
226	0x3e77b4f8	0.24190128
227	0x3d52d457	0.051472034
228	0xbde246e6	-0.11048679
229	0xbf5a3b07	-0.8524632
230	0xbe5f7a03	-0.21823888
231	0x3db717af	0.08940064
232	0x3d9c5b16	0.07634561
233	0x3e851ca3	0.2599841
234	0x3e893b64	0.26803124
235	0x3d91e584	0.07123855
236	0x3c951797	0.018199725
237	0x3c0068a0	0.007837445
238	0xbfb85731	-1.4401609
239	0x3c83e36c	0.016099654
240	0xbd2f1f21	-0.042754296
241	0xbe441891	-0.19149996
242	0x3d6c717a	0.057725407
243	0x3dcf4b06	0.101217315
244	0xbfaf891d	-1.3713719
245	0xbe493d46	-0.1965228
246	0xbe27c62e	-0.16384193
247	0x3d696381	0.05697966
248	0xbe341171	-0.17584778
249	0x3e93e069	0.2888215
250	0xbe888c0b	-0.26669344
251	0xbdc38e71	-0.09548653
252	0x3d302c86	0.04301121
253	0xbf8b49c6	-1.0881889
254	0x3bd71fd3	0.006565073
255	0xbe2446c8	-0.16042626

conv.0.bias f4 [16]
0	0x3c905e39	0.017623054
1	0x3dc4f798	0.09617537
2	0xbd11dfb4	-0.03561373
3	0xbd83c1da	-0.064334586
4	0xbdd35901	-0.103197105
5	0xbe91c03c	-0.28466976
6	0x3e503490	0.20332551
7	0xbe89c49c	-0.26907814
8	0xbe4a0604	-0.19728857
9	0xbd84b871	-0.06480492
10	0xbe9d6aaf	-0.30745456
11	0xbce92504	-0.028460033
12	0x3c170dce	0.0092196
13	0x3dc9dde7	0.09856778
14	0xbde917c7	-0.11381488
15	0x3da40733	0.08009186

conv.2.weight f4 [32, 16, 3, 3]
0	0xbdc1492e	-0.09437786
1	0x3e16a44b	0.1471111
2	0xbe0b09a0	-0.1357789
3	0x3e8e4153	0.27784213
4	0x3d689b15	0.056788523
5	0x3d6c711d	0.05772506
6	0x3e5c8441	0.21534826
7	0x3e154b40	0.14579487
8	0xbba4ce5d	-0.005029483
9	0x3e12e46d	0.1434495
10	0xbce90b75	-0.028447846
11	0x3b81876b	0.0039529107
12	0xbdc09e93	-0.09405246
13	0x3cf36f9e	0.02971631
14	0x3d69b870	0.05706066
15	0x3d69cae3	0.057078253
16	0xbdd4571e	-0.10368179
17	0xbe644be1	-0.2229457
18	0x3d289008	0.041152984
19	0x3de09dd8	0.10967606
20	0xbdf37866	-0.118881986
21	0xbe99a85b	-0.30011258
22	0x3e3e665f	0.18593739
23	0xbf36c8df	-0.71400255
24	0xbd132067	-0.035919573
25	0xbd26070e	-0.04053407
26	0x3d9181d0	0.07104838
27	0x3dbeb291	0.093114026
28	0xbda27f32	-0.07934417
29	0xbe01c93f	-0.12674426
30	0x3cb52f24	0.022117205
31	0xbe8d81c1	-0.27638057
32	0xbe4424ad	-0.19154616
33	0xbd79d9a5	-0.060998578
34	0xbd2505b7	-0.040288653
35	0x3e44bc0f	0.19212364
36	0xbb3a19a0	-0.0028396621
37	0x3ce9f8c1	0.028560998
38	0x3dcfbfc8	0.10144001
39	0x3caca6a4	0.021075554
40	0x3c6f16ff	0.014592885
41	0xbe6696d6	-0.22518477
42	0x3e336f6b	0.17522971
43	0xbe6935b5	-0.22774394
44	0xbdd05a31	-0.10173453
45	0x3e90d717	0.282891
46	0x3d90b0e4	0.07064989
47	0xbe8b2bf8	-0.27181983
48	0x3f031f05	0.5121921
49	0xbe894b46	-0.26815242
50	0xbe80e38a	-0.251736
51	0x3e44da65	0.19223936
52	0x3e1cfbba	0.15330401
53	0x3d5097a3	0.050925862
54	0xbe8c1c62	-0.27365404
55	0xbc844df1	-0.016150447
56	0xbe7925e5	-0.24330862
57	0x3d52cd2c	0.0514652
58	0xbe4b4865	-0.19851835
59	0xbe01f023	-0.12689261
60	0x3cbfc577	0.023409588
61	0x3e26986b	0.1626908
62	0x3df1eb11	0.118124135
63	0xbbdb3c70	-0.0066905543
64	0xbe6b3445	-0.22969158
65	0x3b988bf5	0.004655356
66	0x3d259269	0.04042283
67	0xbdef8bad	-0.11696563
68	0x3e470018	0.1943363
69	0x3cdf81e2	0.027283613
70	0xbe86ee8f	-0.2635388
71	0xbe8e0986	-0.2774164
72	0xbe54e3e7	-0.20790063
73	0x3d065d3b	0.032803755
74	0x3eea2ae9	0.45735863
75	0x3c531e90	0.012885705
76	0x3b629a6e	0.003457691
77	0x3e7dda84	0.24790388
78	0x3d820170	0.063479304
79	0x3e3f2d1a	0.18669549
80	0x3dc24e7b	0.09487625
81	0x3cd3c9f4	0.025853135
82	0xbe9cd99f	-0.30634782
83	0x3e36a5e7	0.17836724
84	0xbd803139	-0.062593885
85	0xbd9f3970	-0.07774627
86	0xbd99d36c	-0.07511029
87	0x3cd1dda2	0.025618378
88	0x3e17eeb7	0.14837156
89	0x3e673fb0	0.22582889
90	0x3e221b69	0.15830769
91	0x3d0b15a1	0.033956174
92	0x3e856448	0.2605307
93	0xbc936a1c	-0.017994933
94	0xbca3d14f	-0.019997267
95	0xbe854923	-0.2603236
96	0x3d9b4540	0.07581568
97	0x3e2a40f8	0.16626346
98	0xbe43df73	-0.19128208
99	0xbd6123c2	-0.054965742
100	0x3c1644c5	0.009171669
101	0xbe9b08a5	-0.30280033
102	0xbe001d05	-0.1251107
103	0xbdae9b9d	-0.08525775
104	0xbdcef282	-0.101048484
105	0x3de9d822	0.11418177
106	0xbe2e9e24	-0.17052513
107	0xbd9a600c	-0.07537851
108	0x3c6c16c9	0.014409729
109	0xba384011	-0.00070285896
110	0xbde5c96f	-0.11220061
111	0x3caa426d	0.020783627
112	0xbe2a4b1b	-0.16630213
113	0xbc84f798	-0.016231343
114	0x3d9353e3	0.071937345
115	0x3c4b41b6	0.012405803
116	0xbdd236a5	-0.10264329
117	0xbe1c0d36	-0.15239415
118	0xbf1922c4	-0.59818673
119	0x3e01435b	0.1262335
120	0xbd5f1720	-0.054465413
121	0xbdd39499	-0.10331077
122	0xbe960b45	-0.29305473
123	0xbf2aa885	-0.6666339
124	0x3e16ce7b	0.14727204
125	0x3dcdfc7b	0.100579225
126	0x3e33bc78	0.17552364
127	0xbb2bc732	-0.002621126
128	0x3d0344f4	0.03204818
129	0x3e2d8b88	0.16947758
130	0xbd92ddd7	-0.07171219
131	0xbd7cde7e	-0.061735623
132	0x3c5e3137	0.013561538
133	0x3d8cf6e8	0.06883031
134	0x3e1ba678	0.15200222
135	0x3bc3b39c	0.005972339
136	0xbc9e0c10	-0.019292861
137	0x3dcdae0d	0.10042963
138	0x3e0c0e59	0.13677348
139	0x3e399402	0.18122867
140	0x3c3495ae	0.011022015
141	0x3d9a9784	0.075484306
142	0xbed80668	-0.42192388
143	0x3d681809	0.056663547
144	0xbc77caf1	-0.015124069
145	0x3aefa59e	0.0018283611
146	0xbb381632	-0.0028089401
147	0x3d9c35d4	0.076274544
148	0xbe959cda	-0.2922123
149	0xbd154341	-0.03644109
150	0xbdd4b27a	-0.10385604
151	0x3bb03bdf	0.005378231
152	0x3aadc31d	0.0013257001
153	0x3dae4043	0.08508351
154	0x3dc7b011	0.09750379
155	0xbd901443	-0.070351146
156	0xbff31f97	-1.8994015
157	0x3d11246b	0.03543512
158	0x3cc9cce0	0.024633825
159	0xbe439f47	-0.19103728
160	0x3dea51a9	0.11441357
161	0xbd27b531	-0.040944282
162	0xbcb81a52	-0.022473488
163	0xbbd1b6ef	-0.006399981
164	0x3d00fe21	0.031492356
165	0x3dfc67ae	0.12324463
166	0x3de1569a	0.11002846
167	0x3dc071f9	0.093967386
168	0x3d01e2fc	0.03171061
169	0x3d9c8b99	0.07643814
170	0xbd9e3e03	-0.077266715
171	0xbdeca3a1	-0.11554647
172	0xbe8009a9	-0.2500737
173	0x3e1358ba	0.14389315
174	0xbe345106	-0.17609033
175	0x3e27180c	0.16317767
176	0xbd9580e6	-0.07299976
177	0xbe9e018f	-0.30860564
178	0xbdebe7d6	-0.115188286
179	0x3e4236b1	0.18966176
180	0xbe87a606	-0.26493853
181	0xbea80ce5	-0.32822338
182	0xbf006c28	-0.50165033
183	0xbe9864df	-0.2976446
184	0x3e1f9105	0.15582664
185	0x3e9f0eb5	0.31065908
186	0x3c143b74	0.009047378
187	0x3d49dc59	0.049282406
188	0xbd032829	-0.03202072
189	0x3c17995b	0.009252871
190	0xbe10873e	-0.14114091
191	0xbb61c37e	-0.0034448798
192	0xbaeef93e	-0.0018232239
193	0x3e171917	0.14755665
194	0xbe8c8710	-0.27446795
195	0xbe7bdac8	-0.24595177
196	0xbe9c430b	-0.305199
197	0x3de285d9	0.11060686
198	0xbdb196d1	-0.08671344
199	0xbd954e78	-0.07290357
200	0x3e80ec7b	0.2518042
201	0xbb784bed	-0.0037887052
202	0xbe1c1ba1	-0.15244915
203	0xbf2d7a0d	-0.6776436
204	0x3d8ff91f	0.07029938
205	0x3c6e7b9e	0.01455584
206	0x3ec6fa7c	0.3886298
207	0xbd71ef47	-0.059066083
208	0x3cdf298b	0.027241489
209	0xbe2a3f26	-0.16625652
210	0x3e2587d0	0.1616509
211	0xbd63cefe	-0.055617325
212	0xbe5bb189	-0.21454443
213	0x3e4860bc	0.19568151
214	0xbe3990ca	-0.18121639
215	0x3ca5132e	0.020150747
216	0xbcf680c9	-0.030090706
217	0x3cf357af	0.029704897
218	0xbd19b5ec	-0.03752701
219	0x3e01006a	0.12597814
220	0x3e3312c0	0.17487621
221	0xbef59d75	-0.47971693
222	0x3e0344c4	0.12819201
223	0x3e4f7ae6	0.20261726
224	0x3e32350f	0.17403053
225	0x3e4ed892	0.20199803
226	0x3e04f6dd	0.12984796
227	0x3da4492d	0.0802177
228	0x3db1ecf1	0.08687771
229	0x3e22d031	0.15899731
230	0x3d8df624	0.06931713
231	0x3e018f07	0.12652217
232	0xbdc5695e	-0.09639238
233	0x3dc480f1	0.09594906
234	0x3d150aa2	0.036387093
235	0x3e040f6d	0.1289651
236	0xbec52f51	-0.38512662
237	0xbe2c5f71	-0.16833283
238	0xbca5e531	-0.020250889
239	0x3e0ccdbd	0.13750358
240	0x3ca19c96	0.019727986
241	0xbe63c711	-0.22243907
242	0x3e450f6c	0.19244164
243	0x3d6dd6d6	0.05806621
244	0x3ea13794	0.31487715
245	0x3c53ac34	0.012919474
246	0x3e1c8f32	0.15289
247	0x3e3f2641	0.18666936
248	0xbe00fe7f	-0.12597083
249	0x3e365cfe	0.17808911
250	0x3caca435	0.021074394
251	0xbe3333c4	-0.17500216
252	0x3e4d2f1c	0.20037502
253	0xbcddd2bb	-0.027078023
254	0x3e0037b5	0.1252125
255	0x3d9e7f54	0.0773913

conv.2.bias f4 [32]
0	0x3ddb8e0e	0.10720454
1	0xbd0a14f9	-0.033711407
2	0xbe3d09f5	-0.1846083
3	0xbe1fad73	-0.1559351
4	0x3da56551	0.08075965
5	0xbdd741e9	-0.10510618
6	0x3dfddf5e	0.123961195
7	0xbe03c151	-0.12866713
8	0x3d08f046	0.033432268
9	0xbda836a1	-0.08213545
10	0x3d01d4de	0.031697147
11	0x3db66e53	0.089077614
12	0xbd8c5c64	-0.068535596
13	0x3d12159a	0.035665132
14	0x3d5a50c8	0.053299695
15	0xbd483f08	-0.048888236
16	0x3de6b159	0.11264295
17	0x3d5bc4be	0.053654425
18	0x3d933d01	0.0718937
19	0xbe31b17f	-0.17352866
20	0xbd660f72	-0.056167074
21	0x3e168997	0.14700924
22	0xbe4dd627	-0.20101224
23	0x3d0d03a1	0.03442729
24	0x3def1f12	0.11675848
25	0x3e1d2ca5	0.15349062
26	0xbd8cc22d	-0.068729736
27	0x3cd4cbc3	0.025976067
28	0x3e030a2f	0.12796853
29	0x3d92f2de	0.071752295
30	0xbc90e551	-0.017687472
31	0xbd0ca326	-0.034335278

conv.4.weight f4 [64, 32, 5, 5]
0	0xbdb70373	-0.08936205
1	0xbd4d256c	-0.050084516
2	0x3e479b6b	0.19492881
3	0xbd9448c7	-0.07240444
4	0xbd7934ce	-0.060841374
5	0xbdaa61f9	-0.08319468
6	0xbdfba4e5	-0.122873105
7	0x3e33b954	0.17551166
8	0xbe8da02c	-0.27661264
9	0x3e182608	0.14858258
10	0x3e9bfc9c	0.30466163
11	0xbb25ce5a	-0.0025299997
12	0x3d48670e	0.048926406
13	0xbe95473f	-0.2915592
14	0xbe248f61	-0.1607032
15	0xbea3deaf	-0.32005832
16	0x3c3106ff	0.010804891
17	0xbe2848ac	-0.16433972
18	0x3e87c06d	0.26513997
19	0xbeb22461	-0.3479338
20	0xbc259167	-0.010105467
21	0xbdf56da9	-0.11983807
22	0x3d725e91	0.059172217
23	0x3d55ce1d	0.052198518
24	0xbdd5486f	-0.10414206
25	0xbe96d170	-0.29456663
26	0xbec215c5	-0.37907234
27	0x3e579570	0.210531
28	0x3e4aef45	0.19817837
29	0xbdcdb68f	-0.10044586
30	0xbe93fa72	-0.28902012
31	0xbd342e8c	-0.043989703
32	0xbebc438d	-0.36770287
33	0x3de76666	0.11298828
34	0xbdb4480d	-0.08802805
35	0x3db63b15	0.08897988
36	0xbedb4096	-0.42822713
37	0x3e4a13f2	0.19734171
38	0x3ea13037	0.31482098
39	0xbf37bd42	-0.7177316
40	0xbe431ac7	-0.19053183
41	0x3d85be9a	0.06530495
42	0x3e405d75	0.18785651
43	0xbe4ca81f	-0.19986008
44	0x3d96b3ee	0.073585376
45	0xbe0a5c49	-0.13511766
46	0x3c7acc57	0.0153075075
47	0x3daae522	0.08344485
48	0xbda72059	-0.08160467
49	0x3d34466d	0.044012476
50	0xbe8c477f	-0.27398297
51	0x3e2ad2c3	0.16681962
52	0xbcc0eaa1	-0.02354938
53	0xbebdf1da	-0.3709858
54	0x3eeb3ce8	0.45944905
55	0x3df4cee7	0.11953526
56	0xbe4151cb	-0.18878858
57	0xbe957a42	-0.29194838
58	0x3e710f64	0.23541027
59	0xbe041001	-0.1289673
60	0xbe81c218	-0.25343394
61	0xbdfc0b27	-0.12306815
62	0xbeb317e8	-0.34979177
63	0xbde7a831	-0.11311377
64	0xbcd70f65	-0.026252458
65	0xbd46c8f9	-0.048531506
66	0xbd8172cb	-0.06320723
67	0x3ea3f9aa	0.32026416
68	0xbd95690c	-0.07295427
69	0xbca99d86	-0.020704996
70	0xbd32d8f5	-0.043663938
71	0x3daa8b5e	0.083273634
72	0x3e3fa8cb	0.18716733
73	0x3d332386	0.04373505
74	0x3c92ea71	0.017934056
75	0x3ba1e577	0.0049406844
76	0xbd5826a4	-0.052771226
77	0xbdf26148	-0.11834961
78	0x3d655725	0.05599131
79	0x3d1c57a7	0.03816953
80	0x3dff591c	0.12468168
81	0x3d427333	0.047473144
82	0xbe620187	-0.22070895
83	0x3ee37903	0.44428262
84	0xbe6256a3	-0.22103362
85	0xbe74881d	-0.23880048
86	0x3d128f10	0.035780966
87	0xbe88b1fd	-0.26698294
88	0x3e0f3dec	0.13988465
89	0x3ea7a1ce	0.32740635
90	0x3c2d3940	0.0105727315
91	0x3e3b0cdc	0.18266624
92	0xbdb8066d	-0.089856006
93	0xbe98b6d5	-0.2982699
94	0x3e435be2	0.1907802
95	0x3e18c0e6	0.14917335
96	0x3ddb12f0	0.106969714
97	0xbd9de00f	-0.077087514
98	0x3e106a49	0.14103045
99	0xbdd0a391	-0.10187448
100	0x3e07908a	0.13238731
101	0xbe52568d	-0.20540829
102	0xbdc6de3a	-0.09710355
103	0xbdd84799	-0.10560531
104	0xbda86a5d	-0.08223412
105	0x3e03aaba	0.12858096
106	0x3d160c1b	0.03663264
107	0xbdd3770f	-0.10325443
108	0xbd6cdfa0	-0.057830453
109	0x3d3a6454	0.045505837
110	0xbdf1e45d	-0.11811135
111	0x3e7ec945	0.24881466
112	0x3de8adeb	0.11361297
113	0x3ec6e09b	0.38843235
114	0x3d5ef5b6	0.054433547
115	0xbe816c9b	-0.25278172
116	0x3da18951	0.07887519
117	0xbe00fed7	-0.12597214
118	0x3e167dab	0.14696376
119	0x3daed759	0.08537168
120	0x3ddeb7b5	0.10874883
121	0xbe87d86b	-0.265323
122	0xbb06dbab	-0.002057771
123	0xbe2520e4	-0.16125828
124	0x3e829b1a	0.25508958
125	0x3eada6c1	0.33916286
126	0xbd0221c2	-0.031770475
127	0x3d27d6d1	0.04097635
128	0xbe260233	-0.16211776
129	0x3d207812	0.039177008
130	0x3d7a620a	0.061128654
131	0xbd413ed1	-0.047179047
132	0x3e24f660	0.1610961
133	0x3d1c9feb	0.038238447
134	0xbe59a91f	-0.21255921
135	0xbe156f87	-0.14593326
136	0x3e0324b4	0.1280697
137	0x3d5bece3	0.05369271
138	0x3e95aeb2	0.29234844
139	0xbdacf6f7	-0.08445542
140	0xbe9e24a5	-0.30887333
141	0xbe587f60	-0.2114234
142	0x3d16de45	0.036833066
143	0x3b79a2b8	0.0038091373
144	0xbdfa7ef5	-0.122312464
145	0xbecac35d	-0.39602175
146	0x3e2b2695	0.16713937
147	0x3e02ce74	0.12774068
148	0x3da7d4a6	0.08194856
149	0xbe138a81	-0.14408304
150	0xbeaf0f73	-0.34191474
151	0x3e8b1e7c	0.27171695
152	0xbe4997d1	-0.1968682
153	0x3da96452	0.08271088
154	0xbd2561d7	-0.04037651
155	0xbda3e90e	-0.08003436
156	0xbeca2a71	-0.39485505
157	0xba872d98	-0.0010313271
158	0x3d3d66e0	0.046240687
159	0xbcfe1b44	-0.03101886
160	0xbdaf2184	-0.085513145
161	0x3e658afa	0.22416297
162	0xbe91052a	-0.28324252
163	0x3d2ecb54	0.042674378
164	0x3e900363	0.28127584
165	0x3dae36d6	0.08506553
166	0xbe584f0f	-0.21123908
167	0x3d846852	0.0646521
168	0xbea6acc9	-0.325537
169	0x3e87d01c	0.26525962
170	0x3e47c0fe	0.19507214
171	0xbe836393	-0.25661907
172	0x3d679a44	0.056543604
173	0xbe5a8ec4	-0.21343523
174	0x3cb09b3e	0.0215584
175	0xbd642f88	-0.05570939
176	0x3d29bd3d	0.041440237
177	0x3e40ce94	0.18828803
178	0x3d066c0b	0.03281788
179	0x3ca66adf	0.020314632
180	0xbdf28c9e	-0.11843227
181	0x3dbeb0f1	0.09311093
182	0xbdb36274	-0.08759013
183	0x3c615d75	0.013755192
184	0x3e30c018	0.17260778
185	0xbe33d7e7	-0.17562829
186	0x3e586fab	0.21136348
187	0xbe706a9a	-0.23478165
188	0xbeace27a	-0.33766538
189	0xbdca7416	-0.09885423
190	0xbeba6f4f	-0.36413047
191	0xbe083d89	-0.13304724
192	0x3e092a79	0.13395108
193	0xbe04dcc0	-0.12974834
194	0x3dbbb9ca	0.09166296
195	0xbe59d76c	-0.21273583
196	0xbbed7438	-0.0072465204
197	0xbe8b604e	-0.27221912
198	0xbd4c4da7	-0.049878743
199	0x3d906adf	0.07051634
200	0xbe45a44e	-0.19300959
201	0xbd9655f6	-0.073406145
202	0xbe2fb526	-0.17158946
203	0xbec1a0e1	-0.37818053
204	0x3aa8c44d	0.0012875885
205	0x3ec34f4d	0.3814644
206	0x3ddda400	0.10822296
207	0xbe03d6c3	-0.12874894
208	0xbd289969	-0.04116193
209	0x3d658504	0.056035057
210	0xbd939fd0	-0.07208216
211	0xbe37e7d8	-0.17959535
212	0xbd30bf39	-0.043151114
213	0xbe239644	-0.1597529
214	0x3e9b84eb	0.30374846
215	0xbdfb3276	-0.12265484
216	0x3d4df036	0.05027791
217	0x3e80458a	0.25053054
218	0x3e44dbf2	0.19224527
219	0xbe6595a9	-0.22420372
220	0x3c55af9b	0.013042356
221	0xbe04611b	-0.12927668
222	0xbc631234	-0.01385932
223	0x3e1a81c7	0.15088569
224	0xbd9365d2	-0.07197155
225	0xbe2ccc42	-0.16874793
226	0xbdccabd2	-0.099937096
227	0x3cd3b57d	0.025843376
228	0x3dd94707	0.106092505
229	0x3d580ba3	0.052745473
230	0xbdbe9cbb	-0.09307238
231	0x3dbceafe	0.09224509
232	0xbda697db	-0.08134433
233	0x3eae8eb4	0.3409325
234	0xbe179d97	-0.1480621
235	0xbe61a121	-0.22034122
236	0xbd0d65f6	-0.034521066
237	0x3e43aa89	0.19108023
238	0xbdfdb906	-0.12388806
239	0xbd955569	-0.07291681
240	0x3e546d12	0.20744732
241	0x3bc15059	0.0058994708
242	0x3d0f393c	0.034966692
243	0x3ddeba9d	0.108754374
244	0xbd83616d	-0.06415067
245	0x3e9849f7	0.2974393
246	0xbc398710	-0.011323705
247	0xbe1dc609	-0.15407576
248	0x3d0591e6	0.032609843
249	0x3dcf87af	0.101333015
250	0xbe3691d8	-0.17829072
251	0x3e2fe014	0.17175323
252	0xbe4413fa	-0.19148245
253	0xbdbbc62e	-0.09168659
254	0x3e836ce5	0.25669017
255	0x3db41319	0.08792705

conv.4.bias f4 [64]
0	0xbd0c5c44	-0.03426768
1	0xbd8c1b08	-0.06841093
2	0x3d3ee946	0.046609186
3	0x3c02c7a0	0.007982165
4	0xbba17a2d	-0.0049278946
5	0xbe3d1eb3	-0.18468742
6	0xbd208970	-0.03919357
7	0xbd375c66	-0.044765852
8	0x3e259910	0.1617167
9	0x3ce581a4	0.028015919
10	0x3d6b4d6f	0.057446893
11	0xbd474e54	-0.048658684
12	0x3c40d685	0.011769895
13	0xbd17fd9a	-0.037107088
14	0xbc3c261e	-0.011483697
15	0xbca1bedd	-0.019744331
16	0xbcb934ac	-0.022608124
17	0x3cae986d	0.021312917
18	0x3da28173	0.07934847
19	0xbd4f8f7c	-0.050673947
20	0x3e40bcb1	0.1882198
21	0xbd5ca01d	-0.053863633
22	0xbd057560	-0.03258264
23	0xbe0c6932	-0.13712004
24	0xbd92a4c8	-0.07160336
25	0x3e891944	0.2677709
26	0xbd582d5a	-0.052777626
27	0x3e118974	0.1421259
28	0xbcc25260	-0.02372092
29	0xbc120029	-0.008911171
30	0xbd218fda	-0.03944383
31	0x3c6bdceb	0.014395933
32	0xbcc0c6fd	-0.023532385
33	0xbc993264	-0.018700786
34	0xbc21a368	-0.009865619
35	0x3e59b366	0.21259841
36	0x3df4f21b	0.119602405
37	0x3e058044	0.1303721
38	0xbd205a00	-0.03914833
39	0xbd5069e3	-0.05088223
40	0x3deec028	0.11657745
41	0xbbc7c547	-0.0060965153
42	0xbd3c9544	-0.04604079
43	0xbd099007	-0.03358462
44	0xb9ec56d9	-0.00045078134
45	0xbd04cab1	-0.032419864
46	0x3dae9c55	0.08525912
47	0x3e8d37f3	0.27581748
48	0xbd0e79be	-0.03478407
49	0xbc81879c	-0.015811734
50	0x3d23c5fb	0.03998373
51	0x3c74035f	0.014893382
52	0x3e561e72	0.20910051
53	0x3e677991	0.22604968
54	0xbd830909	-0.06398208
55	0x3dabfba7	0.08397608
56	0x3e102bbe	0.14079186
57	0xbd609d3a	-0.054837443
58	0x3b019ab6	0.0019776053
59	0xbe02fc2b	-0.12791507
60	0x3e95a13e	0.2922458
61	0x3d87ab33	0.066244505
62	0xbda4b274	-0.0804185
63	0x3e238de9	0.15972103

conv.7.weight f4 [64, 256]
0	0xbd176b2e	-0.03696745
1	0xbd93ad4a	-0.07210787
2	0x3cb1d6a6	0.021708798
3	0x3bfc9cbe	0.007709115
4	0x3cf81b68	0.030286506
5	0xbd344928	-0.04401508
6	0x3d40c1c0	0.047059774
7	0xbd81e5b5	-0.06342641
8	0xbc174400	-0.009232521
9	0xbd806a44	-0.062702686
10	0x3c8f6dca	0.017508406
11	0xbb35b14e	-0.002772409
12	0xbd7baebe	-0.061445944
13	0x3cffeba0	0.031240284
14	0x3bf9c810	0.0076227263
15	0x3d237428	0.039905697
16	0xbc901238	-0.017586812
17	0x3d503332	0.050830074
18	0x3c28b3f8	0.010296814
19	0xbd37c36a	-0.044864096
20	0x3c17cdee	0.009265406
21	0x3a9f4e11	0.0012154003
22	0x3c5317d4	0.012884099
23	0xbd17305b	-0.03691135
24	0x3cb64e10	0.02225402
25	0x3d156010	0.036468565
26	0xbd450314	-0.04809864
27	0x3c7a8188	0.015289672
28	0x3c64b048	0.013958044
29	0xbd450320	-0.048098683
30	0xbcc0791c	-0.02349525
31	0xbc5947b8	-0.013261728
32	0xbd5198bb	-0.051171046
33	0xbcf84bd3	-0.030309593
34	0xbd310c83	-0.043224823
35	0xbd3410d7	-0.043961372
36	0x3c174841	0.009233535
37	0xbd53a2ac	-0.051668808
38	0xbce2f998	-0.027706906
39	0xbc0501d7	-0.008118114
40	0xbc71fa58	-0.014769159
41	0xbca3e722	-0.020007674
42	0xbd8dcb6e	-0.06923567
43	0xbbdb9399	-0.0067009446
44	0x3cbf9254	0.023385204
45	0x3c869d58	0.01643245
46	0x3d00d19e	0.031449907
47	0xbced6f10	-0.028983623
48	0xbbe30b60	-0.0069288462
49	0x3b7e8e80	0.003884226
50	0x3bc60ee0	0.0060442537
51	0x3d2a3ee4	0.041563883
52	0xbd5a293c	-0.05326198
53	0x3d39d05e	0.04536473
54	0x3c192df8	0.009349339
55	0xbd11ca18	-0.035593122
56	0xbd22ff7f	-0.03979444
57	0xbd51dee1	-0.051237945
58	0xbd4742eb	-0.048647802
59	0x3d707b50	0.05871135
60	0xbc8e62e0	-0.017381132
61	0xbcf00b89	-0.029302375
62	0xbb1fdc8c	-0.002439293
63	0xbd20aa1e	-0.039224736
64	0xbd5563e0	-0.0520972
65	0xbcb55e9c	-0.02213984
66	0xbaa98340	-0.0012932792
67	0x3d1fe8d6	0.03904041
68	0xbd757686	-0.059927486
69	0xbc191a68	-0.009344675
70	0x3d306df0	0.043073595
71	0xbd77a20c	-0.060457274
72	0x3d14f81f	0.03636944
73	0x3d1b64c5	0.0379379
74	0xbc798d00	-0.015231371
75	0xb9124600	-0.00013949722
76	0xbd0432e2	-0.032275088
77	0xbcad7fe8	-0.021179155
78	0xb8451800	-4.6990812e-05
79	0xbd5f0d7e	-0.054456227
80	0xbabb9bb6	-0.0014313373
81	0xbd927a61	-0.07152248
82	0xbd8fa123	-0.07013156
83	0x3d195301	0.037432674
84	0xbcb7171c	-0.022349887
85	0x3d232b04	0.039835945
86	0xbc24f7c8	-0.010068841
87	0xbd35ef4e	-0.04441767
88	0xbd5c4432	-0.053775974
89	0x3c8cf928	0.01720865
90	0x3b2bf780	0.002624005
91	0xbd5e5958	-0.054284424
92	0x3d2a7a08	0.041620284
93	0x3cad50a6	0.02115662
94	0xbd1ce1ce	-0.03830128
95	0xbd01d558	-0.0316976
96	0x3ca90d12	0.020636115
97	0xbca7e07f	-0.02049279
98	0xbc7c3114	-0.0153925605
99	0xbd9c72e6	-0.07639103
100	0xbd38a8f4	-0.045083
101	0xbd048295	-0.032351095
102	0x3cc77ab6	0.024350505
103	0xbd85abfd	-0.06526945
104	0x3cb470b8	0.022026405
105	0x3d76f94e	0.06029635
106	0x3cc8cff8	0.02451323
107	0xbc33b528	-0.010968484
108	0xbb062b25	-0.0020472493
109	0xbc931798	-0.017955586
110	0xbd2e91a5	-0.042619366
111	0xbca197c7	-0.019725693
112	0x3d34f95a	0.044183113
113	0x3c56ac50	0.013102606
114	0x3a81a980	0.0009892434
115	0x3ca38844	0.019962437
116	0xbcd7ea39	-0.026356803
117	0x3b0a6fbe	0.0021123732
118	0x3cb06993	0.021534717
119	0x3be9c5a3	0.007134156
120	0xbb583d80	-0.0032995641
121	0x3b4a1360	0.0030834302
122	0x3d30df00	0.04318142
123	0xbcabffcc	-0.020995997
124	0x3d0dba4c	0.034601495
125	0xbd685e66	-0.05673065
126	0xbc56aefc	-0.013103243
127	0xbd30bef8	-0.043150872
128	0xbc816d50	-0.015799195
129	0x3c9a46f0	0.018832654
130	0x3d263f34	0.04058762
131	0x3d2810f2	0.041031785
132	0x3d4b5be0	0.049648166
133	0x3cf0a2dc	0.029374532
134	0xbbd58cd0	-0.0065170303
135	0xbd68637a	-0.056735493
136	0xbd7d21b8	-0.061799735
137	0xbd17c15e	-0.037049644
138	0xbc4aab10	-0.012369886
139	0x3b5c0600	0.0033572912
140	0xbd3e119b	-0.04640351
141	0xbd6061b4	-0.054780677
142	0xbbe9a770	-0.007130556
143	0x3c6c6c40	0.014430106
144	0xbc542264	-0.0129476525
145	0xbcdb9ab0	-0.02680716
146	0x3d03e8c8	0.03220442
147	0xbd27376f	-0.04082435
148	0xbd7c177d	-0.061545838
149	0xbd7b5b72	-0.061366506
150	0x3ce6a7f1	0.028156253
151	0xbc1e11dd	-0.009647814
152	0xbc1e6b4b	-0.009669135
153	0x3cdd181d	0.026989037
154	0xbd46b964	-0.048516646
155	0xbd571cda	-0.05251775
156	0xbd2ca6de	-0.042151324
157	0xbd173db6	-0.036924087
158	0x3ccf1864	0.025280185
159	0x3b22bf80	0.0024833381
160	0xbcf7dbf7	-0.030256255
161	0x3c160ae4	0.00915787
162	0xbc233df9	-0.009963506
163	0x3c86999a	0.016430665
164	0x3d0566b5	0.032568652
165	0xbc41997b	-0.011816378
166	0xbc2eae39	-0.010661655
167	0xbd54ae2d	-0.05192392
168	0x3bba83a0	0.0056919605
169	0x3d2317ee	0.039817743
170	0x3b8d9010	0.004320152
171	0x3c06fdf8	0.008239262
172	0x3c822c60	0.0158903
173	0xbd3e24b0	-0.046421707
174	0xbcdf57b8	-0.027263507
175	0x3d11b14a	0.035569467
176	0x3d575e26	0.05258002
177	0xbd6050b4	-0.054764464
178	0x3c02896a	0.007967332
179	0xbbde6420	-0.006786838
180	0x3d5ab342	0.05339361
181	0x3d79d2d2	0.06099207
182	0x3cbeae24	0.023276396
183	0xbd053d20	-0.032528996
184	0xbd243f2e	-0.040099315
185	0x3c265b78	0.010153644
186	0x3d101ca7	0.035183575
187	0xbd0d6a88	-0.034525424
188	0x3c8da422	0.017290179
189	0x3d052a44	0.03251101
190	0xbd7b695b	-0.06137977
191	0xbd50e6fe	-0.05100154
192	0x3d0cf930	0.03441733
193	0x3d153192	0.036424227
194	0xbd206d80	-0.039166927
195	0xbbd2e310	-0.0064357594
196	0x3d186814	0.03720863
197	0xbcbf86f4	-0.02337978
198	0xbd40063c	-0.046880946
199	0x3c1f53c0	0.009724557
200	0xbc5ea722	-0.013589652
201	0xbd350458	-0.044193596
202	0xbd6c7fe4	-0.057739154
203	0xbd48a790	-0.048987925
204	0xbd7e356e	-0.062062673
205	0xbcfdcf04	-0.030982502
206	0x3d0611ca	0.03273181
207	0x3d6d4014	0.057922438
208	0x3bf80a8b	0.007569616
209	0xbd3603ef	-0.044437345
210	0xbcd029c7	-0.025410546
211	0xbd1e7308	-0.03868392
212	0x3ce3582a	0.027752
213	0xbc5ab08c	-0.013347756
214	0x3d2a9d30	0.041653812
215	0xbcb31a1e	-0.02186304
216	0xbd0d838e	-0.03454929
217	0xbbff5704	-0.0077923555
218	0xbcf1ef3d	-0.029533023
219	0xbcd1ec10	-0.025625259
220	0xbc48091c	-0.012209203
221	0xbbeb8158	-0.00718705
222	0x3cd87355	0.026422182
223	0xbd94d376	-0.072668955
224	0x3cdee650	0.027209431
225	0x3cffd638	0.031230077
226	0x3d4f7184	0.050645366
227	0xbd4c247b	-0.049839478
228	0xbd6dc0b6	-0.05804511
229	0xbd5674dc	-0.05235754
230	0xbd69c0fa	-0.057068802
231	0x3c89b92c	0.01681193
232	0xbd82d1d6	-0.06387679
233	0xbcab5d21	-0.02091843
234	0x3c93c38a	0.018037576
235	0xbd60df24	-0.054900303
236	0xbd68c227	-0.056825783
237	0xbd300c63	-0.042980563
238	0xbcaba7d0	-0.020954043
239	0xbcd39ec8	-0.025832549
240	0x3b838900	0.0040141344
241	0x3ceb7a00	0.028744698
242	0x3c618064	0.013763521
243	0x3be94b8c	0.0071196016
244	0x3c4acca4	0.012377892
245	0xbb0ebfa0	-0.0021781698
246	0xbc8aa44a	-0.016924042
247	0xbd57a0b1	-0.05264348
248	0x3ba980dc	0.005172832
249	0xbceae69c	-0.028674416
250	0xbd38ab31	-0.045085136
251	0x3d0097a4	0.031394616
252	0x3b4c653a	0.0031188265
253	0xbd65b0cd	-0.056076813
254	0xbcb2ef91	-0.02184275
255	0xbb958775	-0.004563267

conv.7.bias f4 [64]
0	0xbd52d504	-0.05147268
1	0x3eb72e91	0.35777715
2	0x3e3e321f	0.18573807
3	0x3eb17f75	0.34667554
4	0x3ec23f8b	0.37939104
5	0x3eabd8f6	0.33563966
6	0xbe46cfd8	-0.19415224
7	0x3e1c004a	0.15234485
8	0x3d093325	0.03349604
9	0x3e7aeda2	0.24504712
10	0xbda47635	-0.08030359
11	0x3dc5c969	0.096575566
12	0x3e942976	0.28937882
13	0x3ea080f5	0.31348386
14	0x3eee0ccf	0.46494147
15	0xbe871531	-0.26383355
16	0x3e4d1165	0.20026167
17	0x3e7d02b6	0.24708065
18	0x3f1db3a5	0.6160224
19	0x3ddafbd1	0.106925614
20	0x3d49c52b	0.0492603
21	0x3db2f2aa	0.08737691
22	0x3e8739ce	0.2641129
23	0x3e8b5ce7	0.27219316
24	0x3da74b67	0.08168679
25	0xbc600209	-0.01367236
26	0xbd6ca3f5	-0.05777355
27	0xbd693b9c	-0.056941614
28	0x3dd9366d	0.10606084
29	0xbdab6aed	-0.08370004
30	0x3e316cb3	0.17326622
31	0xbdcfdca5	-0.101495065
32	0xbe1d3a9e	-0.15354392
33	0x3e3c0632	0.18361738
34	0xbcad8393	-0.021180904
35	0xbe37ea50	-0.17960477
36	0x3dd09377	0.10184377
37	0xbdf863a6	-0.121283814
38	0x3dab63bc	0.08368632
39	0x3d58d553	0.052937817
40	0x3dacc71e	0.08436416
41	0x3d8855ec	0.06657013
42	0xbd39c6f8	-0.045355767
43	0x3d9513db	0.07279178
44	0x3e61c707	0.22048579
45	0x3e207367	0.15669023
46	0x3d9a8ad3	0.0754601
47	0x3e4698eb	0.19394271
48	0x3df18bf9	0.11794276
49	0x3e175335	0.14777835
50	0xbe293ce2	-0.16527131
51	0x3d30fd9a	0.043210603
52	0x3da19ce7	0.07891255
53	0xbd8f0c4b	-0.069847666
54	0x3e385000	0.17999268
55	0xbe6f002c	-0.2333991
56	0xbdb06be6	-0.0861433
57	0xbe839e16	-0.25706547
58	0x3ecfb401	0.4056702
59	0xbd06c5e1	-0.032903556
60	0x3ebcaab5	0.3684899
61	0xbe183e4a	-0.14867511
62	0x3e94f008	0.2908938
63	0x3df19f0e	0.117979154

out.weight f4 [4, 64]
0	0x3da9e3c8	0.08295399
1	0x3f0ebe34	0.55758977
2	0xbd6fb3fc	-0.058521256
3	0x3ebf502d	0.37365857
4	0x3e9ff8c9	0.31244496
5	0x3e222938	0.15836036
6	0xbe269185	-0.16266449
7	0x3eacd574	0.33756602
8	0xbdbd5caf	-0.092461936
9	0x3e69f937	0.22848974
10	0x3e282e9e	0.16424033
11	0x3e601836	0.21884236
12	0x3e9759d8	0.29560733
13	0x3ccb34ed	0.02480551
14	0x3d0f59a4	0.034997597
15	0x3aeb11bc	0.0017934362
16	0xbf1f0468	-0.621161
17	0x3dc6335b	0.09677764
18	0x3ec9275d	0.39287844
19	0x3e0a08a4	0.13479859
20	0x3df65b00	0.120290756
21	0xbd0369b5	-0.032083232
22	0x3e8933e1	0.26797393
23	0x3c8c45cd	0.017123127
24	0xbe27ecc2	-0.1639891
25	0xbd237e0b	-0.039915126
26	0x3f08a330	0.53374004
27	0x3db25ffe	0.08709715
28	0x3de96228	0.11395675
29	0xbd406e72	-0.04698033
30	0x3e1d9ba4	0.15391403
31	0xbd8f51b3	-0.06998005
32	0xbe0980bf	-0.13428019
33	0x3e289e4c	0.16466635
34	0x3d390540	0.045171022
35	0xbe2007f9	-0.15628041
36	0x3e917a93	0.2841383
37	0xbf59ba50	-0.85049915
38	0xbe228467	-0.1587082
39	0xbe52350e	-0.20528051
40	0x3e36cc54	0.17851382
41	0x3e5629d1	0.20914389
42	0x3d86fef7	0.065915994
43	0xbccc4a7b	-0.024937859
44	0xbfaaad48	-1.3334131
45	0xbf9ff6ac	-1.2497153
46	0xbe31f5f6	-0.17378983
47	0xbfa2de69	-1.2724124
48	0xbf410cb7	-0.75410026
49	0x3d2ef2c8	0.042712003
50	0x3de7526d	0.11295018
51	0xbd2517c9	-0.040305886
52	0xbe9c65d9	-0.30546454
53	0x3cfcafbe	0.03084552
54	0xbe6f3593	-0.2336028
55	0x400ba5fe	2.1820064
56	0xbd48ce2b	-0.049024742
57	0xbb128d59	-0.0022362082
58	0x3e3c969b	0.18416826
59	0xbe860da0	-0.2618227
60	0x3dab3a26	0.083607
61	0x3aa86ab2	0.001284918
62	0x3f0deae4	0.5543654
63	0xbe637aca	-0.22214809
64	0xbd9ca940	-0.076494694
65	0x3dddc2db	0.10828181
66	0x3e8cec63	0.275241
67	0xbd744ecb	-0.059645455
68	0x3ee07c86	0.43845004
69	0x3eb9a767	0.3626053
70	0x3e5d0b0e	0.21586248
71	0xbe28bad2	-0.16477516
72	0xbf8b02a5	-1.0860182
73	0x3edd3a10	0.4320836
74	0x3e102646	0.140771
75	0x3e915dde	0.28391927
76	0x3ea71908	0.32636285
77	0x3e6ce1ae	0.23132965
78	0x3e36a414	0.17836028
79	0xbcea1f31	-0.028579326
80	0xbaa43c04	-0.0012530093
81	0x3ddca8a7	0.107743554
82	0x3efa79fe	0.48921198
83	0xbfbabfc1	-1.4589769
84	0xbe084bbd	-0.13310142
85	0x3ebb6193	0.3659788
86	0x3e758a3b	0.23978512
87	0xbd1fe3eb	-0.03903572
88	0xbf883a99	-1.0642883
89	0xbdf263b9	-0.11835427
90	0xbe2fb857	-0.17160164
91	0x3df3afce	0.118987665
92	0xbfbe32f0	-1.4859295
93	0xbd9b5baa	-0.07585843
94	0xbd6354c2	-0.055500753
95	0x3e02bae0	0.127666
96	0xbe401c15	-0.18760712
97	0x3ecc7fe6	0.3994133
98	0xbca3c3c3	-0.019990807
99	0xbd50de14	-0.05099304
100	0xbc2ed901	-0.010671855
101	0x3d598d9c	0.053113565
102	0xbee00c76	-0.43759507
103	0xbd4e66ae	-0.05039089
104	0x3abc5ae8	0.0014370354
105	0xbd86874d	-0.06568775
106	0x3d9cb261	0.076512106
107	0xbe651116	-0.22369799
108	0x3e16609a	0.14685288
109	0xbd8bf77d	-0.06834314
110	0xbed0040e	-0.40628093
111	0x3ddfa910	0.10920918
112	0xbe235523	-0.15950446
113	0x3e17a6a6	0.14809665
114	0xbe908e35	-0.28233495
115	0x3ebff0e7	0.3748848
116	0x3dd2c024	0.10290554
117	0xbc945f2d	-0.01811179
118	0x3e3a17db	0.18173163
119	0xbeb5aa46	-0.3548147
120	0x3d9b9060	0.07595897
121	0xbe986fa7	-0.29772684
122	0x3bed9ace	0.00725112
123	0x3eb002ca	0.34377128
124	0x3ea4b1eb	0.3216699
125	0x3ce2488f	0.02762249
126	0x3d1aa581	0.037755493
127	0xbd0980c3	-0.033570062
128	0x3d9f1312	0.07767309
129	0x3db9b854	0.09068361
130	0xbf580720	-0.8438587
131	0xbcdd3238	-0.027001485
132	0x3cb34382	0.021882776
133	0x3d7d8a41	0.061899427
134	0xbea2acb3	-0.31772384
135	0xbd74b681	-0.05974436
136	0x3e27a28d	0.16370602
137	0x3dd3d256	0.10342853
138	0xbe48cfb3	-0.19610481
139	0x3e70a068	0.2349869
140	0x3e87fbab	0.26559195
141	0x3e83e648	0.25761628
142	0x3dbd49c5	0.09242586
143	0xbf08f44b	-0.5349776
144	0x3e07e99d	0.1327271
145	0x3ee0532b	0.43813452
146	0x3f08c207	0.5342106
147	0x3dcd6bf3	0.10030355
148	0x3d4ebdd6	0.05047401
149	0x3b17c297	0.0023156756
150	0x3ec8bae9	0.392051
151	0x3df11f11	0.117735036
152	0xbd164476	-0.036686383
153	0xbf6c33fd	-0.9226683
154	0xbe265679	-0.16243924
155	0x3c83ac69	0.016073423
156	0xbe0e072c	-0.13869923
157	0x3ed97e6f	0.42479274
158	0x3e981e41	0.29710582
159	0x3dbefc74	0.09325495
160	0xbdc80d53	-0.097681664
161	0x3df2fe48	0.118649065
162	0x3d5c8d7c	0.053845868
163	0x4006771d	2.10102
164	0x3d2aab66	0.041667365
165	0x3c9adab6	0.018903118
166	0xbd886c6a	-0.06661303
167	0xbddb9bdb	-0.107230864
168	0xbe15110c	-0.14557284
169	0xbfcd32df	-1.603115
170	0xbd872f09	-0.06600768
171	0x3d67f8cd	0.05663376
172	0xbcfdbd81	-0.030974152
173	0x3da4b72c	0.0804275
174	0xbe09d123	-0.13458686
175	0xbdbcfd5d	-0.09228013
176	0x3e1a1b38	0.15049446
177	0xbfe202e0	-1.7657127
178	0x3ef12fde	0.47106832
179	0xbe8ef025	-0.2791759
180	0x3dfe2125	0.124086656
181	0xbc892d56	-0.01674525
182	0x3edcc85a	0.43121606
183	0xbe46c324	-0.19410378
184	0x3dd5046c	0.10401234
185	0x401e384f	2.4721868
186	0x3ef32b41	0.47493938
187	0xbd9c9f1b	-0.076475345
188	0x3f054b5e	0.52068126
189	0xbe7cd90a	-0.24692169
190	0x3d6d4861	0.057930354
191	0xbf8c0b43	-1.0940937
192	0x3d741a68	0.059595495
193	0xbc6ff8c0	-0.014646709
194	0x3cdc77b6	0.026912551
195	0x3e957d81	0.29197314
196	0x3e2ab392	0.16670063
197	0x3db9bfcb	0.09069785
198	0xbeaec7c5	-0.34136787
199	0x3ea7aea2	0.32750422
200	0xbe1b6e0d	-0.151787
201	0x3e483bb9	0.19554032
202	0x3e0cb840	0.13742161
203	0xbe07c748	-0.13259614
204	0x3e88f85b	0.2675198
205	0x3e89bc2a	0.2690137
206	0x3f0bdb0b	0.5463111
207	0xbca505db	-0.020144394
208	0xbdf0a1af	-0.11749589
209	0x3e205921	0.15659
210	0x3ecee970	0.40412474
211	0x3e0d7377	0.13813578
212	0x3ee61fa8	0.44946027
213	0xbf627141	-0.8845406
214	0x3eb29df8	0.34886146
215	0x3effd395	0.49966112
216	0x3b80d0bd	0.0039311335
217	0xbe709235	-0.23493274
218	0x3e57cc9b	0.21074145
219	0x3d46c562	0.048528083
220	0xbd27ed76	-0.040997945
221	0xbddd77ce	-0.108138666
222	0xbf992e72	-1.1967299
223	0xbe2a8255	-0.1665128
224	0x3fc9f82b	1.577886
225	0xbe3917a4	-0.18075424
226	0x3dc33ada	0.095327094
227	0xbdabbebb	-0.08385988
228	0x3ed6938e	0.4190945
229	0x3de3ac3d	0.11116836
230	0x3e3202dc	0.17383903
231	0xbf6985cf	-0.912198
232	0xbf91a2f1	-1.1377851
233	0xbd1a457e	-0.03766393
234	0xbdf1109e	-0.117707476
235	0xbf839c24	-1.0282025
236	0x3e209703	0.15682606
237	0xbd78361c	-0.060598478
238	0xbe952aff	-0.29134366
239	0xbd4c65b3	-0.049901675
240	0x3d91dcc5	0.071221866
241	0x3df67177	0.120333605
242	0xbcdbb83d	-0.02682125
243	0x3ec2a0b1	0.38013223
244	0x3e3822d6	0.17982039
245	0x3c34d77e	0.0110377055
246	0x3b836919	0.0040103314
247	0xbeb2e569	-0.3494065
248	0x3dd7ed86	0.10543351
249	0xbde8f515	-0.11374871
250	0x3dff0e76	0.1245393
251	0xbc349e5e	-0.011024086
252	0x3ddce9fa	0.10786815
253	0x3f319b4e	0.693776
254	0xbc9a76f4	-0.01885555
255	0x3e2c0dcb	0.16802137

out.bias f4 [4]
0	0x3f088f72	0.5334388
1	0x3ef225a7	0.4729435
2	0x3eb6b255	0.35682932
3	0x3ecf6bdc	0.40511978
