models/v17.1/model_140500.pth (torch, 295107 bytes, 10 tensors)

conv.0.weight f4 [16, 2, 3, 3]
00000000: f486 043e 60e1 353d d5a0 3dbe 857d 7e3e
00000010: 4396 04be 765e a73d 8e27 a1be a7b7 b13e
00000020: f23a af3d 51f9 ccbc ca8a 693d 9bf4 2abd
00000030: c78e 90bd 8b13 f93d 8241 183d 22dc dfbc
00000040: ce33 8c3c 8f46 603c 0fef 15be 54eb 8b3e
00000050: 3cb7 fa3c c36e 633e a323 3ebe ba49 6c3e
00000060: 2b14 5cbf a57d 07bf b530 31be a106 83bf
00000070: 72aa 1d3f a0ff 9abf 3408 4d3e fec4 31be
00000080: 16a9 673e 8400 15bd 7fe0 753c a392 f43d
00000090: e8ad d5bb c2b9 5e3e c54c eb3d 2cd8 eebd
000000a0: 955e 9f3e 77f8 66bd f3b9 973e bf26 263e
000000b0: 5d06 133e 69a5 973d 4257 f83d ae40 8a3c
000000c0: 96c9 8a3e fbc4 bdbd 9f8c bbbf ad09 acbd
000000d0: f687 9fbe 60f2 893d 7f62 1eba c7e3 523d
000000e0: 1dc3 883d f8f7 153e 81a2 f63d c80d 2abf
000000f0: d2e5 afbe 0f7f aabe 598c 353e 349f 80bd
00000100: e883 c43c f6bc 27bd 22ae a03e fa2d 76bd
00000110: 1836 44bf a616 86be 4d80 bf3e ec9e 1d3e
00000120: 2253 703e a562 02be acd4 edbd 6500 a0bf
00000130: c399 53be 3850 153e 94e5 c53c a724 023f
00000140: ab6e 97bf 0553 8ebe 6838 6f3e b2ee 46bf
00000150: bab6 513e 6065 9cbc 26a5 403e f306 7d3c
00000160: 42ec 6ebd cd43 49bc d70e c1bc a762 50be
00000170: e040 e53e 4998 893e 8dc0 12be 9355 00be
00000180: 15de 103f 1987 c2be 7af7 b63e 476f 68be
00000190: 6e86 b7bd a9a4 b33d 6e9a b03c a331 ccbe
000001a0: 8843 adbd 6f64 2bbd f22e 00be d5aa a5be
000001b0: b50b 7cbf c6ec 08bd b07b b13e c80f 6b3e
000001c0: 2635 613d 6b2d 8bbf a634 83be 5ebb dc3d
000001d0: 24cd 09be 79f6 e6bd 6704 7d3c 2d36 21be
000001e0: 8ac9 fa3d e624 ec3b f902 e93c 179e 4fbf
000001f0: 40e0 19be 75df bbbd 9d92 4c3e 91c8 38be
00000200: 29a0 fe3e ad59 c8bd 9bd0 9b3e 80ec da3d
00000210: c6ce 623d 400f d53e b3f5 92bd ddf0 cfbf
00000220: 6200 63bf b03b 50bf 8ba2 b83d b34d 3e3d
00000230: 29f9 1bbd 7287 83be b59e 533e 078f 50bd
00000240: bbb5 93bc 1a32 c63d affe aa3d d1ec a43e
00000250: 1c77 b33d eac3 5ebe acb4 1a3e fd6b aabe
00000260: ee45 393d df49 c4be 930c fd3e 9c3f edbe
00000270: 9414 293d 4f7c 683e f003 513c dbe1 9abe
00000280: 925c dd3e b8bb 6e3d a71e 813c e42a b7bd
00000290: 47ff 173e b3d0 303d a6c6 0abe a7b7 9d3e
000002a0: b041 883e a0a9 8ebd 0030 5dbe 70da 54bc
000002b0: dafd 543e a8ea 12be a51e cdbf abeb 413c
000002c0: 03b4 28be c3ff 543e 6301 b53e d02a 95be
000002d0: ffe7 9cbd 0329 e63d 854e 423d e17b dabd
000002e0: 8f3e 203d 7526 a63d 7606 f03e 0b47 afbe
000002f0: b10e c33c ada2 a13d 8e53 92be 7d2d eabd
00000300: 0ed0 243f 9afc 50bb 6bc8 63bd 3a1b fd3d
00000310: da89 943d 2a82 f3bd ee4f 7f3e a051 2f3e
00000320: 7e32 f0be 6570 41bd c088 0e3e 3392 353e
00000330: faaa 9abf ca32 7bbe 7cb8 88bd 710f babf
00000340: 24db 93be 4ccb 863e af75 013e 62ab 503e
00000350: 26d8 84be 8d86 b43d 21c2 133e 3fd9 533d
00000360: cf37 d9bd 5c64 eebc c50f 843d 4210 97bd
00000370: fa5a b5bc 2d05 5f3e 43d4 f5bd d0c5 0c3d
00000380: 9654 7cbe 6c29 063e 8f61 5e3e 912b 4b3d
00000390: 6e75 29bd 42d5 69bf 1c7b 3bbe 7096 943d
000003a0: 3fa7 923d 8d27 823e d84e 7e3e 2d05 c53d
000003b0: b178 d93c 8bff b63c 2df0 b9bf 4a1d a0bc
000003c0: 440b 23bd 61e1 3fbe 18ad a33d ac75 143e
000003d0: d465 b8bf fa1c 40be 7727 1bbe 99fd 703d
000003e0: e805 20be 36cc 823e 59a2 74be ce4c 75bd
000003f0: 9d9b a93d 8050 90bf 4be3 aa3c ea82 08be
0.12942106 0.044404387 -0.18518384 0.2485257 -0.12947945 0.08172314 -0.3147549 0.34710428
0.08556165 -0.025021227 0.057017125 -0.04173718 -0.070584826 0.12161931 0.037171848 -0.027326647
0.017114546 0.0136886975 -0.14641975 0.2732798 0.030604951 0.22210221 -0.18568282 0.23075
-0.85968274 -0.52926093 -0.17303737 -1.0236398 0.61588204 -1.210926 0.2002266 -0.17360303
0.22623095 -0.036377445 0.015007137 0.11942031 -0.0065209754 0.21750548 0.11489252 -0.11662325
0.31126848 -0.0563893 0.29634055 0.16225718 0.14357896 0.07404596 0.12126018 0.016876545
0.27106923 -0.09266087 -1.4652289 -0.08400283 -0.31158417 0.067356825 -0.0006041899 0.051486757
0.0667784 0.14645374 0.12042714 -0.6642728 -0.34355026 -0.33300063 0.1772932 -0.062803656
0.023988679 -0.04095169 0.31382853 -0.06010244 -0.7664504 -0.26189154 0.37402573 0.15392655
0.23469213 -0.12732942 -0.116128296 -1.250012 -0.20664124 0.14581382 0.024157323 0.5083718
-1.1830648 -0.27797714 0.23361361 -0.7770797 0.20479861 -0.019091308 0.18812999 0.015443551
-0.05833078 -0.012284231 -0.023566647 -0.20350133 0.44776058 0.26873997 -0.14331265 -0.12532644
0.5658887 -0.37993696 0.35735685 -0.22698699 -0.08961187 0.08771641 0.021558013 -0.3988162
-0.08460146 -0.041843828 -0.12517908 -0.32356897 -0.98455364 -0.03342893 0.3466468 0.22955239
0.054982327 -1.0873235 -0.25626105 0.10777925 -0.13457161 -0.1127748 0.015442944 -0.15743323
0.12245472 0.007206547 0.0284438 -0.811006 -0.15026951 -0.091734804 0.19977804 -0.1804526
0.49731568 -0.09782729 0.3043259 0.1068964 0.055372976 0.41613197 -0.0717577 -1.6245381
-0.8867246 -0.81341076 0.090153776 0.04646082 -0.038079415 -0.25689274 0.2066601 -0.05091765
-0.018030992 0.09677525 0.08349358 0.32211927 0.08762953 -0.21754423 0.15107983 -0.33285514
0.045232706 -0.3833761 0.49423656 -0.46337593 0.04127939 0.2270367 0.012757286 -0.3025044
0.43234688 0.05828449 0.015761686 -0.089437276 0.14843474 0.04316778 -0.13552341 0.30804178
0.26612616 -0.06965947 -0.21600342 -0.012991533 0.20799962 -0.14347327 -1.6024977 0.011835973
-0.16474919 0.2080069 0.3535262 -0.29134226 -0.07661437 0.11238291 0.047438163 -0.10668159
0.03912216 0.08112804 0.4687993 -0.3423389 0.023810716 0.07892356 -0.28579372 -0.114344575
0.64379966 -0.0031888844 -0.055611055 0.12358709 0.072528556 -0.11890061 0.24932835 0.17120981
-0.46913522 -0.04722633 0.13919353 0.17731552 -1.2083428 -0.24531093 -0.066758126 -1.4535962
-0.2887813 0.26326978 0.12642549 0.20377877 -0.25946158 0.08814726 0.14429523 0.051720854
-0.10606348 -0.02910059 0.0644832 -0.07376148 -0.022138108 0.21779318 -0.12003376 0.034368336
-0.24641642 0.13101739 0.21716903 0.049602095 -0.041371755 -0.9134103 -0.18308681 0.07255256
0.07160806 0.254208 0.24834764 0.09620128 0.026546808 0.02233865 -1.4526421 -0.019545216
-0.039805666 -0.18738319 0.079919994 0.14498013 -1.4406075 -0.18761054 -0.15151773 0.0588356
-0.15627253 0.25546426 -0.23890056 -0.0598877 0.08281634 -1.1274567 0.020860335 -0.1333119

conv.0.bias f4 [16]
00000000: 250c a1bc 5a7c b43d bc32 bebc 98b4 32bd
00000010: 8b60 85bd bb5b a3be a6ce 663e 7260 a3be
00000020: 10ce 5bbe 01d0 9fbd 8ded c8be 86f6 0bbd
00000030: 9198 173c 80f7 d43d 28ed 03be 342c cd3d
-0.019659111 0.08812781 -0.023217551 -0.04362926 -0.06512555 -0.31905922 0.22539768 -0.3190952
-0.21465325 -0.078033455 -0.39243737 -0.03417065 0.009252683 0.103987694 -0.12883437 0.10018197

conv.2.weight f4 [32, 16, 3, 3]
00000000: e3bc 4cbd a7bd f73d 686e 08be 90ec 753e
00000010: e53b 313d fb5a ee3d 6372 4b3e d37f 283e
00000020: 4091 edbd 211c 3d3e f91d 8d3c 958f 8abd
00000030: e5fe 01be a4b3 5a3d 8940 8d3c c831 723d
00000040: 0a4f 8abb b698 35be 2a4e 07bc 042e 083e
00000050: 3597 23be f92a d0be 018d 893e 59a3 73bf
00000060: 68d4 d5bd 0ab4 98bc f185 5e3d f45f 573d
00000070: ac7e b5bd a7fc 2cbe 6e83 353d 3680 aabe
00000080: 877e e3bd ebd5 fdbd 5341 ed3d 2d38 ed3d
00000090: 0a3e ee3d 6dc6 383d 9b37 f13d 1168 783d
000000a0: b153 503d ad68 7bbe 2c8f 663e 7326 51be
000000b0: 7a3c bbbd e64a 643e 3341 ff3d 96a4 b7be
000000c0: f020 df3e 5bac adbe 0020 47be ec59 0e3e
000000d0: 3ef3 9f3d 0ebe cdbd fa54 9dbe e826 9abd
000000e0: 568f c6be 6261 583d 58a5 8cbe aeb5 acbd
000000f0: dff9 8ebd da23 4e3e d0b4 123e b83d b13d
00000100: 94ea 42be f271 913d d5e1 a03c 3589 69be
00000110: 801b 6f3e e939 9b3d b8c7 a0be 0258 13bf
00000120: ced7 8ebe ae9b d43d 83b6 da3e f191 c43d
00000130: 652c 953c 5ff1 933e 972a b73d 1608 ec3d
00000140: 8a85 113d a210 923d e21d a0be 3d7a 813e
00000150: 1869 99bd 4009 e3bd ea03 cebd c9e7 293d
00000160: 2147 393e 983b 7f3e e266 613e 1f98 adbc
00000170: 7f27 833e 79db a0bd 12e0 7cbd 3cd8 9dbe
00000180: fb97 4a3e e2ab 2c3e ff74 75be 0544 53bd
00000190: 0feb 16bd 06f3 95be 53f4 3fbe f1e0 8ebd
000001a0: 908d e1bd c33a ca3d 531f 1fbe 0f7f 64bd
000001b0: 932f 933c 0055 67bc 13d9 97bd 983c e4bc
000001c0: d42b b3be 4730 64bd 82af 583d 3815 973c
000001d0: 6a25 a9bd 6f46 1abe 960e 36bf 5fa9 d53d
000001e0: fc02 e2bd 0b17 3abe 1e20 51be ff04 4bbf
000001f0: 69d3 c23d b049 a13d 08d2 1e3e aba8 e53c
00000200: e08a f53d aaaf 403e c86b 12be 3c54 3cbe
00000210: f1b7 b93d ee68 893c 5b60 2d3e 284a 903d
00000220: f076 0fbd 8e02 823d 9755 193e 0ddc 2c3e
00000230: 5f8a 6fbd bec0 ce3d cd94 c4be e90c 7a3d
00000240: 4080 8b3b 84f1 133e d9d7 b7bb 66c7 823d
00000250: 2bf0 93be 0112 09be f9e7 1cbd f8e0 313d
00000260: 11e1 4ebd 0acd 463d 03c1 193e b666 8a38
00000270: 5bee 24c0 db97 1b3d a54f 6b3d 946d 14be
00000280: 0b67 073e 80bb 75bd 6070 38bc 9ccf bd3c
00000290: 9ddd 33bd 997e 1f3e 6376 673d 73cf bf3d
000002a0: 3ea3 a63c d83f 173e 8129 a2bd 2142 7ebd
000002b0: 8ab9 92be 4220 223e 543d 35be 5a55 4a3e
000002c0: 0caa 8dbc a443 bebe 65f0 24be e730 643e
000002d0: e36c 90be a8cd 97be ba84 24bf ecf1 9cbe
000002e0: 2f30 313e e841 a23e 22e2 c3bd aa3c 893d
000002f0: 4c7b 1bbd ad4e 9cbd f260 01be 3f42 13bd
00000300: 5b30 a23d fb63 f83d 7bd7 c2be c1c5 83be
00000310: 28f5 a7be edca 43bd 3546 f9bc 03e9 6abd
00000320: 0f27 7e3e b952 2e3d f708 67be 187c 56bf
00000330: d729 9b3d 66eb d63d 695d c93e 4c41 36bc
00000340: fd45 7ebd 0221 71be 9125 e03d 01d9 98be
00000350: 96fc 2abe d638 763e ec50 67be d843 833b
00000360: 25cc 56bd bfcd 873d 688d 15bd a97c 683e
00000370: cadc 413e 472a e8be 2052 533e 9d83 543e
00000380: 8e1c 4c3e 4615 743e 7d63 7abc 73ad 3f3d
00000390: 0e88 ac3d be67 303e 9687 15bb 7b35 a03d
000003a0: ab8b 0ebd a626 3c3e 16a0 173e e2c2 353e
000003b0: 7a2b e5be e735 dcbd b1ea 92bd 1cb9 3d3e
000003c0: 47e6 b0bc 57ce 80be c00e 863e df07 e1bb
000003d0: ef01 a33e 149a 77bd 7f2c 4f3e 9176 e03d
000003e0: fcc7 17be d14e 2e3e 5a41 503d 9fe0 66be
000003f0: 7275 9d3e ced2 303c 0dda 323e 71f4 e13d
-0.049984824 0.1209672 -0.13323367 0.24016023 0.04327001 0.11638447 0.19867854 0.16455011
-0.1159997 0.18467762 0.017226206 -0.06765667 -0.12694891 0.053393975 0.017242687 0.059129506
-0.004220848 -0.17734036 -0.008258382 0.13298804 -0.1597565 -0.40657786 0.2686539 -0.95171124
-0.10440904 -0.018640537 0.054326955 0.052581742 -0.08862051 -0.16893254 0.044314794 -0.33300942
-0.111081176 -0.12394317 0.11584725 0.1158298 0.11632927 0.04511111 0.11778184 0.06064612
0.050861064 -0.2455165 0.22515553 -0.20424823 -0.09142394 0.22294196 0.12463608 -0.35867757
0.43579817 -0.3392056 -0.19445801 0.1390149 0.07810067 -0.10046016 -0.30728894 -0.07526952
-0.38781232 0.052827246 -0.27469897 -0.0843309 -0.06981253 0.20130864 0.14326787 0.0865435
-0.19034797 0.071018115 0.019638935 -0.22806247 0.23350334 0.07579405 -0.31402373 -0.57556164
-0.2789902 0.10381256 0.4271737 0.095981486 0.018209646 0.2889509 0.0894367 0.1152498
0.035527743 0.07132079 -0.312728 0.25288573 -0.07490748 -0.11085749 -0.1005934 0.041480813
0.1809354 0.24925077 0.22011903 -0.021190701 0.2561607 -0.07854361 -0.061737128 -0.30829036
0.19784538 0.16862443 -0.23970412 -0.05157854 -0.036845263 -0.29286975 -0.18745546 -0.06976498
-0.11013329 0.09874489 -0.15539293 -0.055785235 0.017967021 -0.014119387 -0.074144505 -0.027860925
-0.34994376 -0.055710103 0.052901752 0.018442735 -0.08259089 -0.15065931 -0.71116006 0.104326956
-0.110357255 -0.18172853 -0.20422408 -0.793045 0.095129795 0.07875383 0.15509808 0.028034529
0.11989379 0.1881701 -0.14298928 -0.18391508 0.09068287 0.016773667 0.16931288 0.07045394
-0.035025537 0.063481435 0.14974056 0.16880818 -0.05848157 0.100953564 -0.38394776 0.06104747
0.004257232 0.144476 -0.005610448 0.063856885 -0.2889417 -0.13385774 -0.038307164 0.043427438
-0.05050761 0.048535384 0.15015034 6.599484e-05 -2.577048 0.037986618 0.057449 -0.14494926
0.13222902 -0.059993267 -0.011257261 0.023170285 -0.04391252 0.15575637 0.056509387 0.0936574
0.020341512 0.14770448 -0.079180725 -0.062074784 -0.2865718 0.15832618 -0.17699176 0.19759122
-0.017292999 -0.3716098 -0.16107328 0.2228428 -0.28208074 -0.2964909 -0.64265025 -0.30653322
0.17303537 0.31690907 -0.09564616 0.06701024 -0.037959382 -0.07632194 -0.12634638 -0.03595185
0.07919379 0.12128445 -0.38055024 -0.25736812 -0.32804227 -0.047800947 -0.030428985 -0.057351124
0.24819587 0.04255936 -0.22562014 -0.837831 0.0757634 0.104941174 0.3932908 -0.011123966
-0.062078465 -0.23547748 0.10944665 -0.2985306 -0.16697916 0.24045119 -0.22589463 0.0040058903
-0.05244078 0.0663104 -0.03651181 0.22703804 0.1893188 -0.45344755 0.20636797 0.20753331
0.19932768 0.2383624 -0.015282509 0.046796273 0.08424388 0.17227075 -0.0022816411 0.078227006
-0.034801167 0.18374118 0.14807162 0.17750123 -0.44759732 -0.107524686 -0.0717367 0.18527645
-0.02159418 -0.25157425 0.26183128 -0.0068673934 0.31837413 -0.060449675 0.20231818 0.10960115
-0.14822382 0.17022254 0.050843574 -0.22546624 0.30753666 0.010792447 0.17465992 0.110329516

conv.2.bias f4 [32]
00000000: 7ea7 223e a5af e9bc 74ed 83be f82c 79be
00000010: d731 da3d 455e febd 55fd dd3d fbd0 29be
00000020: 07ec c0bc dcd6 9abd d53f 813d c160 933d
00000030: f51a e9bd 2625 21bb ac24 da3c 1828 0ebe
00000040: 0420 ed3d 77ea 883c 8b7b 3e3d 051b 86be
00000050: 828e 97bd 7638 373e 7ccf a7be 7b64 ba3d
00000060: e9e1 d83d fde2 253e c6a8 d7bd 5236 1f3d
00000070: 1bfe ed3d 4994 0f3d e7cf 5abd fa85 95bd
0.15884206 -0.028526137 -0.257671 -0.2433356 0.106540374 -0.12420324 0.10839335 -0.16583626
-0.023550047 -0.075605124 0.06311003 0.07196189 -0.11382095 -0.0024588793 0.026628815 -0.13882482
0.11578372 0.016713364 0.04650454 -0.2619249 -0.07400228 0.17892632 -0.32775486 0.091011964
0.10589964 0.1619987 -0.10530238 0.038870163 0.116207324 0.035053525 -0.053420927 -0.073009446

conv.4.weight f4 [64, 32, 5, 5]
00000000: 9c6b c4bc 5966 36be 1c8f f63c 6dce 0fbd
00000010: 1c33 da3c 6862 f2bd d644 a3bd 25e2 103e
00000020: 6bf0 1dbe 3acd 3b3d a432 5b3e 5b08 833d
00000030: 4146 923d e50e 03be 2062 8ebd 832c f4be
00000040: 97d3 063e 2af6 26be b023 e93e caf9 cabe
00000050: 9edb 073d e35d 15bd 7910 64bd ef70 773d
00000060: 246c 4ebe 37f2 fcbd bec6 b5be c1c5 263e
00000070: defd 573e 38e4 14be 671e 80be 777e e43c
00000080: 8281 d9be f05f fe3d af05 15bd 2785 763e
00000090: 27d1 f3be 4ae0 363e bfc5 933e 9055 26bf
000000a0: e1d8 e7bd d19f 953d eed2 7c3d bf67 16bd
000000b0: b2db 453e 2754 dabd ee6c 2d3c 29bb ca3d
000000c0: b4dc 81bd d396 573d dd51 a6be dfe9 193e
000000d0: d097 1dbe dfd0 eebe 39bc 0b3f 4ec3 4c3e
000000e0: 1039 dbbd 8a78 acbe 2eb1 663d 2ccd 13bf
000000f0: 86d8 fbbe 20c3 843d fc69 c6be 8fea 6dbe
00000100: 44e2 dfbd a496 983d 01de c0bc 8963 023f
00000110: d9ce ab3d f9cf 223d 9263 49bd 7e72 f53d
00000120: e5c8 6c3e 79a7 693d 3d87 04be e344 db3c
00000130: 1a6c 94bd 2bf7 3dbe cc50 bebd 3fdf dfbc
00000140: 15f4 0a3e 0b26 933c a035 dabd ab5a ef3e
00000150: b2b0 30be c310 2fbe 2dbf 7f3d cb3c 83be
00000160: dd2d 343e 1330 ea3e 595a adbc a4a3 753e
00000170: 689e 23be f110 75be 830f 0b3e 1aa7 b23e
00000180: 47c9 ff3d 0702 2fbe a748 9c3e 3541 26be
00000190: eb03 3a3e 6557 4cbe dbb0 2ebe a0cc 20be
000001a0: 5749 4fbd 6cff 0c3e 5434 a23d 62ec 63bd
000001b0: db34 5cbe ea56 353e aec8 9e3c 2f77 553e
000001c0: 861f 283e aefe 8c3e 9c55 273e 9131 a3be
000001d0: 8c00 d93d dd98 f5bd ec34 8e3e 0997 463e
000001e0: eb17 9f3d 3dea bcbe 1791 083e 0c20 42be
000001f0: 4866 a93e 4589 0d3f 94ba 4fbd 37ec 273e
00000200: 22bd b7bd 48e8 a7bd d555 9f3d c855 40be
00000210: 2158 323e b9aa 9bbd b57d abbe 17e4 b4bd
00000220: f2cc 043e adaf abbd 4b4c c63e 0294 1cbc
00000230: 575a 09bf 3176 febd 402d 8f3d 3591 053d
00000240: f365 ddbd cd70 ccbe bfbf c43d 7f12 5d3e
00000250: fd5d 04bd f733 a0be 4e80 abbe 9ef1 bc3e
00000260: c20b afbe 0be1 253d 80d1 1dbe 9a14 39be
00000270: 901f cfbe 2e8a 82bd da69 063d a8a4 12be
00000280: 1be2 063c f05d 3d3e ea7d cabe b1f2 fd3d
00000290: 8937 043f aec0 493e 4f23 0abe c318 8d3d
000002a0: 9759 11bf 4f66 a73e bab3 6d3e 2a1e b9be
000002b0: cefa 5f3d 79d1 91be 8068 343d 6ccd e5bd
000002c0: b252 c53d bee0 ca3e f7c6 3bbc 4c0d abbd
000002d0: 5570 b0be bba0 cc3d cc58 0bbd 1635 20be
000002e0: b565 753e 340f d7be 97c2 5b3e d5e5 94be
000002f0: b222 abbe 358d 31bd eea0 f1be 7091 d7bd
00000300: ea99 8f3d d6e7 b0bd fd44 753d e200 4bbd
00000310: 164f 34bd 2f99 7bbe f314 393d 1d4d b83d
00000320: 6299 78bd cc47 a3ba 9a20 6abe 1785 d9be
00000330: d191 973b 6e95 fa3e 5dc2 dbba 9e94 0dbe
00000340: d0fd b13b 5ad5 09bd 173e 3d3d 7516 3dbe
00000350: 2f7c 8bbd 9575 07bd ddc1 6abc 430f 05be
00000360: 030d 863d 655a ab3e ddd5 5e3e 0dd6 08be
00000370: 2092 19be aac0 69be 32b1 403d 95bf 063e
00000380: da67 1abd af5a 02bd 98d1 b0bd ae07 253e
00000390: 0177 17bd f117 d5bc 65a9 40bd 8c09 463e
000003a0: 6af1 a1be f254 f13e f193 80bd 36a7 4fbe
000003b0: d838 04be b175 ac3e f43e 27be ee13 503b
000003c0: 5134 513e b6ca f03c dc77 34bd a25d 913e
000003d0: a820 efbd d361 d13e 5db4 1abd 8ed7 5ebe
000003e0: ff38 9fbc b39a e53c 6adc 78be b883 223e
000003f0: 3371 c9be 9fe4 8bbd c74e 173e f43c 403e
-0.023977093 -0.1781248 0.030097537 -0.035108972 0.026635699 -0.11835176 -0.07972114 0.14148767
-0.15423743 0.045850016 0.21406037 0.06398078 0.07142306 -0.1279865 -0.069523096 -0.4769021
0.13166653 -0.16304842 0.4553504 -0.396437 0.033168428 -0.03646649 -0.055679772 0.060410436
-0.2015844 -0.12350886 -0.3550319 0.16286375 0.21092936 -0.14540184 -0.25023195 0.027892334
-0.4248162 0.124206424 -0.036382373 0.24074231 -0.47620508 0.17858997 0.28861806 -0.6497431
-0.11320663 0.07305873 0.061724596 -0.036720034 0.19322088 -0.10660582 0.010585053 0.09898979
-0.06340924 0.05263407 -0.32484332 0.15030621 -0.15389943 -0.4664373 0.5458408 0.19996378
-0.10704243 -0.33685714 0.056321315 -0.5773494 -0.49188632 0.0648253 -0.38752735 -0.23234008
-0.109318286 0.074506074 -0.02354336 0.5093313 0.083890624 0.03974912 -0.049167223 0.11984728
0.2312351 0.05704448 -0.12942214 0.026766246 -0.07247181 -0.18551318 -0.092927545 -0.027328132
0.13569672 0.017962476 -0.106547594 0.46748862 -0.17254904 -0.17096238 0.06243818 -0.2563232
0.1759562 0.45739803 -0.021161245 0.23988205 -0.15978396 -0.23932244 0.13580136 0.34893113
0.124895625 -0.17090617 0.3052418 -0.16235812 0.18165557 -0.19955213 -0.17059653 -0.15703058
-0.05060705 0.1376931 0.07920137 -0.055645354 -0.21504538 0.17708936 0.0193828 0.20846246
0.16418275 0.27538055 0.16341251 -0.31873754 0.105958074 -0.11992047 0.2777475 0.19393553
0.07768234 -0.3689746 0.13336597 -0.18957537 0.33085847 0.5528758 -0.050715044 0.16398703
-0.08971621 -0.08198601 0.07780043 -0.18782723 0.17416431 -0.07600922 -0.33494344 -0.08832567
0.12968805 -0.08383117 0.38730082 -0.009556772 -0.5365347 -0.12424887 0.06991053 0.032609183
-0.10810461 -0.3992981 0.09606885 0.21589087 -0.032316197 -0.31289646 -0.33496326 0.3690309
-0.34188658 0.04049782 -0.15411949 -0.18074265 -0.40453768 -0.06374012 0.03281579 -0.14320624
0.008232619 0.18492866 -0.3954919 0.12399805 0.5164724 0.19702408 -0.13490032 0.068894885
-0.5677733 0.32695243 0.23213091 -0.36155826 0.054682545 -0.28480127 0.04404497 -0.11220822
0.096349135 0.3962459 -0.011461011 -0.083521456 -0.34460703 0.099915944 -0.03402023 -0.1564525
0.2396458 -0.42003787 0.21460949 -0.29081598 -0.33424908 -0.043347556 -0.47193092 -0.10525787
0.07011779 -0.08637969 0.059880245 -0.04956139 -0.044020735 -0.24570154 0.045185994 0.08999083
-0.060693152 -0.001245731 -0.22863999 -0.42484352 0.004625537 0.4894213 -0.0016766299 -0.13826224
0.005431868 -0.033650734 0.04620179 -0.18465598 -0.068107955 -0.03307112 -0.014328447 -0.12994103
0.065454505 0.33467403 0.2176127 -0.13362904 -0.14997149 -0.22827402 0.047043987 0.1315902
-0.037696697 -0.031824764 -0.08633727 0.16116211 -0.036978725 -0.026012393 -0.047036547 0.1933958
-0.31629497 0.4713512 -0.062782176 -0.2027863 -0.12912309 0.3368354 -0.16332608 0.003175016
0.20430113 0.029393535 -0.04405962 0.2839175 -0.116761506 0.40894946 -0.037769664 -0.21761915
-0.019436358 0.028027868 -0.24302831 0.15870559 -0.39344177 -0.068307154 0.14776145 0.18773252

conv.4.bias f4 [64]
00000000: 7b5e 0abe f1fb fbbd 6173 14bb 862a 643b
00000010: e0ad 1bbe ee32 6ebe 8c1d 35bd 62cd 4bbd
00000020: fc29 6c3e 03cc 95bc ae8e 123e 544e 47bd
00000030: 43e7 463b 6aa7 2cbd 0985 e1bd 4d49 aabd
00000040: ac34 b9bc 5de1 abba 6bbc 063e c3d5 babd
00000050: cf39 463e 456f 9fbd 0d10 2dbd 9af9 32be
00000060: db67 1cbe e434 c63e fccf 69bd 8189 aa3d
00000070: 5cb9 eabc 7312 4cbd da8f 21bd d273 00ba
00000080: a979 b8bd 59c5 29bd 68a3 21bc f597 753e
00000090: a2cb 063e cb5d e33d 6314 eabd 7250 64bd
000000a0: b93a 053e 21bc 3cbd c7f8 50bd 3fba 1dbd
000000b0: e200 e2bc 3e74 16bd b118 dc3c d99d bc3e
000000c0: 3fd1 22bd 9c87 81bc c860 e23c 5f03 743c
000000d0: 827a 9e3e 870d a23e 468a 9cbd 8cfc c13d
000000e0: 1d85 213e 6bb6 f3bd e4e3 16bd f1f6 46be
000000f0: e397 dc3e 47eb 283d c850 2fbe 6b3b 273e
-0.13512604 -0.123039134 -0.002265178 0.0034815385 -0.15203047 -0.23261616 -0.04421763 -0.049756415
0.23062891 -0.018285757 0.1431224 -0.048658684 0.0030350245 -0.042151846 -0.110117026 -0.08314762
-0.022608124 -0.0013113428 0.13157813 -0.09122803 0.1935799 -0.07784895 -0.042251635 -0.17478028
-0.15273993 0.38712227 -0.057083115 0.08327008 -0.02865284 -0.049822282 -0.03944383 -0.0004900071
-0.0900758 -0.04144797 -0.009865619 0.23983748 0.13163617 0.11101874 -0.1142967 -0.05574078
0.13010682 -0.04607785 -0.051018503 -0.038507696 -0.027588312 -0.03673195 0.026867243 0.36839178
-0.039750334 -0.015811734 0.02763404 0.014893382 0.3095284 0.31650946 -0.07643561 0.094719976
0.15773435 -0.11900028 -0.036838427 -0.19430138 0.4308463 0.041240003 -0.1712066 0.1633126

conv.7.weight f4 [64, 256]
00000000: a7e7 36bd da43 8fbd eab5 bd3c 78b1 8c3c
00000010: df30 ef3c d4e9 46bd 7e2b 283d 5b95 8bbd
00000020: ee77 b1bb e86e 5abd 521f e53c 3db0 52bc
00000030: beae 7bbd a0eb ff3c 10c8 f93b 2874 233d
00000040: 1d82 67bc 5705 213d a493 b73a 8acb 84bd
00000050: 6a0a 2aba 53a4 c03b 0ae9 0f3c 3184 47bd
00000060: 104e b63c 1060 153d 1403 45bd 8881 7a3c
00000070: 48b0 643c 2003 45bd 1c79 c0bc b847 59bc
00000080: 0af4 3dbd d7f0 d7bc 2232 2fbd 68f5 27bd
00000090: 4deb 943c 5a9e 64bd 6c9a c9bc 46d6 123c
000000a0: 33e7 67bc 0a15 b1bc b906 b0bd b241 05bc
000000b0: 5492 bf3c 589d 863c 9ed1 003d 106f edbc
000000c0: ba8c 91bc f9e9 b63b c0d9 943c 506c 4b3d
000000d0: 3c29 5abd 5ed0 393d f82d 193c 18ca 11bd
000000e0: 017e 32bd 0b09 75bd c413 5cbd 195b 323d
000000f0: cbfa 96bc fc2a 18bd e098 663a 5460 eabc
00000100: e063 55bd 9c5e b5bc 4083 a9ba d6e8 1f3d
00000110: 12b7 93bd b786 9abc 153e ff3c 15f8 85bd
00000120: e9bf 013d 4ecd bc3c 8e72 aebc 0046 12b9
00000130: 0bda c4bc a698 c6bb b651 4a3c ac44 34bd
00000140: 5b7d 39bc 9421 bebd 6c7b 9dbd fc90 023d
00000150: 1c17 b7bc 042b 233d c8f7 24bc 4eef 35bd
00000160: 3244 5cbd 28f9 8c3c 80f7 2b3b 5859 5ebd
00000170: dc70 3b3d 7c39 033d e44f 49bd 61cf 2dbd
00000180: 070a 293b be60 10bd 771c bcbc 2532 a3bd
00000190: e499 58bd 7fca 4bbd 4477 d83c 32b5 87bd
000001a0: b870 b43c 4ef9 763d f8cf c83c 28b5 33bc
000001b0: 40be 4dbc 0bb9 f4bc 98a3 fabc 5076 19bd
000001c0: 5af9 343d 50ac 563c 80a9 813a 4488 a33c
000001d0: 4af8 dfbc 62b9 613b 6267 973c ff3f e9bb
000001e0: 803d 58bb 6013 4a3b 00df 303d ccff abbc
000001f0: 67ae b33c 0af4 27bd e407 d7bb 8e6a cdbc
00000200: b1fa 87bc 4594 b63c 82ac f63c 08e3 163d
00000210: e05b 4b3d dca2 f03c d08c d5bb 7a63 68bd
00000220: b821 7dbd 5ec1 17bd 10ab 4abc 0006 5c3b
00000230: a771 27bd 100b 54bd 428b 48bb b25b ba3a
00000240: b271 b5bc b09a dbbc d036 cc3c 060a 1dbd
00000250: 0003 30bd 910a 92bd 4ee6 cd3c 9294 73bc
00000260: b039 3fbc 54fd ac3c eeff 43bd 9978 4fbd
00000270: dea6 2cbd b63d 17bd 6418 cf3c 80bf 223b
00000280: bf63 2cbd 91b8 e13b 6b0d a9bc bc75 2a3c
00000290: e6ce d93c 40ee 62bc b803 7bbc 5c70 81bd
000002a0: a083 ba3b ee17 233d 1090 8d3b f8fd 063c
000002b0: 602c 823c b024 3ebd b857 dfbc 4ab1 113d
000002c0: a1f0 513d 8111 58bd 4e47 163c bbae 2fbc
000002d0: 42b3 5a3d d2d2 793d 24ae be3c 203d 05bd
000002e0: 57e8 00bd 562d c1bb 5927 0d3d 1cf7 dbbc
000002f0: 1e46 ac3c d25b d33c 4a79 8ebd cde8 61bd
00000300: 30f9 0c3d 9231 153d 806d 20bd 10e3 d2bb
00000310: 1468 183d f486 bfbc 3c06 40bd c053 1f3c
00000320: 22a7 5ebc 1442 64bd 69da 7ebd 32e3 7fbd
00000330: 6e35 7ebd 04cf fdbc ca11 063d 1440 6d3d
00000340: 042b e9bb 2e14 4cbd 3f55 05bd 1e28 3fbd
00000350: 100e d33c afca 94bc 4405 063d bba0 c1bc
00000360: 59c9 1ebd 98df a9bc f197 07bd 44af 07bd
00000370: a463 76bc 1be8 cabc a1ef 973c b202 b3bd
00000380: 1a00 093d c1d7 ca3c 50c5 553d e72a 63bd
00000390: b6c0 6dbd 53ba 8dbd 2b52 74bd b759 6b3c
000003a0: 5b30 85bd 3c0a 01bd 62b0 b33c 76b9 7cbd
000003b0: 4f29 7dbd 630c 30bd b776 bebb fcfa b5bc
000003c0: 1b70 8ebb 742b c33c 00a9 3d3c 6890 623b
000003d0: ac0b ac3b 6221 e7bb 8502 99bb 4ba8 59bd
000003e0: f28c 38bb 3025 1bbd 5457 67bd 82bf 133d
000003f0: 8067 62ba 8f65 66bd bce3 f5bb 3d7c 343c
-0.044654515 -0.069953635 0.023158032 0.017174467 0.029198108 -0.04856284 0.041057102 -0.06815597
-0.005415908 -0.053328425 0.027969036 -0.012859401 -0.061445944 0.031240284 0.0076227263 0.039905697
-0.0141301425 0.039311733 0.0014005792 -0.064841345 -0.0006486537 0.005878964 0.008783588 -0.048710052
0.02225402 0.036468565 -0.04809864 0.015289672 0.013958044 -0.048098683 -0.02349525 -0.013261728
-0.046375312 -0.026359959 -0.04277242 -0.041005522 0.018178606 -0.05581508 -0.024609767 0.00896222
-0.014154243 -0.021616478 -0.08595032 -0.008133339 0.023385204 0.01643245 0.031449907 -0.028983623
-0.017767299 0.005582091 0.018170238 0.04966384 -0.05326198 0.04536473 0.009349339 -0.035593122
-0.043577198 -0.059823077 -0.053729787 0.04354391 -0.018430134 -0.037150368 0.0008796584 -0.028610386
-0.0520972 -0.02213984 -0.0012932792 0.03904041 -0.07212652 -0.018863065 0.031157533 -0.065414585
0.03167716 0.023047116 -0.021294858 -0.00013949722 -0.024029752 -0.0060606776 0.012348583 -0.044010803
-0.011321391 -0.09283748 -0.076895565 0.03187655 -0.022349887 0.039835945 -0.010068841 -0.04441767
-0.053775974 0.01720865 0.002624005 -0.054284424 0.045761928 0.032037243 -0.049148455 -0.0424341
0.002579333 -0.03524851 -0.022962792 -0.07968549 -0.052881137 -0.049753662 0.026424058 -0.06626357
0.022026405 0.06029635 0.02451323 -0.010968484 -0.012557566 -0.029873392 -0.030595586 -0.037466347
0.044183113 0.013102606 0.0009892434 0.019962437 -0.027340073 0.0034442772 0.018481914 -0.0071182246
-0.0032995641 0.0030834302 0.04318142 -0.020995997 0.021933747 -0.04100422 -0.00656222 -0.025075223
-0.016599031 0.022287497 0.030111555 0.036837608 0.049648166 0.029374532 -0.0065170303 -0.056735493
-0.061799735 -0.037049644 -0.012369886 0.0033572912 -0.04087987 -0.051768363 -0.0030600582 0.0014218001
-0.02214894 -0.02680716 0.02492848 -0.038339637 -0.04297161 -0.07130922 0.025134232 -0.014866965
-0.011671469 0.02111689 -0.047851495 -0.05065212 -0.042151324 -0.036924087 0.025280185 0.0024833381
-0.042087313 0.006888457 -0.020636281 0.010404047 0.026587915 -0.013850749 -0.015320711 -0.06320259
0.0056919605 0.039817743 0.004320152 0.008239262 0.0158903 -0.046421707 -0.027263507 0.035569467
0.051254872 -0.052751068 0.009172274 -0.010722811 0.05339361 0.06099207 0.023276396 -0.032528996
-0.031471577 -0.005895297 0.034461353 -0.02685123 0.021029528 0.02580062 -0.06956728 -0.055153657
0.03441733 0.036424227 -0.039166927 -0.0064357594 0.03720863 -0.02337978 -0.046880946 0.009724557
-0.013589652 -0.05572708 -0.06222001 -0.06247253 -0.062062673 -0.030982502 0.03273181 0.057922438
-0.0071157236 -0.049823932 -0.032552 -0.046669118 0.025763541 -0.018163053 0.032719865 -0.023636213
-0.03876624 -0.0207365 -0.033103887 -0.03312613 -0.015038405 -0.02476888 0.018546881 -0.087407485
0.033447362 0.024761083 0.052190125 -0.055460837 -0.05804511 -0.06920304 -0.059648674 0.014364651
-0.06503364 -0.0315039 0.021934692 -0.061700307 -0.061806973 -0.042980563 -0.0058124918 -0.022214405
-0.00434686 0.023824431 0.011575937 0.0034570936 0.005250415 -0.00705354 -0.00466949 -0.053139012
-0.0028160182 -0.03787726 -0.056479767 0.036071308 -0.00086366385 -0.056249198 -0.0075039547 0.011015949

conv.7.bias f4 [64]
00000000: da8b 73bd 3bde f33e 8590 9e3e a5cc d23e
00000010: 1d44 173f 1217 093f 1215 49be e896 7a3e
00000020: 1d9a df3c 9aed b43e c9f5 53be 2e17 2a3e
00000030: 2320 f53e c014 003f b321 223f f7c2 dfbe
00000040: b241 8a3e f61f c43e bfd6 583f 99c1 2e3e
00000050: 180d 133e 7337 083e 7125 cc3e fca8 d63e
00000060: 2c43 9b3d 3c96 4dbc 6940 12be 467b 883d
00000070: a6f3 333e 6c5f 7ebd 8aad ae3e 5ad2 99bd
00000080: c976 53be 2355 a43e 3cf0 d1bc d53e 09be
00000090: 5e2f 1e3e a603 35be bca1 a1bc 6572 893d
000000a0: 5287 ec3d 403d ea3d cb9f 48bd 1852 1b3e
000000b0: dde3 ae3e 1de0 183e 5631 a33e 2366 633e
000000c0: ca42 323e aa3e 7f3e feba 5dbe a085 ca3d
000000d0: 7e60 3f3e 9aaf 96bd 8420 af3e 25f8 aabe
000000e0: 9edf 183d 87df 95be 7c0c 143f 3f3a b93c
000000f0: f6aa 073f ed5d 54be 961b c63e e3ed 433e
-0.059459545 0.47630486 0.30969635 0.41171756 0.5908831 0.5355083 -0.19636944 0.24471629
0.027295167 0.35337526 -0.20699228 0.16610405 0.4787608 0.5003166 0.6333267 -0.43703434
0.27003247 0.38305634 0.84702677 0.17066039 0.14360464 0.13302402 0.39872316 0.419258
0.075811714 -0.012548026 -0.14282383 0.066641375 0.17573413 -0.06210272 0.34116775 -0.075108245
-0.20650782 0.32096204 -0.025627248 -0.13402875 0.15447757 -0.17677173 -0.019730441 0.06711272
0.11549248 0.11437464 -0.048980515 0.15168035 0.3415822 0.14929242 0.31873578 0.22206931
0.1740829 0.24926248 -0.21653363 0.09888768 0.18689153 -0.07357712 0.34204495 -0.33392444
0.037322633 -0.292721 0.5783155 0.022610782 0.5299524 -0.20738955 0.3869292 0.19133715

out.weight f4 [4, 64]
00000000: ebf0 be3d 6140 f53e ef01 54bb 49d3 363e
00000010: 5ccf 9e3e c07d cd3d e669 01bd 5ecd 683e
00000020: bc20 9dbc 5f00 093e 8a9a 683d 5d46 fd3d
00000030: 6887 553e 24d3 09ba 154f 5d3d c024 2aba
00000040: 0547 3abf bf09 b73d 99b2 e93e e1f5 d23d
00000050: 2044 97bc 5823 67bb d1b1 743e 55fe 243d
00000060: 7cee 40be 3a2e 20bd 15a1 ab3e 2d37 153e
00000070: fd93 cc3d 7a6e 76bc c183 003e daff adbd
00000080: cd14 ecbd f0e3 c63d 9272 023d 874b 11be
00000090: 2ae1 863e bbd9 36bf 9498 19bd 1830 50be
000000a0: 4e68 2f3e 916c 023e 8249 4f3d 7daa 4bbd
000000b0: 70dd bbbf d240 b6bf 04ba 02be 5e3e b9bf
000000c0: 1b65 51bf 104d 6bbb 7873 ff3d a7aa f03c
000000d0: a8e6 53be bd8c 003d abac 10be b2bc 5540
000000e0: feee 253e 9d9a 4c3d 5bb3 133e 331f cfbe
000000f0: 7a68 8d3d b874 873c d1c9 f33e 1ff3 0abe
00000100: 0e61 a1bd 05a3 e63d a02f 5e3e dc5c efbc
00000110: 8b24 ca3e 8fe1 893e c9d1 123e 33d2 91bd
00000120: f704 8ebf 6e71 b53e b10e 023e a0b0 263e
00000130: c6c3 563e 7242 333e a5a4 3f3e 9690 a13c
00000140: 5945 41bc 53e0 923d 5325 ff3e 1c45 cbbf
00000150: f5eb c2bd 2d86 803e 2ef2 4a3e a4ce 043d
00000160: 2f44 a0bf ba98 4dbd 4d19 a4bc 0170 363e
00000170: b654 d3bf 752d b0bd 92c7 f8bb 3e4a 143e
00000180: a4df febd b520 853e ca79 97bc 49e8 18bd
00000190: bbab 163d f2af 873b 7452 48be 5f9c 9abc
000001a0: f861 fcbc 4b68 dbbd 9588 bc3d cbd0 1fbe
000001b0: 5bff 073e 631f c7bd a3c7 9fbe 49ba ad3d
000001c0: 5707 0bbe e73f d93d 699d 42bd 39d7 743e
000001d0: cc3d 9b3d 3667 82bc 3a9e eb3d dcc3 1abe
000001e0: dcb0 c1bd ecd6 2fbe fb5b 363d 089d 3e3e
000001f0: e36a 473e a449 c93c da7f a83c 16e4 a2bd
00000200: bfd0 953d 80e1 a33d 7a73 7fbf a160 80bc
00000210: 843c 603d f866 533d d346 58be 315a 43bd
00000220: 5d29 0f3e 51c5 203d fb0c 19be 0ad0 9b3e
00000230: 0101 403e 9e83 243e 6741 b13d 5354 cdbe
00000240: dbc5 583d 4b1f b83e e585 113f 7c64 b63d
00000250: e694 923c 044c d939 0df4 913e 9e95 643d
00000260: 0365 f7bc 6ac7 91bf 0f01 17be df4f 52be
00000270: 14c9 09be 31ae 8a3e df67 863e 30aa 2b3d
00000280: c8e8 a6bd 80b5 0d3e b39b 7b3d a4e3 2d40
00000290: 555b 3f3d 577b f33c d68e 87bd 3444 96bd
000002a0: b23b 32be 2bf7 f2bf c422 68bd 32a6 343d
000002b0: 8417 c3bc 8f2d 943d a95e fcbd 286b d2bd
000002c0: b6c1 643d 8ed1 02c0 1b1e 093f 534a 6abe
000002d0: 5c56 bb3d 4724 c6bc d151 6c3e 8b08 c0bd
000002e0: 14ad 1f3e e8c3 4f40 3a59 c93e 87c4 a0bd
000002f0: e694 df3e 4872 03be 51c3 e13c a9d6 a8bf
00000300: 0aaa 733d 6a7a d93c 4bbb 9d3b 91b4 e53d
00000310: 0d77 3c3e bf52 013e 5f49 c5be c6ab 623e
00000320: fdbe 2abe 7e14 a53d 2739 313e 61a2 ab3c
00000330: fdc9 503e e818 453e 1118 e43e 9095 af3c
00000340: 452e 53bd f54d fa3d 3fff ed3e a7a5 003e
00000350: f6e4 7c3e 94f3 7cbf d8c4 763e 97da c43e
00000360: 0cc6 263d a4ae 48be 0e16 b73d a368 623e
00000370: 6ebf 91bd 6980 33be 1e58 b4bf 37db 67be
00000380: 0b18 2140 9b30 79be eb04 ba3d 954f 45bd
00000390: 04d9 cc3e 9c41 cf3d c3f5 af3d 471b 8abf
000003a0: f1d0 a6bf d66b 42bd f607 f7bd 75b9 93bf
000003b0: fdec 1c3e a58e debd df05 a3be fa59 a8bd
000003c0: 28fb 513d 0bd3 ae3d 24c8 e8bc b068 653e
000003d0: 3391 0f3e fabf 8b3b 07ca 213d 67ea 25be
000003e0: b8d7 603e 715b 84bd 6df0 043e d863 f7bc
000003f0: 6981 ca3d fb09 e33e 6930 c23c 7342 1b3e
0.09323295 0.4790068 -0.0032349785 0.17854036 0.31017578 0.100337505 -0.031595133 0.22734591
-0.019180648 0.13379048 0.056788005 0.12366936 0.20852435 -0.00052575977 0.054030497 -0.00064904615
-0.7276462 0.08937406 0.45644072 0.10300804 -0.018465102 -0.003526887 0.23895957 0.040281612
-0.18840975 -0.039106585 0.33521333 0.14571829 0.09989164 -0.015040988 0.1255026 -0.084960654
-0.11527405 0.097114444 0.031847544 -0.14188968 0.26343662 -0.7142598 -0.037499025 -0.20330846
0.17129633 0.12736727 0.050607212 -0.049723137 -1.4676952 -1.4238532 -0.12766272 -1.4472158
-0.817949 -0.0035904087 0.12473196 0.029378248 -0.20693457 0.03138422 -0.14128368 3.339642
0.1620445 0.04995214 0.14423887 -0.4045349 0.06904693 0.016535148 0.4761491 -0.13569306
-0.0787984 0.11261562 0.21697855 -0.029219083 0.39481005 0.269299 0.14337839 -0.071201704
-1.1095265 0.35438102 0.12700917 0.16278315 0.20973119 0.17505816 0.1871515 0.019722264
-0.011796319 0.07171693 0.49833164 -1.5880466 -0.095176615 0.25102368 0.19818947 0.03242363
-1.2520808 -0.05019448 -0.020031596 0.17816164 -1.6510227 -0.0860242 -0.00759215 0.14481446
-0.12445 0.26001516 -0.01849069 -0.0373309 0.03678487 0.0041408474 -0.19562703 -0.018873392
-0.030808434 -0.10713252 0.092057385 -0.15606992 0.13281004 -0.097227834 -0.31206998 0.08482797
-0.13577019 0.106078915 -0.0475134 0.23910226 0.07580146 -0.015918355 0.11504789 -0.15113777
-0.094575614 -0.1717183 0.044521313 0.1861459 0.19474368 0.024571247 0.020568777 -0.0795366
0.07315206 0.08001995 -0.9978558 -0.015671076 0.054745212 0.05161187 -0.21120767 -0.047693435
0.13980623 0.039250676 -0.14946358 0.3043216 0.18750383 0.16065833 0.08655053 -0.40103397
0.052923065 0.35961375 0.5684493 0.089058846 0.017893266 0.000414461 0.28506508 0.05580675
-0.030199533 -1.1388981 -0.14746498 -0.20538281 -0.13455611 0.27086022 0.26251122 0.04191035
-0.08149868 0.13838768 0.061427783 2.717019 0.04671796 0.029721899 -0.06619041 -0.073372275
-0.17405584 -1.898168 -0.05667378 0.04410381 -0.023814924 0.07235252 -0.123227425 -0.10274345
0.0558488 -2.0440402 0.5356156 -0.22879915 0.09147331 -0.02418722 0.23078085 -0.093766294
0.15593368 3.2463322 0.39325887 -0.078499846 0.43668288 -0.12836564 0.027558954 -1.3190509
0.059488334 0.02654763 0.004813587 0.11216081 0.1840479 0.12629221 -0.3853254 0.22135839
-0.16674419 0.08060549 0.17306958 0.020951452 0.20389552 0.19247782 0.4454961 0.021433622
-0.051557798 0.122219004 0.464838 0.12563191 0.24696717 -0.9880917 0.24098527 0.3844802
0.040716216 -0.1959787 0.089397535 0.22110228 -0.071165904 -0.17529453 -1.4089391 -0.22642218
2.5170925 -0.24334948 0.09082969 -0.0481716 0.4000932 0.10119936 0.08591797 -1.0789574
-1.3032514 -0.04746612 -0.12062065 -1.1540972 0.15324779 -0.10867051 -0.31840417 -0.08220287
0.051264912 0.08536347 -0.028415747 0.22403216 0.14020233 0.0042648287 0.03949931 -0.16202699
0.2195729 -0.064627536 0.1298234 -0.030198976 0.09887964 0.44343552 0.023704724 0.15162067

out.bias f4 [4]
00000000: 52e6 323f b31a 2e3f c4c8 0f3f 69eb 1d3f
0.6988269 0.6800949 0.5616572 0.6168733
