models/v17.1/model_311500_target.pth (torch, 295191 bytes, 10 tensors)

conv.0.weight f4 [16, 2, 3, 3]
0.11637834 0.026812801 -0.20612518 0.2775102 -0.135548 0.12754169 -0.36805886 0.4266825
0.08142577 0.0021715984 0.032512624 -0.018005677 -0.08849996 0.10753778 0.014107087 -0.005118203
0.043721464 -0.00015831538 -0.20025949 0.26081637 0.020564254 0.22146964 -0.18120705 0.2074391
-0.81435144 -0.50866324 -0.09914909 -1.018126 0.6942395 -1.2543929 0.22250783 -0.17848079
0.21655299 -0.01500109 0.0037116394 0.108937696 0.02680753 0.23001209 0.08834338 -0.08179833
0.29780278 -0.07387359 0.24831618 0.16392554 0.07439624 0.092771225 0.15101886 0.013888641
0.25405198 -0.024121981 -1.424982 -0.024100812 -0.32331878 0.04977526 0.00713581 0.09893972
0.026124889 0.12156151 0.11946565 -0.6839502 -0.41295615 -0.36265245 0.20194487 -0.063337035
0.007913323 -0.03835939 0.32128432 -0.08830266 -0.9820238 -0.27935964 0.38671693 0.11981112
0.21610685 -0.10600234 -0.10379801 -1.1793827 -0.13168977 0.1070037 0.03469394 0.5006825
-1.0867219 -0.30754372 0.266448 -0.43788707 0.26125416 -0.019343657 0.18349552 0.018486515
-0.04962697 0.007531771 -0.04120216 -0.15212084 0.4562651 0.27295518 -0.11431673 -0.14471698
0.6938112 -0.41780302 0.3960261 -0.3137282 -0.06877588 0.10522979 0.0877936 -0.41182825
-0.07909129 0.016667038 -0.1521601 -0.2846915 -0.93583447 -0.098051734 0.3049957 0.21118233
0.10218053 -1.0720831 -0.24768269 0.1293467 -0.21098809 -0.083310716 -0.037739344 -0.08184446
0.09269871 0.008401929 0.028333388 -0.619713 -0.049442288 -0.15788089 0.26344422 -0.20435803
0.53463924 -0.11742833 0.27808252 0.10885619 0.026889136 0.38066086 -0.08549753 -1.5752691
-0.74161464 -0.8452385 0.09634965 0.024907457 -0.08153666 -0.16242054 0.101023704 0.0011146716
-0.0010417339 0.09111693 0.043430485 0.37906754 0.05470232 -0.17334089 0.23120777 -0.42766434
0.030218003 -0.3682817 0.56177956 -0.49405843 0.06491626 0.25754842 -0.0020986302 -0.33164623
0.4495618 0.014714396 0.041125335 -0.0075514787 0.062402412 0.054638214 -0.14718738 0.25050345
0.32793865 -0.11449771 -0.17271113 -0.042545065 0.17442764 -0.12602977 -1.6665591 -0.003844438
-0.075126044 0.19792537 0.35176277 -0.23384297 -0.12292629 0.10902823 0.059768863 -0.11051224
0.030920925 0.09894536 0.59556764 -0.4219508 -0.026216215 0.12893242 -0.3014326 -0.120692864
0.9238447 -0.020711035 -0.057860456 0.17015083 0.037711237 -0.14719915 0.15643583 0.15868147
-0.41256797 -0.12125542 0.09431698 0.2147921 -1.2784885 -0.1356355 -0.084535874 -1.4093037
-0.25721362 0.30902287 0.18088375 0.23691346 -0.24956538 0.12834457 0.13839728 0.017221702
-0.16917795 -0.023739142 0.07155184 -0.10598788 0.0074684024 0.16658744 -0.10098252 0.012515479
-0.21831578 0.1220984 0.21224146 0.03981161 -0.029481681 -0.965975 -0.1312674 0.054050684
0.06878615 0.23830563 0.21914752 0.051343344 0.037645906 0.03078282 -1.459868 -0.040639494
-0.012876172 -0.17932136 0.09772236 0.20841469 -1.4536722 -0.2170234 -0.11091721 0.05547816
-0.14018124 0.21987991 -0.24608724 -0.021680707 0.14298888 -1.2495236 -0.0006982557 -0.094767675
00000000: c457 ee3d 85a6 db3c 7b12 53be d115 8e3e
00000010: 18cd 0abe 4a9a 023e 3672 bcbe 2176 da3e
00000020: 8ec2 a63d 6051 0e3b f52b 053d a480 93bc
00000030: 783f b5bd c53c dc3d 6921 673c 99b6 a7bb
00000040: 4715 333d 7601 26b9 d310 4dbe b989 853e
00000050: 5e76 a83c f0c8 623e 578e 39be ea6a 543e
00000060: 5679 50bf c137 02bf ae0e cbbd f451 82bf
00000070: aeb9 313f f28f a0bf 18d9 633e abc3 36be
00000080: 11c0 5d3e 22c7 75bc fa3e 733b ba1a df3d
00000090: 779b db3c 4a88 6b3e 60ed b43d e285 a7bd
000000a0: 9b79 983e 094b 97bd 9946 7e3e 19dc 273e
000000b0: 0e5d 983d d7fe bd3d b0a4 1a3e 2f8d 633c
000000c0: 1a13 823e 769b c5bc cf65 b6bf 116f c5bc
000000d0: 0a8a a5be 25e1 4b3d 83d3 e93b e8a0 ca3d
000000e0: dd03 d63c 3ef5 f83d 68aa f43d 5c17 2fbf
000000f0: fd6e d3be 95ad b9be a3ca 4e3e d9b6 81bd
00000100: e2a6 013c bc1e 1dbd 617f a43e 06d8 b4bd
00000110: e965 7bbf 3a08 8fbe c3ff c53e 885f f53d
00000120: 1d4b 5d3e c117 d9bd 0d94 d4bd 03f6 96bf
00000130: afd9 06be c224 db3d 3c1b 0e3d ba2c 003f
00000140: b419 8bbf 5f76 9dbe df6b 883e bc32 e0be
00000150: 1bc3 853e 9776 9ebc 40e6 3b3e 0871 973c
00000160: a645 4bbd 13cd f63b 99c3 28bd 91c5 1bbe
00000170: 949b e93e c8c0 8b3e e41e eabd b030 14be
00000180: 9c9d 313f 47ea d5be efc3 ca3e fca0 a0be
00000190: 5eda 8cbd b782 d73d 22cd b33d 27db d2be
000001a0: 9dfa a1bd 5089 883c dbcf 1bbe 16c3 91be
000001b0: d992 6fbf 59cf c8bd 6528 9c3e 2e40 583e
000001c0: 0744 d13d 053a 89bf 88a0 7dbe 7673 043e
000001d0: 430d 58be cf9e aabd 9294 1abd 119e a7bd
000001e0: d2d8 bd3d 3fa8 093c 6c1b e83c 83a5 1ebf
000001f0: ff83 4abd 87ab 21be 29e2 863e 3b43 51be
00000200: 1ede 083f 447e f0bd d560 8e3e ffef de3d
00000210: 9b46 dc3c fbe5 c23e 5419 afbd 6ba2 c9bf
00000220: 75da 3dbf 8d61 58bf f752 c53d b90a cc3c
00000230: b1fc a6bd 9251 26be 84e5 ce3d 2c1a 923a
00000240: ca8a 88ba 839b ba3d 2ae4 313d 2415 c23e
00000250: 8a0f 603d 4680 31be bbc1 6c3e d2f6 dabe
00000260: bf8b f73c 6b8f bcbe c9d0 0f3f 3af5 fcbe
00000270: d1f2 843d 63dd 833e 2c89 09bb 89cd a9be
00000280: f72c e63e a614 713c 0a73 283d 6572 f7bb
00000290: ac99 7f3d 52cc 5f3d 4ab8 16be fd41 803e
000002a0: 93e7 a73e c67d eabd 30db 30be bc43 2ebd
000002b0: 299d 323e f30d 01be cf51 d5bf f7f2 7bbb
000002c0: afdb 99bd f3ac 4a3e 401a b43e 8874 6fbe
000002d0: c7c0 fbbd 314a df3d 32d0 743d 3e54 e2bd
000002e0: e14d fd3c dda3 ca3d 1f77 183f ef09 d8be
000002f0: 63c3 d6bc dc06 043e 6055 9abe d22d f7bd
00000300: 1681 6c3f 30aa a9bc 16ff 6cbd 053c 2e3e
00000310: 1977 1a3d 60bb 16be b730 203e 657d 223e
00000320: 1c3c d3be c354 f8bd 4329 c13d 76f2 5b3e
00000330: 83a5 a3bf 08e4 0abe 2521 adbd 1064 b4bf
00000340: 81b1 83be 3f38 9e3e 9739 393e 7199 723e
00000350: 118e 7fbe c26c 033e 04b8 0d3e 8714 8d3c
00000360: fc3c 2dbe 9778 c2bc c589 923d 2c10 d9bd
00000370: 80b9 f43b e695 2a3e eccf cebd b90d 4d3c
00000380: 2c8e 5fbe ba0e fa3d d355 593e 8011 233d
00000390: 9183 f1bc 234a 77bf f66a 06be 4064 5d3d
000003a0: c1df 8c3d 6406 743e 3568 603e 664d 523d
000003b0: 9832 1a3d 412c fc3c f4dc babf 9975 26bd
000003c0: 94f6 52bc 05a0 37be a922 c83d a96a 553e
000003d0: ee11 babf 623b 5ebe 9028 e3bd 113d 633d
000003e0: ac8b 0fbe 3328 613e 4bfe 7bbe bd9b b1bc
000003f0: ad6b 123e 64f0 9fbf 260b 37ba 8e15 c2bd

conv.0.bias f4 [16]
-0.050739992 0.11679632 -0.001947353 -0.025616627 -0.049833663 -0.4196115 0.28728348 -0.36247063
-0.25271487 -0.12216099 -0.61219007 -0.054357592 0.044608578 0.08931841 -0.13501596 0.10323963
00000000: bdd4 4fbd e932 ef3d 533e ffba f6d9 d1bc
00000010: 621e 4cbd 52d7 d6be d216 933e c095 b9be
00000020: d863 81be 8b2f fabd 7db8 1cbf 11a6 5ebd
00000030: 7cb7 363d 92ec b63d a041 0abe 4d6f d33d

conv.2.weight f4 [32, 16, 3, 3]
-0.004262527 0.09503856 0.026239121 0.18544413 -0.030218398 0.067107275 0.2739891 0.22235408
-0.21382663 0.22565657 0.122406706 -0.1215171 -0.18214417 0.052759316 -0.060192496 0.09175892
0.028800542 -0.33071867 -0.084328406 0.12728323 -0.04040753 -0.5697476 0.34654722 -1.4498605
-0.0701211 -0.031256463 0.029962666 0.15422682 -0.114911124 -0.2301092 0.19816601 -0.43901289
-0.10344395 -0.17443648 0.20169625 0.07581982 0.13741428 0.048985675 0.2784886 0.02794077
0.018593878 -0.21092804 0.20442374 -0.11321766 0.03686704 -0.03127788 0.11116764 -0.48438632
0.36966687 -0.23899716 -0.0008347078 0.10032467 0.068735816 -0.057912726 -0.319308 0.0346886
-0.482824 0.05766112 -0.33985913 -0.15905817 -0.20617542 0.15339532 0.115692064 0.24969867
-0.11420397 0.062690355 -0.13379192 -0.11099952 0.08505923 0.0632865 -0.30745482 -0.7755663
-0.313715 0.0278807 0.55688167 0.12211308 0.0021299515 0.18910609 0.0856768 -0.071844
-0.1955752 0.16625704 -0.38197196 0.39140692 -0.17081262 -0.31228432 -0.13974407 0.05549168
0.1558443 0.2988954 0.28941384 -0.06280341 0.07183544 -0.048658848 -0.08609593 -0.5450986
0.36399743 0.11223887 -0.2264473 -0.09333754 -0.19485615 -0.18233654 -0.19786623 -0.23030677
-0.118372254 0.10512838 -0.093023986 0.01791017 -0.03613887 -0.0026676832 -0.013158053 -0.038213074
-0.6043791 -0.07613453 0.04879282 0.035617575 -0.14054081 -0.3102966 -0.7343244 -0.05358737
-0.0040622535 -0.20213555 -0.052524593 -0.84695613 0.038171627 -0.14393008 0.1913546 -0.043036196
0.23357151 0.14317237 -0.18913725 -0.23944052 0.18922612 0.047874913 0.0021041806 0.008762633
0.001767383 0.06365793 0.06598245 0.13803001 -0.1528355 0.10045458 -0.27413487 0.08366066
0.034943715 0.26474753 -0.13710447 0.11521557 -0.23408246 -0.16412564 0.08680178 0.051688943
0.0063457824 -0.041185673 0.18519777 0.010975878 -3.1867113 0.1337521 0.15062882 -0.10890615
0.25540248 -0.023410792 -0.22470242 -0.059501633 -0.022441125 0.10352135 0.020234538 0.081260666
-0.09752515 0.25010827 -0.09861868 -0.28315002 -0.34829992 0.29180086 -0.13438392 0.23406453
0.0116943 -0.58621424 -0.21479367 0.32505322 -0.42738748 -0.28690004 -0.9335045 -0.28486878
0.121914215 0.2842815 -0.088251755 0.05041731 -0.07299357 -0.0738081 -0.23202406 0.13563406
0.1903594 0.31940278 -0.4195051 -0.08326576 -0.36657763 -0.22138977 0.017728819 -0.046177693
0.38294974 -0.12882228 -0.30536783 -0.8105147 0.14033304 0.12074337 0.43429714 -0.027243575
0.0584473 -0.21904013 -0.019076508 -0.25251037 0.1867073 0.32977435 -0.2629385 -0.06681509
-0.113000475 0.05464336 -0.12512213 0.389109 0.11523906 -0.33571896 0.27483532 0.24404074
0.2070307 0.27567092 -0.06723505 0.032324813 0.0068754125 0.15884922 -0.16791402 0.054024864
0.034346644 0.0051612 0.15858531 0.30999616 -0.47552532 -0.15262583 -0.104140416 0.18310292
-0.0072144456 -0.25254333 0.3403756 -0.16268277 0.2838027 -0.08405732 0.24820821 0.020547394
-0.08075969 0.08349903 0.1243945 -0.24696332 0.5028155 -0.1260903 0.26637608 0.16122803
00000000: abac 8bbb 94a3 c23d 6df3 d63c 11e5 3d3e
00000010: 938c f7bc 8a6f 893d 4d48 8c3e cab0 633e
00000020: 5ef5 5abe 8412 673e 5eb0 fa3d f5dd f8bd
00000030: 0084 3abe 271a 583d 688c 76bd 1aec bb3d
00000040: 1def eb3c f553 a9be 5fb4 acbd 8956 023e
00000050: 5e82 25bd fbda 11bf a36e b13e 0795 b9bf
00000060: a79b 8fbd c706 00bd 4474 f53c a3ed 1d3e
00000070: 8656 ebbd bfa1 6bbe 08ec 4a3e 4cc6 e0be
00000080: 6cda d3bd 7a9f 32be 7689 4e3e 6c47 9b3d
00000090: 54b6 0c3e 34a5 483d 0f96 8e3e 0be4 e43c
000000a0: 3052 983c 85fd 57be 7554 513e a9de e7bd
000000b0: e501 173d 3c1d 00bd dcab e33d 7c01 f8be
000000c0: fa44 bd3e acbb 74be 4bd0 5aba 0577 cd3d
000000d0: 5dc5 8c3d e535 6dbd 577c a3be a215 0e3d
000000e0: b534 f7be 112e 6c3d 0402 aebe 25e0 22be
000000f0: a61f 53be aa13 1d3e f6ef ec3d 02b1 7f3e
00000100: c5e3 e9bd cd63 803d c000 09be b753 e3bd
00000110: 8933 ae3d 5a9c 813d b86a 9dbe 838b 46bf
00000120: 419f a0be 1166 e43c cc8f 0e3f 6c16 fa3d
00000130: a896 0b3b 07a5 413e 5177 af3d f222 93bd
00000140: dd44 48be 493f 2a3e d491 c3be 7d66 c83e
00000150: 81e9 2ebe bbe3 9fbe 1219 0fbe 3e4b 633d
00000160: a695 1f3e d108 993e 0d2e 943e 139f 80bd
00000170: 761e 933d 804e 47bd 1053 b0bd 958b 0bbf
00000180: df5d ba3e 7edd e53d cde1 67be c127 bfbd
00000190: 5f88 47be 6eb6 3abe 729d 4abe 8ad5 6bbe
000001a0: 276d f2bd 8c4d d73d 5c83 bebd 59b8 923c
000001b0: 5a06 14bd 4cd4 2ebb e094 57bc 5085 1cbd
000001c0: 97b8 1abf 6cec 9bbd fbda 473d bce3 113d
000001d0: eee9 0fbe 32df 9ebe affc 3bbf 6e7e 5bbd
000001e0: a71c 85bb 9ffc 4ebe 0724 57bd 1ed2 58bf
000001f0: da59 1c3d 6862 13be 76f2 433e b946 30bd
00000200: 5f2d 6f3e c79b 123e 32ad 41be e52f 75be
00000210: 7ec4 413e 7c18 443d 4be6 093b 2691 0f3c
00000220: 88a7 e73a 175f 823d cf21 873d bd57 0d3e
00000230: e980 1cbe 21bb cd3d 685b 8cbe 4856 ab3d
00000240: 2421 0f3d fd8c 873e 1d65 0cbe 24f6 eb3d
00000250: 50b3 6fbe 8d10 28be 22c5 b13d c9b7 533d
00000260: 48f0 cf3b 4fb2 28bd 7ca4 3d3e 2bd4 333c
00000270: 14f3 4bc0 4ff6 083e 713e 1a3e 300a dfbd
00000280: 1dc4 823e fdc7 bfbc 6418 66be fcb7 73bd
00000290: 73d6 b7bc 0003 d43d e7c2 a53c fe6b a63d
000002a0: 44bb c7bd 310e 803e 97f8 c9bd 0af9 90be
000002b0: 5e54 b2be ec66 953e f09b 09be 9dae 6f3e
000002c0: 7399 3f3c 2312 16bf dff2 5bbe 606d a63e
000002d0: 88d2 dabe 90e4 92be 27fa 6ebf 52da 91be
000002e0: 29ae f93d 588d 913e 56bd b4bd 6282 4e3d
000002f0: a77d 95bd b328 97bd b797 6dbe a8e3 0a3e
00000300: 93ed 423e c388 a33e 5fc9 d6be 3d87 aabd
00000310: 10b0 bbbe 00b4 62be 073c 913c d224 3dbd
00000320: fd11 c43e fde9 03be 2c59 9cbe e47d 4fbf
00000330: 77b3 0f3e 4d48 f73d 325c de3e eb2d dfbc
00000340: 7066 6f3d 0e4c 60be 5646 9cbc 0a49 81be
00000350: 3330 3f3e 2fd8 a83e e09f 86be 5ad6 88bd
00000360: cb6c e7bd b7d1 5f3d 0420 00be 4b39 c73e
00000370: 7502 ec3d 5be3 abbe 37b7 8c3e d1e5 793e
00000380: dbff 533e bd24 8d3e 88b2 89bd 0667 043d
00000390: 244b e13b 5fa9 223e a7f1 2bbe 2d49 5d3d
000003a0: 11af 0c3d 491f a93b 3064 223e d1b7 9e3e
000003b0: 0e78 f3be f249 1cbe 9247 d5bd 557f 3b3e
000003c0: 2867 ecbb 5c4d 81be b645 ae3e 5096 26be
000003d0: 964e 913e 3f26 acbd 4b2a 7e3e 0253 a83c
000003e0: 5665 a5bd 8a01 ab3d 8bc2 fe3d f4e3 7cbe
000003f0: 84b8 003f d11d 01be 7262 883e f618 253e

conv.2.bias f4 [32]
0.30211353 0.018107953 -0.39132595 -0.38442245 0.19062594 -0.16950572 0.116218455 -0.25961232
-0.12598279 -0.02172565 0.09967196 0.0063196947 -0.17878897 -0.044761114 0.014792395 -0.2613083
0.13848168 0.0013586257 0.04913282 -0.4142108 -0.08562258 0.27802047 -0.59442157 0.18384962
0.0059973556 0.16820964 -0.23188134 0.062454477 0.0077749337 -0.020479213 -0.059519038 -0.064754784
00000000: a0ae 9a3e 2157 943c e05b c8be 05d3 c4be
00000010: 7233 433e e892 2dbe f103 ee3d e8eb 84be
00000020: a201 01be fef9 b1bc d020 cc3d 7115 cf3b
00000030: 7514 37be 6e57 37bd cd5b 723c 34ca 85be
00000040: 24ce 0d3e ea13 b23a 7f3f 493d 7013 d4be
00000050: e45a afbd b358 8e3e 032c 18bf 1343 3c3e
00000060: 7785 c43b 263f 2c3e 4d72 6dbe 44d0 7f3d
00000070: dfc4 fe3b 06c4 a7bc 3cca 73bd 289e 84bd

conv.4.weight f4 [64, 32, 5, 5]
0.06701053 -0.17096478 -0.12046724 0.22029887 0.09807917 -0.26410505 0.080299996 0.043735806
0.09366857 0.04186828 0.08665075 0.0038583297 0.13276185 -0.21743165 -0.002730574 -0.38123956
0.12717484 -0.14368334 0.7703889 -0.5356643 0.025240365 -0.28411967 -0.24230109 0.000571103
-0.19570078 -0.035141293 -0.43128687 0.054052446 0.30541208 -0.3078701 -0.20263362 0.11104434
-0.32180813 0.143237 0.0029427675 0.33826602 -0.34189042 0.16138034 0.5114776 -0.57410496
0.23165517 0.2725127 -0.021852491 0.27275544 0.262617 -0.19655152 0.10908329 0.19450176
-0.10935445 0.16550197 -0.21707627 0.10169617 -0.42630643 -0.3525953 0.27403286 0.28338054
-0.027208151 -0.3301816 0.2515337 -1.5426581 -0.7562779 0.33207634 -0.666304 -0.34113112
0.1614486 0.2125881 -0.19578448 0.6524275 0.067738995 -0.14982955 0.044829674 0.18063566
0.15931407 -0.07829505 0.0005026597 0.037317857 -0.08697508 -0.19932878 -0.006853337 -0.17484404
0.087821916 0.21234249 -0.029867897 0.5171195 0.0035142235 -0.1904918 -0.088509455 -0.6100767
-0.035674624 0.8747778 0.017761197 0.23005664 -0.23886761 -0.5244198 -0.07003445 0.4049778
0.2023672 -0.09843426 0.68283993 -0.28300995 0.14314994 0.018267026 -0.20872265 -0.22264305
-0.16836146 0.15861937 0.06846207 0.2337832 0.095116556 0.14452954 -0.04660453 0.14906555
0.4562813 0.3085875 0.08154133 -0.24988045 0.025995709 0.10753503 0.2874775 0.14789826
0.17455275 -0.17876436 0.43261606 0.1666368 0.48373473 1.0607954 0.057018522 0.03892685
0.07681577 -0.15136866 0.1302532 -0.10220345 0.31440142 0.069692105 -0.18741612 -0.044697497
0.06752535 -0.064745404 0.56546664 -0.061744146 -0.9095082 0.004386653 0.022046927 -0.2734024
-0.2683508 -0.5630403 -0.19429006 0.3790709 0.09969313 -0.5626169 -0.4204306 0.282195
-0.48961046 0.12335405 -0.40870854 -0.34585556 -0.44996938 -0.1989289 -0.11777783 -0.046453927
-0.0846132 0.17138709 -0.31689847 0.22379981 1.1485095 0.33493337 0.0070062047 0.034747805
-0.78187436 0.55680877 0.227666 -0.347383 0.06865776 -0.1764854 0.13932757 -0.14291221
0.41322255 0.32938603 0.17552918 0.18457688 -0.6230298 0.3228785 -0.27509975 -0.13991052
0.5332872 -0.33164215 0.3452091 -0.16502951 -0.20907274 -0.049835015 -0.39920473 -0.073026195
0.12752166 0.011740017 0.2034881 -0.093135454 0.1280718 -0.13891645 -0.18794127 0.07066215
-0.08795569 0.12442882 -0.35119975 -0.50647014 -0.13927707 0.4864417 0.17373747 0.012450947
0.032049447 -0.15967931 -0.21300486 -0.23878679 -0.088342205 0.020342438 0.09926284 -0.18970682
0.18784733 0.1504328 0.1407075 -0.11943094 -0.16645308 0.10065549 -0.21708012 0.1506093
-0.14533517 -0.017077008 -0.06825741 0.082774565 -0.0653878 0.124041446 0.15710673 -0.106353626
-0.35852802 0.67057824 -0.10865053 -0.20789917 -0.26429957 0.20055155 -0.10206394 0.1352796
0.22334345 0.30936217 -0.13683385 0.21573563 -0.025117584 0.27651423 0.27580786 -0.16470699
0.038566284 0.04833766 0.010308671 0.09127027 -0.7084338 -0.06487621 0.14921889 0.15577254
00000000: d13c 893d 6411 2fbe 87b7 f6bd 0796 613e
00000010: bbdd c83d c738 87be 5374 a43d 5124 333d
00000020: 4fd5 bf3d 137e 2b3d f375 b13d 08dc 7c3b
00000030: b9f2 073e 67a6 5ebe 6ef3 32bb d531 c3be
00000040: 1f3a 023e ba21 13be 3538 453f 4c21 09bf
00000050: e2c4 ce3c 2278 91be c71d 78be 13b6 153a
00000060: c965 48be 51f0 0fbd a2d1 dcbe 1966 5d3d
00000070: f95e 9c3e 26a1 9dbe 307f 4fbe 376b e33d
00000080: 09c4 a4be b8ac 123e 72db 403b 3431 ad3e
00000090: 430c afbe e340 253e 32f0 023f 8bf8 12bf
000000a0: 0337 6d3e c986 8b3e ff03 b3bc 9aa6 8b3e
000000b0: bc75 863e cd44 49be 0f67 df3d 782b 473e
000000c0: 3af5 dfbd 5979 293e 3e49 5ebe 1546 d03d
000000d0: d644 dabe 5f87 b4be 094e 8c3e 4117 913e
000000e0: a1e3 debc 900d a9be 06c9 803e d275 c5bf
000000f0: 6e9b 41bf e905 aa3e e692 2abf bda8 aebe
00000100: c852 253e b2b0 593e ba7b 48be 7d05 273f
00000110: beba 8a3d eb6c 19be 529f 373d 8ef8 383e
00000120: 3a23 233e 2859 a0bd ecc4 033a 9cda 183d
00000130: fe1f b2bd d81c 4cbe f591 e0bb 510a 33be
00000140: fadb b33d 4f70 593e 85ad f4bc f261 043f
00000150: e34e 663b 4810 43be 7244 b5bd fd2d 1cbf
00000160: 8e1f 12bd 70f1 5f3f ee7f 913c f893 6b3e
00000170: b699 74be 6040 06bf 396e 8fbd 4059 cf3e
00000180: 5939 4f3e e797 c9bd 99ce 2e3f aee6 90be
00000190: e695 123e bba4 953c 64bb 55be 8afc 63be
000001a0: f266 2cbe 1e6d 223e d735 8c3d dd64 6f3e
000001b0: 78cc c23d 8dff 133e 64e4 3ebd a4a4 183e
000001c0: b49d e93e 2eff 9d3e 24ff a63d a9e0 7fbe
000001d0: f4f4 d43c 533b dc3d 4030 933e a472 173e
000001e0: f5bd 323e 010e 37be da7f dd3e d6a2 2a3e
000001f0: 14ac f73e 25c8 873f 418c 693d c371 1f3d
00000200: 9651 9d3d 6300 1bbe 1861 053e 0b50 d1bd
00000210: 39f9 a03e bcba 8e3d 03ea 3fbe b914 37bd
00000220: bb4a 8a3d 3d99 84bd 6cc2 103f 6ee7 7cbd
00000230: 88d5 68bf eabd 8f3b c29b b43c 66fb 8bbe
00000240: 4765 89be 6923 10bf f9f3 46be 9515 c23e
00000250: e92b cc3d a907 10bf ae42 d7be dd7b 903e
00000260: 39ae fabe 0ca1 fc3d 3f42 d1be fb13 b1be
00000270: 6362 e6be 04b4 4bbe 8135 f1bd 7946 3ebd
00000280: af49 adbd 1980 2f3e 8440 a2be c72b 653e
00000290: 5c02 933f 637c ab3e 4e94 e53b b753 0e3d
000002a0: eb28 48bf 058b 0e3f 4721 693e 2fdc b1be
000002b0: 719c 8c3d 97b8 34be e3ab 0e3e 9457 12be
000002c0: e891 d33e 49a5 a83e ecbd 333e b901 3d3e
000002d0: e27e 1fbf 5550 a53e e0d9 8cbe b444 0fbe
000002e0: 8385 083f 00cd a9be 3fbf b03e 7ffd 28be
000002f0: 2a17 56be cd1f 4cbd 9064 ccbe c28e 95bd
00000300: 0a95 023e 3359 403c 2f5f 503e cdbd bebd
00000310: 4125 033e 1d40 0ebe ad73 40be 51b7 903d
00000320: 1d22 b4bd 8ad4 fe3d 74d0 b3be 07a8 01bf
00000330: a69e 0ebe e30e f93e 3ce8 313e 0fff 4b3c
00000340: 4846 033d f982 23be f21d 5abe 8684 74be
00000350: c2ec b4bd 2fa5 a63c 514a cb3d 8142 42be
00000360: 0d5b 403e 0e0b 1a3e a015 103e 3598 f4bd
00000370: ad72 2abe 7724 ce3d 404a 5ebe 5339 1a3e
00000380: bed2 14be 15e5 8bbc 8aca 8bbd b685 a93d
00000390: 0aea 85bd 7109 fe3d 96e0 203e eecf d9bd
000003a0: fc90 b7be 04ab 2b3f 2b84 debd 85e3 54be
000003b0: 4652 87be 635d 4d3e e606 d1bd bc86 0a3e
000003c0: 25b4 643e b864 9e3e 2c1e 0cbe cde9 5c3e
000003d0: 64c3 cdbc 4693 8d3e b036 8d3e f3a8 28be
000003e0: aef7 1d3d b6fd 453d b3e5 283c e8eb ba3d
000003f0: eb5b 35bf d2dd 84bd d6cc 183e d682 1f3e

conv.4.bias f4 [64]
-0.4135842 -0.31334844 -0.13557062 -0.0027570692 -0.5084916 -0.26732612 -0.04421763 -0.18573847
0.29934794 -0.22452289 0.21075983 -0.048658684 -0.15409957 -0.042151846 -0.37098986 -0.21344289
-0.027593695 -0.30231738 0.062644936 -0.27886268 -0.002904646 -0.43410724 -0.047242075 -0.2650239
-0.40931943 0.56705445 -0.06175682 -0.03750033 -0.02865284 -0.18682994 -0.07028133 -0.09430092
-0.31392995 -0.07730771 -0.14460595 0.13849364 0.18395686 -0.08746489 -0.34408447 -0.060716838
0.10919525 -0.19624251 -0.13352321 -0.26737824 -0.15905848 -0.040848933 -0.22285046 0.48277676
-0.046338957 -0.020744642 -0.13381901 0.009941125 0.45613033 0.41248804 -0.15858312 -0.0004312466
0.10724539 -0.32346833 -0.26056638 -0.40808266 0.6548385 -0.011065048 -0.37109265 0.042492885
00000000: 4fc1 d3be 356f a0be 06d3 0abe f2af 34bb
00000010: 812c 02bf f8de 88be 8c1d 35bd 3a32 3ebe
00000020: 2244 993e 54e9 65be 6dd1 573e 544e 47bd
00000030: 47cc 1dbe 6aa7 2cbd 62f2 bdbe c690 5abe
00000040: 2c0c e2bc 58c9 9abe fd4b 803d 17c7 8ebe
00000050: e05b 3ebb 4e43 debe e880 41bd 36b1 87be
00000060: 5192 d1be 7b2a 113f b8f4 7cbd f299 19bd
00000070: 5cb9 eabc 5950 3fbe a8ef 8fbd d720 c1bd
00000080: 6dbb a0be 8153 9ebd 9513 14be 47d1 0d3e
00000090: 305f 3c3e cb20 b3bd d72b b0be 38b2 78bd
000000a0: c2a1 df3d ccf3 48be 4fba 08be cde5 88be
000000b0: 3ae0 22be 3651 27bd e932 64be 842e f73e
000000c0: ebcd 3dbd abf0 a9bc da07 09be 1ae0 223c
000000d0: ea89 e93e a231 d33e 9d63 22be f018 e2b9
000000e0: 79a3 db3d a49d a5be f568 85be 36f0 d0be
000000f0: 7fa3 273f 2d4a 35bc dbff bdbe 050d 2e3d

conv.7.weight f4 [64, 256]
-0.0009799552 0.10861584 0.019434031 0.059440337 0.34695923 -0.08026663 0.15980244 -0.0697214
-0.08811377 0.039910812 -0.111772574 0.053850573 -0.061445944 0.031240284 0.0076227263 0.039905697
-0.10374266 0.085542195 0.1435549 -0.016194135 0.2565159 0.029848276 0.060139246 0.03512383
0.02225402 0.036468565 -0.04809864 0.015289672 0.03278985 0.035679106 0.10867689 0.13508992
0.04470274 -0.29028094 -0.018480029 -0.16043481 -0.21166284 0.10660605 0.0038621223 -0.19964227
-0.0443343 0.20371345 -0.20102976 0.017128378 0.023385204 0.01643245 0.031449907 -0.028983623
-0.059421666 0.3295019 -0.10437802 0.10856086 -0.05326198 0.04536473 0.009349339 -0.035593122
-0.22157806 0.28996986 -0.19911304 0.14301775 0.1925949 0.17053136 -0.28920832 0.045252576
-0.0520972 -0.02213984 -0.0012932792 0.03904041 -0.04532605 -0.20214555 -0.25268996 0.12552536
0.026925452 -0.03707389 -0.13979954 0.15731017 -0.091994226 -0.09428253 -0.045118995 -0.26827016
0.12610932 -0.04347721 0.020839043 -0.1311878 0.25705838 -0.0828675 0.1475282 -0.017115017
-0.053775974 0.01720865 0.002624005 -0.054284424 0.11342629 0.24663176 0.03826045 -0.023507074
0.07352223 -0.0017333361 0.15367346 0.12348035 -0.0824076 -0.20601512 -0.07263565 -0.07354999
0.022026405 0.06029635 0.02451323 -0.010968484 0.10115562 0.1718937 -0.13223934 0.03336081
0.044183113 0.013102606 0.0009892434 0.019962437 0.08569979 -0.22530173 -0.19090234 0.09041599
-0.19477737 0.09133248 0.022370398 -0.10035448 0.099461354 -0.16949344 0.021412782 -0.3044305
0.32789987 0.15916686 0.06906321 0.32609302 0.0062867813 0.10138212 0.07515069 0.103234224
0.22553995 -0.05563875 0.24753907 0.22105747 0.097746745 -0.19822744 -0.5557428 0.008867856
0.10988473 -0.029642435 -0.6147957 0.15620011 0.07358042 0.18345518 0.14239158 0.012981935
-0.2981037 0.27884984 0.10045773 0.0060456353 -0.042151324 -0.036924087 0.025280185 0.0024833381
0.1275375 -0.12480044 -0.21691418 0.014596099 -0.0563465 0.048963092 0.061447706 -0.065172546
-0.080162324 0.14110254 0.03781215 0.22671776 0.11304341 0.16678904 -0.061268296 0.07928739
-0.098170415 -0.18917705 0.009124685 -0.062334977 0.05339361 0.06099207 0.023276396 -0.032528996
-0.24958627 0.16374649 0.11871696 0.14427267 -0.053318813 -0.09349346 0.04988565 0.016880492
0.03441733 0.036424227 -0.039166927 -0.0064357594 0.03720863 -0.02337978 -0.046880946 0.009724557
0.19984998 0.043254662 0.07429977 -0.046925835 -0.062062673 -0.030982502 0.03273181 0.057922438
0.17791787 -0.13442929 0.20811273 -0.0031008145 0.17857121 -0.10412795 -0.25426665 0.15081957
-0.036850028 -0.09371083 -0.020011883 -0.17992051 -0.11752068 -0.11057453 -0.29871786 -0.05524449
-0.10576127 0.18541338 -0.21623565 0.030044813 -0.2440444 -0.2290915 0.31729957 0.40717903
0.015264753 0.024468234 0.13693525 -0.17610751 -0.06679119 0.28126085 -0.12158609 -0.06995469
-0.041169193 0.31422076 0.0053957836 0.13289239 0.25929826 0.03615985 -0.2503344 -0.15909237
-0.09016896 -0.16010427 -0.10570407 -0.10640886 -0.38911656 -0.10795619 -0.0015416372 -0.3021497
00000000: d771 80ba fb71 de3d 1e34 9f3c b677 733d
00000010: a4a4 b13e d562 a4bd 40a3 233e 18ca 8ebd
00000020: fe74 b4bd 8579 233d 05e9 e4bd 6b92 5c3d
00000030: beae 7bbd a0eb ff3c 10c8 f93b 2874 233d
00000040: 0877 d4bd bf30 af3d 0e00 133e 90a9 84bc
00000050: 0d56 833e 5f84 f43c 9254 763d 01de 0f3d
00000060: 104e b63c 1060 153d 1403 45bd 8881 7a3c
00000070: a64e 063d 4124 123d fd91 de3d 0355 0a3e
00000080: 381a 373d b49f 94be 6e63 97bc 0649 24be
00000090: 25be 58be 4654 da3d a91b 7d3b 066f 4cbe
000000a0: e297 35bd 429a 503e bfda 4dbe d050 8c3c
000000b0: 5492 bf3c 589d 863c 9ed1 003d 106f edbc
000000c0: 2264 73bd 79b4 a83e 25c4 d5bd 2855 de3d
000000d0: 3c29 5abd 5ed0 393d f82d 193c 18ca 11bd
000000e0: 5ce5 62be ee76 943e 4ae4 4bbe 3f73 123e
000000f0: 9937 453e c69f 2e3e 1d13 94be c45a 393d
00000100: e063 55bd 9c5e b5bc 4083 a9ba d6e8 1f3d
00000110: cfa7 39bd 3eff 4ebe 9460 81be b889 003e
00000120: c492 dc3c cbda 17bd 9c27 0fbe eb15 213e
00000130: 7867 bcbd 3317 c1bd b2ce 38bd b55a 89be
00000140: cd22 013e 2915 32bd a4b6 aa3c 1856 06be
00000150: 289d 833e 70b6 a9bd a211 173e cb34 8cbc
00000160: 3244 5cbd 28f9 8c3c 80f7 2b3b 5859 5ebd
00000170: 0b4c e83d 098d 7c3e fdb6 1c3d e891 c0bc
00000180: d392 963d 1c31 e3ba 935c 1d3e 44e3 fc3d
00000190: 51c5 a8bd a1f5 52be 00c2 94bd 61a1 96bd
000001a0: b870 b43c 4ef9 763d f8cf c83c 28b5 33bc
000001b0: ad2a cf3d e704 303e c069 07be 58a5 083d
000001c0: 5af9 343d 50ac 563c 80a9 813a 4488 a33c
000001d0: 5f83 af3d 7fb5 66be e77b 43be 052c b93d
000001e0: b873 47be 860c bb3d 2042 b73c a686 cdbd
000001f0: 65b2 cb3d b08f 2dbe dc69 af3c 51de 9bbe
00000200: 7ee2 a73e a3fc 223e 0371 8d3d aaf5 a63e
00000210: 5801 ce3b 6ea1 cf3d 9be8 993d 776c d33d
00000220: f2f3 663e 75e5 63bd e27a 7d3e e45c 623e
00000230: 722f c83d 22fc 4abe 2945 0ebf 7c4a 113c
00000240: 3f0b e13d b1d4 f2bc 4063 1dbf ecf2 1f3e
00000250: 55b1 963d addb 3b3e 19cf 113e 2fb2 543c
00000260: 0ca1 98be 68c5 8e3e c8bc cd3d 771a c63b
00000270: dea6 2cbd b63d 17bd 6418 cf3c 80bf 223b
00000280: 3199 023e 6097 ffbd c01e 5ebe 7a24 6f3c
00000290: 96cb 66bd 868d 483d 97b0 7b3d 2f79 85bd
000002a0: 252c a4bd 2f7d 103e eae0 1a3d b328 683e
000002b0: 4e83 e73d bfca 2a3e 77f4 7abd 6d61 a23d
000002c0: 920d c9bd a1b7 41be b47f 153c f652 7fbd
000002d0: 42b3 5a3d d2d2 793d 24ae be3c 203d 05bd
000002e0: 8b93 7fbe 29ad 273e e121 f33d 37bc 133e
000002f0: d464 5abd 8079 bfbd e554 4c3d f548 8a3c
00000300: 30f9 0c3d 9231 153d 806d 20bd 10e3 d2bb
00000310: 1468 183d f486 bfbc 3c06 40bd c053 1f3c
00000320: 79a5 4c3e cd2b 313d 7a2a 983d 4e35 40bd
00000330: 6e35 7ebd 04cf fdbc ca11 063d 1440 6d3d
00000340: 1a30 363e d5a7 09be 811b 553e 0937 4bbb
00000350: 5fdb 363e 0941 d5bd 3d2f 82be 7270 1a3e
00000360: 0ef0 16bd 77eb bfbd f6ef a3bc 153d 38be
00000370: afae f0bd e674 e2bd 8cf1 98be 0c48 62bd
00000380: 5d99 d8bd 01dd 3d3e e16c 5dbe 8a20 f63c
00000390: c6e6 79be f696 6abe 1775 a23e c579 d03e
000003a0: 0419 7a3c 9b71 c83c c138 0c3e 8755 34be
000003b0: d2c9 88bd 6c01 903e 2102 f9bd 6844 8fbd
000003c0: 07a1 28bd 8be1 a03e 1dcf b03b f114 083e
000003d0: bec2 843e 5a1c 143d d52b 80be 1ce9 22be
000003e0: 81aa b8bd 60f2 23be 607b d8bd e3ec d9bd
000003f0: 493a c7be 2318 ddbd c310 caba 5eb3 9abe

conv.7.bias f4 [64]
-0.15400581 0.6882348 0.48240674 0.45559213 0.90783495 0.795946 -0.26203728 0.51825213
0.009374888 0.37399596 -0.39821723 0.3059561 0.75790024 0.73506695 0.8636943 -0.7287197
0.47698936 0.5450041 1.1776813 0.414991 0.31082332 0.15536205 0.6310216 0.58880466
0.21796261 0.04847383 -0.36223093 0.30678374 0.34725633 0.11271645 0.4766356 0.09345068
-0.29948172 0.50905883 0.033806346 -0.0370172 0.11932353 -0.34936258 -0.16954942 0.10171815
0.1996144 0.12688546 0.092121735 0.20577721 0.5047899 0.11235881 0.8975689 0.25344038
0.26028052 0.33688512 -0.3170553 0.19455522 0.2626347 -0.11230966 0.5553822 -0.27349636
0.18351196 -0.22504458 0.9011514 0.09353002 0.76522785 -0.1954155 0.5163362 0.19917154
00000000: b3b3 1dbe 2830 303f 04fe f63e 5f43 e93e
00000010: df67 683f 1ec3 4b3f c029 86be 2cac 043f
00000020: 2199 193c 667c bf3e 21e3 cbbe 47a6 9c3e
00000030: c005 423f 592d 3c3f 121b 5d3f 608d 3abf
00000040: f337 f43e 6485 0b3f 43be 963f b379 d43e
00000050: 3c24 9f3e 3b17 1f3e a28a 213f e7bb 163f
00000060: 9731 5f3e 7f8c 463d 5576 b9be c212 9d3e
00000070: 95cb b13e e2d7 e63d 9509 f43e 1263 bf3d
00000080: ab55 99be ae51 023f 8678 0a3d 599f 17bd
00000090: e55f f43d a7df b2be 5d9e 2dbe 9b51 d03d
000000a0: b867 4c3e 43ee 013e 52aa bc3d 43b7 523e
000000b0: e939 013f 601c e63d 13c7 653f f0c2 813e
000000c0: 7d43 853e 357c ac3e 1355 a2be 7c39 473e
000000d0: 0e78 863e 9b02 e6bd 872d 0e3f b707 8cbe
000000e0: 8fea 3b3e 1672 66be dcb1 663f ab8c bf3d
000000f0: f9e5 433f 001b 48be 9c2e 043f a0f3 4b3e

out.weight f4 [4, 64]
0.1495355 0.22612931 0.021055877 0.045098223 0.22797701 0.02487753 0.003734429 0.046044484
0.013316151 0.033141527 0.09925852 0.09213645 0.048366874 -0.033310894 -0.017624773 0.024282368
-0.7099973 0.044773586 0.49348643 0.0006179535 -0.0071619935 0.017509526 0.11513071 0.013222501
-0.04561334 -0.01056538 0.21982597 0.12086821 0.043428477 -0.05350799 0.058519233 -0.095717534
-0.023449523 0.02396556 0.099374056 -0.07331292 0.07156625 -0.24542306 -0.048134234 -0.10301325
0.087222174 0.041753706 0.094881915 -0.05073059 -1.5460728 -1.7398708 -0.035113815 -1.7101587
-0.8133507 -0.010666223 0.15948392 0.02230961 -0.06878648 0.024394244 -0.10643517 4.884717
0.09270778 0.050579187 0.071326435 -0.20072535 0.009086931 0.0073115043 0.19965272 -0.05389369
-0.05507903 0.08294231 0.05508599 0.0023586957 0.2719349 0.08536134 0.14450139 -0.12677409
-0.5261637 0.14034207 0.09033377 0.07733057 0.06795751 0.09912419 0.045950152 0.034482606
0.019713154 0.026235113 0.5025541 -1.3666335 -0.19971845 0.17348775 0.05721045 0.007090412
-0.80995554 -0.013644265 0.004341571 0.10982915 -1.224599 -0.18321638 -0.009135598 0.08268867
-0.060229626 0.12358428 -0.08742442 0.0055229682 0.027185574 -0.0100489305 -0.059995342 0.0094132805
-0.032039925 -0.077178456 -0.045204613 -0.08296465 0.10368201 -0.055641163 -0.059749432 0.014266026
-0.08164327 0.13909157 -0.040176243 0.104414016 0.025294445 0.0030403459 0.044177715 -0.019013893
-0.035242658 -0.09161907 0.05777022 0.12567201 0.03660128 -0.09610825 -0.056744393 -0.061239023
0.017396608 0.030793235 -1.3252426 -0.028827276 0.031312976 0.035093743 -0.17808655 -0.050162826
0.08480317 0.037121397 -0.048157476 0.14121987 0.06404404 0.056761462 0.030473487 -0.123811044
0.025395587 0.15519921 0.5385296 0.0639299 0.0028329953 0.001175846 0.13653284 -0.016167037
-0.012527481 -1.2871249 -0.047500458 -0.06404377 -0.09776983 0.11837943 0.16278443 0.050509132
-0.018012408 0.060973946 0.08591658 3.0793343 0.030932425 0.0076106694 -0.041037347 -0.039216045
-0.117768064 -2.1443307 -0.12668769 0.024600407 0.0028418014 0.06820225 -0.18649022 -0.09640942
-0.0124623235 -2.2590368 0.2707851 -0.13639422 0.029195443 -0.024326215 0.1353941 -0.017630206
0.060591254 3.8215668 0.2096425 -0.05094397 0.12850887 -0.061861016 0.013997049 -1.4083223
0.10378815 0.030600972 0.031300355 0.093237124 0.14011636 0.011077628 -0.919274 0.09548953
-0.08612842 -0.019203998 0.05600755 0.0792257 0.02617951 0.058943868 0.13659532 -0.0042197006
0.0050637624 0.052508757 0.50888276 0.10411431 0.07723454 -0.5670769 0.120244235 0.10455859
0.03588377 -0.06281226 0.029256675 0.072361186 -0.073495045 -0.7894086 -1.5210031 -0.06111259
4.1942177 -0.12665197 -0.13239735 -0.01692301 0.21413325 0.05158179 0.04729093 -1.2877948
-1.3117758 -0.034263134 -0.27989417 -1.2114422 0.124557205 -0.08524215 -0.27001113 -0.051576182
0.05725595 0.018577721 -0.024963016 0.09966013 0.117130786 -0.0024270527 0.014202687 -0.05653544
0.120357454 -0.020256916 0.11358498 -0.012133992 0.04190578 0.20912546 -0.0015379213 0.08324887
00000000: d61f 193e 718e 673e 607d ac3c eab8 383d
00000010: ce72 693e f6cb cb3c 52bd 743b 2499 3c3d
00000020: fc2b 5a3c 69bf 073d 0d48 cb3d 09b2 bc3d
00000030: 581c 463d 0171 08bd d461 90bc d1eb c63c
00000040: 62c2 35bf 8264 373d 41aa fc3e 28fe 213a
00000050: 28af eabb 2370 8f3c a6c9 eb3d 30a3 583c
00000060: 0ed5 3abd 6a1a 2dbc 0f1a 613e c189 f73d
00000070: 0fe2 313d 322b 5bbd ddb1 6f3d 8e07 c4bd
00000080: 3719 c0bc 6c53 c43c a084 cb3d 1625 96bd
00000090: 5391 923d 2f50 7bbe 6728 45bd 9cf8 d2bd
000000a0: 8aa1 b23d ef05 2b3d 7351 c23d e1ca 4fbd
000000b0: b7e5 c5bf 16b4 debf 81d3 0fbd 7be6 dabf
000000c0: c037 50bf 62c1 2ebc c14f 233e a5c2 b63c
000000d0: eddf 8cbd 70d6 c73c affa d9bd 9a4f 9c40
000000e0: 94dd bd3d 1f2c 4f3d 9813 923d f28a 4dbe
000000f0: 5ae1 143c 5895 ef3b c371 4c3e a1bf 5cbd
00000100: 8d9a 61bd a8dd a93d d9a1 613d 5994 1a3b
00000110: 0d3b 8b3e edd1 ae3d 2cf8 133e 11d1 01be
00000120: aab2 06bf d5b5 0f3e e900 b93d 7d5f 9e3d
00000130: 4f2d 8b3d a001 cb3d 3a36 3c3d a23d 0d3d
00000140: 7b7d a13c 05eb d63c 63a7 003f d9ed aebf
00000150: fe82 4cbe c6a6 313e 8155 6a3d b056 e83b
00000160: 3f59 4fbf 328c 5fbc bd43 8e3b 1bee e03d
00000170: a9bf 9cbf 139d 3bbe 7aad 15bc ad58 a93d
00000180: 57b3 76bd c119 fd3d 930b b3bd 04fa b43b
00000190: 48b4 de3c 45a4 24bc adbd 75bd 293a 1a3c
000001a0: 4c3c 03bd bd0f 9ebd 7928 39bd 5fe9 a9bd
000001b0: 3c57 d43d fde7 63bd d2bb 74bd 0dbc 693c
000001c0: 9634 a7bd 056e 0e3e d88f 24bd 04d7 d53d
000001d0: 4c36 cf3c 8a40 473b b1f3 343d 06c3 9bbc
000001e0: 9b5a 10bd c7a2 bbbd 77a0 6c3d 2ab0 003e
000001f0: 39eb 153d 67d4 c4bd cf6c 68bd c5d5 7abd
00000200: 5583 8e3c 1842 fc3c 8da1 a9bf 2e27 ecbc
00000210: 0942 003d 75be 0f3d 525c 36be 8977 4dbd
00000220: 49ad ad3d 9b0c 183d c640 45bd f19b 103e
00000230: 8629 833d b57e 683d 89a3 f93c a590 fdbd
00000240: 680a d03c 8bec 1e3e 13dd 093f aeed 823d
00000250: c6a9 393b d81e 9a3a 44cf 0b3e bc70 84bc
00000260: 1040 4dbc 82c0 a4bf d78f 42bd 6129 83bd
00000270: 8c3b c8bd ea70 f23d f6b0 263e aae2 4e3d
00000280: c28e 93bc d1bf 793d 08f5 af3d d013 4540
00000290: ff65 fd3c ec62 f93b c716 28bd 01a1 20bd
000002a0: 6230 f1bd b73c 09c0 6bba 01be cb86 c93c
000002b0: 843d 3a3b 9fad 8b3d 4bf7 3ebe 4d72 c5bd
000002c0: c62e 4cbc 0f94 10c0 58a4 8a3e edaa 0bbe
000002d0: 482b ef3c c547 c7bc c0a4 0a3e 396d 90bc
000002e0: 892e 783d 8d94 7440 86ac 563e a0aa 50bd
000002f0: d497 033e fa61 7dbd e153 653c e843 b4bf
00000300: e28e d43d e4ae fa3c cd34 003d 1bf3 be3d
00000310: aa7a 0f3e f07e 353c 8a55 6bbf 0490 c33d
00000320: 1964 b0bd b451 9dbc 2c68 653d 1541 a23d
00000330: 6976 d63c 206f 713d a5df 0b3e 6a45 8abb
00000340: ebed a53b 6c13 573d 2446 023f e239 d53d
00000350: 242d 9e3d f42b 11bf 9c42 f63d d022 d63d
00000360: dcfa 123d b7a3 80bd b2ab ef3c 1a32 943d
00000370: 9284 96bd af16 4abf 3bb0 c2bf 3251 7abd
00000380: 0837 8640 0eb1 01be 2c93 07be 20a2 8abc
00000390: bf45 5b3e 6d47 533d 22b4 413d 76d6 a4bf
000003a0: 45e8 a7bf 8057 0cbd 4a4e 8fbe 8a10 9bbf
000003b0: d917 ff3d 7093 aebd e63e 8abe 8c41 53bd
000003c0: 3785 6a3d 4e30 983c 3d7f ccbc 9c1a cc3d
000003d0: 44e2 ef3d 300f 1fbb 63b2 683c b591 67bd
000003e0: f87d f63d d5f1 a5bc 3e9f e83d a7cd 46bc
000003f0: 65a5 2b3d fc24 563e 1394 c9ba 627e aa3d

out.bias f4 [4]
0.9492437 0.9997633 0.86838406 0.9170685
00000000: a301 733f 7df0 7f3f 6b4e 5e3f 00c5 6a3f
