models/v17.1/model_43500_target.pth (torch, 295179 bytes, 10 tensors)

conv.0.weight f4 [16, 2, 3, 3]
0	0x3e563e3b	0.20922177
1	0x3df98a91	0.121846326
2	0xbe44b544	-0.19209772
3	0x3e3d803b	0.18505947
4	0xbdfca321	-0.12335802
5	0x3cf29d4b	0.029616019
6	0xbe8a3cb7	-0.26999447
7	0x3e72fd6d	0.23729487
8	0x3dbc1166	0.09183006
9	0xbe14d586	-0.14534578
10	0x3df9a7a0	0.12190175
11	0xbd79ddc9	-0.061002526
12	0xbc76e61b	-0.01506951
13	0x3c1fc56a	0.009751657
14	0x3d8a5439	0.067543454
15	0xbcb76153	-0.022385275
16	0x3dbafebe	0.091306195
17	0xbcd286d3	-0.025699055
18	0xbdee3260	-0.11630702
19	0x3e72e55c	0.23720306
20	0x3cb81d3b	0.022474876
21	0x3e2750d5	0.16339429
22	0xbdeb2a22	-0.114826456
23	0x3e695260	0.2278533
24	0xbf2bd4ce	-0.6712159
25	0xbef9bd97	-0.48777458
26	0xbe511837	-0.20419393
27	0xbf693cb9	-0.9110828
28	0x3efbe969	0.49201515
29	0xbf8a404b	-1.0800871
30	0x3e666091	0.22497775
31	0xbe414e29	-0.18877472
32	0x3e707e7a	0.23485747
33	0xbd918305	-0.07105068
34	0xbd232ad5	-0.03983577
35	0x3e1c7be5	0.15281637
36	0xbd097e8a	-0.033567943
37	0x3e5cd611	0.21566035
38	0x3db8fe5f	0.090328924
39	0xbdef7fa2	-0.11694266
40	0x3e9de8cd	0.30841675
41	0xbcceee40	-0.02526009
42	0x3ea617a7	0.3243992
43	0x3e70b230	0.23505473
44	0x3e1cde45	0.15319164
45	0x3d3df081	0.04637194
46	0x3e2c6465	0.16835172
47	0x3b954914	0.0045558307
48	0x3e901d01	0.28147128
49	0xbdf2c8e0	-0.1185472
50	0xbfa51286	-1.2896278
51	0xbdae5d43	-0.08513882
52	0xbe920f92	-0.28527504
53	0x3d816de6	0.063197896
54	0xbcc7aed5	-0.024375359
55	0x3d232341	0.039828543
56	0x3d133f32	0.03594894
57	0x3d9dde36	0.07708399
58	0x3e1a8020	0.15087938
59	0xbf106369	-0.5640169
60	0xbe17f7c4	-0.14840609
61	0xbe9f4a5a	-0.31111413
62	0x3e35b1a5	0.17743547
63	0x3bba3760	0.0056828707
64	0x3c9ee8bf	0.019398091
65	0xbdab35d0	-0.08359873
66	0x3ea58a83	0.3233224
67	0xbdc9227c	-0.098210305
68	0xbf21e4ee	-0.63239944
69	0xbe8ac9cb	-0.2710708
70	0x3eb01e33	0.3439804
71	0x3e2926bd	0.16518684
72	0x3e80dff5	0.25170866
73	0xbdf2944c	-0.11844692
74	0xbe1aaf9f	-0.15106057
75	0xbf92f956	-1.1482341
76	0xbe681634	-0.2266472
77	0x3e3a5bca	0.18199077
78	0x3d96c89c	0.07362482
79	0x3eea26b5	0.45732656
80	0xbf7b3561	-0.98128325
81	0xbe8bebb7	-0.27328274
82	0x3e8506ee	0.2598185
83	0xbf4f746d	-0.81037027
84	0x3e750a86	0.23929796
85	0xbc5953f9	-0.01326465
86	0x3e31bf1c	0.17358059
87	0xbd1cc441	-0.0382731
88	0xbd89bf3a	-0.06725927
89	0x3d043af3	0.03228278
90	0x3c04c4ec	0.00810359
91	0xbe03fb0f	-0.1288874
92	0x3ece1ebf	0.40257832
93	0x3e605068	0.21905673
94	0xbe5e74b3	-0.21724205
95	0xbd9bc2b6	-0.076054975
96	0x3ee0e25c	0.43922698
97	0xbecb50d5	-0.39710107
98	0x3e811864	0.2521392
99	0xbe0ce5eb	-0.13759582
100	0xbe0db996	-0.13840327
101	0x3d96144d	0.07328091
102	0x3dae8503	0.08521464
103	0xbeb5abb8	-0.35482574
104	0xbdf72374	-0.12067309
105	0xbd1fa74a	-0.0389779
106	0xbe060d15	-0.13090928
107	0xbe81b267	-0.25331423
108	0xbf767dff	-0.96286005
109	0xbd5852e4	-0.052813426
110	0x3eadd32d	0.33950177
111	0x3e4a46e7	0.1975361
112	0x3dd6e9ff	0.1049385
113	0xbf831cb3	-1.0243133
114	0xbe7dd2d0	-0.2478745
115	0x3df7bbfb	0.12096401
116	0xbe07ba05	-0.13254555
117	0xbdce52b4	-0.10074368
118	0x3d7320ee	0.059357576
119	0xbe38f848	-0.18063462
120	0x3e0826a4	0.1329599
121	0x3d34ebef	0.044170316
122	0x3c9969dc	0.018727235
123	0xbf625031	-0.8840361
124	0xbef71b8d	-0.48263207
125	0xbd32bc0e	-0.043636374
126	0x3d6e8d2b	0.058240097
127	0xbe1e4711	-0.15456797
128	0x3ecfa8de	0.40558523
129	0xbd5991e2	-0.05311764
130	0x3ea6f873	0.32611427
131	0x3d8246a3	0.06361129
132	0x3c83163b	0.016001811
133	0x3e9b66eb	0.30351958
134	0xbd5db7b6	-0.05413028
135	0xbfb602b3	-1.4219574
136	0xbf610190	-0.8789301
137	0xbf5eb8a0	-0.87000465
138	0x3dbd811c	0.09253141
139	0x3cefa543	0.029253608
140	0x3d78d1ff	0.060747143
141	0xbedb3eb3	-0.42821273
142	0x3e90409e	0.281743
143	0xbd9ada21	-0.07561136
144	0xbc5c070c	-0.0134294145
145	0x3d755d83	0.059903633
146	0x3e11dbdd	0.14244027
147	0x3e86ec14	0.26351988
148	0x3e17f170	0.14838195
149	0xbe8153d4	-0.25259268
150	0x3e01715d	0.12640901
151	0xbe8c0566	-0.2734787
152	0x3cebbd21	0.028776707
153	0xbeb77a07	-0.35835287
154	0x3ed456c9	0.41472462
155	0xbed6fe10	-0.4199071
156	0x3d8179b8	0.06322044
157	0x3e5cb0c8	0.21551812
158	0xbc0d1ae2	-0.008612366
159	0xbe9f0c4a	-0.31064063
160	0x3ec929c3	0.39289674
161	0x3dbf5964	0.09343222
162	0xbaa8e3fc	-0.0012885327
163	0xbe141ab7	-0.14463316
164	0x3e2a909e	0.1665673
165	0x3d4e1df9	0.050321553
166	0xbdfef1e2	-0.12448479
167	0x3ea2e1fc	0.31813037
168	0x3e841ab3	0.2580162
169	0xbd9a2af4	-0.07527724
170	0xbe71cd41	-0.23613454
171	0xbb5f27d3	-0.0034050837
172	0x3e539304	0.20661551
173	0xbe07fa26	-0.13279018
174	0xbfc289c0	-1.5198288
175	0xbbf2d571	-0.007410698
176	0xbe6898ce	-0.2271454
177	0x3e582e2e	0.21111366
178	0x3eb83ba0	0.3598299
179	0xbeb54446	-0.3540365
180	0xbd24345f	-0.040089007
181	0x3dcd923b	0.10037657
182	0x3d88131f	0.06644272
183	0xbe083ad2	-0.13303688
184	0x3dee98bd	0.11650226
185	0x3dd73f78	0.105101526
186	0x3eafe412	0.3435369
187	0xbe82e84c	-0.25567853
188	0x3c355920	0.011068612
189	0x3ceab854	0.028652348
190	0xbe81d367	-0.253566
191	0xbe36f3f0	-0.17866492
192	0x3ebe87ee	0.3721308
193	0x3d72f00a	0.05931095
194	0xbd63c268	-0.055605322
195	0x3cbb708f	0.02288082
196	0x3dd8be1e	0.10583137
197	0xbdb20bce	-0.08693658
198	0x3e8396af	0.257009
199	0x3e1be162	0.15222695
200	0xbf051e17	-0.5199904
201	0xbd43cf44	-0.047805086
202	0x3e23b1fb	0.15985863
203	0x3e0a7b8e	0.13523695
204	0xbf64943f	-0.89288706
205	0xbeb56554	-0.3542887
206	0xbdc26787	-0.094924025
207	0xbfa75304	-1.3072209
208	0xbe9cb5be	-0.30607408
209	0x3e838d91	0.25693944
210	0x3dd8e8c9	0.10591275
211	0x3e2f00ce	0.1709015
212	0xbe8250c6	-0.2545225
213	0x3caf9567	0.021433545
214	0x3dce4d4a	0.100733355
215	0x3e21aa59	0.15787639
216	0xbce0894f	-0.027409224
217	0xbd9fa782	-0.077956215
218	0x3dc474e9	0.09592611
219	0xbd54bbf4	-0.05193706
220	0xbc3a5406	-0.011372572
221	0x3e831109	0.25598934
222	0xbde86e0b	-0.11349114
223	0xbcd61c05	-0.026136408
224	0xbe86d455	-0.2633387
225	0x3e26c936	0.16287693
226	0x3e8054c1	0.25064662
227	0x3d5fc61e	0.0546323
228	0xbe120634	-0.14260179
229	0xbf60776f	-0.8768224
230	0xbe793f5c	-0.24340576
231	0x3de5b022	0.11215235
232	0x3da2fcc7	0.0795837
233	0x3e888f72	0.2667194
234	0x3e9175ed	0.28410283
235	0x3dd254c6	0.102700755
236	0x3cb328f6	0.021870118
237	0x3aa85160	0.0012841634
238	0xbfab0622	-1.3361247
239	0x3c3c6e57	0.011500916
240	0xbccd73e2	-0.025079671
241	0xbe53ab7b	-0.20670883
242	0x3d6dc7c8	0.058051854
243	0x3d467458	0.048450798
244	0xbfa270f1	-1.2690717
245	0xbe73b527	-0.23799573
246	0xbe31291c	-0.17300838
247	0x3d9d2c35	0.076744474
248	0xbe40a8ee	-0.18814442
249	0x3e7d4fc0	0.24737453
250	0xbe714e7c	-0.23565096
251	0xbe061e47	-0.13097487
252	0x3cb3d596	0.021952432
253	0xbf7f6bca	-0.9977385
254	0xbc578c37	-0.013155988
255	0xbe35bc92	-0.17747715

conv.0.bias f4 [16]
0	0x3d8dc548	0.06922394
1	0x3db7b72d	0.08970485
2	0xbc81511e	-0.01578575
3	0xbda9e65e	-0.08295892
4	0xbe05131e	-0.12995574
5	0xbe885cea	-0.26633388
6	0x3e329535	0.1743973
7	0xbe627292	-0.22114018
8	0xbe3371cd	-0.1752388
9	0xbd11bd31	-0.035580818
10	0xbe6dc4a5	-0.23219545
11	0xbd302620	-0.04300511
12	0x3b4cac06	0.0031230464
13	0x3dd1cb57	0.10243862
14	0xbdaaa22c	-0.08331713
15	0x3d8bebdf	0.06832098

conv.2.weight f4 [32, 16, 3, 3]
0	0xbdb8a7a0	-0.09016347
1	0x3e200776	0.15627846
2	0xbdf75ba8	-0.12078029
3	0x3e6afe0e	0.22948477
4	0x3cdb9bdd	0.02680772
5	0xbbb96c7a	-0.0056586834
6	0x3e1a837c	0.1508922
7	0x3dfe9d2f	0.12432324
8	0x3d0fcd90	0.03510815
9	0x3e0479fa	0.12937155
10	0xbc899e21	-0.016799035
11	0xbbd1ff81	-0.0064086323
12	0xbce05ee8	-0.027389005
13	0x3dc26af7	0.09493058
14	0x3d83fcb7	0.06444686
15	0x3d27ca80	0.040964603
16	0xbdfefbd6	-0.12450378
17	0xbe0594d5	-0.13045056
18	0x3dc21f6a	0.09478648
19	0x3d8dd407	0.06925207
20	0xbdc2a7dd	-0.09504674
21	0xbe590e20	-0.21196795
22	0x3e086ede	0.13323542
23	0xbf0582e1	-0.5215283
24	0xbd1022cc	-0.035189435
25	0xbd7c435c	-0.061587676
26	0x3da4da94	0.08049503
27	0x3d3cbcbd	0.046078432
28	0xbdc22c5a	-0.09481116
29	0xbe143201	-0.144722
30	0xbc04deb8	-0.008109741
31	0xbe2c97ed	-0.1685483
32	0xbe3040e5	-0.17212255
33	0xba605d10	-0.0008558789
34	0xbca4103f	-0.020027278
35	0x3e4fc89f	0.20291375
36	0xbd112942	-0.035439737
37	0x3d2e2c80	0.042522907
38	0x3da3247f	0.079659455
39	0x3bded478	0.0068002306
40	0xbdc55ff2	-0.09637441
41	0xbe5d2e32	-0.21599653
42	0x3e4f65c9	0.20253672
43	0xbe1dc687	-0.15407763
44	0xbdfbdd6f	-0.122980945
45	0x3ea772af	0.32704684
46	0x3d25fb01	0.04052258
47	0xbe59a0ec	-0.21252793
48	0x3f1e88b3	0.61927336
49	0xbe119797	-0.14217983
50	0xbe7953a0	-0.24348307
51	0x3e8a9055	0.27063242
52	0x3e592eac	0.2120921
53	0xbbe8c6b0	-0.0071037635
54	0xbe8bce14	-0.27305663
55	0x3d8e81f3	0.069583796
56	0xbe1d58a6	-0.15365848
57	0x3d4dc8b1	0.050240222
58	0xbe3f01a4	-0.1865297
59	0xbd2bdb5f	-0.041957255
60	0xbc5ca6e1	-0.013467521
61	0x3db0df0c	0.08636293
62	0x3d221e1b	0.039579492
63	0x3d2ae41a	0.04172144
64	0xbe95173f	-0.29119298
65	0xbc759a36	-0.01499038
66	0x3de687f8	0.11256403
67	0xbd9a461d	-0.07532904
68	0x3dbe82c8	0.09302288
69	0x3d61252b	0.054967087
70	0xbe2afb0b	-0.16697328
71	0xbe0069f8	-0.12540424
72	0xbe182691	-0.14858462
73	0x3c02e790	0.007989779
74	0x3ed60313	0.4179922
75	0xbe03c72a	-0.12868944
76	0x3da94b52	0.08266319
77	0x3e4eaa0b	0.20182054
78	0x3d465344	0.048419252
79	0x3e7bde46	0.2459651
80	0x3d1e8262	0.03869856
81	0x3d58c74c	0.05292444
82	0xbea6d7a9	-0.3258641
83	0x3e037527	0.12837659
84	0xbd6c9d58	-0.057767242
85	0xbd8e9fa7	-0.06964045
86	0xbd931c25	-0.071831025
87	0x3c140556	0.009034475
88	0x3e18ac52	0.14909485
89	0x3e1d8a77	0.15384851
90	0x3ddb0823	0.10694911
91	0x3cc238f9	0.023708807
92	0x3e8ac8f3	0.27106437
93	0xbc9805e2	-0.018557493
94	0xbcceaca8	-0.025228813
95	0xbe3d1331	-0.18464352
96	0x3cc6db59	0.024274515
97	0x3df758b6	0.12077467
98	0xbe43376d	-0.19064112
99	0xbd61368d	-0.054983664
100	0x3ce7ca14	0.0282946
101	0xbea45721	-0.32097724
102	0xbde61ae0	-0.11235595
103	0xbdd035b6	-0.101664945
104	0xbd838fca	-0.0642391
105	0x3dd7b19c	0.10531923
106	0xbe30ae59	-0.17254008
107	0xbd91c775	-0.071181215
108	0x3d0d90bd	0.03456186
109	0xbca45200	-0.020058632
110	0xbda1a6bf	-0.078931324
111	0x3d8c8676	0.06861584
112	0xbde6b17a	-0.1126432
113	0xbbfb6821	-0.0076723252
114	0x3d99dede	0.07513212
115	0x3c82006b	0.01586934
116	0xbd741cb4	-0.059597686
117	0xbe21ee2b	-0.1581351
118	0xbed58a28	-0.41706967
119	0x3de9a0a0	0.1140759
120	0xbcbb7c1e	-0.022886332
121	0xbcad3f9e	-0.0211485
122	0xbe5bff12	-0.2148402
123	0xbf144b7f	-0.579277
124	0x3e260f1f	0.16216706
125	0x3be29b3a	0.006915477
126	0x3e2b5467	0.16731416
127	0xbd998645	-0.07496313
128	0x3c103e0f	0.008803858
129	0x3dd5da05	0.104419746
130	0xbdef6465	-0.116890706
131	0xbd05a5ef	-0.03262895
132	0xbd87e3a1	-0.06635214
133	0x3d197a6b	0.037470262
134	0x3e08e6f6	0.13369355
135	0x3cb2b666	0.02181549
136	0xbd8b8023	-0.068115495
137	0x3dc91928	0.09819251
138	0x3e09eb93	0.1346877
139	0x3e097969	0.1342522
140	0x3cde9372	0.027169917
141	0x3d782c82	0.06058932
142	0xbed13aa7	-0.4086506
143	0x3d069dfc	0.03286551
144	0x3d27af8c	0.0409389
145	0xbdee50dd	-0.11636517
146	0xb9b236f4	-0.0003399175
147	0xbb48f0ec	-0.0030661179
148	0xbe70d3cb	-0.23518293
149	0xbd6cc396	-0.057803713
150	0x3b92287d	0.004460393
151	0xbc965544	-0.018351205
152	0xbd8cd1b8	-0.06875938
153	0x3dede978	0.11616796
154	0x3dbdac61	0.09261394
155	0xbd83cf44	-0.06436017
156	0xbfd10486	-1.6329505
157	0x3d84b61a	0.064800456
158	0x3caf873d	0.021426791
159	0xbe0f0f39	-0.1397065
160	0x3cffe5a9	0.03123744
161	0x39f969bd	0.00047571762
162	0xbcc7223d	-0.024308318
163	0xbd5ef289	-0.05443052
164	0x3d47deed	0.048796583
165	0x3e289b51	0.16465499
166	0x3debc219	0.115116306
167	0x3dd73c54	0.105095536
168	0x3d64645b	0.05575977
169	0x3d031665	0.03200378
170	0xbdbf8c78	-0.09352964
171	0xbca3e93f	-0.020008681
172	0xbe62e82d	-0.2215888
173	0x3d8a4836	0.067520544
174	0xbda13553	-0.07871499
175	0x3e078060	0.13232565
176	0xbd6f959d	-0.05849229
177	0xbe966b62	-0.29378802
178	0xbdba5d3c	-0.09099814
179	0x3e1e60c5	0.15466602
180	0xbe5dd3d5	-0.21662839
181	0xbe81860f	-0.2529759
182	0xbed4ff81	-0.41601184
183	0xbe4117b5	-0.188567
184	0x3e396f97	0.18108974
185	0x3e980e80	0.29698563
186	0x3d390ae9	0.04517642
187	0x3c8e8e69	0.01740189
188	0xbdb8cb20	-0.09023118
189	0x3dfa976d	0.122359134
190	0x3a69f129	0.00089241803
191	0xbd0709ec	-0.032968447
192	0xbe39c53b	-0.18141644
193	0x3cd9ec35	0.02660189
194	0xbf04d64c	-0.5188949
195	0xbe980199	-0.2968872
196	0xbe8bc02e	-0.2729506
197	0x3e5fe922	0.21866277
198	0xbd2eab87	-0.04264405
199	0xbd838a9b	-0.06422921
200	0x3e0a50df	0.13507412
201	0x3cf4fcf6	0.029905777
202	0xbd296432	-0.04135532
203	0xbea287c2	-0.317442
204	0x3dad7c48	0.084709704
205	0x3d049eaf	0.032377895
206	0x3ece82e8	0.4033425
207	0xbd9082b2	-0.07056178
208	0x3da2420d	0.079227544
209	0xbe2915f1	-0.16512276
210	0x3e2ea12a	0.17053667
211	0x3d083118	0.033249944
212	0xbe4932cc	-0.19648284
213	0x3dc872cc	0.09787521
214	0xbdb900d1	-0.09033359
215	0xbc9694f1	-0.018381568
216	0x3bee900e	0.0072803563
217	0x3c8eea8a	0.017445821
218	0xbd6320ed	-0.055451322
219	0x3e1b0533	0.15138702
220	0x3e26dfbf	0.1629629
221	0xbed6c697	-0.41948387
222	0x3dfdf350	0.12399924
223	0x3e47d5bf	0.19515131
224	0x3e17d4fb	0.1482734
225	0x3e3cbd80	0.18431664
226	0x3e152d78	0.14568126
227	0x3dc956e8	0.09831029
228	0x3daf981d	0.08573935
229	0x3e328528	0.17433608
230	0x3df85284	0.121251136
231	0x3d5db166	0.05412426
232	0xbe1b349f	-0.15156792
233	0x3d4fd8eb	0.05074398
234	0xbd03c7cb	-0.03217296
235	0x3e16d71c	0.14730495
236	0xbe9d58ab	-0.3073171
237	0xbdf2c2e1	-0.118535765
238	0x3de2cfff	0.11074828
239	0x3dc27e8c	0.09496793
240	0x3d35a6da	0.044348575
241	0xbe1f16a3	-0.15535979
242	0x3e2ff44e	0.17183039
243	0x3e0b06aa	0.13576761
244	0x3e94a5f0	0.2903285
245	0xbc500428	-0.012696303
246	0x3d32f01d	0.04368602
247	0x3e004252	0.12525299
248	0xbe3d4e33	-0.18486862
249	0x3e06e9c3	0.1317511
250	0x3c370ed2	0.011172967
251	0xbe25164b	-0.16121785
252	0x3de6bcc6	0.112664744
253	0x3c5769d3	0.013147789
254	0x3db71bc6	0.08940844
255	0x3d957918	0.072984874

conv.2.bias f4 [32]
0	0x3d8f8c84	0.07009223
1	0xbd008abe	-0.031382315
2	0xbdda7d3c	-0.10668418
3	0xbde54e44	-0.111965686
4	0x3d931ae7	0.071828656
5	0xbd9c5e5d	-0.07635186
6	0x3dd55c9b	0.10418054
7	0xbdd835e8	-0.10557157
8	0x3d197ed6	0.037474476
9	0xbd9b8588	-0.075938284
10	0x3c9a6d1e	0.01885086
11	0x3dab4780	0.08363247
12	0xbb812b41	-0.003941924
13	0x3cf79dc9	0.030226605
14	0x3d98b182	0.07455732
15	0x3bbbd57a	0.0057322355
16	0x3dd0eef7	0.10201829
17	0x3ce88cc6	0.028387439
18	0x3d7cf1eb	0.06175415
19	0xbe0064b9	-0.12538423
20	0xbd950a4e	-0.07277356
21	0x3e0176f4	0.12643033
22	0xbe0bb265	-0.13642271
23	0x3b8ce65f	0.0042999233
24	0x3de6b196	0.112643406
25	0x3dc09027	0.09402495
26	0xbd49fd72	-0.04931397
27	0x3cdf1e3e	0.0272361
28	0x3de5b43c	0.112160176
29	0x3d897d3e	0.06713341
30	0x3bcf5447	0.0063271853
31	0x3bf84a26	0.0075771986

conv.4.weight f4 [64, 32, 5, 5]
0	0xbc8c08df	-0.017094074
1	0x3cf3f661	0.029780569
2	0x3e42ff47	0.19042693
3	0x3d2e0e0d	0.04249387
4	0xbdc11249	-0.09427316
5	0xbd83871c	-0.064222544
6	0xbe240ebe	-0.16021249
7	0x3dfedf0a	0.12444885
8	0xbe4a2968	-0.19742358
9	0x3e8190ee	0.25305885
10	0x3e73c41d	0.2380528
11	0x3caa9ce2	0.02082676
12	0x3e20e41d	0.15712018
13	0xbe9adef3	-0.30248222
14	0xbd65f022	-0.05613721
15	0xbe186e8e	-0.14885923
16	0xbe06426b	-0.13111274
17	0xbd5ad747	-0.05342796
18	0x3da06211	0.07831205
19	0xbe8b1bef	-0.2716975
20	0xbe097b7b	-0.1342601
21	0xbe40c2d1	-0.18824317
22	0x3cb288a3	0.02179367
23	0x3d4c3493	0.049854826
24	0xbd896ea6	-0.06710558
25	0xbe84c590	-0.25931978
26	0xbee22a97	-0.44173118
27	0x3e083ae9	0.13303722
28	0x3e32d7f7	0.17465197
29	0xbcbc4af5	-0.022984961
30	0xbe704825	-0.23465021
31	0xbe243740	-0.16036701
32	0xbe93cb58	-0.28866076
33	0x3d300250	0.042970955
34	0xbdff3611	-0.12461484
35	0xbcedb166	-0.029015254
36	0xbee3c65f	-0.44487283
37	0x3db34685	0.08753685
38	0x3e90c938	0.28278518
39	0xbf0bd0ca	-0.5461546
40	0xbdfcd66f	-0.123455875
41	0x3ccbf523	0.024897164
42	0x3e49c235	0.1970299
43	0xbe6964ae	-0.22792313
44	0xbc3d4c5d	-0.011553851
45	0xbe36c94e	-0.17850229
46	0x3ce4ad18	0.027914569
47	0xbd561417	-0.052265253
48	0xbca8a4c9	-0.020586388
49	0x3d77aae8	0.060465723
50	0xbd7f6a91	-0.06235749
51	0x3d99f56f	0.07517516
52	0xbc65a985	-0.014017467
53	0xbe6e3d5c	-0.23265594
54	0x3e94da1c	0.29072654
55	0xbdb6b02a	-0.089203194
56	0xbe23a90e	-0.15982458
57	0xbe744793	-0.23855428
58	0x3e1925f8	0.1495589
59	0xbd9907f9	-0.07472224
60	0xbe2d3c3c	-0.16917509
61	0xbe822db0	-0.25425482
62	0xbe87be77	-0.265125
63	0xbcbb5333	-0.02286682
64	0x3d52fb67	0.051509287
65	0xbd3ea366	-0.046542548
66	0xbda87937	-0.08226245
67	0x3e5a0e76	0.21294579
68	0x3c101844	0.008794848
69	0xbcc37d44	-0.023863442
70	0xbd917de1	-0.071040876
71	0xbd3bc07b	-0.04583786
72	0x3e689e78	0.22716701
73	0x3d19d745	0.037558813
74	0xbd14b6d8	-0.036307186
75	0xbe18d7d6	-0.14926085
76	0x3ca924c3	0.020647412
77	0x3d9925dc	0.07477924
78	0x3d996161	0.07489277
79	0xbb49cf8d	-0.0030793876
80	0x3ddd4f32	0.10806121
81	0x3ced826e	0.028992858
82	0xbe98539d	-0.29751292
83	0x3ec4032b	0.38283667
84	0xbe436906	-0.19083032
85	0xbe48d667	-0.19613038
86	0xbdd3e83f	-0.10347032
87	0xbe0fc0b7	-0.14038359
88	0x3d9e792b	0.07737955
89	0x3e5801ec	0.21094483
90	0x3cec37a4	0.028835125
91	0x3debb5f4	0.11509314
92	0xbd8b40df	-0.067994826
93	0xbe668cc5	-0.22514637
94	0xbc731424	-0.014836345
95	0x3d882d7d	0.06649301
96	0x3d66da68	0.056360632
97	0xbd9b5488	-0.075844824
98	0x3d8034b7	0.062600546
99	0x3b658bc5	0.0035025936
100	0x3dce3d2d	0.10070262
101	0xbe016a1c	-0.12638134
102	0xbe2bd40b	-0.16780107
103	0xbe112098	-0.1417259
104	0xbda8ac43	-0.08235981
105	0x3d26b929	0.040703926
106	0xbcf53453	-0.029932177
107	0xbd014bb8	-0.03156635
108	0xbd51f3bd	-0.051257838
109	0x3d15b94c	0.036553666
110	0xbda5378a	-0.08067234
111	0x3e8ab3e8	0.27090383
112	0xbe218be8	-0.15776026
113	0x3e8e2995	0.277661
114	0x3da287aa	0.07936032
115	0xbe25e6ea	-0.16201368
116	0x3d20f182	0.03929282
117	0xbe0534e0	-0.13008451
118	0x3da03bbc	0.078238934
119	0x3d7ef1c3	0.06224228
120	0x3d1483a4	0.036258355
121	0xbe397481	-0.18110849
122	0xbe0810b5	-0.13287623
123	0xbea6e94c	-0.32599866
124	0x3e8a1d21	0.2697535
125	0x3e0d6376	0.13807473
126	0xbda02970	-0.078204036
127	0xbdc52466	-0.09626083
128	0xbd9cb523	-0.076517366
129	0x3d980977	0.0742368
130	0x3d95787f	0.072983734
131	0xbd072a60	-0.032999396
132	0x3e0eddb3	0.13951759
133	0x3d22234e	0.03958445
134	0xbe32444e	-0.17408869
135	0xbddcf785	-0.10789398
136	0x3e19a7e7	0.15005456
137	0xbd651940	-0.055932283
138	0x3e30733e	0.17231461
139	0xbd88ede4	-0.06685999
140	0xbdc4c1e9	-0.09607298
141	0xbe88a776	-0.26690263
142	0x3ce87c70	0.028379649
143	0xbda05ce7	-0.0783022
144	0xbdac5d27	-0.08416205
145	0xbea829ee	-0.3284449
146	0x3e74a4df	0.23891018
147	0x3e250db6	0.16118512
148	0x3c2af035	0.010433246
149	0xbddfbdc2	-0.10924865
150	0xbec2841b	-0.37991413
151	0x3df97913	0.12181296
152	0xbe41c984	-0.18924528
153	0x3d02b900	0.03191471
154	0xbd119209	-0.03553966
155	0xbb93f998	-0.004515838
156	0xbe3449da	-0.17606297
157	0x3db8d136	0.09024279
158	0xbe1a338f	-0.1505873
159	0x3dc2347d	0.094826676
160	0xbd87d55a	-0.066324905
161	0x3e6f451f	0.23366211
162	0xbe1ce936	-0.15323338
163	0x3d1b3f1a	0.037901975
164	0x3e8d2c1f	0.27572724
165	0x3b082c6a	0.0020778426
166	0xbe144259	-0.14478435
167	0x3d9366e2	0.07197358
168	0xbe9003ae	-0.28127807
169	0x3e71275f	0.23550175
170	0x3e499f0c	0.19689578
171	0xbe458990	-0.19290757
172	0x3d7cd250	0.061724007
173	0xbe47568d	-0.1946661
174	0x3d4ce842	0.050026186
175	0xbdb1e3b3	-0.08686008
176	0xbde9bcf3	-0.11412992
177	0x3e18986a	0.14901891
178	0x3dc1813d	0.09448478
179	0x3d720ef5	0.059096295
180	0xbd192bb9	-0.037395213
181	0x3d46c5be	0.048528425
182	0xbca62d33	-0.020285225
183	0x3dbae820	0.091263056
184	0x3e0978f8	0.13425052
185	0xbe06a5cd	-0.13149185
186	0x3e6466a6	0.22304782
187	0x3cd1f6fa	0.025630463
188	0xbe916e08	-0.2840426
189	0xbd749559	-0.05971274
190	0xbe5baea4	-0.21453339
191	0xbe60921e	-0.2193074
192	0x3e2427ca	0.16030803
193	0xbebffb43	-0.37496385
194	0x3e0f23f2	0.13978556
195	0xbe303b98	-0.17210233
196	0x3c735b91	0.014853374
197	0xbe4ac505	-0.1980172
198	0x3cd22011	0.025650056
199	0x3c57c4b7	0.013169459
200	0xbe0808c8	-0.132846
201	0xbcbce682	-0.023059133
202	0x3cb63d19	0.02224593
203	0xbe864514	-0.26224577
204	0x3d262c45	0.040569562
205	0x3e8d93fc	0.27651966
206	0x3d8b3c0e	0.06798564
207	0xbe02e287	-0.12781726
208	0xbe42e7b0	-0.19033694
209	0xbc22f917	-0.009947083
210	0xbdc1716a	-0.0944546
211	0xbe366822	-0.17813161
212	0x3c97bf52	0.018523846
213	0xbd9900c7	-0.074708514
214	0x3e658200	0.22412872
215	0xbe62d38b	-0.2215101
216	0x3ddc4c7a	0.10756774
217	0x3e4e9e1b	0.201775
218	0x3e316edb	0.17327444
219	0xbe19a394	-0.15003806
220	0x3d210bf5	0.039318044
221	0xbd1bb8b7	-0.038017955
222	0x3d857290	0.06515992
223	0x3dbb0cb8	0.09133285
224	0xbd020c6f	-0.03175014
225	0xbe7ecd5f	-0.2488303
226	0x3d6aba8c	0.05730681
227	0x3d50be38	0.050962657
228	0x3dc058a2	0.09391905
229	0x3dadbfca	0.084838465
230	0xbe23afca	-0.15985027
231	0x3b8bc5d5	0.004265527
232	0xbd856ce7	-0.06514912
233	0x3e59f9a9	0.21286644
234	0xbdb229d1	-0.08699382
235	0xbe4a407d	-0.19751163
236	0xbcafc8ef	-0.021458117
237	0x3d908dea	0.07058318
238	0xbdbab840	-0.09117174
239	0xbe1cd50f	-0.1531565
240	0x3e22503c	0.1585092
241	0x3a7fd710	0.0009759525
242	0x3d3dd8fd	0.046349514
243	0x3c951594	0.018198766
244	0xbc7fd0b8	-0.015613727
245	0x3e5a04e5	0.2129093
246	0xbd53d3ec	-0.051715776
247	0xbdb57720	-0.08860612
248	0xbd5fab84	-0.05460693
249	0x3e066400	0.13124084
250	0xbe3de476	-0.18544182
251	0x3de3b2b0	0.11118066
252	0x3c703d6c	0.014663082
253	0xbda36b4e	-0.07979451
254	0x3e38def2	0.18053797
255	0x3dd195ce	0.10233651

conv.4.bias f4 [64]
0	0x3c8da17b	0.017288914
1	0xbd518429	-0.05115143
2	0x3d66c63e	0.056341402
3	0x3c3923ba	0.011300022
4	0xba9ce034	-0.0011968673
5	0xbdf13d9f	-0.117793314
6	0xbd0e1908	-0.03469184
7	0xbd375c66	-0.044765852
8	0x3dcdf307	0.100561194
9	0x3d777bf6	0.060420953
10	0x3ce8a282	0.028397802
11	0xbd32ebc1	-0.043681864
12	0xbc86f04a	-0.016472
13	0xbd094f28	-0.033522755
14	0x3b7255d6	0.0036977432
15	0x3cb89272	0.022530768
16	0xbbeaac59	-0.0071616587
17	0xbc0f8cd2	-0.0087616015
18	0x3d699f74	0.057036832
19	0xbd19648f	-0.037449416
20	0x3e0bd4e5	0.13655432
21	0xbd483bf3	-0.048885297
22	0xbd057560	-0.03258264
23	0xbd810afb	-0.063009225
24	0xbb59ef52	-0.0033254218
25	0x3e1e2e97	0.1544746
26	0xbd582d5a	-0.052777626
27	0x3e052584	0.13002592
28	0xbcc25260	-0.02372092
29	0x3c5873bb	0.013211186
30	0xbd218fda	-0.03944383
31	0xbbabb26b	-0.005239775
32	0xbd0e34a6	-0.03471818
33	0xbc993264	-0.018700786
34	0xbb129744	-0.0022367993
35	0x3e01f20d	0.12689991
36	0x3d89e7f1	0.067336924
37	0x3dded596	0.10880582
38	0x39f5d648	0.00046889693
39	0xbd3db2f6	-0.04631325
40	0x3dc5e6c4	0.09663156
41	0xbb70b6a5	-0.0036729958
42	0xbd1c1efd	-0.03811549
43	0xbd099007	-0.03358462
44	0x3b9403f0	0.004517071
45	0xbd04cab1	-0.032419864
46	0x3d50ae82	0.050947674
47	0x3e36f03f	0.17865084
48	0xbd0e79be	-0.03478407
49	0xbc3171c3	-0.010830346
50	0x3d16e0be	0.036835425
51	0x3ca28782	0.019840006
52	0x3de6202c	0.11236605
53	0x3e0b3e02	0.13597873
54	0xbc8f2a94	-0.017476358
55	0x3d55a1b5	0.05215617
56	0x3d9baba5	0.07601098
57	0xbd609d3a	-0.054837443
58	0x3d28870d	0.04114442
59	0xbd99a5cb	-0.075023256
60	0x3e302fb4	0.17205697
61	0x3d4e3e64	0.05035247
62	0xbd4b88c8	-0.04969099
63	0x3dcccf14	0.100004345

conv.7.weight f4 [64, 256]
0	0xbd176b2e	-0.03696745
1	0xbd93ad4a	-0.07210787
2	0x3cda4c70	0.026647776
3	0x3bfc9cbe	0.007709115
4	0x3cf81b68	0.030286506
5	0xbd344928	-0.04401508
6	0x3d550d6b	0.05201475
7	0xbd81e5b5	-0.06342641
8	0xbc174400	-0.009232521
9	0xbd806a44	-0.062702686
10	0x3cb7df5b	0.022445371
11	0xbb35b14e	-0.002772409
12	0xbd7baebe	-0.061445944
13	0x3cffeba0	0.031240284
14	0x3bf9c810	0.0076227263
15	0x3d237428	0.039905697
16	0xbc901238	-0.017586812
17	0x3d503332	0.050830074
18	0x3c28b3f8	0.010296814
19	0xbd37c36a	-0.044864096
20	0x3c5f7caf	0.013640567
21	0x3a9f4e11	0.0012154003
22	0x3c9228ce	0.017841723
23	0xbd02f72e	-0.03197401
24	0x3cb64e10	0.02225402
25	0x3d156010	0.036468565
26	0xbd450314	-0.04809864
27	0x3c7a8188	0.015289672
28	0x3c64b048	0.013958044
29	0xbd450320	-0.048098683
30	0xbcc0791c	-0.02349525
31	0xbc5947b8	-0.013261728
32	0xbd5198bb	-0.051171046
33	0xbcf84bd3	-0.030309593
34	0xbd1ce4ef	-0.038304266
35	0xbd1fbf73	-0.03900094
36	0x3c174841	0.009233535
37	0xbd53a2ac	-0.051668808
38	0xbcba6a28	-0.022755697
39	0xbb501ed2	-0.0031756652
40	0xbc71fa58	-0.014769159
41	0xbca3e722	-0.020007674
42	0xbd8442ad	-0.0645803
43	0xbae4bee4	-0.0017451909
44	0x3cbf9254	0.023385204
45	0x3c869d58	0.01643245
46	0x3d00d19e	0.031449907
47	0xbced6f10	-0.028983623
48	0xbbe30b60	-0.0069288462
49	0x3b7e8e80	0.003884226
50	0x3bc60ee0	0.0060442537
51	0x3d2a3ee4	0.041563883
52	0xbd5a293c	-0.05326198
53	0x3d39d05e	0.04536473
54	0x3c192df8	0.009349339
55	0xbd11ca18	-0.035593122
56	0xbd22ff7f	-0.03979444
57	0xbd51dee1	-0.051237945
58	0xbd4742eb	-0.048647802
59	0x3d707b50	0.05871135
60	0xbc8e62e0	-0.017381132
61	0xbcf00b89	-0.029302375
62	0xbb1fdc8c	-0.002439293
63	0xbd105d6b	-0.03524534
64	0xbd5563e0	-0.0520972
65	0xbcb55e9c	-0.02213984
66	0xbaa98340	-0.0012932792
67	0x3d1fe8d6	0.03904041
68	0xbd757686	-0.059927486
69	0xbc191a68	-0.009344675
70	0x3d306df0	0.043073595
71	0xbd77a20c	-0.060457274
72	0x3d28fff3	0.041259717
73	0x3d2f8acc	0.042856976
74	0xbc798d00	-0.015231371
75	0xb9124600	-0.00013949722
76	0xbd0432e2	-0.032275088
77	0xbcad7fe8	-0.021179155
78	0xb8451800	-4.6990812e-05
79	0xbd5f0d7e	-0.054456227
80	0xbabb9bb6	-0.0014313373
81	0xbd88b982	-0.06676008
82	0xbd857f12	-0.06518377
83	0x3d2daca8	0.042400986
84	0xbcb7171c	-0.022349887
85	0x3d232b04	0.039835945
86	0xbc24f7c8	-0.010068841
87	0xbd35ef4e	-0.04441767
88	0xbd5c4432	-0.053775974
89	0x3c8cf928	0.01720865
90	0x3b2bf780	0.002624005
91	0xbd5e5958	-0.054284424
92	0x3d2a7a08	0.041620284
93	0x3cd4e79c	0.025989346
94	0xbd1ce1ce	-0.03830128
95	0xbd01d558	-0.0316976
96	0x3ca90d12	0.020636115
97	0xbc7ef8a0	-0.0155622065
98	0xbc7c3114	-0.0153925605
99	0xbd93654b	-0.071970545
100	0xbd38a8f4	-0.045083
101	0xbd048295	-0.032351095
102	0x3cc77ab6	0.024350505
103	0xbd7715e5	-0.060323615
104	0x3cb470b8	0.022026405
105	0x3d76f94e	0.06029635
106	0x3cc8cff8	0.02451323
107	0xbc33b528	-0.010968484
108	0xbb062b25	-0.0020472493
109	0xbc931798	-0.017955586
110	0xbd2e91a5	-0.042619366
111	0xbca197c7	-0.019725693
112	0x3d34f95a	0.044183113
113	0x3c56ac50	0.013102606
114	0x3a81a980	0.0009892434
115	0x3ca38844	0.019962437
116	0xbcd7ea39	-0.026356803
117	0x3b0a6fbe	0.0021123732
118	0x3cb06993	0.021534717
119	0x3c464484	0.012101296
120	0xbb583d80	-0.0032995641
121	0x3b4a1360	0.0030834302
122	0x3d30df00	0.04318142
123	0xbcabffcc	-0.020995997
124	0x3d21f4b0	0.039539993
125	0xbd541b01	-0.051783565
126	0xbc05b5fb	-0.008161063
127	0xbd1ca470	-0.038242757
128	0xbc816d50	-0.015799195
129	0x3c9a46f0	0.018832654
130	0x3d263f34	0.04058762
131	0x3d2810f2	0.041031785
132	0x3d4b5be0	0.049648166
133	0x3cf0a2dc	0.029374532
134	0xbbd58cd0	-0.0065170303
135	0xbd68637a	-0.056735493
136	0xbd7d21b8	-0.061799735
137	0xbd17c15e	-0.037049644
138	0xbc4aab10	-0.012369886
139	0x3b5c0600	0.0033572912
140	0xbd3e119b	-0.04640351
141	0xbd6061b4	-0.054780677
142	0xbbe9a770	-0.007130556
143	0x3c6c6c40	0.014430106
144	0xbc037fd2	-0.00802608
145	0xbcb7f5cd	-0.022456074
146	0x3d1836b8	0.03716156
147	0xbd131215	-0.035905916
148	0xbd7c177d	-0.061545838
149	0xbd7b5b72	-0.061366506
150	0x3ce6a7f1	0.028156253
151	0xbb9b8641	-0.004746229
152	0xbc1e6b4b	-0.009669135
153	0x3d02f20c	0.031969115
154	0xbd46b964	-0.048516646
155	0xbd571cda	-0.05251775
156	0xbd2ca6de	-0.042151324
157	0xbd173db6	-0.036924087
158	0x3ccf1864	0.025280185
159	0x3b22bf80	0.0024833381
160	0xbcf7dbf7	-0.030256255
161	0x3c641a30	0.013922259
162	0xbc233df9	-0.009963506
163	0x3c86999a	0.016430665
164	0x3d19cb4c	0.037547395
165	0xbbe79e04	-0.0070683975
166	0xbbbb465c	-0.0057151746
167	0xbd406cc8	-0.046978742
168	0x3bba83a0	0.0056919605
169	0x3d2317ee	0.039817743
170	0x3b8d9010	0.004320152
171	0x3c06fdf8	0.008239262
172	0x3c822c60	0.0158903
173	0xbd3e24b0	-0.046421707
174	0xbcdf57b8	-0.027263507
175	0x3d11b14a	0.035569467
176	0x3d575e26	0.05258002
177	0xbd6050b4	-0.054764464
178	0x3c02896a	0.007967332
179	0xbbde6420	-0.006786838
180	0x3d5ab342	0.05339361
181	0x3d79d2d2	0.06099207
182	0x3cbeae24	0.023276396
183	0xbd053d20	-0.032528996
184	0xbd243f2e	-0.040099315
185	0x3c265b78	0.010153644
186	0x3d242913	0.040078234
187	0xbd0d6a88	-0.034525424
188	0x3c8da422	0.017290179
189	0x3d1979b1	0.03746957
190	0xbd67b3e8	-0.056568056
191	0xbd50e6fe	-0.05100154
192	0x3d0cf930	0.03441733
193	0x3d153192	0.036424227
194	0xbd206d80	-0.039166927
195	0xbbd2e310	-0.0064357594
196	0x3d186814	0.03720863
197	0xbcbf86f4	-0.02337978
198	0xbd40063c	-0.046880946
199	0x3c1f53c0	0.009724557
200	0xbc11b5a0	-0.0088934
201	0xbd350458	-0.044193596
202	0xbd6c7fe4	-0.057739154
203	0xbd48a790	-0.048987925
204	0xbd7e356e	-0.062062673
205	0xbcfdcf04	-0.030982502
206	0x3d0611ca	0.03273181
207	0x3d6d4014	0.057922438
208	0x3c48f9a8	0.012266554
209	0xbd223190	-0.039598048
210	0xbcd029c7	-0.025410546
211	0xbd1e7308	-0.03868392
212	0x3d05f58f	0.032704886
213	0xbc097805	-0.008390431
214	0x3d2a9d30	0.041653812
215	0xbcb31a1e	-0.02186304
216	0xbcf3e6d6	-0.029773157
217	0xbbff5704	-0.0077923555
218	0xbcf1ef3d	-0.029533023
219	0xbcd1ec10	-0.025625259
220	0xbbecf726	-0.007231611
221	0xbbeb8158	-0.00718705
222	0x3d007c76	0.031368695
223	0xbd8af1c0	-0.067843914
224	0x3cdee650	0.027209431
225	0x3cffd638	0.031230077
226	0x3d631584	0.05544044
227	0xbd4c247b	-0.049839478
228	0xbd6dc0b6	-0.05804511
229	0xbd5674dc	-0.05235754
230	0xbd69c0fa	-0.057068802
231	0x3c89b92c	0.01681193
232	0xbd82d1d6	-0.06387679
233	0xbcab5d21	-0.02091843
234	0x3cbc8853	0.023014223
235	0xbd60df24	-0.054900303
236	0xbd68c227	-0.056825783
237	0xbd1bf7e4	-0.038078204
238	0xbcaba7d0	-0.020954043
239	0xbcd39ec8	-0.025832549
240	0x3b838900	0.0040141344
241	0x3ceb7a00	0.028744698
242	0x3c996073	0.018722748
243	0x3be94b8c	0.0071196016
244	0x3c4acca4	0.012377892
245	0xbb0ebfa0	-0.0021781698
246	0xbc8aa44a	-0.016924042
247	0xbd57a0b1	-0.05264348
248	0x3ba980dc	0.005172832
249	0xbceae69c	-0.028674416
250	0xbd38ab31	-0.045085136
251	0x3d0097a4	0.031394616
252	0x3b4c653a	0.0031188265
253	0xbd65b0cd	-0.056076813
254	0xbcb2ef91	-0.02184275
255	0xbb958775	-0.004563267

conv.7.bias f4 [64]
0	0xbd3e6978	-0.0464873
1	0x3e8f71f2	0.2801662
2	0x3dd6d70a	0.10490234
3	0x3e87ecf4	0.26547968
4	0x3e71aacd	0.23600312
5	0x3e6107bd	0.21975608
6	0xbe023f9c	-0.12719578
7	0x3d65b3ca	0.056079663
8	0x3d650fb7	0.05592319
9	0x3e2b153b	0.16707318
10	0xbd8845a2	-0.066539064
11	0x3d3d8d7e	0.046277516
12	0x3e28e0be	0.16491982
13	0x3e4171bb	0.18891041
14	0x3eb09d89	0.3449519
15	0xbe3baadc	-0.18326896
16	0x3e29a399	0.16566314
17	0x3e2eeaf3	0.17081814
18	0x3ee34f1b	0.4439629
19	0x3d83c31f	0.06433701
20	0xbbab8ed9	-0.0052355346
21	0x3d1eb38f	0.03874546
22	0x3e0ff973	0.14060001
23	0x3e36c890	0.17849946
24	0x3d96b752	0.07359184
25	0x3c8b8082	0.01702905
26	0x3c6d9bcd	0.014502478
27	0xbd3fd2ac	-0.04683177
28	0x3d08d09e	0.033402078
29	0xbbdb0de6	-0.0066850064
30	0x3db7c432	0.08972968
31	0xbd5cb857	-0.053886738
32	0xbd9a41f4	-0.07532111
33	0x3e00454f	0.12526439
34	0xbc3796b1	-0.011205361
35	0xbe1f4858	-0.1555494
36	0x3d404af6	0.04694649
37	0xbd91d81b	-0.07121297
38	0x3da048bc	0.07826373
39	0x3d6be095	0.057587225
40	0x3d558827	0.052131798
41	0x3d3a2437	0.045444693
42	0xbd255933	-0.04036827
43	0x3d49cd2e	0.04926794
44	0x3e039131	0.12848355
45	0x3e16abb7	0.14713942
46	0xbccc3eaa	-0.024932224
47	0x3e097b9f	0.13426064
48	0x3dea651f	0.114450686
49	0x3dc74ff1	0.097320445
50	0xbd8698b4	-0.065720946
51	0x3cb97d22	0.022642676
52	0xbb66c802	-0.0035214429
53	0xbd5f415c	-0.05450569
54	0x3e0b75d8	0.13619173
55	0xbe153b8c	-0.14573497
56	0xbd9ac32f	-0.075567596
57	0xbe48cc1c	-0.19609112
58	0x3e99af9c	0.30016792
59	0x3b93bad3	0.004508355
60	0x3e844080	0.2583046
61	0xbdacf617	-0.084453754
62	0x3e6167af	0.22012208
63	0x3dd35399	0.10318679

out.weight f4 [4, 64]
0	0x3da9e3c8	0.08295399
1	0x3f14e091	0.5815516
2	0xbd8f1b5d	-0.06987641
3	0x3ee9a23d	0.4563159
4	0x3ea1d7fe	0.316101
5	0x3e4706de	0.19436213
6	0xbe4ddf90	-0.20104814
7	0x3ec160b5	0.37769094
8	0xbdcc14f0	-0.09964931
9	0x3eb9133e	0.36147493
10	0x3d86fbbe	0.06590985
11	0x3e80c191	0.2514768
12	0x3ec9ec8f	0.39438292
13	0xbcc9da6a	-0.02464028
14	0x3ce8e39c	0.028428845
15	0x3d89e64a	0.06733377
16	0xbedac8ab	-0.42731223
17	0x3e870af1	0.26375535
18	0x3ea40d86	0.32041568
19	0x3e449958	0.19199121
20	0x3e8fdeff	0.2809982
21	0xbbf321f1	-0.0074198176
22	0x3e941d7b	0.28928742
23	0x3c02a441	0.0079737315
24	0xbdf4442f	-0.119270675
25	0xbdbdf868	-0.09275895
26	0x3f0cf95e	0.55068004
27	0x3dba07e2	0.09083535
28	0x3e248938	0.1606797
29	0xbdc64f4a	-0.09683092
30	0x3e4a23ac	0.1974017
31	0xbd52b264	-0.051439658
32	0xbe2aa4d4	-0.1666444
33	0x3e81058e	0.2519955
34	0x3d4d3252	0.050096817
35	0xbdbce30c	-0.09222993
36	0x3ecfeca6	0.40610236
37	0xbf4aaa5e	-0.7916621
38	0xbe7c57a0	-0.24642801
39	0xbe42bd00	-0.1901741
40	0x3e240823	0.16018729
41	0x3e7551c5	0.23956974
42	0x3d86fef7	0.065915994
43	0x3ad85a38	0.001650638
44	0xbf83f773	-1.030989
45	0xbf681d5a	-0.90669787
46	0xbe774915	-0.24148972
47	0xbf6ef084	-0.9333575
48	0xbefff02f	-0.49987933
49	0x3d97a1d2	0.07403912
50	0x3df2a341	0.118475445
51	0xbe2c4bd2	-0.16825798
52	0xbeaf7cc0	-0.34274864
53	0x3c90d72f	0.017680733
54	0xbef0c655	-0.47026315
55	0x3f8e1ecd	1.110315
56	0xbd47887f	-0.048714157
57	0xbcb5b2dc	-0.022180013
58	0x3e5000bb	0.20312779
59	0xbeb047e4	-0.34429848
60	0x3d8ba13e	0.06817864
61	0xbcd2774b	-0.025691649
62	0x3f142d32	0.5788146
63	0xbe694fdc	-0.2278437
64	0xbd9ca940	-0.076494694
65	0x3dc3643c	0.095406026
66	0x3ea4f970	0.32221556
67	0xbdeaff42	-0.11474468
68	0x3f002ad6	0.5006536
69	0x3ecf14c5	0.40445533
70	0x3e96935c	0.294093
71	0xbe3356b7	-0.17513548
72	0xbf563c66	-0.8368591
73	0x3ee54ce2	0.4478522
74	0x3c8e459b	0.017367175
75	0x3e49ee81	0.19719888
76	0x3eec9f61	0.46215346
77	0x3e997beb	0.29977354
78	0x3e1a26ef	0.15053914
79	0xbd797d37	-0.06091043
80	0x3da6fa00	0.081531525
81	0x3de33b7c	0.1109533
82	0x3ef4c4cd	0.47806397
83	0xbf97a835	-1.1848208
84	0xbe4141a9	-0.18872704
85	0x3ee685d1	0.4502397
86	0x3eae16a5	0.3400165
87	0xbdf3d5b4	-0.11905995
88	0xbf4a1cc5	-0.7895015
89	0xbe38f3cc	-0.18061751
90	0xbe257798	-0.16158903
91	0x3dc58b3b	0.09645697
92	0xbf9a93cd	-1.2076355
93	0xbccae39e	-0.02476674
94	0xbd477191	-0.04869229
95	0x3e0b0d73	0.13579349
96	0xbe5cf399	-0.215773
97	0x3f1d2322	0.61381733
98	0xbca3c3c3	-0.019990807
99	0xbdea01ae	-0.114261016
100	0x3cbe2340	0.023210168
101	0x3db6efd5	0.08932463
102	0xbedc3b5c	-0.43014038
103	0xbdbdb4ee	-0.09263025
104	0x3ca48d71	0.020086976
105	0xbc8f41e4	-0.017487474
106	0x3d9cb261	0.076512106
107	0xbe785f17	-0.24255024
108	0x3e234ae5	0.15946539
109	0xbd241dbe	-0.040067427
110	0xbeaa7f2c	-0.3330015
111	0x3e0a02ea	0.13477674
112	0xbe3e598c	-0.18588847
113	0x3e33ebd8	0.17570436
114	0xbebefde1	-0.3730307
115	0x3ed8bbe8	0.4233086
116	0x3e3076f8	0.17232883
117	0xb99f0ba5	-0.0003033552
118	0x3e99151e	0.29898924
119	0xbf03751d	-0.51350576
120	0x3dad63a9	0.08466274
121	0xbf04b3e1	-0.51836973
122	0xbd4f724d	-0.050646115
123	0x3ef27724	0.47356522
124	0x3eb7fcf8	0.35935187
125	0xbcd4997a	-0.02595209
126	0x3cf887cd	0.030338192
127	0xbcc14187	-0.023590816
128	0x3da8e7af	0.08247315
129	0x3d8f6427	0.070015244
130	0xbf1192a8	-0.56864405
131	0x3c985e0a	0.018599529
132	0xbd391c70	-0.045193136
133	0xbbc306a6	-0.0059517203
134	0xbed0e836	-0.40802163
135	0xbd585056	-0.05281099
136	0x3e004c99	0.1252922
137	0x3d384f9a	0.04499779
138	0xbdb305cb	-0.08741339
139	0x3e559ebd	0.20861335
140	0x3eab83c3	0.33498964
141	0x3e992de1	0.29917815
142	0x3da8efc3	0.08248856
143	0xbf16e6cc	-0.5894592
144	0x3e742b9a	0.23844758
145	0x3ef3dd87	0.4762995
146	0x3eed9680	0.46403885
147	0x3dfb7557	0.1227824
148	0x3e0dbe95	0.13842233
149	0x3d4e3c5e	0.05035054
150	0x3ed9aefd	0.42516318
151	0x3e5e78b5	0.21725734
152	0xbc838ae8	-0.016057447
153	0xbf21f0e4	-0.63258195
154	0xb9ae1d78	-0.00033209822
155	0x3d083487	0.03325322
156	0xbdd2dbd8	-0.10295838
157	0x3f0d8ec6	0.5529598
158	0x3ea5daf6	0.32393616
159	0x3dd8b2c2	0.1058097
160	0xbdc2d879	-0.09513945
161	0x3df531eb	0.11972412
162	0x3d70ac8b	0.0587583
163	0x3f99e592	1.2023184
164	0x3df2fe54	0.118649155
165	0xbaf79794	-0.0018889778
166	0xbc4ab18c	-0.012371432
167	0xbdf5a78b	-0.11994847
168	0xbddc6642	-0.10761692
169	0xbf95afe1	-1.1694299
170	0xbd872f09	-0.06600768
171	0x3dad8d30	0.08474195
172	0xbcd75baf	-0.026288835
173	0x3dbdca17	0.09267061
174	0x3dccd57a	0.10001655
175	0xbd988eb0	-0.074490905
176	0x3e70d202	0.23517612
177	0xbfad7a48	-1.3552942
178	0x3ead65d0	0.3386674
179	0xbedb4dfe	-0.4283294
180	0x3dff881c	0.12477133
181	0xbd2c672b	-0.042090576
182	0x3f0c09ae	0.5470227
183	0xbe8ecea3	-0.27892026
184	0x3dd644d1	0.104623444
185	0x3fb1f235	1.3902041
186	0x3f06043f	0.5235023
187	0xbdacfcae	-0.08446632
188	0x3f09ac0f	0.53778166
189	0xbeddda3c	-0.43330562
190	0x3d3f784d	0.046745587
191	0xbf43cb34	-0.7648194
192	0x3d741a68	0.059595495
193	0xbdb8b03b	-0.09017988
194	0x3d883d95	0.06652371
195	0x3ed677ba	0.4188822
196	0x3e1dd885	0.15414627
197	0x3d3db65e	0.046316497
198	0xbe981226	-0.29701346
199	0x3ec23bf7	0.37936375
200	0xbe03bc56	-0.12864813
201	0x3e8c7e5d	0.27440158
202	0x3cff88be	0.031193133
203	0xbe031d32	-0.12804106
204	0x3e95ba37	0.29243633
205	0x3e9204c6	0.28519267
206	0x3f1280de	0.57227886
207	0xbdfb8998	-0.12282103
208	0xbdfadfaf	-0.122496955
209	0x3e2ed3cc	0.17072982
210	0x3eba17fe	0.3634643
211	0x3e0c4997	0.13699947
212	0x3f08169f	0.5315952
213	0xbf370990	-0.71498966
214	0x3eb71b8d	0.35763207
215	0x3f12d0cb	0.5734984
216	0xbcaed5dc	-0.02134221
217	0xbe500e96	-0.20318064
218	0x3e271d0f	0.16319679
219	0x3d2fa86a	0.04288522
220	0xbd1e7c8b	-0.038692992
221	0xbdfc87ca	-0.12330587
222	0xbf6fb3ff	-0.9363403
223	0xbe6ae216	-0.22937807
224	0x3f3b98c8	0.7328
225	0xbe2fcf4d	-0.17168923
226	0x3dc33ada	0.095327094
227	0xbe263ea6	-0.16234836
228	0x3ec200f5	0.37891355
229	0x3e0f0cc8	0.1396972
230	0x3e9a6fcd	0.30163422
231	0xbf29ca5f	-0.6632442
232	0xbf5d71f2	-0.8650199
233	0x3c1565e1	0.009118528
234	0xbdfb1e0f	-0.122615926
235	0xbf472cc0	-0.7780266
236	0x3e33c860	0.17556906
237	0xbcbc533a	-0.022988904
238	0xbd8887e7	-0.06666546
239	0x3bd1ad6e	0.0063988483
240	0x3da94623	0.08265331
241	0x3e1fe2d4	0.15613872
242	0xbdbb238b	-0.09137639
243	0x3eb72713	0.35772
244	0x3d93c9cf	0.07216226
245	0x3cf6e65d	0.030139143
246	0xbd512ad7	-0.051066246
247	0xbee2ba68	-0.44282842
248	0x3dc800e6	0.09765796
249	0xbe6e8090	-0.2329123
250	0x3dba2923	0.090898775
251	0x3c1be82d	0.009515804
252	0x3dbee898	0.093217075
253	0x3f2d4034	0.6767609
254	0xbd9ed14c	-0.07754764
255	0x3e4ecdd0	0.20195699

out.bias f4 [4]
0	0x3ed42325	0.41433063
1	0x3eb04d1a	0.34433824
2	0x3e3e0436	0.18556294
3	0x3e828370	0.25490904
