models/v17.1/model_428000_target.pth (torch, 295191 bytes, 10 tensors)

conv.0.weight f4 [16, 2, 3, 3]
0.10973827 0.0077369185 -0.22501332 0.28624794 -0.121787086 0.11071395 -0.39180645 0.45105627
0.0760539 0.012609143 -0.014510778 -0.0071882647 -0.09906855 0.107166104 -0.026727252 -0.012500233
0.030462142 0.009233777 -0.19556572 0.28555077 0.017268322 0.2053766 -0.17656848 0.2220407
-0.7648545 -0.5870328 -0.07743198 -1.0042744 0.6734391 -1.2370311 0.22046936 -0.17528991
0.2036584 -0.021327598 -0.00076586223 0.094621554 0.026547432 0.21274687 0.081426434 -0.056166373
0.25718895 -0.09940958 0.2432938 0.16011728 0.07803713 0.089758575 0.13826555 0.008031677
0.213183 0.0025042335 -1.4442158 -0.0071044858 -0.2801068 0.030957462 -0.012737765 0.15885727
0.0074369754 0.11256632 0.12504894 -0.74201477 -0.35717103 -0.42877325 0.18666524 -0.06690133
0.005023515 -0.021274297 0.3301791 -0.08479699 -0.99022126 -0.2796972 0.3896146 0.12340372
0.17418645 -0.07748729 -0.103376344 -1.138506 -0.1154498 0.093396775 0.01775286 0.4916178
-1.0818015 -0.26348087 0.25527126 -0.3399978 0.2219711 -0.018059244 0.17597376 0.04361773
-0.03371072 0.011621979 -0.046131555 -0.1669831 0.4741758 0.28760383 -0.1025866 -0.18956527
0.76472586 -0.40736005 0.4104063 -0.36363053 -0.07054033 0.087719254 0.11313172 -0.37770528
-0.03141875 0.038689256 -0.1556618 -0.2929155 -0.818666 -0.10371118 0.26441032 0.20370474
0.042736247 -1.0249387 -0.2832012 0.132149 -0.27542895 -0.08847689 -0.042653978 -0.033551358
0.12104099 -0.0071973945 0.031122165 -0.5575143 -0.06713705 -0.19305465 0.2555014 -0.21722056
0.5258265 -0.1322186 0.2755187 0.156726 0.021542434 0.36974984 -0.08671868 -1.5213318
-0.6842344 -0.8543723 0.119654976 0.028686827 -0.09187168 -0.08317905 0.08331274 0.03222278
-0.0051848046 0.08266706 0.033934724 0.4051287 0.044094518 -0.1698544 0.25952816 -0.43494275
0.028620662 -0.3872772 0.592797 -0.47986975 0.06925907 0.28764525 0.005178148 -0.3334854
0.4694132 -0.011636825 0.008075487 0.027271919 0.060748823 0.041672308 -0.13206773 0.2393878
0.34458324 -0.11781667 -0.13894556 -0.029082598 0.17928192 -0.114977986 -1.6349082 -0.02175223
-0.047583774 0.1786588 0.3208258 -0.20732693 -0.13787077 0.14180759 0.07423487 -0.11483036
0.037846763 0.08333571 0.62599045 -0.43225542 -0.029040428 0.11596483 -0.28196046 -0.1018412
1.0381047 -0.035630777 -0.06787078 0.19342677 0.022538276 -0.13648297 0.15527645 0.12175545
-0.36723405 -0.11008206 0.095163725 0.2154868 -1.2298775 -0.10670091 -0.11880762 -1.389395
-0.2970442 0.28549588 0.16726108 0.24565923 -0.25830796 0.14529215 0.14956006 -0.0054330667
-0.1498574 -0.06330393 0.059651464 -0.0835285 0.020686667 0.13945892 -0.103659555 0.00922122
-0.20067802 0.104718655 0.20577095 0.01839795 0.003080161 -0.95710045 -0.13491035 0.06298752
0.08158652 0.22223458 0.21328346 0.024941232 0.020455917 0.02600172 -1.3420544 -0.022781974
-0.029235987 -0.15920825 0.09700987 0.22985603 -1.3924972 -0.23599356 -0.112806484 0.04812357
-0.13977349 0.18879464 -0.19891429 -0.009490815 0.16258153 -1.3069178 0.043352 -0.088930346
00000000: 75be e03d fa85 fd3b e469 66be 178f 923e
00000010: 826b f9bd ffbd e23d db9a c8be d9f0 e63e
00000020: 26c2 9b3d 9496 4e3c 9dbe 6dbc 898b ebbb
00000030: 74e4 cabd e779 db3d 1cf3 dabc c7cd 4cbc
00000040: be8b f93c 4549 173c 6142 48be b633 923e
00000050: 4c76 8d3c 3e4e 523e 5ece 34be a35e 633e
00000060: 81cd 43bf c847 16bf a894 9ebd 108c 80bf
00000070: 8166 2c3f 0957 9ebf b8c2 613e 337f 33be
00000080: d48b 503e 37b7 aebc 25c4 48ba f2c8 c13d
00000090: 007a d93c 51da 593e e7c2 a63d b60e 66bd
000000a0: 45ae 833e 4097 cbbd 0322 793e c9f5 233e
000000b0: eed1 9f3d 58d3 b73d 7c95 0d3e 4c97 033c
000000c0: a54c 5a3e 111e 243b 10dc b8bf bfcc e8bb
000000d0: 296a 8fbe 819a fd3c 0fb2 50bc 7bab 223e
000000e0: dfb1 f33b 2c89 e63d d40c 003e aef4 3dbf
000000f0: 1fdf b6be 2b88 dbbe 2c25 3f3e 9103 89bd
00000100: 4c9c a43b 6f47 aebc 3c0d a93e 0baa adbd
00000110: 247f 7dbf 7934 8fbe 917b c73e 17bb fc3d
00000120: ef5d 323e a8b1 9ebd fab6 d3bd 91ba 91bf
00000130: f270 ecbd cf46 bf3d 726e 913c 54b5 fb3e
00000140: 7978 8abf f7e6 86be eab2 823e 3114 aebe
00000150: 644c 633e fbf0 93bc 7732 343e 81a8 323d
00000160: 4014 0abd 1d6a 3e3c 71f4 3cbd 9efd 2abe
00000170: 2cc7 f23e cf40 933e ec18 d2bd 661d 42be
00000180: 13c5 433f 7f91 d0be c620 d23e c82d babe
00000190: 7377 90bd 27a6 b33d 9ab1 e73d 9662 c1be
000001a0: f2b0 00bd a078 1e3d cf65 1fbe 05f9 95be
000001b0: 1894 51bf 8766 d4bd ca60 873e fa97 503e
000001c0: 340c 2f3d 3131 83bf bfff 90be 1152 073e
000001d0: 0605 8dbe 5f33 b5bd f0b5 2ebd 266d 09bd
000001e0: 57e4 f73d 1fd8 ebbb e9f3 fe3c 42b9 0ebf
000001f0: 267f 89bd 1eb0 45be 14d1 823e 116f 5ebe
00000200: 919c 063f 5064 07be c910 8d3e c87c 203e
00000210: c279 b03c da4f bd3e 9099 b1bd 00bb c2bf
00000220: fc29 2fbf 25b8 5abf ab0d f53d a300 eb3c
00000230: 3827 bcbd c759 aabd df9f aa3d 09fc 033d
00000240: 4be5 a9bb 594d a93d 23ff 0a3d 076d cf3e
00000250: 749c 343d 50ee 2dbe e0e0 843e d1b0 debe
00000260: e175 ea3c 3249 c6be 8bc1 173f 7db1 f5be
00000270: b3d7 8d3d 3d46 933e 74ad a93b 99be aabe
00000280: ed56 f03e 62a8 3ebc 0c4f 043c 5c69 df3c
00000290: c2d3 783d 95b0 2a3d c33c 07be 1322 753e
000002a0: 376d b03e de49 f1bd bf47 0ebe a13e eebc
000002b0: ae95 373e 9479 ebbd ac44 d1bf bc31 b2bc
000002c0: 34e7 42bd 55f2 363e 4743 a43e 834d 54be
000002d0: ff2d 0dbe 0236 113e 7408 983d 2e2c ebbd
000002e0: 3505 1b3d eaab aa3d e940 203f 9550 ddbe
000002f0: 31e6 edbc f87e ed3d 1f5d 90be 1e92 d0bd
00000300: 9de0 843f 94f1 11bd d6ff 8abd ab11 463e
00000310: 31a2 b83c 31c2 0bbe ca00 1f3e ec5a f93d
00000320: 1a06 bcbe b472 e1bd 33e5 c23d 92a8 5c3e
00000330: a06c 9dbf 0286 dabd 6951 f3bd b2d7 b1bf
00000340: 2d16 98be 842c 923e 7d46 2b3e 188e 7b3e
00000350: f140 84be 77c7 143e 4626 193e de07 b2bb
00000360: 3874 19be 7ea5 81bd 1855 743d fd10 abbd
00000370: 1677 a93c 52ce 0e3e 764b d4bd 9a14 173c
00000380: 8a7e 4dbe bc76 d63d 9fb5 523e 4cb7 963c
00000390: 87dc 493b 8904 75bf f025 0abe 9aff 803d
000003a0: d516 a73d 7691 633e fb66 5a3e 8e51 cc3c
000003b0: 2b93 a73c 8f01 d53c 70c8 abbf 43a1 babc
000003c0: 4f80 efbc 7d07 23be 1cad c63d 615f 6b3e
000003d0: 593d b2bf 4ca8 71be 1607 e7bd 381d 453d
000003e0: c820 0fbe 6253 413e 30b0 4bbe 5d7f 1bbc
000003f0: c67b 263e 1549 a7bf de91 313d 1d21 b6bd

conv.0.bias f4 [16]
-0.017100431 0.09733002 0.028472776 0.0109779425 -0.05289588 -0.47885224 0.3107556 -0.3809143
-0.27605543 -0.120293826 -0.7201386 -0.054212235 0.030791497 0.06454784 -0.12870601 0.119650416
00000000: 3416 8cbc f654 c73d bd3f e93c d4dc 333c
00000010: 5aa9 58bd 1f2c f5be 5c1b 9f3e 3307 c3be
00000020: 2357 8dbe 9c5c f6bd 015b 38bf a60d 5ebd
00000030: 733e fc3c a831 843d 82cb 03be 470b f53d

conv.2.weight f4 [32, 16, 3, 3]
0.008875085 0.121205024 0.05393925 0.09161652 0.022548513 0.005403965 0.29107141 0.30383936
-0.25420913 0.2795482 0.121437706 -0.15943278 -0.2308855 -0.020921214 -0.020606754 0.10418657
-0.07568592 -0.19203183 -0.030912094 0.11215009 -0.039803565 -0.6063084 0.4080927 -2.0254784
-0.112009436 -0.06669629 0.011830271 0.15032044 -0.15358669 -0.29065958 0.14986055 -0.4480367
-0.15148896 -0.18754378 0.20994946 0.032289788 0.12580252 0.06254836 0.31590065 0.046482258
0.010957224 -0.15458946 0.20660524 -0.13720898 0.037892282 -0.20933394 0.036749773 -0.42191678
0.28110313 -0.25213268 0.03986752 0.012131402 0.06813518 -0.056634232 -0.3159855 -0.018668216
-0.46647605 0.04646684 -0.25351968 -0.16025181 -0.22564338 0.09782985 0.030806255 0.24305338
-0.07131494 0.090926 -0.14481355 -0.12873384 0.0027664802 0.29772416 -0.26537988 -0.73351395
-0.28455094 -0.009475045 0.47746506 0.08967992 0.057201933 0.18460763 0.039693847 -0.08310095
-0.27220666 0.18444479 -0.4976353 0.343976 -0.26565325 -0.48217815 -0.112655975 0.05890026
0.21886769 0.3459587 0.33840543 -0.05966939 0.0017905965 0.009959884 -0.116758175 -0.7296869
0.4116545 0.064880535 -0.18740448 0.019105382 -0.18774238 -0.13058919 -0.094099544 -0.25701872
-0.23219064 0.20207654 -0.107692294 -0.03374094 -0.069169484 0.041064847 0.0028548308 -0.0056211483
-0.7491202 -0.06454283 0.09813909 0.05721626 -0.13299397 -0.32125464 -0.76034945 -0.13658985
0.00984918 -0.10706916 -0.067006715 -0.92050093 -0.18046732 -0.31811216 0.17674072 -0.14182384
0.2641944 0.044586316 -0.15821631 -0.34340736 0.10136385 0.10087079 -0.13372526 0.051693473
-0.011076591 0.038665213 0.046532564 0.16847038 -0.09501702 0.078472115 -0.2678293 0.008554518
0.016505819 0.38477468 -0.16973314 0.053575408 -0.2478653 -0.14367273 0.13313971 0.08897297
0.0043861424 -0.07653874 0.13546115 0.014153627 -3.4695 0.094010055 0.16185012 -0.13232434
0.30126607 0.01221252 -0.23965564 -0.018789941 0.04668871 0.10606699 0.038709167 0.06917007
-0.18190825 0.35847616 -0.0809023 -0.5663257 -0.37435067 0.39215735 -0.25532264 0.22005606
-0.0110277785 -0.72516555 -0.36999962 0.35579947 -0.4131802 -0.43914953 -0.9244831 -0.16495037
0.19071412 0.32145423 -0.15506944 0.068736665 -0.13522999 -0.22036861 -0.1585382 0.26780447
0.32457498 0.4074023 -0.260256 0.07937092 -0.30813468 -0.18889618 -0.07668035 -0.04788331
0.3576941 -0.07158445 -0.33329937 -0.86853176 0.066211574 0.22803341 0.6075921 -0.056310423
0.14330985 -0.26558584 0.031356163 -0.15664662 0.3642856 0.41799834 -0.12951684 -0.08859694
-0.15785564 0.07387402 -0.25688782 0.44664413 0.1293438 -0.29475796 0.28824908 0.26578957
0.19970179 0.2929534 -0.17169191 0.12071325 -0.071158215 0.12835027 -0.26800272 0.0630119
0.08213025 0.027929774 0.16278154 0.2919435 -0.6030393 -0.18310186 -0.20626426 0.25133774
0.023753552 -0.32082507 0.35765558 -0.16836539 0.35055497 -0.05603243 0.21444589 -0.0072039
-0.06502803 0.024916984 0.072128996 -0.21781042 0.45187655 -0.20289914 0.24246313 0.05230306
00000000: ce68 113c 573a f83d 67ef 5c3d 71a1 bb3d
00000010: a9b7 b83c be13 b13b 5007 953e d590 9b3e
00000020: b327 82be f120 8f3e 55b4 f83d 5942 23be
00000030: 406d 6cbe f762 abbc 7fcf a8bc c55f d53d
00000040: 3801 9bbd fea3 44be 5c3b fdbc f2ae e53d
00000050: 1009 23bd 0737 1bbf 87f1 d03e 70a1 01c0
00000060: 3465 e5bd 1198 88bd c1d3 413c 9aed 193e
00000070: d445 1dbe 55d1 94be 0b75 193e 1165 e5be
00000080: ec1f 1bbe 7a0b 40be fefc 563e 4c42 043d
00000090: 60d2 003e 5b19 803d bbbd a13e 2e64 3e3d
000000a0: ee85 333c b34c 1ebe 5390 533e 8380 0cbe
000000b0: f034 1b3d a35b 56be ee86 163d 7a05 d8be
000000c0: c0ec 8f3e 8917 81be 204c 233d cac2 463c
000000d0: 758a 8b3d 4cf9 67bd dac8 a1be 16ee 98bc
000000e0: f3d5 eebe 0354 3e3d 55cd 81be 0d19 24be
000000f0: 0f0f 67be 045b c83d 665d fc3c fce2 783e
00000100: 910d 92bd 6937 ba3d 014a 14be ced2 03be
00000110: d64d 353b 4d6f 983e dfdf 87be 92c7 3bbf
00000120: a9b0 91be 383d 1bbc 4d76 f43e 1baa b73d
00000130: 934c 6a3d c809 3d3e 0496 223d d530 aabd
00000140: ac5e 8bbe 18df 3c3e 0eca febe 9f1d b03e
00000150: b403 88be 0ee0 f6be 2db8 e6bd 6641 713d
00000160: da1e 603e 8021 b13e 7a43 ad3e e467 74bd
00000170: 73b2 ea3a c82e 233c e91e efbd c3cc 3abf
00000180: 61c4 d23e 16e0 843d f6e6 3fbe e482 9c3c
00000190: 8a3f 40be 2cb9 05be 43b7 c0bd f597 83be
000001a0: 62c3 6dbe 27ed 4e3e c78d dcbd f133 0abd
000001b0: bba8 8dbd 9d33 283d 1d18 3b3b 9c31 b8bb
000001c0: 57c6 3fbf 082f 84bd 26fd c83d 995b 6a3d
000001d0: 922f 08be 7d7b a4be 43a6 42bf 36de 0bbe
000001e0: 745e 213c 1347 dbbd d13a 89bd f3a5 6bbf
000001f0: 6dcc 38be 99df a2be 85fb 343e 453a 11be
00000200: 7d44 873e 24a0 363d 7503 22be 17d3 afbe
00000210: da97 cf3d 5895 ce3d 46ef 08be 89bc 533d
00000220: 977a 35bc 6a5f 1e3d ee98 3e3d 8083 2c3e
00000230: 4998 c2bd fdb5 a03d ec20 89be 4028 0c3c
00000240: 3637 873c 3001 c53e 86ce 2dbe e371 5b3d
00000250: 67d0 7dbe f21e 13be c755 083e 7637 b63d
00000260: a1b9 8f3b 58c0 9cbd 54b6 0a3e 9de4 673c
00000270: 4a0c 5ec0 5888 c03d 0abc 253e 0880 07be
00000280: 8c3f 9a3e 0617 483c 4a68 75be 5ded 99bc
00000290: a93c 3f3d a639 d93d 818d 1e3d 0aa9 8d3d
000002a0: 2846 3abe 308a b73e 1bb0 a5bd b9fa 10bf
000002b0: e4aa bfbe d9c8 c83e a6b9 82be 6056 613e
000002c0: dbad 34bc 73a4 39bf 9770 bdbe 592b b63e
000002d0: 5b8c d3be 35d8 e0be edaa 6cbf c0e8 28be
000002e0: 904a 433e a695 a43e 86ca 1ebe cfc5 8c3d
000002f0: bb79 0abe 4fa8 61be d757 22be ab1d 893e
00000300: b12e a63e 0997 d03e 4640 85be 398d a23d
00000310: d4c3 9dbe 006e 41be 960a 9dbd 4a21 44bd
00000320: ae23 b73e de9a 92bd 37a6 aabe 1958 5ebf
00000330: ef99 873d 9781 693e 288b 1b3f c2a5 66bd
00000340: d1bf 123e defa 87be 526f 003d f967 20be
00000350: a483 ba3e e103 d63e 10a0 04be 5072 b5bd
00000360: e9a4 21be 434b 973d cd86 83be 8aae e43e
00000370: b372 043e 84ea 96be 6295 933e 9215 883e
00000380: a07e 4c3e fdfd 953e 01d0 2fbe 8238 f73d
00000390: 66bb 91bd 416e 033e a737 89be 620c 813d
000003a0: e833 a83d fbcc e43c 34b0 263e 9e79 953e
000003b0: c960 1abf 0e7f 3bbe f036 53be 57af 803e
000003c0: cf96 c23c 2f43 a4be a21e b73e fa67 2cbe
000003d0: f17b b33e 4382 65bd b497 5b3e b10e ecbb
000003e0: 6a2d 85bd b41e cc3c 5eb8 933d b209 5fbe
000003f0: 5d5c e73e cbc4 4fbe 4148 783e bc3b 563d

conv.2.bias f4 [32]
0.37871745 0.03231376 -0.46868756 -0.41982767 0.25579676 -0.247917 0.045981698 -0.32953107
-0.20386443 -0.02626702 0.16935901 0.013458311 -0.18106727 -0.08452484 -0.0016377982 -0.3120171
0.10947207 -0.026256723 0.07905124 -0.5041018 -0.11376163 0.34044603 -0.7447518 0.20489348
-0.049457442 0.18700491 -0.27393967 0.07673141 0.004395699 -0.11012076 -0.041764043 -0.09634841
00000000: 41e7 c13e 6f5b 043d d1f7 efbe a7f3 d6be
00000010: cbf7 823e f4dd 7dbe 4e57 3c3d 4cb8 a8be
00000020: d6c1 50be ef2d d7bc 736c 2d3e 3f80 5c3c
00000030: b369 39be 5c1b adbd 63ab d6ba b5c0 9fbe
00000040: e532 e03d 5718 d7bc 9ee5 a13d d10c 01bf
00000050: dcfb e8bd f14e ae3e 0ea8 3ebf 99cf 513e
00000060: e393 4abd 377e 3f3e d241 8cbe 5c25 9d3d
00000070: cc09 903b fe86 e1bd c610 2bbd 5152 c5bd

conv.4.weight f4 [64, 32, 5, 5]
-0.09895143 -0.018865367 0.013472813 0.37331527 0.14566222 -0.18418889 0.05026067 0.033449855
-0.07331393 0.19909906 0.090948276 -0.0410645 0.31316906 -0.19857664 0.027569663 -0.20763925
0.13171333 -0.2592106 0.88788444 -0.42394504 0.122428395 -0.2493206 -0.100266114 0.0061735753
-0.060543656 -0.08525104 -0.39399397 -0.05217438 0.35781127 -0.22129174 -0.042298783 0.13604936
-0.17513938 0.21185282 0.030187929 0.4211819 -0.35943303 0.21934074 0.65349215 -0.5952473
0.21822672 0.18090656 0.06934341 0.32987595 0.49802014 -0.16713277 0.29575956 0.13958627
-0.1663763 0.24745622 -0.20470195 0.058406666 -0.6429832 -0.4016403 0.29765734 0.30691126
0.053110138 -0.40767097 0.25054023 -1.639343 -1.064021 0.41106027 -0.8246913 -0.33243906
0.25835153 0.30678836 -0.26410538 0.8538519 0.022711866 -0.11858397 0.00089498656 0.17696598
-0.14934407 -0.1454642 0.099620625 0.006474384 -0.077703156 -0.12762387 -0.046506215 -0.2873223
-0.05814467 0.24752487 0.045923095 0.5394717 0.07481177 -0.2923791 -0.07329374 -0.70076865
-0.12762815 1.0530877 0.09992557 0.3449293 -0.49567598 -0.5942587 -0.13340503 0.45081165
0.16877952 0.055138838 0.5240002 -0.34979194 0.014974177 0.10423343 -0.14683262 -0.23243137
-0.19379193 0.1762205 0.08196128 0.24917111 -0.090912014 0.10698262 -0.16218826 -0.0024322858
0.5002569 0.1509882 0.14789255 -0.28221148 -0.037712377 0.27179632 0.33549234 0.13476183
0.18270981 -0.2194556 0.52840763 0.060749393 0.31371817 1.042333 0.28944 -0.039368372
0.21064033 -0.095136 0.37633538 -0.004397207 0.32927692 -0.23976792 -0.14909548 0.07796151
0.11714261 -0.16197841 0.59404033 -0.17810138 -0.85253453 0.13327342 0.026394216 -0.45210254
-0.2642455 -0.53320754 -0.27736366 0.28607762 -0.00516218 -0.678425 -0.5139655 0.33629477
-0.3263999 0.1032491 -0.431891 -0.2739302 -0.34322825 -0.27584577 -0.28554824 -0.16479562
-0.110637255 0.12166863 -0.41408983 -0.05403065 1.2796518 0.4009022 0.16455673 -0.008257423
-0.75970984 0.70266765 0.31179547 -0.533366 0.05121988 -0.1721612 0.19005482 0.056215316
0.5757727 0.30761653 0.10388003 0.14988078 -0.76215285 0.33491185 -0.11636269 -0.13693103
0.3830871 -0.29697317 0.2721549 -0.013888944 -0.18508723 -0.31678212 -0.29868758 -0.17887549
0.19772287 0.14171176 0.01971329 0.0851596 0.1057086 -0.14981332 -0.27342877 0.07655557
-0.06778544 0.14676589 -0.5966249 -0.6137772 0.06827698 0.53056437 0.07827162 0.006561111
0.17208834 -0.20479749 -0.116284385 -0.31570426 -0.1395741 -0.27170354 0.095337726 -0.14906912
0.25859192 -0.041465152 0.26632565 -0.14156996 -0.24402261 0.4294127 -0.49791664 0.0731769
-0.016655056 -0.13332264 0.07683085 0.07169516 0.12888235 0.13661246 -0.0023432546 -0.24821304
-0.29064158 0.6816336 -0.104593046 -0.31222498 -0.34336707 0.23875274 -0.04117515 0.26441127
0.3236933 0.2408193 -0.0686855 0.12204147 -0.02585177 0.2550369 0.35075092 -0.19126217
-0.005346814 0.11912473 0.01989517 0.11363878 -0.46609893 0.059984975 0.21390869 0.017720854
00000000: 0ca7 cabd 8b8b 9abc 13bd 5c3c 2e23 bf3e
00000010: 7a28 153e 039c 3cbe 22de 4d3d b702 093d
00000020: 9d25 96bd a0e0 4b3e 1743 ba3d 4033 28bd
00000030: b257 a03e ad57 4bbe c6d9 e13c 629f 54be
00000040: dcdf 063e 40b7 84be 654c 633f 530f d9be
00000050: bdbb fa3d e64d 7fbe 5258 cdbd b44b ca3b
00000060: a0fc 77bd 1998 aebd 94b9 c9be cdb4 55bd
00000070: 0a33 b73e 4d9a 62be 7d41 2dbd 8650 0b3e
00000080: bd57 33be f2ef 583e ad4c f73c 27a5 d73e
00000090: 9b07 b8be dc9a 603e 434b 273f 2162 18bf
000000a0: d376 5f3e 923f 393e eb03 8e3d 80e5 a83e
000000b0: 7ffc fe3e da24 2bbe cc6d 973e b4ef 0e3e
000000c0: 8c5e 2abe 2a65 7d3e 639d 51be d43b 6f3d
000000d0: 8c9a 24bf cca3 cdbe 8b66 983e 7923 9d3e
000000e0: 048a 593d 40ba d0be cf46 803e fed5 d1bf
000000f0: d731 88bf 7e76 d23e f81e 53bf 7435 aabe
00000100: a746 843e 5d13 9d3e d238 87be 0a96 5a3f
00000110: 3c0e ba3c 27dc f2bd 889d 6a3a 9236 353e
00000120: a7ed 18be 91f4 14be e605 cc3d 1227 d43b
00000130: d522 9fbd d5af 02be 4d7d 3ebd e91b 93be
00000140: 1b29 6ebd 2977 7d3e db19 3c3d d11a 0a3f
00000150: ea36 993d b7b2 95be 071b 96bd 9365 33bf
00000160: f4b0 02be 94cb 863f c7a5 cc3d 939a b03e
00000170: 3ec9 fdbe 5721 18bf 549b 08be c9d0 e63e
00000180: 8ad4 2c3e 43d9 613d e124 063f ee17 b3be
00000190: 4056 753c 5678 d53d 4a5b 16be 7d02 6ebe
000001a0: 6471 46be 2673 343e 51db a73d b626 7f3e
000001b0: 1430 babd b419 db3d ae14 26be fc66 1fbb
000001c0: d610 003f a79c 1a3e 2571 173e 067e 90be
000001d0: 4b78 1abd e328 8b3e a7c5 ab3e 01ff 093e
000001e0: 4818 3b3e f8b8 60be b945 073f 5bd4 783d
000001f0: ab9f a03e 2b6b 853f 7b31 943e bb40 21bd
00000200: 19b2 573e aad6 c2bd 08af c03e 7216 90bb
00000210: fc96 a83e b985 75be 7cac 18be 49aa 9f3d
00000220: 77e8 ef3d abdd 25be 0713 183f 3560 36be
00000230: b43f 5abf d478 083e af38 d83c fc79 e7be
00000240: 304b 87be 4a80 08bf 9c02 8ebe c478 923e
00000250: 8127 a9bb 43ad 2dbf 3e93 03bf d42e ac3e
00000260: e31d a7be 4474 d33d d120 ddbe 9440 8cbe
00000270: 9dbb afbe a83b 8dbe 6133 92be 2fc0 28be
00000280: c995 e2bd 672d f93d 9503 d4be 3e4f 5dbd
00000290: a1cb a33f 0e43 cd3e 8f81 283e 244a 07bc
000002a0: 587c 42bf 07e2 333f a8a3 9f3e ad8a 08bf
000002b0: f0cb 513d 074b 30be bb9d 423e 0842 663d
000002c0: d765 133f ea7f 9d3e 0ebf d43d 597a 193e
000002d0: 731c 43bf 9179 ab3e 904f eebd a637 0cbe
000002e0: fe23 c43e de0c 98be e357 8b3e 748e 63bc
000002f0: 8287 3dbe 4431 a2be 94ed 98be 232b 37be
00000300: dd77 4a3e e31c 113e c47d a13c 2868 ae3d
00000310: c07d d83d aa68 19be dbfe 8bbe 2bc9 9c3d
00000320: 18d3 8abd cc49 163e 69bc 18bf 8120 1dbf
00000330: cdd4 8b3d 11d3 073f df4c a03d 97fe d63b
00000340: ed37 303e 6fb6 51be 8226 eebd fda3 a1be
00000350: 83ec 0ebe ba1c 8bbe 6d40 c33d 93a5 18be
00000360: 2966 843e 5dd7 29bd d65b 883e b7f7 10be
00000370: 10e1 79be fbdb db3e eeee febe c5dd 953d
00000380: 2f70 88bc bb85 08be 7e59 9d3d e9d4 923d
00000390: bcf9 033e 23e4 0b3e 4a91 19bb 8f2b 7ebe
000003a0: f9ce 94be 8a7f 2e3f e134 d6bd f4db 9fbe
000003b0: cfcd afbe 997b 743e 46a7 28bd ea60 873e
000003c0: 21bb a53e 5699 763e fcaa 8cbd e1f0 f93d
000003d0: 17c7 d3bc 3294 823e a095 b33e 3bda 43be
000003e0: 5434 afbb abf7 f33d 32fb a23c 73bb e83d
000003f0: 85a4 eebe ceb2 753d e10a 5b3e 532b 913c

conv.4.bias f4 [64]
-0.5382549 -0.39655033 -0.21787614 -0.0027570692 -0.6888988 -0.27179703 -0.102093846 -0.3104806
0.33876604 -0.3068299 0.16566172 -0.049498815 -0.30976617 -0.042151846 -0.49122304 -0.3142225
-0.027593695 -0.514957 0.0008027017 -0.40434405 -0.13968869 -0.6727413 -0.047242075 -0.29487237
-0.5575799 0.6829543 -0.06175682 -0.12610355 -0.02865284 -0.2174377 -0.21061437 -0.2486081
-0.4444423 -0.13718343 -0.28145963 0.072803415 0.1639577 -0.25077605 -0.523139 -0.060716838
0.044380512 -0.25663176 -0.3990209 -0.3310816 -0.22555023 -0.040848933 -0.412977 0.5218215
-0.046338957 -0.020744642 -0.3108797 0.009941125 0.5265446 0.4223001 -0.1651455 -0.13439819
0.016186392 -0.4596174 -0.33840388 -0.5451547 0.7768174 -0.05059057 -0.5106532 -0.06993057
00000000: 13cb 09bf a508 cbbe ec1a 5fbe f2af 34bb
00000010: ac5b 30bf fb28 8bbe 9416 d1bd 50f7 9ebe
00000020: be72 ad3e cf18 9dbe 3aa3 293e 45bf 4abd
00000030: ac99 9ebe 6aa7 2cbd 9681 fbbe c6e1 a0be
00000040: 2c0c e2bc 39d4 03bf 666c 523a 2f06 cfbe
00000050: 8d0a 0fbe c638 2cbf e880 41bd 83f9 96be
00000060: 8ebd 0ebf 18d6 2e3f b8f4 7cbd 4a21 01be
00000070: 5cb9 eabc fda7 5ebe 4bab 57be 1f93 7ebe
00000080: f18d e3be d079 0cbe 7a1b 90be f519 953d
00000090: 87e4 273e b865 80be 70ec 05bf 38b2 78bd
000000a0: 57c8 353d 3d65 83be 784c ccbe 8783 a9be
000000b0: a4f6 66be 3651 27bd b971 d3be 1896 053f
000000c0: ebcd 3dbd abf0 a9bc a02b 9fbe 1ae0 223c
000000d0: a0cb 063f b837 d83e e71b 29be ae9f 09be
000000e0: 5399 843c f952 ebbe 4643 adbe 428f 0bbf
000000f0: 81dd 463f 0f38 4fbd 2bba 02bf c237 8fbd

conv.7.weight f4 [64, 256]
0.04425134 0.2890616 -0.12058873 -0.10290455 0.32410544 0.065587975 0.25365248 -0.07230767
-0.49183244 -0.00939774 0.022516847 -0.008393323 -0.061445944 0.031240284 0.0076227263 0.039905697
-0.112504624 0.32765678 0.5013607 -0.1054388 0.36261374 0.04552543 0.30825 0.2931163
-0.07656617 0.03042419 -0.2556988 -0.10835325 0.22419876 0.26092446 0.34619448 0.20778584
-0.05313523 -0.6025773 -0.095749184 -0.29894522 -0.10703209 0.23714489 -0.2439952 0.071807206
0.0004625452 0.3052253 -0.26515144 -0.072193004 0.023385204 0.01643245 0.031449907 -0.028983623
-0.03580402 0.38420856 -0.07677665 0.10253585 -0.05326198 0.04536473 0.009349339 -0.035593122
0.004987186 0.6691089 -0.20610122 0.07465946 0.2756996 0.36306363 -0.32638428 0.12841968
-0.0520972 -0.02213984 -0.0012932792 0.03904041 -0.15269107 -0.23033853 -0.14677157 0.081367135
-0.023007551 0.048079483 -0.3527215 -0.070552684 -0.31779224 -0.17736721 0.1505995 -0.28077492
0.024960233 0.020839075 -0.06277843 -0.2707619 0.3802713 0.0016076581 0.1971298 -0.06136497
-0.053775974 0.01720865 0.002624005 -0.054284424 0.07791705 0.2797371 0.1096898 0.0641266
0.050289124 0.04912727 0.04199408 0.2982622 -0.13716601 0.15248251 -0.11100974 0.18199344
0.022026405 0.06029635 0.02451323 -0.010968484 -0.09520258 0.047407232 0.034999102 0.17168121
0.044183113 0.013102606 0.0009892434 0.019962437 0.14497496 -0.41697446 0.018953681 0.12041026
-0.3864974 -0.1603109 0.017022803 0.070797704 0.011392266 -0.08797319 0.14423189 0.071725115
0.3331939 0.33420506 0.0987385 0.69540125 0.3591934 0.24029961 0.019280704 0.068568446
0.2796334 0.20225547 0.3654777 0.10406886 0.17071132 0.104720056 -0.5706399 -0.04488226
0.32545725 0.5449489 -0.77569073 -0.037185483 -0.14230822 -0.020989265 -0.15102668 -0.036746766
-0.5103257 0.33347994 0.12459079 0.104137465 -0.042151324 -0.036924087 0.025280185 0.0024833381
0.16186514 -0.11899895 -0.37096366 0.06597584 0.04397108 -0.15524141 0.07594433 0.087319404
-0.05122339 0.28248873 0.16736755 0.32924357 0.18040738 0.20984335 -0.13183704 0.07307147
-0.10858483 -0.22600487 0.19614261 -0.3122384 0.05339361 0.06099207 0.023276396 -0.032528996
-0.26772127 0.13190013 0.1402069 0.2838956 0.016512817 -0.11408629 -0.042022374 -0.04228249
0.03441733 0.036424227 -0.039166927 -0.0064357594 0.03720863 -0.02337978 -0.046880946 0.009724557
0.490998 0.0048033604 0.12260828 -0.19935252 -0.062062673 -0.030982502 0.03273181 0.057922438
0.060890503 -0.18261407 0.26081958 -0.04194537 0.23014823 -0.23302051 -0.05166933 -0.011612172
-0.1054519 -0.21099609 -0.005995568 -0.03719982 -0.22217052 -0.41815862 -0.39848036 -0.08259133
-0.42238703 -0.06840042 -0.0710658 0.00093329145 0.018351419 -0.27368367 0.32234085 0.7150555
0.06616258 0.16748239 0.26176572 -0.1254062 -0.17518705 0.5488523 -0.24679963 -0.043541003
-0.2927773 0.4251189 -0.06770494 0.4291093 0.085603006 0.09897094 -0.36507174 -0.036195964
-0.18361843 -0.037425697 -0.2076969 0.095668405 -0.42429924 0.21967171 0.19807759 -0.41977718
00000000: e540 353d e2ff 933e 39f7 f6bd 9fbf d2bd
00000010: 26f1 a53e fd52 863d bdde 813e 0b16 94bd
00000020: 76d1 fbbe faf8 19bc 4075 b83c 2684 09bc
00000030: beae 7bbd a0eb ff3c 10c8 f93b 2874 233d
00000040: d368 e6bd a1c2 a73e 2d59 003f 4cf0 d7bd
00000050: 82a8 b93e e078 3a3d f2d2 9d3e 5713 963e
00000060: b9ce 9cbd 273c f93c f4ea 82be 4fe8 ddbd
00000070: 5c94 653e e497 853e 6740 b13e d0c5 543e
00000080: 54a4 59bd 8242 1abf 2618 c4bd 590f 99be
00000090: a433 dbbd 1cd6 723e e1d9 79be a80f 933d
000000a0: c481 f239 7e46 9c3e eec1 87be edd9 93bd
000000b0: 5492 bf3c 589d 863c 9ed1 003d 106f edbc
000000c0: 3ca7 12bd fcb6 c43e 143d 9dbd 51fe d13d
000000d0: 3c29 5abd 5ed0 393d f82d 193c 18ca 11bd
000000e0: 8c6b a33b b94a 2b3f 330c 53be 0fe7 983d
000000f0: 7f28 8d3e 7ae3 b93e d71b a7be 7380 033e
00000100: e063 55bd 9c5e b5bc 4083 a9ba d6e8 1f3d
00000110: 0c5b 1cbe dddd 6bbe 494b 16be d0a3 a63d
00000120: 557a bcbc feee 443d ea97 b4be ed7d 90bd
00000130: aab5 a2be c09f 35be c136 1a3e bbc1 8fbe
00000140: 6779 cc3c b5b6 aa3c fa91 80bd 4ea1 8abe
00000150: ebb2 c23e 0eb8 d23a 65dc 493e d659 7bbd
00000160: 3244 5cbd 28f9 8c3c 80f7 2b3b 5859 5ebd
00000170: f992 9f3d b339 8f3e 0ca5 e03d cf54 833d
00000180: f8fb 4d3d ad39 493d fc01 2c3d d3b5 983e
00000190: 3f75 0cbe 6024 1c3e 1359 e3bd 7d5c 3a3e
000001a0: b870 b43c 4ef9 763d f8cf c83c 28b5 33bc
000001b0: 92f9 c2bd 162e 423d 385b 0f3d 33cd 2f3e
000001c0: 5af9 343d 50ac 563c 80a9 813a 4488 a33c
000001d0: 5174 143e ad7d d5be c044 9b3c a899 f63d
000001e0: fde2 c5be 8a28 24be 6873 8b3c 63fe 903d
000001f0: a0a6 3a3c 4a2b b4bd 86b1 133e 9ee4 923d
00000200: 6498 aa3e ed1c ab3e 6937 ca3d d105 323f
00000210: 33e8 b73e 1a11 763e 91f2 9d3c 9d6d 8c3d
00000220: 1c2c 8f3e 0f1c 4f3e e51f bb3e 0e22 d53d
00000230: f3ce 2e3e 7877 d63d 7515 12bf 76d6 37bd
00000240: 55a2 a63e c581 0b3f ab93 46bf ce4f 18bd
00000250: 3fb9 11be aef1 abbc bda6 1abe c783 16bd
00000260: b4a4 02bf e2bd aa3e 7529 ff3d 0646 d53d
00000270: dea6 2cbd b63d 17bd 6418 cf3c 80bf 223b
00000280: fabf 253e b9b5 f3bd f3ee bdbe 571e 873d
00000290: 051b 343d 9bf7 1ebe b388 9b3d 84d4 b23d
000002a0: 9ecf 51bd 5da2 903e 6662 2b3e 9d92 a83e
000002b0: b6bc 383e 2de1 563e 4a00 07be 7fa6 953d
000002c0: b961 debd d26d 67be 9cd9 483e b6dd 9fbe
000002d0: 42b3 5a3d d2d2 793d 24ae be3c 203d 05bd
000002e0: c312 89be d410 073e 6692 0f3e c45a 913e
000002f0: e345 873c 13a6 e9bd a71f 2cbd 6730 2dbd
00000300: 30f9 0c3d 9231 153d 806d 20bd 10e3 d2bb
00000310: 1468 183d f486 bfbc 3c06 40bd c053 1f3c
00000320: 1764 fb3e 8265 9d3b 0d1a fb3d 1123 4cbe
00000330: 6e35 7ebd 04cf fdbc ca11 063d 1440 6d3d
00000340: 5268 793d 2fff 3abe 258a 853e e9ce 2bbd
00000350: faab 6b3e ee9c 6ebe 38a3 53bd fb40 3ebc
00000360: 2af7 d7bd 5c0f 58be 7876 c4bb d75e 18bd
00000370: ab80 63be e318 d6be 9e05 ccbe a525 a9bd
00000380: 1d43 d8be 8515 8cbd f28a 91bd 21a8 743a
00000390: b755 963c 4420 8cbe dc09 a53e e10d 373f
000003a0: 3f80 873d 8180 2b3e 2806 863e 7c6a 00be
000003b0: 3c64 33be 9681 0c3f 0bb9 7cbe 0d58 32bd
000003c0: e8e6 95be 2fa9 d93e e3a8 8abd 37b4 db3e
000003d0: a150 af3d 47b1 ca3d afea babe 3842 14bd
000003e0: 7806 3cbe b04b 19bd 7fae 54be cced c33d
000003f0: c03d d9be 9ff1 603e dad4 4a3e 09ed d6be

conv.7.bias f4 [64]
-0.260343 0.8490314 0.5359848 0.4415954 1.0657173 0.7994392 -0.42637584 0.69088584
0.047903333 0.31791955 -0.4136434 0.3899413 0.8737834 0.8952293 0.8830505 -0.9567533
0.6538251 0.6402292 1.366572 0.51527715 0.43245146 0.14808063 0.75259686 0.6345542
0.28501624 0.11153047 -0.5175213 0.4165197 0.49970046 0.12726004 0.54923224 0.20583183
-0.26961085 0.62862885 0.12630281 -0.0019279951 0.13943651 -0.576132 -0.38732 0.1447577
0.28118482 0.12799129 0.5394775 0.23640831 0.5581513 0.15381205 1.0953362 0.27364486
0.31863508 0.36768448 -0.4064397 0.24566402 0.21517262 0.004379896 0.67752826 -0.17677964
0.28994054 -0.21480027 1.0432156 0.038978014 0.7855013 -0.26080796 0.6796223 0.22441433
00000000: ad4b 85be 1f5a 593f 4d36 093f cb18 e23e
00000010: 6d69 883f 0ca8 4c3f ef4d dabe e5dd 303f
00000020: 4936 443d 5ac6 a23e 11c9 d3be 63a6 c73e
00000030: 45b0 5f3f bf2d 653f 990f 623f c9ed 74bf
00000040: 1561 273f 10e6 233f d5eb ae3f 34e9 033f
00000050: 476a dd3e 73a2 173e 30aa 403f 2572 223f
00000060: a6ed 913e 166a e43d 477c 04bf 1242 d53e
00000070: bdd8 ff3e 7550 023e 7c9a 0c3f 94c5 523e
00000080: 6f0a 8abe d2ed 203f 8655 013e c8b4 fcba
00000090: 72c8 0e3e 637d 13bf cf4e c6be 5d3b 143e
000000a0: 75f7 8f3e 2610 033e 331b 0a3f 0515 723e
000000b0: 01e3 0e3f e880 1d3e fa33 8c3f 2e1b 8c3e
000000c0: 2324 a33e 2441 bc3e dd18 d0be 598f 7b3e
000000d0: 3656 5c3e 3b85 8f3b 7e72 2d3f b905 35be
000000e0: 1673 943e 9af4 5bbe 1788 853f 69a7 1f3d
000000f0: 9d16 493f 9f88 85be bafb 2d3f dfcc 653e

out.weight f4 [4, 64]
0.07500777 0.11914457 0.023690477 0.046736993 0.13750383 0.02770475 0.046154365 0.036990933
0.003526491 -0.015115417 0.0659211 0.07765356 0.025035683 -0.036710836 -0.0438143 0.014991358
-0.72211164 0.025211042 0.49995404 -0.005438205 -0.042228874 0.014081281 0.10321262 0.019145448
-0.03791596 -0.011223139 0.16949758 0.0937796 0.023302997 -0.10444406 0.04894364 -0.051958345
-0.016302934 0.021888826 0.05817551 -0.053691 0.05969382 -0.066363126 -0.011105005 -0.076868445
0.084290944 0.023427559 0.03895643 -0.04969393 -1.5579134 -1.8286285 -0.01628803 -1.789757
-0.7385621 -0.001166514 0.118357286 0.017812537 -0.06408408 0.05291249 -0.10178606 4.967348
0.07271091 0.051596392 0.02590572 -0.06624463 -0.09751218 0.028088484 0.062772006 -0.028332183
-0.035589196 0.04184237 0.030451316 0.015952645 0.1635804 0.055554893 0.12945747 -0.1289641
-0.2877785 0.10092112 0.09114852 0.046902448 0.055953722 0.06091549 -0.0043282374 0.0481312
-0.0028608632 0.021935705 0.5011539 -1.2398678 -0.7708248 0.12767409 0.061747212 -0.05356355
-0.5720739 -0.0014925821 0.011065387 0.113753505 -0.9543429 -0.15748592 -0.020350307 0.055372544
-0.03192739 0.10255781 -0.052173086 0.02276645 0.0046488396 0.006789107 -0.053262424 0.022667207
0.0012015272 -0.07475672 -0.059202358 -0.06296038 0.0630816 -0.022958882 -0.109299526 0.0057902965
-0.06437193 0.13356265 -0.03718203 0.071406 0.012683188 0.044904247 0.028130453 0.00037483446
-0.0025522152 -0.06894062 0.0054155723 0.088820286 0.01213951 -0.01477043 -0.111180015 -0.06733381
0.00092250784 0.019416014 -1.3753378 -0.006038124 -0.009098556 0.07220068 -0.14522566 -0.031764742
0.06231327 0.030821674 -0.021352476 0.10431019 0.06538349 0.0588924 -0.021216894 -0.10467572
0.0060559437 0.12471707 0.5206213 0.042918578 -0.0148438085 0.012617503 0.09908839 0.0017489032
0.008717853 -1.1984165 -0.02950442 -0.034339707 -0.067249656 0.09185553 0.11844611 0.046259288
-0.02440938 0.048228994 0.077467695 2.9792252 0.0321972 -0.0071134 -0.04972261 -0.027238501
-0.083297655 -2.1119175 -0.27671668 0.022960752 0.0067906054 0.062035747 -0.25092757 -0.051896177
-0.02642252 -2.204529 0.20529673 -0.10782911 0.017269257 -0.04169932 0.1050935 -0.0020089117
0.042483103 3.693677 0.13869183 -0.056508355 0.024047159 -0.121037446 0.0072753043 -1.3122663
0.06849357 0.017494123 0.020171605 0.0853591 0.09973686 -0.04696503 -0.9341606 0.06823747
-0.06394159 -0.046571203 0.043609586 0.06878665 0.018670723 0.058070567 0.038046896 -0.028234418
0.0018281328 0.055315986 0.5051666 0.09623161 0.038522527 -0.32536152 0.08419557 0.07582714
0.009602748 -0.027246771 -0.0119489925 0.04943474 -0.06746004 -1.0297644 -1.5668926 -0.052383978
4.392878 -0.07061068 -0.25465372 0.005357175 0.15161358 0.06023878 0.064534694 -1.3413434
-1.4135137 -0.03439903 -0.2129901 -1.2586305 0.087231964 -0.06842417 -0.48670623 -0.03135765
0.058621034 0.0044993483 -0.012470174 0.05227261 0.0866326 -0.21369086 0.016898455 -0.0475463
0.083036706 -0.031783957 0.030561047 -0.010695418 0.017457185 0.13102533 -0.024237504 0.068665154
00000000: ac9d 993d 1102 f43d 8812 c23c 4a6f 3f3d
00000010: cecd 0c3e 12f5 e23c 5c0c 3d3d ce83 173d
00000020: b41c 673b a7a6 77bc a401 873d d408 9f3d
00000030: a217 cd3c 1a5e 16bd a076 33bd 509e 753c
00000040: 4fdc 38bf 6387 ce3c faf9 ff3e f832 b2bb
00000050: 2ff8 2cbd 2cb5 663c 2361 d33d ead6 9c3c
00000060: c44d 1bbd 42e1 37bc c690 2d3e 850f c03d
00000070: ede5 be3c c4e6 d5bd 2079 483d 46d2 54bd
00000080: bb8d 85bc 3250 b33c 7249 6e3d 18eb 5bbd
00000090: 8281 743d 64e9 87bd c4f1 35bc 346d 9dbd
000000a0: bba0 ac3d 27eb bf3c c790 1f3d dd8b 4bbd
000000b0: b569 c7bf 8010 eabf 7a6e 85bc c216 e5bf
000000c0: 6812 3dbf b7e5 98ba 4e65 f23d 99eb 913c
000000d0: 843e 83bd c4ba 583d 3675 d0bd 84f4 9e40
000000e0: 75e9 943d bd56 533d 3c38 d43c 44ab 87bd
000000f0: 77b4 c7bd d219 e63c 9c8e 803d e518 e8bc
00000100: fac5 11bd e862 2b3d 0a75 f93c 1faf 823c
00000110: 9f81 273e 878d 633d 8090 043e 2a0f 04be
00000120: b457 93be bbaf ce3d 13ac ba3d c81c 403d
00000130: bb2f 653d 8582 793d e3d3 8dbb 3925 453d
00000140: 527d 3bbb 82b2 b33c 9f4b 003f fdb3 9ebf
00000150: c654 45bf ffbc 023e a5ea 7c3d 7465 5bbd
00000160: 6f73 12bf bfa2 c3ba 994b 353c 99f7 e83d
00000170: d14f 74bf fd43 21be b0b5 a6bc 52ce 623d
00000180: 4bc6 02bd d409 d23d 72b3 55bd b580 ba3c
00000190: 4b55 983b 2877 de3b b329 5abd 94b0 b93c
000001a0: 907c 9d3a 0d1a 99bd 2c7e 72bd 5ff1 80bd
000001b0: ed30 813d 4414 bcbc 6ed8 dfbd 87bc bd3b
000001c0: 6ed5 83bd a6c4 083e 2f4c 18bd 4f3d 923d
000001d0: 25cd 4f3c 84ed 373d d671 e63c 6e85 c439
000001e0: 1143 27bb bd30 8dbd 1d75 b13b 69e7 b53d
000001f0: cce4 463c acff 71bc 59b2 e3bd 4fe6 89bd
00000200: 74d4 713a 550e 9f3c 120b b0bf 75db c5bb
00000210: 1c12 15bc f3dd 933d 09b6 14be bf1b 02bd
00000220: 333c 7f3d bc7d fc3c 63eb aebc 95a0 d53d
00000230: c7e7 853d 2839 713d 0dcf adbc 3960 d6bd
00000240: f070 c63b aa6b ff3d 7047 053f 64cb 2f3d
00000250: 7233 73bc a5b9 4e3c dbee ca3d 743b e53a
00000260: 53d5 0e3c b665 99bf 41b3 f1bc cba7 0cbd
00000270: 30ba 89bd c11e bc3d e093 f23d 617a 3d3d
00000280: 2ef6 c7bc c48b 453d 62a7 9e3d a0ab 3e40
00000290: 36e1 033d 8617 e9bb efa9 4bbd 4723 dfbc
000002a0: f697 aabd a829 07c0 cfad 8dbe 3018 bc3c
000002b0: ba83 de3b 3219 7e3d 9479 80be 1691 54bd
000002c0: 0a74 d8bc 0117 0dc0 4e39 523e 82d5 dcbd
000002d0: 4278 8d3c e8cc 2abd 433b d73d f2a7 03bb
000002e0: c302 2e3d 3465 6c40 3b05 0e3e 4e75 67bd
000002f0: 8cfe c43c 7be2 f7bd ad65 ee3b 58f8 a7bf
00000300: 5b46 8c3d d64f 8f3c ec3e a53c c0d0 ae3d
00000310: d742 cc3d 675e 40bd 2625 6fbf 16c0 8b3d
00000320: cff3 82bd 72c1 3ebd f79f 323d 04e0 8c3d
00000330: 58f3 983c 67db 6d3d 10d7 1b3d de4b e7bc
00000340: f59d ef3a 0493 623d 9952 013f 1415 c53d
00000350: ccc9 1d3d c995 a6be ba6e ac3d 424b 9b3d
00000360: d854 1d3c 9f34 dfbc b5c5 43bc 157c 4a3d
00000370: 7d28 8abd 52cf 83bf f08f c8bf 9590 56bd
00000380: 7592 8c40 559c 90bd f961 82be 3e8b af3b
00000390: 9740 1b3e f0bc 763d c42a 843d 24b1 abbf
000003a0: 04ee b4bf ffe5 0cbd 141a 5abe ce1a a1bf
000003b0: aca6 b23d f921 8cbd 8f31 f9be e170 00bd
000003c0: 9c1c 703d 456f 933b b34f 4cbc ce1b 563d
000003d0: 6f6c b13d c7d1 5abe a16e 8a3c e9bf 42bd
000003e0: 260f aa3d e52f 02bd 295b fa3c d63b 2fbc
000003f0: 5f02 8f3c 812b 063e bb8d c6bc 51a0 8c3d

out.bias f4 [4]
1.0903242 1.1598902 1.044983 1.0527632
00000000: be8f 8b3f 4877 943f 01c2 853f f2c0 863f
