models/v17.1/model_25000.pth (torch, 295095 bytes, 10 tensors)

conv.0.weight f4 [16, 2, 3, 3]
000000 4e 6b 5c 3e 9b c6 ff 3d 0e 01 1e be 42 9a 2e 3e
       0.21525308 0.12489053 -0.1543009 0.17051032
000010 54 d0 df bd 11 70 30 3d f3 3e 80 be f4 21 5e 3e
       -0.10928407 0.043075625 -0.25048026 0.2169264
000020 bc 8a 02 3e 41 90 3f be 13 2a 10 3e d6 6b 8d bd
       0.12748235 -0.18707372 0.1407855 -0.06905334
000030 79 dd 1d 3d f6 1a c2 b9 50 1c a8 3d b3 da d2 3a
       0.03854129 -0.0003702265 0.08208525 0.0016086906
000040 96 52 fb 3d 6f 43 99 bc 61 8a bc bd 51 1c 41 3e
       0.122716114 -0.018708913 -0.09206081 0.18858458
000050 2c 6e d8 3c 84 85 29 3e 17 57 bd bd a8 9e 4f 3e
       0.026419722 0.16554838 -0.09245127 0.20275366
000060 57 f5 0f bf 8a 3f f3 be 06 f7 63 be 44 fe 6e bf
       -0.56233734 -0.47509414 -0.222622 -0.9335673
000070 06 62 a2 3e fb 93 7a bf 65 7e 62 3e 55 65 35 be
       0.3171541 -0.9788205 0.22118528 -0.17714436
000080 65 5b 61 3e 3c 55 62 bd cd 13 79 bd 82 8e 36 3e
       0.2200752 -0.055257067 -0.0608099 0.178278
000090 8d ec 43 bc 46 60 58 3e e1 c8 72 3d 2e 49 e1 bd
       -0.011958254 0.21130475 0.059273604 -0.11000286
0000a0 54 99 77 3e 0f 76 23 bd 8b 39 a4 3e 7e 9e 64 3e
       0.24179584 -0.03990751 0.32075152 0.22326085
0000b0 08 76 1c 3e 78 79 cf 3b 68 40 4a 3e 44 e1 cf 3c
       0.152794 0.006331619 0.19751132 0.02537597
0000c0 4b 4b 83 3e 91 54 09 be 97 33 a4 bf ff fe f0 bd
       0.2564338 -0.13411166 -1.2828244 -0.11767387
0000d0 b0 9f 7d be de cf d6 3d 7d 59 da bc 83 01 7e 3d
       -0.24767947 0.10488866 -0.026654 0.06201316
0000e0 b0 77 9e 3c 96 06 90 3d 39 d6 14 3e ae 87 ee be
       0.01934418 0.07032506 0.14534844 -0.4658789
0000f0 a4 98 0a be 60 97 8d be 3b 9d 2f 3e 2f 72 a6 3b
       -0.1353479 -0.27654552 0.17149822 0.0050795297
000100 6c 1c 1e 3c 9b 3b b6 bd 57 5e 9a 3e 38 90 d9 bd
       0.009650331 -0.088980876 0.301501 -0.10623211
000110 6d 1b 02 bf 29 c8 72 be f1 28 a5 3e bb 77 fe 3d
       -0.508231 -0.23709168 0.32257798 0.124251805
000120 2e d9 7a 3e 3e 64 02 be c0 16 09 be 6d 23 86 bf
       0.2449691 -0.12733552 -0.13387585 -1.0479561
000130 15 8a 85 be 2a b2 4a 3e a0 38 e5 3d 0d c9 ca 3e
       -0.2608191 0.19794527 0.11192441 0.39606515
000140 86 40 5e bf 96 d9 6c be 14 d4 85 3e 0c a7 23 bf
       -0.86817205 -0.23129877 0.26138365 -0.6392677
000150 e3 f1 58 3e ba 9f 1b bd 51 ef 23 3e 28 d4 81 bd
       0.21186022 -0.037994124 0.1600926 -0.06339294
000160 81 98 b2 bd ae 2f 90 3d 12 2a 39 3b 91 96 ab bd
       -0.08720494 0.07040344 0.0028253836 -0.08378328
000170 44 73 b1 3e 3b 77 2f 3e 93 bd 54 be 01 ee 3e bd
       0.34658253 0.17135327 -0.20775442 -0.046613697
000180 36 8e c4 3e d2 98 c9 be 97 87 60 3e f4 1d c1 bd
       0.38389748 -0.39374405 0.21926723 -0.09429541
000190 5b 8d 8e bd 3d ab af 3d 89 2b 3b 3d 6d c2 ab be
       -0.06960555 0.08577583 0.045695815 -0.33546773
0001a0 26 34 0e be 5f ef 86 bd 5b 30 0a be 26 dc 54 be
       -0.1388708 -0.06588625 -0.13495009 -0.20787105
0001b0 70 08 68 bf 8e 40 d8 bd 59 62 96 3e c3 02 30 3e
       -0.90637875 -0.10559188 0.29371908 0.17188554
0001c0 22 c5 0b 3e db b3 6b bf a9 5b 7d be a8 eb 13 3d
       0.13649419 -0.9207131 -0.24741997 0.03611341
0001d0 f5 67 de bd 26 28 00 be ed a3 57 3d d1 67 27 be
       -0.10859672 -0.12515315 0.052646566 -0.16348197
0001e0 a1 58 f5 3d 73 8c b0 3c 08 a9 61 bc 64 78 68 bf
       0.11979795 0.021551346 -0.01377321 -0.908087
0001f0 49 fb 15 bf b2 26 15 bd 6e 61 34 3d b6 e5 02 be
       -0.58586556 -0.036413856 0.04403823 -0.1278294
000200 32 f9 a7 3e 80 45 20 bd 75 12 a3 3e 39 d3 89 3d
       0.32807308 -0.03912878 0.3185002 0.06729741
000210 e8 44 b5 bb c3 fd 61 3e af fe f4 bc 2a 2c 9f bf
       -0.005531896 0.22069459 -0.029906599 -1.2435353
000220 7a 29 81 bf 0d 59 74 bf e8 2c 99 3d ca 58 35 bc
       -1.0090783 -0.9544838 0.07479268 -0.011068532
000230 26 9e 9e 3d 6a bd bd be ea d7 92 3e e7 82 d3 bd
       0.07745008 -0.37058574 0.28680354 -0.10327702
000240 4c c6 9c bd 4a 67 a1 3d c6 d9 1e 3e 62 74 71 3e
       -0.076550096 0.07881029 0.15512761 0.23579553
000250 df a9 1b 3e db 6a 84 be f8 0d df 3d 88 eb 68 be
       0.1520152 -0.25862774 0.10891336 -0.22746098
000260 59 f2 2c 3b eb 01 ad be 36 d7 be 3e 9b c5 ba be
       0.0026389568 -0.33790526 0.37273568 -0.36478886
000270 46 62 d1 3d 2b 47 39 3e 63 b5 0d 3c 9e d8 94 be
       0.10223822 0.18093555 0.008649203 -0.29071516
000280 e7 13 bd 3e e1 48 b6 3d db 92 95 3b 9f bf 02 be
       0.36929247 0.08900619 0.0045646257 -0.1276841
000290 93 b9 18 3e 36 b7 77 3d df ce 01 be 7c 72 93 3e
       0.14914541 0.060477458 -0.12676571 0.28798282
0002a0 c9 bb 5c 3e 4c 38 9e bd 69 4c 52 be 7c 8c 5e bc
       0.2155601 -0.077255815 -0.2053696 -0.013583299
0002b0 20 34 4d 3e 13 20 fd bd bf 3f a9 bf 0e f6 13 bc
       0.20039415 -0.12359633 -1.3222579 -0.009030832
0002c0 3b 1a 5c be 7b 22 49 3e fa 20 af 3e 09 87 b4 be
       -0.21494381 0.1964206 0.34204847 -0.35259274
0002d0 cf 5b 9f bc be a2 c0 3d 97 07 45 3d b1 21 c8 bd
       -0.019452957 0.094060406 0.04810294 -0.09772051
0002e0 1b aa d7 3d 37 c8 bc 3d 29 65 88 3e 6d 3b 33 be
       0.10530492 0.092178755 0.2663968 -0.17503138
0002f0 3a f6 b8 bc 73 60 1d 3d 17 df 91 be 0b a7 47 be
       -0.022578347 0.03842206 -0.28490517 -0.19497316
000300 56 44 9b 3e 1a 98 92 3d 12 78 93 bd 8f 24 de 3c
       0.30325574 0.07157917 -0.07200636 0.027117042
000310 7d d4 f5 3d d6 c9 9e bd ef 2d 69 3e e0 21 ea 3d
       0.120034195 -0.07753341 0.22771429 0.114322424
000320 d7 c6 f9 be 84 dc 16 bd 93 25 2e 3e 71 d1 db 3d
       -0.48784515 -0.036831394 0.17006521 0.10733307
000330 97 a7 3a bf e8 77 b9 be e3 fd 0d be b0 d3 97 bf
       -0.7291197 -0.36224294 -0.13866381 -1.1861477
000340 28 39 b8 be 92 ec 76 3e ad 92 0d 3e 60 fb 15 3e
       -0.35981107 0.24113682 0.13825484 0.14646673
000350 c2 d1 6d be 10 e6 06 bd 08 fa ae 3d 64 ac 57 3e
       -0.23224548 -0.03293425 0.085437834 0.21061856
000360 b5 6e 77 3c 36 55 a6 bd 07 b9 f7 3d b8 a2 14 bd
       0.015102078 -0.081217214 0.12095838 -0.036287993
000370 29 4e 33 3c ea ae 75 3e 1a bc bd bd 9d 70 2d bd
       0.010943928 0.23992506 -0.09264393 -0.042343725
000380 dd 22 72 be 75 12 31 3e c6 60 76 3e 4e 67 81 3d
       -0.23646112 0.17292197 0.24060354 0.06318532
000390 f1 03 39 be 01 6c 67 bf 6b b5 8d be 8e e2 01 3e
       -0.1806791 -0.90399176 -0.27677473 0.1268408
0003a0 48 4a 8b 3d 21 c0 7b 3e fd ed 8a 3e 04 8f cb 3d
       0.068012774 0.2458501 0.27134696 0.099393874
0003b0 bf 32 34 3c 59 ad 29 bc 8f 44 9d bf b3 01 29 3c
       0.010998427 -0.010356271 -1.2286547 0.0103153465
0003c0 81 5a 3a bc 1d b8 6c be 56 ae 52 3d 54 54 0a ba
       -0.011374117 -0.23117109 0.05143579 -0.0005276848
0003d0 cc 68 6c bf 2f d0 87 be fb 62 2a be ad 93 c0 3d
       -0.9234741 -0.2652602 -0.1663932 0.09403167
0003e0 46 97 3c be 27 c6 84 3e 64 61 6d be f7 cc 3a be
       -0.18417081 0.25932428 -0.23181683 -0.1824225
0003f0 82 21 ff 3c f2 c2 69 bf 8e 26 a8 3b e8 2b 35 be
       0.031143907 -0.9131309 0.005131549 -0.1769253

conv.0.bias f4 [16]
000000 4c c8 ec 3d af 33 80 3d e2 e5 55 bc 46 69 b0 bd
       0.11561641 0.06259858 -0.013055297 -0.08613829
000010 d0 f5 08 be 51 87 82 be 11 57 24 3e 88 77 26 be
       -0.1337502 -0.25493863 0.16048838 -0.16256535
000020 29 60 2d be 53 c2 8c bc d9 b0 29 be b8 93 85 bd
       -0.16931213 -0.017182505 -0.16571368 -0.06522316
000030 f6 94 34 3c c8 c2 d1 3d ec 34 6c bd 1b e9 4e 3d
       0.011021843 0.1024223 -0.057667658 0.050515275

conv.2.weight f4 [32, 16, 3, 3]
000000 88 41 fb bd 3d 1a d8 3d e0 13 31 bd 52 c6 45 3e
       -0.122683585 0.105518796 -0.043231845 0.19313934
000010 5c f9 fe 3b bc 8e d4 3c 6f 88 02 3e b2 22 d3 3d
       0.007781191 0.025946967 0.12747358 0.10309352
000020 78 80 96 3c 93 b6 00 3e 1f da 90 3c d7 2e fe bc
       0.018371806 0.12569647 0.017682133 -0.031028194
000030 76 39 8a bc 61 b8 ad 3d cd 18 1d 3d b7 5e d2 3c
       -0.016873103 0.08482433 0.03835373 0.02567993
000040 8b 0e d0 bd 94 75 56 bd 16 f8 e3 3d 5d 7b 9f 3d
       -0.10159024 -0.052358225 0.11131303 0.077872016
000050 6f 78 b3 bd 4c 30 15 be 03 63 9e 3d 0e 43 c6 be
       -0.08763205 -0.14569205 0.07733729 -0.38723034
000060 07 25 dd bc 29 0c 5c bd 05 b8 88 3d 9b a9 a2 bc
       -0.026995195 -0.053722534 0.06675724 -0.019856265
000070 67 e7 fd bd a9 97 d8 bd 8c 80 b5 bd 1a 0b e5 bd
       -0.12397652 -0.10575802 -0.08862409 -0.11183758
000080 17 af fc bd 02 97 0f 3d 53 c9 33 3c 7e dc 3c 3e
       -0.12338083 0.03505612 0.010973292 0.18443486
000090 cb ad 40 bd b2 42 b7 3d 2e 40 85 3d 72 8c 57 3c
       -0.047040742 0.08948268 0.06506382 0.013156043
0000a0 2f af 12 be ee ea 09 be 99 68 44 3e 34 db d4 bd
       -0.1432464 -0.13468525 0.19180526 -0.10393372
0000b0 38 68 df bd dd 32 b1 3e 2e b1 a2 3c 3f f6 2e be
       -0.1090855 0.34609118 0.019859876 -0.17086123
0000c0 cb d4 04 3f e9 68 da bd cc f8 4a be c9 55 a6 3e
       0.51887196 -0.10664541 -0.19821471 0.32487324
0000d0 ef 59 36 3e 67 12 82 3d 03 b2 71 be 0a b1 60 3d
       0.17807744 0.06351166 -0.23603062 0.054856338
0000e0 b2 dd ff bd 7c 4c c1 3d 4a 9b 21 be 4e d8 9d bd
       -0.12493457 0.09438416 -0.15781894 -0.077072725
0000f0 99 85 f8 bc 7e df 12 3d 24 74 8a 3d 7d 19 41 3c
       -0.030337142 0.03585767 0.06760433 0.011785862
000100 18 2e 9d be 61 a9 1f bc d6 aa 24 3e 8a 8b e0 bc
       -0.3069923 -0.009744973 0.16080794 -0.027410287
000110 4d 46 48 3d ca 2d 5b bb b6 64 ef bd ef cc e6 bd
       0.04889517 -0.003344404 -0.11689131 -0.11269557
000120 8d 18 ab bd a1 13 bc bc 9a e9 a9 3e 27 b4 31 be
       -0.08354292 -0.022958579 0.33186036 -0.17353879
000130 0e 14 9b 3d be e9 c3 3d 29 88 35 3d c6 23 4e 3e
       0.075721845 0.09566067 0.044319306 0.20130834
000140 94 7d bc 3d 0f cc 50 3d c5 70 95 be d8 33 60 3d
       0.092036396 0.050975855 -0.291876 0.054736942
000150 58 b7 6d b8 f5 f6 c3 bd 6d 4e 9c bd f5 67 81 bd
       -5.6675955e-05 -0.09568588 -0.07632146 -0.06318656
000160 72 38 1b 3e 0f c8 d6 3d 3f 4f aa 3d 6e 64 00 bc
       0.15158251 0.10487377 0.08315896 -0.007836444
000170 48 3c 08 3e 22 3a 62 bd 70 3c 1c bc f0 22 c9 bd
       0.13304245 -0.05523122 -0.009535894 -0.09821117
000180 97 f0 b8 3c e6 1e a7 3d 7e 93 0a be 1a 3a fe bc
       0.02257566 0.0816019 -0.13532826 -0.031033564
000190 c4 a4 a8 bc 5b 82 a8 be f9 31 10 be 36 e5 ad bd
       -0.020586379 -0.32911953 -0.14081563 -0.08490984
0001a0 0e 4e 5c bd be 83 90 3d 70 58 11 be 2b 49 b8 bd
       -0.053785376 0.07056378 -0.14193892 -0.08998331
0001b0 01 a1 8c 3d a8 a7 93 3a 65 27 69 bc 9f 89 1d 3d
       0.068666466 0.0011265175 -0.014230584 0.038461324
0001c0 09 ae f3 bd 26 c2 c9 bc 90 9e 67 3d d9 5c 6a 3b
       -0.11898429 -0.02462871 0.0565477 0.0035760908
0001d0 78 d5 bb bc 50 82 90 bd ae 0d b0 be 25 33 46 3d
       -0.022928938 -0.07056105 -0.34385437 0.04838862
0001e0 95 fe 20 3c 70 99 93 3c a3 52 39 be 63 ae af be
       0.009826322 0.0180175 -0.1809793 -0.34312734
0001f0 19 92 83 3d 83 5f 8b bd ba 07 24 3e 93 e8 11 be
       0.0642435 -0.06805327 0.16018572 -0.14248876
000200 f6 ef ed bc eb 25 c0 3d 5e 95 ab bd c5 87 11 3d
       -0.029045086 0.09382232 -0.08378099 0.03552987
000210 3e 77 44 bd 19 77 cf bb 3a 72 00 3e 3f fb ec 3b
       -0.04796528 -0.006331336 0.12543574 0.0072320993
000220 98 2d cd bd ad 2d 9e 3d a2 be e5 3d 9d 39 bc 3d
       -0.10018462 0.07723556 0.11218001 0.09190676
000230 4d dd ed 3c 7f ab 65 3d 13 3d 8d be 49 dc 82 bc
       0.029036188 0.056071755 -0.27585658 -0.01597418
000240 8c b0 6b 3d 07 c8 02 be be 8f ee 3b e2 59 7c bd
       0.057541415 -0.12771617 0.007280319 -0.061609156
000250 bf 45 39 be 40 50 3b bd ed e9 dd ba 2a fb c7 bc
       -0.18093012 -0.04573083 -0.0016930677 -0.024411757
000260 0a c1 7c bd 44 bb 04 3e f1 9e 7a 3d d7 2d af bd
       -0.061707534 0.12962061 0.061186735 -0.08553665
000270 9c 9e 90 bf 4f 25 6a 3c a9 70 db 3b 6c 6f f5 bd
       -1.1298404 0.014291122 0.0066967797 -0.11984143
000280 96 da d5 3b 51 49 44 3b bf 5c 00 bd ce 60 f0 bc
       0.0065263016 0.0029950927 -0.03133845 -0.029343035
000290 87 80 78 3d 6b ff 22 3e 9e 45 cf 3d 43 f8 cd 3d
       0.06066945 0.15917747 0.101207 0.10057118
0002a0 5f 06 9a 3d 1d 76 cc bc c7 9b 8f bd 4f d2 ba bc
       0.075207464 -0.024958665 -0.07012134 -0.022805361
0002b0 4e 13 f2 bd fe 1a 4c 3c eb 34 20 bd fe 4e e6 3d
       -0.11820088 0.012457607 -0.039112967 0.11245535
0002c0 fb 72 31 bc 54 5f 95 be 6f 9e 69 bd 84 11 33 3e
       -0.010830636 -0.29174292 -0.05703586 0.1748715
0002d0 81 35 38 be 40 6d 27 be 8b d9 e3 be ff b2 0f be
       -0.1798916 -0.1635027 -0.4450191 -0.14033125
0002e0 c0 97 3a 3e 16 fe 97 3e 9f 0b bc 3d 7b 89 84 3c
       0.1822195 0.2968604 0.09181904 0.016178837
0002f0 de d1 14 bd 52 67 9d 3d 97 ae 06 bd b7 ce 73 bd
       -0.036332957 0.076857224 -0.032881346 -0.05952331
000300 5e 04 15 be 43 e5 ca ba eb f2 e3 be 44 03 bd be
       -0.14552447 -0.0015479702 -0.4452127 -0.36916554
000310 c0 d4 85 be 6c a9 2a 3e e8 50 17 bd e6 40 2f bd
       -0.26138878 0.16666192 -0.036942393 -0.0427865
000320 41 86 79 3d d6 ed 12 3c 4a 7e cf bd 62 3e 6d be
       0.06091905 0.008967837 -0.101315096 -0.23168328
000330 11 92 61 bc 49 45 bb 3c 32 b1 b1 3e 41 70 c0 bd
       -0.013767735 0.022860186 0.34705502 -0.09396411
000340 df c3 45 3d 37 cb de bd 7d df 42 3e 1f 78 81 bc
       0.0482825 -0.10878604 0.19030567 -0.015804349
000350 f0 de 1f be f3 63 c4 3d 19 cf 9e bd 43 01 83 bc
       -0.15612388 0.09589376 -0.077543445 -0.015991813
000360 6a dd 16 3d 84 e0 ed ba 95 41 a9 bd 87 f6 24 3e
       0.03683225 -0.0018148576 -0.08264462 0.16109668
000370 bf d4 1f 3e ce 3a b0 be f8 90 b0 3d 91 c7 28 3e
       0.156085 -0.34419864 0.086214006 0.16482379
000380 21 a6 f0 3d f7 59 16 3e 0c c5 18 3e 27 ea 6f 3d
       0.117504366 0.14682756 0.14918917 0.058572914
000390 5f 3e 56 3d 0c 04 3b 3e 5c f3 ff 3d 03 cb 0b 3d
       0.052305575 0.18263263 0.12497589 0.034129154
0003a0 1a 5d cd bd 48 e4 2c 3c 4f c8 c5 bd 15 2e ea 3d
       -0.10027523 0.010552473 -0.096573465 0.11434571
0003b0 f1 fa 3f be 9e 1b e0 bd 64 ed a0 3d d9 f0 ba 3d
       -0.1874807 -0.109427676 0.07857779 0.09127969
0003c0 7e 05 38 3d 7b 83 a9 bd 52 b7 bd 3d eb 63 39 3e
       0.044927113 -0.08277031 0.09263481 0.18104522
0003d0 f7 d5 8d 3e 6b d0 2c bc 99 80 a7 bc e1 fa f0 3d
       0.27702305 -0.010547738 -0.020447062 0.11766601
0003e0 7a e7 04 be 95 1d f8 3d 50 5a f7 3c 45 87 fc bd
       -0.12978926 0.12115017 0.030194432 -0.12330488
0003f0 13 7a a9 3d 37 e6 5c bc c0 41 63 3d 2c 43 8a 3d
       0.08275237 -0.013482622 0.055482626 0.06751093

conv.2.bias f4 [32]
000000 25 76 96 3d 65 06 0f bd 05 07 98 bd f0 62 b4 bd
       0.07346753 -0.034918208 -0.07423214 -0.08807933
000010 82 d7 44 3d f5 25 72 bd 9f bd b4 3d 7b 3f 96 bd
       0.048057087 -0.05911823 0.0882523 -0.07336327
000020 82 33 62 3d 20 ec a3 bd 69 23 cc 3c 3f 51 8e 3d
       0.055224903 -0.08004022 0.024919229 0.0694909
000030 19 6e 4e 3c 00 cd ca 3c 28 98 95 3d 5d a0 1d 3d
       0.0125994915 0.024755955 0.07304412 0.038483012
000040 7c 22 86 3d 69 dc b2 3c 59 9b 51 3d 60 cf a7 bd
       0.06549546 0.021833615 0.05117354 -0.081938505
000050 df d8 68 bd 78 61 d4 3d 0e 2a c9 bd 4f b5 c2 bb
       -0.05684745 0.10370153 -0.098224744 -0.005942024
000060 8e 53 c4 3d c4 b6 9b 3d 02 98 3c bd 55 3f 81 3c
       0.09586249 0.07603219 -0.046043403 0.01577727
000070 b2 eb 85 3d 02 13 9c 3d 96 d3 87 3c d0 c8 18 3d
       0.06539096 0.07620813 0.016580384 0.037300885

conv.4.weight f4 [64, 32, 5, 5]
000000 f0 07 8e 3d a6 bd b9 bc 30 6c 18 3e ac c1 3d 3d
       0.06935108 -0.02267344 0.1488502 0.046327278
000010 89 15 b3 bc ed 89 b4 bc d8 82 c1 bd 9b a8 73 3d
       -0.021860855 -0.022038424 -0.094487846 0.059486967
000020 83 f8 21 be ec 2c 17 3e 62 f3 38 3e 97 4e d0 3d
       -0.15817456 0.1476323 0.18061593 0.1017124
000030 a0 02 1e 3e 74 87 59 be a1 f8 ce bb 74 3d a6 3c
       0.15430689 -0.21243078 -0.00631626 0.020292975
000040 24 8b b4 bd d3 29 15 3d 70 4e c3 3d df 07 79 be
       -0.088156015 0.03641684 0.09536445 -0.24319409
000050 0b f8 c9 bd b6 61 06 be 7c 2e cb bb a8 62 dd 3c
       -0.098617636 -0.13123211 -0.0062006097 0.027024582
000060 03 11 90 bd 2e 5e 3a be 66 4a b0 be 52 56 17 3e
       -0.07034495 -0.18199989 -0.34431762 0.14779022
000070 8e ed 07 3e ac e0 aa bc 60 ce 2f be 6b 20 ff bd
       0.13274214 -0.020859085 -0.1716857 -0.12457355
000080 65 3f 80 be eb 5b 83 3d 31 84 f8 bc 0b 22 4a 3d
       -0.25048366 0.06414016 -0.030336471 0.049348872
000090 0d a7 89 be 91 ec 28 3e 46 6c 66 3e c5 1b 9c be
       -0.26885262 0.16496493 0.2250224 -0.30489936
0000a0 9d d3 23 bd c0 5d 1d 3d b0 65 3a 3e c3 f6 0f be
       -0.039996732 0.038419485 0.18202853 -0.14058976
0000b0 b9 ee f8 ba a1 d3 81 bc 29 5c b2 3d 3e e4 6f 3c
       -0.0018992043 -0.015847983 0.087089844 0.0146418195
0000c0 8f fd 53 bc 51 03 4e 3c dd eb dc bd ba b7 00 3c
       -0.012938871 0.012574033 -0.10787175 0.007856304
0000d0 6f 5b 8b 3c 7b bc 30 bd 13 bb 51 3c 7f 99 04 be
       0.017011372 -0.0431485 0.01280095 -0.12949179
0000e0 49 19 01 bd 64 91 03 be 92 01 d1 3d fa de 79 bd
       -0.031518254 -0.12848431 0.10205378 -0.061003663
0000f0 cf 80 35 be 37 67 13 be 12 f9 38 be 54 d0 2b bd
       -0.17724918 -0.14394842 -0.18063763 -0.041946724
000100 6c 7e 3e 3d 88 df c2 bd d5 7f 37 bb 26 71 0e 3e
       0.046507284 -0.095152915 -0.0027999778 0.1391035
000110 a6 bb 76 3d d7 00 4e 3d 63 e2 b0 bc 07 b5 d1 bd
       0.06023755 0.05029377 -0.021592325 -0.10239606
000120 d8 6b af 3d 53 35 a2 bd 4a 80 f4 bd ae f5 04 be
       0.085654914 -0.07920327 -0.11938532 -0.12984344
000130 48 62 cd 3c 5e 08 ea 3c 4e 6c c7 3c 4a 22 32 bb
       0.025071278 0.028568443 0.024343636 -0.0027181082
000140 a5 d1 50 3d 2f 75 2d 3d 5e aa b8 be 33 3d 98 3e
       0.050981183 0.042348083 -0.3606748 0.2973419
000150 5f 7a 01 be 27 e3 f0 bd 42 00 43 be 85 a5 75 3c
       -0.12644337 -0.11762076 -0.19043067 0.014993076
000160 dc f3 83 3d c7 ad 99 3d 42 0a 73 bd 9a 91 10 3e
       0.06442997 0.075038485 -0.059335954 0.14118043
000170 c9 90 a3 bd db 5d 22 be 39 97 c8 3c 77 34 2f 3d
       -0.079866 -0.15856116 0.024486171 0.042774644
000180 69 cb bd 3d 48 f8 dc 3c e5 2e 71 3d 33 cf 28 3d
       0.09267313 0.026973858 0.058882613 0.041213226
000190 0b e5 5c 3d 6b 5a 81 bd c2 ad 02 be 23 ae c4 bd
       0.05392937 -0.06316074 -0.12761596 -0.096035264
0001a0 88 8f ae 3c c7 41 25 bb 28 86 d0 bc b4 4b 3f 3d
       0.021308675 -0.0025216208 -0.025454596 0.046703056
0001b0 20 5d 2a 3d 3f 0a 35 3c ec 93 f1 bd 28 3a 4d 3e
       0.041592717 0.011049806 -0.11795792 0.20041716
0001c0 18 21 1c be 4e bb 80 3e 48 42 08 3d fb 4c 5b be
       -0.15247 0.25142902 0.033266336 -0.21416084
0001d0 84 7b 4b 3d 35 cc 3f bd 35 1c 8e 3d e5 21 b9 3d
       0.04967834 -0.046825606 0.06938974 0.09039668
0001e0 cc 94 0c 3d 0e d4 94 bd d0 76 48 3c 02 03 78 be
       0.03432159 -0.07267009 0.012235358 -0.24219897
0001f0 60 f3 21 3e cf 1b b7 3b 4e 2c b7 bd 2d bb 4e bd
       0.15815496 0.005588032 -0.08943997 -0.050471473
000200 72 04 3f be c0 01 b0 3d 6b 07 11 bd e2 c1 57 bc
       -0.1865404 0.08594084 -0.035407465 -0.013168784
000210 3a fa e4 3d cd 63 09 bd bc 0d 83 bd 38 a7 83 bd
       0.111805394 -0.033542443 -0.06399104 -0.06428379
000220 18 63 80 3e 47 92 e9 bc 1b 82 15 3d 0c 3a 58 bd
       0.25075603 -0.028512133 0.03650103 -0.052789733
000230 8b f0 0c 3b c7 db 15 be 60 da 11 3e cf 5f b7 bd
       0.002150568 -0.1463462 0.1424346 -0.08953821
000240 a7 44 ca bd df d4 a8 be 28 63 39 3e c4 92 d9 3d
       -0.09876376 -0.32974908 0.18104231 0.106236964
000250 92 93 da 3c 96 42 10 be a0 78 a1 be 42 7c b5 3d
       0.026681695 -0.140879 -0.31537342 0.08861591
000260 86 b6 0c be 76 69 be bc 7f 99 91 3d 6c 35 17 b9
       -0.13741502 -0.023243647 0.07109355 -0.00014420383
000270 87 30 73 bd 61 ef 62 3d 56 a1 41 be 94 d7 00 3e
       -0.05937245 0.05540407 -0.18909201 0.12582237
000280 a5 af 88 bd c5 dd c4 3d b8 06 e6 bd 8b ad c7 3d
       -0.066741265 0.09612612 -0.1123175 0.097498976
000290 31 ee 56 3e fc 93 c8 3c f6 3e e3 bd 93 e5 8e 3d
       0.209893 0.024484627 -0.11095993 0.069773816
0002a0 49 f9 9a be af 43 60 3e 84 b6 50 3e 7b 16 00 be
       -0.30268314 0.21900819 0.20382124 -0.12508576
0002b0 14 a7 38 3d 46 de 1a bd 47 63 33 3d 9c d6 3b be
       0.045081213 -0.037809633 0.04379585 -0.18343586
0002c0 8e c7 43 bd 63 fc cc 3d ba 53 5f 3c 47 1a 19 bb
       -0.047797732 0.100090764 0.013630802 -0.002336161
0002d0 60 52 9c bd e8 0e 27 3d 65 8c 71 3c ad b6 f4 3d
       -0.07632899 0.0407857 0.014742945 0.11948905
0002e0 2b a9 14 3e e7 7c 0f bd bf e7 63 3e 37 61 8e 3d
       0.14517657 -0.035031226 0.22256373 0.06952136
0002f0 0c 3f bf bd 6c 86 e8 bc 44 5c 28 be 9c f6 0d be
       -0.09338197 -0.02838441 -0.16441447 -0.13863605
000300 82 5d 92 3e 02 e9 8e be e7 47 26 3e 46 29 2a be
       0.28586966 -0.27912146 0.16238366 -0.16617307
000310 75 34 e6 bb c4 fe 4d be b3 35 e0 bd df a4 ec bc
       -0.0070252963 -0.20116717 -0.10947742 -0.02888721
000320 78 f7 27 be 87 23 82 bc 6a 92 a1 3d c4 4b 56 be
       -0.16402996 -0.015886081 0.078892544 -0.2092734
000330 c7 01 95 3d 86 79 8d 3d 00 2e 00 3e 78 a0 e0 bd
       0.072757296 0.069079444 0.12517548 -0.10968107
000340 85 86 23 be b0 fa 19 3d 54 67 e6 bc 0c 0a 09 be
       -0.15969284 0.03759259 -0.028125443 -0.13382739
000350 0f 24 81 3d 13 65 4c bd 93 e1 b4 3d 8c 8f 2e be
       0.06305706 -0.04990108 0.08832087 -0.17046946
000360 73 e8 22 3e 9a 5a 14 3e dd fc 68 3e 04 40 b0 bd
       0.15908985 0.14487687 0.2275271 -0.0860596
000370 87 e9 aa 3d 2d bc 94 bd 96 53 17 3d 4a 29 cc 3d
       0.08345323 -0.07262454 0.036944948 0.09968813
000380 6d 09 a0 3a b1 77 de bd 97 7c bd 3d 2e ae 07 3e
       0.001220984 -0.10862673 0.09252279 0.13250038
000390 ab e0 35 3e 05 a1 f8 3c 76 fb f9 bd 3c c4 05 bc
       0.17761485 0.030350218 -0.122061655 -0.008164462
0003a0 2e 4f 8f bc 95 d2 b0 3d 2b 15 56 bd a3 28 de bd
       -0.01749381 0.08633915 -0.05226628 -0.108475946
0003b0 f8 e4 24 3c 5a 6f d2 bc 9b fc 35 bd b2 3b 2d be
       0.010064356 -0.025687862 -0.044430356 -0.16917303
0003c0 dd db 45 3d da 09 c5 bd 4e a6 db 3d e2 ce ce 3c
       0.04830538 -0.0962102 0.107250795 0.025245134
0003d0 76 42 2e bd 09 8c bc 3d 39 90 75 3d 72 b5 0d bd
       -0.04254385 0.09206397 0.059951995 -0.034596868
0003e0 ca 02 af bd 9c e8 b4 3d 49 5c 32 bd 87 22 68 3d
       -0.08545454 0.08833429 -0.04354504 0.056673553
0003f0 28 cb 85 3d a8 68 bf bc e2 14 cc 3d 74 6c c5 3d
       0.065328896 -0.023365334 0.099649206 0.096398264

conv.4.bias f4 [64]
000000 80 e9 24 bc 95 71 03 bd 26 c4 91 3d ba 23 39 3c
       -0.010065436 -0.032090742 0.071174905 0.011300022
000010 34 e0 9c ba 65 ef 83 bd 32 4a f3 bc e8 67 24 bd
       -0.0011968673 -0.06442145 -0.029698465 -0.040138155
000020 fc a3 59 3d 23 37 26 3d 81 de 0d 3d c1 eb 32 bd
       0.053134903 0.040579926 0.034636024 -0.043681864
000030 af 72 8d bc c6 80 06 bd f0 18 da bc 5d 65 d5 3c
       -0.0172666 -0.03283765 -0.02662322 0.02604931
000040 59 ac ea bb 31 f9 d8 bc 39 75 28 3d 8f 64 19 bd
       -0.0071616587 -0.026486011 0.041127417 -0.037449416
000050 65 68 83 3d 07 28 33 bd 60 75 05 bd b1 b2 9b bc
       0.06416396 -0.043739345 -0.03258264 -0.019006105
000060 f8 9a e6 ba 3d 08 44 3d b6 6a 30 bd 05 48 96 3d
       -0.0017593792 0.04785942 -0.043070517 0.073379554
000070 ff 78 99 bc 68 41 98 3b c2 ce 0b bd 86 dd 1d bd
       -0.018734453 0.004646469 -0.034132726 -0.03854134
000080 a6 34 0e bd 64 32 99 bc 8e 77 9e 3b 24 d7 80 3d
       -0.03471818 -0.018700786 0.0048360294 0.06291035
000090 cf a1 14 bc 82 6c 56 3d f0 51 98 3b 9d 4c 29 bd
       -0.009071781 0.052349575 0.0046484396 -0.04133283
0000a0 19 39 81 3d 5f fa 94 bb fd 1e 1c bd 07 90 09 bd
       0.06309719 -0.004546448 -0.03811549 -0.03358462
0000b0 81 b6 1b 3c b1 ca 04 bd 7b e2 f3 bb 96 13 b8 3d
       0.009503962 -0.032419864 -0.00744277 0.08988111
0000c0 3e 12 f4 bc a6 8a c2 bb 60 43 e3 3b 82 87 a2 3c
       -0.029793855 -0.0059369383 0.006935522 0.019840006
0000d0 36 54 d5 3c c2 9d 00 3d fb 7c c2 3c 18 7a a1 3c
       0.026041131 0.03140045 0.023741236 0.01971154
0000e0 d8 fe c3 3c 3a 9d 60 bd 9f a5 fc 3c 62 5e 3f bd
       0.02392523 -0.054837443 0.030840693 -0.04672087
0000f0 63 ab 4c 3d e5 25 ef 3c df ad 3a bd 27 7e 59 3d
       0.049968135 0.029192874 -0.045575973 0.053098824

conv.7.weight f4 [64, 256]
000000 2e 6b 17 bd 4a ad 93 bd 2e 96 00 3d 63 e3 32 3c
       -0.03696745 -0.07210787 0.031393223 0.010918471
000010 68 1b f8 3c 28 49 34 bd b2 57 67 3d ac b3 75 bd
       0.030286506 -0.04401508 0.056480117 -0.0599858
000020 00 44 17 bc 44 6a 80 bd 5b df b7 3c 4e b1 35 bb
       -0.009232521 -0.062702686 0.022445371 -0.002772409
000030 be ae 7b bd a0 eb ff 3c 10 c8 f9 3b 28 74 23 3d
       -0.061445944 0.031240284 0.0076227263 0.039905697
000040 38 12 90 bc 32 33 50 3d f8 b3 28 3c 6a c3 37 bd
       -0.017586812 0.050830074 0.010296814 -0.044864096
000050 af 7c 5f 3c 7e c0 2f 3b 58 ad ad 3c 2e f7 02 bd
       0.013640567 0.0026817615 0.02120082 -0.03197401
000060 10 4e b6 3c 10 60 15 3d 14 03 45 bd 88 81 7a 3c
       0.02225402 0.036468565 -0.04809864 0.015289672
000070 48 b0 64 3c 20 03 45 bd 1c 79 c0 bc b8 47 59 bc
       0.013958044 -0.048098683 -0.02349525 -0.013261728
000080 bb 98 51 bd d3 4b f8 bc ef e4 1c bd 9d 35 0e bd
       -0.051171046 -0.030309593 -0.038304266 -0.0347191
000090 56 80 56 3c ac a2 53 bd 22 77 95 bc 9c bb b5 3a
       0.013092121 -0.051668808 -0.018245284 0.0013865116
0000a0 58 fa 71 bc 22 e7 a3 bc ad 42 84 bd e4 be e4 ba
       -0.014769159 -0.020007674 -0.0645803 -0.0017451909
0000b0 54 92 bf 3c 58 9d 86 3c 9e d1 00 3d 10 6f ed bc
       0.023385204 0.01643245 0.031449907 -0.028983623
0000c0 60 0b e3 bb 80 8e 7e 3b e0 0e c6 3b e4 3e 2a 3d
       -0.0069288462 0.003884226 0.0060442537 0.041563883
0000d0 3c 29 5a bd 5e d0 39 3d f8 2d 19 3c 18 ca 11 bd
       -0.05326198 0.04536473 0.009349339 -0.035593122
0000e0 5a d4 16 bd e1 de 51 bd eb 42 47 bd 50 7b 70 3d
       -0.036823608 -0.051237945 -0.048647802 0.05871135
0000f0 12 9a 63 bc 89 0b f0 bc 9c be 1b 3b 6b 5d 10 bd
       -0.013891714 -0.029302375 0.0023764735 -0.03524534
000100 e0 63 55 bd 9c 5e b5 bc 40 83 a9 ba d6 e8 1f 3d
       -0.0520972 -0.02213984 -0.0012932792 0.03904041
000110 86 76 75 bd 68 1a 19 bc f0 6d 30 3d 0c a2 77 bd
       -0.059927486 -0.009344675 0.043073595 -0.060457274
000120 f3 ff 28 3d cc 8a 2f 3d 00 8d 79 bc 00 46 12 b9
       0.041259717 0.042856976 -0.015231371 -0.00013949722
000130 e2 32 04 bd e8 7f ad bc 00 18 45 b8 7e 0d 5f bd
       -0.032275088 -0.021179155 -4.6990812e-05 -0.054456227
000140 f7 72 29 3b 82 b9 88 bd 12 7f 85 bd a8 ac 2d 3d
       0.0025855878 -0.06676008 -0.06518377 0.042400986
000150 1c 17 b7 bc 04 2b 23 3d c8 f7 24 bc 4e ef 35 bd
       -0.022349887 0.039835945 -0.010068841 -0.04441767
000160 32 44 5c bd 28 f9 8c 3c 80 f7 2b 3b 58 59 5e bd
       -0.053775974 0.01720865 0.002624005 -0.054284424
000170 08 7a 2a 3d 9c e7 d4 3c ce e1 1c bd 58 d5 01 bd
       0.041620284 0.025989346 -0.03830128 -0.0316976
000180 c2 38 b5 3c a0 f8 7e bc e0 b6 53 bc 7c 9a 89 bd
       0.02212179 -0.0155622065 -0.012922019 -0.06718919
000190 72 a6 25 bd 6f 16 e4 bc 46 d1 ed 3c e5 15 77 bd
       -0.040441938 -0.027842728 0.029030453 -0.060323615
0001a0 b8 70 b4 3c 4e f9 76 3d f8 cf c8 3c 28 b5 33 bc
       0.022026405 0.06029635 0.02451323 -0.010968484
0001b0 e3 c5 19 3b 98 17 93 bc a5 91 2e bd c7 97 a1 bc
       0.0023463897 -0.017955586 -0.042619366 -0.019725693
0001c0 5a f9 34 3d 50 ac 56 3c 80 a9 81 3a 44 88 a3 3c
       0.044183113 0.013102606 0.0009892434 0.019962437
0001d0 39 ea d7 bc 90 89 e0 3b 93 69 b0 3c 84 44 46 3c
       -0.026356803 0.006852336 0.021534717 0.012101296
0001e0 80 3d 58 bb 60 13 4a 3b 00 df 30 3d cc ff ab bc
       -0.0032995641 0.0030834302 0.04318142 -0.020995997
0001f0 b0 f4 21 3d 01 1b 54 bd af 96 68 bb 70 a4 1c bd
       0.039539993 -0.051783565 -0.0035490205 -0.038242757
000200 50 6d 81 bc f0 46 9a 3c 34 3f 26 3d f2 10 28 3d
       -0.015799195 0.018832654 0.04058762 0.041031785
000210 e0 5b 4b 3d dc a2 f0 3c d0 8c d5 bb 7a 63 68 bd
       0.049648166 0.029374532 -0.0065170303 -0.056735493
000220 b8 21 7d bd 5e c1 17 bd 10 ab 4a bc 00 06 5c 3b
       -0.061799735 -0.037049644 -0.012369886 0.0033572912
000230 98 fe 2e bd b4 61 60 bd 70 a7 e9 bb 40 6c 6c 3c
       -0.04272327 -0.054780677 -0.007130556 0.014430106
000240 d2 7f 03 bc cd f5 b7 bc b8 36 18 3d 15 12 13 bd
       -0.00802608 -0.022456074 0.03716156 -0.035905916
000250 7d 17 7c bd 72 5b 7b bd d1 49 06 3d 00 a1 61 38
       -0.061545838 -0.061366506 0.03278524 5.3794123e-05
000260 4b 6b 1e bc ce 56 15 3d 64 b9 46 bd a8 a2 45 bd
       -0.009669135 0.036459737 -0.048516646 -0.048250824
000270 de a6 2c bd b6 3d 17 bd 64 18 cf 3c 80 bf 22 3b
       -0.042151324 -0.036924087 0.025280185 0.0024833381
000280 5f 00 e7 bc 2f e1 98 3c f9 3d 23 bc 9a 99 86 3c
       -0.02819842 0.018662063 -0.009963506 0.016430665
000290 4c cb 19 3d 04 9e e7 bb e0 24 cc ba c8 6c 40 bd
       0.037547395 -0.0070683975 -0.0015574954 -0.046978742
0002a0 a0 83 ba 3b ee 17 23 3d 10 90 8d 3b f8 fd 06 3c
       0.0056919605 0.039817743 0.004320152 0.008239262
0002b0 60 2c 82 3c b0 24 3e bd b8 57 df bc 4a b1 11 3d
       0.0158903 -0.046421707 -0.027263507 0.035569467
0002c0 5c 6e 6a 3d b4 50 60 bd 6a 89 02 3c 20 64 de bb
       0.057234153 -0.054764464 0.007967332 -0.006786838
0002d0 42 b3 5a 3d d2 d2 79 3d 24 ae be 3c 20 3d 05 bd
       0.05339361 0.06099207 0.023276396 -0.032528996
0002e0 2e 3f 24 bd 78 5b 26 3c 13 29 24 3d 0e 80 f3 bc
       -0.040099315 0.010153644 0.040078234 -0.029724147
0002f0 2c 0f b3 3c ee a1 2c 3d e8 b3 67 bd d3 c0 43 bd
       0.02185782 0.042146616 -0.056568056 -0.047791313
000300 30 f9 0c 3d 92 31 15 3d 80 6d 20 bd 10 e3 d2 bb
       0.03441733 0.036424227 -0.039166927 -0.0064357594
000310 14 68 18 3d f4 86 bf bc 3c 06 40 bd c0 53 1f 3c
       0.03720863 -0.02337978 -0.046880946 0.009724557
000320 a0 b5 11 bc 58 04 35 bd e4 7f 6c bd 90 a7 48 bd
       -0.0088934 -0.044193596 -0.057739154 -0.048987925
000330 6e 35 7e bd 04 cf fd bc ca 11 06 3d 14 40 6d 3d
       -0.062062673 -0.030982502 0.03273181 0.057922438
000340 a8 f9 48 3c 71 5c 0f bd c7 29 d0 bc 08 73 1e bd
       0.012266554 -0.03500027 -0.025410546 -0.03868392
000350 25 d7 19 3d c4 3c 76 bb 30 9d 2a 3d 1e 1a b3 bc
       0.037558693 -0.003757284 0.041653812 -0.02186304
000360 d6 e6 f3 bc 04 57 ff bb 3d ef f1 bc 10 ec d1 bc
       -0.029773157 -0.0077923555 -0.029533023 -0.025625259
000370 cc 67 2c bb ac 5b 60 bb 76 7c 00 3d c0 f1 8a bd
       -0.0026306985 -0.0034234328 0.031368695 -0.067843914
000380 50 e6 de 3c 38 d6 ff 3c 84 15 63 3d c0 38 45 bd
       0.027209431 0.031230077 0.05544044 -0.048149824
000390 b6 c0 6d bd dc 74 56 bd fa c0 69 bd 2c b9 89 3c
       -0.05804511 -0.05235754 -0.057068802 0.01681193
0003a0 d6 d1 82 bd c9 58 88 bc 34 3d e1 3c 24 df 60 bd
       -0.06387679 -0.016643899 0.027495004 -0.054900303
0003b0 27 c2 68 bd e4 f7 1b bd d0 a7 ab bc c8 9e d3 bc
       -0.056825783 -0.038078204 -0.020954043 -0.025832549
0003c0 00 89 83 3b 00 7a eb 3c 94 41 bf 3c 04 5c 3e 3c
       0.0040141344 0.028744698 0.0233467 0.011618618
0003d0 a4 cc 4a 3c a0 bf 0e bb 14 6f 6e bc b1 a0 57 bd
       0.012377892 -0.0021781698 -0.01455285 -0.05264348
0003e0 dc 80 a9 3b 9c e6 ea bc 31 ab 38 bd a4 97 00 3d
       0.005172832 -0.028674416 -0.045085136 0.031394616
0003f0 3a 65 4c 3b 4e 29 59 bd 91 ef b2 bc 00 4b 1c 39
       0.0031188265 -0.053017907 -0.02184275 0.00014905259

conv.7.bias f4 [64]
000000 1a 82 2a bd da f5 2a 3e be 19 38 3d 5b 40 1a 3e
       -0.04162798 0.16695347 0.044946425 0.15063612
000010 63 b7 db 3d 0e 4d c6 3d a1 a8 40 bd c1 e0 61 bb
       0.107283376 0.09682666 -0.047035817 -0.003446624
000020 07 78 2a 3d 40 bf 45 3d 82 14 7c bd be e9 8a bc
       0.041618373 0.048278093 -0.061542995 -0.01695716
000030 74 89 42 3d 15 ee 69 3d 00 68 41 3e c1 0d b9 bd
       0.047494367 0.05711182 0.18887329 -0.090358265
000040 97 aa e3 3d 9c 90 69 3d 2b 5c 4d 3e 0d 57 79 3c
       0.11116522 0.057022676 0.2005469 0.015218508
000050 70 39 5a bd 95 6f af bc 04 8e 0b 3c 50 1b 84 3d
       -0.053277433 -0.021415511 0.008517746 0.06450522
000060 33 12 6d 3d 97 c5 77 3d 53 32 fa bc 1a 62 2b bd
       0.057878684 0.06049117 -0.030541575 -0.041841604
000070 32 a7 15 3b bd 03 28 3d 1e 21 33 3c 67 dd 1a 3b
       0.0022835252 0.04101919 0.010933189 0.0023630501
000080 76 9e 15 bb 24 41 a2 3d b1 96 37 bc 97 f6 80 bd
       -0.0022830046 0.07922581 -0.011205361 -0.06297033
000090 87 56 03 bd c9 9a cb bc 5a 25 a8 3d b4 9f 8f 3d
       -0.03206494 -0.02485408 0.08210249 0.07012883
0000a0 09 ba 62 3c db 32 dd b9 8e e1 10 bd fa 6b a3 3c
       0.0138383 -0.00042190295 -0.035371356 0.019948948
0000b0 3d 67 91 3d e0 c2 eb 3d bd e3 17 3c 65 55 bd 3d
       0.07099769 0.11511779 0.009270606 0.09244803
0000c0 77 e0 8d 3d d2 89 fe 3c 94 57 29 bd 02 9c 61 3c
       0.06927579 0.031071577 -0.041343287 0.013770105
0000d0 1c 84 9c bb 8e e0 4a bd 57 54 ba 3d 28 01 ec bc
       -0.004776491 -0.04953056 0.09098118 -0.028809145
0000e0 2f c3 9a bd e6 5c ad bd 7a 0c 27 3e 71 40 6f 3c
       -0.075567596 -0.084649846 0.16313353 0.014602766
0000f0 78 c6 02 3e c8 bd c3 bc b2 ec e9 3d a4 dd 65 3d
       0.12771022 -0.023894206 0.11422099 0.056119576

out.weight f4 [4, 64]
000000 c8 e3 a9 3d 2d ba de 3e 71 68 d8 bc e3 0b da 3e
       0.08295399 0.43501416 -0.026416989 0.42587194
000010 4f c2 96 3e 44 6d 9c 3d 73 df 05 be fc 12 89 3e
       0.2944512 0.07638028 -0.1307352 0.26772296
000020 6a 31 68 bd 99 9a cb 3e be fb 86 3d e2 c8 c8 3d
       -0.05668775 0.39766386 0.06590985 0.0980394
000030 0c da bc 3e ac ad 52 bd cd cd 5c bc 30 03 1c 3e
       0.36885107 -0.051435158 -0.013476801 0.15235591
000040 05 ed 91 be b0 eb bd 3e 36 c0 47 3e 9e d0 7d 3e
       -0.28501144 0.37093878 0.19506916 0.24786612
000050 e8 20 e9 3d 14 a6 25 3d b9 78 8f 3e 17 9d 14 3d
       0.113832295 0.040441588 0.28021792 0.036282625
000060 65 d8 7b bd 10 37 04 bd fc 23 a0 3e e2 07 ba 3d
       -0.061485667 -0.032279074 0.31277454 0.09083535
000070 76 71 3c 3e 0c fe 14 be 93 03 59 3e a2 17 d8 bd
       0.18402657 -0.14550036 0.2119277 -0.105513826
000080 bb 0c 29 be a1 fd 88 3e 52 32 4d 3d 97 11 e7 bc
       -0.16508763 0.26756003 0.050096817 -0.02820663
000090 10 2e cf 3e 52 be f3 be fc 4c 3f be 47 50 fc bd
       0.4046483 -0.4760614 -0.18681711 -0.12319999
0000a0 8f 71 31 3e 3a 38 8f 3e f7 fe 86 3d 07 79 0a 3d
       0.17328475 0.27972585 0.065915994 0.033806827
0000b0 f6 ae 46 bf 2d 3a 1d bf f7 ef 3e be ed 4b 26 bf
       -0.7761072 -0.61416894 -0.18646227 -0.64959604
0000c0 94 f1 a6 be 67 7c f3 3d 07 4a 09 bd 1a fc 0e be
       -0.32606184 0.11888962 -0.033517864 -0.13963357
0000d0 f5 23 2f be 6c 85 b9 3c 41 8a db be a8 85 ed 3d
       -0.1710356 0.022646628 -0.42878917 0.115977585
0000e0 7f 88 47 bd a8 99 44 bb f0 6e 31 3e 76 63 76 be
       -0.048714157 -0.0029998813 0.17327476 -0.24061379
0000f0 7f 15 4f 3c e2 1a 82 3d 34 0b e0 3e ff 81 27 be
       0.012639402 0.06352784 0.43758547 -0.16358183
000100 40 a9 9c bd 97 2c 42 3d ca 39 b2 3e a9 83 0d be
       -0.076494694 0.047405805 0.34809715 -0.13819756
000110 a0 22 d8 3e 4c 7d 96 3e 1f 01 f0 3d ab 47 3b be
       0.42213917 0.2939247 0.11718964 -0.18289058
000120 33 bb 08 bf 1f d1 e1 3e 9b 45 8e 3c e1 87 fb 3c
       -0.53410643 0.4410486 0.017367175 0.03070444
000130 ed ff fd 3e 41 bd 89 3e 4e 83 8d 3d fc c3 8b bc
       0.49609318 0.26902202 0.0690981 -0.017061226
000140 65 4d 92 3d 00 cc fa 3d 94 21 e6 3e 1c 8a 5f bf
       0.07143668 0.12245941 0.44947493 -0.87320113
000150 d9 0c 3c be e2 1a e0 3e f0 87 b3 3e 73 6b 2f be
       -0.18364276 0.4377051 0.3506465 -0.17130832
000160 07 57 f8 be 1d d3 05 be 3e 40 57 3c 3b 8b c5 3d
       -0.48503897 -0.13068815 0.013137875 0.09645697
000170 89 fe 60 bf ff 4d 58 bd 84 af 65 3c d5 09 49 3d
       -0.8788839 -0.052808758 0.014018897 0.049081642
000180 64 39 27 be 01 a8 28 3f c3 c3 a3 bc 03 af ba bd
       -0.16330487 0.65881354 -0.019990807 -0.09115412
000190 92 95 4e 3c 81 f1 cb 3d 8b 10 ae be 21 de 5c bd
       0.0126089025 0.099581726 -0.33996996 -0.053922776
0001a0 dd 91 63 3d 78 92 82 3c 61 b2 9c 3d b1 0f 05 be
       0.055559028 0.015938982 0.076512106 -0.12994267
0001b0 54 d3 f3 3d 8d b8 d0 bc 6b 58 1e be f3 7f d0 3d
       0.11905542 -0.025478626 -0.15463416 0.101806544
0001c0 d7 d4 02 be fe a0 44 3e 80 f9 b7 bd 40 56 f9 3e
       -0.12776504 0.19202039 -0.08983135 0.48698616
0001d0 1b cc e0 3d a5 0b 9f b9 d1 f6 a1 3e 25 3e 62 be
       0.1097643 -0.0003033552 0.31633618 -0.22094019
0001e0 a9 63 ad 3d 4b 4a dd be 4c f1 9c bd 61 1c 91 3e
       0.08466274 -0.43220744 -0.07663211 0.28341964
0001f0 fb 51 a4 3e 70 ac e0 bd 1e ee d3 bb 56 5c 7c bc
       0.32093796 -0.1097039 -0.0064675948 -0.015402874
000200 af e7 a8 3d 9f 53 de 3c 6b 98 b6 be 50 8e 24 3d
       0.08247315 0.027139483 -0.3566316 0.040174782
000210 1e c9 9d bd d9 68 8a bd ae de 13 be 59 1f 8b bd
       -0.07704376 -0.06758279 -0.14440414 -0.067930885
000220 1d 8a 1e 3e 51 fe d6 3d 0c 36 bd bd 0a f4 11 3e
       0.15482374 0.10497726 -0.09238824 0.1425325
000230 f4 09 b5 3e ec 9d 81 3e 12 53 1f 3d 1c 57 08 bf
       0.35359156 0.25315797 0.03889758 -0.5325792
000240 9c b6 6e 3e b6 6d 07 3f 8c f7 c3 3e 39 31 2d 3e
       0.23311847 0.5290178 0.382748 0.16913308
000250 03 b1 c9 3d 90 5b 91 3d 6a df d5 3e ed e6 83 3e
       0.098482154 0.07097542 0.41772014 0.2576212
000260 5b 35 60 3c 96 af bf be cd 1a d4 3d 87 34 08 3d
       0.013684596 -0.3743865 0.10356674 0.03325322
000270 80 d2 63 bd ec 7c 3d 3e de a6 a0 3e 33 98 b4 3d
       -0.05562067 0.18504685 0.3137731 0.08818092
000280 c6 59 f8 bc 56 d4 60 bd 8b ac 70 3d 99 9f 13 3f
       -0.030316245 -0.05489 0.0587583 0.576654
000290 e0 b5 ab 3d 26 84 44 3c ee 3c 79 bc 57 65 ca bd
       0.08384299 0.011994397 -0.015212281 -0.0988261
0002a0 40 f1 a3 bd a9 6b 54 bf 09 2f 87 bd b8 53 b7 3d
       -0.08004999 -0.82976776 -0.06600768 0.08951515
0002b0 7f 12 6f 3c 67 e7 03 3e 34 01 fe bc 4c ac 08 bd
       0.014591812 0.12881242 -0.031006433 -0.03336744
0002c0 cd 16 71 3e 8d d2 82 bf 07 78 2b 3e c5 ed c6 be
       0.23543854 -1.0220505 0.16745006 -0.3885328
0002d0 66 2f ca 3d 2b 67 2c bd 41 2d 18 3f 29 44 40 be
       0.09872322 -0.042090576 0.5944405 -0.18776001
0002e0 d1 44 d6 3d 2c 4e da 3e f6 94 f9 3e 58 07 38 be
       0.104623444 0.42637765 0.4874646 -0.17971551
0002f0 90 c1 f9 3e 58 8f 66 be ab 65 49 3c 71 7c f8 be
       0.4878049 -0.22515619 0.012292306 -0.4853244
000300 f2 b5 80 3d 66 48 1d be 56 48 56 3d 6e a8 d7 3e
       0.06284703 -0.15359649 0.05231508 0.4212069
000310 35 5f d9 3d 29 d6 ef bc 2b cd 08 be 8d 33 ab 3e
       0.106138624 -0.029276924 -0.13359515 0.33437768
000320 41 4b c3 bd 7d 5b c5 3e be 88 ff 3c 9e 0a 8c bd
       -0.09535838 0.38546363 0.031193133 -0.068379626
000330 af a6 86 3e d0 33 80 3e cc 11 e3 3e 52 6d 34 be
       0.26299044 0.2503953 0.44349515 -0.17619827
000340 75 3e fb bd b4 ed 2e 3e 09 64 9f 3e 2d 11 0b 3e
       -0.12267772 0.17082864 0.31131008 0.13580771
000350 2c a9 c0 3e 0f aa 0f bf 34 51 ab 3e 8a 9a 10 3f
       0.37629068 -0.56118864 0.3346039 0.5648581
000360 62 fd f1 bb 92 ce 37 be e7 40 2b 3e cc e5 43 3d
       -0.007384942 -0.17949894 0.16723977 0.047826573
000370 fb f3 ba bc a3 b7 0c be b4 4e 38 bf b6 a0 56 be
       -0.022821417 -0.13741927 -0.7199509 -0.20959744
000380 2d 7f 5c 3e c5 32 5b be da 3a c3 3d 90 1f 80 be
       0.21532889 -0.21406086 0.095327094 -0.2502408
000390 30 bb df 3e e9 07 f6 3d 42 7e a7 3e f6 7b da be
       0.436975 0.120132275 0.32713515 -0.426727
0003a0 73 49 18 bf bb c7 20 3d 6c a4 02 be 83 ed 07 bf
       -0.59487075 0.039252978 -0.12758034 -0.5309679
0003b0 d1 09 4a 3e 42 46 08 bc ee 98 40 bd 84 bc b8 3c
       0.19730307 -0.008317532 -0.047020845 0.022550829
0003c0 53 1e b4 3d 93 30 2d 3e 90 f3 fe bc a3 d6 d3 3e
       0.087948464 0.16913061 -0.031121999 0.41374692
0003d0 81 5f 95 bd 5d e6 f6 3c c2 2f 03 3d a9 e9 1e be
       -0.072936065 0.030139143 0.032027967 -0.15518822
0003e0 e6 00 c8 3d aa 6e 1d be 4a 26 c0 3b 6c c4 96 bd
       0.09765796 -0.15374246 0.0058639394 -0.07361683
0003f0 1c 87 1d 3b 16 09 e2 3e 61 21 04 be 7b 1a 4c 3e
       0.002403683 0.44147557 -0.12903358 0.19931976

out.bias f4 [4]
000000 31 88 63 3e 2a cd 4d 3e 52 68 56 3c 5c 9b bf 3d
       0.22219922 0.20097795 0.013086395 0.09355804
