models/v17.1/model_435000_target.pth (torch, 295191 bytes, 10 tensors)

conv.0.weight f4 [16, 2, 3, 3]
0.12850274 -0.0036747179 -0.23158737 0.301099 -0.10779037 0.12570235 -0.3754897 0.4449257
0.08080399 0.010567047 -0.010915736 -0.011451934 -0.096683 0.10530404 -0.008643062 -0.014061574
0.04106495 0.0041689365 -0.21919246 0.27730703 0.013624623 0.21895085 -0.17860927 0.22625493
-0.76930004 -0.58063686 -0.0682577 -0.9774748 0.69093907 -1.2401901 0.20618735 -0.17189224
0.2113893 -0.008625444 -0.009569559 0.08299807 0.020570183 0.20660357 0.07767747 -0.060138118
0.2504008 -0.08535036 0.23018888 0.16848166 0.0694622 0.07525559 0.14446841 -0.0013847471
0.2436537 0.013112375 -1.4387025 -0.011878096 -0.28289458 0.023724698 -0.02265158 0.13780868
0.0005372277 0.11717125 0.118323855 -0.70576704 -0.35856837 -0.44786057 0.19113137 -0.063526414
0.0010106034 -0.025291847 0.33005443 -0.100701295 -1.0227698 -0.28100207 0.38629538 0.12142644
0.17111216 -0.08644193 -0.11912613 -1.1671944 -0.1325777 0.10210623 0.024833364 0.5028794
-1.0775688 -0.26109457 0.25102815 -0.32747075 0.22464284 -0.018404074 0.19089669 0.038093302
-0.035626948 0.0151403565 -0.044545088 -0.17940795 0.4679816 0.28667954 -0.098018736 -0.20929186
0.76905966 -0.42474845 0.40750998 -0.3375879 -0.04827572 0.09193255 0.12979764 -0.3572225
-0.042674556 0.026263462 -0.14799812 -0.27733907 -0.8488989 -0.11125328 0.26144275 0.1907934
0.05447869 -1.0122143 -0.28836784 0.14111593 -0.257275 -0.0841484 -0.049983177 -0.054968923
0.11007633 -4.3127897e-05 0.052092835 -0.54571354 -0.06255375 -0.17127502 0.27142838 -0.1847561
0.53159225 -0.14129749 0.26766172 0.14878196 0.034387548 0.38283676 -0.102797806 -1.5097032
-0.70517206 -0.8543617 0.10642148 0.02280708 -0.09978005 -0.09534592 0.07366172 0.017485129
-0.016855843 0.08105745 0.023194514 0.4125152 0.035005435 -0.1612963 0.24820985 -0.43813413
0.028428009 -0.37794602 0.5969196 -0.4917086 0.058088757 0.29895702 0.0021548863 -0.3128811
0.46977484 -0.01491134 0.0038391661 0.01768452 0.03175918 0.021563457 -0.12578326 0.24645518
0.33340722 -0.11010463 -0.148619 -0.029491669 0.17435342 -0.12060728 -1.6447713 -0.050855868
-0.043423805 0.18647508 0.329497 -0.2044478 -0.16013943 0.13801338 0.06575046 -0.12266097
0.027434394 0.08993638 0.6438342 -0.42604843 -0.038236152 0.12351017 -0.28914693 -0.10190174
1.047509 -0.02980098 -0.06748336 0.18768257 0.014013457 -0.13767353 0.15743126 0.11459152
-0.37210044 -0.113102704 0.10173482 0.22389223 -1.2509288 -0.1283563 -0.12016055 -1.3881732
-0.27762508 0.2986943 0.16989537 0.24417865 -0.24878389 0.14132738 0.1634233 -0.0005835401
-0.14768824 -0.058087766 0.05791798 -0.108435936 0.020000925 0.13208778 -0.1049291 0.004327463
-0.1944147 0.11716771 0.21470156 0.01640801 -0.011179774 -0.9584166 -0.13187501 0.059459567
0.07993106 0.22765431 0.2028085 0.02539492 0.011745328 -0.0029487472 -1.3812761 -0.040149648
-0.025566572 -0.16066726 0.09889025 0.2321943 -1.3903294 -0.2154449 -0.12326103 0.053151477
-0.12496401 0.1779538 -0.20018817 -0.0033796113 0.14765078 -1.3002468 0.028646711 -0.10329801
00000000: 3996 033e 89d3 70bb 3d25 6dbe a629 9a3e
00000010: 33c1 dcbd 1eb8 003e 3040 c0be 4dcd e33e
00000020: 907c a53d 6821 2d3c ead7 32bc e5a0 3bbc
00000030: bd01 c6bd a5a9 d73d a19b 0dbc 8462 66bc
00000040: b933 283d 939b 883b fd73 60be 30fb 8d3e
00000050: d039 5f3c a734 603e 59e5 36be 5faf 673e
00000060: d9f0 44bf 9ea4 14bf b1ca 8bbd ca3b 7abf
00000070: 62e1 303f 8dbe 9ebf c722 533e 8504 30be
00000080: 7076 583e bc51 0dbc a4c9 1cbc e4fa a93d
00000090: cd82 a83c e38f 533e 5e15 9f3d 6353 76bd
000000a0: 8934 803e 2bcc aebd a2b6 6b3e 7586 2c3e
000000b0: 3342 8e3d 9a1f 9a3d 87ef 133e 6780 b5ba
000000c0: 5b80 793e 49d5 563c 6727 b8bf 589c 42bc
000000d0: 8fd7 90be 4c5a c23c ce8f b9bc b81d 0d3e
000000e0: bed4 0c3a 7bf7 ef3d c753 f23d 26ad 34bf
000000f0: 4696 b7be fb4d e5be f1b7 433e 231a 82bd
00000100: 3976 843a d930 cfbc e5fc a83e 7b3c cebd
00000110: 1fea 82bf 81df 8fbe 82c8 c53e 6dae f83d
00000120: 0738 2f3e 7708 b1bd 67f8 f3bd a066 95bf
00000130: 73c2 07be 121d d13d 576f cb3c b4bc 003f
00000140: c6ed 89bf 30ae 85be c386 803e 3faa a7be
00000150: c608 663e 24c4 96bc 6c7a 433e b907 1c3d
00000160: 90ed 11bd 420f 783c e974 36bd b8b6 37be
00000170: 499b ef3e a9c7 923e 0cbe c8bd 9b50 56be
00000180: 18e1 443f a178 d9be 26a5 d03e 52d8 acbe
00000190: c3bc 45bd 2247 bc3d ace9 043e dee5 b6be
000001a0: 84cb 2ebd 7926 d73c d28c 17be 63ff 8dbe
000001b0: 7051 59bf c2d8 e3bd d3db 853e 585f 433e
000001c0: 0c25 5f3d 3d90 81bf f3a4 93be b280 103e
000001d0: 8cb9 83be ff55 acbd 29bb 4cbd 1827 61bd
000001e0: b36f e13d 3ae4 34b8 4c5f 553d e2b3 0bbf
000001f0: 2e1c 80bd b862 2fbe a9f8 8a3e b430 3dbe
00000200: 6e16 083f 4ab0 10be f50a 893e 4c5a 183e
00000210: f5d9 0c3d 2e03 c43e a887 d2bd f43d c1bf
00000220: 2886 34bf 73b7 5abf 81f3 d93d ead5 ba3c
00000230: 7c59 ccbd b944 c3bd f5db 963d f93c 8f3c
00000240: 4415 8abc 7301 a63d 6c02 be3c 3135 d33e
00000250: dc61 0f3d db2a 25be b92a 7e3e 1e53 e0be
00000260: dbe1 e83c 2482 c1be b9cf 183f 3bc1 fbbe
00000270: 7aee 6d3d e510 993e fe38 0d3b f431 a0be
00000280: 5486 f03e b14e 74bc 859a 7b3b 20df 903c
00000290: ea15 023d d9a5 b03c 54cd 00be bf5e 7c3e
000002a0: 5ab4 aa3e 897e e1bd 942f 18be 8398 f1bc
000002b0: b489 323e f300 f7bd de87 d2bf 3e4e 50bd
000002c0: 29dd 31bd 53f3 3e3e d5b3 a83e c45a 51be
000002d0: 97fb 23be 6153 0d3e 2da8 863d ad35 fbbd
000002e0: 18be e03c 9130 b83d 51d2 243f 0523 dabe
000002f0: 839d 1cbd e6f2 fc3d 110b 94be dcb1 d0bd
00000300: c614 863f 2f21 f4bc b734 8abd dc2f 403e
00000310: b398 653c 4afa 0cbe a935 213e f5ae ea3d
00000320: f383 bebe 64a2 e7bd 585a d03d 0144 653e
00000330: 6f1e a0bf d56f 03be bc16 f6bd a9af b1bf
00000340: e024 8ebe 76ee 983e 0df9 2d3e f809 7a3e
00000350: 34c1 7ebe 20b8 103e 7058 273e b7f8 18ba
00000360: 963b 17be 70ed 6dbd 673b 6d3d a913 debd
00000370: fbd8 a33c 0542 073e 11e5 d6bd 64cd 8d3b
00000380: a614 47be a0f5 ef3d bada 5b3e 176a 863c
00000390: 5f2b 37bc ca5a 75bf 3e0a 07be e08b 733d
000003a0: e5b2 a33d 361e 693e 08ad 4f3e 0209 d03c
000003b0: 7a6f 403c c53f 41bb a8cd b0bf f573 24bd
000003c0: fd70 d1bc f585 24be f986 ca3d 58c4 6d3e
000003d0: 50f6 b1bf 969d 5cbe 4770 fcbd 5db5 593d
000003e0: 22ed ffbd 8539 363e 21fe 4cbe 787c 5dbb
000003f0: c431 173e 7d6e a6bf 82ac ea3c e88d d3bd

conv.0.bias f4 [16]
-0.028020002 0.10557361 0.024417019 0.007981433 -0.026958361 -0.49191108 0.3199353 -0.36445186
-0.29420164 -0.118066035 -0.7206271 -0.05709779 0.04292506 0.079834364 -0.12825452 0.11584113
00000000: 348a e5bc fa36 d83d 3306 c83c 8ec4 023c
00000010: c8d7 dcbc c5db fbbe 8fce a33e 6f99 babe
00000020: 99a1 96be 9bcc f1bd 057b 38bf 5fdf 69bd
00000030: 30d2 2f3d 3380 a33d 2755 03be 1d3e ed3d

conv.2.weight f4 [32, 16, 3, 3]
0.017426252 0.10380535 0.045227073 0.05932873 0.024396876 0.00022185601 0.3062977 0.29238272
-0.26261768 0.30012378 0.12470417 -0.09846025 -0.2507853 0.0005028663 0.030112095 0.100936584
-0.05174005 -0.19264147 -0.015096595 0.12851682 -0.011914856 -0.5953279 0.39335388 -2.089406
-0.10587071 -0.050069 0.01435691 0.17596419 -0.17425784 -0.28555587 0.1534832 -0.42749968
-0.20186907 -0.20128341 0.23793498 0.015759833 0.11518343 0.040799525 0.30665386 0.04597976
0.027750472 -0.15462436 0.21329486 -0.1167579 0.015861461 -0.24012968 0.036373172 -0.4011535
0.28455418 -0.23234858 0.0012006877 0.020285752 0.05203107 -0.016513923 -0.29516813 0.014843505
-0.46861663 0.041734356 -0.256269 -0.17484576 -0.2035541 0.09025393 0.029368462 0.2559773
-0.06424757 0.073300324 -0.14829579 -0.090143204 0.03720069 0.27602735 -0.29754686 -0.7708779
-0.2769286 0.017070087 0.48309767 0.056937076 0.067564614 0.18225099 0.034659363 -0.09166301
-0.28520888 0.18534194 -0.48625496 0.33192182 -0.26122895 -0.49716905 -0.12199415 0.04930565
0.19833528 0.31613123 0.3284815 -0.051547002 -0.043729126 0.020126803 -0.16294503 -0.71661204
0.41613847 0.05516096 -0.19371708 -0.0013987095 -0.2217331 -0.13129911 -0.12321974 -0.23957004
-0.25238034 0.22533461 -0.1003677 -0.042226236 -0.03699323 0.05363203 0.013475169 -0.0161476
-0.77321225 -0.0952731 0.08936756 0.053347453 -0.1371811 -0.24410859 -0.7431763 -0.13143659
0.0343369 -0.12431331 -0.080961496 -0.976964 -0.18641904 -0.32165906 0.17428374 -0.1639884
0.26230147 0.044460375 -0.17177689 -0.3270829 0.095934965 0.09072721 -0.13369207 0.09082003
0.0023592105 0.043505717 0.044684146 0.20246626 -0.095310606 0.09618904 -0.22162351 0.044633497
0.01753139 0.3961361 -0.1722022 0.03275353 -0.25431576 -0.14223053 0.1417065 0.108166404
0.0053960704 -0.0643202 0.12793517 0.035857238 -3.476465 0.060498178 0.13218385 -0.12390265
0.29941702 -0.011496626 -0.30117357 -0.01007095 0.041236944 0.0943777 0.05771533 0.087291256
-0.19098991 0.36325315 -0.08810171 -0.5866521 -0.37798315 0.38180885 -0.2784248 0.2307748
0.015685001 -0.72393125 -0.3907773 0.33797094 -0.40305102 -0.4800689 -0.996175 -0.1512839
0.12882893 0.3432257 -0.13692744 0.038592346 -0.15177697 -0.2048595 -0.18756622 0.223611
0.30847886 0.4208686 -0.3009329 0.0874693 -0.30658206 -0.18836617 -0.10440303 -0.09011828
0.33011428 -0.12019942 -0.32260314 -0.89837545 0.026599785 0.20892432 0.6225036 -0.06090602
0.16533405 -0.25054467 0.048782337 -0.20118155 0.32576773 0.43854225 -0.1202537 -0.043023247
-0.14443456 0.09510049 -0.24552435 0.4533452 0.11615806 -0.33375463 0.2868678 0.22501217
0.21229407 0.2672056 -0.1731774 0.05371483 -0.06424091 0.12648377 -0.29737207 0.060676295
0.10815419 0.030515714 0.17485067 0.32089013 -0.570338 -0.21327451 -0.2382586 0.2604452
-0.00018980281 -0.32907477 0.3682068 -0.151357 0.35794303 -0.09430818 0.21286044 -0.06126363
-0.073920734 0.042429134 0.07388412 -0.21891725 0.44836798 -0.20590146 0.24586022 0.05232369
00000000: 80c1 8e3c e697 d43d 0640 393d af02 733d
00000010: f5db c73c 05a2 6839 0dd3 9c3e 30b3 953e
00000020: d375 86be d3a9 993e e664 ff3d 87a5 c9bd
00000030: ee66 80be c9d2 033a a4ad f63c d7b7 ce3d
00000040: 60ed 53bd ce43 45be b557 77bc ea99 033e
00000050: 8736 43bc 6967 18bf ae65 c93e d4b8 05c0
00000060: bed2 d8bd 2715 4dbd 3f39 6b3c f52f 343e
00000070: a670 32be 6134 92be b32a 1d3e 3de1 dabe
00000080: c4b6 4ebe 3d1d 4ebe 3aa5 733e c41a 813c
00000090: 4ae5 eb3d 671d 273d bc01 9d3e 4655 3c3d
000000a0: f554 e33c d955 1ebe f869 5a3e c41e efbd
000000b0: e5ef 813c 8ee4 75be 09fc 143d fe63 cdbe
000000c0: 16b1 913e c9ec 6dbe 6560 9d3a 4e2e a63c
000000d0: 881e 553d 3548 87bc 4720 97be 2c32 733c
000000e0: 85ee efbe a5f1 2a3d b135 83be c40a 33be
000000f0: 7c70 50be 0dd7 b83d 2196 f03c 750f 833e
00000100: 3b94 83bd 7b1e 963d dada 17be 009d b8bd
00000110: c05f 183d 7553 8d3e 1058 98be 4158 45bf
00000120: 96c9 8dbe 91d6 8b3c 9458 f73e da36 693d
00000130: 515f 8a3d 01a0 3a3e faf6 0d3d d1b9 bbbd
00000140: e606 92be 47ca 3d3e 69f6 f8be a8f1 a93e
00000150: cdbf 85be f18c febe 12d8 f9bd b9f4 493d
00000160: 6718 4b3e f4db a13e ba2e a83e f322 53bd
00000170: 501d 33bd f7e0 a43c 10db 26be e373 37bf
00000180: 1a10 d53e 75f0 613d c55d 46be e754 b7ba
00000190: 000e 63be 4673 06be a25a fcbd d951 75be
000001a0: ff37 81be 1ebe 663e 958d cdbd 6bf5 2cbd
000001b0: 3786 17bd 42ad 5b3d f5c6 5c3c f947 84bc
000001c0: 3df1 45bf 8b1e c3bd 5706 b73d dc82 5a3d
000001d0: 3479 0cbe 9af7 79be cd40 3ebf 5097 06be
000001e0: d9a4 0c3d fa97 febd 24cf a5bd 501a 7abf
000001f0: a2e4 3ebe 7fb0 a4be 7077 323e 93ec 27be
00000200: 614c 863e 151c 363d 48e6 2fbe 6977 a7be
00000210: 8d79 c43d 30cf b93d 93e6 08be daff b93d
00000220: fc9c 1a3b 0d33 323d b906 373d 5153 4f3e
00000230: 3532 c3bd c2fe c43d 46f1 62be 9dd1 363d
00000240: fd9d 8f3c 5ad2 ca3e c655 30be 9128 063d
00000250: ad35 82be e1a4 11be 821b 113e 5986 dd3d
00000260: 85d1 b03b 4fba 83bd 7001 033e 0adf 123d
00000270: 677e 5ec0 f0cc 773d 345b 073e acc0 fdbd
00000280: 304d 993e 585c 3cbc 6c33 9abe a000 25bc
00000290: 12e8 283d 1849 c13d e966 6c3d c2c5 b23d
000002a0: dc92 43be 51fc b93e ab6e b4bd d52e 16bf
000002b0: 0287 c1be 737c c33e b28d 8ebe 3b50 6c3e
000002c0: d57d 803c 8f53 39bf f613 c8be 870a ad3e
000002d0: b45c cebe 97cb f5be 5305 7fbf 2bea 1abe
000002e0: bbeb 033e 47bb af3e b536 0cbe 0213 1e3d
000002f0: 6c6b 1bbe b0c6 51be 5c11 40be 48fa 643e
00000300: f1f0 9d3e 177c d73e e113 9abe 1b23 b33d
00000310: 53f8 9cbe 10e3 40be 41d1 d5bd ef8f b8bd
00000320: bd04 a93e 1d2b f6bd 3d2c a5be effb 65bf
00000330: cbe7 d93c 42f0 553e 655c 1f3f 9778 79bd
00000340: 544d 293e 6447 80be fdcf 473d 8902 4ebe
00000350: 07cb a63e 9c88 e03e 9247 f6bd 2539 30bd
00000360: a7e6 13be 0cc4 c23d bc6a 7bbe dd1c e83e
00000370: 47e4 ed3d e3e1 aabe 56e0 923e 9769 663e
00000380: 9e63 593e 2ccf 883e 6b55 31be 1504 5c3d
00000390: bd90 83bd f684 013e 2741 98be b587 783d
000003a0: f27f dd3d 17fc f93c 0e0c 333e b64b a43e
000003b0: ac01 12bf a264 5abe 10fa 73be 1359 853e
000003c0: ce05 47b9 7d7c a8be 9a85 bc3e 54fd 1abe
000003d0: 4f44 b73e a624 c1bd 16f8 593e 92ef 7abd
000003e0: c163 97bd 2cca 2d3d 8f50 973d d82b 60be
000003f0: 7d90 e53e d5d7 52be c8c2 7b3e 5e51 563d

conv.2.bias f4 [32]
0.38350466 0.027531656 -0.47798145 -0.41918322 0.24804947 -0.25027543 0.062717006 -0.31315416
-0.20837316 -0.00978112 0.1623414 0.0069222385 -0.18975973 -0.09083401 0.0014071396 -0.31747422
0.09827925 -0.029006187 0.07998832 -0.50048494 -0.11426229 0.33300146 -0.74474216 0.19757822
-0.042738546 0.17308296 -0.28185445 0.06381781 0.0055213245 -0.120396875 -0.0345389 -0.08493793
00000000: b95a c43e 118a e13c fcb9 f4be 2f9f d6be
00000010: ae00 7e3e 1a24 80be c671 803d be55 a0be
00000020: c65f 55be fe40 20bc d33c 263e f2d3 e23b
00000030: 6050 42be 2e07 babd c56f b83a fb8b a2be
00000040: a246 c93d 629e edbc ebd0 a33d c81f 00bf
00000050: 5902 eabd 2b7f aa3e 6ca7 3ebf f251 4a3e
00000060: 9d0e 2fbd a93c 313e 3a4f 90be e9b2 823d
00000070: 3aec b43b a392 f6bd a978 0dbd f0f3 adbd

conv.4.weight f4 [64, 32, 5, 5]
-0.0926714 -0.048193675 0.06480797 0.35507357 0.13999553 -0.14775757 0.06465591 0.038496282
-0.088733725 0.2035297 0.08855399 -0.05794427 0.2737914 -0.22873372 -0.019210508 -0.1880551
0.13590911 -0.19513239 0.91812813 -0.37217733 0.115584865 -0.30586168 -0.119004734 0.0039502047
-0.081127286 -0.099026784 -0.37570858 -0.086196154 0.3334598 -0.2781215 -0.036710292 0.12238107
-0.19689061 0.19056132 0.022447975 0.3916789 -0.38045496 0.24440753 0.6422317 -0.6062475
0.19900437 0.19136064 0.0610573 0.29772654 0.5021569 -0.17366229 0.29935175 0.16057533
-0.1839969 0.2515024 -0.23430328 0.10908155 -0.6818885 -0.420283 0.27088732 0.33150235
0.06077581 -0.43350217 0.29485607 -1.6550455 -1.0798637 0.42689985 -0.8239914 -0.31234422
0.30203283 0.2835698 -0.30929178 0.8560989 0.023063159 -0.13147505 0.06353336 0.14840958
-0.15993336 -0.13539557 0.04505165 0.008644886 -0.01856402 -0.1512929 -0.04620013 -0.28380933
-0.038907234 0.29734132 0.06684757 0.53786045 0.048393335 -0.3193743 -0.083405204 -0.72479546
-0.14725111 1.0562193 0.12547599 0.34862423 -0.5026076 -0.6326541 -0.11125358 0.4272206
0.12252389 0.028950172 0.49589473 -0.42958006 0.008933135 0.06858889 -0.15600495 -0.19948098
-0.14836535 0.17096241 0.076487966 0.19921899 -0.1580603 0.09784562 -0.18475996 0.048932046
0.54317987 0.18467058 0.1320991 -0.2731173 -0.04329485 0.22840723 0.29522097 0.12568237
0.13441847 -0.2171876 0.5245412 0.054309137 0.29626966 1.0386243 0.29828414 -0.022771116
0.24755564 -0.08206103 0.3613107 -0.014181017 0.34823605 -0.2260355 -0.17410637 0.02939101
0.10939588 -0.11450173 0.5900975 -0.20688413 -0.848948 0.15564208 0.032599326 -0.5032736
-0.27014273 -0.54436 -0.2579459 0.29497176 -0.03610601 -0.67569846 -0.4859827 0.33616665
-0.31774223 0.05204534 -0.43961024 -0.23484927 -0.34101057 -0.3269703 -0.31727105 -0.1394819
-0.12311121 0.13518147 -0.42681628 -0.08254544 1.3347309 0.39841837 0.107475206 -0.0604174
-0.7284193 0.7398445 0.25245202 -0.5378214 0.07817545 -0.20361313 0.18198185 0.06530181
0.5511611 0.32276177 0.14926471 0.14741836 -0.8084778 0.34584346 -0.07079537 -0.13792783
0.38840634 -0.3026875 0.25168717 0.040174335 -0.18996125 -0.3003272 -0.2788703 -0.20449603
0.19796155 0.15981838 0.004854266 0.05064048 0.1288311 -0.08539096 -0.28776044 0.045906153
-0.0863618 0.1682047 -0.55854964 -0.5880586 0.024996476 0.5116102 0.1020243 -0.030934624
0.21519077 -0.17782544 -0.11174117 -0.3318656 -0.1444588 -0.2585378 0.07803026 -0.13905728
0.27408013 -0.0512194 0.27417055 -0.12582532 -0.1876572 0.44607553 -0.53467894 0.070794925
0.0010628634 -0.1444214 0.055177886 0.050988194 0.133294 0.14489503 -0.00645245 -0.23454106
-0.3176388 0.699299 -0.14957091 -0.28902206 -0.30688566 0.19240086 0.0004023788 0.24999847
0.32560134 0.20458695 -0.025291143 0.14784548 -0.04578395 0.2875016 0.30433995 -0.23771968
-0.041693445 0.11001236 -0.010308212 0.0822946 -0.47669357 0.07947688 0.24733754 -0.0040623993
00000000: 81ca bdbd bb66 45bd 0aba 843d 34cc b53e
00000010: fd5a 0f3e c34d 17be 516a 843d 47ae 1d3d
00000020: 07ba b5bd 176a 503e cb5b b53d f956 6dbd
00000030: 632e 8c3e 2c39 6abe 5b5f 9dbc 8491 40be
00000040: c22b 0b3e c9d0 47be 720a 6b3f 078e bebe
00000050: c2b7 ec3d e799 9cbe c1b8 f3bd b870 813b
00000060: 1026 a6bd 8ece cabd e05c c0be 9c87 b0bd
00000070: 3ebb aa3e f165 8ebe 885d 16bd eda2 fa3d
00000080: b19d 49be 8222 433e d1e4 b73c 238a c83e
00000090: feca c2be f845 7a3e 4c69 243f 0933 1bbf
000000a0: cdc7 4b3e 0bf4 433e 3817 7a3d 9d6f 983e
000000b0: 5b8d 003f 87d4 31be a244 993e dc6d 243e
000000c0: af69 3cbe ecc4 803e 33ed 6fbe 2666 df3d
000000d0: 3f90 2ebf 552f d7be beb1 8a3e adba a93e
000000e0: 0ef0 783d fff3 ddbe 60f7 963e 88d8 d3bf
000000f0: f938 8abf 9e92 da3e 1af1 52bf 95eb 9fbe
00000100: 0ca4 9a3e 1030 913e 7e5b 9ebe 4c29 5b3f
00000110: f3ee bc3c 65a1 06be c71d 823d aef8 173e
00000120: 92c5 23be 23a5 0abe 1488 383d 48a3 0d3c
00000130: 9213 98bc 87ec 1abe 593c 3dbd 754f 91be
00000140: 315d 1fbd 1f3d 983e 61e7 883d 39b1 093f
00000150: 1738 463d 0785 a3be 59d0 aabd 328c 39bf
00000160: ffc8 16be 3232 873f c77c 003e e07e b23e
00000170: e4aa 00bf 9ef5 21bf ebd8 e3bd a9bc da3e
00000180: ceed fa3d e928 ed3c eae5 fd3e ebf1 dbbe
00000190: 495c 123c 5578 8c3d c3bf 1fbe be44 4cbe
000001a0: 16ed 17be c510 2f3e b9a5 9c3d 1000 4c3e
000001b0: 8fda 21be 4963 c83d b731 3dbe f86c 483d
000001c0: d60d 0b3f 491a 3d3e fd44 073e 08d6 8bbe
000001d0: f155 31bd 96e3 693e 3427 973e e1b2 003e
000001e0: ffa4 093e 6d66 5ebe 5548 063f 4273 5e3d
000001f0: a8b0 973e a4f1 843f b3b8 983e 7e8a babc
00000200: 3a7f 7d3e 9d0f a8bd b7fd b83e 7f57 68bc
00000210: ff4b b23e da75 67be f148 32be 6ac5 f03c
00000220: f20a e03d e27f eabd a110 173f 6fd9 53be
00000230: a854 59bf a360 1f3e df86 053d 8ad6 00bf
00000240: 2650 8abe 2d5b 0bbf 7c11 84be 8a06 973e
00000250: e5e3 13bd 93fa 2cbf b9d2 f8be 091e ac3e
00000260: 1caf a2be 7f2d 553d 9814 e1be 547c 70be
00000270: f098 aebe a768 a7be 5a71 a2be 58d4 0ebe
00000280: bb21 fcbd 036d 0a3e aa87 dabe 950d a9bd
00000290: 76d8 aa3f 7efd cb3e f61b dc3d 3c78 77bd
000002a0: b079 3abf 7366 3d3f 6441 813e aaae 09bf
000002b0: 731a a03d f67f 50be 7359 3a3e f5bc 853d
000002c0: e518 0d3f 0841 a53e d9d8 183e d7f4 163e
000002d0: 67f8 4ebf 6512 b13e 2afd 90bd f43c 0dbe
000002e0: 32dd c63e dbf9 9abe 24dd 803e d88d 243d
000002f0: 3485 42be 7dc4 99be 17c8 8ebe 6867 51be
00000300: 6fb6 4a3e 6ea7 233e 8910 9f3b 646c 4f3d
00000310: 4dec 033e 75e1 aebd 5655 93be 1708 3c3d
00000320: 75de b0bd da3d 2c3e 1cfd 0ebf 028b 16bf
00000330: 69c5 cc3c e3f8 023f 1ef2 d03d 9c6a fdbc
00000340: f85a 5c3e df17 36be 8ed8 e4bd 4aea a9be
00000350: 02ed 13be 115f 84be 54ce 9f3d 0865 0ebe
00000360: 3b54 8c3e 6fcb 51bd 1560 8c3e 5ad8 00be
00000370: 3629 40be 0364 e43e b8e0 08bf eefc 903d
00000380: c74f 8b3a 34e3 13be 3502 623d ffd8 503d
00000390: 397e 083e 5d5f 143e 136f d3bb 882b 70be
000003a0: 8ea1 a2be 4205 333f 1e29 19be b3fa 93be
000003b0: 1e20 9dbe bb04 453e 5ef6 d239 99ff 7f3e
000003c0: 38b5 a63e 3e7f 513e 5f2f cfbc ce64 173e
000003d0: f387 3bbd 6933 933e 72d2 9b3e ca6c 73be
000003e0: bfc6 2abd 294e e13d c6e3 28bc 128a a83d
000003f0: 2e11 f4be c6c4 a23d 0d46 7d3e e01d 85bb

conv.4.bias f4 [64]
-0.54414064 -0.40064573 -0.22216006 -0.0027570692 -0.684928 -0.2752136 -0.09703247 -0.31683347
0.33301297 -0.3118805 0.17809328 -0.049498815 -0.32719684 -0.042151846 -0.5080539 -0.3393796
-0.027593695 -0.51032054 -0.021018183 -0.41534162 -0.17268047 -0.6805672 -0.047242075 -0.3049548
-0.55798805 0.68836296 -0.06175682 -0.13992421 -0.02865284 -0.21551004 -0.23858689 -0.24240233
-0.4477476 -0.13057108 -0.28065073 0.07759942 0.15782224 -0.25471735 -0.53224635 -0.060716838
0.057399698 -0.2384411 -0.41935074 -0.32426775 -0.23359509 -0.040848933 -0.42832014 0.516269
-0.046338957 -0.020744642 -0.32350823 0.009941125 0.52428836 0.4373832 -0.19086374 -0.12021959
0.013468905 -0.48107156 -0.36123478 -0.55784196 0.7771047 -0.057723038 -0.5113136 -0.070959754
00000000: cd4c 0bbf 7021 cdbe ed7d 63be f2af 34bb
00000010: 7157 2fbf cce8 8cbe f6b8 c6bd ff37 a2be
00000020: ad80 aa3e cdae 9fbe 165e 363e 45bf 4abd
00000030: 5886 a7be 6aa7 2cbd d20f 02bf 2ac3 adbe
00000040: 2c0c e2bc 5ea4 02bf 532e acbc a8a7 d4be
00000050: 26d3 30be a739 2ebf e880 41bd 0923 9cbe
00000060: 4ed8 0ebf 8e38 303f b8f4 7cbd 4b48 0fbe
00000070: 5cb9 eabc aaae 5cbe 1f50 74be 5138 78be
00000080: 2c3f e5be 6db4 05be 74b1 8fbe 72ec 9e3d
00000090: 279c 213e 506a 82be 4c41 08bf 38b2 78bd
000000a0: f21b 6b3d e729 74be 24b5 d6be 6c06 a6be
000000b0: 8d33 6fbe 3651 27bd c74c dbbe 352a 043f
000000c0: ebcd 3dbd abf0 a9bc dfa2 a5be 1ae0 223c
000000d0: c337 063f b1f0 df3e c971 43be b035 f6bd
000000e0: afac 5c3c 034f f6be c4f3 b8be bbce 0ebf
000000f0: 55f0 463f fe6e 6cbd 73e5 02bf 5953 91bd

conv.7.weight f4 [64, 256]
0.14231034 0.3011719 -0.07918133 -0.11931574 0.3395605 0.038957503 0.28775674 -0.10210566
-0.48112068 0.01422193 -0.005347076 -0.007207499 -0.061445944 0.031240284 0.0076227263 0.039905697
-0.09472171 0.28663835 0.5610207 -0.067873664 0.41850317 0.020142369 0.30420992 0.34579748
-0.08180226 -0.019776683 -0.33380798 -0.12178218 0.20325816 0.18352324 0.37530306 0.17864713
-0.08431505 -0.59134555 -0.089045756 -0.2845613 -0.12811466 0.25985187 -0.28274676 0.082663104
-0.025484795 0.29751152 -0.20597124 -0.06827644 0.023385204 0.01643245 0.031449907 -0.028983623
-0.057844684 0.38953325 -0.010998601 0.14049351 -0.05326198 0.04536473 0.009349339 -0.035593122
-0.018145999 0.70257014 -0.23334023 0.049608905 0.28245518 0.44545606 -0.32635626 0.19366764
-0.0520972 -0.02213984 -0.0012932792 0.03904041 -0.22197977 -0.22051325 -0.20743877 0.12709318
0.0052667977 0.07874017 -0.340017 -0.033801645 -0.29928535 -0.19338818 0.14353316 -0.22817846
-0.022930633 -0.017566169 -0.1557564 -0.23147032 0.37011576 0.006824518 0.20465435 -0.0007280031
-0.053775974 0.01720865 0.002624005 -0.054284424 0.03948551 0.27693298 0.108460754 0.07240728
0.07573599 0.07452926 0.016205147 0.31962693 -0.17355639 0.2134516 -0.10898431 0.20206684
0.022026405 0.06029635 0.02451323 -0.010968484 -0.12904386 0.11758707 0.014357945 0.15093541
0.044183113 0.013102606 0.0009892434 0.019962437 0.15962516 -0.40844938 0.054151535 0.10245167
-0.42677858 -0.1772572 -0.033509552 0.07618792 -0.06764892 -0.11212469 0.08072526 0.031582862
0.2961244 0.3351568 0.15311038 0.7269059 0.35058755 0.15007468 -0.017796697 0.03466574
0.24527211 0.15744817 0.34221804 0.2412692 0.13249096 0.086822905 -0.61005914 -0.002377724
0.3189257 0.54251033 -0.7892104 -0.025766643 -0.12139799 0.018447185 -0.10900137 -0.05612375
-0.4775312 0.29571483 0.1414676 0.09138658 -0.042151324 -0.036924087 0.025280185 0.0024833381
0.15547542 -0.14427552 -0.3818644 0.039990265 0.0404867 -0.24715102 0.10340316 0.118136354
0.029245982 0.36695734 0.19254538 0.32773587 0.1968451 0.2074035 -0.1626786 0.083351016
-0.08476921 -0.22064179 0.1332512 -0.25598112 0.05339361 0.06099207 0.023276396 -0.032528996
-0.34795508 0.11001102 0.13649042 0.25338262 0.049752656 -0.10705444 -0.017620228 -0.055480875
0.03441733 0.036424227 -0.039166927 -0.0064357594 0.03720863 -0.02337978 -0.046880946 0.009724557
0.4262237 -0.026441107 0.14963463 -0.23349755 -0.062062673 -0.030982502 0.03273181 0.057922438
0.121412314 -0.15948756 0.20657781 -0.058061153 0.27408636 -0.2462827 -0.029975893 -0.021935914
-0.09126274 -0.22881542 -0.002936034 0.0018232494 -0.18199414 -0.42082167 -0.35183087 -0.072723836
-0.45521277 -0.058673806 -0.08508274 0.014471288 0.05233681 -0.26320577 0.3065325 0.72480315
0.09226003 0.1995701 0.22987837 -0.13170904 -0.21749593 0.5430866 -0.22228503 -0.091608055
-0.32244065 0.43800363 -0.07791454 0.52825975 0.13812502 0.03366886 -0.35160485 -0.014886577
-0.19600062 -0.06337685 -0.19208649 0.0964644 -0.4318234 0.17396921 0.22184545 -0.41067705
00000000: cdb9 113e 3433 9a3e d229 a2bd d05b f4bd
00000010: e0da ad3e e791 1f3d da54 933e c61c d1bd
00000020: 7355 f6be 1903 693c 8636 afbb e22c ecbb
00000030: beae 7bbd a0eb ff3c 10c8 f93b 2874 233d
00000040: 75fd c1bd 43c2 923e 0d9f 0f3f 5901 8bbd
00000050: 0c46 d63e 9c01 a53c 67c1 9b3e 5e0c b13e
00000060: f187 a7bd b602 a2bc e1e8 aabe f068 f9bd
00000070: e822 503e 84ed 3b3e b927 c03e 46ef 363e
00000080: 5ead acbd 6c62 17bf 9f5d b6bd 05b2 91be
00000090: 7d30 03be 4e0b 853e 2fc4 90be 464b a93d
000000a0: 7dc5 d0bc 6e53 983e 20ea 52be 85d4 8bbd
000000b0: 5492 bf3c 589d 863c 9ed1 003d 106f edbc
000000c0: 8cee 6cbd e770 c73e 7a33 34bc 88dd 0f3e
000000d0: 3c29 5abd 5ed0 393d f82d 193c 18ca 11bd
000000e0: eba6 94bc a3db 333f bef0 6ebe b532 4b3d
000000f0: f79d 903e d112 e43e 2b18 a7be cf50 463e
00000100: e063 55bd 9c5e b5bc 4083 a9ba d6e8 1f3d
00000110: aa4e 63be 3ace 61be d46a 54be b724 023e
00000120: 1a95 ac3b 8742 a13d b516 aebe 9873 0abd
00000130: ee3b 99be 8d07 46be 5bfa 123e 9da7 69be
00000140: 06d9 bbbc ede6 8fbc 9b7e 1fbe 8e06 6dbe
00000150: d07f bd3e 35a0 df3b e990 513e 76d7 3eba
00000160: 3244 5cbd 28f9 8c3c 80f7 2b3b 5859 5ebd
00000170: 8fbb 213d 29ca 8d3e ac20 de3d 454a 943d
00000180: 791b 9b3d cca2 983d a8c0 843c 24a6 a33e
00000190: c4b8 31be 0e93 5a3e 2a33 dfbd 9cea 4e3e
000001a0: b870 b43c 4ef9 763d f8cf c83c 28b5 33bc
000001b0: 1324 04be 7dd1 f03d 963d 6b3c d08e 1a3e
000001c0: 5af9 343d 50ac 563c 80a9 813a 4488 a33c
000001d0: c774 233e 4720 d1be 00ce 5d3d 2ed2 d13d
000001e0: b982 dabe e982 35be 5041 09bd 6a08 9c3d
000001f0: 848b 8abd a1a1 e5bd 4953 a53d 085d 013d
00000200: 9e9d 973e ac99 ab3e f8c8 1c3e 8116 3a3f
00000210: 3680 b33e 2dad 193e 61ca 91bc aafd 0d3d
00000220: 9d28 7b3e 183a 213e 3437 af3e 460f 773e
00000230: b6ab 073e 35d0 b13d d62c 1cbf 97d3 1bbb
00000240: 3b4a a33e f5e1 0a3f b109 4abf 9114 d3bc
00000250: 829f f8bd 8d1e 973c 1c3c dfbd 04e2 65bd
00000260: f87e f4be ef67 973e e2dc 103e e328 bb3d
00000270: dea6 2cbd b63d 17bd 6418 cf3c 80bf 223b
00000280: f334 1f3e f6bc 13be bb83 c3be d5cc 233d
00000290: 62d5 253d 2815 7dbe 09c5 d33d 79f1 f13d
000002a0: 4595 ef3c d5e1 bb3e 9e2a 453e ffcc a73e
000002b0: c391 493e 9561 543e 3895 26be f0b3 aa3d
000002c0: 7b9b adbd ecef 61be 0173 083e f50f 83be
000002d0: 42b3 5a3d d2d2 793d 24ae be3c 203d 05bd
000002e0: 2b27 b2be 754d e13d 25c4 0b3e 5ebb 813e
000002f0: 71c9 4b3d 5c3f dbbd 4c58 90bc ea3f 63bd
00000300: 30f9 0c3d 9231 153d 806d 20bd 10e3 d2bb
00000310: 1468 183d f486 bfbc 3c06 40bd c053 1f3c
00000320: fe39 da3e 059b d8bc d239 193e fb19 6fbe
00000330: 6e35 7ebd 04cf fdbc ca11 063d 1440 6d3d
00000340: 05a7 f83d b550 23be 2289 533e 88d1 6dbd
00000350: 0c55 8c3e 8831 7cbe 0190 f5bc f2b2 b3bc
00000360: f6e7 babd 974e 6abe 7a6a 40bb 19fa ee3a
00000370: ac5c 3abe f075 d7be 2d23 b4be 3cf0 94bd
00000380: a611 e9be f253 70bd dc3f aebd fb18 6d3c
00000390: 1f5f 563d e8c2 86be d4f1 9c3e b38c 393f
000003a0: d4f2 bc3d 1b5c 4c3e 3c65 6b3e bcde 06be
000003b0: 41b7 5ebe b907 0b3f b09e 63be 019d bbbd
000003c0: f116 a5be 0342 e03e a991 9fbd 083c 073f
000003d0: a570 0d3e 5ce8 093d 8d05 b4be d4e6 73bc
000003e0: 63b4 48be b9cb 81bd 52b2 44be 218f c53d
000003f0: f517 ddbe fc24 323e 742b 633e 4344 d2be

conv.7.bias f4 [64]
-0.2885435 0.84548557 0.5404136 0.43374705 1.0637381 0.7929428 -0.40340987 0.6851
0.054907862 0.29945672 -0.41747454 0.39589527 0.8682846 0.89338964 0.88386863 -0.9650253
0.65788454 0.6412836 1.3681273 0.5125813 0.44441873 0.13064143 0.75099355 0.63563156
0.28775907 0.119200364 -0.5191489 0.42819443 0.49549136 0.118962504 0.5338648 0.18924868
-0.26045772 0.6225668 0.1239974 -0.003965479 0.15183356 -0.57207656 -0.40412784 0.14522661
0.2820253 0.13657928 0.5403455 0.22350137 0.531512 0.1490953 1.104617 0.28078973
0.3374799 0.36769292 -0.4162431 0.24294372 0.21056 0.014557584 0.7006965 -0.18144196
0.28323397 -0.2129974 1.0454967 0.028566556 0.8085027 -0.2917982 0.67083657 0.24870461
00000000: f9bb 93be be71 583f 8c58 0a3f 1814 de3e
00000010: 9228 883f 4dfe 4a3f bd8b cebe b762 2f3f
00000020: 11e7 603d 6452 993e 39bf d5be c9b2 ca3e
00000030: e647 5e3f 2fb5 643f 3745 623f e60b 77bf
00000040: 1f6b 283f 292b 243f cc1e af3f 8738 033f
00000050: da8a e33e dec6 053e 1d41 403f c0b8 223f
00000060: 2855 933e 521f f43d f1e6 04bf 4d3c db3e
00000070: 0bb1 fd3e 9da2 f33d 5dab 083f 68ca 413e
00000080: b75a 85be 8a60 1f3f 59f2 fd3d d9f0 81bb
00000090: 427a 1b3e 9c73 12bf d8e9 cebe 49b6 143e
000000a0: 9f65 903e 70db 0b3e 1554 0a3f 8bdd 643e
000000b0: 2c11 083f 70ac 183e 1764 8d3f acc3 8f3e
000000c0: 2aca ac3e 3f42 bc3e d11d d5be 3dc6 783e
000000d0: 0a9d 573e ef82 6e3c d960 333f eccb 39be
000000e0: 0b04 913e fe1b 5abe d6d2 853f 6904 ea3c
000000f0: 08fa 4e3f 9366 95be f2bb 2b3f 6cac 7e3e

out.weight f4 [4, 64]
0.07417792 0.107545264 0.033563618 0.035739273 0.13152659 0.041198842 0.011005935 0.029063037
0.0025914577 -0.0035489718 0.07823329 0.060041886 0.031070733 -0.037758116 -0.036212146 0.020703856
-0.7128009 0.017347949 0.4987293 -0.0026339726 -0.011619922 -0.009468672 0.10350171 0.009256816
-0.030541405 -0.013043054 0.16359606 0.08688626 0.02203618 -0.0697553 0.03613207 -0.059853096
-0.0082708215 0.026271738 0.073163934 -0.05227358 0.051672507 -0.052830324 -0.015190663 -0.06613501
0.08551588 0.017282058 0.03656363 -0.043327753 -1.5546395 -1.8099664 -0.016437706 -1.7903666
-0.7154243 -0.0034315542 0.11857889 0.021967728 -0.07323585 0.045526844 -0.1335629 4.967924
0.07452005 0.03708963 0.010983777 -0.04615609 -0.10712338 0.0122305965 0.05975465 -0.029298063
-0.04615069 0.03259883 0.03045028 0.029150756 0.16736123 0.055550016 0.13519636 -0.13916902
-0.2980272 0.08753297 0.094110705 0.04327565 0.05300422 0.059954762 -0.015807055 0.043013144
-0.0020124037 0.024669468 0.4991528 -1.2153524 -0.8541334 0.11925237 0.051933933 -0.04145553
-0.5589669 -0.009183637 0.013188482 0.09425896 -0.9442247 -0.14833027 -0.019862024 0.057277873
-0.023248615 0.10578614 -0.053876407 0.024779852 0.01947721 -0.0026924196 -0.08014827 0.014792358
0.0062703807 -0.07080206 -0.033223756 -0.06156249 0.06525374 -0.022959419 -0.111284435 0.013392571
-0.0653448 0.13416263 -0.012141504 0.07022441 0.002216483 0.06099678 0.025566189 0.0020005663
-0.008283357 -0.06156895 0.0040943963 0.0992088 0.0087585775 -0.037671577 -0.10334134 -0.05339723
-0.00791816 0.029233942 -1.3730412 -0.018278116 -0.019715594 0.06463735 -0.17382464 -0.04734324
0.057556372 0.015583964 -0.033649124 0.10517563 0.05198525 0.053265594 -0.010554791 -0.0919092
0.011267158 0.11626676 0.515968 0.040164888 0.0017565702 0.007046618 0.091898955 -0.0056688082
-0.0041818954 -1.1971352 -0.021001788 -0.07517096 -0.062201418 0.09012701 0.113454714 0.050597355
-0.027490778 0.039056227 0.0729671 2.9681494 0.026610896 0.011590437 -0.049377523 -0.022715092
-0.07948101 -2.0979574 -0.20900844 0.022353528 0.0075688064 0.05609489 -0.23415276 -0.05863837
-0.023577169 -2.2006571 0.21674247 -0.11380451 0.017665891 -0.061242003 0.116033435 -0.0016339199
0.04182737 3.691133 0.13390721 -0.037688367 0.033032916 -0.070679136 -0.0011690891 -1.309803
0.062044818 0.039595068 0.012911348 0.09674864 0.09195243 -0.04370548 -0.9623043 0.07404437
-0.058397975 -0.045622375 0.05845376 0.062187057 0.019513788 0.053290006 0.033125732 -0.028573481
0.011574414 0.041046835 0.500966 0.09829327 0.024979874 -0.32031992 0.090997055 0.0729991
0.009548895 -0.030729488 0.008013758 0.044465058 -0.07212813 -1.0399276 -1.571109 -0.048186023
4.37997 -0.082576126 -0.19702552 0.0013240485 0.16773896 0.037968896 0.05003641 -1.3403306
-1.427183 -0.026862362 -0.2510098 -1.2669988 0.08336466 -0.07099557 -0.5030881 -0.027261524
0.054590352 0.0035547467 -0.021043047 0.06824768 0.08300852 -0.20247698 0.0093249725 -0.04538277
0.085228406 -0.02834299 0.030030053 -0.015082151 0.025804507 0.13153858 -0.020441137 0.07281103
00000000: 98ea 973d b140 dc3d 017a 093d 5863 123d
00000010: e8ae 063e 1ec0 283d 3d52 343c 9b15 ee3c
00000020: 72d5 293b de95 68bb c638 a03d 7bee 753d
00000030: 0d88 fe3c 41a8 1abd 3053 14bd 229b a93c
00000040: 1f7a 36bf 491d 8e3c 7259 ff3e ba9e 2cbb
00000050: 7c61 3ebc 7d22 1bbc b4f8 d33d e6a9 173c
00000060: f831 fabc 89b2 55bc ba85 273e 6cf1 b13d
00000070: 3885 b43c dedb 8ebd 39ff 133d 8528 75bd
00000080: 5782 07bc d437 d73c f9d6 953d d21c 56bd
00000090: 8da6 533d 9c64 58bd 42e2 78bc cb71 87bd
000000a0: f322 af3d 1a93 8d3c bfc3 153d 7178 31bd
000000b0: 6dfe c6bf fbac e7bf 5ea8 86bc bc2a e5bf
000000c0: 0c26 37bf ede3 60bb 7dd9 f23d aaf5 b33c
000000d0: adfc 95bd 5b7a 3a3d b6c4 08be 3cf9 9e40
000000e0: f89d 983d 4ceb 173d 4df5 333c 2b0e 3dbd
000000f0: 8163 dbbd d762 483c 4bc1 743d 7e02 f0bc
00000100: 8208 3dbd 5a86 053d de72 f93c 91cd ee3c
00000110: be60 2b3e 6a88 633d ea70 0a3e 5382 0ebe
00000120: 0597 98be 7c44 b33d 1dbd c03d cf41 313d
00000130: f41a 593d 2093 753d cc7d 81bc 8d2e 303d
00000140: 88e2 03bb a017 ca3c f590 ff3e ab90 9bbf
00000150: 7da8 5abf 963a f43d adb8 543d 46cd 29bd
00000160: 7418 0fbf f776 16bc 8114 583c d70a c13d
00000170: b6b8 71bf e4e3 17be afb5 a2bc 349c 6a3d
00000180: e173 bebc 67a6 d83d 82ad 5cbd 1eff ca3c
00000190: ab8e 9f3c 4e73 30bb c724 a4bd a55b 723c
000001a0: c477 cd3b ac00 91bd a215 08bd f328 7cbd
000001b0: c1a3 853d 6415 bcbc 18e9 e3bd 846c 5b3c
000001c0: 7fd3 85bd ee61 093e 29ed 46bc d1d1 8f3d
000001d0: 6a42 113b c2d7 793d 2f70 d13c ef1b 033b
000001e0: ebb6 07bc b92f 7cbd 492a 863b fc2d cb3d
000001f0: 2380 0f3c 834d 1abd a0a4 d3bd 0eb7 5abd
00000200: 2cbb 01bc 057c ef3c d0bf afbf fdbb 95bc
00000210: 9982 a1bc 9660 843d 16ff 31be fcea 41bd
00000220: 3bc0 6b3d e253 7f3c aad3 09bd 5266 d73d
00000230: 7cee 543d 062d 5a3d 01ee 2cbc e43a bcbd
00000240: e399 383c 441d ee3d 7b16 043f f083 243d
00000250: b73c e63a 51e7 e63b 8535 bc3d 69c1 b9bb
00000260: 4808 89bb ba3b 99bf f10b acbc 3bf3 99bd
00000270: eac6 7ebd 8394 b83d f25a e83d 2c3f 4f3d
00000280: 5734 e1bc 6cf9 1f3d c66f 953d 29f6 3d40
00000290: 18ff d93c d1e5 3d3c 1640 4abd 0015 babc
000002a0: f1c6 a2bd ef44 06c0 4f06 56be bf1e b73c
000002b0: c003 f83b c1c3 653d bec5 6fbe ca2e 70bd
000002c0: e824 c1bc 91d7 0cc0 bdf1 5d3e 5712 e9bd
000002d0: 0fb8 903c e5d8 7abd f0a2 ed3d 4129 d6ba
000002e0: 2d53 2b3d 863b 6c40 f91e 093e 1e5f 1abd
000002f0: 864d 073d 39c0 90bd 1f3c 99ba a0a7 a7bf
00000300: b522 7e3d 702e 223d 1e8a 533c 2724 c63d
00000310: 8e51 bc3d 8404 33bd 9359 76bf 93a4 973d
00000320: b732 6fbd 87de 3abd 366d 6f3d dbb7 7e3d
00000330: 61db 9f3c 9f46 5a3d d9ae 073d ef12 eabc
00000340: 9ca2 3d3c ba20 283d 4f3f 003f fb4d c93d
00000350: 98a2 cc3c f900 a4be aa5c ba3d 8d80 953d
00000360: f872 1c3c 68bc fbbc 234c 033c fe20 363d
00000370: eab7 93bd 591c 85bf 1a1a c9bf b55e 45bd
00000380: b728 8c40 ac1d a9bd 0fc1 49be b28b ad3a
00000390: c3c3 2b3e 4685 1b3d fbf2 4c3d f48f abbf
000003a0: efad b6bf 750e dcbc 5b84 80be 042d a2bf
000003b0: 17bb aa3d 2066 91bd 62ca 00bf 8f53 dfbc
000003c0: 229a 5f3d c1f6 683b 7862 acbc 71c5 8b3d
000003d0: 5f00 aa3d 2056 4fbe c5c7 183c 49e3 39bd
000003e0: 3b8c ae3d 8f2f e8bc 9601 f63c 201b 77bc
000003f0: f963 d33c 0db2 063e 2c74 a7bc f31d 953d

out.bias f4 [4]
1.0896775 1.1570696 1.0548923 1.049166
00000000: 8d7a 8b3f db1a 943f b606 873f 124b 863f
